results/b081_3_2/Dynamic Table/Dynamic Table-5599958.pt (torch, 408327 bytes, 48 tensors)

network_body._body_endoder.seq_layers.0.weight f4 [64, 95]
000000 36 7c 16 be a0 2b 82 3e 10 19 2b 3e 2f 8b 86 bc
       -0.1469582 0.25423908 0.1670878 -0.01642379
000010 4d f4 2b bd be 8b 46 3c ec 67 45 3e f5 54 50 bd
       -0.04198103 0.012118278 0.19277924 -0.05086227
000020 98 e9 6c bc c9 87 b6 3e 0d c7 ad bd a2 0a 44 be
       -0.01445999 0.3565047 -0.084852315 -0.19144681
000030 70 22 9f 3e ce fe 7f be 91 a2 20 bd 6e 42 0f 3e
       0.3108096 -0.24999544 -0.039217535 0.13990185
000040 93 d1 ac bd 21 f9 d0 bd a8 1b a8 3e f0 a9 b6 3c
       -0.084384106 -0.102037676 0.328336 0.02229783
000050 c1 f8 8a be 3f 1f a6 3e 0b 78 c5 3e d3 54 69 bd
       -0.2714291 0.32445714 0.38568148 -0.05696566
000060 8e a9 4d 3e a3 38 92 3d 20 ad 6e 3e 27 54 38 be
       0.20084211 0.07139709 0.2330823 -0.18000852
000070 0d 10 18 bd 79 88 f3 bb c9 08 84 3e 5f ea e8 3c
       -0.037124682 -0.0074320403 0.25787953 0.02843207
000080 61 36 da 3d 78 04 79 3e 1d 06 33 be 98 3a 34 3d
       0.10654903 0.24318111 -0.17482801 0.04400119
000090 84 24 ea bc 2a 3f d5 3d d0 d4 3d be 5c d3 0e bd
       -0.028581865 0.10412438 -0.18538213 -0.034869537
0000a0 61 ed 38 be 28 55 f3 bd c4 51 fd 3d f7 2d bc 3d
       -0.18059303 -0.11881477 0.12369111 0.091884546
0000b0 ae 9c a9 bd 1f bc dc bc be f1 ac bd 13 c3 08 be
       -0.082818374 -0.026945172 -0.08444546 -0.13355665
0000c0 2b e3 80 3c bd 0a 61 3e 2a bc ff bd de 93 d5 3d
       0.015733322 0.21976753 -0.12487061 0.10428594
0000d0 e3 76 2b 3d 58 93 d0 bc a0 93 28 bd a0 bc 7d bd
       0.041861426 -0.025460884 -0.04115641 -0.061947465
0000e0 ed f6 8d bd 82 41 c0 bd 33 28 a1 3d 2c ee 01 3e
       -0.06931863 -0.093874946 0.078689955 0.12688512
0000f0 49 85 3f 3c 75 c0 18 3d f9 fb b4 be 81 b1 58 3e
       0.0116894925 0.037292916 -0.3534849 0.21161462
000100 ac 12 27 3b a7 9c 62 bd e5 7d 65 3e 7d f5 c7 bd
       0.0025493307 -0.055325177 0.22411306 -0.0976362
000110 68 1b 6f bd 46 af ef 3b dc bf c6 3c c6 f3 14 be
       -0.058375746 0.0073145954 0.024261408 -0.14546117
000120 95 0e e7 3d f0 0d 06 bc 72 ca 79 3d a3 c0 7a bc
       0.11282078 -0.008182034 0.060984083 -0.015304717
000130 d3 1b 22 3e 46 40 8f bd 0a 95 31 bd 53 be 65 bd
       0.15830927 -0.06994681 -0.043355025 -0.05608971
000140 a7 39 44 be f8 d8 61 3c d7 dd ee bc cb 1e 29 3e
       -0.19162618 0.01378464 -0.029158516 0.16515653
000150 17 b1 6c bc 75 af b6 3d e6 15 8d be fe 5c 61 3d
       -0.014446518 0.089201845 -0.2755577 0.055020325
000160 92 e3 82 bd 3e 53 93 bd 8c 6a 1b 3d 78 76 72 3c
       -0.06391062 -0.071936116 0.037943408 0.014798753
000170 e7 56 e7 bd 08 d1 cd 3d 92 f0 98 bd 1d a5 d5 3e
       -0.11295872 0.10049635 -0.0746776 0.41727534
000180 56 49 04 3e 5e 6e 4c be 2b 31 fe 3d cb ee 71 3d
       0.129186 -0.19963977 0.12411722 0.05906562
000190 d8 fb 8b bd 1b bb 3f 3e 8d c9 06 39 0a 14 7f be
       -0.06835145 0.18723719 0.0001285432 -0.24909988
0001a0 b4 31 77 3e 27 0b f6 3d 69 e6 43 3d e5 0c 6d 3d
       0.24140054 0.12013846 0.047827158 0.057873625
0001b0 80 ec 5a 3e 4f 53 06 be 89 30 1d be 85 76 7c be
       0.2137928 -0.13117717 -0.15350546 -0.24654587
0001c0 09 ae 7b be 58 6f 76 bd c8 33 6d bd 1d bb 8b bd
       -0.24578108 -0.06016478 -0.05791071 -0.068227984
0001d0 76 33 b6 bd bc 9a fc 3c 9f 1e 65 3e 96 11 29 3b
       -0.08896534 0.030835502 0.22374962 0.0025797836
0001e0 de 70 1b 3e 54 3a f2 bd 3d 20 3e be 65 6e b0 3d
       0.15179774 -0.118275315 -0.18566985 0.08614806
0001f0 5c ab a6 3c 0e 99 6a be 6f 0e 66 be 3d ae c1 be
       0.020345382 -0.22909948 -0.22466443 -0.37828246
000200 54 49 5c be 6a de 91 3e 08 c4 35 3e 26 be b6 be
       -0.21512347 0.2849 0.17750561 -0.35691947
000210 70 be 8a 3d 31 fe 53 3e 63 4f 01 be 11 f9 e6 3c
       0.06774604 0.20702435 -0.1262794 0.028194936
000220 c6 03 22 3d 9a 08 db 3d 85 da 0e be e7 06 dc bd
       0.03955438 0.10695 -0.13950546 -0.10743504
000230 e2 10 06 3d eb 5d 25 bd 0f 04 b0 3d d3 1f 9a bc
       0.032730944 -0.04037277 0.08594524 -0.018814003
000240 ed 45 03 bd 6c e0 b2 3d f8 64 95 3c 12 15 a6 3d
       -0.03204911 0.08734211 0.018236622 0.081094876
000250 72 ff 9a bd fd 0c bb 3d 96 ff 86 bc 15 c0 69 3e
       -0.075682536 0.09133337 -0.016479295 0.2282718
000260 69 6f 46 be cb 43 bd 3d 7a 1f 3a be dc 9f 31 3e
       -0.19378437 0.09241446 -0.1817607 0.17346138
000270 1a 1a 3c be 38 d9 d5 3c 95 c6 86 3d 53 38 42 3d
       -0.18369332 0.026104555 0.06580845 0.047416996
000280 9e ac e8 3d 37 36 a4 bd 67 c9 cd 3c fe 58 7d be
       0.11361049 -0.08018153 0.02512045 -0.24740979
000290 0e 08 37 3e b8 33 13 be 3c bd b3 3e 4c e4 1a be
       0.17874166 -0.14375198 0.35105312 -0.15126151
0002a0 9d d5 95 bd 18 91 92 be 94 dc 84 3e c0 88 ca 3d
       -0.07316134 -0.28626323 0.25949538 0.09889364
0002b0 0a 06 95 bd 1c c2 3a bd 14 ec bc bd 4d 59 9e be
       -0.072765425 -0.045595273 -0.09224716 -0.30927506
0002c0 16 b9 a7 3e 8a 1c 33 3e 41 97 15 3f 73 ab 81 be
       0.32758397 0.17491356 0.5843392 -0.25326118
0002d0 f3 81 d8 bd e8 d6 bb bd 6c b3 d1 bc 9b ee 64 be
       -0.10571661 -0.091718495 -0.02559825 -0.22356646
0002e0 3b f1 90 3e 02 b5 53 be 39 e9 0b be b7 81 c6 3d
       0.28309044 -0.20674518 -0.13663186 0.0969271
0002f0 22 9d 56 be 6e 2e 81 bd 12 a6 89 bd 83 fc d6 be
       -0.20958379 -0.06307684 -0.067211285 -0.41989526
000300 12 d5 8b 3e f7 0b 93 bd af e4 29 be d5 a6 6d bc
       0.27310997 -0.071800165 -0.16591142 -0.014505108
000310 dd 60 d0 bd 35 ac 73 bd f8 61 2a 3e 03 8c af bc
       -0.10174725 -0.0594904 0.16638935 -0.021429067
000320 d5 0d 4b be 3e 8f dc bd bd 57 f1 bd a1 d9 aa 3e
       -0.19829495 -0.10769509 -0.11784313 0.33369163
000330 7f 68 ea bc 08 2c a8 3e c9 c3 cc 3d e2 12 cd bc
       -0.02861428 0.32846093 0.099982806 -0.025033418
000340 5d 57 c4 bc b0 70 7d 3e c4 fe 3e 3e 7d 40 54 3d
       -0.02396744 0.24750018 0.18651873 0.051819313
000350 60 b3 ed 3d bb 47 40 3e 2a 91 5d 3e b5 90 ef bc
       0.11606479 0.18777363 0.21637407 -0.029243806
000360 96 a4 29 3e 09 90 84 3e 14 64 c8 bd 4f 64 79 3e
       0.16566691 0.2589114 -0.097847134 0.24354671
000370 2f c4 1b be 0a 55 51 3b 29 eb aa 3c 8d cd d0 bd
       -0.15211557 0.0031941556 0.020864086 -0.10195456
000380 80 b9 0e 3e 9a 21 a0 bd 49 0e 5b be fb 32 04 be
       0.1393795 -0.07818909 -0.21392168 -0.12910073
000390 a2 ca 4c be b6 78 87 3d 0e 55 6c be 63 3b 89 3b
       -0.19999173 0.06614821 -0.23079321 0.0041879877
0003a0 e7 4e 7f 3c 13 40 6f 3c 98 47 66 be 4b 69 4b bd
       0.015582777 0.014602679 -0.22488248 -0.049660962
0003b0 0b a5 d4 bd 24 17 3f 3d 1b a6 76 3c b1 88 13 3d
       -0.10383042 0.046652928 0.015054251 0.03601903
0003c0 37 e9 87 3d ae b1 da 3d da 63 ad bd da 3f 0e 3d
       0.06636279 0.10678421 -0.08466311 0.034728862
0003d0 ac 34 f2 bb 62 66 5f 3e 37 0b 54 bd 7f 2d d4 3d
       -0.007391533 0.218164 -0.051768508 0.1036024
0003e0 2d fa 21 3c 58 9e 50 3c b1 80 db bd 54 06 24 3e
       0.009886307 0.012733065 -0.10717905 0.16018039
0003f0 79 e4 f6 3d e1 c0 22 3d 65 50 9e 3c d3 64 30 be
       0.120552965 0.039734725 0.019325444 -0.17225961

network_body._body_endoder.seq_layers.0.bias f4 [64]
000000 c2 34 97 3a 9a 13 87 3b f5 28 ed 3c 5f c2 7a bd
       0.0011536109 0.0041222097 0.028950194 -0.061220523
000010 d0 61 01 3d 51 c6 d1 bc 51 ee b4 3c 28 42 05 3d
       0.031587422 -0.02560726 0.022086294 0.032533795
000020 5a 04 25 3d f5 16 2a 3d 59 1b 7e bc b2 56 10 bd
       0.040287353 0.0415258 -0.01550945 -0.03523893
000030 19 65 4d bd 45 aa 0e bd 4c fa 03 3c b3 26 eb 3c
       -0.050145242 -0.03483035 0.008055281 0.028704977
000040 47 7f 2c bb be 15 13 bb b0 fb 99 3c f0 1c 07 bd
       -0.002632098 -0.002244338 0.018796772 -0.03298658
000050 81 ca 83 bd a3 81 29 3d fd 37 e6 3c a7 32 06 bd
       -0.06435109 0.041383397 0.02810287 -0.03276315
000060 c6 7f bf 3c 8f 08 56 3d be 8b 46 bd 1d 3e 8c 3c
       0.023376357 0.052254256 -0.048473112 0.017119462
000070 53 30 96 3b 22 54 17 3d 74 84 5b 3d ab c4 19 3d
       0.0045833974 0.03694547 0.053593114 0.037541073
000080 c0 5c 9f 38 87 53 cf 3c bf 2f b3 3a 81 d1 0f 3d
       7.598987e-05 0.025308384 0.0013670846 0.035111908
000090 c1 20 67 bc 34 37 17 3c bc c7 d5 3c 8b ee 9e bd
       -0.01410693 0.00922947 0.026096217 -0.07760342
0000a0 48 32 4d 3d 0d ee 67 3c 42 34 98 bc 2d 15 f5 3c
       0.05009678 0.014155877 -0.018579606 0.029917324
0000b0 53 fb 8e 39 1f 0b f6 3c f8 fb dd 3c 16 07 b4 3b
       0.00027271602 0.0300346 0.027097687 0.005494009
0000c0 47 24 03 3b 74 ad 64 3d 3d 3c c2 3b c5 2b b1 bb
       0.0020010637 0.05582948 0.005927591 -0.005406829
0000d0 32 67 4d 3c e6 d1 65 bc 21 bb 5c bc 31 0b 19 3d
       0.012536811 -0.0140270945 -0.013472349 0.03736419
0000e0 81 dc 19 3d 82 31 7c 3d 3f d8 a0 3a b3 17 33 3c
       0.037563805 0.06157065 0.0012271478 0.010930943
0000f0 32 f9 74 3c ce 7b 72 bc ab 80 03 3c 51 dd 89 bb
       0.014951991 -0.014800025 0.008026282 -0.004207291

network_body._body_endoder.seq_layers.2.weight f4 [64, 64]
000000 d9 89 22 3e 74 06 bb bd d4 de b3 3d c0 b0 52 3d
       0.15872897 -0.0913209 0.087827355 0.051438093
000010 4d c8 c1 be db 39 31 be b3 82 b4 bd 6f 38 b0 3d
       -0.3784813 -0.17307226 -0.088139914 0.08604514
000020 d5 be 1f 3e ee 14 b9 3c 29 31 e5 be 77 87 57 3d
       0.1560014 0.022592988 -0.4476407 0.052619424
000030 df 5c 9b bc 8b 40 f7 3d a9 e1 42 3e dc 3d 11 be
       -0.018965183 0.120728575 0.19031395 -0.14183754
000040 d2 2f ae bc 39 16 eb bc b2 b4 54 3e 48 8d 9a bd
       -0.021263037 -0.02869712 0.20772055 -0.075464785
000050 fe b6 ab bd d3 89 79 be d8 24 bb bd 19 3f 70 be
       -0.08384512 -0.24368982 -0.09137887 -0.2346157
000060 53 86 50 3e 08 b2 95 3c 73 ac ad 3e b3 b7 a2 bd
       0.2036374 0.018273368 0.3392063 -0.07945194
000070 e5 77 16 be f0 29 39 3d 4b 2a 78 be 07 d9 ad be
       -0.14694174 0.04520601 -0.24234883 -0.3395464
000080 76 32 92 3c 39 8e 13 3e 40 e4 ba be 6a f0 89 3d
       0.017846327 0.14409722 -0.36502266 0.067353085
000090 18 8b 70 3e 33 cc bc be dc 6a d4 bd 26 97 96 bd
       0.2349056 -0.36874542 -0.10371944 -0.07353048
0000a0 8d b3 0b 3d 2e ec 55 be 14 c7 82 3d 48 9b e7 bd
       0.03410678 -0.20890877 0.063856274 -0.113089144
0000b0 56 61 42 be 7d 5c de 3d cf be b4 bd ff 66 0b 3d
       -0.18982443 0.108574845 -0.08825456 0.03403377
0000c0 d9 f0 b2 bd aa 23 d8 be 7d 71 cf be bf f7 92 3c
       -0.08737344 -0.4221471 -0.40516272 0.0179404
0000d0 3f 0c 1f 3e e8 4a 70 3d d8 e7 55 bd 98 86 98 be
       0.15532015 0.058665186 -0.052223057 -0.29790187
0000e0 5b 1c 92 be 6e c0 85 3e 78 92 f0 bd ae 86 2d 3d
       -0.28537259 0.26123375 -0.11746687 0.04236477
0000f0 3a af ae 3d f6 01 4b 3e 76 fb dd bd ed 0a c3 bb
       0.085295156 0.19824967 -0.10838978 -0.00595223
000100 63 ee 0c 3d 34 2b cb be 39 bc 10 be 3c 3e 1b be
       0.03440703 -0.396814 -0.14134301 -0.1516046
000110 45 24 6a 3e de c3 35 3d a6 f2 89 bd 9e a5 fe 3c
       0.22865398 0.044376247 -0.06735735 0.031084832
000120 9e fe 50 3e ba 75 10 bd a3 57 71 be 0b b6 9a be
       0.20409629 -0.035268523 -0.23568587 -0.30217013
000130 42 39 27 bc 80 95 7c be 46 5d 96 3c 93 c7 c4 3d
       -0.010206522 -0.24666405 0.018355023 0.09608378
000140 70 21 d8 bc b4 e6 a0 bd 8b 3b 1e 3e 21 2b 27 3e
       -0.026383132 -0.07856503 0.15452401 0.16325046
000150 e7 a7 92 3e 09 96 b3 3d eb fa 43 bd df 5c 3f be
       0.28643724 0.08768851 -0.047846716 -0.18687771
000160 6e f3 20 be b7 17 f2 3d f2 9d 8a be dd ed e0 3c
       -0.15717861 0.118209295 -0.27073628 0.027457172
000170 d6 fa a3 3d 99 cb 8b 3d 98 2e b7 be a7 7a 23 bb
       0.080068275 0.068259425 -0.35777736 -0.0024944933
000180 96 c8 82 be d9 64 16 be f9 ec 3d 3e 6b 0f 80 bd
       -0.2554366 -0.14686908 0.18547429 -0.06252941
000190 bd 33 92 bc 21 bf 64 bd f7 b8 1d 3e c0 94 30 3e
       -0.017846936 -0.055846337 0.1540259 0.17244244
0001a0 84 3b a1 bd 51 c3 8a bd d8 f8 27 3e c5 e8 51 ba
       -0.0787268 -0.06775535 0.1640352 -0.00080074026
0001b0 b2 89 85 bc 56 85 b8 bd 00 9e 40 be da 46 81 3e
       -0.01630101 -0.09009807 -0.18810272 0.25249368
0001c0 05 df 29 be 32 27 90 be 09 ed e6 bd 14 c5 4f bb
       -0.16588981 -0.28154904 -0.112756796 -0.003170316
0001d0 08 12 d3 3e 4b db 85 3e 24 03 9e 3d d9 ef ed 3c
       0.41224694 0.2614387 0.07715443 0.029045032
0001e0 f7 ac 44 3d 75 78 9c 3d ee ec 97 be ec c3 57 3e
       0.048016515 0.07640163 -0.2967295 0.21070832
0001f0 95 48 8b 3e bb e7 7c 3e 22 cb 28 3e 9d b8 49 bd
       0.27203813 0.24697773 0.16483739 -0.049248327
000200 10 da 80 bd c4 69 2a be 49 15 38 bd 61 30 c2 3d
       -0.06291592 -0.16641909 -0.044942174 0.09481884
000210 b4 b0 4a 3e c4 48 81 be 12 38 e9 3d 1c d3 8d 3e
       0.1979397 -0.25250828 0.11387648 0.27700126
000220 d8 e2 74 3e f7 9c 03 be f6 91 3e 3e c6 88 4e bd
       0.23914659 -0.12852846 0.18610367 -0.050423406
000230 fd ba 48 be 7f c4 3a 3c 59 08 84 be 3e a9 95 3e
       -0.1960258 0.011399387 -0.2578762 0.29230684
000240 6c 5f 23 3d 54 5c aa bd 56 8d b7 3d 1a 19 65 be
       0.039885923 -0.083183914 0.089625046 -0.22372857
000250 96 62 06 be 47 6e ae bd 57 85 26 bd 28 e3 20 be
       -0.13123545 -0.085171275 -0.040654507 -0.15711653
000260 14 8d 53 bd b5 f1 22 bf 79 c7 1a bd ff 68 c6 3c
       -0.051648214 -0.63650066 -0.03778789 0.024219988
000270 ff cc 95 bd b2 3d 7a be cf 8a 08 3e 46 5d fc bd
       -0.073144905 -0.24437597 0.13334201 -0.12322478
000280 c9 14 44 be 53 4f a1 be 5d b5 c1 bd 23 18 8e be
       -0.19148554 -0.31505832 -0.094584204 -0.2775279
000290 a2 ab 86 bd a6 d2 8e bd 0a c6 b4 3d 72 15 a3 be
       -0.06575705 -0.06973772 0.088268355 -0.318523
0002a0 01 2c 14 3e 93 0e 63 3e 74 6a 6b 3e 09 60 d6 bd
       0.14469911 0.22173528 0.22989827 -0.10467536
0002b0 cd cc c4 be e0 c7 a0 3e 37 fc 13 3e a0 91 cc bd
       -0.384375 0.31402493 0.14451681 -0.09988713
0002c0 fc 7d 47 be da 47 83 3e 48 fa 20 be 31 80 0a 3e
       -0.19481653 0.25640756 -0.15720475 0.13525464
0002d0 5a 81 30 bd 08 c2 ed bd 70 79 d7 3d d2 21 4a bd
       -0.04309211 -0.11609274 0.10521209 -0.04934866
0002e0 b6 9f 1b be 3e 9e 88 be c9 ad c7 be c7 ee 9a 3d
       -0.15197644 -0.2668323 -0.38999775 0.075650744
0002f0 29 14 96 3e ed 57 2e 3e b4 6f 84 bd 8f cf 29 be
       0.29312256 0.17025729 -0.06466618 -0.16583084
000300 7c dc 17 3d 25 85 30 3e 8a 46 af bd 01 99 3f bd
       0.037075505 0.1723829 -0.08558376 -0.046776775
000310 30 dd 6c bc fd f2 0b be 4d 2e 30 3e 4c 05 ff be
       -0.014457032 -0.13666911 0.17205162 -0.4980873
000320 b4 1d cf 3c fe 29 00 3e ef 31 7a be 97 a6 1c 3e
       0.025282718 0.12516019 -0.2443311 0.15297924
000330 4d 9e b8 bd 8f 7d a8 3b 14 0a f0 3d 64 04 8f 3d
       -0.090145685 0.005141921 0.11720672 0.06983259
000340 c0 16 46 be fa f6 d3 bc 37 0c ed bd cf 72 ad bd
       -0.19344616 -0.025874604 -0.115745954 -0.084691636
000350 1a 4b eb bd 9f 9a 5c be 6c 10 a2 3c 17 5b 41 be
       -0.11488934 -0.21543358 0.019783221 -0.18882404
000360 be 47 f0 3d 62 f4 18 3e 07 bd 08 be ca cc 97 bd
       0.11732434 0.14936975 -0.13353358 -0.07412107
000370 14 4f a3 bc d2 27 89 3e c9 61 a0 3e 30 08 d1 3e
       -0.019935168 0.26788193 0.31324604 0.4082656
000380 9e 2e bf 3c ad 2b c6 3e d6 81 17 3e 5e 64 db be
       0.023337658 0.38705197 0.14795622 -0.42850012
000390 ff ed 3b bc bc f5 3d be f2 f3 f9 bd 80 da d7 3c
       -0.011470317 -0.18550771 -0.12204732 0.026349306
0003a0 40 78 f4 3d fd 38 b2 be 0b c7 8c bd ee 21 0b 3e
       0.11936998 -0.34809104 -0.06873902 0.13587162
0003b0 62 20 09 3e 0c ec 23 be 4c f6 0a 3e 6c a1 e2 bd
       0.1339126 -0.16008013 0.13570517 -0.11065945
0003c0 60 3d 87 3b 4c 8a f9 3d 20 44 8e 3d 88 c8 63 3b
       0.0041271895 0.12184581 0.069465876 0.0034756977
0003d0 cf 66 84 3e 00 cd b2 3d 64 d9 03 3e fb e3 8f bd
       0.25859687 0.08730507 0.12875897 -0.07025906
0003e0 18 0d ae bc 39 41 ac 3e 41 9e 84 bd bc 27 27 3e
       -0.021246478 0.3364351 -0.06475497 0.16323751
0003f0 e0 49 3e 3e ff d8 95 bd 4f bd 0e bc 93 e1 90 be
       0.18582869 -0.07316779 -0.008712127 -0.282971

network_body._body_endoder.seq_layers.2.bias f4 [64]
000000 d9 a5 f3 bb 86 8d 10 3d 7a bd 1d 3c 72 52 8d 3c
       -0.007435542 0.035291217 0.009627694 0.017251227
000010 7e a8 32 bc b0 6f eb 3c 20 bb 7d 3c 92 2f a8 3c
       -0.0109044295 0.02873978 0.015486509 0.020530496
000020 52 98 cc 3c 56 ee 71 3c 21 79 c8 3c fd 8c 18 3d
       0.024974976 0.014766296 0.024471821 0.037243832
000030 eb 67 2d bc a1 47 f4 bc d8 c0 d0 bd 0a f7 b3 bc
       -0.010583858 -0.029819312 -0.10193032 -0.021968383
000040 81 fa 9a bb 06 15 03 3d 17 04 62 3d e3 8b 1f bc
       -0.0047295694 0.03200247 0.05517968 -0.009737941
000050 fa d5 31 3c d0 de 88 3d 39 3c af bc bd d1 bb 3d
       0.010854239 0.06683123 -0.021391021 0.09170864
000060 e8 10 2b bd 78 7d 11 3d db b1 40 bd ce 97 7d 3d
       -0.04176417 0.035520047 -0.047044616 0.06191235
000070 7f 51 28 bd 00 8a 55 3d 6d 81 8c bc 45 f2 c8 3b
       -0.041093346 0.05213356 -0.017151559 0.0061323964
000080 00 3d 7a 3d d2 9c 3a 3b c2 45 0a bc b6 94 30 3d
       0.06109333 0.002847482 -0.008439483 0.04311057
000090 9f a6 bb bc e7 6e a2 bb c1 0f c0 3c 54 6c 73 bd
       -0.0229066 -0.0049570682 0.023445012 -0.05942948
0000a0 68 ee 4b 3d 39 45 50 bc 5a 5c 15 bd 08 94 22 3d
       0.04978791 -0.0127118165 -0.036465026 0.039691955
0000b0 47 f0 17 3d 18 01 62 bd c3 ec 0d 3d 9d 01 28 bd
       0.03709438 -0.055176824 0.03464962 -0.041017164
0000c0 ed 22 99 bd 9d 47 23 3d 55 36 21 bd 86 30 8e 3c
       -0.07477365 0.039863218 -0.039358456 0.017357122
0000d0 1d ac c1 3d cc 86 8e 3b 37 de 26 3d 3d 82 8a bb
       0.09456656 0.004349565 0.040739264 -0.0042269514
0000e0 02 b4 f1 bc 28 34 bc 3b 7e a3 7f 3d 67 d0 dc bc
       -0.02950478 0.005743522 0.062411778 -0.026954843
0000f0 84 c1 3d 3d 3f ee 72 3d 33 6d b8 3d 1a cb 58 bc
       0.04632713 0.05930924 0.09005203 -0.013232017

network_body._body_endoder.seq_layers.4.weight f4 [64, 64]
000000 28 70 93 be 6a f7 70 3e ad 95 c8 be 36 bf 3c 3e
       -0.28796506 0.23531881 -0.39176694 0.18432316
000010 7d cf 10 3e 92 c9 55 3e 1a 51 2b be 07 e9 0e bd
       0.1414165 0.20877674 -0.16730157 -0.0348902
000020 8b 5d 09 3e 66 0f 7f 3e d1 e2 73 3e 2a 69 dc 3d
       0.1341459 0.24908218 0.23816992 0.10762246
000030 38 a0 7e be c7 3c c3 be 6d 67 aa 3b 4c 5d 0f bd
       -0.24865806 -0.38132307 0.0052003176 -0.035001084
000040 5d 77 1a bb f4 44 47 3c 1d c6 83 be d3 0c 3d be
       -0.0023569681 0.012162436 -0.25737086 -0.18461923
000050 08 3f bb 3b a6 6e e2 be d3 24 c8 3d 71 02 9f be
       0.005714301 -0.44225043 0.09772649 -0.3105655
000060 99 3e ff 3d 02 3f e7 3c 88 40 1f bd 10 6b 3c 3e
       0.124631114 0.028228287 -0.0388799 0.18400216
000070 3b b6 7a bd a2 1c d2 3c e7 f4 12 bd 2b 11 a7 3e
       -0.061208945 0.025648419 -0.03587809 0.32630286
000080 46 ee 8c bd cd 34 9b 3d 57 2e 9e 3c d0 06 10 3e
       -0.068813846 0.0757843 0.019309206 0.14065099
000090 c0 d3 e9 be 28 25 9d be a8 3d 03 be 8e bc 88 be
       -0.45669365 -0.3069241 -0.12816489 -0.26706356
0000a0 26 c2 52 3e 14 e6 79 bd 87 36 83 3e 5a d7 b5 bb
       0.20581874 -0.061010435 0.2562754 -0.0055493535
0000b0 6f 51 fb bd cd 68 3a 3d 02 ba 86 bd 65 07 93 bb
       -0.122713916 0.045510102 -0.06578447 -0.0044869655
0000c0 1e e7 f0 3d 49 2a 33 3e f3 f6 0f 3e a1 b8 70 be
       0.11762832 0.174966 0.14059047 -0.2350793
0000d0 0d ee 8b 3d a4 19 47 be 0b 32 9e 3e b2 42 60 be
       0.06832514 -0.19443375 0.30897555 -0.21900442
0000e0 4b 9a 48 3e ae 85 f4 be 40 af b9 bd 94 82 44 be
       0.19590108 -0.4775824 -0.090666294 -0.19190437
0000f0 f0 af d0 3b f6 55 16 3f 93 74 27 3e 54 c2 6c 3e
       0.0063686296 0.58724916 0.16353063 0.23121005
000100 09 b3 3d 3e fc 4f 6d 3d 18 6d 46 be 29 0c 8d bd
       0.18525328 0.057937607 -0.19377553 -0.06887085
000110 22 87 a7 3e b5 dc 8a bd e5 86 fe bd 26 06 06 bd
       0.32720286 -0.06780378 -0.12428073 -0.032720707
000120 0b 9c 40 be 14 f3 03 3e a9 bd 72 be 31 13 2d 3e
       -0.18809526 0.12885696 -0.23705162 0.16901852
000130 18 5f 4a be 48 22 be be 73 4a ae 3e 52 59 0d 3e
       -0.19762838 -0.3713553 0.34041175 0.13803604
000140 11 aa 75 be 51 d4 3b 3e 17 2b 53 be ce e8 53 be
       -0.23990656 0.18342711 -0.20621906 -0.20694277
000150 4d a0 a6 be d7 78 30 3e c8 e6 2f 3e 09 54 6f 3c
       -0.32544175 0.17233597 0.1717788 0.014607438
000160 d8 2b ae 3d b9 c6 49 3c 10 c4 af be b0 8a e0 bd
       0.08504456 0.012315446 -0.3432927 -0.109639525
000170 79 52 0e be 22 35 70 bd 02 9d b2 3d 3c f8 3e 3d
       -0.13898648 -0.05864442 0.08721353 0.046623453
000180 a1 b9 ab bd 50 3a de bd b3 91 f9 bd 58 c4 52 3e
       -0.08385015 -0.10850966 -0.12185993 0.20582712
000190 7c 06 34 3d bd af 46 be d6 a7 49 be d4 0e 19 be
       0.043951496 -0.19402976 -0.1969293 -0.14947063
0001a0 b3 1a 3c be 9a 14 f0 bd 29 7e 8d bc 04 f5 cb bd
       -0.1836956 -0.117226794 -0.017272072 -0.099588424
0001b0 50 9a 5c 3d 8c 03 12 3e dd 38 38 3d a8 de fa 3b
       0.0538581 0.14259166 0.044976104 0.007655937
0001c0 40 97 25 bd 66 68 f7 3c ca 04 85 be 72 3f df 3d
       -0.040427446 0.030201148 -0.25980216 0.10900773
0001d0 9a b4 ad 3e 33 e4 a4 3e de 0d 44 3e f1 d3 44 3e
       0.3392685 0.32205352 0.19145915 0.19221474
0001e0 85 30 25 3e a4 56 c7 bd 84 46 54 be 5d e4 2e be
       0.1613179 -0.09733322 -0.20730025 -0.17079301
0001f0 8f e3 33 3e 4f 8d bc 3d d9 cb 88 bd cd e9 42 3d
       0.17567275 0.0920664 -0.06679506 0.04758625
000200 1e 1a ac bd 1f 10 37 3e d3 44 91 bd ff b6 5e 3d
       -0.08403419 0.17877243 -0.07093205 0.054373737
000210 19 6f 89 be 64 a8 01 be 41 a0 b9 3c 68 2a 70 be
       -0.26842573 -0.12661892 0.022659423 -0.23453677
000220 92 23 42 3e e3 0e 85 be 8b 40 37 3d e9 c1 df 3d
       0.18958881 -0.2598792 0.044739287 0.10925657
000230 7a 4d c0 3d 91 86 f5 3d d9 d3 35 3d e7 2c ca 3e
       0.093897775 0.11988557 0.044391487 0.39487383
000240 dc ef 41 be df ef 80 be 7e 55 68 3c c3 c6 ba 3d
       -0.18939155 -0.25183007 0.014180539 0.09119942
000250 9e 71 0a be 1e e4 9b be 1f 72 8a 3b b2 35 a3 3d
       -0.13519904 -0.30447477 0.00422503 0.07969226
000260 9b af 50 3e 78 26 e3 3d b7 1b 33 3e f9 26 cd 3c
       0.20379488 0.11091322 0.17491041 0.025042998
000270 80 c1 a5 3d a3 b2 c9 bc 31 6b fd bd 7e 02 85 3d
       0.08093548 -0.024621313 -0.12373961 0.06494616
000280 23 a4 04 3d 83 c0 21 be f6 35 19 3e 87 97 ea 3b
       0.032383095 -0.15796094 0.1496199 0.0071591767
000290 92 9c d1 3d 90 54 3d 3d 96 25 0e be c9 58 d2 be
       0.102349415 0.046223223 -0.13881525 -0.41083363
0002a0 2a 3f 14 bf bb c2 c6 bd fb e8 ac bd b6 0a 24 bf
       -0.5790888 -0.09705111 -0.08442875 -0.64078844
0002b0 b1 43 33 bd df 60 ac 3e f4 f5 13 3e 7d 36 27 3b
       -0.043765727 0.33667657 0.14449292 0.0025514655
0002c0 19 f4 42 be db 24 8a 3d cc c3 4a bd d5 6a 12 3e
       -0.19038428 0.06745311 -0.049503133 0.14298566
0002d0 34 34 5f 3d e7 ec 61 3d 58 88 51 be 93 5d 8b bc
       0.054493144 0.05515757 -0.20462167 -0.017012393
0002e0 89 88 ca 3d 2f ca b1 3d 04 ff 64 bd 4b a8 18 be
       0.09889323 0.086811416 -0.055907264 -0.14907949
0002f0 c5 1a 0d 3e de 00 2e be db 1d 43 bc d5 b4 0b bd
       0.13779743 -0.16992518 -0.011908974 -0.034108
000300 07 5c 8e bd 93 3a c0 be d4 b3 11 3e 81 b7 06 3e
       -0.069511466 -0.3754469 0.14228755 0.13155939
000310 c6 40 9e bc 3e 22 a1 3d 07 7b dc bc e0 75 2f bd
       -0.019317996 0.07867859 -0.026914133 -0.042837024
000320 4c 27 60 3e 40 f3 6b be ca 49 65 be bd cc ee 3d
       0.2188999 -0.23042011 -0.2239143 0.116601445
000330 43 40 b3 bd e0 e0 b7 bb 47 11 a9 be 51 93 31 3e
       -0.08752491 -0.005611524 -0.33020994 0.17341353
000340 1c 0e 93 be 75 c2 b9 bd 15 ef 53 3c cb 39 e6 be
       -0.28721702 -0.09070293 0.01293542 -0.44965968
000350 1a 22 15 3e 6c 23 4d 3e 84 32 d3 bd f1 ef 72 3e
       0.1456379 0.20033044 -0.103123695 0.23724343
000360 a1 ac fe 3d bd 92 d7 3d 66 bc ae be f8 c5 aa be
       0.1243527 0.10526035 -0.34128112 -0.33354163
000370 82 c6 03 be b9 a8 be be 64 e5 2e be 2a ff 0d 3e
       -0.12868693 -0.372381 -0.17079693 0.13866869
000380 74 45 ea ba 05 ac d5 bc 1f fa 22 3e 05 39 15 3e
       -0.0017873482 -0.026083002 0.15915726 0.14572532
000390 42 35 59 3e b6 b8 62 be a6 d6 c3 3d 1b 55 2d be
       0.21211722 -0.22140774 0.09562425 -0.16926996
0003a0 1e 7e 11 3d da 2a 0f 3e b3 84 ee bd a7 56 21 bd
       0.035520665 0.1398119 -0.11646404 -0.03938928
0003b0 fc d4 1a be ab 26 85 bd f6 3b 5c 3e a3 79 cd bd
       -0.1512031 -0.06501516 0.21507248 -0.10032966
0003c0 c9 86 d4 be 37 17 0c 3d d9 83 e0 be 85 70 5c be
       -0.41509083 0.034201827 -0.43850592 -0.21527298
0003d0 03 ca 87 be bf 95 9e be 33 29 b0 be bc d4 41 3e
       -0.2652131 -0.30973622 -0.34406433 0.18928808
0003e0 2a af c6 bc d2 31 f6 bd 20 61 29 be 2d 88 43 be
       -0.024253447 -0.12021221 -0.16540956 -0.19094916
0003f0 6e c8 8d 3e cf 1b d7 be a1 36 89 3e f0 5b c7 bd
       0.27691978 -0.42013404 0.2679949 -0.097343326

network_body._body_endoder.seq_layers.4.bias f4 [64]
000000 ee 54 30 3d 6c 6c 10 3d 9b 55 44 3d 0f 02 35 3e
       0.043049745 0.03525965 0.047933202 0.17676567
000010 aa 12 0c be 0f cc 1a 3d ce 49 d8 3d 99 44 87 3d
       -0.13678995 0.03779226 0.10560952 0.06604881
000020 f4 94 a3 bd 27 9c 37 3d 04 9f 62 bd 5f 7a 1e 3d
       -0.07987395 0.044826653 -0.05532743 0.03869092
000030 91 c4 81 3d 72 7a 06 3c 48 c1 35 3c 94 eb bc bb
       0.0633632 0.008207904 0.011093445 -0.005765388
000040 78 54 9b bc bd e9 41 3d 9a 27 ba bd 79 d2 0b bd
       -0.018961176 0.04734205 -0.09089585 -0.03413627
000050 02 29 0b 3d 48 ee 13 bd f4 83 25 3d 28 65 53 bd
       0.033974655 -0.036115915 0.040409043 -0.051610142
000060 00 7b 98 bd 74 0a 94 bd 82 e0 5f 3d 04 4e 12 3e
       -0.074453354 -0.07228556 0.054657467 0.14287573
000070 33 d2 b8 3d bd 32 72 3d 63 13 6d 3b 2c e4 04 3e
       0.09024467 0.05913042 0.0036174885 0.12977666
000080 6b ee 63 3b 17 1a ec 3c b0 eb b2 3d 6a 99 3a bd
       0.003477956 0.028821034 0.0873636 -0.045556463
000090 95 5c 55 3d 11 e1 e7 3d be 4a 20 bd 3d 63 12 3d
       0.052090246 0.11322225 -0.03913378 0.035739172
0000a0 55 8e e9 bc 91 43 ca 3d 44 17 9f 3b 0e 89 c1 3d
       -0.028510252 0.098761685 0.0048550684 0.09449969
0000b0 9a 43 b7 3c bb 20 b5 3d cb 9c 44 3d 3b 28 42 3d
       0.022371102 0.088441335 0.048001092 0.047401648
0000c0 ca 08 85 3d c6 73 32 3e 77 a4 99 3d b2 2f 7a 3d
       0.06495817 0.17426977 0.07502072 0.061080642
0000d0 48 04 d8 3c 26 50 ed 3d 09 b5 cb 3d dc 93 81 3c
       0.026369229 0.11587553 0.09946639 0.015817575
0000e0 63 a9 85 3d b2 ad 2a 3d 36 ac f2 ba bb a8 a6 3c
       0.065264486 0.041669555 -0.0018514458 0.020344129
0000f0 4f 58 e0 bd dc ea de bd 53 c3 22 3e 46 00 29 3e
       -0.109543435 -0.108846396 0.15894823 0.1650401

action_model._continuous_distribution.log_sigma f4 [1, 44]
000000 a6 4b 4a 3f ca 91 86 3f 3d 43 21 3f df e8 64 3f
       0.7902168 1.0513241 0.6299322 0.89417833
000010 c0 d3 7f 3f 33 bd 2d 3f f6 2e 7d 3f cc d6 63 3f
       0.9993248 0.6786682 0.9889978 0.8899963
000020 20 08 31 3f 7a ea 23 3f 70 8a 46 3f 2d a6 48 3f
       0.6915302 0.6402966 0.7755499 0.78378564
000030 5c b8 77 3f 95 b9 69 3f a6 e1 8d 3f 41 a0 53 3f
       0.96765685 0.912988 1.1084487 0.82666403
000040 0d 54 40 3f af 11 47 3f 7b e0 18 3f 00 b4 eb 3e
       0.7512825 0.7776136 0.5971753 0.46035767
000050 7a dd 69 3f 6b 95 47 3f 29 ba 3a 3f d8 5b 42 3f
       0.9135357 0.7796237 0.7294031 0.7592139
000060 27 03 13 3f bd 36 ca 3e 12 f7 04 3f bb 30 19 3f
       0.57426685 0.39494887 0.519395 0.5983998
000070 a2 ac 0a 3f bd 68 45 3f 12 fc 35 3f ae 1a 7c 3f
       0.54169667 0.7711294 0.71087754 0.9847821
000080 46 e0 1e 3f e6 16 3d 3f 6b 93 1e 3f 2a d1 5e 3f
       0.62060964 0.73863065 0.6194369 0.8703791
000090 94 31 79 3f b7 a9 46 3f d3 02 49 3f e5 21 7a 3f
       0.97341275 0.77602714 0.78519934 0.9770797
0000a0 68 ab fc 3e 99 1e 0c 3f e1 c5 9a 3f 7c ab ab 3f
       0.49349523 0.5473419 1.2091638 1.3411708

action_model._continuous_distribution.mu.weight f4 [44, 64]
000000 46 3a 84 bd 71 71 0d 3e fa a3 52 3e 2f 86 24 be
       -0.06456427 0.13812806 0.20570365 -0.16066812
000010 8a 32 a2 3d e7 f0 70 bd 6b fb fb 3d b6 7a 43 bd
       0.07919796 -0.058823492 0.123038135 -0.04772445
000020 ad c2 f9 bd c9 27 e3 3d 66 e1 83 bd b7 f2 e5 3d
       -0.121953346 0.11091573 -0.06439476 0.11227935
000030 46 bf 82 bd 1b a3 a9 3c 06 08 10 bd 7f c8 90 bd
       -0.06384139 0.020707658 -0.0351639 -0.070694916
000040 d7 99 57 bd e0 03 29 3d 3a 70 1d bd aa 69 0b 3e
       -0.052636947 0.04126346 -0.038437106 0.13614526
000050 15 c1 18 3e 1d 6a 44 bd a7 14 7a bd b0 87 5c bd
       0.14917405 -0.04795276 -0.06105485 -0.05384034
000060 8f 1e 91 bd ec 68 a3 3c f6 c3 88 3d 5f da e8 3d
       -0.07085907 0.019947492 0.066780016 0.11369776
000070 ca b7 a3 bd fa 37 33 bd 57 a3 32 bd 0a 5b 17 3d
       -0.07994039 -0.043754555 -0.043612804 0.036952056
000080 27 e4 e6 bb 5a 9c 01 3e cc ab 0c be 7c cc 0a 3d
       -0.007046241 0.126573 -0.1373741 0.033886418
000090 d3 67 0f be eb 12 55 3d 6f 35 83 3e c6 1d 97 b9
       -0.1400445 0.052019995 0.25626704 -0.00028823147
0000a0 8d 17 db 3d 33 cb e2 bd 86 b2 2d 3d 6e b2 ce 3d
       0.10697851 -0.110739134 0.04240658 0.100926265
0000b0 af fc 38 3e 8e 1d c2 3c 3d 9f 38 be d6 d1 39 be
       0.18065141 0.023695733 -0.18029495 -0.18146452
0000c0 c0 30 b9 3c c7 db 97 bd a4 ed e0 3d 87 cb 2b be
       0.022606254 -0.07414966 0.10982826 -0.16776858
0000d0 e7 3e e1 bd 16 4d 92 b9 f3 58 d4 bb c9 f0 84 bd
       -0.10998326 -0.00027904724 -0.00648033 -0.064912386
0000e0 ae 6a cb 3d 89 b5 46 3b 72 50 45 be 80 2c 21 3d
       0.09932457 0.0030320606 -0.19268969 0.03934908
0000f0 29 65 a2 3d 0d d5 11 3e 8a 81 22 be fc c4 b8 3d
       0.07929451 0.14241429 -0.15869728 0.09021947
000100 3d 1e 18 3e 95 ba e0 bd 33 59 34 3d 90 5d d3 bd
       0.14855285 -0.10973088 0.04403038 -0.1032058
000110 12 e0 08 bd d8 5f 34 3b 75 14 1c 3c a1 a4 e0 3d
       -0.033416815 0.0027522948 0.009526362 0.109689005
000120 d3 12 3a be 5a fc 64 3d 52 50 2d 3e bf 90 cc 3d
       -0.18171243 0.055904724 0.16925171 0.099885456
000130 60 68 e9 bd dc 27 83 be 19 45 c1 bd 1a a0 50 3e
       -0.11396861 -0.25616348 -0.094370075 0.20373574
000140 b5 1c ae 3c 10 5f b4 3d 19 e5 8f 3d ba 02 ac bc
       0.021253923 0.08807194 0.07026119 -0.020997394
000150 51 a6 b6 3c 69 90 a0 3c 40 77 fe bd 0b 89 90 3d
       0.022296103 0.01960011 -0.12425089 0.07057389
000160 17 42 1c 3e 70 62 95 3b 50 d0 30 3e 70 df d7 bd
       0.15259586 0.004558854 0.17266965 -0.10540664
000170 58 2b 3d 3e c6 96 82 be 2e c2 03 bc a7 13 1f be
       0.18473566 -0.25505656 -0.0080419015 -0.1553484
000180 ae 4c 33 3e dd ed c1 3d fa 2f a4 3c f4 40 7b 3d
       0.1750972 0.09469197 0.020042408 0.06134124
000190 13 3f 52 3c 3f d3 5d 3e 67 b2 b4 bc d6 c4 97 3d
       0.012832421 0.21662615 -0.022057725 0.0741059
0001a0 a7 d0 1c 3d cb 0e 38 be c1 23 e5 3d 13 b7 d8 bd
       0.038284924 -0.17974393 0.1118846 -0.10581794
0001b0 58 6d 3b 3c 7e 52 d5 bb f4 02 ca 3d 7e bf 45 3c
       0.011439644 -0.006510078 0.098638445 0.012069581
0001c0 53 b5 11 3e e0 51 20 be 2d 5b 89 3d 6b 2c 63 3c
       0.14229326 -0.15656233 0.067068435 0.013865571
0001d0 e8 d4 0c be cd 6f 30 3b 83 93 6b 3d 2b 2a 21 bc
       -0.13753092 0.0026922107 0.057513725 -0.009836714
0001e0 72 19 d5 3b c2 9c 90 3d 9a 13 70 bc 6f fd 82 bd
       0.0065032775 0.07061149 -0.014653111 -0.06395995
0001f0 94 fa c0 bd c9 5f 81 bd 78 3e 82 bd 6e 48 9a 3c
       -0.09422794 -0.06317098 -0.06359571 0.018833365
000200 7b f5 47 3e 4c 5b 63 3d c4 d9 42 3d 27 61 02 3e
       0.19527237 0.05550699 0.04757096 0.12732373
000210 e5 da 27 be 83 1a bf 3d ef 00 01 3e 34 52 38 3d
       -0.16392095 0.093312286 0.12598012 0.04500027
000220 61 6d 27 be 72 7d 0c 3e 3f ec 1e be 0c f6 37 3c
       -0.16350318 0.13719729 -0.15519808 0.011228096
000230 1e db 6f bd a6 ad c8 bd e5 05 40 be bd 18 08 3d
       -0.058558576 -0.09798746 -0.18752249 0.033226717
000240 ee a0 66 3d 0a e9 3c bc 60 1c 7e 3d 8b 99 8c 3d
       0.05630582 -0.01153017 0.06203878 0.068652235
000250 8b 12 27 bd f2 8f af 3d 03 a0 e7 bd 05 84 96 3d
       -0.04078917 0.08572377 -0.11309817 0.073493995
000260 e7 83 09 be 13 b7 81 bd 9a 6c 61 3d db cd f9 bd
       -0.13429223 -0.06333747 0.05503521 -0.12197467
000270 48 b2 c5 bd c1 4f ba 3c 73 ac ad 3b 42 8d 97 3d
       -0.09653145 0.022743108 0.0053000986 0.0739999
000280 36 d9 94 3d 86 ce b9 3d 4e 87 92 3e 01 1b 37 3b
       0.07267992 0.09072594 0.28618854 0.002793968
000290 26 69 77 bd 94 9b 06 be 22 11 80 3d 89 eb cc 3d
       -0.06040301 -0.13145286 0.06253268 0.10005862
0002a0 af 3c e4 bd 65 2b 68 bc 6a 0b 9f bd 2e a9 90 3d
       -0.11144387 -0.014170502 -0.07765849 0.070635185
0002b0 42 9e e5 bc f2 26 f4 bd 77 1d 82 3c f5 c1 9b bd
       -0.028029565 -0.11921491 0.01588319 -0.07605354
0002c0 4b 95 f2 3d 49 80 a9 bd 93 a6 30 3e db d2 b9 bd
       0.118448816 -0.082764216 0.17251043 -0.090734206
0002d0 04 c4 7c bd de b1 73 3d 11 d5 f2 3a 34 0a 19 be
       -0.061710373 0.0594958 0.0018526634 -0.14945298
0002e0 b2 78 ef 3d 18 20 17 bc 20 e3 c6 bd 56 3e e8 bc
       0.11692943 -0.00922396 -0.097112894 -0.028350037
0002f0 3c 78 29 3e ab 6b 46 3e 0c e3 29 be cb 07 15 be
       0.16549772 0.1937701 -0.16590518 -0.14553754
000300 05 f4 4a 3e 23 96 2b 3e 39 b8 90 3d a2 7d 33 3e
       0.19819649 0.16756491 0.07066388 0.17528394
000310 b3 5a 0c bd e7 2c 87 3d 38 23 17 3e 76 17 a6 3c
       -0.034266185 0.06600361 0.14759529 0.020274859
000320 36 29 3f be 1c 91 df 3d a1 20 89 3d 54 82 94 3d
       -0.18668064 0.10916349 0.066956766 0.072514206
000330 7f 12 58 3e fc 43 69 3e dc e7 ce 3c 7b 0b a3 3d
       0.21100806 0.2277984 0.025257044 0.07961174
000340 0b 0d 38 3e 9a f4 a1 bd 25 df 0a 3e d8 16 13 3e
       0.17973725 -0.07907982 0.13561685 0.14364183
000350 7b 17 a5 bd d1 b2 9a 3e 20 e5 67 3d d4 77 1b 3e
       -0.08061119 0.3021455 0.056614995 0.1518243
000360 1c 66 5e 3e db cb e4 3d 5d 0a 4d 3e a5 0d 46 3d
       0.21718639 0.11171695 0.20023485 0.048352856
000370 e0 d0 55 3e 78 7a 8a 3c ab 5d 3b be 5f 39 d5 3d
       0.2088046 0.0169041 -0.1829745 0.10411333
000380 a9 03 5f 3d c3 85 5a 3d 45 d1 4f bd 40 4b 0d be
       0.05444685 0.05335022 -0.050736684 -0.13798237
000390 d5 17 ae 3d 97 00 d2 3d 7b c0 e3 bd c3 e8 1a 3d
       0.08500639 0.10254019 -0.11120697 0.037819635
0003a0 c5 40 1d bd 78 cc 96 bd 1a af 95 ba ab 4d 6a 3d
       -0.038391847 -0.07363218 -0.0011419982 0.057202976
0003b0 51 d0 83 bd cf 09 87 be f3 61 70 be b7 dd 19 3c
       -0.064362176 -0.2637467 -0.23474865 0.00939124
0003c0 4e 77 a7 3d a1 4b 70 3d 36 10 91 3e 81 8f 9d bd
       0.081770524 0.058665875 0.2833268 -0.07693387
0003d0 6c 5e 44 be 1a 61 cd 3d 90 23 01 3e d8 0c c6 3d
       -0.19176644 0.10028286 0.12611222 0.096704185
0003e0 ec c2 dd 3d 19 f6 3f 3e b5 92 8f bd ea 23 1e 3c
       0.10828194 0.18746223 -0.07010404 0.009652117
0003f0 16 8a 06 bd d1 25 76 bd f3 c4 ec 3d 1f e6 2a be
       -0.032846533 -0.06009466 0.115610026 -0.16689347

action_model._continuous_distribution.mu.bias f4 [44]
000000 be 69 78 3d 60 e8 79 bc bc 55 6a 3d b5 b9 28 3e
       0.06064772 -0.015253156 0.05721067 0.16477092
000010 c3 a9 84 bd 5d 1b 47 3c 33 80 1a bd 93 b0 13 3c
       -0.06477692 0.01215252 -0.037719917 0.009014267
000020 89 49 2a 3d 21 21 30 3d 5c 2d ad bc 31 1a df bc
       0.041574035 0.043000344 -0.021139793 -0.027234169
000030 ed 9d 4e bc fb be c8 3d 89 ff 2d bd 05 d0 20 bd
       -0.012610895 0.09802052 -0.042480025 -0.039260883
000040 e2 9c fb bd 47 5c 39 be ed d9 7b bd 4f 5a 21 bd
       -0.122857824 -0.18101607 -0.061487127 -0.039392766
000050 93 15 eb bd 4b 9a f9 bd 7f 1e 17 bd 51 20 d0 bd
       -0.11478724 -0.12187632 -0.036894318 -0.10162414
000060 d6 b5 55 be 68 93 3b be 2b 04 87 be c9 cf bd bd
       -0.20870146 -0.1831795 -0.26370367 -0.092681475
000070 78 2c d2 bb 69 a5 38 3d 45 b3 cf bc 05 d0 03 be
       -0.0064139925 0.045079622 -0.025354037 -0.12872322
000080 4e 10 db bd 27 d3 af bd 16 2b 60 bc 53 78 a5 bc
       -0.10696469 -0.08585196 -0.0136821475 -0.020198977
000090 87 56 58 3c db 0e 9c 3d 3c cc 41 3d 1a 6f 07 3e
       0.0132042235 0.07620021 0.047313914 0.13225976
0000a0 54 2d 93 3d e2 5b cb 3d cd 4c d8 bd 4b d0 e2 3c
       0.0718638 0.09929635 -0.105615236 0.027687212

exp_avg f4 [64, 95]
000000 e1 86 b2 b7 69 ea 7d b7 26 32 81 b7 b5 d4 97 b7
       -2.1282061e-05 -1.5134553e-05 -1.540135e-05 -1.8099652e-05
000010 ec 93 0a b8 81 52 80 38 7e 84 e7 37 a8 70 f6 37
       -3.3039527e-05 6.118883e-05 2.7599042e-05 2.9377945e-05
000020 a7 77 a3 37 13 bd a2 37 7c cd f7 36 fe e6 63 b8
       1.9486832e-05 1.939995e-05 7.385095e-06 -5.4336146e-05
000030 f1 ef 9c 36 7b 1b 05 38 2c d2 a4 37 94 b0 9a 36
       4.677095e-06 3.1735264e-05 1.9648192e-05 4.610114e-06
000040 65 8c 1d b6 15 f5 cd 36 39 65 ae 35 91 67 24 38
       -2.3476543e-06 6.1380074e-06 1.299347e-06 3.91971e-05
000050 70 59 2b 38 f2 f3 8e 37 e6 f4 1c 37 b2 33 28 b8
       4.0852872e-05 1.7041315e-05 9.355344e-06 -4.0102466e-05
000060 54 46 34 b7 63 d7 b4 37 a8 c0 ab b7 46 ce a7 b7
       -1.0745211e-05 2.155797e-05 -2.0474501e-05 -2.0004005e-05
000070 e6 8b 67 b7 98 25 a4 b6 53 e9 a5 b7 91 7b 69 b7
       -1.3801246e-05 -4.8919574e-06 -1.9778183e-05 -1.3916652e-05
000080 f6 7a 35 b7 7e d7 9f b7 c5 65 db 37 6d 49 d4 37
       -1.081707e-05 -1.9054623e-05 2.6154225e-05 2.5306561e-05
000090 fa d2 b1 36 75 3f ba 37 73 02 29 35 dc a7 bf 37
       5.299572e-06 2.2202477e-05 6.296097e-07 2.284714e-05
0000a0 7b dd 0c 37 ac 6e e7 37 e3 96 48 36 cb 7d c1 37
       8.396218e-06 2.7588881e-05 2.989015e-06 2.306597e-05
0000b0 87 92 9a 38 1d ea 13 b9 77 29 14 b9 e2 6f ab 37
       7.370585e-05 -0.00014106226 -0.00014129827 2.0436888e-05
0000c0 d6 c7 36 b8 11 81 df b7 8b 44 67 b9 79 3e 22 b9
       -4.3578293e-05 -2.6643773e-05 -0.00022055411 -0.00015472797
0000d0 68 fb 54 37 bb 08 2a 35 6e 1e 23 b7 b5 99 82 b7
       1.269472e-05 6.334264e-07 -9.722642e-06 -1.5568783e-05
0000e0 f9 9e 97 b7 e0 cf da b7 1c eb 1f b8 fa 70 c1 b7
       -1.807463e-05 -2.6084424e-05 -3.8127517e-05 -2.3060002e-05
0000f0 19 8e 7b b8 f8 2b 32 b8 e9 13 b6 b7 8b 91 88 37
       -5.9975402e-05 -4.2479456e-05 -2.1705362e-05 1.6280237e-05
000100 78 fb 54 36 d1 b4 f7 b5 82 38 70 b6 ef 07 2a 34
       3.1736836e-06 -1.8455559e-06 -3.5795679e-06 1.583537e-07
000110 b4 7c 47 b7 f3 ef d8 36 73 1e 23 b6 d7 15 1d 36
       -1.1890359e-05 6.4652354e-06 -2.4306617e-06 2.3407536e-06
000120 30 4a 02 b7 c0 99 82 b6 bc b1 2b 35 b1 7f cb b6
       -7.765877e-06 -3.8922008e-06 6.39611e-07 -6.0647367e-06
000130 db 9e 97 b6 8f 3d 28 36 1d 14 05 b7 b5 cf da b6
       -4.518644e-06 2.5069783e-06 -7.932101e-06 -6.5210866e-06
000140 05 96 58 35 38 1c d1 b6 2b eb 1f b7 9e c1 89 36
       8.068458e-07 -6.2319705e-06 -9.531893e-06 4.105458e-06
000150 8d e5 1f b7 08 71 c1 b6 bc 2f 3e 36 aa 90 0a b7
       -9.530585e-06 -5.765007e-06 2.8339991e-06 -8.259123e-06
000160 16 8e 7b b7 87 2c e3 36 00 9b 4c b7 fd 2b 32 b7
       -1.4993848e-05 6.770311e-06 -1.2195436e-05 -1.0619869e-05
000170 87 2c e3 36 00 9b 4c b7 0e 2c 32 b7 ec 5a 32 38
       6.770311e-06 -1.2195436e-05 -1.0619884e-05 4.2523185e-05
000180 27 a4 7c 38 13 d3 3e 38 35 d1 81 b8 bf e7 e7 38
       6.023436e-05 4.549611e-05 -6.190167e-05 0.000110581044
000190 18 37 12 39 d7 ce 75 38 db 08 3a 38 24 46 f2 b6
       0.00013944169 5.8605186e-05 4.4354103e-05 -7.2203275e-06
0001a0 4a f0 6a 38 3c b3 d6 36 21 8b 14 b9 6d f4 6e 38
       5.6013734e-05 6.3985626e-06 -0.0001416621 5.697126e-05
0001b0 6f 81 bf 38 dc c3 a0 b7 9f a2 2d 38 18 69 51 38
       9.1316986e-05 -1.916469e-05 4.1397867e-05 4.992736e-05
0001c0 e9 ad 78 38 9c a4 2e 38 b6 12 31 38 65 db 2d b8
       5.9289774e-05 4.1638137e-05 4.2217514e-05 -4.145074e-05
0001d0 ca 1a d6 38 d3 aa 23 b7 16 17 88 b6 97 d8 08 38
       0.00010209305 -9.75533e-06 -4.0558034e-06 3.262664e-05
0001e0 5f c2 12 38 b7 8f 20 38 8a ae 8f 38 52 e9 22 37
       3.4990135e-05 3.8280818e-05 6.851282e-05 9.710277e-06
0001f0 99 61 d2 37 27 a1 3a b7 91 c0 99 b7 76 1e be b6
       2.5079398e-05 -1.1123985e-05 -1.8328692e-05 -5.6659874e-06
000200 fd a2 02 b8 0e 85 09 38 d2 7d 57 38 92 1d 27 37
       -3.114621e-05 3.2787262e-05 5.1377174e-05 9.960861e-06
000210 6e fa 50 b8 1d 67 c6 b7 76 16 14 b8 ee c9 dd b8
       -4.9824295e-05 -2.3651455e-05 -3.5306868e-05 -0.000105757135
000220 71 ed 8a b7 e4 12 95 b7 c3 68 85 37 9a c9 63 b9
       -1.656145e-05 -1.777098e-05 1.5903619e-05 -0.0002172351
000230 34 d1 81 39 ce ce 5c ba 66 99 46 b9 fd e7 be 39
       0.00024760666 -0.000842315 -0.00018939897 0.0003641247
000240 88 88 f1 b9 31 ad 80 3a 85 f7 31 38 22 12 3c 39
       -0.00046068826 0.000981724 4.243061e-05 0.00017935832
000250 fe ef 41 39 45 e1 51 39 77 d8 41 39 b0 32 4a 39
       0.00018495318 0.00020015713 0.00018486554 0.00019283104
000260 11 65 b1 38 c1 e6 44 39 62 5d ca 38 f3 c4 87 38
       8.458843e-05 0.00018777979 9.6495045e-05 6.473986e-05
000270 ed af a0 38 34 3e 88 37 b6 d2 f4 37 24 12 3c 38
       7.662163e-05 1.6241429e-05 2.9185187e-05 4.4839588e-05
000280 fd 42 21 36 44 74 34 38 08 f0 41 38 25 2f c3 b6
       2.4029862e-06 4.3023625e-05 4.6238332e-05 -5.816941e-06
000290 5a ee 56 38 3e e1 51 38 c8 57 5b 37 81 b2 07 38
       5.1243558e-05 5.0039256e-05 1.3073855e-05 3.2352753e-05
0002a0 7c d8 41 38 f3 2e 0b b7 31 54 61 38 c4 32 4a 38
       4.6216403e-05 -8.295977e-06 5.372259e-05 4.8207832e-05
0002b0 18 b1 32 38 c7 75 3d 36 29 65 b1 37 87 65 d6 36
       4.260344e-05 2.823175e-06 2.114715e-05 6.3895163e-06
0002c0 c3 bb 23 38 b0 e6 44 38 93 fd 38 37 10 49 10 38
       3.9037095e-05 4.6944886e-05 1.10262945e-05 3.440032e-05
0002d0 58 5d ca 37 86 bc 25 38 6f 5f c6 36 0c c5 87 37
       2.4123743e-05 3.951464e-05 5.9119698e-06 1.6185011e-05
0002e0 ce d4 33 38 45 3a 2b 36 dc af a0 37 ce d4 33 38
       4.2875115e-05 2.5514903e-06 1.9155377e-05 4.2875115e-05
0002f0 45 3a 2b 36 dc af a0 37 c0 8a 55 b9 dc 6b c7 b8
       2.5514903e-06 1.9155377e-05 -0.00020364951 -9.50915e-05
000300 b3 69 4c b9 b5 6e b6 38 70 14 09 b9 dc 4b 1f 37
       -0.00019494332 8.699057e-05 -0.00013072952 9.494801e-06
000310 73 e5 22 38 81 b8 da b8 3f 2a 26 b9 15 3b df b7
       3.88375e-05 -0.000104294166 -0.00015846732 -2.6611184e-05
000320 9c 80 1f b8 9e 6d 8f b8 0d 69 b9 b7 f6 0e 59 b9
       -3.802833e-05 -6.839189e-05 -2.2102637e-05 -0.00020700306
000330 82 46 8d b8 24 ad d7 b8 7a 3e 20 37 ed 6b 01 38
       -6.736537e-05 -0.00010284249 9.55129e-06 3.085651e-05
000340 4f 00 5c 38 00 0b 41 38 fd 26 26 b8 66 bc ab 38
       5.2452375e-05 4.602503e-05 -3.9613795e-05 8.189007e-05
000350 f5 15 81 b8 d3 00 44 b9 0e 38 b8 37 3b ae eb b8
       -6.155289e-05 -0.00018692324 2.1960612e-05 -0.00011238126
000360 52 ce 8e b9 67 2a 38 b9 ce 2e ed b8 2f a4 9f b8
       -0.0002723807 -0.00017563404 -0.00011309759 -7.6122924e-05
000370 59 30 a3 b8 28 eb 98 b9 94 82 82 b8 e4 ed df b7
       -7.781451e-05 -0.00029166904 -6.223205e-05 -2.6694448e-05
000380 ff 6e 64 b8 1f 30 50 b9 66 0b 01 38 29 48 a2 37
       -5.446281e-05 -0.00019854352 3.0766612e-05 1.9345507e-05
000390 5a 3e 30 b8 3e 0a 83 b8 e0 f6 09 37 73 88 97 b8
       -4.201974e-05 -6.2484745e-05 8.223316e-06 -7.225657e-05
0003a0 68 ca 91 b8 a2 ae c6 b8 4a 9f b5 b7 b3 d4 55 ba
       -6.95184e-05 -9.4739036e-05 -2.1651056e-05 -0.0008157
0003b0 a1 37 94 3a 35 77 e8 b8 db a2 83 ba 03 5c 21 3a
       0.0011308083 -0.00011084826 -0.0010043042 0.00061553734
0003c0 f6 84 4c bb d1 0d 90 b9 3c fd 69 b9 40 8a 83 b9
       -0.003120718 -0.00027476114 -0.00022314949 -0.0002508927
0003d0 09 ff ce b9 3f a2 a6 b9 3a 02 f1 b9 01 82 eb b9
       -0.00039481398 -0.0003178287 -0.0004596876 -0.00044919553
0003e0 64 3a 93 b9 9b c8 97 b9 41 19 79 b9 fd fc 92 b9
       -0.0002808153 -0.00028950427 -0.00023755898 -0.0002803578
0003f0 7e 48 b0 b8 7c 5e 2d b8 4c fd 69 b8 ff 70 cc b8
       -8.405837e-05 -4.133441e-05 -5.578743e-05 -9.748525e-05
