results/checkpoints/b074_size8_ConfigLRate(0.001)/Dynamic Table/Dynamic Table-6499994.onnx (onnx, 46212 bytes, 7 tensors)

network_body._body_endoder.seq_layers.0.weight f4 [64, 52]
00000000: 5f83 533d 64b4 cd3d d07f 53be 2b87 28be
00000010: 4154 c8be eda4 30be 33f5 82be 0f80 a8be
00000020: 62a1 be3d a05c a63d 4191 3e3e 46cf a63d
00000030: 6ac7 903e 9150 a63c 7d95 003c a703 2dbe
00000040: bdea 89bc b9be ce3e aa9b f03d 8f20 7a3e
00000050: 3ee1 13be be41 fabd 7806 cb3d 3c0d 22be
00000060: 3849 2c3e 48b3 363e f00a 353e c6f2 6e3b
00000070: b188 f8bd 36d9 4bbe b180 883e cbfe c73c
00000080: 52cd 743e 9ba9 17be 9838 123d 2644 a1bd
00000090: c02c 9fbe 8ee4 cfbb b8db 853d 95ac a83e
000000a0: 16ab ae3e 6819 0e3f a398 7e3e d25e a93e
000000b0: 9c51 5e3c a5e6 f2bd 9c6f 48be 852e a7bd
000000c0: 6839 f8bd 0d90 353e 2a8a a7bd a027 afbe
000000d0: 1c15 ce3b 013c f8be 7f6e 58be 2d34 ebbe
000000e0: 98e8 be3b 4a91 54bc f9ec 203e c30c 3c3e
000000f0: 3a51 adbe d61c 1ebe 31a0 673d e480 1cbe
00000100: 88e0 b43c d5aa 953c 04b1 a53d 336c ddbc
00000110: ae6f 8bbd aa56 653e 34b7 563e ad0f 29be
00000120: b7e5 4bbd dac8 d9bd 9f22 913d 57b6 c23e
00000130: 053d 44bb 2ecc 253e ccdc f93d 470e 073e
00000140: b8d1 de3d d473 18be d170 e3be b2dd 7abe
00000150: 95e3 3ebe 5f61 b83e 2e67 5c3e a2d8 a5be
00000160: b105 963e 9037 0abe 3e45 15be 59ef bd3d
00000170: 49ab 4fbe 44e8 a7bc 7f16 453d 557b b13b
00000180: 4e47 91bd c7c6 d8bd a74b 83be 9e35 b63c
00000190: 3029 29bd 97a5 863d d00b 463e 6c43 8bbc
000001a0: bfc5 67bd e8fe 4d3d 8dc9 26be f17a c3bd
000001b0: 87a8 6d3c 4768 f5bd 9f27 323e 7b39 eabd
000001c0: fdef 323d c980 703c febc 1dbd 348f 0f3f
000001d0: 1b5d 193e 0696 cbbc 2cbc c5bd 373a 66be
000001e0: b451 30be 6cf0 19bd 2eed d43e e41f 2ebd
000001f0: 3003 363e 3b06 173d 055a febb 4d71 cc3d
00000200: 14b2 90be 0f9b 083c 51da 713e 2e5c 003f
00000210: 8227 e73d aaaa df3e 3e9c b3bd 8e0b 6b3d
00000220: 387f febd 17b9 023e fc85 813d dc30 9ebd
00000230: 2111 453c 841b d03d aa58 973e 4b90 b23d
00000240: 0942 e83e d21a b0be 01b6 aabd 5d9a 5f3e
00000250: ce62 693c ec0f 273b c23e 603d 8fda 9e3d
00000260: 4f34 54be f785 5cbc 3014 593d 6c59 853d
00000270: 8f3b 3ebd cbb9 28be e394 aebd 57dd 66be
00000280: 0276 04be c39e 2fbe 28fb f4bd aed4 96bd
00000290: 0844 dabc 2fa6 1c3f 48a1 473e 1f26 edbd
000002a0: 49c8 84bc 10bb 9c3e 3407 cabd d059 0fbe
000002b0: e9d2 423e adc6 9b3e 8689 d1be 3986 d83d
000002c0: db23 94bd a60c 5d3e fec0 9b3b a668 6b3c
000002d0: e61f 223e a65e 633d 23f9 83bd b48b 983e
000002e0: 6296 093d 4df9 3bbd 0cbf 26be 14cf d03d
000002f0: 1185 b03d 41d3 17be 6a94 263d a18d 0dbe
00000300: 13c7 483e cac8 6dbd 1558 fe3d b02f 903e
00000310: 60c2 833d 8590 4cbe 7aff 0c3e 489f 02be
00000320: c244 263e 3acf ec3d 5952 973c 0e42 23be
00000330: 3e4e a9bd 246a 62bc d1c2 35bd 8af7 b1bd
00000340: aacb c93d 19e3 053d 02fd e93d 074e 923e
00000350: 5ca0 7b3d 0352 d83d 7f34 17bd ff32 323c
00000360: fd85 e83d ecc4 a83d 11a2 0f3c c1ba ecbe
00000370: f5d4 a13e d45a 4a3d f9c1 afbd 8dce 9f3e
00000380: e206 ce3e 4960 933e 2567 cd3d ae1a 90be
00000390: 747c 8e3e 759f 0c3e 3609 4b3e 267a 0cbd
000003a0: 4cf7 98bd f817 3dbe 5c14 06be 1adb afbe
000003b0: 4ca2 653e bc7c 383d 8f4a 4e3e d2bd 983e
000003c0: 45d4 953e 7d26 0bbf 4e8e 17bf 4235 e3be
000003d0: ca8f 973d 9612 483e e8bf 58be 9e01 55be
000003e0: 3ed2 753e 09da 533d 710e a43e b180 083d
000003f0: 98a4 6b3b 2416 50be f32a 19be d397 dd3d
0.051638957 0.100441724 -0.20654225 -0.16457812 -0.3912678 -0.17250414 -0.25577697 -0.329102
0.09308125 0.081231356 0.18610097 0.08145003 0.2827714 0.020302089 0.007848141 -0.16895925
-0.016835565 0.40379885 0.117484406 0.24426483 -0.14441392 -0.122195706 0.09913343 -0.15825361
0.16824806 0.17841828 0.17679954 0.0036460622 -0.12135447 -0.19907078 0.26660684 0.024413487
0.23906448 -0.14810793 0.035698503 -0.078743264 -0.3108883 -0.0063443845 0.06536049 0.3294417
0.34114903 0.55507517 0.24862914 0.33080155 0.013569262 -0.11860398 -0.19573826 -0.0816317
-0.121203244 0.17730732 -0.081806496 -0.3420992 0.0062891375 -0.4848328 -0.21135901 -0.45938244
0.005826067 -0.012974093 0.15715398 0.18364243 -0.33851033 -0.15440688 0.056549255 -0.15283543
0.022079721 0.018269936 0.08090404 -0.027029132 -0.068084106 0.22396341 0.20968324 -0.16509886
-0.04977962 -0.106340125 0.070866816 0.3802974 -0.0029943597 0.1619117 0.12200317 0.1318904
0.108798444 -0.14887935 -0.4442201 -0.24498633 -0.18641503 0.36011788 0.21523735 -0.3239184
0.29301217 -0.13497758 -0.14577195 0.092741676 -0.20280184 -0.020496495 0.048117157 0.0054163137
-0.070936784 -0.10584789 -0.25643656 0.022242364 -0.041299045 0.065745525 0.19340444 -0.016999923
-0.05658507 0.050291926 -0.16287823 -0.095449336 0.014505512 -0.1198278 0.17397927 -0.11436745
0.043685902 0.014679142 -0.038510315 0.56077886 0.14976923 -0.02485181 -0.096550316 -0.22483145
-0.17218667 -0.0375828 0.41587204 -0.042510882 0.17774653 0.036871176 -0.007762196 0.09982548
-0.28260863 0.00833775 0.23618437 0.50140655 0.112868324 0.43684894 -0.08770035 0.057384066
-0.12426609 0.12765919 0.063243836 -0.07724163 0.01202801 0.10161498 0.29559833 0.08718928
0.4536288 -0.34395462 -0.08335496 0.21836229 0.014244748 0.0025491668 0.05474735 0.077565305
-0.20723079 -0.013459674 0.052997768 0.065111965 -0.04644352 -0.16477124 -0.08524492 -0.22545372
-0.12935641 -0.17150407 -0.11961967 -0.07364784 -0.026643768 0.61191076 0.19495118 -0.11579537
-0.016208785 0.30611467 -0.09864655 -0.13999104 0.19025768 0.30425015 -0.40925235 0.10572476
-0.072334014 0.21586856 0.004753231 0.014368212 0.15832481 0.055510186 -0.064440034 0.29794085
0.03359068 -0.04589205 -0.16283816 0.10195747 0.086191304 -0.1482668 0.040668882 -0.13823558
0.19607191 -0.058052815 0.12419144 0.28161383 0.064335585 -0.19977005 0.13769332 -0.12756073
0.16237167 0.11562963 0.018471884 -0.15943167 -0.08266877 -0.013819251 -0.044375245 -0.086897925
0.09853299 0.03268728 0.114252105 0.28575155 0.061432227 0.105625175 -0.0369153 0.010876416
0.11353681 0.08240685 0.008766667 -0.46236232 0.31607786 0.049403027 -0.08581919 0.31212273
0.40239626 0.28784397 0.10029439 -0.28145355 0.27829325 0.13732703 0.19827732 -0.034296177
-0.07469043 -0.18466175 -0.13093704 -0.3434685 0.22425193 0.04504083 0.2014563 0.2983232
0.2926351 -0.54355603 -0.59201515 -0.4437657 0.074004725 0.1953834 -0.21166956 -0.20801398
0.24005982 0.051721606 0.32042268 0.033325855 0.003595626 -0.20320946 -0.1495779 0.10819974

network_body._body_endoder.seq_layers.0.bias f4 [64]
00000000: 39a2 b2bc 8e65 bebd 31ae 413c 429e d7bc
00000010: 2ebe 473d 67e7 5abd cde9 e63c c539 223e
00000020: 93e5 24bc ead5 00bd 8cfd 373d 6578 0fbc
00000030: 17da 47bd b2a2 8dbc 55f6 a3bb 4cd6 f43c
00000040: 8236 2c3d 8ff4 003d 5e61 b4bc 0814 ebbc
00000050: d45e a6bd 63e4 5ebd 4b18 6abd d171 673d
00000060: 9c1d 2bbc 53dd d13b 0112 f63c a9c6 433d
00000070: 8325 00bd 2a2d 8d3c d456 b83c d011 0a3d
00000080: aea4 7a3c 621b 4fbd 32c2 f33b 537d e53c
00000090: 9457 1e3d fd18 50bd cc5d 45bd cc91 b63b
000000a0: 0da6 df3c 058b 5b3d 13b0 15be 64fc 223c
000000b0: 07ec 1bba eff4 64bd 8957 5dbd da6f c9bd
000000c0: 601a a4bc c1d2 ecbc 7685 a8bd 5750 043d
000000d0: 3cb8 a5bd d28b 243d a1ad c5bb 2332 8abd
000000e0: fa54 0dbd 705f 2a3d fbd6 d8bd a07b 14bd
000000f0: 1ba8 4ebd f92e 53b8 5ba5 35bd 4977 56bd
-0.02180587 -0.09296714 0.011821316 -0.02632058 0.048765354 -0.05344334 0.028187657 0.1584235
-0.0100645 -0.031454004 0.044919536 -0.008756732 -0.04879197 -0.017289493 -0.0050037303 0.029887341
0.04204417 0.03148323 -0.022019085 -0.028696075 -0.08123556 -0.054417025 -0.057152074 0.05650503
-0.010444071 0.0064045577 0.030037882 0.04779688 -0.031285774 0.01723345 0.02250234 0.033708394
0.015298052 -0.050563224 0.0074389214 0.02801386 0.03865774 -0.05080508 -0.048185155 0.0055715796
0.027300859 0.053599376 -0.14617948 0.00994787 -0.00059479516 -0.05589765 -0.05403856 -0.09835787
-0.020032108 -0.028909089 -0.08228581 0.03230318 -0.080917805 0.040172406 -0.006032661 -0.06747844
-0.034504868 0.041594923 -0.10587879 -0.03625071 -0.050453287 -5.0350067e-05 -0.04434715 -0.052359853

network_body._body_endoder.seq_layers.2.weight f4 [64, 64]
00000000: d72e 87bd 9625 403e 20de 9c3e f5ac bfbd
00000010: 12c5 a2be 9cf9 70bb 93e2 213d ccb3 583e
00000020: 50d0 493c 15f2 2dbe 12bb 28be 2d49 053e
00000030: 69fe cbbe 8d52 943c 8abe 8ebd 6cd2 20bd
00000040: e962 f13d 4f9a 6ebd 2551 32bd 5e76 a9bc
00000050: 5643 d0bc cdfb 0abc a1bc e33c 9313 eabc
00000060: e380 053e 82fd d1bd 4a20 c03d ef39 7ebd
00000070: effb 1a3d b0ba c7bd d217 92be a9db 35be
00000080: 3fa8 11bb 1d17 703d d1d5 1c3d 8d31 99bd
00000090: c917 83bd 341f 1a3e d749 503e 139e 97bd
000000a0: 12e1 adbe 9016 723e ddca a23d a073 eb3d
000000b0: f7fc 04be b9d0 bcbe 7283 133d 5bf3 41bd
000000c0: d578 fe3c 18b3 58bc 3bc1 bb39 d7e4 893c
000000d0: f254 b63d 80c8 97be b4f3 d3be eb7e 8dbd
000000e0: 92c7 763e 8f77 e4bd 1deb 903e b24b ddbd
000000f0: c446 93bd 9c91 32bd 3e76 70be cbff b6bd
00000100: d355 8d3e 22f9 71be 7ccc 22bd 2f89 bcbc
00000110: 8a3c 413e 3d52 8abd 4fe8 9abd 2648 833e
00000120: c85b c9bd 16fe 533e 6517 12bc 1df6 81be
00000130: 1083 3dbe 247a fdbd 4350 f33d 661a 163c
00000140: 12e4 b63e b00e 1b3e 94a1 783d 3cfd 1d3d
00000150: eab2 78bd 3ec3 3c3d fe73 683e f3cf a7be
00000160: 1673 bbbd f494 8fbd c819 793b 576b 3bbe
00000170: 933d 84be a080 af3b 6c69 b9bc 5283 4abe
00000180: 148b 893c 7b56 25bd 09c0 413e 0336 53be
00000190: 2336 38be cded c53d 1c11 a63d ba8e 67bd
000001a0: 672e 8dbd 07e0 0dbe b5e4 81bd d27e 58be
000001b0: 160a 6c3e 5832 c13d eb3b 043d 3643 adbe
000001c0: ec7a a2be dfc9 8d3e 9806 eabc 2ba5 3fbe
000001d0: 33c1 ce3d d2e6 5c3e a07e 8abe 981e 763e
000001e0: bcd8 be3d a240 9fbd b39e c3be e5df f73d
000001f0: 9e1c 1f3d 1ef7 ee3c 1d67 90be 886c debd
00000200: 13fd 7a3c f4ca 97bd 34c9 7c3e 565e 493e
00000210: 5ebe 27be a6ac c5be ebd7 eebc df00 22be
00000220: f875 223e 0585 0bbe 2df4 d03d 551f 2f3c
00000230: 52f0 883d b9b6 9a3e 2b5e 6fbd 6f17 9a3e
00000240: b2e4 00bd b454 e7bd de0e 11be bad2 a23e
00000250: 435f d13d 76d4 723d 1744 443d b9ef 8f3d
00000260: 04c6 e7bc 5f13 19bd ea1a 26bd e8a1 093e
00000270: be3f 97be 8c62 c33d 5a57 f0be e0aa 8cbd
00000280: b6ad 743e a946 5dbc 0d76 eb3e 79d0 9e3b
00000290: 7ff3 993d a8aa 8f3e b68c 1cbe 3d72 d9b8
000002a0: 6c01 25be aed6 5dbd 2133 973d 90d7 52bd
000002b0: 3b4a d23c 6136 423d d2c9 54bc cfbd 0b3e
000002c0: 178c 03be 2318 c3bd fdb1 fa3d 3b90 c5bd
000002d0: bae6 38be 0330 56bc 5429 85be 48ef f0bc
000002e0: ae2d b9bb ca78 9dbc 2153 d93d f348 2b3e
000002f0: 8a13 dd3c cfda 7f3e 7b05 903c 0188 c5bc
00000300: f432 1abe 5543 2d3d 07f2 4dbe d076 963c
00000310: 1cba 2abe d8a5 1b3d 45c1 aabd a413 c6be
00000320: 2893 ca3d 8e76 0cbe 292b 5e3e f278 103d
00000330: c2ab 813e 2f7b 57be 5eb4 833d 709a 02bd
00000340: 040e a73e 3d40 2abc 185b 22be fff8 38be
00000350: 864a b53e ea79 953d dc2f 17bd 0503 503d
00000360: 491e b3be cdd4 ca3c 0666 10bd d17f bcbe
00000370: 6813 893d 0872 b03c f3a2 2d3d 8ad0 9d3d
00000380: b7b5 00be 92a2 1dbd 4638 9ebd e049 ffbd
00000390: ecff 2fbe ae87 c23d dede e23d eb55 043c
000003a0: 240c d0bd 1b47 8e3e 650b 483d f572 bebe
000003b0: faf4 a33c 03d4 983e 828d 3fbd 8820 db3d
000003c0: 8105 bc3d 1a61 67be 2ac8 d1bd 13c4 f337
000003d0: 8d6c 3abc fdc3 973e 9efc 073e 7a37 9fbd
000003e0: d1bb 2e3e e90d 3abe b8bd 84bd c1e4 febd
000003f0: 243d efbd e8b5 8e3d 038c 84bd 9c99 9c3c
-0.06600731 0.18764338 0.30638218 -0.09359161 -0.31790978 -0.0036769873 0.03952272 0.21162337
0.012317732 -0.16986878 -0.16477612 0.13016196 -0.39842537 0.01810577 -0.06969936 -0.039263174
0.11786444 -0.05825263 -0.043534417 -0.020686325 -0.025422733 -0.008482886 0.027799906 -0.028573787
0.13037448 -0.10253431 0.09381159 -0.06206697 0.03783792 -0.09752405 -0.28533798 -0.17759575
-0.0022225527 0.058615793 0.03828985 -0.07480154 -0.06401021 0.15050966 0.20340668 -0.07403197
-0.33960778 0.2364142 0.07948849 0.11496663 -0.12987123 -0.36877993 0.036014028 -0.047351222
0.031063477 -0.013226293 0.00035811387 0.016832752 0.08902921 -0.29645157 -0.41396868 -0.06908973
0.24099568 -0.111556165 0.28304377 -0.10805453 -0.07191232 -0.043595895 -0.23482606 -0.089355074
0.2760454 -0.23630193 -0.039745793 -0.023014633 0.1887075 -0.06753967 -0.075638406 0.25640982
-0.09831959 0.20702395 -0.0089167105 -0.25383082 -0.18507028 -0.12376812 0.11880543 0.009161567
0.3572088 0.15142322 0.060700968 0.03857158 -0.0607175 0.046084635 0.22700498 -0.3277584
-0.0915281 -0.070108324 0.0038009752 -0.18302666 -0.25828227 0.0053559095 -0.022633277 -0.19776657
0.01678995 -0.040365677 0.18920912 -0.20626073 -0.17989402 0.096644975 0.08108732 -0.0565326
-0.06893616 -0.13854991 -0.063424505 -0.21142128 0.23050722 0.094334304 0.032283705 -0.3384034
-0.31734407 0.27693078 -0.028567597 -0.1871535 0.100954436 0.21572426 -0.27049732 0.24035108
0.093186826 -0.077759996 -0.38207015 0.12103251 0.03884565 0.029170569 -0.2820367 -0.108605444
0.015319127 -0.07411757 0.24686128 0.19664893 -0.16381213 -0.38608283 -0.029155692 -0.15820645
0.15865314 -0.13624962 0.10202823 0.0106886225 0.066864625 0.3021753 -0.058439415 0.30096003
-0.0314681 -0.11295453 -0.14165828 0.31801397 0.10223248 0.05928465 0.047916498 0.07028145
-0.028292663 -0.03737199 -0.04055301 0.13440669 -0.2954082 0.09540281 -0.46941644 -0.06868529
0.2389439 -0.013505616 0.45988503 0.004846629 0.07517146 0.28059888 -0.15288052 -0.00010368645
-0.16113824 -0.054159813 0.07382799 -0.051475108 0.025670161 0.04741514 -0.012987571 0.13646625
-0.12846409 -0.09526088 0.1224098 -0.096466504 -0.18056765 -0.01307297 -0.26008093 -0.029410973
-0.0056511974 -0.019222636 0.10611559 0.16727047 0.026986856 0.24985813 0.017580738 -0.024112703
-0.150585 0.04230054 -0.20111857 0.018367201 -0.16672558 0.037999958 -0.083376445 -0.3868686
0.09891349 -0.137171 0.21696152 0.035271592 0.25326353 -0.21043085 0.06430887 -0.031885564
0.3262788 -0.010391292 -0.15855062 -0.18063734 0.3540842 0.07298644 -0.036910877 0.05078413
-0.34984043 0.024759674 -0.035253547 -0.36816266 0.066931546 0.02153875 0.04239173 0.07705791
-0.12569319 -0.038485117 -0.07725577 -0.124652624 -0.1718747 0.09498535 0.11077665 0.008077125
-0.10158566 0.27788624 0.04883899 -0.3719708 0.020014275 0.29849252 -0.04676581 0.10699564
0.09180737 -0.22595635 -0.102432564 2.9059162e-05 -0.01137842 0.29641715 0.1327996 -0.07774253
0.17063834 -0.18169369 -0.064814985 -0.12445975 -0.116815835 0.069682896 -0.064720176 0.019116215

network_body._body_endoder.seq_layers.2.bias f4 [64]
00000000: 1457 e1bd d6cb 65bd a84d cdbd 1a8f 83bd
00000010: ce1a 773c 8fc5 2d3d 86bb ac3c 987e 8f3d
00000020: b9d9 b93b 7614 993c 856d c43c 58ae 003d
00000030: e819 2abc 0286 ac3c 2c34 c8bc dbc3 85bc
00000040: a9bb 263d ef3e 92bb bfb8 c4bd 4b82 c03d
00000050: 3252 8f3d 0b0f 0abd 16ed 523d 5298 003d
00000060: d34c 013e 95fa da3b 4081 49bd 4390 f6bd
00000070: 611d 243d 170b 8f3d 5839 15bd 911d bf3c
00000080: 0732 f0bc 7918 403d bb04 9b3d 1066 603d
00000090: e229 99bd c890 d6bd 834d ca3c 196c 0c3d
000000a0: 2127 853d 3e29 083e 1ee1 1aba e0ab 0cbd
000000b0: 39eb 943d f2c0 ffbc 2f91 6a3d 9e40 3fbd
000000c0: 28ec 2d3c f4e9 b2bc 2152 87bd d715 63bc
000000d0: 2e03 3d3d 10ef e53d a633 033e 0306 c23d
000000e0: dfed 0a3c 1e1a 76bb 5c78 89bc 6ce6 febd
000000f0: a6e8 b5bd 3553 c9bb 53d8 ed3c 3bc3 0c3d
-0.11002937 -0.056102596 -0.100245774 -0.06423779 0.015082074 0.042424735 0.021085512 0.07006568
0.0056717065 0.018686514 0.023978004 0.031416267 -0.010382153 0.021059994 -0.02443894 -0.016328743
0.04070631 -0.0044630687 -0.0960555 0.093998514 0.069980994 -0.033705752 0.051495634 0.031395264
0.12626962 0.0066827037 -0.049195528 -0.120392345 0.04006708 0.06984537 -0.03643164 0.023329528
-0.02932073 0.04689834 0.07569262 0.054784834 -0.07478692 -0.104768336 0.024695164 0.034282777
0.06501604 0.13296983 -0.0005908179 -0.0343436 0.07271428 -0.031219933 0.057267364 -0.046692483
0.010615386 -0.021840073 -0.06607462 -0.0138601875 0.04614561 0.11227238 0.12812671 0.09473803
0.008479564 -0.0037552188 -0.016781025 -0.12446293 -0.08882265 -0.0061439523 0.029033815 0.034365874

action_model._continuous_distribution.log_sigma f4 [1, 44]
00000000: 261b 853e 71e1 063d 679c 913b 8c5f 2ebe
00000010: f876 06be e9a3 8abd d3a6 e53d ea15 a2be
00000020: a427 943a 2f9d 05be 80c7 d4bc 12dc 5abe
00000030: 04a4 9abd aade 9f3c a971 0b3d aec1 663c
00000040: 4571 85be c648 bfbc 84cf 6dbe ad08 e7bd
00000050: c253 a6be fb51 ba3c d767 aebe 2e75 78bd
00000060: 8c41 34be 8953 8cbd 52f5 953e 753b 7e3d
00000070: 5cd3 a7be 2582 fe3d 86ff 24be 59a4 10bd
00000080: ed18 0dbe 17bd 67be f7fe 9bbe a868 52be
00000090: 6fba bbba 5349 1e3e ef2a 27bd 6499 71bd
000000a0: d7be 79bd b2cf dabd c861 d33d 6ec9 613c
0.25997275 0.03292984 0.0044436934 -0.17028636 -0.1313132 -0.06769545 0.1121346 -0.31657344
0.0011303318 -0.13048242 -0.025974035 -0.21373013 -0.07550815 0.019515354 0.03404394 0.014084263
-0.2606298 -0.02335013 -0.23223692 -0.11280952 -0.32485777 0.02274417 -0.340636 -0.060658626
-0.17603129 -0.068518706 0.29288727 0.06206842 -0.32778442 0.12427167 -0.161131 -0.035312984
-0.1377904 -0.22630726 -0.3046796 -0.20547736 -0.0014322529 0.15457658 -0.04081243 -0.058984175
-0.060973015 -0.10684146 0.10321385 0.013780935

action_model._continuous_distribution.mu.weight f4 [44, 64]
00000000: d913 103d 1b01 5a3d e359 9abd 3a98 05be
00000010: 1def 093d 51c9 353e 9cd9 373d 8505 b93c
00000020: bfcb cdbc e1c2 0abe bedf 053e bed3 1e3d
00000030: 3b78 0b3e 8b0a 8c3a dfb2 253c 0f1a 423b
00000040: df07 7e3d 5db8 f7bb e92b c03d c3af f73d
00000050: 9d0f 593d a23f 8d3d 5b88 89bd 200a 3ebd
00000060: 51e0 acbd cc9d 02be 2bdc 9cbd 3226 cd3d
00000070: 3b1e d2bc 41ea d33d 34c7 793e 8f5d 1d3e
00000080: fbf1 f43d 1e9b b93d d511 14bd f883 943e
00000090: 6b21 623d 1cfb 923d edda 44bd dcc2 ac3d
000000a0: 96b4 8d3e aece b9bd 8093 46be 4a61 ce3d
000000b0: 32f3 a43c 8d6d d43d ed8a 4c3d ba55 753e
000000c0: e1bf dfbd 6651 993d a6d3 c33a b80d a9bd
000000d0: f811 9e3b ffc4 c33d f2da 713d f791 bc3d
000000e0: 1503 debd 3e1f 2d3d cfb1 d4bd 1b47 b9bc
000000f0: fef5 023d f2f3 8bbb 477c 0a3e 2166 b6bd
00000100: d702 053d 03f1 d1bc f6d8 d43d f622 72bd
00000110: 94be 883d ce42 103d 5b48 92bc 79af 203e
00000120: 664f 9ebd ddfd e7bb e785 a5bd e6ef 2e3c
00000130: c5af ea3d 0079 c8bc 08ca 643c 0cd7 06bd
00000140: 3eaa c03d 0cfd 2ebe 83c1 f53d 08ad c2bd
00000150: 737a 35bc c531 de3c 6364 ecbd 6e13 1fbd
00000160: d68f f4bc 15a2 9fbd 0078 613d a1a7 c63c
00000170: 4020 b13d 9a76 82bd 07fa 4dbd 08d9 11be
00000180: e253 2fbc f0a1 10be b79c 1d3c e76f 663d
00000190: e320 4a3e 6335 be3d fbb2 303e ab80 5cbd
000001a0: 2f41 38be 0e2f 8ebb 210f 06bd 9187 70bd
000001b0: 57e8 00bd 654b 8b3d 6ccf 75bd fdf5 7dbc
000001c0: e2ad 7e3d 74da e33c 6f9f 6b3d aa6c babd
000001d0: 0a3a b5bc e1d2 f3bd 87fa fa3c f71d c3bb
000001e0: c60d 66bd 6c8e 5bbd 3dfb c33d a6f3 7abd
000001f0: 6559 173d c5d4 82bd 9fda 0fbd c279 9c3d
00000200: b21a 30bb 0d0c 1cbc 0d2d eebc 2cdf 9c3c
00000210: b6d8 193e 82fb ac3d b7fa 073e b5c1 47bd
00000220: eff6 debd 9843 81be d070 a33d 1072 86bc
00000230: 3b07 0b3e 2b09 1e3d 5ad7 853d 6626 32be
00000240: 8b21 353d 0c70 ad3d 7c9e 38bc 682f ee3d
00000250: 413d e63d 2237 673e 3a60 75bd d849 8c3c
00000260: b733 dc3d 14ed 253c 243f c9bd ebc2 4f3e
00000270: 0564 19bd 6407 2abb b1f8 9dbd 20e7 393d
00000280: 7aea 233d a26d 24bd 98df 82be 250a a8bd
00000290: d437 013e ea03 e4bd 96d7 b23d d8c0 bfbd
000002a0: 3557 0abe 049f 20be c881 ed3a 3e27 52bc
000002b0: bbbc 2c3d d302 393e ae1e 64bc 5e01 bbbb
000002c0: 1510 1abd e78f b73d 72cc 6b3e de85 ec3c
000002d0: f1d1 20be 2a05 0f3d 04f6 a93d d8ba c1bd
000002e0: 6dc9 b23d 2edc 8cbb 7283 553d 05a2 09bd
000002f0: 35fb 093d c381 c9bb af7d 753d e86c 1b3d
00000300: b998 d33c 965a 83bd a220 c33c 82da 123d
00000310: 15fb b0bd c912 4d3c a527 eb3d 4a5c 823d
00000320: ff33 153e c1dd bc3d 661d ac3c bfbf 08be
00000330: 0735 d43d 8b84 a83d 790a 943d 71de ffbd
00000340: e57b b5bd ba16 cb3d 61a2 ff3d d6fd 853d
00000350: 0bb3 12be 5b16 b6bd 1377 bc3c f380 81bd
00000360: 237d 8ebc 55af 143d ac67 38be d8bb 943d
00000370: 6152 efbd d9fb 023e b9e5 a5ba 2bd0 123b
00000380: f10e 8fbd c3d9 dfbd 0553 13be 50dd a23c
00000390: f9b1 cfbc ccfd e5ba 3b9a 08bd 1c8d f83d
000003a0: 3209 b83e ffeb b8bd 3a1b 203d 270e 653e
000003b0: 50b0 a03d e143 8f3c 7262 3a3d d841 11bd
000003c0: a213 25bd a21a 123e 6877 ed3d 8859 1ebd
000003d0: b3bc 403e 796c e83d a224 143d 88e5 523d
000003e0: d5e4 303d da6d 09bc df6f dd3d 6eb1 e83d
000003f0: 87d1 083d f49c a83d 19eb 7ebd c3d4 fb3d
0.03517518 0.05322371 -0.07536676 -0.13046351 0.0336753 0.17752577 0.044885263 0.02258564
-0.025121568 -0.13550903 0.13073632 0.03877615 0.13620083 0.0010684294 0.010113447 0.0029617583
0.062019225 -0.0075598196 0.09383375 0.12094071 0.052993406 0.068969026 -0.06715461 -0.046396375
-0.084412225 -0.12755507 -0.07659181 0.10017051 -0.02564918 0.10347415 0.24392396 0.15367721
0.119602166 0.090627894 -0.03614982 0.29006934 0.05520765 0.071768016 -0.048060346 0.08435604
0.2767684 -0.09072624 -0.19392204 0.1007715 0.020135496 0.10372458 0.049937177 0.23958483
-0.1092527 0.07486229 0.0014940395 -0.0825457 0.0048239194 0.095590584 0.059046693 0.09207528
-0.108404316 0.042266123 -0.10385477 -0.022616914 0.031972878 -0.004271024 0.1352397 -0.08906198
0.03247341 -0.025627619 0.103929445 -0.059115373 0.06676975 0.03521996 -0.017856767 0.15691938
-0.07729988 -0.0070798234 -0.080821805 0.010677313 0.11459307 -0.02447176 0.013964184 -0.03291993
0.09407471 -0.17088717 0.119998 -0.09505659 -0.011076557 0.027123341 -0.11542585 -0.03883689
-0.029853743 -0.077945866 0.05504608 0.024249854 0.08648729 -0.06370278 -0.050287273 -0.14242947
-0.010701152 -0.14124274 0.009619883 0.056259062 0.19739108 0.092875265 0.17255776 -0.053833645
-0.17993616 -0.0043391054 -0.03272927 -0.058723036 -0.031471577 0.0680149 -0.060012266 -0.015500543
0.062177546 0.027814128 0.057525095 -0.09102757 -0.022122402 -0.11905456 0.030637039 -0.0059545
-0.05616548 -0.05360262 0.09569404 -0.061267518 0.036950488 -0.06388239 -0.035120603 0.07640411
-0.002687138 -0.0095243575 -0.029074216 0.019149385 0.15024075 0.08446409 0.13279234 -0.048768718
-0.108869426 -0.25246882 0.07980502 -0.016411811 0.13576977 0.038582962 0.06535216 -0.1739746
0.044221442 0.08468637 -0.011268254 0.11630136 0.11242152 0.22579625 -0.059906222 0.017125055
0.10752051 0.010127325 -0.09826496 0.20289199 -0.0374489 -0.0025944347 -0.0771345 0.045386434
0.040018536 -0.040143616 -0.25561213 -0.0820506 0.12618953 -0.11133559 0.08732526 -0.09362954
-0.1350983 -0.1568566 0.0018120343 -0.012826739 0.042172175 0.18067484 -0.01392333 -0.00570695
-0.037612993 0.08962994 0.23027208 0.028872427 -0.15705086 0.034917034 0.08298877 -0.09459466
0.08729825 -0.0042987084 0.05212731 -0.03360178 0.033686835 -0.006149502 0.059934314 0.037945658
0.02582966 -0.06413762 0.023819271 0.035852917 -0.0864164 0.012516686 0.11482171 0.06365259
0.14570616 0.09221984 0.021010112 -0.13354395 0.10361677 0.082284056 0.0722856 -0.12493599
-0.08861522 0.09916444 0.12482143 0.06542556 -0.14326112 -0.08890983 0.023005998 -0.06323423
-0.017393654 0.036300022 -0.18008298 0.07262391 -0.116856344 0.12791385 -0.0012656964 0.002240191
-0.06985272 -0.109302066 -0.14387138 0.01988092 -0.025353419 -0.0017546951 -0.03335021 0.121362895
0.35944515 -0.09029388 0.039088465 0.2236868 0.07846129 0.017488422 0.04550404 -0.035463184
-0.040301926 0.14267972 0.115950406 -0.038659602 0.18821983 0.113488145 0.03616775 0.05148843
0.04318698 -0.008388007 0.10812353 0.11361967 0.033402946 0.082330614 -0.062235925 0.122964405

action_model._continuous_distribution.mu.bias f4 [44]
00000000: bcab bc3d 57ec 26bd c2e4 973d b63c ec3d
00000010: 37ef b73c 8592 09bc 263a b3bc 66f2 77bd
00000020: a207 663c 0d90 e2bc 147c c4bd 569a bc3d
00000030: 5ae8 ef3b c35f 08b8 5f45 cbbc 336a 373d
00000040: d6ce 4ebc 01d7 fe3a 783b 3f3d 7371 b43d
00000050: e46b fdbb 13bf 13be 7331 34bc 86fd bdbd
00000060: 9b53 c8bc c38f c3bc a172 e8bd 9b52 98bd
00000070: 9ecb fc3d 9013 2fbd aff3 6e3d 17af 5e3d
00000080: 6517 483d 60c8 943d f146 953d bcda 86bd
00000090: 1ab5 99bc 03c7 8dbd 0ff9 66bd c47d 55bd
000000a0: 3eb5 bb3c ae20 53bc b394 71bc 5bdb c5bd
0.09212443 -0.040752735 0.07416679 0.11535017 0.022452934 -0.008396749 -0.021878313 -0.060533904
0.014039906 -0.02765658 -0.095939785 0.09209125 0.0073213996 -3.251411e-05 -0.024813352 0.044779014
-0.012622556 0.0019442738 0.046687573 0.08810701 -0.007733809 -0.14428358 -0.010998118 -0.092768714
-0.024453929 -0.023872262 -0.11349989 -0.07437631 0.123435244 -0.042743266 0.058337864 0.054366197
0.048850436 0.07264781 0.072889216 -0.06584689 -0.018763114 -0.06922724 -0.056389865 -0.052121893
0.022913571 -0.012886209 -0.014744925 -0.09660979
