results/checkpoints/b074_size8_ConfigLRate(0.001)/Dynamic Table/Dynamic Table-5499998.pt (torch, 237079 bytes, 36 tensors)

network_body._body_endoder.seq_layers.0.weight f4 [64, 52]
0	0x3d27e16c	0.040986463
1	0x3db4e27a	0.088322595
2	0xbe56a04c	-0.20959586
3	0xbe2a9d93	-0.16661672
4	0xbeb6e4da	-0.35721475
5	0xbe46ac8f	-0.19401763
6	0xbe95e177	-0.2927358
7	0xbe927c5c	-0.28610504
8	0x3daadc78	0.08342832
9	0x3dea7cf4	0.11449614
10	0x3e4a38d6	0.19748244
11	0x3ddabfdc	0.106811255
12	0x3e871239	0.2638109
13	0xbcfec49c	-0.03109961
14	0x3d501910	0.05080515
15	0xbe36c80c	-0.1784975
16	0xbc043125	-0.008068358
17	0x3ec22072	0.3791538
18	0x3df9dc05	0.122001685
19	0x3e558734	0.20852357
20	0xbe12690d	-0.14297886
21	0xbd998927	-0.07496863
22	0x3deff770	0.11717117
23	0xbe051623	-0.12996726
24	0x3e397d50	0.18114209
25	0x3e4f89eb	0.20267455
26	0x3e3725af	0.17885469
27	0x3cbb752e	0.022883024
28	0xbdf8c211	-0.1214639
29	0xbe807a3a	-0.2509325
30	0x3e8dc048	0.2768576
31	0x3d401688	0.046896487
32	0x3e5dc7a8	0.21658194
33	0xbe382eb3	-0.17986564
34	0x3c4a4884	0.012346391
35	0xbdd7d392	-0.10538401
36	0xbeaaf09a	-0.3338669
37	0x3cee7a40	0.029111028
38	0x3d865e39	0.0656094
39	0x3e9754c6	0.29556865
40	0x3eae2a44	0.3401662
41	0x3f10f540	0.5662422
42	0x3e6f0dab	0.23345058
43	0x3ea34f4a	0.3189643
44	0xba36d3a4	-0.0006974286
45	0xbdfc44ff	-0.123178475
46	0xbe3ced30	-0.18449855
47	0xbd7a3af3	-0.061091375
48	0xbdf3a848	-0.118973315
49	0x3e3c4241	0.18384649
50	0xbdc3b68f	-0.09556305
51	0xbeada2bb	-0.33913216
52	0xbcba16ba	-0.022715915
53	0xbef37192	-0.47547585
54	0xbe49216a	-0.19641653
55	0xbeec988b	-0.4621013
56	0x3bc6544e	0.0060525304
57	0xbce3aa6c	-0.027791224
58	0x3e211d28	0.15733778
59	0x3e39002b	0.1806647
60	0xbeb59fee	-0.3547358
61	0xbe37c1fa	-0.1794509
62	0x3c2c1f15	0.010505457
63	0xbe2bc2e0	-0.16773558
64	0xbbbe5fc2	-0.005809755
65	0x3c867356	0.016412418
66	0x3d9d0f47	0.076689295
67	0xbcc7af5c	-0.02437561
68	0xbdbc85f7	-0.09205239
69	0x3e73fd7a	0.23827162
70	0x3e542e2b	0.20720737
71	0xbe1ab32e	-0.15107414
72	0xbdad2165	-0.08453635
73	0xbdf56777	-0.11982625
74	0x3d871fa7	0.06597834
75	0x3e9df32c	0.30849588
76	0xbc2b7f20	-0.010467321
77	0x3e3c33c6	0.18379125
78	0x3dddf8e8	0.10838491
79	0x3e10b714	0.14132339
80	0x3df325aa	0.11872418
81	0xbe427e70	-0.18993545
82	0xbed7db33	-0.42159423
83	0xbe642801	-0.22280885
84	0xbe13b552	-0.14424637
85	0x3ebe3859	0.37152365
86	0x3e479d45	0.19493587
87	0xbeb3d220	-0.3512125
88	0x3e94f45b	0.29092678
89	0xbe2fcff2	-0.17169169
90	0xbe07a53c	-0.13246626
91	0x3dc82300	0.09772301
92	0xbe4ff90d	-0.20309849
93	0xbd1148f3	-0.03546996
94	0x3d90071b	0.07032605
95	0x39d4c9bd	0.00040586098
96	0xbd688157	-0.056763973
97	0xbddb5443	-0.10709431
98	0xbe85aae0	-0.2610693
99	0x3d893a42	0.06700565
100	0xbd4a1776	-0.04933878
101	0x3d858170	0.06518829
102	0x3e42a83a	0.19009486
103	0xbd4546e0	-0.048163295
104	0xbd7161fe	-0.058931343
105	0x3d535209	0.051591907
106	0xbe1fdd09	-0.15611662
107	0xbd8ce32b	-0.06879266
108	0x3d120c14	0.03565605
109	0xbe00d726	-0.12582073
110	0x3e27bb2b	0.16379993
111	0xbdda3503	-0.106546424
112	0x3d93700d	0.07199106
113	0x3d0312f5	0.0320005
114	0xbd30f05e	-0.043197982
115	0x3f0da215	0.5532544
116	0x3e0c9758	0.13729608
117	0xbce7b18c	-0.028282903
118	0xbe099af1	-0.13438012
119	0xbe5af410	-0.21382165
120	0xbe297479	-0.16548337
121	0xbce49fe3	-0.027908271
122	0x3ec65178	0.3873403
123	0xbd5753d7	-0.05257019
124	0x3e1df2b6	0.15424618
125	0x3d29e917	0.041482057
126	0x3a61af0c	0.0008609153
127	0x3df85e57	0.12127369
128	0xbe9b0a99	-0.30281523
129	0x3d0ccf97	0.03437766
130	0x3e66bd20	0.22533083
131	0x3f020e11	0.50802714
132	0x3dfa3bd9	0.12218446
133	0x3eea8876	0.45807236
134	0xbddde9ac	-0.10835585
135	0x3d546319	0.05185232
136	0xbe12e403	-0.14344792
137	0x3e0ba243	0.13636117
138	0x3d83f729	0.064436264
139	0xbd85f4c6	-0.065408275
140	0x3cd026c1	0.025409104
141	0x3def267c	0.11677262
142	0x3e948f53	0.29015598
143	0x3d9cb585	0.076518096
144	0x3ee32395	0.44363084
145	0xbea6f2d5	-0.3260714
146	0xbdb114b9	-0.08646531
147	0x3e646137	0.2230271
148	0xb820d2b7	-3.8343216e-05
149	0x3b91b0b6	0.0044461144
150	0x3d466f6c	0.048446104
151	0x3d3516f7	0.044211354
152	0xbe527dc2	-0.20555785
153	0xbc583f2b	-0.013198654
154	0x3d5c1663	0.053732287
155	0x3d8155e0	0.063152075
156	0xbd92f56a	-0.07175715
157	0xbe408002	-0.18798831
158	0xbdd5c0cd	-0.104371645
159	0xbe614d1b	-0.2200207
160	0xbdfd80bf	-0.12378072
161	0xbe2e7b6a	-0.17039266
162	0xbe1d7d74	-0.15379888
163	0xbd7b822f	-0.06140345
164	0xbd47706a	-0.04869119
165	0x3f119c58	0.56879187
166	0x3e4032d2	0.18769386
167	0xbdf8a1bc	-0.121402234
168	0xbce5baf7	-0.028043253
169	0x3e92be29	0.28660706
170	0xbdaae488	-0.0834437
171	0xbdf9e8de	-0.12202619
172	0x3e4843bf	0.19557093
173	0x3e918a0b	0.2842563
174	0xbed7ab32	-0.421228
175	0x3d8ade45	0.06780676
176	0xbdafb26e	-0.08578955
177	0x3e35ee3c	0.1776666
178	0xbcee8d7d	-0.029120201
179	0xbb90e32a	-0.0044216113
180	0x3de152c8	0.110021174
181	0xba324df7	-0.0006801779
182	0xbde59033	-0.112091444
183	0x3e9d7721	0.3075495
184	0x3d0d3c2b	0.03448121
185	0xbd002ab2	-0.031290717
186	0xbe39b016	-0.18133578
187	0x3dda3a33	0.10655632
188	0x3d74e2b7	0.059786525
189	0xbe2c9df0	-0.16857123
190	0x3d167189	0.03672937
191	0xbe0e83f3	-0.13917522
192	0x3e628456	0.22120795
193	0xbd5d683c	-0.054054484
194	0x3dda306f	0.10653769
195	0x3e866371	0.26247743
196	0x3d8bc642	0.06824924
197	0xbe422d8f	-0.18962692
198	0x3dc06f88	0.09396273
199	0xbdf5f583	-0.12009718
200	0x3e14c964	0.1452995
201	0x3dd99d65	0.10625724
202	0x3ce9c9a8	0.02853854
203	0xbe41ffa1	-0.18945171
204	0xbdad65db	-0.08466693
205	0xbbabbc62	-0.005240963
206	0xbd4c650a	-0.049901046
207	0xbd964a7a	-0.07338424
208	0x3d869787	0.0657187
209	0x3c511111	0.012760417
210	0x3dc84620	0.09779
211	0x3e8ab158	0.27088428
212	0x3d2b06e1	0.041754607
213	0x3e09dcb2	0.13463095
214	0xbd9317c1	-0.07182265
215	0xbcf4c34c	-0.029878281
216	0x3de88956	0.1135432
217	0x3cd16a6b	0.02556344
218	0x3ba47239	0.005018499
219	0xbee8fb57	-0.45504257
220	0x3ea13364	0.3148452
221	0x3d4f8047	0.050659444
222	0xbd9510c5	-0.07278589
223	0x3ea2e81e	0.31817716
224	0x3ec6b516	0.38810033
225	0x3e8df1a8	0.27723432
226	0x3dd67fad	0.10473571
227	0xbe97f0b4	-0.2967583
228	0x3e7a532a	0.24445787
229	0x3e00a46c	0.12562722
230	0x3e4bf5b2	0.19917944
231	0xbd10fb4b	-0.0353959
232	0xbda2a41b	-0.07941457
233	0xbe33e655	-0.17568333
234	0xbdd5faa3	-0.10448196
235	0xbeae64fc	-0.3406142
236	0x3e3f7392	0.1869643
237	0x3ce47ba9	0.027890997
238	0x3e35998e	0.17734358
239	0x3e8b0aad	0.27156582
240	0x3e9e531d	0.30922785
241	0xbf040af4	-0.51579213
242	0xbf061e75	-0.52390224
243	0xbeede8ca	-0.46466666
244	0x3d664fef	0.056228574
245	0x3e1d5849	0.1536571
246	0xbe6f40f7	-0.23364626
247	0xbe54d3fb	-0.20783989
248	0x3e917889	0.28412274
249	0x3d94665b	0.07246085
250	0x3e9fddd6	0.31223935
251	0x3c94912d	0.018135631
252	0x3be70cd8	0.0070510916
253	0xbe4f096d	-0.2021844
254	0xbdfc35d0	-0.123149514
255	0x3df5a37a	0.11994071

network_body._body_endoder.seq_layers.0.bias f4 [64]
0	0xbccd850c	-0.025087856
1	0xbdc8b685	-0.09800438
2	0x3c870759	0.016482996
3	0xbcf36abf	-0.029713986
4	0x3d3ab15b	0.045579296
5	0xbd72ebf4	-0.059307054
6	0x3c35a387	0.011086351
7	0x3e1b29e9	0.15152706
8	0xbc41ca73	-0.011828053
9	0xbceb5250	-0.028725773
10	0x3d23e6e9	0.040015135
11	0xb9babc8f	-0.00035617172
12	0xbd47b15e	-0.048753135
13	0xbce52a39	-0.027974235
14	0xbc0ee8c7	-0.008722491
15	0x3d1de177	0.0385451
16	0x3d31b39e	0.043384187
17	0x3ccc359f	0.024927912
18	0xbcbd9c66	-0.023145866
19	0xbcb05a71	-0.0215275
20	0xbd8ef503	-0.06980326
21	0xbd592750	-0.053016007
22	0xbd70c7e9	-0.0587844
23	0x3d2e44d4	0.04254611
24	0xbbd583fd	-0.0065159784
25	0x3bcf3ac5	0.0063241445
26	0x3d071e4d	0.03298788
27	0x3d43d052	0.04780609
28	0xbce0dacb	-0.027448079
29	0x3cb71570	0.02234909
30	0x3cc194f0	0.02363059
31	0x3d133be5	0.03594579
32	0x3c7eeae5	0.015558933
33	0xbd786650	-0.060644448
34	0x3c9039cd	0.017605687
35	0x3c93d335	0.018045047
36	0x3cc3fa67	0.023923112
37	0xbd5be95e	-0.053689353
38	0xbd58e7d5	-0.052955467
39	0x3b001095	0.0019541134
40	0x3ceda807	0.029010786
41	0x3d359b1c	0.044337377
42	0xbdfe5336	-0.12418215
43	0x3bef05ca	0.0072943913
44	0x3b11e622	0.0022262414
45	0xbd69d004	-0.057083145
46	0xbd4f7a7d	-0.050653923
47	0xbdbc7f9c	-0.09204027
48	0xbc866389	-0.016404884
49	0xbd134ff0	-0.035964906
50	0xbd9c0d41	-0.076197155
51	0x3d0d6683	0.03452159
52	0xbd9b4029	-0.07580597
53	0x3d057ea7	0.03259149
54	0xbac58c55	-0.001507173
55	0xbd8879f7	-0.06663888
56	0xbd12e885	-0.03586628
57	0x3d09a4d4	0.033604458
58	0xbdd41abf	-0.10356664
59	0xbd0b184c	-0.03395872
60	0xbd70827c	-0.05871819
61	0x3b4718f2	0.0030379859
62	0xbd175553	-0.036946606
63	0xbd36ae19	-0.044599626

network_body._body_endoder.seq_layers.2.weight f4 [64, 64]
0	0xbd8016cc	-0.06254348
1	0x3e2c8220	0.16846514
2	0x3ea1e65a	0.31621057
3	0xbddb01e8	-0.10693723
4	0xbea55105	-0.32288375
5	0xbba898da	-0.0051451745
6	0x3d6e2c6c	0.058147833
7	0x3e08781f	0.13327073
8	0x3c5dbced	0.013533813
9	0xbe2a0c73	-0.16606312
10	0xbe136593	-0.14394216
11	0x3e088595	0.13332208
12	0xbed097d8	-0.40740848
13	0xbcdd678a	-0.02702691
14	0xbdb6fae4	-0.08934572
15	0xbd4e2242	-0.05032564
16	0x3dfa787b	0.12230011
17	0xbd671554	-0.056416824
18	0xbd2da74c	-0.042395875
19	0xbd03d68c	-0.03218703
20	0xbca0c0e8	-0.019623235
21	0xbd60e8e3	-0.054909598
22	0xbc67e488	-0.014153607
23	0xbd40c0b5	-0.04705878
24	0x3dfa25ee	0.12214266
25	0xbdbc52fc	-0.091955155
26	0x3e047326	0.1293455
27	0xbd8495e5	-0.064739026
28	0xbd0aa264	-0.033846274
29	0xbdcb7c03	-0.09935763
30	0xbe8f997f	-0.28046796
31	0xbe3a1422	-0.18171743
32	0x3c23d777	0.010000101
33	0x3d36d369	0.04463521
34	0x3d0be215	0.034151156
35	0xbdcd1b1c	-0.10014936
36	0xbd339e85	-0.043852348
37	0x3d99eaa2	0.07515456
38	0x3e5c53df	0.2151637
39	0xbd46e429	-0.048557434
40	0xbec44358	-0.3833263
41	0x3e6e3996	0.23264155
42	0x3d0bbd79	0.034116242
43	0x3df03e1d	0.11730597
44	0xbe1c5891	-0.1526816
45	0xbec4f3d2	-0.3846727
46	0x3c8473d9	0.016168522
47	0xbcedfde9	-0.029051738
48	0x3c98dc84	0.018659838
49	0xbd09e6dc	-0.03366743
50	0x3b530479	0.003219871
51	0x3cdfaf2b	0.027305206
52	0x3ddb4e38	0.107082784
53	0xbeaacf4c	-0.3336128
54	0xbec473c4	-0.38369572
55	0xbdd393e6	-0.10330944
56	0x3e6bda16	0.23032412
57	0xbdb61e3e	-0.08892487
58	0x3e8e8e8e	0.27843136
59	0xbdd6ca20	-0.10487771
60	0xbd6cd3f6	-0.05781933
61	0xbc8906a9	-0.016726809
62	0xbe7ad1b3	-0.24494056
63	0xbdc24f8f	-0.09487831
64	0x3e916546	0.28397578
65	0xbe70e4cf	-0.23524784
66	0xbd38b90a	-0.045098342
67	0x3c1aec7d	0.009455797
68	0x3e00e3a2	0.12586835
69	0xbdb6fba2	-0.08934714
70	0xbd589f0f	-0.052886065
71	0x3e7716c5	0.2412978
72	0xbde2977b	-0.11064049
73	0x3e500f6c	0.20318383
74	0x3b2823cd	0.0025656105
75	0xbe857c41	-0.2607136
76	0xbe2bafc2	-0.16766265
77	0xbdf562a8	-0.11981708
78	0x3db7842d	0.089607574
79	0xbd0519fb	-0.03249548
80	0x3eb11d7a	0.345928
81	0x3e0e6531	0.13905789
82	0x3db07308	0.086156905
83	0x3cbd6620	0.023119986
84	0xbd6d603e	-0.05795311
85	0x3d1bc2c9	0.03802756
86	0x3e831cab	0.2560781
87	0xbeac178a	-0.3361171
88	0xbde8e2a0	-0.1137135
89	0xbd9ec8c8	-0.0775314
90	0xbcb7db3f	-0.022443412
91	0xbe08cd75	-0.13359626
92	0xbe8c4be8	-0.27401662
93	0xbd0e7a11	-0.03478438
94	0xbd1c08fc	-0.038094506
95	0xbe60797a	-0.2192134
96	0x3c9e19a5	0.019299338
97	0xbd1bad9c	-0.038007364
98	0x3e0edc79	0.13951291
99	0xbe4e5dad	-0.20152922
100	0xbe3ffd6a	-0.18749014
101	0x3dbba8f6	0.09163086
102	0x3db6f923	0.08934238
103	0xbccaf308	-0.02477409
104	0xbd8e7001	-0.06954957
105	0xbe313f15	-0.1730922
106	0xbd44f0d8	-0.04808125
107	0xbe5c8f8e	-0.21539137
108	0x3e875d26	0.26438254
109	0x3ddc395f	0.1075313
110	0x3cc563ad	0.02409538
111	0xbe954b30	-0.29158926
112	0xbea6a3cf	-0.3254685
113	0x3e8bbbb3	0.2729164
114	0xbd6c96e6	-0.057761095
115	0xbe46eca3	-0.19426207
116	0x3ddc7a1b	0.10765477
117	0x3e4e7005	0.2015992
118	0xbe8a84ea	-0.2705453
119	0x3e583ad2	0.21116188
120	0x3d2ce0ec	0.04220669
121	0xbd9bed57	-0.07613628
122	0xbec1eea8	-0.37877393
123	0x3ddbce27	0.1073268
124	0x3d437732	0.047721095
125	0x3c41c589	0.011826881
126	0xbe7e1fec	-0.24816865
127	0xbdb89d1f	-0.090143435
128	0xbcbb6914	-0.022877254
129	0xbd8adbfc	-0.0678024
130	0x3e83999d	0.25703135
131	0x3e3b360b	0.18282335
132	0xbe2947a8	-0.16531241
133	0xbec3c936	-0.3823945
134	0xbbf0a52a	-0.007343908
135	0xbe218032	-0.15771559
136	0x3e145848	0.14486802
137	0xbe14da39	-0.1453637
138	0x3dcda3bc	0.100409955
139	0x3b70bcca	0.003673362
140	0x3ce6825a	0.028138328
141	0x3ea3d62b	0.31999335
142	0xbd3b84ef	-0.045781072
143	0x3e85148d	0.25992242
144	0xbd059c3a	-0.032619692
145	0xbdca9dc2	-0.09893371
146	0xbde9c7f1	-0.11415089
147	0x3e9eaea0	0.30992603
148	0x3ddd3aaf	0.10802209
149	0x3db1cac6	0.08681254
150	0x3d9b4bf2	0.07582845
151	0x3d43cc2d	0.04780214
152	0xbd211fdf	-0.039337035
153	0xbc93b180	-0.018028975
154	0xbd657c85	-0.056026954
155	0x3dfdf716	0.124006435
156	0xbe88e582	-0.267376
157	0x3d848457	0.06470554
158	0xbeefc846	-0.46832484
159	0xbd2c8adf	-0.042124625
160	0x3e8b8770	0.27251768
161	0xbcf8c631	-0.030367943
162	0x3ee54588	0.4477961
163	0x3bc62f64	0.00604813
164	0x3da63078	0.081147134
165	0x3e8f99ab	0.28046927
166	0xbde1133e	-0.10989998
167	0x3c804314	0.015656985
168	0xbe36718c	-0.17816752
169	0xbd03ac7c	-0.032146916
170	0x3d9384b8	0.072030485
171	0xbd30e838	-0.04319021
172	0x3d5294bc	0.051411375
173	0x3d500e90	0.050795138
174	0xbc289106	-0.0102884825
175	0x3e09906c	0.13433999
176	0xbe003bfc	-0.12522882
177	0xbda7ace5	-0.08187274
178	0x3e03b2c6	0.12861165
179	0xbda904c6	-0.082528636
180	0xbe28d1c6	-0.16486272
181	0xbd04a2b3	-0.032381725
182	0xbe7a5ccd	-0.24449463
183	0xbca6b281	-0.02034879
184	0xbcc6553c	-0.024210565
185	0xbc70d628	-0.014699496
186	0x3de06f4f	0.109587304
187	0x3e3e2219	0.18567695
188	0x3d4fcc98	0.050732225
189	0x3e94fca2	0.29098994
190	0x3cd79916	0.026318114
191	0xbc45faf3	-0.012083757
192	0xbe2988cc	-0.1655609
193	0x3d1f5a62	0.038904555
194	0xbe2b8f6a	-0.16753927
195	0x3d5df803	0.0541916
196	0xbe1d5b02	-0.15366748
197	0x3d06dec5	0.032927293
198	0xbd934a5c	-0.07191917
199	0xbed702c9	-0.41994312
200	0x3dc83a32	0.09776725
201	0xbdfa4a73	-0.12221231
202	0x3e634555	0.22194417
203	0x3d1b9073	0.037979554
204	0x3ea13ec7	0.31493208
205	0xbe5b9587	-0.21443759
206	0x3d6e9648	0.058248788
207	0xbc460e67	-0.012088395
208	0x3ea0b0ef	0.3138499
209	0xbd8e2097	-0.0693981
210	0xbdbae4e2	-0.09125687
211	0xbe2be911	-0.16788127
212	0x3ea76e4a	0.3270133
213	0x3d8802a6	0.0664113
214	0xbcdc429c	-0.02688723
215	0x3d72856e	0.05920928
216	0xbebe7779	-0.37200525
217	0x3c17c135	0.009262373
218	0xbd921d08	-0.071344435
219	0xbec09ecd	-0.37621155
220	0x3da7aeb8	0.08187622
221	0x3c165c7d	0.009177324
222	0x3c8baac8	0.017049208
223	0x3dbece7b	0.09316727
224	0xbdc86204	-0.0978432
225	0xbcfe4009	-0.031036394
226	0xbd78ba55	-0.060724575
227	0xbd8f21b9	-0.06988854
228	0xbe3197d4	-0.17343074
229	0x3dacbf59	0.08434934
230	0x3e09cce4	0.13457066
231	0x3d128581	0.03577185
232	0xbda4a822	-0.08039881
233	0x3e83e37b	0.2575949
234	0x3d764597	0.06012496
235	0xbeb85386	-0.36001223
236	0x3d8c9046	0.068634555
237	0x3e954e66	0.29161376
238	0xbd387f9b	-0.04504357
239	0x3ddfa2fd	0.109197594
240	0x3d69b480	0.057056904
241	0xbe617a1a	-0.22019234
242	0xbdca0e4b	-0.098660074
243	0xbc0ef167	-0.008724547
244	0xbca1ed6e	-0.019766536
245	0x3e8ec547	0.27884886
246	0x3e2ffe64	0.17186886
247	0xbdc76e31	-0.09737814
248	0x3e34b2e5	0.17646368
249	0xbe4103ee	-0.18849155
250	0xbd9f0304	-0.07764247
251	0xbe03310d	-0.1281168
252	0xbe0bf1b4	-0.13666421
253	0x3d9594c4	0.073037654
254	0xbd9ba280	-0.07599354
255	0x3d6a8fa4	0.057265893

network_body._body_endoder.seq_layers.2.bias f4 [64]
0	0xbdd7bcbc	-0.10534045
1	0xbd7f3855	-0.06230958
2	0xbdbbd261	-0.09170986
3	0xbd829f2f	-0.06378018
4	0x3bd5f9e9	0.0065300358
5	0x3d35cfb6	0.04438754
6	0x3d0143b8	0.031558722
7	0x3d90a19f	0.07062077
8	0x3b878c13	0.004136571
9	0x3b8223f8	0.003971573
10	0x3cd23606	0.025660526
11	0x3d1a44f7	0.037663426
12	0xbc4250bd	-0.01186007
13	0x3c532404	0.012887005
14	0xbcd72653	-0.026263392
15	0xbb9528ed	-0.004551998
16	0x3d332c1a	0.04374323
17	0xbc517ed5	-0.012786587
18	0xbd95a360	-0.07306552
19	0x3dc71841	0.09721423
20	0x3d87ab92	0.06624521
21	0xbca883ce	-0.020570662
22	0x3d402ad9	0.046915863
23	0x3d45b84d	0.048271466
24	0x3dcf51c9	0.10123021
25	0xba346452	-0.0006881404
26	0xbd39b12b	-0.045334976
27	0xbe02f54b	-0.12788884
28	0x3d056647	0.032568242
29	0x3d71163a	0.058859088
30	0xbd07c6d8	-0.033148617
31	0x3cbf2984	0.023335226
32	0xbcc4500b	-0.023963949
33	0x3d213fd8	0.039367527
34	0x3d8bd19d	0.0682709
35	0x3d6a2398	0.05716285
36	0xbd60efea	-0.0549163
37	0xbdd1bdc9	-0.10241277
38	0x3c84cc6f	0.016210763
39	0x3ca5a6a1	0.020221056
40	0x3d7b53e7	0.061359312
41	0x3de8e799	0.11372299
42	0x3bafb34d	0.0053619505
43	0xbd475787	-0.048667457
44	0x3daaf70c	0.08347902
45	0xbd0e7fed	-0.03478997
46	0x3d85015a	0.064943984
47	0xbd59733f	-0.053088423
48	0x3ac7bf06	0.0015239425
49	0xbcbf70a6	-0.023369145
50	0xbd2b9c0d	-0.04189687
51	0xbc9c0755	-0.019046465
52	0x3d386864	0.04502143
53	0x3df0f92e	0.11766277
54	0x3e043fc5	0.12914951
55	0x3dad3feb	0.08459457
56	0x3bb598f7	0.0055419165
57	0x3acc7bb2	0.0015600829
58	0x39b310d5	0.0003415408
59	0xbe03a6cf	-0.12856601
60	0xbdb1c1c8	-0.08679539
61	0x3c27b77a	0.010236615
62	0x3d01d2f7	0.031695332
63	0x3cb5bf6e	0.022186007

action_model._continuous_distribution.log_sigma f4 [1, 44]
0	0x3e8b38e1	0.27191833
1	0x3c57b6ec	0.013166171
2	0x3c1d56b4	0.009603191
3	0xbdce7087	-0.10080057
4	0xbd98df6d	-0.0746449
5	0xbcd33065	-0.025779912
6	0x3dfcb5fc	0.12339398
7	0xbe821afe	-0.25411218
8	0x3c7b8ff0	0.015354142
9	0xbdcff989	-0.10155017
10	0x3c588d16	0.013217231
11	0xbe0184bc	-0.1264829
12	0x3ccfdcbd	0.02537381
13	0x3d7d1854	0.06179078
14	0x3db65245	0.089024104
15	0x3b614477	0.0034373084
16	0xbe224ceb	-0.15849654
17	0x3c705d1b	0.014670636
18	0xbe4cd885	-0.2000447
19	0xbcfc5868	-0.030803874
20	0xbea1b5d5	-0.3158404
21	0x3d7c3151	0.06157047
22	0xbe9ce68b	-0.3064464
23	0xbd0dca25	-0.03461661
24	0xbe140434	-0.14454728
25	0xbdb27899	-0.087144084
26	0x3e9ba36e	0.30398124
27	0x3d47a0b8	0.048737258
28	0xbe8895ad	-0.26676694
29	0x3e133b4c	0.14378089
30	0xbdb10ee1	-0.08645416
31	0x3d0dca85	0.034616966
32	0xbdcf2b8f	-0.1011573
33	0xbe2c9846	-0.16854963
34	0xbe6549b5	-0.22391398
35	0xbe27e446	-0.16395673
36	0x3cfb0808	0.030643478
37	0x3e69063c	0.22756284
38	0x3b710298	0.0036775228
39	0xbab509a7	-0.0013812081
40	0x3caf0783	0.021365887
41	0xbd709274	-0.05873342
42	0x3e09e907	0.13467799
43	0xbca1a40d	-0.019731546

action_model._continuous_distribution.mu.weight f4 [44, 64]
0	0x3c2b356e	0.01044975
1	0x3d0cfe31	0.034422103
2	0xbd9abb5b	-0.075552665
3	0xbe2b286c	-0.16714638
4	0xbb027180	-0.0019904077
5	0x3e25e31b	0.16199915
6	0x3d500b0e	0.050791793
7	0x3cfbf136	0.030754667
8	0xbc6f086f	-0.014589413
9	0xbdc6e398	-0.09711379
10	0x3e02e90c	0.12784213
11	0x3d2448e9	0.040108595
12	0x3dbf25b0	0.0933336
13	0x3ca602e8	0.020265058
14	0xbc451106	-0.0120279845
15	0x3d085058	0.033279747
16	0x3cd0da14	0.025494613
17	0xbc30bac9	-0.010786721
18	0x3d8033ce	0.06259881
19	0x3dec8c4f	0.11550199
20	0x3d9e0554	0.0771586
21	0x3d0b5bf5	0.034023244
22	0xbd83ddc8	-0.06438786
23	0xbd24bce4	-0.040219203
24	0xbe04a04c	-0.12951773
25	0xbe085074	-0.1331194
26	0xbdc8282b	-0.097732864
27	0x3d850d2e	0.064966545
28	0xbd410646	-0.047125123
29	0x3df907da	0.12159701
30	0x3e56d54a	0.20979801
31	0x3e119c43	0.14219765
32	0x3ddd920e	0.10818873
33	0x3e0f736c	0.14008874
34	0xbc626885	-0.013818865
35	0x3ea2c291	0.31789067
36	0x3d6c6695	0.057715017
37	0x3d8c721a	0.06857701
38	0xbd97f060	-0.07418895
39	0x3d0f6bf6	0.03501507
40	0x3e95f3a9	0.2928746
41	0xbdc83d54	-0.097773224
42	0xbe57d683	-0.21077923
43	0x3def5baf	0.11687409
44	0xbcec72ed	-0.028863395
45	0x3dae475b	0.08509704
46	0x3dab70da	0.08371134
47	0x3e690e88	0.2275945
48	0xbddbaae4	-0.10725954
49	0x3d9b277d	0.07575891
50	0xbd2cd3de	-0.04219424
51	0xbdce6d13	-0.10079398
52	0x3bd6473c	0.0065392535
53	0x3e106af4	0.141033
54	0x3c88b3d5	0.016687313
55	0x3e1ebc77	0.15501581
56	0xbdde703e	-0.10861252
57	0x3d963f67	0.07336312
58	0xbe0801a7	-0.1328188
59	0xba8eb14e	-0.0010886581
60	0xbb08ed2f	-0.0020893326
61	0xbd0742d3	-0.033022713
62	0x3df2a7e3	0.11848428
63	0xbdba5d55	-0.09099833
64	0x3da7d428	0.081947625
65	0xbcd2906f	-0.025703637
66	0x3d8a5f5a	0.06756468
67	0xbd5ded99	-0.05418167
68	0x3d413887	0.04717305
69	0x3d676c8f	0.056500014
70	0xbb8f1d69	-0.0043675196
71	0x3e1ea89f	0.15494011
72	0xbd8c0075	-0.06836025
73	0x3b4624ba	0.0030234293
74	0xbd881fbc	-0.06646678
75	0x3b83c41e	0.0040211817
76	0x3e0b10f3	0.13580684
77	0xbd0add36	-0.03390237
78	0x3cd03050	0.025413662
79	0xbd008571	-0.03137726
80	0x3dd37878	0.10325712
81	0xbe1dcb27	-0.15409528
82	0x3e1945d2	0.1496804
83	0xbd88f900	-0.06688118
84	0x3cae2c27	0.021261288
85	0x3d4159b6	0.047204696
86	0xbdc18dab	-0.09450849
87	0xbd5532e1	-0.052050475
88	0xbd5ac212	-0.053407736
89	0xbdba1aeb	-0.090871654
90	0x3d0c04c5	0.034184236
91	0x3d7e168a	0.062033214
92	0x3dab2b1d	0.083578326
93	0xbd75620a	-0.05990795
94	0xbc0f36d9	-0.008741104
95	0xbde0669f	-0.109570734
96	0x3ce1c0da	0.02755778
97	0xbe164e1f	-0.14678238
98	0xbc5452fb	-0.012959237
99	0x3dab5323	0.083654664
100	0x3e4e78fb	0.20163338
101	0x3da71ce8	0.0815981
102	0x3e05e846	0.13076887
103	0xbdd28e91	-0.10281099
104	0xbe279bb1	-0.16367985
105	0xbd0423bd	-0.032260645
106	0xbd42c7e5	-0.047553916
107	0xbd7007b9	-0.058601115
108	0xbd97c440	-0.074104786
109	0x3d560cab	0.052258175
110	0xbd3e7b64	-0.046504393
111	0x3d2e5ece	0.04257088
112	0x3d8df4eb	0.0693148
113	0x3b8b69a4	0.0042545367
114	0x3d7aa7fc	0.06119536
115	0xbdba9831	-0.091110595
116	0xbd80d69f	-0.06290936
117	0xbe15b691	-0.14620425
118	0xbce5d7a8	-0.028056934
119	0xbb966fe7	-0.0045909765
120	0xbd91f9bb	-0.071277104
121	0xbce7a9b0	-0.028279155
122	0x3d8b98b3	0.068162344
123	0xbcd29093	-0.025703704
124	0x3d31a985	0.043374557
125	0xbc7d4326	-0.015457904
126	0xbccb1205	-0.024788866
127	0x3d74b6cf	0.059744652
128	0xbd133982	-0.035943516
129	0xbada1c95	-0.0016640598
130	0xbc75c234	-0.014999915
131	0x3cb4c42d	0.0220662
132	0x3e216820	0.15762377
133	0x3d8a8174	0.067629725
134	0x3dfaf3f3	0.12253561
135	0xbc2c973a	-0.010534102
136	0xbdd44807	-0.103653006
137	0xbe7510ca	-0.23932186
138	0x3d62d506	0.055378936
139	0xbd263ded	-0.0405864
140	0x3e27a48e	0.16371366
141	0x3ccfa37a	0.025346506
142	0x3d8bec7a	0.06832214
143	0xbe2f4d56	-0.17119345
144	0x3d46e776	0.048560582
145	0x3dd035f2	0.10166539
146	0xbc55115f	-0.01300463
147	0x3deb3c06	0.11486058
148	0x3da9173b	0.08256384
149	0x3e67d4fd	0.22639842
150	0xbcbb93d4	-0.022897638
151	0x3d0885f4	0.033330873
152	0x3dab0518	0.08350581
153	0x3ca7ff71	0.020507546
154	0xbd844d26	-0.064600274
155	0x3e404a15	0.1877826
156	0xbc54410b	-0.012954961
157	0xbaf480e8	-0.001865414
158	0xbd2b41e6	-0.041810893
159	0x3d49668c	0.049170062
160	0x3d02dde5	0.031949896
161	0xbd5d0a9d	-0.0539652
162	0xbe728399	-0.23683013
163	0xbdd117aa	-0.10209592
164	0x3dc6f4d6	0.097146675
165	0xbdc05254	-0.09390703
166	0x3d4607f6	0.048347436
167	0xbd9ffe4a	-0.07812174
168	0xbe132bad	-0.1437213
169	0xbe19ff9e	-0.15038916
170	0x3cbd27c4	0.02309025
171	0xbbfbc1d6	-0.007683019
172	0x3c401f2f	0.011726185
173	0x3e4c0119	0.19922294
174	0xbc1fb525	-0.009747778
175	0x3cbc1ef9	0.022963988
176	0xbda6ca83	-0.08144095
177	0x3dc8c9e8	0.098041356
178	0x3e77c35c	0.24195617
179	0xbb4201cd	-0.0029603124
180	0xbdf6e153	-0.12054696
181	0x3d179789	0.03700975
182	0x3db487d8	0.08814973
183	0xbddb9f52	-0.10723747
184	0x3dba2e33	0.09090843
185	0xbc0cf9e9	-0.008604505
186	0x3d2b71c9	0.04185656
187	0xbc482d17	-0.0122177815
188	0x3d01c4cb	0.031681817
189	0x3d3cc395	0.04608496
190	0x3d44c0a1	0.048035268
191	0x3cf034fd	0.029322142
192	0x3cf61a97	0.030041976
193	0xbd55b059	-0.05217013
194	0xbc2aa0a4	-0.010414276
195	0x3cb19c52	0.021680985
196	0xbda01960	-0.0781734
197	0x394dd474	0.00019629468
198	0x3daaff9f	0.08349537
199	0x3e0dd780	0.13851738
200	0x3e0eb7ca	0.13937297
201	0x3d8ec3ae	0.06970917
202	0x3d18b542	0.037282236
203	0xbdea6836	-0.11445658
204	0x3dbdd945	0.092699565
205	0x3dc1ccfe	0.09462927
206	0x3dc7942e	0.0974506
207	0xbe0c20bf	-0.13684367
208	0xbdd1eded	-0.10250459
209	0x3de620b0	0.112367034
210	0x3db214a2	0.08695342
211	0x3d39e369	0.04538289
212	0xbe0fd3c1	-0.14045621
213	0xbd89e011	-0.067321904
214	0x3ceaad22	0.02864701
215	0xbd80b558	-0.062845886
216	0xbc4bc3ca	-0.0124368165
217	0x3d129917	0.03579053
218	0xbe3323ab	-0.17494075
219	0x3d477361	0.04869402
220	0xbe042030	-0.12902904
221	0x3de324a2	0.110909715
222	0xbd243a0c	-0.04009442
223	0xbc253582	-0.010083558
224	0xbde63695	-0.112408794
225	0xbddbd69a	-0.107342914
226	0xbe102ec6	-0.14080343
227	0x3cd28694	0.025698937
228	0xbcbd6de5	-0.02312369
229	0xbc478e04	-0.012179855
230	0xbd72fa34	-0.059320644
231	0x3d9d58f3	0.07682981
232	0x3eb2aa52	0.3489557
233	0xbd79b8d6	-0.06096729
234	0x3cda4fbc	0.026649348
235	0x3e39dca7	0.18150578
236	0x3d9f4afa	0.077779725
237	0x3c327c6a	0.01089392
238	0x3d029645	0.03188159
239	0xbd0c9b6b	-0.034327906
240	0xbd0268df	-0.031838294
241	0x3e0f58d0	0.13998723
242	0x3de0eaee	0.10982309
243	0xbd5031ce	-0.050828747
244	0x3e31b788	0.17355168
245	0x3e03dbad	0.12876768
246	0x3d088575	0.0333304
247	0x3d9db1a0	0.07699895
248	0x3c97dbec	0.018537484
249	0xbd0e0aa4	-0.034678116
250	0x3dd8aa38	0.10579342
251	0x3db3d83f	0.0878148
252	0x3cf910b0	0.030403465
253	0x3dbcf648	0.09226662
254	0xbd8ecfb5	-0.06973211
255	0x3e03a4b7	0.12855802

action_model._continuous_distribution.mu.bias f4 [44]
0	0x3dcaaff0	0.09896839
1	0xbd15ac0b	-0.036541026
2	0x3d86c8be	0.06581257
3	0x3dda455c	0.106577605
4	0x3d466171	0.04843277
5	0x3c39da86	0.011343604
6	0xbccd5ffa	-0.02507018
7	0xbd1d9c20	-0.03847897
8	0x3c16605e	0.009178249
9	0xbb857a7d	-0.0040734396
10	0xbdeaf5e4	-0.11472681
11	0x3da6249c	0.081124514
12	0x3cd219b3	0.02564702
13	0xbbcfc39b	-0.0063404567
14	0xbc98b8dd	-0.018642837
15	0x3d00fa81	0.0314889
16	0xbb890bbc	-0.004182307
17	0x3bec8bc6	0.0072188107
18	0x3d62e31a	0.055392362
19	0x3d84f1a2	0.064914
20	0xbc14ebc9	-0.009089419
21	0xbe15a4e6	-0.14613685
22	0xbc9f5d3a	-0.019453634
23	0xbdbbf5dd	-0.09177754
24	0xbceb41f1	-0.028717967
25	0xbd11c71a	-0.03559027
26	0xbe08edb7	-0.13371931
27	0xbd989bb8	-0.07451576
28	0x3e009f2d	0.1256072
29	0xbd55a689	-0.052160773
30	0x3d62bd87	0.05535653
31	0x3d57dd86	0.052701496
32	0x3d69efe2	0.057113536
33	0x3d9497a8	0.07255489
34	0x3d83bb34	0.064321905
35	0xbd924df1	-0.071437724
36	0xbc8dfcaf	-0.017332403
37	0xbd8ae124	-0.067812234
38	0xbd70ec65	-0.058819193
39	0xbd3dc39d	-0.04632913
40	0x3c8dcea9	0.017310457
41	0x3b60be04	0.0034292946
42	0xbb920241	-0.004455835
43	0xbdbe7434	-0.09299508

exp_avg f4 [64, 52]
0	0xb6df72b3	-6.6592706e-06
1	0xb7f703d9	-2.9446486e-05
2	0xb7870043	-1.6093376e-05
3	0x36f57e63	7.3162823e-06
4	0xb8071017	-3.2201493e-05
5	0x3751f40f	1.2514195e-05
6	0xb74b4dad	-1.2117828e-05
7	0xb7376de2	-1.0933234e-05
8	0xb7b1e4b3	-2.120654e-05
9	0xb7828d8c	-1.556312e-05
10	0x38242900	3.913883e-05
11	0xb7c36d62	-2.3296747e-05
12	0x37a3196f	1.9442958e-05
13	0x3783e9ef	1.572535e-05
14	0xb7042b87	-7.877948e-06
15	0xb81f5576	-3.7988146e-05
16	0x383cc219	4.500346e-05
17	0xb69143e5	-4.3292407e-06
18	0x36be8fef	5.6791973e-06
19	0x37716b58	1.4389712e-05
20	0xb6f03be9	-7.159532e-06
21	0xb777d38c	-1.4771602e-05
22	0xb8388205	-4.399011e-05
23	0xb8000fba	-3.0532225e-05
24	0x379ed19b	1.8932673e-05
25	0xb82f102c	-4.1738313e-05
26	0x373f8479	1.1415331e-05
27	0xb7e98139	-2.7835938e-05
28	0x37fe5468	3.0318464e-05
29	0xb7e9e2a4	-2.7881302e-05
30	0x3812d5f1	3.500836e-05
31	0xb820cc2b	-3.833712e-05
32	0x378d215a	1.682404e-05
33	0x37ef21c7	2.8506749e-05
34	0xb7a16adf	-1.9242461e-05
35	0xb77570be	-1.4629388e-05
36	0x36ea6ade	6.9861844e-06
37	0x388d6c13	6.743534e-05
38	0x38a55cd2	7.885102e-05
39	0x38160ab7	3.5772766e-05
40	0x38395d3e	4.4194276e-05
41	0xb7a2003d	-1.9312016e-05
42	0x3817a6ff	3.6156733e-05
43	0x373b4ce0	1.1163967e-05
44	0xb8c27c0b	-9.273746e-05
45	0x38d2c37d	0.00010049993
46	0xb871d863	-5.7660403e-05
47	0xb7fb9327	-2.9990055e-05
48	0x38c84519	9.5496136e-05
49	0x3767b4f8	1.3810808e-05
50	0x3884f990	6.340735e-05
51	0x38b50ce8	8.6331565e-05
52	0xb88dc154	-6.759414e-05
53	0xb891dd1c	-6.9553236e-05
54	0xb810f4cc	-3.456026e-05
55	0xb6b6ec46	-5.4515285e-06
56	0xb8910e0c	-6.916755e-05
57	0xb890643b	-6.8851245e-05
58	0xb668baa4	-3.4679333e-06
59	0x3739d784	1.1077038e-05
60	0xb77c2fb0	-1.5031474e-05
61	0xb82f2527	-4.1757852e-05
62	0x36c3e36f	5.8379296e-06
63	0x37e387b0	2.7123693e-05
64	0x3673d69d	3.6334743e-06
65	0xb87d45dd	-6.0384966e-05
66	0x38d1066c	9.967093e-05
67	0xb76b96fd	-1.4042246e-05
68	0xb7c01d15	-2.2901726e-05
69	0xb881ae6a	-6.1836865e-05
70	0xb898575e	-7.264198e-05
71	0xb79b0ea9	-1.8484267e-05
72	0x38cfe662	9.913441e-05
73	0x3795a416	1.7838593e-05
74	0x3813c0d6	3.5227124e-05
75	0xb72fc795	-1.0477282e-05
76	0x3839cda1	4.4298944e-05
77	0xb718a66c	-9.098654e-06
78	0x3839b104	4.4272296e-05
79	0x38c090d6	9.182251e-05
80	0xb7d8386b	-2.5775478e-05
81	0xb7b33d6a	-2.1367061e-05
82	0xb7f09b0e	-2.8682432e-05
83	0xb8b3b89a	-8.56977e-05
84	0xb788a1ab	-1.6287746e-05
85	0x384dd212	4.9071452e-05
86	0x377a6880	1.4925492e-05
87	0xb753aaf7	-1.2616386e-05
88	0x388fb6be	6.85281e-05
89	0x38995377	7.311155e-05
90	0xb6e3d471	-6.7898586e-06
91	0x38482556	4.7718488e-05
92	0x37cd1897	2.4449355e-05
93	0xb62e0d35	-2.5935708e-06
94	0x368a5cb1	4.123511e-06
95	0xb874903f	-5.8308473e-05
96	0xb9178a25	-0.00014451945
97	0xb9a764a2	-0.000319277
98	0x3982f6c0	0.00024979375
99	0xba31af7e	-0.00067781645
100	0xb9d8e2c9	-0.000413677
101	0xb94fbc2e	-0.00019811161
102	0xba1f0c5a	-0.0006067209
103	0xb9029894	-0.00012454606
104	0x3994d1a0	0.00028384943
105	0x39ad43fd	0.00033047787
106	0x38311d45	4.2227348e-05
107	0x39489793	0.00019129952
108	0x39234e66	0.00015574097
109	0x39d3c01e	0.00040388195
110	0x386ad070	5.598407e-05
111	0xb7098840	-8.1975595e-06
112	0xb8a4df15	-7.861682e-05
113	0x3962d78c	0.00021633337
114	0x38b8484b	8.787269e-05
115	0x394bcfe9	0.00019437041
116	0x398b628c	0.0002658557
117	0x38a620be	7.9215955e-05
118	0xb773b26e	-1.4525473e-05
119	0xb742675a	-1.15873645e-05
120	0x376ee17b	1.4238404e-05
121	0x390e6d68	0.00013582932
122	0x3933f9b1	0.00017163788
123	0x399a2563	0.00029401024
124	0x39a558d9	0.0003153745
125	0x39126110	0.00013959804
126	0xb862f20f	-5.4108034e-05
127	0xb7929795	-1.7475142e-05
128	0xb7a916f1	-2.0157053e-05
129	0x38f48057	0.00011658732
130	0x391bd229	0.00014860243
131	0x39a6ebd4	0.00031837693
132	0x392bc769	0.00016382117
133	0x3918f073	0.00014585424
134	0x38fb6a3d	0.00011988401
135	0x38ea8c03	0.00011184069
136	0x38de2bcf	0.00010593945
137	0x39132fdc	0.00014036841
138	0x39678414	0.0002207908
139	0x38c8074d	9.538103e-05
140	0x38ba8b31	8.8950976e-05
141	0x37bca9fc	2.2490502e-05
142	0x390f9902	0.00013694543
143	0x3913a354	0.00014079857
144	0x386bfea5	5.6265522e-05
145	0x38b7b0e7	8.7590706e-05
146	0xb93af7fd	-0.00017830725
147	0xb9298174	-0.00016165321
148	0x39f28b4a	0.00046261615
149	0x3a880622	0.0010377804
150	0x35c28d38	1.4495226e-06
151	0x3aa22d71	0.0012373162
152	0x3a9e9530	0.0012098905
153	0xb994de20	-0.00028394256
154	0x3a817464	0.0009876606
155	0x3a8056a8	0.000979145
156	0x37e736fc	2.756295e-05
157	0xb8808d15	-6.129794e-05
158	0x3837cfc6	4.3824104e-05
159	0x3854edaf	5.07661e-05
160	0x3774a94b	1.458295e-05
161	0xb733a520	-1.0707678e-05
162	0x37737e49	1.4513332e-05
163	0xb7f0a55e	-2.8687235e-05
164	0xb8413a52	-4.60691e-05
165	0xb791d7ba	-1.7385802e-05
166	0xb8cfa193	-9.900625e-05
167	0xb8dcee60	-0.00010534818
168	0xb7d16f23	-2.4966494e-05
169	0xb8487d43	-4.7800375e-05
170	0xb7fd668f	-3.0207708e-05
171	0xb8257e0a	-3.945645e-05
172	0xb70e97d6	-8.499212e-06
173	0xb87b7ef3	-5.9961294e-05
174	0xb7a9dbc4	-2.0248706e-05
175	0xb831547b	-4.2278767e-05
176	0xb7cace5f	-2.4176376e-05
177	0xb711d727	-8.692768e-06
178	0xb76dba5b	-1.416969e-05
179	0xb7ea7a40	-2.79519e-05
180	0xb7b77f54	-2.1874592e-05
181	0xb7d85834	-2.579028e-05
182	0x37a36e1d	1.948239e-05
183	0x37ed3316	2.827639e-05
184	0x383cb973	4.4995406e-05
185	0x37178273	9.030674e-06
186	0x379799c3	1.8072204e-05
187	0x3694c6d5	4.433891e-06
188	0x38383c93	4.3925433e-05
189	0x37c4f96b	2.3481165e-05
190	0xb8b97994	-8.844133e-05
191	0xb873c43f	-5.8118483e-05
192	0xb6d5cffe	-6.372108e-06
193	0xb711c1df	-8.687813e-06
194	0x373ef639	1.1382211e-05
195	0xb804444f	-3.153487e-05
196	0xb819d431	-3.667566e-05
197	0xb8a19075	-7.7039855e-05
198	0xb8ff854d	-0.00012184177
199	0xb8844d87	-6.308691e-05
200	0xb955a99c	-0.00020376447
201	0xb91aae16	-0.00014751437
202	0xb872e1cf	-5.7907597e-05
203	0xb983b3fa	-0.0002512036
204	0xb9301a4a	-0.00016794461
205	0xb926360a	-0.00015851125
206	0xb8c58597	-9.418575e-05
207	0xb95386f7	-0.00020172806
208	0xb923fa62	-0.00015638166
209	0xb81c6b25	-3.7293084e-05
210	0xb8864c44	-6.4038235e-05
211	0x38c200b6	9.250773e-05
212	0xb98199b9	-0.0002471933
213	0xb8845fb4	-6.3120766e-05
214	0xb8682805	-5.535038e-05
215	0xb9144717	-0.00014140863
216	0xb6fade9c	-7.4764957e-06
217	0xb8c35396	-9.313894e-05
218	0xb5d07731	-1.5531897e-06
219	0xb65d4d49	-3.2976552e-06
220	0xb5e84504	-1.7305433e-06
221	0xb87f295f	-6.0835268e-05
222	0xb863c72c	-5.430651e-05
223	0xb7fd755c	-3.02146e-05
224	0xb90568f1	-0.00012722962
225	0xb81320c2	-3.507804e-05
226	0x37b01434	2.0990243e-05
227	0xb8019e93	-3.090368e-05
228	0xb7a6e7e3	-1.9896723e-05
229	0xb7d3193c	-2.516491e-05
230	0xb75a8067	-1.3023709e-05
231	0xb789de26	-1.6435119e-05
232	0x379e65da	1.8882496e-05
233	0xb837ee7e	-4.3852713e-05
234	0x381ef9ed	3.7902897e-05
235	0x37b28ac3	2.128387e-05
236	0xb8c0c33c	-9.191639e-05
237	0x3822be18	3.880085e-05
238	0xb7bca94e	-2.2490185e-05
239	0xb890afe4	-6.899217e-05
240	0x37d2d8d7	2.5134925e-05
241	0x38b63ae2	8.689404e-05
242	0xb7d4e52d	-2.5379088e-05
243	0xb5b059c0	-1.3139143e-06
244	0x38659786	5.473897e-05
245	0x368adfe0	4.138783e-06
246	0xb81b268e	-3.6990787e-05
247	0xb740ba97	-1.1487536e-05
248	0x38825aba	6.215782e-05
249	0xb7c571cd	-2.3537223e-05
250	0x38064bb8	3.2018608e-05
251	0x389f1fd8	7.587642e-05
252	0xb9925d34	-0.00027916732
253	0xb95c4646	-0.00021007014
254	0x3a140f5e	0.0005648042
255	0xb9ffbadf	-0.0004877662

exp_avg_sq f4 [64, 52]
0	0x32f81975	2.8882576e-08
1	0x32e9b48b	2.7206871e-08
2	0x329be963	1.8150507e-08
3	0x32f19ffd	2.8128847e-08
4	0x32c99ab4	2.346983e-08
5	0x32936037	1.7156806e-08
6	0x3211624b	8.46246e-09
7	0x3160d50b	3.271739e-09
8	0x331fef58	3.7237754e-08
9	0x333e6015	4.432521e-08
10	0x339cbdc3	7.2988335e-08
11	0x33a164e7	7.515501e-08
12	0x33a0bddf	7.485118e-08
13	0x3358d712	5.0487024e-08
14	0x32e10cc1	2.6199247e-08
15	0x33417e1f	4.505102e-08
16	0x3317a40f	3.5306638e-08
17	0x336ffce0	5.5876512e-08
18	0x33304270	4.1038618e-08
19	0x33414256	4.4996646e-08
20	0x32ffb5c5	2.9768566e-08
21	0x3284f808	1.5479614e-08
22	0x32bc7efe	2.194383e-08
23	0x32f45718	2.8444944e-08
24	0x3387418f	6.2983524e-08
25	0x33447c9e	4.5748145e-08
26	0x330aecfa	3.2346158e-08
27	0x32b68327	2.124723e-08
28	0x33086e61	3.1765357e-08
29	0x3260f127	1.3093348e-08
30	0x33612156	5.2417214e-08
31	0x338a2443	6.432722e-08
32	0x338b6c78	6.492422e-08
33	0x3320052c	3.7257607e-08
34	0x3342565c	4.524769e-08
35	0x3327ff3c	3.9114852e-08
36	0x32a9b2e7	1.9755545e-08
37	0x33127975	3.410374e-08
38	0x3387c748	6.3226764e-08
39	0x339ca6e3	7.2946726e-08
40	0x33ac8ad1	8.034625e-08
41	0x33a2dee8	7.584259e-08
42	0x3342a96f	4.5323244e-08
43	0x3349c9dc	4.698255e-08
44	0x35b8b5ba	1.3761958e-06
45	0x359d1378	1.1703078e-06
46	0x35d852fb	1.6117405e-06
47	0x35d703fd	1.6019909e-06
48	0x35a3e9cb	1.2212489e-06
49	0x35b46ac9	1.3442124e-06
50	0x362cfa82	2.5775812e-06
51	0x3491d771	2.716511e-07
52	0x33ad95ea	8.0832095e-08
53	0x3398e383	7.119436e-08
54	0x32ea366b	2.7265932e-08
55	0x3331ba84	4.138066e-08
56	0x33ed2df8	1.1044534e-07
57	0x33e0c034	1.04657744e-07
58	0x3401b003	1.2078094e-07
59	0x3400b95a	1.198836e-07
60	0x32e347ee	2.6458988e-08
61	0x332afc77	3.9810825e-08
62	0x33c55f31	9.1908426e-08
63	0x33eeba30	1.1116606e-07
64	0x3423a202	1.5239496e-07
65	0x33ff2aa3	1.18821184e-07
66	0x331534de	3.473985e-08
67	0x335ac1c8	5.0933323e-08
68	0x3350503c	4.8501747e-08
69	0x33bd945b	8.827984e-08
70	0x33b1ddaa	8.282525e-08
71	0x33c446d5	9.1398455e-08
72	0x33d571f6	9.939315e-08
73	0x339c90ba	7.290642e-08
74	0x32df7438	2.6013467e-08
75	0x33453cbd	4.5922878e-08
76	0x33887be0	6.355526e-08
77	0x3393d53a	6.8840066e-08
78	0x338596fc	6.220759e-08
79	0x33a85dc7	7.8401676e-08
80	0x34019302	1.2067542e-07
81	0x331d036a	3.6557516e-08
82	0x3301d1fb	3.022613e-08
83	0x33445404	4.5711218e-08
84	0x338f8e38	6.684826e-08
85	0x33d0d7e7	9.725027e-08
86	0x34048b77	1.2344195e-07
87	0x33859489	6.2203135e-08
88	0x3313f229	3.4446348e-08
89	0x32dfbe5f	2.6047188e-08
90	0x339507b1	6.939752e-08
91	0x33fdb40c	1.1813981e-07
92	0x33f032e7	1.118513e-07
93	0x3390e0d0	6.746416e-08
94	0x33333b9a	4.1730893e-08
95	0x335bc6be	5.1170666e-08
96	0x363eeb29	2.8449087e-06
97	0x3644e970	2.9342154e-06
98	0x36932bb0	4.3860273e-06
99	0x366bcab6	3.5135722e-06
100	0x365d89ff	3.301189e-06
101	0x3682e5d3	3.901057e-06
102	0x373e8529	1.1355886e-05
103	0x35808b64	9.577311e-07
104	0x34e335b8	4.232113e-07
105	0x34dc6d0d	4.1057538e-07
106	0x34409d82	1.7938694e-07
107	0x349b0657	2.8875613e-07
108	0x3519ae65	5.725072e-07
109	0x352a6303	6.3474016e-07
110	0x354797aa	7.435398e-07
111	0x35159d04	5.5735313e-07
112	0x3472414e	2.2561764e-07
113	0x349c1daa	2.9078848e-07
114	0x34d39fa9	3.941798e-07
115	0x3562d078	8.449492e-07
116	0x35889a6d	1.0177733e-06
117	0x356a98f5	8.7394375e-07
118	0x3424551d	1.5304654e-07
119	0x346b2e99	2.1903033e-07
120	0x34404398	1.7905984e-07
121	0x3471b4d8	2.2510665e-07
122	0x34e2fb92	4.2278822e-07
123	0x354bfa16	7.5987316e-07
124	0x35877081	1.0091027e-06
125	0x352d3a96	6.4532776e-07
126	0x33fb42c3	1.1700242e-07
127	0x3435a391	1.6916444e-07
128	0x342fe36a	1.6380878e-07
129	0x34106391	1.3447267e-07
130	0x344b4089	1.8929326e-07
131	0x34f39b29	4.537517e-07
132	0x359489d1	1.1066969e-06
133	0x3537bcf1	6.844776e-07
134	0x341dd446	1.4698989e-07
135	0x345a9248	2.0356049e-07
136	0x34748aab	2.2774718e-07
137	0x34e39184	4.2387921e-07
138	0x3574cf7d	9.119902e-07
139	0x356ff242	8.938697e-07
140	0x33ec0403	1.0990336e-07
141	0x341e0ccb	1.4719551e-07
142	0x348adf80	2.586712e-07
143	0x35171bee	5.6292527e-07
144	0x358e481f	1.0600814e-06
145	0x35817eb7	9.648128e-07
146	0x34389873	1.7191796e-07
147	0x347c0cc2	2.347397e-07
148	0x372c7ab4	1.0280568e-05
149	0x37660926	1.3711198e-05
150	0x372f5ac7	1.0451949e-05
151	0x3780456c	1.5291116e-05
152	0x37893694	1.6357088e-05
153	0x379ccc52	1.8691793e-05
154	0x37e9f59e	2.7890139e-05
155	0x36d9e99b	6.494299e-06
156	0x331c0227	3.6323538e-08
157	0x32dfa208	2.60343e-08
158	0x331e8370	3.6906783e-08
159	0x33801f0c	5.966112e-08
160	0x339f449d	7.416495e-08
161	0x33575bda	5.0142127e-08
162	0x3354f686	4.9584308e-08
163	0x33050311	3.0969264e-08
164	0x33ed87b5	1.10608575e-07
165	0x33fc4c74	1.1748571e-07
166	0x33e7866a	1.07812255e-07
167	0x33d094c4	9.712815e-08
168	0x33c4f205	9.170984e-08
169	0x33d142cd	9.744472e-08
170	0x33ad0f4f	8.058725e-08
171	0x33ecd4f9	1.1028346e-07
172	0x339ed499	7.3961196e-08
173	0x33b2433a	8.300999e-08
174	0x332c94f7	4.0182353e-08
175	0x33c47eb0	9.1500056e-08
176	0x33ce1722	9.59683e-08
177	0x3381d12b	6.045078e-08
178	0x33b3b00b	8.367359e-08
179	0x33ca8b0f	9.4316526e-08
180	0x33e5b754	1.0696991e-07
181	0x334f5b67	4.8279073e-08
182	0x33372155	4.2638323e-08
183	0x33d92ea6	1.0113335e-07
184	0x345e23c2	2.068837e-07
185	0x3398ba0d	7.111894e-08
186	0x33ad2a18	8.063597e-08
187	0x33f1ebea	1.12653495e-07
188	0x3409c793	1.2831724e-07
189	0x34267fb0	1.5506407e-07
190	0x345be5a5	2.0479509e-07
191	0x3433c0d5	1.6740826e-07
192	0x33c7c0f9	9.301761e-08
193	0x33d2d7b7	9.818125e-08
194	0x34404d84	1.7909593e-07
195	0x34ac93d7	3.2145064e-07
196	0x34acbaf2	3.2173517e-07
197	0x344acbad	1.8886813e-07
198	0x3411fc64	1.3595997e-07
199	0x340b8103	1.2992318e-07
200	0x3677f237	3.6946856e-06
201	0x367ee63c	3.7982963e-06
202	0x368353ba	3.9138513e-06
203	0x36c6fade	5.9300646e-06
204	0x369c2ef0	4.6546265e-06
205	0x36a37723	4.871648e-06
206	0x3703e7ab	7.862148e-06
207	0x35d5b628	1.5922751e-06
208	0x34643c16	2.1256014e-07
209	0x34187d0a	1.4201592e-07
210	0x3478a9d9	2.315859e-07
211	0x3486529d	2.5019554e-07
212	0x347f0706	2.3751281e-07
213	0x34882271	2.5357033e-07
214	0x3440ca70	1.795504e-07
215	0x33feec9d	1.18708364e-07
216	0x348d1c62	2.6283948e-07
217	0x345a179a	2.0311418e-07
218	0x344d6137	1.912748e-07
219	0x347e3855	2.3676087e-07
220	0x348fa234	2.6753844e-07
221	0x3443078e	1.8163539e-07
222	0x3486b348	2.508989e-07
223	0x34b862f8	3.434468e-07
224	0x346f07ef	2.2261496e-07
225	0x343eb293	1.7760094e-07
226	0x34143224	1.3801815e-07
227	0x33fb2623	1.1695035e-07
228	0x33cc9cbb	9.5279994e-08
229	0x33c39420	9.107339e-08
230	0x3411f81d	1.359444e-07
231	0x3426412f	1.5483668e-07
232	0x3452d806	1.9636363e-07
233	0x3390fcbd	6.7514954e-08
234	0x33190a06	3.5632205e-08
235	0x33365401	4.245158e-08
236	0x340a809c	1.289904e-07
237	0x3385a20c	6.222771e-08
238	0x3483fe14	2.4585518e-07
239	0x34889c29	2.5445595e-07
240	0x34244a59	1.5300738e-07
241	0x3364f45f	5.330764e-08
242	0x33981da9	7.083447e-08
243	0x338f47bd	6.6720055e-08
244	0x3399fe52	7.170878e-08
245	0x33dd4f49	1.0305536e-07
246	0x33c11cdb	8.9925116e-08
247	0x33b1d752	8.281371e-08
248	0x33d29eee	9.807796e-08
249	0x33adb5d2	8.089013e-08
250	0x33875f4b	6.303761e-08
251	0x330c2d3d	3.2637434e-08
252	0x36a92f26	5.0420813e-06
253	0x36901f61	4.2951874e-06
254	0x368bbc9e	4.1644807e-06
255	0x36c74e50	5.939779e-06

exp_avg f4 [64]
0	0x37529fd4	1.2554188e-05
1	0xb830373c	-4.201311e-05
2	0x3913fd58	0.0001411339
3	0xb78799bf	-1.6164848e-05
4	0xb842accb	-4.641413e-05
5	0x3842950f	4.6392026e-05
6	0xb7d54311	-2.5422809e-05
7	0xb7adc1a8	-2.0713385e-05
8	0xb8b64d85	-8.6928754e-05
9	0x38a8ac2f	8.042936e-05
10	0xb82b4caa	-4.0840976e-05
11	0xb7b390a2	-2.1405813e-05
12	0x37f334f9	2.8992525e-05
13	0xb85f09cd	-5.317647e-05
14	0x383326c9	4.2713047e-05
15	0xb8038960	-3.1360774e-05
16	0xb930b2d3	-0.00016851285
17	0x377a0e71	1.4904524e-05
18	0xb8f691f1	-0.00011757378
19	0x3833ed5d	4.2897987e-05
20	0xb445428e	-1.8371267e-07
21	0xb8a6f443	-7.960994e-05
22	0x379b5926	1.8518953e-05
23	0xb86aab90	-5.5949728e-05
24	0xb8d38f87	-0.00010087998
25	0xb82d20da	-4.127701e-05
26	0xb77b9a7c	-1.49967345e-05
27	0x38cfddb0	9.911822e-05
28	0xb754b964	-1.2679349e-05
29	0x380d3f34	3.3675882e-05
30	0xb7b1a9db	-2.117914e-05
31	0xb88cb703	-6.709809e-05
32	0xb7199f43	-9.156592e-06
33	0xb6b80ec3	-5.485346e-06
34	0x3746988c	1.1837237e-05
35	0xb97759a6	-0.00023589152
36	0xb78ec201	-1.701806e-05
37	0x37537a90	1.2605116e-05
38	0x38dc18c5	0.00010495031
39	0xb913ee22	-0.00014107724
40	0xb8bd074a	-9.01358e-05
41	0x3508595c	5.0793983e-07
42	0x3589e246	1.027315e-06
43	0xb83b8c37	-4.471486e-05
44	0x380b8fdc	3.3274162e-05
45	0x3891d935	6.954597e-05
46	0xb73599e4	-1.0824271e-05
47	0x391e1d38	0.00015078939
48	0xb673923c	-3.6294941e-06
49	0xb882c7d1	-6.236102e-05
50	0xb7bd507d	-2.2568036e-05
51	0x39038816	0.0001254383
52	0x388bfea5	6.675468e-05
53	0xb808ed5a	-3.2645978e-05
54	0xb810c117	-3.4512104e-05
55	0xb7593bc8	-1.2948127e-05
56	0xb7acb968	-2.0590334e-05
57	0xb920d0cd	-0.00015336573
58	0x37782ce7	1.4792407e-05
59	0x38fd172e	0.00012068298
60	0xb8172748	-3.603779e-05
61	0x35d5c006	1.5925623e-06
62	0xb88d7376	-6.74491e-05
63	0xb85bf30c	-5.2440024e-05

exp_avg_sq f4 [64]
0	0x329a5937	1.796853e-08
1	0x33502f3d	4.8471737e-08
2	0x348046b7	2.389331e-07
3	0x338f6bf7	6.678595e-08
4	0x33abe921	8.005214e-08
5	0x32ecb9d8	2.7558528e-08
6	0x33fd234a	1.17876496e-07
7	0x34632bf3	2.1157011e-07
8	0x3415aae8	1.3938882e-07
9	0x340b55ab	1.297655e-07
10	0x33964fac	6.9994115e-08
11	0x336500a7	5.331881e-08
12	0x33811890	6.0114985e-08
13	0x3304585d	3.081401e-08
14	0x34118173	1.355127e-07
15	0x335e8a7d	5.1814357e-08
16	0x3404c4af	1.2365011e-07
17	0x32ea5892	2.7281462e-08
18	0x341cb91b	1.4595973e-07
19	0x3377cfc4	5.769813e-08
20	0x32c91b1a	2.3411804e-08
21	0x3377658d	5.760153e-08
22	0x32e3326f	2.6449213e-08
23	0x33b3338c	8.3447134e-08
24	0x3432c8b1	1.6650553e-07
25	0x33eed38b	1.1121218e-07
26	0x32946d53	1.7279183e-08
27	0x342a7267	1.5874103e-07
28	0x338cdee6	6.559803e-08
29	0x33d2584f	9.79495e-08
30	0x33d6f52f	1.000975e-07
31	0x33f10b22	1.1224462e-07
32	0x335503d0	4.9596395e-08
33	0x333be2c9	4.374559e-08
34	0x32ba2b3d	2.1672912e-08
35	0x34525c88	1.9591437e-07
36	0x333390a1	4.1808224e-08
37	0x3298bcdd	1.7781014e-08
38	0x3388483a	6.3461314e-08
39	0x342086d3	1.495021e-07
40	0x343bce7a	1.7490848e-07
41	0x33aee8e8	8.144872e-08
42	0x323933b4	1.0780173e-08
43	0x3427f08a	1.5640595e-07
44	0x34a33b53	3.040428e-07
45	0x33917e37	6.775047e-08
46	0x3387a680	6.3167136e-08
47	0x33d80d73	1.006073e-07
48	0x318f78f8	4.1756003e-09
49	0x343cd17a	1.7585072e-07
50	0x33e6e3a8	1.075162e-07
51	0x34d95554	4.0481484e-07
52	0x332411c1	3.8200373e-08
53	0x340b6d5b	1.2985167e-07
54	0x336704a1	5.378809e-08
55	0x338636b3	6.249811e-08
56	0x3334bbc6	4.2080295e-08
57	0x34a8abe1	3.1417497e-07
58	0x33ef2cae	1.1137432e-07
59	0x33f6ea76	1.1497916e-07
60	0x33166fd2	3.5026297e-08
61	0x3387c07f	6.321442e-08
62	0x3343dcf7	4.5602942e-08
63	0x33934384	6.857502e-08
