results/076old/Dynamic Table/Dynamic Table-861945.onnx (onnx, 209505 bytes, 9 tensors)

network_body._body_endoder.seq_layers.0.weight f4 [128, 95]
000000 fb 3b 0b be a1 f7 af be d7 9e e4 bd a5 12 f4 bd
       -0.135971 -0.34368613 -0.11163109 -0.11917619
000010 31 91 54 be d0 0e 51 3d 99 74 1a be 30 bd 64 bc
       -0.20758511 0.051039517 -0.15083541 -0.013961121
000020 d5 e6 21 be b1 c1 90 bd c0 4c 79 3d 60 e2 29 be
       -0.15810712 -0.07068194 0.06086421 -0.16590261
000030 9a 7a ed bb 17 67 25 3e ef 3d 44 bd c9 3f d7 bc
       -0.0072472813 0.16152607 -0.047910627 -0.026275532
000040 69 57 c6 3c 25 90 03 be 7f c0 33 3e c0 2b ff bd
       0.024211602 -0.12847956 0.175539 -0.124595165
000050 ca 4e 3c be c1 43 12 be 90 1f 16 bc c6 57 7d bb
       -0.1838943 -0.14283659 -0.0091627985 -0.0038657053
000060 f1 40 1a be fc 6f 90 bd 5f 49 25 bd fb 12 f9 bc
       -0.15063836 -0.07052609 -0.040353175 -0.030404558
000070 6f 27 15 3e 20 07 0e 3d ef 3b 7b 3e 24 14 54 bd
       0.14565824 0.034674764 0.24534582 -0.05177702
000080 0f e1 c0 bd 05 38 02 be a7 35 a3 3c d3 ea 06 3e
       -0.094179265 -0.12716682 0.019923044 0.13175516
000090 9c 8f a9 bb ca db a0 3c bf a6 c1 3d eb 35 c9 3d
       -0.0051745903 0.019636054 0.094556324 0.09824737
0000a0 5f 14 87 bc bd a0 ec 3d 50 c4 89 3e f4 5a 35 3e
       -0.016489206 0.11554096 0.26907587 0.17710477
0000b0 83 85 33 bd c2 e5 ea 3b b2 24 85 3d e1 16 f9 bb
       -0.0438285 0.0071685025 0.0650114 -0.0076016043
0000c0 be 00 f6 3c 27 fa e2 3b 07 27 bf 3d 80 39 36 be
       0.03002965 0.006926793 0.09333616 -0.17795372
0000d0 27 33 a0 bd da 5b 36 3d e6 e6 d5 bc e8 f3 61 bd
       -0.078222565 0.04452119 -0.026111078 -0.055164248
0000e0 f1 07 df 3d a9 8a 4c bc 56 b8 01 3e 9e 7e 30 be
       0.108901866 -0.012484231 0.12667975 -0.172358
0000f0 24 28 ef bc 45 75 f5 3d 58 8a 6f bd 79 15 f8 3c
       -0.029193945 0.11985258 -0.058481544 0.030283676
000100 e2 09 a6 bd a6 1c 97 3c 50 8a f2 3d ef 54 f3 3c
       -0.08107354 0.018446278 0.11842787 0.029703585
000110 07 60 65 be 6a ba 22 be a9 f7 4d bd 23 ae 20 bd
       -0.22399913 -0.15891424 -0.050285015 -0.03922857
000120 62 51 13 3e b6 28 4b bd dd 3f c9 bc e9 c2 e4 bd
       0.14386514 -0.04959937 -0.024566585 -0.11169989
000130 88 ea dc 3c 07 1a a3 3c ca ca d7 bc 37 c6 62 bd
       0.026967302 0.019909872 -0.026341815 -0.055364814
000140 42 67 0e be 75 6a ab bc c1 d2 dc 3c 59 80 20 bd
       -0.13906577 -0.020924786 0.026955964 -0.039184902
000150 72 f0 8b 3d 19 32 32 bd a7 ee 89 bb 73 ba a7 3d
       0.06832971 -0.043504808 -0.004209358 0.08189859
000160 94 f7 26 bd 53 69 9a 3c f9 05 29 3d 31 62 b1 bd
       -0.040763453 0.01884905 0.04126546 -0.08661307
000170 5b c7 f5 bd 91 ab b2 3d 8c 7e 34 3e bc d0 1d be
       -0.12000915 0.0872413 0.17626399 -0.15411657
000180 f9 d0 8e 3d b5 7e d4 3d 76 dc 59 be 7f cf 97 3d
       0.06973452 0.1037573 -0.21275505 0.074126236
000190 a4 e2 06 be 00 9d 5a be f2 a3 01 be d6 da c0 bd
       -0.13172394 -0.21348953 -0.12660196 -0.0941674
0001a0 a0 81 81 3d 7e ec 44 3d 1a ef f7 3d 89 6b ce 3d
       0.06323552 0.0480771 0.12106152 0.100791045
0001b0 78 ae 22 be 7f 0e 13 be 5c ea 34 be d8 33 0c be
       -0.15886867 -0.14360999 -0.17667526 -0.13691652
0001c0 74 db e2 3d 5a 20 68 3e bc 60 41 be 23 a9 28 be
       0.110770136 0.22668591 -0.18884557 -0.1647077
0001d0 46 2e 9b 3d d8 06 9e be 7f e7 d4 3d ce af 6d be
       0.07577185 -0.30864596 0.10395717 -0.23211595
0001e0 ab 4c fc bd 16 d2 37 be f3 47 73 3e d3 89 c0 bc
       -0.12319311 -0.17951235 0.23757915 -0.02350322
0001f0 10 24 b5 bd 20 de dc 3c 7a 49 bc bd 09 8b c0 bd
       -0.08844769 0.026961386 -0.09193702 -0.09401519
000200 52 76 24 be a7 4a c1 bd ae a8 47 3e bf 97 3d be
       -0.1606076 -0.09438067 0.1949794 -0.18514918
000210 23 71 3b be ba 16 8a 3d fd fd 26 3e d1 84 cc bd
       -0.18304877 0.06742616 0.16307826 -0.0998627
000220 08 5b 7d 3d 9e e4 0e be 88 dc b9 bc 85 54 96 3d
       0.061854392 -0.13954398 -0.022688165 0.073403396
000230 18 d9 ed bd db e3 ee bd 33 94 cb 3c cf e5 35 bd
       -0.11613673 -0.11664554 0.02485094 -0.044408616
000240 45 be e8 bd 1c 20 3e be 59 61 cd 3d cf aa b8 bd
       -0.11364416 -0.18566936 0.10028333 -0.09016954
000250 e6 bb 50 3d 1d 2c fd bc 8c dd 71 3d 44 45 af 3d
       0.050960444 -0.030904824 0.059049174 0.08558133
000260 f9 60 03 be 7e 17 3c bc f8 e9 c6 bc 04 8d 04 3e
       -0.12829961 -0.01148021 -0.024281487 0.12944418
000270 c9 a5 a6 3c 4c ad bb bd d6 df dd 3c 36 4a 99 bc
       0.020342724 -0.09163913 0.027084272 -0.018712144
000280 9f f1 0d 3e fb 04 21 be 22 90 0f 3e 14 d8 52 3c
       0.13861702 -0.15724556 0.14019826 0.0128689
000290 17 38 8f bd 4c 95 a0 3c 67 45 dd 3c 2b e6 84 bc
       -0.0699312 0.01960244 0.027010633 -0.016223034
0002a0 cc 21 1a bc b6 ef 32 3d 71 db 09 3d 75 56 14 3e
       -0.009407472 0.043685637 0.03365654 0.14486106
0002b0 6c 1d f6 bd 90 4b b2 3d 45 a2 bb bd 8f 92 f0 bd
       -0.120173305 0.08705819 -0.0916181 -0.11746704
0002c0 0d 3e 92 3e f5 35 fd bd da 8a d4 3d c9 b1 0a 3d
       0.28562966 -0.12363807 0.10378046 0.033860955
0002d0 a7 e5 b1 3d 55 ff f0 3c d5 05 1a 3e a5 9c 8c bd
       0.08686381 0.029418627 0.15041287 -0.06865815
0002e0 2c 13 f7 bd 96 d4 e7 b9 7d 00 df 3d 7a 43 7d be
       -0.120642036 -0.00044218142 0.10888765 -0.24732772
0002f0 32 2c 09 3e 56 aa 5c 3e fa bb 89 3e 7b ad 6a be
       0.13395765 0.21549353 0.26901227 -0.2291774
000300 ab 98 5f bc d7 fb 75 bc 2b 71 49 3e 60 ca 0f bd
       -0.013647239 -0.015013657 0.19672076 -0.03510511
000310 0b 76 9d bd 59 21 b4 3d 6b 82 68 be 7e a9 35 3e
       -0.076885305 0.08795423 -0.22706 0.17740437
000320 a7 18 a0 bd 2f 65 90 bd 9e 48 bf bd 2b 1c 8e bc
       -0.07817202 -0.07050549 -0.093400225 -0.017347416
000330 9d 0b b4 3d 02 ae 82 3d 89 8b be bc 3a 8c dc 3d
       0.087912776 0.063808456 -0.023259895 0.107689336
000340 25 c6 89 bd 06 d8 a0 3d fb 42 b5 3d aa 66 f0 3d
       -0.06727246 0.07853703 0.08850666 0.117383316
000350 70 9c f2 3d c2 04 79 3c 39 4b 80 3d 7c 49 29 3e
       0.11846244 0.015198888 0.062643476 0.16531938
000360 5b 85 50 3e 19 53 ef 3d 3e 4f 2e be f6 0d d8 3d
       0.20363371 0.116857715 -0.17022416 0.10549538
000370 77 e4 31 3e 56 a7 82 3d 13 04 26 bd a1 f2 fd bd
       0.17372309 0.06379573 -0.04053123 -0.123997934
000380 90 50 5f 3e d7 6e 24 bc bf c7 0c 3e 00 f4 e4 3d
       0.21808076 -0.010036192 0.13748072 0.11179352
000390 2b 85 f8 3d 49 3e 22 3c e8 50 58 bb 21 5b 11 ba
       0.12134775 0.009902545 -0.0033007208 -0.00055448903
0003a0 78 ac 4b 3e 6d 2b 34 bd 4b 77 93 be 4f c9 07 3e
       0.1989001 -0.043986727 -0.2880195 0.13260387
0003b0 54 fc 3f 3e ed b2 07 be 7a bc 4f bd 52 18 cf 3d
       0.187486 -0.13251849 -0.050716855 0.101120606
0003c0 14 8d 4d bd 10 af f4 3d 7f 8c 51 3d eb 94 17 bd
       -0.05018337 0.11947453 0.05115938 -0.037007254
0003d0 a1 86 83 3c 0f e2 98 3c f5 b9 0c 3e 1b 73 0d 3d
       0.016055407 0.01866248 0.13742812 0.0345336
0003e0 19 a0 17 be 91 da 32 be 1d 9b de bd 79 e8 82 3d
       -0.14807166 -0.17466189 -0.10869429 0.06391997
0003f0 ff 81 3d 3d 67 e3 f7 3b 0c 6e 51 bd 8b 0c 3b 3e
       0.046266552 0.0075649503 -0.05113034 0.18266504

network_body._body_endoder.seq_layers.0.bias f4 [128]
000000 83 02 cf bc c5 b8 53 bc 9a c3 e1 3b b5 a7 92 bc
       -0.025269752 -0.01292247 0.0068897726 -0.017902235
000010 da c5 b5 bc c1 d7 e8 38 fa fe b8 bb 73 0d 09 39
       -0.02218907 0.000111028094 -0.00564563 0.00013070348
000020 ed f7 f2 bc 01 76 46 bc 5c 92 54 3c 9b 5b 06 bd
       -0.029659236 -0.012113095 0.012974348 -0.032802206
000030 7a db 1e bd 75 7a 96 bc ac 08 9c 3c 9d 13 d1 bb
       -0.038783528 -0.018368939 0.019047104 -0.006380512
000040 87 7e 53 bc 2f 3e 3b bc 79 87 0b bd 72 cd 9d bc
       -0.012908584 -0.0114284 -0.034064744 -0.019263003
000050 7e 8f 45 3b fc 39 8e bc 16 4d a2 bb ac 5d 41 3a
       0.0030145342 -0.017361633 -0.004953037 0.0007376324
000060 b9 b6 90 bc 25 e6 1a 3c 07 c4 28 bd 01 d9 04 3b
       -0.017665254 0.009454285 -0.04120257 0.0020270946
000070 44 ca d4 3c 74 25 b5 3b b1 b8 55 bc b1 02 30 3b
       0.025975354 0.0055281464 -0.013044522 0.0026857073
000080 2b 0a 06 bd 3f 2e 04 3c 80 8f 56 bc df 3a cd 3b
       -0.03272454 0.008067667 -0.0130957365 0.0062631215
000090 28 3b 9a bc 20 db 95 bc 6d c1 9e bc 2e e1 d2 bc
       -0.018827036 -0.018292964 -0.019379342 -0.02574214
0000a0 ff b4 2d bc 2b 79 0b bd 46 e7 07 bd 44 de 21 bd
       -0.010602235 -0.0340511 -0.033179544 -0.03951861
0000b0 09 f3 9e bb 93 bc 0f 3a ed 03 65 ba d8 55 02 3d
       -0.0048507494 0.0005483117 -0.0008736242 0.03182015
0000c0 15 24 cb bb 22 40 33 bc 98 93 a0 bc 5c e4 c0 bb
       -0.0061993697 -0.010940583 -0.019601628 -0.0058865976
0000d0 4d 51 40 ba f5 ef 09 bd 4d b4 98 bc 53 46 a7 bb
       -0.00073363335 -0.033676106 -0.018640662 -0.005104819
0000e0 cd 78 2f bd 63 7a b8 bb fa c4 27 bd e5 3d 84 bc
       -0.042839814 -0.005629824 -0.040959336 -0.016142795
0000f0 13 a8 16 bd 74 eb cb 3c cb 1c 96 bc 6d cf 71 bc
       -0.03678138 0.024892546 -0.018324276 -0.014758927
000100 2d b1 19 3c d8 35 ab 3b d7 8f 60 ba 9c 5d a2 bb
       0.009380621 0.0052249245 -0.00085663557 -0.0049550068
000110 e6 48 bd bc b1 d7 9b bc 88 f6 63 bc c5 90 cb bb
       -0.02310605 -0.019023748 -0.013913758 -0.006212326
000120 68 80 8b bc 77 6f 9b bc d9 86 af 3b cb 86 b0 bc
       -0.017029002 -0.018974049 0.0053566513 -0.02154865
000130 5b 40 cc bb 62 64 95 3c 0c 4c 87 bd 71 0a 35 bd
       -0.0062332577 0.018236343 -0.06606302 -0.04419941
000140 b9 ae 98 3b 27 c3 c0 bc e4 5c 44 bc ec b5 34 bc
       0.0046595004 -0.023530556 -0.0119850375 -0.011029702
000150 c6 b0 18 3a e1 3b b8 3b b1 78 dc bb c3 36 75 bc
       0.0005824681 0.0056223725 -0.0067282547 -0.0149666695
000160 11 0e b2 bc b4 7d a3 bc 79 71 09 b9 02 ff 23 bc
       -0.021735223 -0.0199574 -0.0001310761 -0.010009529
000170 87 74 15 bc 03 2a e0 bc 98 0c 36 3c 16 34 47 bd
       -0.009122021 -0.027363783 0.011111401 -0.048633657
000180 98 09 04 bc 66 a8 c9 bc a9 00 94 bc 82 ec e8 3b
       -0.008058928 -0.024616431 -0.018066721 0.007108272
000190 dc f7 4e 38 f9 78 42 bb 36 39 46 bc 7d f4 41 bc
       4.9345064e-05 -0.0029674156 -0.012098601 -0.011838076
0001a0 ad 70 00 bd f8 4a b5 3c 55 f4 0d 3c e0 41 13 bc
       -0.031357456 0.022130474 0.00866421 -0.008987874
0001b0 5f 19 67 bc d1 f7 ac 3c 6b 38 a0 3c a2 c0 98 3c
       -0.01410517 0.021114262 0.019558152 0.018646542
0001c0 e1 cb 36 3c 2f b2 c7 bc 84 1e 10 bb 78 dc ad bc
       0.011157007 -0.024376957 -0.0021990845 -0.021223292
0001d0 1c 95 8d 3b 31 58 36 bc 5c 16 a2 bc 4c b6 9a bb
       0.0043207537 -0.011129425 -0.019786052 -0.0047214385
0001e0 d6 24 57 3c 06 d6 cc bc 83 c6 4b bb 57 fc 02 bb
       0.013131341 -0.025004398 -0.0031093664 -0.0019986832
0001f0 2f e4 2d bc 5b 4c b6 bb 9e 01 95 3b f8 e5 2c bb
       -0.010613485 -0.0055633015 0.004547312 -0.002638219

network_body._body_endoder.seq_layers.2.weight f4 [128, 128]
000000 b2 00 f7 bd 3b 4a ac 3d 5b 17 d5 3c d1 25 26 3c
       -0.120606795 0.08412596 0.026012113 0.010140852
000010 a7 df b5 3d 7f bb 49 3d 21 bb 05 be 7c cf 78 bd
       0.08880549 0.049251076 -0.13059665 -0.060744748
000020 80 f0 24 bd 7f c8 a2 3d 70 2d cd 3c 5e 74 52 bd
       -0.04026842 0.07948398 0.02504608 -0.051380508
000030 25 93 3b bd dc b1 02 be 82 bd 40 be 80 71 13 bd
       -0.045794625 -0.1276316 -0.18822291 -0.035996914
000040 fd 2f 89 3b b2 5e 9d 3d a8 a8 2a bc 23 92 13 3d
       0.004186629 0.07684077 -0.010416187 0.03602804
000050 a7 b8 82 bc 7c 4e 0d be a6 31 f0 ba 78 1a c6 3d
       -0.01595719 -0.1379947 -0.0018325343 0.09673017
000060 28 4f 9f bd 64 d9 aa 3d b4 16 72 3e 58 a1 3c bd
       -0.0777877 0.08342245 0.23641473 -0.046052307
000070 b4 21 0d bc f7 9d 27 3c 68 7d 28 3b 49 3a 66 bb
       -0.0086139925 0.010230533 0.0025709514 -0.0035129956
000080 71 c0 e8 3d df d9 dc 3c 4d 67 b4 bc bc f2 8a bb
       0.1136483 0.026959358 -0.022021914 -0.004240362
000090 e9 2a ca bd d2 7a 0b 3e d7 06 34 3d 03 eb 80 bd
       -0.09871466 0.13621071 0.043951835 -0.06294825
0000a0 3b 13 1d 3e 5a af 0d 3e 52 a4 b3 bd 27 1e 5a 3d
       0.15339367 0.13836423 -0.08771576 0.05325141
0000b0 b8 c3 43 bd 86 74 0c 3d 92 fb d1 bd b2 f3 59 3d
       -0.047794074 0.034290813 -0.10253061 0.05321092
0000c0 b6 64 9b bb f6 38 33 bd 0b bf 79 be a4 69 0a be
       -0.0047422303 -0.043755494 -0.24389283 -0.13516861
0000d0 3f 3c a8 bd 66 07 ef bd d7 dc 0a bd 7d 26 63 bc
       -0.08214616 -0.11671333 -0.033902016 -0.013864157
0000e0 e7 d8 d5 3d 40 5c 00 bd 72 0f 17 bd 0a 26 68 be
       0.104417615 -0.031337976 -0.036879964 -0.22670761
0000f0 4a 81 b7 bc c1 be 9a bd 1e 83 dd 3d db 23 ea bb
       -0.022400517 -0.07555915 0.10816024 -0.0071453876
000100 4c 77 fa bc 76 29 c2 bd d7 88 c2 bd 31 01 d3 3d
       -0.030574463 -0.09480564 -0.094987564 0.103029616
000110 30 c2 5c 3d ee d3 88 bd 6e d8 21 3d bf 47 e6 bd
       0.05389613 -0.066810474 0.039513044 -0.11244153
000120 0c 6b a0 3c 33 9f 91 bd 18 ca 00 bd 83 e3 cb bc
       0.019582294 -0.07110443 -0.03144273 -0.02488876
000130 08 27 9f 3a d7 de b0 bd bc 14 17 be 62 1c 42 3d
       0.001214237 -0.08636253 -0.14754003 0.04739035
000140 c2 38 7e 3d 34 3b 4c be e9 bb 01 be 2c 3a 93 bc
       0.062065847 -0.19944459 -0.12669338 -0.017972074
000150 de 52 3e 3d 71 e3 8e 3d b2 aa f0 3c 68 98 47 3d
       0.046465747 0.06976975 0.029378269 0.04872933
000160 09 22 60 bd e3 7e d3 bd 78 98 30 bd af 38 7e bd
       -0.05471996 -0.10326936 -0.043114156 -0.062065776
000170 84 dc 18 3e d4 45 0e 3e 11 37 bd bc 21 a8 07 be
       0.1492787 0.13893825 -0.023097547 -0.1324773
000180 96 8c 8d bd b5 9d cf bc 5b 4d 35 bd 84 90 17 be
       -0.0691158 -0.025343755 -0.044263225 -0.14801222
000190 dd 85 8a 3d 79 35 c1 bb f6 86 f1 b8 85 ba 08 be
       0.06763814 -0.005896267 -0.00011516914 -0.13352402
0001a0 57 35 01 be 9b 43 b6 bd 76 32 6d be 9a ca a1 bd
       -0.12618004 -0.088996135 -0.2316378 -0.07899971
0001b0 ae ba e7 3c d3 2c 31 3d 8e 81 7b bd 42 ae 73 bd
       0.028287258 0.04325564 -0.06140285 -0.059492357
0001c0 45 a2 54 3e 9e a5 b3 3d 09 f5 36 3d 7a 4b 99 bd
       0.20765026 0.08771823 0.044667277 -0.07485099
0001d0 26 f1 a1 bd 89 a7 50 bd 57 21 80 3c da e1 f6 3c
       -0.079073235 -0.050941024 0.015640898 0.030136991
0001e0 a0 be 8c bd 32 66 f7 3d cc 0c bd 3d 99 0a d6 3c
       -0.06872296 0.12080039 0.092309564 0.0261281
0001f0 d4 55 11 3e 97 f5 d9 bd 10 17 fc 3b fd 14 78 bd
       0.14192897 -0.10642546 0.007693179 -0.06056689
000200 55 22 fc 3d 59 85 30 be f2 65 75 bd 0c 26 c7 3d
       0.12311236 -0.17238368 -0.059911676 0.09724054
000210 11 66 9a 3d 6f 87 6c bc ca df 57 3d 75 03 3f 3d
       0.07538999 -0.014436587 0.052703656 0.046634156
000220 1b 79 57 3c c5 05 66 bd f7 18 37 be 69 fa 18 be
       0.013151432 -0.056157846 -0.17880617 -0.14939274
000230 8b 22 3b bc 33 57 d2 bc 67 93 bd bc 6e 8d 77 bd
       -0.01142181 -0.025676345 -0.023141576 -0.060437612
000240 f1 9e 49 bc 65 5e 58 3d e4 19 35 3e a6 03 20 be
       -0.012305961 0.052824397 0.17685658 -0.15626392
000250 e9 41 d9 3d 5c 0f 02 3e 92 47 9b be 01 af fd bd
       0.106082745 0.12701172 -0.3032804 -0.12386895
000260 1c 00 5b bd 4d 4f 0f be 7c a1 ae 3d 42 5d 6c bc
       -0.0534669 -0.13995095 0.085268945 -0.014426531
000270 c0 35 1a be bf 81 9c be d3 81 b7 bd 79 23 8d bc
       -0.15059566 -0.30567738 -0.08960309 -0.017228829
000280 44 1e 21 3e 69 a8 06 be d9 74 b4 bd 53 79 e8 3c
       0.15734202 -0.13150181 -0.088113494 0.028378164
000290 a5 28 90 3d 26 c3 81 3d 46 f8 93 be 91 27 c6 bd
       0.07039002 0.0633605 -0.28900355 -0.096755154
0002a0 1a 86 4f bd a8 19 21 3d 3e eb 5a 3b 07 d1 2c bd
       -0.050665 0.03933111 0.0033404375 -0.04219153
0002b0 20 fc 3f 3b 1c 25 8b 3e 71 a6 cb bc 99 76 00 be
       0.0029294565 0.2717675 -0.024859639 -0.12545241
0002c0 24 91 55 be be e0 83 bd 60 19 05 3e b2 2f 8b bd
       -0.20856148 -0.064393505 0.12997961 -0.067962065
0002d0 71 17 a1 bd 55 7f 2d be 76 f4 bb 3d 05 8b 45 3d
       -0.07865799 -0.16943105 0.091774866 0.048228282
0002e0 46 c7 97 be 4e 05 a0 bc f6 b5 93 3d 5a f1 c4 bd
       -0.2964422 -0.01953378 0.07212441 -0.09616347
0002f0 81 6b c6 3c 52 6a c8 3d bb f8 9d bb a4 bc 96 bd
       0.024221184 0.09785904 -0.0048209107 -0.07360199
000300 fa 66 32 bc 2f d5 38 be 6f fc 3c bd 61 2d c4 bd
       -0.010888809 -0.18050073 -0.046139177 -0.09578968
000310 a0 23 8d 3d bb d1 6f bc dc af ce 3d d3 c9 84 3c
       0.068915606 -0.014637406 0.10092136 0.016209519
000320 21 8b 85 3c c3 14 f6 bd 6f 87 7e bd 86 b0 4d 3d
       0.016301693 -0.12015679 -0.06214088 0.050217174
000330 32 e3 80 bd fc c1 0c be d9 86 7f bd cd 9f 62 bd
       -0.06293334 -0.13745874 -0.06238446 -0.05532818
000340 83 bd 87 bc 5b be d9 3d 9b ed 69 be b5 b7 bc bc
       -0.016569858 0.106320105 -0.22844546 -0.023036817
000350 d9 8f 20 3d eb 78 fd bd 81 64 f1 bd 47 41 1a bd
       0.039199684 -0.12376579 -0.11786748 -0.03765991
000360 4e e8 79 bd 35 10 92 39 a6 bc eb bd c7 ba 6f 3d
       -0.06101256 0.00027859365 -0.11510591 0.058527734
000370 a0 39 00 3e 7e 4e 18 bd b9 95 bf 3c 3d e5 51 3e
       0.12521982 -0.03718423 0.023386823 0.20497604
000380 ce f4 19 be 50 09 f8 bd 91 2b 51 3e 9e 3d 13 3e
       -0.15034792 -0.12111151 0.20426776 0.14378974
000390 e1 49 1e be 86 a5 74 3d 67 dc 9c bc c2 26 d9 bd
       -0.1545787 0.059728168 -0.019148065 -0.106030956
0003a0 7f 63 e7 3d a0 29 fc bd bb ea 54 3e 60 59 e7 bc
       0.11298274 -0.12312627 0.20792668 -0.02824086
0003b0 b9 d4 0c 3e 97 03 92 ba 1a e0 c6 3c 3c 27 e7 3d
       0.13753022 -0.0011139986 0.024276782 0.1128678
0003c0 35 54 03 3d 82 17 3b be 0d 80 5b be 4f 25 9e bc
       0.032062728 -0.18270686 -0.21435566 -0.0193049
0003d0 90 10 81 bd 80 1e 79 3d 04 8e 28 3d 00 82 8c bd
       -0.06301987 0.060820103 0.04115106 -0.06860733
0003e0 f7 a0 8e 3d 2d 2e 5a be cd 0d 84 bd 59 f7 49 bd
       0.06964295 -0.21306677 -0.06447945 -0.049308155
0003f0 21 8f a6 3d 41 5c ae bd a2 5b d2 bd 42 f3 14 be
       0.081327684 -0.0851369 -0.10271384 -0.1454592

network_body._body_endoder.seq_layers.2.bias f4 [128]
000000 fe b1 33 bd bd fe ce ba 94 d5 ac bc 24 ec b8 bc
       -0.04387092 -0.0015792471 -0.021097936 -0.022573538
000010 a3 1d 76 bc a6 9d 69 bd 83 99 12 3d a7 9f af bc
       -0.015021714 -0.05703511 0.03579093 -0.021438433
000020 34 22 82 3c 8f af ae bc 51 0f 85 3b 28 05 88 bc
       0.01588545 -0.021323947 0.0040606637 -0.016604021
000030 90 11 ce bc a4 f7 44 bc a6 77 f4 3b 9c 6b e2 3b
       -0.025154859 -0.012021933 0.0074605523 0.0069098007
000040 d4 57 06 3d c8 dd 97 bb 0b a7 f4 bb a1 79 34 bd
       0.032798603 -0.0046345927 -0.007466202 -0.044061307
000050 d1 63 01 bc 0c c6 cb bc 30 11 5d bc 7d 51 18 3b
       -0.007897333 -0.02487471 -0.013492867 0.002324193
000060 11 10 1d bc 86 a3 39 bc 61 27 09 bd b1 75 14 b9
       -0.00958635 -0.011330491 -0.03348482 -0.00014158223
000070 7b eb 01 bd 02 68 cf ba 9d 88 5c bc e3 42 07 bd
       -0.031718712 -0.0015823843 -0.0134603055 -0.033022773
000080 1f 90 f1 bc 4e 40 f6 ba 9d c0 b7 bc 7f 66 2a 3d
       -0.029487668 -0.0018787475 -0.022430712 0.041601654
000090 7c ef 9b 3a 27 98 53 bc 06 91 56 bc ae ec 5d 3c
       0.0011896933 -0.012914694 -0.0130961 0.013545198
0000a0 d0 13 83 bd 7d af 06 bd 90 dd 90 bb 6d b3 f3 3c
       -0.06400263 -0.032882202 -0.0044209436 0.029748643
0000b0 0c 73 73 bd 47 46 5a bc 88 7c 0f bc 8d 73 8b bd
       -0.05943589 -0.0133224195 -0.008757718 -0.06809149
0000c0 ce 6a ee bc de 9d 7f ba f5 2f 2e 3c 0c c1 cd bb
       -0.029103663 -0.0009751002 0.010631551 -0.0062791165
0000d0 a1 ce 75 bc fd ee 88 3c 07 00 7c bc f9 0c 1f bc
       -0.015002877 0.016715521 -0.015380866 -0.009707683
0000e0 5e 26 83 bc 0d 03 4c 3b 11 27 78 bc 1f 82 30 bc
       -0.016009506 0.0031129748 -0.015146033 -0.010773211
0000f0 90 fc ec bc b7 c4 14 bd 7e 2b 60 bc de d6 7f 3c
       -0.028929025 -0.036320414 -0.013682244 0.015615193
000100 e2 62 16 bb aa 37 52 3c 5a 50 d5 3c 38 ec 91 bd
       -0.0022947122 0.012830654 0.026039291 -0.07125133
000110 a7 60 fb 3b 24 f0 f5 ba ac 3d 00 3c 3c 1e c3 3b
       0.007671434 -0.0018763584 0.007827204 0.005954532
000120 a2 46 3a 3b bd 15 57 bc 03 fa de bc f4 2c a8 bd
       0.0028423448 -0.013127741 -0.027218824 -0.08211699
000130 2b a5 cf bc 7a 00 0b bb cf c2 b6 bb ea 23 2c bd
       -0.025347313 -0.002121 -0.005577422 -0.042026438
000140 f1 e2 8c 3b 04 82 45 bc fe 0e 16 bb fc ff a0 3a
       0.0042995145 -0.012054924 -0.002289712 0.001228332
000150 23 2c d4 bb ae 4e 54 bd 73 f9 0f bd 4e bb ac 3c
       -0.006474988 -0.051832847 -0.035150003 0.021085408
000160 b4 39 6d 3c ab 6b 19 bd e3 e0 47 3c ec 21 7b bb
       0.0144790895 -0.037456196 0.012199613 -0.003831978
000170 de 31 48 bd f7 f2 c5 bc 8f 49 e6 3b 2c 8f 45 bc
       -0.048875682 -0.024163706 0.007027812 -0.012058061
000180 32 25 46 3b ac 8d 5b 3c ae ac d5 bc 23 fa b9 3b
       0.0030234572 0.013400476 -0.026083317 0.0056755706
000190 89 d5 37 3b f7 ca 1c bd 80 63 90 3c 68 3d 66 bc
       0.002805086 -0.0382795 0.01762557 -0.014052726
0001a0 a6 72 25 bd dc 5d 87 3b 18 fc b8 bc f4 5a cf bc
       -0.04039254 0.004131062 -0.022581145 -0.025311925
0001b0 f1 ad c0 bc 1b 34 cb bc fd 24 fd bc 91 fc 56 bc
       -0.023520442 -0.02480512 -0.030901426 -0.01312174
0001c0 7a 3d c2 bc 6c 6a 19 3b 11 a5 bb bb 1f a6 54 bb
       -0.023710955 0.002340938 -0.0057264646 -0.0032447649
0001d0 80 8e 4d 3c ef 51 44 3c ca 4d 8c bc 4c 87 ba 3c
       0.012546182 0.011982425 -0.017126936 0.022769593
0001e0 eb e2 f4 bc f5 30 ed 3b 40 62 35 bc 0b 62 92 bb
       -0.02989336 0.007238502 -0.011070788 -0.004467254
0001f0 2c 9a 48 bc 87 11 ee 39 c5 71 a1 3c 24 c5 7a 3c
       -0.012243789 0.00045407956 0.01970757 0.015305791

network_body._body_endoder.seq_layers.4.weight f4 [128, 128]
000000 2d 3b 44 3d 01 50 8e 3d 5b 29 5d bb 15 73 08 3d
       0.047907997 0.06948853 -0.0033746574 0.033312876
000010 10 88 97 bc ca ab 87 3d 26 e5 25 3c 90 32 88 3c
       -0.018497497 0.06624563 0.010125434 0.016625673
000020 6c b3 cf bd c0 85 3c be 7d 01 3d 3d ce 13 e8 bd
       -0.10141644 -0.18410397 0.046143997 -0.113319024
000030 8d 44 1d 3e 1f d5 d3 3d a3 85 29 3d 63 82 a5 3c
       0.15358181 0.10343384 0.04138721 0.020203775
000040 a1 d3 57 3d 8f 70 3e bd 0d d5 95 bc d8 71 d6 3c
       0.05269206 -0.046494063 -0.018290067 0.026177332
000050 9f 35 c4 bd 2d 3d b7 bb 5e ba 15 3d 2d e9 25 bd
       -0.0958054 -0.0055920095 0.036554687 -0.040505577
000060 ce 79 f0 bd 89 24 ec bd c3 53 03 3d c1 a4 01 be
       -0.117419824 -0.11530406 0.032062303 -0.12660505
000070 82 a1 3d 3c 37 e8 51 3d d9 15 b2 3d 47 df f6 bc
       0.011574151 0.051246848 0.08695573 -0.030135764
000080 14 70 26 3c 46 a2 34 3e c7 dd 7f 3b 52 11 35 be
       0.010158557 0.17640027 0.0039042102 -0.17682388
000090 18 49 3a 3e 7f 0c 70 3d 0d 11 df bd 8d ba 58 3c
       0.18191946 0.058605667 -0.10891924 0.013228071
0000a0 7f e0 0a 3d e8 91 29 3d eb 48 98 3d bd 27 b1 bd
       0.033905502 0.041398913 0.07435783 -0.086501576
0000b0 a6 0f 02 be 14 a1 7d 3c c1 f6 7b 3d 18 16 75 3c
       -0.12701282 0.015480299 0.06151462 0.014958881
0000c0 23 7f 2f 3d 99 0d 67 bd dc 44 34 bd 6e 83 24 bc
       0.042845856 -0.056409452 -0.044010982 -0.010041101
0000d0 18 f0 e9 bd 07 91 29 3e 59 e0 cb 3d 50 f6 8c 3d
       -0.114227474 0.1655923 0.099549 0.06882918
0000e0 bd 7d d2 bc 78 09 87 be c3 d9 82 bd b2 38 51 be
       -0.025694722 -0.26374412 -0.06389191 -0.20431784
0000f0 0e 47 ea 3c 1b af 62 3d c2 0f 0f b8 36 8d e8 bc
       0.028598335 0.055342775 -3.4108532e-05 -0.028387647
000100 98 09 e0 bd c1 27 51 3d 90 24 9a be 86 38 37 3e
       -0.1093933 0.051063303 -0.3010602 0.17892656
000110 60 63 4f 3d 6d e2 40 bb 93 7e 71 3d 56 07 17 3d
       0.05063188 -0.0029431835 0.0589586 0.03687223
000120 dc 3d 2b bd 9b 08 22 bc 6b e6 d7 bc b4 af 1b bc
       -0.04180704 -0.009889747 -0.026354989 -0.00950234
000130 92 c2 8a 3d d8 0b a6 3d e1 32 05 be 3e c9 95 3d
       0.067753926 0.08107728 -0.1300769 0.073137745
000140 76 87 4b 3d 7f a5 ac 3b b1 67 3c 3c e5 fa 9a 3d
       0.049689732 0.005268752 0.011499331 0.075673856
000150 bf 23 05 bd bd 3f 73 bd ac 48 f1 bc 41 dd 25 bd
       -0.032504793 -0.059386957 -0.029453598 -0.040494207
000160 5c a0 cd bc e9 c6 19 be 9a c7 a2 3d 11 80 7d bc
       -0.02510088 -0.15017284 0.07948227 -0.015472428
000170 03 85 f1 3b c2 11 a6 3d 6b 63 39 3e 65 bc b6 bc
       0.0073705926 0.08108856 0.18104331 -0.02230663
000180 e7 a9 12 3e 47 47 2a be ff e9 91 3d a8 86 d6 bc
       0.14322625 -0.16628753 0.07124709 -0.026187256
000190 b4 14 0c be 81 7a f9 3d 82 9f 08 3e 4a aa d5 3d
       -0.13679773 0.12181569 0.13342097 0.10432871
0001a0 3e d4 a2 bd 1e 40 07 3d e8 93 24 3d 9b bb b7 3d
       -0.07950638 0.03302013 0.040180117 0.0897133
0001b0 0e 19 5f 3e 8c 53 c8 bd 2c 89 1a be 0e a6 b1 3b
       0.21786901 -0.0978156 -0.1509139 0.0054214066
0001c0 68 d3 0a 3c 47 25 f3 3d 36 98 fd bd b3 13 ed bd
       0.008473255 0.118723445 -0.123825476 -0.11576023
0001d0 35 3e 81 3d 52 3b dd 3c 22 89 02 3e 99 13 fe bd
       0.06310693 0.027005825 0.12747625 -0.12406082
0001e0 5a e5 11 3c ab 35 12 be e0 7e a2 bd 01 4d 22 3e
       0.008904779 -0.14278285 -0.07934356 0.15849687
0001f0 b2 90 d5 bb c5 12 4d 3d 6e 98 91 3c 60 83 19 bd
       -0.006517493 0.05006673 0.01777288 -0.037478805
000200 1c 90 92 bd eb f2 11 3d 6c a3 38 bd 77 76 cf bd
       -0.07156393 0.035632055 -0.045077726 -0.10130017
000210 c1 41 34 be 3c e5 df bd 16 1d 07 be 13 fc c2 bd
       -0.17603208 -0.10932395 -0.13194689 -0.095207356
000220 ba 48 26 3d 42 00 1b be 03 1d a9 bd 72 af 97 bd
       0.0405967 -0.15136817 -0.08257487 -0.074065104
000230 8c 72 08 3e 8b 96 7f bb 8f d5 87 3c 17 d6 15 be
       0.13324946 -0.0038999643 0.016581325 -0.1463245
000240 8a 96 7d 3d 3a 9d 5f be 36 e4 1f be 09 6b 29 be
       0.061911143 -0.21837321 -0.156144 -0.16544737
000250 5b bc 64 bd 14 04 69 3d 62 68 08 be b7 7b 4f bc
       -0.055843692 0.056888655 -0.13321069 -0.012663773
000260 18 33 c4 bd 64 bf 05 bd cc 5c 6e 3e 46 70 d0 bd
       -0.09580058 -0.032653227 0.23277587 -0.101776645
000270 2e 0b 72 be f1 d2 b2 bd b3 29 6a bd b0 80 15 be
       -0.23637077 -0.0873164 -0.057168674 -0.14599872
000280 39 b6 d7 bd 9e 07 30 be 6a 9e 51 3d 84 5f 48 3e
       -0.10532803 -0.17190406 0.051176466 0.19567686
000290 98 0d 26 bd 75 61 a4 bd 08 63 1b be 74 58 a2 bc
       -0.040540308 -0.08026401 -0.15174496 -0.019817568
0002a0 69 35 1c 3e 3b 00 d4 3d 63 33 21 be 3d b7 45 be
       0.1525475 0.103516065 -0.15742259 -0.19308181
0002b0 dd 37 28 bd 01 72 5c 3e 92 71 c2 3d bc 32 ea bd
       -0.0410689 0.21527864 0.09494318 -0.11435458
0002c0 90 d9 41 bd 62 2c 6a 3d 40 9e 2d be 3a b0 d9 3c
       -0.047326624 0.057171233 -0.16954899 0.02657329
0002d0 9a 46 32 bd 8a 88 d9 bc b1 d8 78 3d b6 e8 33 be
       -0.043524362 -0.026554365 0.060753528 -0.17569241
0002e0 19 e0 78 3c c1 cd 17 be 91 c0 8e 3d 2e 88 9e 3a
       0.015190148 -0.14824583 0.06970323 0.0012095028
0002f0 fe c7 7e bb 04 8d 6d bd dc 32 c2 bc 16 2f 0d be
       -0.003887653 -0.05799581 -0.023705892 -0.13787493
000300 a9 da d5 3d 05 0a 9a bd e9 11 e5 bc 98 0d f8 3a
       0.10442097 -0.07521442 -0.027962642 0.001892495
000310 f7 a3 ee bc 52 68 d2 bd 14 b2 3b bd 74 31 56 3d
       -0.029130919 -0.10273804 -0.045824125 0.052293256
000320 26 af a5 3d ff cc c5 bc 68 03 f7 bc cc 98 47 3d
       0.080900475 -0.024145601 -0.030152991 0.048729703
000330 72 9e 60 be 66 47 0c 3d 88 60 40 3d a6 34 8e bd
       -0.21935442 0.03424778 0.04696706 -0.06943636
000340 37 3a 4d 3d f4 b9 84 3d e7 a7 96 be 3c d5 d3 bd
       0.050104346 0.0648078 -0.29424974 -0.103434056
000350 57 d0 4b be 65 ff 5e 3e ce b1 eb 3b ee 17 93 bd
       -0.19903694 0.21777113 0.007192827 -0.071822986
000360 1c eb 05 be d9 a7 9e 3d 33 69 52 be a2 9e 17 be
       -0.13077968 0.07746858 -0.20547943 -0.14806607
000370 d8 45 40 3d 31 ce 9b bd a4 6e bc 3d 31 de 12 be
       0.04694161 -0.07607687 0.092007905 -0.14342572
000380 af 58 7f 3d 7a e0 71 be fe 60 e4 bd 54 f7 c9 3c
       0.062340435 -0.23620787 -0.11151312 0.024654068
000390 28 a4 b2 3c 26 fa da 3d c9 1b b0 bd 4e d5 28 bd
       0.021806791 0.10692243 -0.085990496 -0.04121905
0003a0 2f 0f 95 3d c6 5d ba bc e8 1c 12 bb e0 2a 31 be
       0.07278287 -0.022749793 -0.0022295061 -0.17301512
0003b0 a1 e8 ac bd 80 54 74 3d 54 55 0f bc fa a0 26 be
       -0.08442808 0.059650898 -0.008748371 -0.16272345
0003c0 cb 71 cd bd 27 e9 0e 3d d3 0a 38 3d da 8a 98 3d
       -0.1003147 0.03489032 0.044932198 0.07448359
0003d0 00 7f 82 be 44 3b 02 bd be 7d 26 bd 62 b9 bd 3d
       -0.25487518 -0.0317948 -0.04064726 0.092638746
0003e0 33 e2 59 3d 60 b8 1d bd 8d 3c 81 bd 62 1c ac bd
       0.053194236 -0.03850591 -0.06310377 -0.08403851
0003f0 1b a0 15 be 51 98 98 bc 99 6c 61 3b 73 58 8d bd
       -0.14611857 -0.018627318 0.0034397005 -0.06901636

network_body._body_endoder.seq_layers.4.bias f4 [128]
000000 80 5b 4f bc d4 cf ae bd 1f 02 0a bb e9 3d f1 ba
       -0.012656093 -0.08535734 -0.0021058393 -0.0018405291
000010 07 d6 5c 3c 77 6b cf bc 9c 3d 0e bc a5 02 9f bc
       0.0134787625 -0.025319798 -0.008681681 -0.01941044
000020 f2 a0 5e bd a2 5b 9a bb 75 2b b0 bc 66 d3 ab bd
       -0.05435271 -0.0047106305 -0.021505097 -0.083899304
000030 19 f5 65 bd 72 79 e5 38 e4 c0 ed bc 8b f3 1d bd
       -0.056141946 0.00010942192 -0.029022641 -0.03856234
000040 b3 d4 19 bd 9b fa 06 bd 33 00 49 bc 03 0b 5b 3b
       -0.03755636 -0.03295384 -0.012268114 0.0033423312
000050 0d 5d 96 3c 50 d6 72 3c da da a4 bc dc f6 43 bc
       0.018354917 0.014821604 -0.020123888 -0.011960711
000060 7d a5 ad bc 84 a9 40 3b 5d 89 1a bc be 2d 6a 3d
       -0.021197075 0.0029397914 -0.009432164 0.05717253
000070 3a bf a7 3b 9f 4f be bb 42 cd bf bc 6b 65 1b bd
       0.0051192315 -0.0058078314 -0.023413304 -0.037938517
000080 3a be b5 bc bf 0a 04 bd 78 2b 2c bd 65 b4 68 bb
       -0.022185434 -0.03223681 -0.042033643 -0.0035507914
000090 1c 8c 95 bc d0 59 b3 bc 20 a9 da 3a 35 de 6e bc
       -0.018255286 -0.021893412 0.0016682483 -0.0145793455
0000a0 17 05 c7 bb 9c 69 31 bd 2b f9 05 bc 74 83 90 3c
       -0.006073605 -0.043313608 -0.008177082 0.017640807
0000b0 f6 9d 3b bb 85 48 07 bc bf 79 3e bd 2b 5d ad bc
       -0.0028628088 -0.008257036 -0.046502825 -0.02116259
0000c0 66 44 56 bc dc 40 1c bc 00 e3 e9 3c 68 51 e3 3b
       -0.013077831 -0.009536948 0.028550625 0.0069371946
0000d0 66 f7 07 bc 16 7e 8d 3b 1a c1 89 3b 2f 83 11 bd
       -0.0082987305 0.004318009 0.0042039277 -0.035525497
0000e0 21 25 05 3c 84 04 0d bd 56 09 7b bc 3c 89 07 3b
       0.008126528 -0.034428135 -0.01532205 0.0020681163
0000f0 45 21 68 bc 63 b6 a6 bd b8 0f ab bc 38 3e 1c bd
       -0.014168088 -0.08140256 -0.020881519 -0.038145274
000100 d6 d8 32 bd 16 e4 cd 3b 1e 9c 32 bd 98 a8 9b bc
       -0.043663822 0.0062832935 -0.043605916 -0.01900129
000110 3a d1 bc 3c 84 6e 10 bd b7 df 02 bd 36 90 2e bd
       0.023048986 -0.035261646 -0.031951632 -0.042618
000120 cb fd ca bc 43 4b 2d bd 24 36 56 bb 88 de 6c 3c
       -0.024779221 -0.042308103 -0.003268608 0.014457352
000130 60 46 93 3c dc 5a 03 bd e0 3b 2f bd 64 1c 8a bc
       0.017977893 -0.032069072 -0.04278171 -0.01685924
000140 37 bc b0 3c 1b 5f 97 bd 17 de ae bd d2 4f ed bc
       0.021574123 -0.07391187 -0.08538454 -0.028968725
000150 34 f1 f3 bc 8b 6e 59 bd 08 3f 98 bc 13 d8 34 bb
       -0.0297781 -0.053083938 -0.018584743 -0.002759461
000160 65 ff cf bc 6b 1f c4 3c bf 92 18 bd f9 a2 dd bc
       -0.025390336 0.023940763 -0.037249323 -0.02705525
000170 e1 d5 08 bd e9 b3 bb 3c ab 8c 42 3a fa ab 8a bc
       -0.033407096 0.022912936 0.0007421474 -0.016927708
000180 55 34 1b bd f8 22 b5 bb f6 0e b5 3c a0 7d 95 bc
       -0.037891705 -0.0055278502 0.02210186 -0.01824838
000190 84 e0 49 bc 68 c6 9a 3a ad 77 98 bc 63 c1 0e bd
       -0.012321595 0.0011808397 -0.018611753 -0.034852397
0001a0 29 ad 15 bd 1d 13 db 3b 84 6c a0 bc d5 52 bd bc
       -0.03654209 0.006685628 -0.019582994 -0.023110786
0001b0 63 22 a3 bd da 8c ac bc b3 90 ad bd ce 07 1b bd
       -0.07965543 -0.021063257 -0.08474865 -0.03784924
0001c0 c0 3f 35 bd d7 2b 41 bd 1e 66 38 bd d2 6d eb bb
       -0.04425025 -0.04716095 -0.04501926 -0.0071847225
0001d0 95 98 98 bb 69 15 05 3a 7d 96 52 3c 1a e1 8c 3b
       -0.004656861 0.0005076738 0.012853262 0.004299295
0001e0 63 95 b0 bc 97 5f 82 bd 4e 82 e9 bc 5b 8c a2 3c
       -0.021555608 -0.063658886 -0.028504517 0.019842317
0001f0 5e 6e f9 3b 9e 04 2a bd d9 92 bd bc c9 c1 df bb
       0.0076120337 -0.04150831 -0.023141311 -0.006828521

action_model._continuous_distribution.log_sigma f4 [1, 44]
000000 0c 34 54 bd 13 80 a2 bc 4a 96 0f bd 02 c7 f5 bb
       -0.05180745 -0.019836461 -0.035055436 -0.00750053
000010 f2 38 ac bd 0d 68 93 bd 2c 0a 15 be a1 b1 cb 3b
       -0.08409299 -0.071975805 -0.14554662 0.0062162434
000020 51 ea 0f bd 1c 0c a6 bd 3f 0e 5e bc 6a c2 07 be
       -0.03513557 -0.081077784 -0.013553201 -0.13257757
000030 d6 5c 4f bd b9 08 41 3d fd 4b 35 bd 5e 5f bc bd
       -0.050625645 0.04712746 -0.04426192 -0.09197877
000040 81 b8 e6 bd fe 3b b8 bd 97 53 2a be 35 8a 0c be
       -0.1126566 -0.089958176 -0.1663345 -0.13724597
000050 8c ab e5 bd ed 45 07 3d 70 54 fb bd c5 8d 48 bc
       -0.112143606 0.03302567 -0.122719646 -0.012240832
000060 80 18 8c 3c e0 2c 61 bd 43 4a c2 bd 5f cd ef bc
       0.017101526 -0.054974437 -0.094868205 -0.029272733
000070 38 7e 26 bd 13 84 02 3c 0a 4b d3 bd db d9 87 bd
       -0.040647715 0.007966059 -0.10317047 -0.066333495
000080 9a 3b 4b bd 88 4d e7 bd 55 f4 92 bd ed b0 0a bc
       -0.049617387 -0.11294085 -0.07175509 -0.008465034
000090 9c 1b f7 bc 6c 09 20 bd 9e 49 03 bd 72 c0 00 be
       -0.030164532 -0.039071485 -0.03205263 -0.12573412
0000a0 c1 9e 7a bd 9e e5 0e be 1e 72 e9 bd c9 ea 2c bc
       -0.061186556 -0.1395478 -0.11398719 -0.010554024

action_model._continuous_distribution.mu.weight f4 [44, 128]
000000 d4 28 44 3d 48 fa 99 3b 04 b1 4f ba 76 08 98 3d
       0.0478905 0.0046990253 -0.0007922801 0.07423489
000010 d3 2e 09 3c 4f 51 af 3c 54 53 5b bb 60 26 65 3d
       0.00837298 0.021401076 -0.0033466415 0.0559448
000020 24 0d 74 3c 20 f9 7a bd f6 68 3c 3d 22 b4 38 bd
       0.014895711 -0.06127274 0.045998536 -0.045093663
000030 e1 29 81 bd 83 11 2e 3d 65 51 28 bc d9 59 93 bc
       -0.06306816 0.04249717 -0.010273312 -0.017987179
000040 f2 95 81 3b 48 d5 8e bc 36 e8 21 bc d0 23 b1 3c
       0.0039546425 -0.017435685 -0.009882024 0.021623522
000050 27 cf 60 bd ea 47 df 3c 06 1a e6 bc 25 28 10 3c
       -0.054885056 0.027255971 -0.02808858 0.008798634
000060 8b 67 ba bb 26 91 ef bc 28 5f 3a bd ce 0d 48 3d
       -0.005688613 -0.029244017 -0.045500904 0.04884129
000070 0e 8f 03 3d e4 3d a4 3c 56 0d 87 bd ee f2 1c 3d
       0.03211885 0.020049043 -0.065943405 0.038317613
000080 6d 77 e6 3c 3d cc 59 bd be a4 07 bd ce 2f 2f 3b
       0.028133119 -0.053173292 -0.033116095 0.0026731375
000090 8b 1f 8f 3d 28 5c e3 3c a1 ad 55 3c 1e 05 8e 3d
       0.06988438 0.027753904 0.013041885 0.0693457
0000a0 b0 4e bc 3c a1 ce 79 bc f5 15 3d 3d 78 ad d0 3b
       0.02298674 -0.015247018 0.046163518 0.0063683353
0000b0 c6 a0 98 bc 48 bf 39 bd 0c 0b 83 bd 18 32 c8 bd
       -0.01863135 -0.045348436 -0.063985914 -0.097751796
0000c0 db e6 02 3d bb 5e ba bc f4 97 ca 3c a8 b5 77 3d
       0.031958442 -0.02275025 0.02473066 0.060475975
0000d0 fe be 4c bd 64 92 a6 bc e2 e0 ac 3b a2 a4 a7 3c
       -0.04998683 -0.020333476 0.0052758316 0.020464245
0000e0 8a a6 8b bd f6 cd 46 bc ac 75 08 3b 48 d6 d4 3c
       -0.06818874 -0.012134066 0.002082209 0.025981084
0000f0 5e 6f b8 3c 20 42 4a 3d f1 79 24 3c ed 0d 13 3c
       0.022514042 0.049379468 0.010038839 0.008975488
000100 f8 4c e5 bb 53 5b 30 3d 44 ed 90 bb e5 8f 18 bd
       -0.006997701 0.043055844 -0.0044228155 -0.037246604
000110 7f c6 0e 3d dd ea 9c 3c f1 23 46 3d 4d 11 34 bd
       0.03485727 0.01915496 0.04837412 -0.04396181
000120 13 e5 09 bd 21 06 bd bc c6 06 2e bc e3 62 63 3c
       -0.033665728 -0.023074212 -0.010621732 0.013878557
000130 40 15 8c bd c7 32 2b 3c 39 5e 87 bd 90 50 4b 3c
       -0.068399906 0.010449118 -0.066097684 0.012409344
000140 07 5c a4 bc 7e 43 86 bd 81 98 d3 bc 75 65 8c bc
       -0.020063413 -0.06555842 -0.025829555 -0.017138222
000150 df 1e 18 3d 08 66 55 bd c9 9b 6d bc 1d f5 8d 3d
       0.037138816 -0.052099258 -0.014502474 0.06931517
000160 9e eb 65 3c 0a e3 8b 3d a6 f7 0d be 86 04 2c bc
       0.014033226 0.06830414 -0.13864002 -0.010499125
000170 c6 0e 0a 3d a8 77 1a bd 3b af 47 3d b7 a8 16 3d
       0.033705495 -0.03771177 0.048751097 0.036781993
000180 bd b0 e7 3c 6c 6e 85 3c b3 2c 11 3d ca bb fd 3c
       0.028282518 0.016288005 0.03544302 0.030973334
000190 1a 0e 0c 3d 10 9d b8 3c 29 ea 9d bc ff a6 a5 bd
       0.034193136 0.02253583 -0.019276695 -0.080884926
0001a0 b8 56 dd bc e6 db 53 3c b1 3c 78 bd ef 71 37 ba
       -0.02701889 0.012930846 -0.060604755 -0.00069978734
0001b0 30 e6 07 bc cb 7b 67 3b 86 cd d7 bd f2 64 6e 3c
       -0.008294627 0.003532159 -0.10537247 0.014550434
0001c0 93 bb 06 bc 20 d0 32 bc 72 c3 69 bd e5 84 35 bc
       -0.008223432 -0.010913879 -0.057071157 -0.011079048
0001d0 f4 c7 4a 3c 57 70 89 bd c6 64 a8 bb 52 4a 86 bc
       0.012376774 -0.0671088 -0.0051389663 -0.01639286
0001e0 3c b2 61 3d bb f8 e5 bb b1 3e 12 bd 6c e3 5a bd
       0.05510162 -0.0070181764 -0.03570432 -0.053439543
0001f0 74 d7 2f bd fb 86 73 bd 3a 52 2c bd ea 7b 85 bd
       -0.04293008 -0.0594549 -0.042070605 -0.06517775
000200 38 9e 98 3d f5 8e 1a bb 9a cd f8 3c d9 cb ba bc
       0.07452053 -0.0023583744 0.030371476 -0.02280228
000210 4f 0a f7 3c 43 a9 55 bc 4e b9 6d 3d 82 f2 90 bd
       0.030156283 -0.013040843 0.05803805 -0.07077505
000220 4d 50 18 3d e6 55 86 bd 99 bc 87 3c 4e 35 08 3d
       0.037185956 -0.065593526 0.016569423 0.03325396
000230 3c c8 bd bd 52 7f 28 3d d2 45 17 3d d0 e0 11 3c
       -0.09266707 0.041137047 0.03693182 0.008903697
000240 dd 36 5e bd 25 2d 91 bd 3b b5 c9 b9 f6 92 a5 3b
       -0.05425154 -0.07088689 -0.00038472735 0.0050529195
000250 c1 7d 82 bb d0 08 6b bd f7 bd cb 3c 18 d2 64 bd
       -0.003982276 -0.05738145 0.024870856 -0.055864424
000260 a9 73 7f bc 14 b1 c6 3b 80 4f 2d 3c 3e ad 31 3c
       -0.01559154 0.00606359 0.010578036 0.010844527
000270 22 2f 0d bc f9 60 d2 ba 78 c1 ed 3c 1d ee 78 bd
       -0.008617194 -0.0016050629 0.029022917 -0.060773958
000280 a6 d1 85 bb 87 7c 3c bd d2 89 af 3c 4d ba 0d bd
       -0.00408383 -0.046017196 0.021428023 -0.0346015
000290 80 e8 fa ba 71 cd 47 bd 75 91 ad bc 55 62 23 3c
       -0.0019142777 -0.04877991 -0.021187523 0.009972175
0002a0 d5 7b 47 3c a1 53 42 bd 63 99 77 3d 4a 93 8c bc
       0.01217552 -0.047443036 0.060449015 -0.017160077
0002b0 9a d7 a0 bd 40 f4 2b bd d1 13 5a 3d 0f cf 9b 3c
       -0.07853623 -0.04198098 0.053241555 0.019019632
0002c0 0c 5b e7 3c c1 db 68 bc ee 32 d9 bc 0a 8a 8b bc
       0.028241657 -0.01421255 -0.026513543 -0.017033596
0002d0 c7 f5 23 bd d5 74 04 bd 79 43 1b bc c4 47 4b bb
       -0.040029313 -0.032337982 -0.009476536 -0.0031018117
0002e0 d2 e0 5e 3d fd 8c 57 3c f9 6a cf bc 98 d5 99 3d
       0.054413624 0.013156173 -0.025319563 0.07511443
0002f0 09 15 2d bd ae 65 64 3c 41 8f aa bd f4 fb 7b 3d
       -0.04225639 0.013940258 -0.08328105 0.061519578
000300 04 e2 96 3d 18 00 1d bd d7 07 97 bb eb b6 64 3d
       0.07367328 -0.038330168 -0.004609089 0.055838507
000310 c4 89 6d 3d c7 41 aa 3c 06 a6 22 bc 3c dd 39 3d
       0.05799271 0.020783318 -0.009927278 0.045377
000320 a1 5c 8d bd 16 d9 b9 bb ea 7e 2c bd 45 e3 97 bb
       -0.06902433 -0.0056716306 -0.042113222 -0.004635247
000330 d6 3c 8e bc 26 44 05 bb f0 6a a8 3d b3 e8 a0 bd
       -0.017362993 -0.002033481 0.08223522 -0.07856884
000340 95 ee 46 bc 9d fd 0b bb 27 02 2d bd 4c 00 cf 3c
       -0.012141843 -0.0021360882 -0.04223838 0.025268696
000350 78 b7 83 3d 03 a7 3b 3d 22 b6 80 bc 18 17 02 bd
       0.06431478 0.04581357 -0.015711848 -0.031760305
000360 98 40 af 3c c6 81 a3 3c 46 a1 bc 3c 32 9f 9c bc
       0.021393105 0.019959342 0.02302612 -0.019118879
000370 1a a1 1e bd bd 30 71 bd d0 b9 63 bc f6 1f 00 3e
       -0.038727857 -0.05888437 -0.013899282 0.12512192
000380 93 ed 6c 3d f2 31 3a ba ce 87 84 bb 5b 9f d3 ba
       0.057843756 -0.00071027793 -0.0040445095 -0.0016145514
000390 a9 65 a1 bd be c4 02 bd 67 38 06 bd 4b 6e 1f bd
       -0.07880718 -0.03192591 -0.032768633 -0.038923543
0003a0 f0 46 1a 3d d4 60 2a 3d 02 46 4a bc 10 ba 6c 3d
       0.037665308 0.04159625 -0.012345793 0.05779463
0003b0 57 96 3e 3d d9 8f 38 bd 82 e9 8b bc 0c 4f 06 bd
       0.046530094 -0.04505906 -0.017079119 -0.03279023
0003c0 40 89 fa 3c 91 fb 17 3d 7c 17 39 bd 87 ca 3b bc
       0.030583024 0.037105147 -0.045188412 -0.0114618605
0003d0 cf 65 4b 3c 5c 01 4b bd 11 17 d5 bb e6 99 4c 3d
       0.01241441 -0.049561843 -0.006502994 0.049951456
0003e0 fd 9d 95 bc 70 a1 8c 3d 69 aa 39 bc 4e 0d 33 bc
       -0.018263811 0.06866729 -0.011332133 -0.010928465
0003f0 43 12 cb bc 8d f7 6d 3d a3 3b a4 3b f4 80 1e bd
       -0.024788981 0.05809741 0.005011992 -0.038697198

action_model._continuous_distribution.mu.bias f4 [44]
000000 ba da 13 3d 22 d8 bc bc 9d 74 09 bd 36 73 a5 3d
       0.036097266 -0.023052279 -0.033558477 0.08078615
000010 5d 22 9f 3b 38 9b 64 3d 13 b0 9b bd 22 07 83 bc
       0.0048563913 0.05581209 -0.07601943 -0.015994612
000020 da e2 80 bb 07 b3 8a bc a8 c6 8f bc e6 d7 f8 bc
       -0.003933293 -0.01693107 -0.017550781 -0.030376386
000030 19 95 b3 3c be f6 80 3a 34 8d 1e bc 05 64 a5 3c
       0.021921681 0.000983916 -0.00967722 0.020189295
000040 09 a4 ea 3c e3 4f 2b 3c e2 d9 e5 bb 27 02 5b 3d
       0.028642671 0.010456058 -0.007014499 0.05346885
000050 18 d8 5c ba 15 f9 e1 bc 9b 56 0c bd 61 3d e3 bc
       -0.00084245345 -0.027584592 -0.03426228 -0.027739229
000060 8f 39 1e 3d 6a 08 00 3c 0d df b1 bc 35 d4 90 3d
       0.03862911 0.007814506 -0.021712804 0.07071725
000070 10 f1 2e bd 32 71 a4 bc 7d 5d 39 bd 5d ef 62 3d
       -0.042710364 -0.020073507 -0.045255173 0.055404056
000080 d7 b8 e2 bc b7 9e 81 3c 48 b2 a2 bc 1d b0 3a 3d
       -0.02767603 0.015822751 -0.019860402 0.04557811
000090 1e 00 1f bd 11 13 dc b9 e3 0c 5f 3c aa 0a 9e 3c
       -0.03881847 -0.00041975876 0.013613912 0.019292194
0000a0 3e eb 84 3c c7 68 46 3d fe cb 91 3c 43 13 3e 3d
       0.016225453 0.048439767 0.017797466 0.04640509
