results/b090maze/Dynamic Table/Dynamic Table-2999969.pt (torch, 406791 bytes, 48 tensors)

network_body._body_endoder.seq_layers.0.weight f4 [64, 94]
0	0x3ee0a30d	0.43874398
1	0xbd502512	-0.050816603
2	0x3e0f9a30	0.14023662
3	0x3e2d6f9f	0.16937111
4	0x3cc326ce	0.023822214
5	0x3d829550	0.06376135
6	0xbd58ab8b	-0.05289797
7	0xbe4c70dd	-0.19964929
8	0xbe5bb328	-0.21455061
9	0xbe8c432d	-0.27395
10	0x3dde9a8b	0.108693205
11	0xbcd26575	-0.025683144
12	0x3e1665e3	0.14687304
13	0xbd4b47d5	-0.04962905
14	0xbdc0b6a1	-0.09409834
15	0x3e086b54	0.13322192
16	0xbe03d24d	-0.12873192
17	0xbc67baca	-0.014143655
18	0x3d1b4f4c	0.03791742
19	0x3d85b608	0.0652886
20	0x3e31cc6e	0.1736314
21	0x3e86b344	0.26308644
22	0xbe257662	-0.1615844
23	0xbd0ff6a2	-0.035147317
24	0xbdd9c73e	-0.106337056
25	0xbc25c2d0	-0.010117248
26	0x3a6b5161	0.0008976665
27	0x3e8404f8	0.2578504
28	0x3e001861	0.125093
29	0xbe88cdd8	-0.26719546
30	0x3c4658cb	0.012106131
31	0xbdf933cb	-0.12168082
32	0x3d04f437	0.032459464
33	0xbd3b94be	-0.04579615
34	0xbd515619	-0.0511075
35	0xbe260ce5	-0.16215856
36	0xbde9c8d9	-0.11415262
37	0x3ea0f220	0.31434727
38	0x3da9fad3	0.08299794
39	0xbdaf5b29	-0.08562309
40	0xbd8e3aa8	-0.069447815
41	0x3da9297c	0.08259866
42	0xbc3c10e1	-0.011478634
43	0x3e5f0c82	0.21782115
44	0xbd899a0d	-0.06718836
45	0x3ce4685d	0.027881796
46	0xbc607f39	-0.013702207
47	0xbdd0a9d5	-0.10188643
48	0x3c6b8a17	0.014376185
49	0xbda08e71	-0.078396685
50	0xbd4e3b53	-0.050349545
51	0x3ca7d687	0.020488037
52	0xbda6d317	-0.08145731
53	0xbe28d479	-0.16487302
54	0x3e029ee4	0.12755924
55	0x3ca03119	0.019554662
56	0xbc24883b	-0.0100422455
57	0xbdc3e80f	-0.09565746
58	0xbd0f273e	-0.034949534
59	0xbceb6ec2	-0.028739337
60	0xbd0b1d51	-0.033963505
61	0x3da2edbd	0.07955501
62	0xbe0fb6fc	-0.14034647
63	0xbe2ff043	-0.17181496
64	0x3dae6a64	0.08516386
65	0xbe179848	-0.14804184
66	0xbc8fb6ae	-0.017543163
67	0x3b96884e	0.0045938855
68	0x3e2b44d2	0.16725472
69	0xbe4e58e7	-0.20151101
70	0x3d131077	0.035904374
71	0x3e042fd3	0.12908868
72	0xbe4e3a8f	-0.20139526
73	0x3d698ca1	0.05701888
74	0xbe3125fc	-0.17299646
75	0xbd59e260	-0.053194404
76	0x3c89a44f	0.016801981
77	0x3daf139d	0.08548663
78	0x3ca75051	0.02042404
79	0x3ddcfd64	0.10790518
80	0x3d776659	0.06040034
81	0xbe05751e	-0.13032958
82	0xbe1a9593	-0.1509612
83	0x3e434551	0.19069411
84	0x3d46044d	0.048343945
85	0xbc21f385	-0.00988472
86	0xbdcbf5a0	-0.099589586
87	0xbc80ea38	-0.015736684
88	0x3d9c65c0	0.07636595
89	0x3dafbcab	0.085809074
90	0x3cd87ca1	0.026426615
91	0x3dff4c69	0.12465746
92	0x3d8ec15a	0.06970473
93	0x3ba231fb	0.004949806
94	0xbcd5b7f5	-0.026088694
95	0x3cb4c5da	0.022067
96	0xbe031960	-0.12802649
97	0xbe064ace	-0.13114473
98	0x3e19784d	0.14987297
99	0xbd3b467e	-0.045721523
100	0xbbe32125	-0.0069314414
101	0x3da09b41	0.07842112
102	0xbbc58bc2	-0.0060286233
103	0xbe2bc8c3	-0.16775803
104	0xbe035bac	-0.12827939
105	0xbeafe9f6	-0.34358186
106	0xbd397eab	-0.045286816
107	0x3e220239	0.1582116
108	0xbd040891	-0.032234732
109	0xbe003f82	-0.12524226
110	0xbe2bb3bd	-0.16767783
111	0x3dc240de	0.09485029
112	0x3e99d031	0.3004165
113	0x3d765bbc	0.06014608
114	0xbd338013	-0.043823313
115	0x3e562155	0.20911153
116	0xbbc40b1a	-0.0059827687
117	0x3e1329d6	0.14371428
118	0x3e275a52	0.16343048
119	0x3caaa7ff	0.02083206
120	0x3e82ca45	0.25544944
121	0x3e82394f	0.25434348
122	0x3e560793	0.20901327
123	0x3d1cf022	0.038314946
124	0xbdb56446	-0.08857016
125	0x3dc7c2d3	0.09753957
126	0x3e3db2d5	0.1852525
127	0x3eb5d597	0.3551452
128	0xbd9a649e	-0.075387225
129	0x3d4690bf	0.048477884
130	0xbd992e40	-0.074795246
131	0x3d289c66	0.04116478
132	0xbe1311cd	-0.14362259
133	0x3d3a2a85	0.045450706
134	0x3dc82658	0.097729385
135	0xbe1eff71	-0.1552713
136	0xbd6ffbbe	-0.05858969
137	0x3e13d1e8	0.14435542
138	0x3edfdaa0	0.43721485
139	0x3d8def22	0.069303766
140	0xbc15d586	-0.009145146
141	0xbe73e344	-0.23817164
142	0x3e46f3c6	0.1942893
143	0xbe84af4a	-0.25914985
144	0x3d3721fd	0.044710148
145	0x3d935523	0.07193973
146	0xbcfc3e8d	-0.030791545
147	0xbd7626a3	-0.06009544
148	0xbd37e795	-0.04489859
149	0xbd41c944	-0.047311082
150	0x3d05dcb4	0.032681182
151	0x3d6cfafe	0.057856552
152	0x3d9b314f	0.07577764
153	0xbcf80507	-0.030275835
154	0x3e573c49	0.2101909
155	0xbd007f09	-0.03137115
156	0x3e17f96b	0.14841239
157	0xbd13b04a	-0.036056794
158	0xbd297068	-0.041366965
159	0xbe1e71d1	-0.15473105
160	0x3d9e2736	0.07722323
161	0x3d0db7fd	0.034599293
162	0x3d8330e0	0.064058065
163	0xbd427781	-0.04747725
164	0xbe0efb2f	-0.13963006
165	0xbd6ad1cb	-0.05732898
166	0xbdab0350	-0.08350241
167	0xbe1e1c93	-0.15440588
168	0x3e657cb0	0.22410846
169	0xbda043fd	-0.07825468
170	0x3a9f06d5	0.0012132773
171	0x3cf152d6	0.029458445
172	0x3e2d2dc2	0.16911986
173	0xbe8c438a	-0.27395278
174	0x3e350bc8	0.17680275
175	0xbd92dce2	-0.07171036
176	0xbe16ccb5	-0.14726527
177	0xbe787927	-0.24264966
178	0xbdb4f041	-0.08834887
179	0xbdeb41b9	-0.11487145
180	0xbdc682c4	-0.0969291
181	0xbcc6f245	-0.024285445
182	0xbdaf4784	-0.085585624
183	0xbd9062d7	-0.07050102
184	0xbe30783e	-0.17233369
185	0xbc0fa620	-0.008767635
186	0x3e11de38	0.14244926
187	0x3d23717b	0.039903145
188	0xbda43922	-0.0801871
189	0x3d6fa076	0.058502637
190	0x3dbdeed3	0.09274068
191	0xbe4efe96	-0.20214304
192	0x3db04d2a	0.08608468
193	0x3e0793c2	0.13239959
194	0xbd69e04d	-0.057098676
195	0xbcccf7cc	-0.025020503
196	0xbe5dd27c	-0.21662325
197	0xbec7d134	-0.39026797
198	0xbdfe558e	-0.12418662
199	0xbdb92f14	-0.090421826
200	0x3c66bb05	0.014082675
201	0xbde2a41b	-0.11066457
202	0x3d903675	0.07041637
203	0xbd2fc8b6	-0.042916022
204	0x3d8fcb61	0.07021213
205	0xbc594637	-0.013261369
206	0x3d689fd7	0.05679306
207	0xbe15c844	-0.14627177
208	0xbc273fd0	-0.010208085
209	0x3d620cb9	0.055187915
210	0xbdeca12d	-0.11554179
211	0xbe1be4e4	-0.15224034
212	0xbd405ba2	-0.046962388
213	0xbdd070e7	-0.101777844
214	0xbd782071	-0.060577814
215	0x3d2aa031	0.041656677
216	0xbe3b02d1	-0.18262793
217	0xbea6b856	-0.32562512
218	0xbe063185	-0.13104828
219	0x3d635e5c	0.05550991
220	0x3e02d785	0.12777527
221	0x3e93b488	0.28848672
222	0xbd3779cf	-0.0447939
223	0x3db0ae4f	0.08626997
224	0x3d453e79	0.04815528
225	0x3daede74	0.08538523
226	0xbd15ded3	-0.036589455
227	0xbcfbf95f	-0.030758558
228	0x3d044e7e	0.03230142
229	0x3db748e4	0.0894945
230	0xbe51530c	-0.20441836
231	0xbd68eb2d	-0.056864906
232	0x3e24f412	0.1610873
233	0x3e06ea5b	0.13175337
234	0xbddfca76	-0.10927288
235	0xbd4c4563	-0.04987086
236	0x3dd43cf6	0.1036319
237	0x3d16c07c	0.03680466
238	0x3db6dc1f	0.089287035
239	0x3d1349e3	0.035959136
240	0x3d13e646	0.036108278
241	0x3e9f0e18	0.3106544
242	0xbc99381d	-0.018703515
243	0xbc51ef91	-0.012813465
244	0x3d1539e8	0.036432177
245	0xbe882dd7	-0.26597473
246	0xbbbf5077	-0.0058384496
247	0xbe30b5e7	-0.1725689
248	0xbe399c09	-0.18125929
249	0xbe33a7dc	-0.17544502
250	0x3dc89c56	0.09795444
251	0x3d970ac4	0.073751
252	0x3dbcbd3c	0.09215781
253	0x3c87f30b	0.016595384
254	0x3e26a941	0.16275503
255	0xbca79fc0	-0.020461917

network_body._body_endoder.seq_layers.0.bias f4 [64]
0	0x3c617bcf	0.013762428
1	0xbd410d73	-0.047131967
2	0x3d4cb7d0	0.049979985
3	0xbcc41f10	-0.023940593
4	0x3bd86438	0.006603744
5	0x3d462f56	0.048384987
6	0xbaf096ce	-0.001835549
7	0x3cf11e3a	0.029433358
8	0xbc5c4a5b	-0.013445462
9	0xbc086841	-0.008325637
10	0x3a654767	0.00087462965
11	0xbc5d1181	-0.013492943
12	0x3cd32022	0.025772158
13	0x3b9b7c7e	0.0047450652
14	0xbc538346	-0.012909716
15	0xbbe0c419	-0.006859314
16	0xbd8798db	-0.06620952
17	0x3ccd646a	0.025072295
18	0x3cb64395	0.022249022
19	0xbc8fd6ac	-0.017558418
20	0xbd3f8055	-0.046753246
21	0xbcc93a0a	-0.024563808
22	0xbb25dc10	-0.002530817
23	0xbd1caa17	-0.038248148
24	0xbbd1ef8a	-0.006406729
25	0xbcb59135	-0.022163967
26	0x3cf9f799	0.030513572
27	0x3ca240f8	0.01980637
28	0xbc9a6af7	-0.018849833
29	0xbd4dd702	-0.050253876
30	0xbc41350d	-0.011792433
31	0xbc59d15b	-0.013294543
32	0xbbd1aef9	-0.006399032
33	0xbafdb2ed	-0.0019355692
34	0xbb86c9ab	-0.004113396
35	0x3c448241	0.011993946
36	0xbc325e99	-0.010886812
37	0xbcfed2be	-0.03110635
38	0x3ccfea36	0.025380235
39	0x3c9b4f74	0.018958785
40	0x3d2da122	0.042389996
41	0x3c1c05f8	0.009522907
42	0x3c2c277f	0.0105074635
43	0xbcc90844	-0.024540074
44	0xbce0b73e	-0.027431127
45	0x3cc02f6f	0.023460118
46	0xbd83d957	-0.06437939
47	0xbc647bc9	-0.013945528
48	0x3cf637d1	0.030055912
49	0xbd25f687	-0.04051831
50	0x3c201142	0.00976974
51	0xbcc812e2	-0.024423067
52	0x3be31ff7	0.0069313007
53	0xbc9c12ce	-0.019051936
54	0xbcb46477	-0.022020562
55	0xbc4caf4d	-0.012492967
56	0x3ca64507	0.020296587
57	0x3a768a59	0.00094047707
58	0xbca7bc16	-0.020475429
59	0x3b243510	0.0025056042
60	0xbc9fafa9	-0.019492941
61	0xbd060285	-0.032717247
62	0x3c4cb88e	0.012495173
63	0x3d361e2c	0.044462368

network_body._body_endoder.seq_layers.2.weight f4 [64, 64]
0	0x3daeeb10	0.08540928
1	0xbdcc0bd5	-0.09963194
2	0xbe889574	-0.26676524
3	0x3d392e6c	0.045210287
4	0x3ba72490	0.005100794
5	0xbd9141d4	-0.07092634
6	0x3e8d7a96	0.27632588
7	0xbcbd1d28	-0.023085192
8	0xbe9196cc	-0.2843536
9	0xbcc7853f	-0.024355529
10	0xbd96a954	-0.073565155
11	0xbdf005ea	-0.11719878
12	0xbd61adfd	-0.05509757
13	0x3c97484e	0.018467095
14	0x3c35a5a6	0.011086857
15	0xbcd74b88	-0.026281133
16	0xbe54da7b	-0.20786469
17	0xbe53ce5b	-0.20684187
18	0x3d305648	0.043051034
19	0x3db0cfd8	0.08633393
20	0xbd8eca51	-0.069721825
21	0x3c88c64b	0.016696116
22	0xbe2f5f94	-0.17126304
23	0x3cd3d337	0.025857551
24	0xbbb66130	-0.005565785
25	0xbd1aaf6a	-0.037764944
26	0xbd390a50	-0.04517585
27	0xbe12b675	-0.14327414
28	0x3d98e98d	0.07466421
29	0xbd87ac8e	-0.06624709
30	0xbd8c35d5	-0.06846205
31	0xbe970200	-0.29493713
32	0x3d814f12	0.063139096
33	0x3eb5734b	0.35439524
34	0xbd0d60f7	-0.0345163
35	0xbd58f458	-0.0529674
36	0xbe93f2f1	-0.28896287
37	0xbcf5b160	-0.029991806
38	0xbd52e1bc	-0.05148481
39	0x3e34274f	0.1759312
40	0xbc825e36	-0.015914064
41	0x3e8213eb	0.2540582
42	0x3e44159d	0.1914887
43	0xbcbfe625	-0.023425171
44	0x3e8dafad	0.27673092
45	0x3e3acef0	0.18243003
46	0x3e57e9a3	0.21085219
47	0x3e123351	0.14277388
48	0xbd474ebc	-0.04865907
49	0x3eaa2e66	0.33238524
50	0xbd65ba07	-0.056085613
51	0x3e0ae32c	0.13563222
52	0x3debe457	0.11518162
53	0xbd9eac3d	-0.077476956
54	0x3e30959b	0.1724457
55	0x3df8b8a2	0.12144591
56	0x3d2b67b8	0.04184696
57	0xbe47bce2	-0.19505647
58	0x3eca5b62	0.39522845
59	0x3d3f322e	0.046678714
60	0xbe8db14c	-0.2767433
61	0x3d65cf03	0.056105625
62	0xbea58572	-0.32328373
63	0x3da17c7a	0.0788507
64	0x3e85a219	0.26100233
65	0x3da5a885	0.08088783
66	0x3d52f643	0.051504385
67	0xbe5ab2d0	-0.21357274
68	0xbe5e8209	-0.21729292
69	0xbd9b8aff	-0.07594871
70	0xbe2a5f30	-0.16637874
71	0xbda020e5	-0.07818774
72	0xbc3737a2	-0.0111826975
73	0x3e8b770b	0.2723926
74	0xbc9c5262	-0.019082252
75	0x3df5014b	0.11963137
76	0xbdb26cf4	-0.087121874
77	0xbc59e9ee	-0.013300402
78	0xbb8296fd	-0.0039852844
79	0x3dc1bd17	0.09459894
80	0xbdf9db97	-0.122000866
81	0x3e7812f0	0.24225974
82	0xbec4fe05	-0.38475052
83	0x3d8b2b74	0.067953974
84	0xbb4903e6	-0.003067249
85	0x3d446ec2	0.04795719
86	0x3e0bd65d	0.13655992
87	0x3caa66c1	0.02080095
88	0xbd9bef88	-0.07614046
89	0x3dac469a	0.08411904
90	0xbd39b016	-0.045333944
91	0xbe596cbd	-0.21232887
92	0xbc931dac	-0.017958485
93	0x3cc9377d	0.024562592
94	0xbe8de25f	-0.2771177
95	0x3e34d661	0.17659904
96	0x3d3a64ff	0.045506474
97	0xbd848ffd	-0.06472776
98	0xbefcc0f4	-0.49365962
99	0xbdb43670	-0.08799446
100	0xbe20e5bf	-0.15712641
101	0xbd52b2d8	-0.05144009
102	0xbe65db52	-0.22446945
103	0xbc7d7253	-0.015469152
104	0xbe94a80d	-0.29034463
105	0xbc9088e4	-0.0176434
106	0xbd31cf65	-0.043410677
107	0x3e605d27	0.21910535
108	0x3cb3afe4	0.021934457
109	0x3df946ed	0.12171731
110	0xbe795691	-0.24349429
111	0xbe56d89b	-0.20981066
112	0x3e74f6e6	0.2392231
113	0xbd804229	-0.06262619
114	0xbdf575dc	-0.119853705
115	0xbddbc39d	-0.1073067
116	0x3e80eca8	0.25180554
117	0x3e76cd33	0.24101715
118	0x3df563a9	0.11981899
119	0xbe712118	-0.2354778
120	0xbe26119e	-0.16217658
121	0xbdb84458	-0.089974105
122	0x3e134a87	0.14383899
123	0x3e79827d	0.24366184
124	0xbd18124b	-0.03712682
125	0x3e65b984	0.2243405
126	0x3ec29edb	0.38011822
127	0xbe235fff	-0.15954588
128	0x3e1b0be9	0.15141262
129	0xbd582be0	-0.052776217
130	0xbec32942	-0.38117415
131	0xbe68ab3c	-0.2272157
132	0x3dc5485b	0.09632941
133	0xbdadf324	-0.08493641
134	0x3d535997	0.05159911
135	0xbe0d598e	-0.13803694
136	0xbcd97487	-0.026544822
137	0xbbdd806d	-0.0067596943
138	0xbe14f3c9	-0.14546122
139	0xbe011ce0	-0.12608671
140	0xbe7bb679	-0.24581327
141	0x3d9ae2d2	0.07562794
142	0x3e3abdf4	0.18236524
143	0x3c452a2a	0.0120339785
144	0xbe93176c	-0.28728807
145	0xbe0c6eb7	-0.1371411
146	0xbe9d4450	-0.3071618
147	0xbd9e3cd5	-0.077264465
148	0xbcc162d0	-0.023606688
149	0x3df1c72e	0.11805569
150	0x3d2e67c7	0.04257944
151	0x3e2b8937	0.16751562
152	0xbd85e93b	-0.06538626
153	0xbd13a33d	-0.036044348
154	0xbe646cf2	-0.22307184
155	0xbe504b70	-0.20341277
156	0x3ead24d8	0.33817172
157	0xbc950f2b	-0.01819571
158	0xbe20ccf6	-0.15703186
159	0x3e0c868c	0.137232
160	0xbe9acd7e	-0.30234903
161	0xbe13adc4	-0.14421755
162	0xbc14dce7	-0.00908587
163	0xbeca3009	-0.39489773
164	0x3d44fcd1	0.048092667
165	0xbd84474a	-0.0645891
166	0x3e181fb0	0.14855838
167	0x3da30e41	0.07961703
168	0x3e2122f0	0.15735984
169	0x3d1f9a56	0.038965546
170	0xbbd84185	-0.0065996074
171	0xbda96298	-0.082707584
172	0x3e2b7eb5	0.16747554
173	0xbe20b083	-0.15692334
174	0xbeb7e422	-0.3591624
175	0x3dab98b5	0.08378736
176	0x3e56efb5	0.20989878
177	0xbe8fcd3b	-0.28086266
178	0xbd908185	-0.07055954
179	0xbe842ac6	-0.25813884
180	0x3e310bf3	0.17289715
181	0xbe79c7d2	-0.24392632
182	0xbd9629ad	-0.07332168
183	0xbdb040d5	-0.08606116
184	0x3d4ceb38	0.05002901
185	0xbd89d566	-0.06730156
186	0x3e31ee96	0.1737617
187	0x3e2a1fa7	0.16613637
188	0xbd3fd116	-0.04683026
189	0xbd829c1e	-0.06377433
190	0x3d4d31bc	0.05009626
191	0xbe8a1a3f	-0.2697315
192	0x3e044543	0.12917046
193	0xbd45c406	-0.048282646
194	0x3e029ec7	0.12755881
195	0x3e20cb49	0.15702547
196	0xbdfcb17f	-0.12338542
197	0x3d1c9e2b	0.03823678
198	0xbd3cc1e8	-0.04608336
199	0x3bf00b6e	0.0073255813
200	0xbde7cd8f	-0.11318504
201	0xbdad5671	-0.08463753
202	0xbe4b9171	-0.198797
203	0x3d6eb4ed	0.058278013
204	0x3ea459f4	0.3209988
205	0xbe80d850	-0.25165033
206	0xbed5af1d	-0.41735163
207	0x3dc03168	0.093844235
208	0xbdcb28f3	-0.0991992
209	0xbdadf1ee	-0.0849341
210	0x3d786077	0.06063887
211	0x3e5a0fdc	0.21295112
212	0xbe66a042	-0.22522071
213	0x3dc84faa	0.0978082
214	0xbdfb03ee	-0.12256609
215	0xbe48f556	-0.19624838
216	0xbdacb25a	-0.08432455
217	0xbc17c98a	-0.009264359
218	0x3e5fcdcb	0.21855848
219	0x3e0cd7cf	0.137542
220	0xbd8e7c25	-0.069572724
221	0xbe231ce2	-0.15928987
222	0xbdb70a8d	-0.08937559
223	0xbca59194	-0.020211019
224	0x3d6ba505	0.05753042
225	0x3ea9824b	0.33107218
226	0xbe1fc67f	-0.15603064
227	0xbe4de04d	-0.20105095
228	0xbe03f0d8	-0.12884843
229	0xbdfdefc5	-0.12399248
230	0x3e12de25	0.14342554
231	0xbbed1db4	-0.007236207
232	0xbd3239ef	-0.04351228
233	0x3e196149	0.14978518
234	0xbe1710d3	-0.14752512
235	0xbc325ecf	-0.010886862
236	0xbe077dfb	-0.13231651
237	0x3da6bfdb	0.08142062
238	0x3cdb1e3c	0.026747815
239	0xbdcfa568	-0.101389706
240	0xbef414fb	-0.47672257
241	0x3dbe08e6	0.09279041
242	0x3e0b989e	0.13632438
243	0x3ca652ef	0.020303218
244	0x3e67db4e	0.22642252
245	0xbe3c3017	-0.1837772
246	0xbe8ad02d	-0.2711195
247	0x3d825fce	0.063659295
248	0x3d062e39	0.032758925
249	0x3a8d4d36	0.0010780457
250	0x3e502032	0.20324782
251	0xbdd52a40	-0.10408449
252	0x3e478db4	0.19487649
253	0xbd2e6f4c	-0.04258661
254	0xbe7ce733	-0.2469757
255	0x3d27be6d	0.04095309

network_body._body_endoder.seq_layers.2.bias f4 [64]
0	0x3d0f99d7	0.035058822
1	0x3d1fb656	0.03899225
2	0xbd20714d	-0.039170552
3	0xbb29e912	-0.0025926274
4	0xbbdd49f8	-0.0067532025
5	0xbd25829a	-0.040407754
6	0x3d5fedf9	0.054670308
7	0x3ca9857d	0.020693535
8	0xbcfe1825	-0.031017372
9	0xbbbcad38	-0.005757954
10	0xbc9d234e	-0.019181874
11	0xbd38da8f	-0.04513031
12	0x3cdafc49	0.026731627
13	0xbc813cbf	-0.015776036
14	0x3c4e8f17	0.012607357
15	0x3d4f1d79	0.050565217
16	0xbcc0f17d	-0.02355265
17	0xbb8d039c	-0.004303409
18	0x3c755711	0.0149743715
19	0xbc18d9d8	-0.009329282
20	0x3ccb131b	0.024789384
21	0xbd1958a4	-0.03743805
22	0x3c7a2f7c	0.01527011
23	0xbc488d80	-0.0122407675
24	0xbc996871	-0.01872656
25	0x3d288146	0.04113891
26	0xbb2627f8	-0.0025353413
27	0xbc48f312	-0.012264984
28	0xbce53fb2	-0.027984474
29	0x3ce1ef86	0.027580034
30	0x3c9774ee	0.018488374
31	0x3d1cd88f	0.038292464
32	0x3ba55243	0.0050452068
33	0xbbff1f67	-0.007785726
34	0x3d8accac	0.06777319
35	0xbd28a089	-0.041168723
36	0x3cff4240	0.03115952
37	0x3d1ffa69	0.03905717
38	0xbce8add6	-0.028403204
39	0x3c0d0c97	0.008608959
40	0x3c069a62	0.008215519
41	0x3d8046e5	0.06263522
42	0xba753783	-0.000935428
43	0x3d70ba73	0.05877156
44	0x3d149bd8	0.036281437
45	0x3c1bb3f1	0.009503351
46	0x3ca113f4	0.019662835
47	0x3d2f8fbd	0.04286169
48	0x3c7b16e9	0.015325286
49	0x3ceae2fb	0.028672686
50	0x3d83a290	0.06427491
51	0x3bbf8c2f	0.0058455686
52	0x3d5b7a7f	0.05358362
53	0x3bc02990	0.0058643296
54	0x3c8d5388	0.017251745
55	0x3ce9f19e	0.028557595
56	0x3cea7868	0.028621867
57	0xbc78b2c3	-0.015179339
58	0xbb8e32e0	-0.004339561
59	0xbbba98f4	-0.005694503
60	0x3d3bef19	0.04588232
61	0xba964e90	-0.0011467505
62	0x3be2b733	0.0069188117
63	0xbcf4a7fd	-0.02986526

network_body._body_endoder.seq_layers.4.weight f4 [64, 64]
0	0xbea7749f	-0.32706162
1	0x3dd16771	0.10224808
2	0x3e8a12b5	0.26967397
3	0xbe53b44a	-0.20674244
4	0xbe0d3bc5	-0.13792332
5	0x3e6067a8	0.21914542
6	0xbe00c261	-0.1257415
7	0x3d1e6ef0	0.038680017
8	0xbe214a6c	-0.15751046
9	0xbcd0ab1e	-0.02547222
10	0x3d3f135d	0.046649326
11	0xbd8b97a9	-0.06816036
12	0x3cfd074e	0.030887272
13	0x3d5ea0a9	0.054352436
14	0x3e8ba0c8	0.27271104
15	0xbcb505cf	-0.022097496
16	0x3d206c16	0.03916558
17	0x3c9ed71d	0.019389683
18	0x3dabd169	0.08389551
19	0x3ecb339d	0.39687815
20	0x3d18c8cf	0.03730088
21	0xbd2101ef	-0.039308485
22	0x3cfc42c2	0.030793551
23	0xbda98aef	-0.082784526
24	0xbd1837f2	-0.03716273
25	0xbd133291	-0.035936896
26	0xbd9cde62	-0.07659604
27	0x3e948443	0.29007158
28	0xbe3a0c98	-0.18168867
29	0xbb4e5931	-0.0031486268
30	0xbe2d4617	-0.16921268
31	0xbd871fc8	-0.06597859
32	0xbd4ab17e	-0.049485676
33	0xbe76ec62	-0.2411361
34	0xbe8e7cd1	-0.27829602
35	0xbdefc947	-0.117083125
36	0xbc33e1e2	-0.010979148
37	0xbcce628f	-0.02519348
38	0x3d031826	0.03200545
39	0xbd42a1f6	-0.04751774
40	0xbda6feb1	-0.08154047
41	0x3e02378e	0.12716505
42	0xbe512f08	-0.20428097
43	0x3e1db922	0.15402654
44	0xbcc95599	-0.024576949
45	0xbcbb300b	-0.022850057
46	0x3f0d926b	0.5530154
47	0xbdb28adf	-0.08717894
48	0xbe9d4a7b	-0.30720887
49	0x3d8f771f	0.070051424
50	0x3d166477	0.036716904
51	0xbe89522e	-0.2682051
52	0x3e426ee1	0.1898761
53	0x3ec32ca7	0.38120005
54	0xbd6c688d	-0.057716895
55	0x3e0326a0	0.12807703
56	0x3e1a24b2	0.1505306
57	0x3c572fe9	0.013133981
58	0x3ced7baa	0.028989632
59	0x3d21c0bf	0.039490458
60	0x3ea20a14	0.31648314
61	0x3ded8bdb	0.11598941
62	0x3b0ec108	0.0021782536
63	0xbdc886e9	-0.09791357
64	0x3dfcfefb	0.12353321
65	0x3d59f457	0.053211536
66	0x3e8bc5ad	0.27299252
67	0xbe57708e	-0.2103903
68	0xbe6b8c0e	-0.23002645
69	0xbe4817c5	-0.19540317
70	0x3e8393f8	0.2569883
71	0x3b4525ac	0.0030082269
72	0x3d244e20	0.04011357
73	0x3cd72cb1	0.026266428
74	0xbe8f30ef	-0.2796702
75	0x3d51f79f	0.05126154
76	0x3db5d651	0.08878768
77	0xbe351372	-0.17683199
78	0x3df3431e	0.11878036
79	0x3cde48c1	0.027134301
80	0x3e29bb5a	0.16575375
81	0xbd9cdbee	-0.07659136
82	0xbe1b6461	-0.1517501
83	0xbd30c7bc	-0.04315923
84	0xbe0080a1	-0.12549068
85	0x3e24fc63	0.16111903
86	0xbd1658cb	-0.036705773
87	0xbd18b568	-0.037282377
88	0xbdca05ce	-0.098643884
89	0x3e67ad11	0.22624613
90	0x3d7f2ac9	0.062296662
91	0xbdd6e0ce	-0.10492097
92	0xbd1a14b1	-0.03761739
93	0x3d954164	0.07287863
94	0x3e3624a0	0.17787409
95	0x3e815f83	0.25268182
96	0x3d7c972a	0.0616676
97	0x3e8ff5ce	0.28117222
98	0xbdaba578	-0.0838117
99	0xbb3f043c	-0.002914681
100	0x3dc5ebc2	0.09664108
101	0x3dc3f878	0.09568876
102	0xbe324bfc	-0.17411798
103	0xbc57146a	-0.013127426
104	0xbe3e0221	-0.185555
105	0xbd1c48cc	-0.038155362
106	0xbe15b6a5	-0.14620455
107	0xbd8f9e9a	-0.07012673
108	0xbd91a724	-0.07111958
109	0x3ea02204	0.31275952
110	0xbedeaab1	-0.43489602
111	0x3c0bdc49	0.008536407
112	0xbd86f181	-0.06589032
113	0x3d8b0a4b	0.067890726
114	0xbd8a1ed4	-0.06744161
115	0x3d957604	0.072979
116	0x3cd1bab6	0.025601726
117	0xbe8e499e	-0.2779054
118	0xbed6748f	-0.41885802
119	0xbd8ccf0e	-0.0687543
120	0xbdb4511f	-0.08804535
121	0x3c74ab51	0.014933423
122	0xbd156233	-0.036470603
123	0x3eaa06a6	0.33208197
124	0x3e18dcb7	0.14927946
125	0x3e65c339	0.22437753
126	0xbd1af9f4	-0.03783603
127	0xbd2e65e9	-0.042577658
128	0xbe81e08c	-0.25366628
129	0x3d8e7f3c	0.06957862
130	0x3d8c4416	0.06848924
131	0xbe6f899e	-0.2339234
132	0xbd9d1933	-0.07670822
133	0x3d50add5	0.05094703
134	0x3dcfdc54	0.10149446
135	0x3d10e685	0.03537609
136	0x3e4a95c6	0.19783697
137	0xbeac6f5c	-0.3367871
138	0x3a0054be	0.000489544
139	0xbe42c2a1	-0.19019558
140	0xbdec7dfe	-0.115474686
141	0xbe2bfed3	-0.16796426
142	0x3d16be16	0.036802374
143	0xbe298940	-0.16556263
144	0xbdd6ccb3	-0.10488262
145	0xbed9f71b	-0.4257134
146	0xbd93e71f	-0.07221817
147	0xbdf7aa39	-0.12093014
148	0x3c0a9f86	0.008460885
149	0x3e2d4dcd	0.1692421
150	0x3d4378a8	0.04772249
151	0x3e094542	0.13405326
152	0xbdda2fa6	-0.106536195
153	0xbdf59b6e	-0.119925365
154	0xbd2d4c7a	-0.04230926
155	0xbd1b5c5f	-0.03792989
156	0x3ddd6cc0	0.10811758
157	0xbe838c23	-0.25692853
158	0x3c38de0a	0.011283407
159	0xbe2bee90	-0.16790223
160	0xbe205b9e	-0.15659949
161	0x3da10bfa	0.078636125
162	0x3d91550a	0.07096298
163	0xbdb71814	-0.089401394
164	0x3da25953	0.079271935
165	0xbdc16b8b	-0.0944434
166	0x3d930ab2	0.07179774
167	0x3e2c4ea5	0.16826876
168	0xbe14461c	-0.1447987
169	0xbc4f2d5c	-0.012645092
170	0x3da09aa3	0.078419946
171	0x3eb801c1	0.35938838
172	0x3df22300	0.11823082
173	0xbe3b1f75	-0.18273719
174	0x3c9e0f18	0.019294307
175	0xbda5a1cc	-0.08087501
176	0x3d6a69b1	0.0572297
177	0xbe254537	-0.16139685
178	0x3dc30b55	0.09523646
179	0xbd659a6b	-0.056055468
180	0x3d3065ea	0.043065943
181	0xbe83a245	-0.2570974
182	0x3e07dfab	0.13268916
183	0x3e077513	0.13228254
184	0xbe4efa5e	-0.20212695
185	0xbe2c23cc	-0.1681053
186	0x3e6e007f	0.23242377
187	0x3dba967d	0.091107346
188	0xbe9a42b2	-0.3012901
189	0xbe23478e	-0.15945265
190	0xbdb64eb0	-0.08901727
191	0x3c82c154	0.015961327
192	0x3e53b822	0.2067571
193	0x3cc5c46d	0.024141515
194	0xbdd987d2	-0.10621609
195	0xbc4610bc	-0.012088951
196	0xbd694e74	-0.056959584
197	0xbe747c9f	-0.23875664
198	0xbe338905	-0.17532738
199	0x3deb3eb0	0.11486566
200	0xbd87c537	-0.066294126
201	0x3e922650	0.28544855
202	0xbe26bdbd	-0.16283317
203	0xbd9d0a2a	-0.07667954
204	0xbdd4d5da	-0.103923514
205	0xbe5957ab	-0.21224849
206	0x3d1b68bd	0.037941683
207	0xbdf9b62d	-0.121929504
208	0xbe0f70a5	-0.14007814
209	0x3cf56976	0.029957514
210	0xbd8a32ac	-0.06747946
211	0xbe3ec3f9	-0.18629445
212	0x3dd058e0	0.101732016
213	0x3d19fa4d	0.03759222
214	0x3db34cce	0.08754884
215	0xbe1927a7	-0.14956532
216	0x3e6420a6	0.2227808
217	0xbc84babb	-0.016202321
218	0x3e23ee1a	0.16008797
219	0xbd9c44af	-0.07630288
220	0xbc3c44b9	-0.011490994
221	0x3e3eeab0	0.18644214
222	0xbda73beb	-0.08165725
223	0x3e52d5d9	0.20589389
224	0x3ea752ea	0.32680446
225	0x3e1d7b59	0.15379085
226	0x3e08d8cb	0.1336395
227	0x3d11a7ca	0.035560407
228	0xbde9a34c	-0.114080995
229	0x39220fbe	0.00015455388
230	0xbe16926d	-0.14704295
231	0xbe9b2160	-0.302989
232	0xbdcb8a1b	-0.09938451
233	0xbcb5ffaf	-0.022216646
234	0x3ed577dd	0.4169301
235	0x3c3f72cf	0.011685087
236	0x3daa57f8	0.0831756
237	0xbe2a6f92	-0.16644123
238	0xbd075847	-0.033043172
239	0x3dc583e5	0.096442975
240	0xbde015ec	-0.10941681
241	0x3d20b11a	0.039231397
242	0xbeb0b4c0	-0.345129
243	0x3cec07a5	0.028812239
244	0x3e2c2087	0.16809283
245	0x3e4a1488	0.19734395
246	0xbd894fa3	-0.067046426
247	0x3eaee1e2	0.3415671
248	0x3d8421e7	0.06451779
249	0xbe662b15	-0.22477372
250	0xbe1bcbd3	-0.15214472
251	0x3e88af5e	0.26696295
252	0xbe36d16f	-0.1785333
253	0xbeabf713	-0.3358694
254	0x3e117071	0.14203049
255	0xbdfce0fe	-0.12347601

network_body._body_endoder.seq_layers.4.bias f4 [64]
0	0x3cc6e467	0.024278833
1	0xbd89099e	-0.066912875
2	0x3d9d997f	0.07695293
3	0x3d93b2e1	0.07211853
4	0x3bf8390d	0.0075751604
5	0x3d31c040	0.043396235
6	0xbddd91ab	-0.108187996
7	0x3d6b1640	0.057394266
8	0xbd3c11bb	-0.045915347
9	0x3cf8f988	0.030392423
10	0x3c138b35	0.0090053575
11	0xbd2fb1e5	-0.042894263
12	0x3da72823	0.08161952
13	0xbc62a676	-0.013833633
14	0x3d7c2977	0.06156298
15	0x3de19ab1	0.11015833
16	0x3c5a3b19	0.013319754
17	0xbd0c250d	-0.034215022
18	0xbd97f9f7	-0.07420724
19	0x3c91ff6a	0.017821986
20	0xbc80c77d	-0.015720123
21	0xbb5ba92d	-0.0033517585
22	0xbd4efee0	-0.050536036
23	0xbc273a5e	-0.010206787
24	0xbcb56151	-0.02214113
25	0x3d68dcc6	0.05685117
26	0x3d300031	0.042968933
27	0x3d328ff3	0.043594312
28	0xba3cbf2c	-0.00072001177
29	0x3d99845e	0.0749595
30	0xbd3d7223	-0.046251427
31	0x3cdeffac	0.027221523
32	0xbd8a28c2	-0.06746055
33	0x3d37f7fd	0.044914234
34	0x3d859333	0.06522217
35	0xbdd713fe	-0.1050186
36	0xbdb2a96e	-0.087237224
37	0x3dc130a0	0.094331026
38	0x3c9af9db	0.018917968
39	0xbd84e019	-0.06488056
40	0x3d3a9b14	0.04555805
41	0x3d995666	0.07487182
42	0x3b79bc82	0.0038106744
43	0xbd1a93e4	-0.037738696
44	0x3ca9c5fa	0.020724285
45	0x3c8af7fc	0.016963951
46	0x3d547a1c	0.051874265
47	0xbd58bef6	-0.05291649
48	0xbc82e45e	-0.015978035
49	0x3dd48fce	0.10378991
50	0x3d3d9611	0.046285693
51	0xbc9c2f34	-0.019065477
52	0xbdfa7a33	-0.12230339
53	0x3d3877cc	0.045036122
54	0x3e0baafb	0.13639443
55	0x3c9a5ba2	0.018842522
56	0xbcebe07a	-0.028793562
57	0x3d9b5125	0.075838365
58	0xb9c8d02a	-0.00038302067
59	0xbd329a42	-0.043604143
60	0xbca514cb	-0.020151516
61	0xbcc7e946	-0.024403226
62	0xbd12e8c6	-0.03586652
63	0x3d4c767f	0.049917694

action_model._continuous_distribution.log_sigma f4 [1, 44]
0	0x3e616a8a	0.22013298
1	0x3e3b9c64	0.18321377
2	0x3e8baf55	0.27282205
3	0x3eb4ec12	0.35336357
4	0x3e3862c0	0.1800642
5	0x3eecb509	0.4623187
6	0x3ece51a3	0.4029666
7	0x3eb51a97	0.3537185
8	0x3e5e6276	0.21717247
9	0x3ddc60ed	0.107606746
10	0x3ec76cdb	0.38950238
11	0x3e6055e4	0.21907765
12	0x3eaec408	0.34133935
13	0x3e17e9ad	0.14835234
14	0x3eebf116	0.4608237
15	0x3ed236d9	0.4105747
16	0x3d842390	0.064520955
17	0x3e8e36e5	0.27776256
18	0x3e4208fa	0.18948737
19	0x3e19fd2c	0.15037984
20	0x3ec98a69	0.3936341
21	0x3ed09557	0.40738937
22	0x3e876779	0.2644613
23	0x3ed4fdb6	0.41599816
24	0x3d20a922	0.039223798
25	0x3d3a9058	0.045547813
26	0x3e01b0c5	0.12665088
27	0x3e1672a0	0.14692163
28	0x3e188c9e	0.14897391
29	0x3ec2ad18	0.38022685
30	0x3ec628e8	0.38703084
31	0x3e904c58	0.28183246
32	0x3df1dafb	0.11809345
33	0x3d85faf0	0.06542003
34	0x3df90c4a	0.12160547
35	0x3e830a53	0.25593814
36	0x3e790c1b	0.24321024
37	0x3dc51b42	0.0962434
38	0x3dbd3222	0.09238078
39	0x3e1c867f	0.15285681
40	0x3ecbce34	0.39805758
41	0x3ed264b4	0.41092455
42	0x3e81f109	0.25379208
43	0x3e5e8095	0.21728738

action_model._continuous_distribution.mu.weight f4 [44, 64]
0	0xbccc5d99	-0.024946975
1	0xbdc34486	-0.09534554
2	0xbe5d1c12	-0.21592739
3	0xbd44e01f	-0.0480653
4	0xbe219c96	-0.15782389
5	0x3cd6636e	0.026170459
6	0x3db9bf1e	0.09069656
7	0xbb8c836b	-0.004288127
8	0xbd04b316	-0.032397352
9	0x3ca3c071	0.019989224
10	0xbe258bad	-0.16166563
11	0xbd83e364	-0.06439856
12	0xbd4afd4a	-0.04955796
13	0x3c1126fa	0.00885939
14	0xbc7b25ea	-0.015328864
15	0xbdacafa0	-0.08431935
16	0xbdcbfa13	-0.09959807
17	0x3e8350fc	0.25647724
18	0x3e263135	0.16229708
19	0xbd6615f0	-0.056173265
20	0xbd870375	-0.06592456
21	0xbcb6ff7a	-0.022338618
22	0x3ba548ad	0.005044064
23	0x3de5203e	0.1118779
24	0x3d54f284	0.051989093
25	0xbd96c19c	-0.07361147
26	0x3d52f744	0.051505342
27	0x3cf69ac3	0.030103093
28	0x3cc7d9b7	0.024395807
29	0xbce3b979	-0.027798401
30	0x3d960859	0.07325811
31	0xbded1167	-0.11575585
32	0xbd8ab94c	-0.06773624
33	0xbdad0f0e	-0.08450137
34	0xbca5ef89	-0.02025582
35	0x3d865960	0.06560016
36	0x3b4e79af	0.0031505635
37	0x3d6cafab	0.057784718
38	0x3db1a443	0.086739086
39	0x3dcf0440	0.101082325
40	0xbe6c4e1c	-0.23076671
41	0xbe12b4a1	-0.14326717
42	0xbd0c4b24	-0.034251347
43	0x3e576717	0.2103542
44	0x3c2688e2	0.010164471
45	0xbd1f2157	-0.038850155
46	0xbd975a67	-0.0739029
47	0x3d7bead0	0.06150323
48	0xbd8ac79d	-0.067763545
49	0x3cc7140a	0.024301548
50	0x3dc8ae8a	0.09798916
51	0x3c7cabed	0.01542185
52	0xbd17d9a1	-0.03707278
53	0xbd154366	-0.03644123
54	0x3d9bae4c	0.07601604
55	0xbdffd2f9	-0.12491412
56	0x3d9f912a	0.0779136
57	0xbca9dc40	-0.020734906
58	0x3c23172c	0.009954255
59	0xbe04da59	-0.12973918
60	0x3d3e5dd3	0.046476196
61	0x3cc80c6b	0.024419984
62	0xbbf7470b	-0.007546311
63	0xbd843748	-0.064558566
64	0xbdfb012a	-0.122560814
65	0x3dd28de9	0.102809735
66	0x3cd69aca	0.026196856
67	0xba8fe8d1	-0.0010979419
68	0xbdedddbf	-0.1161456
69	0xbd0ada20	-0.033899426
70	0x3dc79a82	0.09746267
71	0x3e1abf64	0.15112072
72	0xbb58e230	-0.0033093803
73	0x3d159a37	0.036524024
74	0xbdfa0c8c	-0.122094244
75	0xbd03a5d4	-0.032140568
76	0x3d23087a	0.039803006
77	0x3d8f89ed	0.07008729
78	0x3d0fa3f4	0.035068467
79	0xbdb17e14	-0.086666256
80	0xbcd873c3	-0.026422387
81	0x3dc81c53	0.097710274
82	0xbbe1f54b	-0.0068956963
83	0xbdfbe985	-0.123004
84	0x3d9e1e63	0.077206396
85	0xbd426177	-0.04745623
86	0x3b6660ee	0.003515299
87	0xbe40b610	-0.18819451
88	0xbcd3e91f	-0.025867997
89	0xbd808ba7	-0.062766366
90	0x3c2e475a	0.010637129
91	0xbd3bc06b	-0.0458378
92	0xbe3c857e	-0.18410298
93	0x3aa74874	0.0012762682
94	0x3cd36c49	0.02580847
95	0xbb745f83	-0.0037288375
96	0xbd62e0e0	-0.05539024
97	0x3d05d8c8	0.03267744
98	0x3c809272	0.01569483
99	0x3d578393	0.052615713
100	0x3de10de8	0.109889805
101	0x3dfc8518	0.12330073
102	0x3da0dcea	0.07854636
103	0xbdf4a880	-0.11946201
104	0xbde0e4f7	-0.109811716
105	0x3db90972	0.09035005
106	0x3db514ec	0.08841881
107	0x3dbe0ad2	0.092794076
108	0x3d9d0343	0.07666638
109	0xbd09b8d9	-0.03362355
110	0xbd43e886	-0.047829174
111	0x3d13c9f7	0.03608128
112	0xbe08939e	-0.13337561
113	0xbd9c9847	-0.07646232
114	0x3d8e1654	0.069378525
115	0xbd257c79	-0.04040191
116	0x3c49f0ba	0.01232546
117	0xbd2bc175	-0.041932542
118	0x3dcb2c6d	0.09920583
119	0xbde9a12f	-0.114076965
120	0xbd8d1367	-0.06888466
121	0xbd2a31bd	-0.04155134
122	0x3cf9c9ba	0.030491699
123	0xbca54d04	-0.020178325
124	0x3db3c079	0.087769456
125	0x3d038563	0.03210963
126	0x3d93d97f	0.072192185
127	0xbe225e19	-0.15856208
128	0xbd369f70	-0.044585645
129	0x3db7a265	0.08966521
130	0xbcf0bed9	-0.029387878
131	0xbdcec3d0	-0.10095942
132	0x3d9822d9	0.07428522
133	0xbd5ab0fa	-0.053391434
134	0xbad9363f	-0.0016571953
135	0x3d18f999	0.03734741
136	0xbd3e3836	-0.046440326
137	0xbe041749	-0.12899508
138	0x3d9b95e6	0.0759695
139	0x3d8a1783	0.06742766
140	0xbe03ca73	-0.12870197
141	0x3e09ef25	0.13470133
142	0x3c18010e	0.009277595
143	0x3b5d9e17	0.0033816153
144	0xbd649c2f	-0.05581301
145	0x3e0e4b61	0.13895942
146	0x3ca92d5a	0.020651508
147	0x3d8d27a3	0.06892326
148	0x3d3cf36a	0.046130575
149	0xbd13f6ae	-0.036123924
150	0xbce6441d	-0.02810865
151	0x3e9c8c4c	0.30575788
152	0xbddfc633	-0.109264754
153	0x3ac24dc2	0.0014824199
154	0x3e5becf5	0.2147711
155	0xbc204531	-0.0097821215
156	0xbdeb5d04	-0.11492351
157	0x3cc9d4b6	0.024637561
158	0x3d197c01	0.037471775
159	0xbdea4f59	-0.114409156
160	0x3c82829b	0.015931418
161	0x3db9f42e	0.09079777
162	0x3d2ecfd8	0.042678684
163	0x3db5b521	0.08872438
164	0xbc7c2866	-0.015390491
165	0xbd89aa9c	-0.06721994
166	0x3d560270	0.05224842
167	0x3b947d59	0.004531544
168	0xbe308bd4	-0.1724084
169	0xbda46184	-0.08026412
170	0x3e03f4fc	0.12886423
171	0x3de160b3	0.11004772
172	0xbd976e94	-0.07394138
173	0xbd9340a1	-0.07190061
174	0x3c537bb9	0.012907916
175	0x3dadf2d9	0.08493585
176	0x3d9cdf1a	0.07659741
177	0xbda5a109	-0.08087356
178	0x3db74b26	0.0894988
179	0xbd8a825e	-0.06763147
180	0xbd07e0b4	-0.033173278
181	0xbc92d16e	-0.01792213
182	0xbd47d4e6	-0.04878702
183	0x3e1101ec	0.1416089
184	0x3d88b1dd	0.0667455
185	0xbe395bb2	-0.18101385
186	0xbdd17345	-0.10227064
187	0xbbcd8b4c	-0.006272709
188	0x3d5ed1a7	0.05439916
189	0x3cb7126e	0.022347655
190	0xbc2dcaba	-0.010607416
191	0xbd87d225	-0.06631879
192	0xbd67fa1e	-0.056635015
193	0x3bbb1bf9	0.0057101217
194	0xbd2bbec8	-0.04192999
195	0x3db89eba	0.0901465
196	0xbd1b2960	-0.037881255
197	0x3cde2ec1	0.027121903
198	0x3a1120aa	0.00055361784
199	0x3e5316ed	0.20614214
200	0x3e1a2f3f	0.15057085
201	0xbd573add	-0.05254637
202	0x3c7c5e12	0.0154032875
203	0xbcc925ba	-0.024554122
204	0x3d665e1b	0.05624209
205	0x3d8adb71	0.067801364
206	0xbcb2f2bd	-0.021844262
207	0x3d81611e	0.06317352
208	0xbdf0038e	-0.11719428
209	0x3dc0788b	0.09397992
210	0xbd0dad8d	-0.03458934
211	0x3d0d04e1	0.03442848
212	0xbc5f586b	-0.01363192
213	0xbdda92ec	-0.106725544
214	0x3d83770b	0.0641919
215	0x3a2ab3e6	0.00065117923
216	0x3daa3c4d	0.08312283
217	0xbdf0ea49	-0.11763436
218	0x3d53ee94	0.051741198
219	0x3d277f78	0.040893048
220	0x3e0104a4	0.12599427
221	0xbd0425af	-0.0322625
222	0x3d815825	0.0631564
223	0xbe01cf7c	-0.12676805
224	0x3ca0bb80	0.019620657
225	0xbdac43bc	-0.08411357
226	0x3d96d951	0.073656686
227	0x3c480b7f	0.012209772
228	0xbd0da2a1	-0.034578923
229	0x3da3893a	0.07985158
230	0xbd835cda	-0.064141944
231	0xbd9710b0	-0.0737623
232	0x3df68df4	0.12038794
233	0xbcfe6e81	-0.031058552
234	0xbb3869fa	-0.0028139339
235	0xbe642215	-0.22278626
236	0xbcf0baf5	-0.029386023
237	0x3e5c4a29	0.21512665
238	0x3c981088	0.01856257
239	0xbb1846e0	-0.0023235604
240	0x3d3b3a00	0.04570961
241	0x3e394ec4	0.18096453
242	0x3d96ea0f	0.07368862
243	0xbdc51008	-0.09622198
244	0xbcffd295	-0.031228343
245	0x3d909195	0.070590176
246	0x3e671842	0.22567847
247	0x3db0cbd0	0.08632624
248	0x3c12cc6f	0.008959874
249	0xbdd005e8	-0.101573765
250	0xbd9e4733	-0.07728424
251	0xbdaa14e3	-0.08304765
252	0x3d262bf3	0.040569257
253	0x3d4e186d	0.050316263
254	0x3c90884d	0.017643118
255	0xbd4ae2d6	-0.049532734

action_model._continuous_distribution.mu.bias f4 [44]
0	0xbd08e8c3	-0.033425104
1	0xbcb2b85c	-0.021816425
2	0xbd39f59e	-0.045400254
3	0x3d36e0d0	0.04464799
4	0x3d9f8223	0.077884935
5	0x3d79d189	0.060990844
6	0x3d0738b5	0.033013064
7	0x3cbb169d	0.022837931
8	0x3d45b7b0	0.04827088
9	0x3d128042	0.035766847
10	0x3d24a98a	0.040200748
11	0xbcdc4a41	-0.026890876
12	0x3d7d5890	0.061852038
13	0x3d6fbccc	0.05852966
14	0xbd29ca39	-0.04145262
15	0xbc3c08e7	-0.011476732
16	0xbc91f8fb	-0.017818918
17	0x3c208607	0.00979758
18	0xbe0c3e10	-0.1369555
19	0xbbe07767	-0.0068501714
20	0xbd282f4c	-0.04106073
21	0xbd3a8fc6	-0.04554727
22	0xbcccd171	-0.025002213
23	0xbd932f6a	-0.07186778
24	0xbc89088f	-0.016727714
25	0xbdf673b5	-0.12033788
26	0xbe30e418	-0.17274511
27	0xbd63a0be	-0.055573218
28	0xbc9e9d28	-0.019362047
29	0x3d0aae02	0.033857353
30	0xbcaa4187	-0.020783199
31	0xbdc1248b	-0.09430798
32	0xbdd783d7	-0.10523193
33	0xbcf642ae	-0.030061092
34	0xbd1343e5	-0.03595342
35	0x3cf010c7	0.029304875
36	0xbaedc658	-0.0018140776
37	0xbbee30ec	-0.0072690155
38	0x3c1f5067	0.009723759
39	0xbca7e0a8	-0.020492867
40	0xbd79d5aa	-0.06099478
41	0xbc884888	-0.016636148
42	0xbd9cda5d	-0.07658837
43	0x3d92cdb9	0.07168145

exp_avg f4 [64, 94]
0	0xb88c7baa	-6.6987544e-05
1	0xb83cfb8f	-4.5056975e-05
2	0xb8427f18	-4.637157e-05
3	0xb80e4132	-3.3916156e-05
4	0xb8e2aeea	-0.000108091
5	0x36d92dc1	6.4724304e-06
6	0xb82b378b	-4.0821305e-05
7	0xb7f2fbd7	-2.896592e-05
8	0xb8919554	-6.941953e-05
9	0x37cacfae	2.4176985e-05
10	0x3803ae27	3.1395026e-05
11	0xb8aae79d	-8.149373e-05
12	0x389259e5	6.978567e-05
13	0x37d22e79	2.5055591e-05
14	0x38362073	4.3422402e-05
15	0xb8475b08	-4.7530077e-05
16	0x389375ee	7.031472e-05
17	0xb8c6a162	-9.4714356e-05
18	0x38623556	5.3932272e-05
19	0xb72839c3	-1.0027029e-05
20	0xb8c79afe	-9.517929e-05
21	0x380955db	3.2743304e-05
22	0xb6972ddf	-4.505491e-06
23	0xb65fae73	-3.3331132e-06
24	0x3884492e	6.307881e-05
25	0x38cfd854	9.9108234e-05
26	0x3883d516	6.286257e-05
27	0x36f4022f	7.272021e-06
28	0xb7f0fce7	-2.8727996e-05
29	0xb80a3505	-3.2951142e-05
30	0x37ac3fbe	2.053368e-05
31	0x378a3718	1.6476537e-05
32	0xb7d2bd20	-2.5122019e-05
33	0x38b7c644	8.76305e-05
34	0x37f0ea62	2.8719372e-05
35	0x35eae7e6	1.750185e-06
36	0x38478201	4.7566373e-05
37	0x385204ae	5.007226e-05
38	0xb8a77f65	-7.9869096e-05
39	0xb81f79fb	-3.8022157e-05
40	0xb7a8e9ad	-2.0135974e-05
41	0xb6d29847	-6.276215e-06
42	0xb9148d7b	-0.00014167085
43	0xb92666cd	-0.0001586929
44	0xb9d713cc	-0.00041022745
45	0x38586cd8	5.159978e-05
46	0x38b6f0e9	8.723309e-05
47	0xb95fdf0f	-0.00021350033
48	0x389947d0	7.308985e-05
49	0x38ec0d01	0.00011255779
50	0x38760f04	5.8664955e-05
51	0x35e9cd8d	1.7419676e-06
52	0xb7facb72	-2.9897059e-05
53	0xb84bf8b8	-4.863061e-05
54	0x38da53b4	0.00010410641
55	0xb92b534f	-0.00016338866
56	0x390fca94	0.00013713009
57	0xb8e934f0	-0.00011120166
58	0x392c3930	0.00016424502
59	0x37f77682	2.9499879e-05
60	0x38d8c616	0.00010336579
61	0x373bf60e	1.1203358e-05
62	0xb28e895a	-1.6593436e-08
63	0x3481e606	2.4195487e-07
64	0x381646fe	3.5828903e-05
65	0xb7ceb698	-2.464214e-05
66	0xb68b5485	-4.152362e-06
67	0x37e4f462	2.7293518e-05
68	0xb7871cff	-1.6106756e-05
69	0xb6e2a28c	-6.754248e-06
70	0xb73d890a	-1.1297185e-05
71	0x37bc9beb	2.2483951e-05
72	0x377295db	1.4459215e-05
73	0x3852737e	5.0175462e-05
74	0xb82387cc	-3.89887e-05
75	0xb7be5c80	-2.2692839e-05
76	0x3751dd34	1.2508874e-05
77	0xb5b1736f	-1.3221123e-06
78	0x379fc49d	1.9045832e-05
79	0x37ed77c4	2.8308372e-05
80	0xb78fa05b	-1.71216e-05
81	0xb7818f2f	-1.5444673e-05
82	0xb73ab185	-1.1127796e-05
83	0x37bb3026	2.2314558e-05
84	0x37bf5bf1	2.2811788e-05
85	0x37b29c96	2.129217e-05
86	0xb7298a60	-1.0105403e-05
87	0x36897acf	4.097215e-06
88	0x3515a87c	5.5752e-07
89	0x37325442	1.0629245e-05
90	0x3770dc0a	1.4356347e-05
91	0x3515a87c	5.5752e-07
92	0x37325442	1.0629245e-05
93	0x3770dc0a	1.4356347e-05
94	0x3890289b	6.8740184e-05
95	0xb8cc818f	-9.75161e-05
96	0xb810c6e0	-3.4517492e-05
97	0xb8b7a269	-8.756371e-05
98	0xb78473a1	-1.578947e-05
99	0xb63d686e	-2.822398e-06
100	0xb88ccc43	-6.713767e-05
101	0x392ecb1c	0.00016669597
102	0x38c46d71	9.366393e-05
103	0xb84aded7	-4.836809e-05
104	0x36ea5965	6.9841503e-06
105	0x38f7a1f0	0.00011808041
106	0xb8adb77e	-8.283461e-05
107	0x390bfe26	0.0001335075
108	0x361c1e9f	2.3263635e-06
109	0x38e5a2bf	0.00010949885
110	0x38ab18f0	8.1585604e-05
111	0x397a4aab	0.00023869674
112	0x37d5d12d	2.5488984e-05
113	0x3908d7db	0.00013050383
114	0x388b828f	6.652355e-05
115	0xb87ccea0	-6.0273916e-05
116	0xb86446c7	-5.4425353e-05
117	0xb71778ad	-9.028398e-06
118	0x376ff48c	1.4302448e-05
119	0xb7055496	-7.947112e-06
120	0x362aa010	2.5425143e-06
121	0xb883a60b	-6.277495e-05
122	0xb9892d75	-0.00026164544
123	0xb7ee3efe	-2.8401144e-05
124	0xb8c84042	-9.548712e-05
125	0xb72b8277	-1.02227705e-05
126	0x39237a8f	0.00015590548
127	0x379b21a9	1.8493114e-05
128	0xb8be2ac5	-9.0678725e-05
129	0xb93ae6b9	-0.00017824293
130	0xb793718e	-1.7576644e-05
131	0x36e9b1a4	6.964621e-06
132	0x39899e90	0.00026248815
133	0x3953c82e	0.00020197101
134	0xb9071a4a	-0.00012884397
135	0xb8b01856	-8.396867e-05
136	0x38d030d4	9.927308e-05
137	0x39380223	0.00017548403
138	0xb9206743	-0.00015297257
139	0x39a429f9	0.0003131179
140	0xba6bd322	-0.0008996
141	0x3980414d	0.00024462715
142	0x3912f483	0.00014014733
143	0xba58fa6b	-0.0008277061
144	0x37cfe81c	2.4784407e-05
145	0x39d2c723	0.0004020269
146	0x39c9f4f0	0.000385202
147	0x39851cc1	0.0002538916
148	0x394c1ee3	0.00019466462
149	0x3936ddbf	0.0001743948
150	0xb8aa9f7f	-8.13594e-05
151	0x38af7de4	8.368099e-05
152	0xb86616f5	-5.4857654e-05
153	0xb821859d	-3.850983e-05
154	0x382c0a6a	4.1017694e-05
155	0xb8bc2e27	-8.973135e-05
156	0x38eb00c0	0.00011205813
157	0x386a328f	5.5837034e-05
158	0xb8c6d30d	-9.480687e-05
159	0x38f5a5a4	0.00011713363
160	0x38606577	5.350026e-05
161	0xb818b37f	-3.6406793e-05
162	0x387658b5	5.8733585e-05
163	0x3813e711	3.526273e-05
164	0x37837b30	1.567378e-05
165	0x36df3cb8	6.6529865e-06
166	0x37e2cd18	2.7036804e-05
167	0xb79c31e1	-1.8619876e-05
168	0x382bbe23	4.0946656e-05
169	0x37cb2f17	2.4221414e-05
170	0x381b7ce6	3.70712e-05
171	0xb7775ec7	-1.4744414e-05
172	0xb73d94e1	-1.1299941e-05
173	0x379068d1	1.7214947e-05
174	0x36ab8654	5.111835e-06
175	0x3742fdc3	1.1622385e-05
176	0x382e438f	4.154775e-05
177	0xb7a13cba	-1.9220974e-05
178	0xb6ffa76f	-7.619084e-06
179	0x38318c35	4.2330666e-05
180	0xb7a7ce00	-2.0003878e-05
181	0xb6b37843	-5.348616e-06
182	0x37aa6c88	2.0316118e-05
183	0x3606eee5	2.010661e-06
184	0x36bf27dd	5.6968843e-06
185	0x37aa6c88	2.0316118e-05
186	0x3606eee5	2.010661e-06
187	0x36bf27cf	5.696878e-06
188	0xb92eb6a4	-0.00016661972
189	0xb701c7be	-7.735505e-06
190	0xb6bf0f1f	-5.694004e-06
191	0x3838b303	4.4035736e-05
192	0xb8cf6f29	-9.8912344e-05
193	0xb9065373	-0.00012810323
194	0xb7543aed	-1.2649904e-05
195	0xb92b0529	-0.00016309753
196	0xb7ea1297	-2.790363e-05
197	0x384bb6db	4.856927e-05
198	0x386fbe46	5.7159246e-05
199	0xb8c156e5	-9.2191425e-05
200	0x380bc41f	3.3322834e-05
201	0xb8bca857	-8.995894e-05
202	0x373d7616	1.1292772e-05
203	0xb7ae77ef	-2.0798265e-05
204	0xb87d24fe	-6.0354352e-05
205	0xb91b69ce	-0.00014821367
206	0x37ff8a6b	3.0462825e-05
207	0xb7cb578d	-2.4240255e-05
208	0xb9445b33	-0.00018725991
209	0xb87cb076	-6.0245824e-05
210	0xb83886fa	-4.3994725e-05
211	0xb80552d6	-3.1786818e-05
212	0xb6f2f1bc	-7.2403036e-06
213	0x37afced2	2.0957934e-05
214	0x38965082	7.167553e-05
215	0x384bb9e1	4.8572085e-05
216	0xb78168d5	-1.5426815e-05
217	0xb8a39b7f	-7.801409e-05
218	0xb87c5fbd	-6.0170645e-05
219	0x3686919f	4.0104637e-06
220	0xb8a5d9c8	-7.908378e-05
221	0x379cc832	1.8689872e-05
222	0xb7b22bb8	-2.1239612e-05
223	0xb8fbe1c1	-0.000120106626
224	0xb8a9cffb	-8.097287e-05
225	0xb8160f8e	-3.5777273e-05
226	0xb8e3a6cf	-0.00010855274
227	0xb9442ff0	-0.00018709875
228	0xb8281b2e	-4.0079634e-05
229	0xb8dbe64e	-0.00010485631
230	0xb90eb016	-0.00013607772
231	0xb8ea9c50	-0.00011187105
232	0xb904d8e1	-0.00012669295
233	0xb98a74c6	-0.00026408414
234	0xb8813e88	-6.162847e-05
235	0x3758df81	1.2926642e-05
236	0xb913135b	-0.00014026223
237	0xb7289982	-1.0049322e-05
238	0xb8ee323b	-0.000113580805
239	0xb91f611a	-0.00015199595
240	0xb94b5185	-0.00019389957
241	0xb8f28fab	-0.000115662195
242	0xb8d7078c	-0.000102534046
243	0xb9040e76	-0.00012593888
244	0x3865de96	5.4805154e-05
245	0x39877f0e	0.0002584387
246	0xb78f2a7b	-1.706671e-05
247	0x389a717d	7.364431e-05
248	0x380b5a19	3.3224092e-05
249	0x351a6350	5.751399e-07
250	0xb7b720ae	-2.1830518e-05
251	0xb7b1168b	-2.1110542e-05
252	0x36a6a7d4	4.9667233e-06
253	0xb7dbf78b	-2.6222106e-05
254	0xb7e1e8c7	-2.6930486e-05
255	0xb7009871	-7.664888e-06

exp_avg_sq f4 [64, 94]
0	0x33d2f4df	9.823429e-08
1	0x33c2932e	9.060601e-08
2	0x3387920f	6.312995e-08
3	0x33c72f00	9.275209e-08
4	0x33d654e6	9.9805945e-08
5	0x3434338c	1.6782559e-07
6	0x34057225	1.2428116e-07
7	0x3395af68	6.9702594e-08
8	0x33375db8	4.2693244e-08
9	0x33a7dcf7	7.816737e-08
10	0x33ead631	1.0935435e-07
11	0x3424eeab	1.5360517e-07
12	0x3459b121	2.0274139e-07
13	0x33f678a3	1.14772114e-07
14	0x33821223	6.056896e-08
15	0x338d79e4	6.587996e-08
16	0x33bc4b8d	8.768175e-08
17	0x33c50423	9.17428e-08
18	0x33b0c88c	8.232118e-08
19	0x340c1e88	1.3049623e-07
20	0x3416cd2e	1.4044483e-07
21	0x33927c60	6.8212785e-08
22	0x32f8735e	2.8923463e-08
23	0x332a8ed1	3.97111e-08
24	0x33734421	5.663981e-08
25	0x33292436	3.9381312e-08
26	0x334d5fc0	4.7817366e-08
27	0x338dd3fe	6.604385e-08
28	0x3397fa53	7.077019e-08
29	0x331cca8e	3.6505803e-08
30	0x330dc62c	3.3009357e-08
31	0x330fe3bc	3.3501905e-08
32	0x33517074	4.876388e-08
33	0x3306b4d1	3.1363758e-08
34	0x33522da7	4.8935956e-08
35	0x335431e2	4.9405465e-08
36	0x3308e597	3.187378e-08
37	0x3376edd6	5.749265e-08
38	0x33ccb4b7	9.532362e-08
39	0x33af5332	8.164206e-08
40	0x3361c30a	5.2564282e-08
41	0x3324a2fe	3.8332466e-08
42	0x339a763c	7.1926905e-08
43	0x33a9e46c	7.9112255e-08
44	0x35aaf70e	1.2737889e-06
45	0x35b61827	1.3567086e-06
46	0x35e1bc18	1.6818549e-06
47	0x3577e3ba	9.2346056e-07
48	0x3569d1a0	8.710431e-07
49	0x35892461	1.0217883e-06
50	0x34bad579	3.4800522e-07
51	0x350d4243	5.2623017e-07
52	0x35185fd9	5.676389e-07
53	0x34f7bbfc	4.6144112e-07
54	0x354374af	7.281296e-07
55	0x35024f8d	4.8544536e-07
56	0x3548876b	7.4702865e-07
57	0x35034bd3	4.891164e-07
58	0x35277bec	6.239268e-07
59	0x35121a8a	5.442786e-07
60	0x3524d594	6.140556e-07
61	0x32749a1a	1.4237708e-08
62	0x31f14b75	7.0226016e-09
63	0x322e64ba	1.0151036e-08
64	0x326a811b	1.3649948e-08
65	0x320231db	7.578332e-09
66	0x323c1dd8	1.0949826e-08
67	0x32893df9	1.5977081e-08
68	0x31b05e8a	5.133022e-09
69	0x3218ec1a	8.901248e-09
70	0x3221b02e	9.411492e-09
71	0x323f29e7	1.1127191e-08
72	0x32714d9e	1.4045694e-08
73	0x3292b63d	1.707951e-08
74	0x319c980e	4.557484e-09
75	0x3220e0a2	9.364301e-09
76	0x321d8155	9.1680095e-09
77	0x32508e39	1.2139531e-08
78	0x32779118	1.4410283e-08
79	0x328f327f	1.6670354e-08
80	0x31a14948	4.694048e-09
81	0x32221811	9.435113e-09
82	0x324448bc	1.1425239e-08
83	0x3226d301	9.7104484e-09
84	0x324ec53e	1.2035626e-08
85	0x3277bc5f	1.4420123e-08
86	0x31eff368	6.9834876e-09
87	0x32346016	1.0499226e-08
88	0x3249b5ff	1.1741121e-08
89	0x32273274	9.732151e-09
90	0x324b7fc0	1.1845202e-08
91	0x3249b5ff	1.1741121e-08
92	0x32273274	9.732151e-09
93	0x324b7fc0	1.1845202e-08
94	0x33f9cf66	1.16326916e-07
95	0x341c313c	1.4546544e-07
96	0x34393a50	1.7250682e-07
97	0x3459f558	2.0298955e-07
98	0x3440dda9	1.7962033e-07
99	0x34654f5a	2.1356155e-07
100	0x34854ab1	2.4827526e-07
101	0x3476521b	2.2940405e-07
102	0x348a1a74	2.572375e-07
103	0x3461a092	2.1013173e-07
104	0x343b0ad2	1.7419669e-07
105	0x344b4cce	1.893379e-07
106	0x3496a0de	2.8056724e-07
107	0x34aa71dc	3.174781e-07
108	0x3450dfd5	1.9452939e-07
109	0x3496c79b	2.808491e-07
110	0x348bd433	2.6045163e-07
111	0x343f7270	1.7829893e-07
112	0x34113505	1.3523466e-07
113	0x34597746	2.0253091e-07
114	0x34ccf7df	3.817831e-07
115	0x34ad3462	3.2261875e-07
116	0x3455b0b2	1.9901452e-07
117	0x34807ce7	2.3932736e-07
118	0x347b7077	2.3417111e-07
119	0x33f89e07	1.1577145e-07
120	0x33df89d2	1.0409316e-07
121	0x3415e7ee	1.3961082e-07
122	0x348480fd	2.4680767e-07
123	0x34549653	1.9798726e-07
124	0x3434917d	1.6816735e-07
125	0x34285046	1.5675423e-07
126	0x345fa4d4	2.0828458e-07
127	0x34208af9	1.4951719e-07
128	0x3466f5a2	2.150978e-07
129	0x348c4fcc	2.6135092e-07
130	0x348778da	2.523364e-07
131	0x34a06728	2.9877378e-07
132	0x34d0833f	3.8838513e-07
133	0x34b59864	3.3824756e-07
134	0x34936e80	2.7461283e-07
135	0x34499cae	1.8776583e-07
136	0x34a8b7f9	3.1426296e-07
137	0x34a0c267	2.994377e-07
138	0x368a17a0	4.115471e-06
139	0x36adbdc5	5.177894e-06
140	0x36898542	4.0984314e-06
141	0x366524a8	3.4144996e-06
142	0x3684f799	3.9627307e-06
143	0x36387caa	2.74907e-06
144	0x361edafb	2.3671298e-06
145	0x366a029a	3.4870232e-06
146	0x365c35cf	3.2813875e-06
147	0x366d29af	3.5340015e-06
148	0x365f4c7f	3.3274116e-06
149	0x36726ee9	3.6125368e-06
150	0x36603c84	3.3413826e-06
151	0x36673a6e	3.4455693e-06
152	0x365e9b09	3.317082e-06
153	0x365fcdeb	3.334945e-06
154	0x366d1e17	3.5333267e-06
155	0x332a2f93	3.9624478e-08
156	0x33571ab2	5.0082868e-08
157	0x3390735c	6.726506e-08
158	0x333ebe9b	4.4411177e-08
159	0x334944c0	4.6861487e-08
160	0x3387eea2	6.3298344e-08
161	0x332c2724	4.008247e-08
162	0x335c97ae	5.1360693e-08
163	0x3392658c	6.817126e-08
164	0x333544b1	4.220482e-08
165	0x334badf5	4.7422834e-08
166	0x3389d6ad	6.418609e-08
167	0x33185267	3.5465202e-08
168	0x336e791b	5.5523838e-08
169	0x3395a66e	6.9686266e-08
170	0x333790f0	4.2739828e-08
171	0x3349857c	4.6920363e-08
172	0x338a6ae8	6.445572e-08
173	0x33284802	3.918104e-08
174	0x3361c49c	5.256571e-08
175	0x338ebbc4	6.646545e-08
176	0x33336b5d	4.177433e-08
177	0x33573a7b	5.0111776e-08
178	0x33896927	6.398687e-08
179	0x3333e11b	4.1881417e-08
180	0x335acb82	5.094217e-08
181	0x338a2695	6.433144e-08
182	0x331abdbf	3.6028492e-08
183	0x33728f33	5.6475255e-08
184	0x33925e63	6.8158236e-08
185	0x331abdbf	3.6028492e-08
186	0x33728f33	5.6475255e-08
187	0x33925e61	6.815822e-08
188	0x33a0b7de	7.484026e-08
189	0x33a5cf19	7.721082e-08
190	0x3361b734	5.2553517e-08
191	0x33995718	7.14046e-08
192	0x33f13ad2	1.12331364e-07
193	0x33e9b6d2	1.0883163e-07
194	0x33c05941	8.956932e-08
195	0x33c92a55	9.367492e-08
196	0x335be458	5.119759e-08
197	0x337bc490	5.8619264e-08
198	0x33b9c137	8.6498794e-08
199	0x33ac6545	8.027795e-08
200	0x33bfa17d	8.923505e-08
201	0x33b1c8ee	8.278754e-08
202	0x330b187a	3.238572e-08
203	0x332cfb27	4.0275292e-08
204	0x33aae8f8	7.958619e-08
205	0x33a8b5c2	7.856171e-08
206	0x331617e6	3.4946332e-08
207	0x33462515	4.6134193e-08
208	0x33b249d7	8.302202e-08
209	0x338ad6b1	6.465178e-08
210	0x32b43ec3	2.0983299e-08
211	0x3312914e	3.4125428e-08
212	0x3354c916	4.9542983e-08
213	0x3342a856	4.5322246e-08
214	0x33229640	3.7855216e-08
215	0x330333cb	3.054792e-08
216	0x333d030a	4.4007756e-08
217	0x3333d389	4.1869075e-08
218	0x32bff588	2.2346981e-08
219	0x333f85ff	4.459252e-08
220	0x33bc3f24	8.7659174e-08
221	0x3370f91e	5.6105925e-08
222	0x337853b1	5.7818117e-08
223	0x33a037bf	7.460721e-08
224	0x33184b0e	3.545852e-08
225	0x338436fe	6.156732e-08
226	0x33f67941	1.14773236e-07
227	0x33eb6b71	1.0962584e-07
228	0x338f7f2d	6.6820895e-08
229	0x338dcfd7	6.60363e-08
230	0x3347399a	4.6385686e-08
231	0x33a62b40	7.7378445e-08
232	0x35a7f71a	1.2514386e-06
233	0x35bf7e5f	1.4267388e-06
234	0x360037c2	1.9105942e-06
235	0x35813d29	9.629049e-07
236	0x358ac2c1	1.0338482e-06
237	0x3598cb45	1.1384042e-06
238	0x35087996	5.084088e-07
239	0x358abe86	1.0337251e-06
240	0x35727ae4	9.0330855e-07
241	0x35841da5	9.843394e-07
242	0x35500a3e	7.750094e-07
243	0x356e6ad7	8.881738e-07
244	0x3516dbec	5.6199383e-07
245	0x3522cda4	6.064895e-07
246	0x34ccfee7	3.8183427e-07
247	0x34d7be19	4.0185185e-07
248	0x34dc4a11	4.1032084e-07
249	0x32040742	7.6850615e-09
250	0x3289e448	1.605271e-08
251	0x32ab49f6	1.9940654e-08
252	0x324e3e30	1.2004918e-08
253	0x32516967	1.2189367e-08
254	0x3295add0	1.7424924e-08
255	0x32215361	9.390392e-09
