results/b090maze/Dynamic Table/Dynamic Table-999952.onnx (onnx, 74582 bytes, 9 tensors)

network_body._body_endoder.seq_layers.0.weight f4 [64, 94]
0	0x3ef8079b	0.48443303
1	0xbd16fb4b	-0.036860745
2	0x3e238df3	0.15972118
3	0x3e78185d	0.24228044
4	0x3d415ce8	0.047207743
5	0x3da13a3c	0.078724355
6	0xbca5ea76	-0.020253401
7	0xbe3f5e75	-0.18688376
8	0xbe566a7a	-0.20939055
9	0xbe779d76	-0.2418116
10	0x3da6b21d	0.08139441
11	0x3b4c547d	0.0031178289
12	0x3e2f5bae	0.17124817
13	0xbd22fca2	-0.03979171
14	0xbdafa99e	-0.08577274
15	0x3ded4f09	0.115873404
16	0xbdc6abf4	-0.09700766
17	0xbc44a90f	-0.012003197
18	0xbb9334d2	-0.0044923807
19	0x3d7ab971	0.061212007
20	0x3e139436	0.14412007
21	0x3e82976c	0.2550615
22	0xbdee5ec0	-0.11639166
23	0xbda08aa6	-0.07838945
24	0xbdf335f7	-0.11875527
25	0xbcb0e884	-0.021595247
26	0xbcd6de8a	-0.026229162
27	0x3e4109b6	0.1885136
28	0x3e0c0da6	0.13677081
29	0xbea5163f	-0.32243535
30	0xbcaf47ba	-0.021396507
31	0xbdeaed07	-0.11470991
32	0x3cd17f61	0.025573434
33	0xbd8ce255	-0.06879107
34	0xbc52a5da	-0.012856925
35	0xbe4477dd	-0.19186349
36	0xbde7f1a1	-0.11325384
37	0x3e8edc0b	0.27902254
38	0x3d97507e	0.073883995
39	0xbddd61b2	-0.108096495
40	0xbd9a1725	-0.07523946
41	0x3d8417f5	0.06449882
42	0xbd5215a4	-0.05129017
43	0x3e45bbfa	0.19309989
44	0xbd7001ec	-0.058595583
45	0x3cb5bb63	0.02218408
46	0xba81364b	-0.00098581
47	0xbd89aa93	-0.067219876
48	0x3c02ace3	0.00797579
49	0xbd8f052b	-0.069834076
50	0xbd9afdfa	-0.075679734
51	0x3cb1a839	0.02168666
52	0xbdd04dd8	-0.101710975
53	0xbe3c6c16	-0.18400607
54	0x3ddb3e72	0.1070527
55	0xba2742d8	-0.0006380505
56	0xbbb224d0	-0.0054365173
57	0xbda07c79	-0.07836241
58	0xbd06390f	-0.03276926
59	0xbcd38844	-0.025821812
60	0xbce2c600	-0.027682304
61	0x3d787bfc	0.060665116
62	0xbde5ee90	-0.11227143
63	0xbe2eb636	-0.17061695
64	0x3da02d97	0.078211956
65	0xbe144c57	-0.14482246
66	0xbd1ace98	-0.03779468
67	0x3c1d820c	0.009613525
68	0x3e19a5ca	0.1500465
69	0xbe61efc5	-0.22064121
70	0x3dbb3f60	0.09142947
71	0x3da77012	0.081756726
72	0xbe6339b8	-0.22189987
73	0x3d755626	0.05989661
74	0xbe3f7bf1	-0.18699624
75	0xbd964a36	-0.07338373
76	0x3d3377fd	0.0438156
77	0x3d710efe	0.05885219
78	0x3ccd0b54	0.025029816
79	0x3db3d5e3	0.0878103
80	0x3da8da53	0.08244767
81	0xbde77f32	-0.113035575
82	0xbe308f41	-0.17242147
83	0x3e5277c9	0.20553507
84	0x3d4ef254	0.05052407
85	0xbc8813d4	-0.016611017
86	0xbdc66159	-0.09686536
87	0xbc520412	-0.012818353
88	0x3d8d822d	0.06909595
89	0x3daca87b	0.084305726
90	0x3d05f895	0.03270777
91	0x3df0684c	0.11738643
92	0x3d8bad2b	0.068201385
93	0x3c38024d	0.011231017
94	0xbb92b1d9	-0.0044767675
95	0x3d129619	0.035787676
96	0xbdf9ad23	-0.12191226
97	0xbe032378	-0.12806499
98	0x3e1f1057	0.15533577
99	0xbc8391d1	-0.016060742
100	0x3ccb8440	0.024843335
101	0x3de3932e	0.11112057
102	0x3ca30327	0.019898964
103	0xbe1c5016	-0.15264925
104	0xbe00a135	-0.12561496
105	0xbead6e7f	-0.33873364
106	0xbcf5d4f6	-0.030008774
107	0x3e3adb4e	0.1824772
108	0xbd08a407	-0.033359554
109	0xbdf2da7a	-0.11858077
110	0xbe2ab19d	-0.16669317
111	0x3de1f932	0.11033858
112	0x3e99bd02	0.30027014
113	0x3d33d912	0.043908186
114	0xbd861d37	-0.06548541
115	0x3e469091	0.19391085
116	0xbc9cda8e	-0.019147184
117	0x3e1f53e0	0.1555934
118	0x3e29d6d6	0.1658586
119	0x3c8a64b1	0.016893717
120	0x3e89af18	0.26891398
121	0x3e85096d	0.25983754
122	0x3e3842f4	0.1799429
123	0x3cd00305	0.025392065
124	0xbd859d5f	-0.06524157
125	0x3db93e5c	0.09045097
126	0x3e1e9c19	0.15489234
127	0x3eb0e7ec	0.34551942
128	0xbddb49b3	-0.107074164
129	0x3d135a52	0.035974808
130	0xbd850872	-0.064957514
131	0x3d75a899	0.05997524
132	0xbe193528	-0.14961684
133	0x3ceae0a8	0.028671578
134	0x3e157dbb	0.14598744
135	0xbe171e79	-0.14757718
136	0xbd896321	-0.067083605
137	0x3e1db596	0.15401301
138	0x3ee27a68	0.44234014
139	0x3d9cb16e	0.076510295
140	0xbcc095db	-0.023508957
141	0xbe586881	-0.21133615
142	0x3e5340d0	0.20630193
143	0xbe7db8f5	-0.24777587
144	0x3d41dab0	0.047327697
145	0x3d95cc9f	0.07314419
146	0xbce0669c	-0.027392678
147	0xbd6e25cb	-0.05814151
148	0xbd0ab7c1	-0.033866648
149	0xbd46a36c	-0.048495695
150	0x3d3de9b0	0.04636544
151	0x3d72c1ad	0.059266735
152	0x3db98798	0.090590656
153	0xbcadba80	-0.021207094
154	0x3e5f77d6	0.21823058
155	0x3c630463	0.013856026
156	0x3e05f209	0.1308061
157	0xbd0ec13a	-0.034852244
158	0xb878f701	-5.9357848e-05
159	0xbe2f46ce	-0.17116854
160	0x3da51d1e	0.08062194
161	0x3daea471	0.085274585
162	0x3d30b60c	0.043142363
163	0xbd3a7694	-0.04552324
164	0xbde068eb	-0.109575115
165	0xbd838ad0	-0.06422961
166	0xbd946b98	-0.072470844
167	0xbdd19961	-0.10234333
168	0x3e50b0fc	0.20380014
169	0xbda2b0ec	-0.079439014
170	0x3c5c57b1	0.013448642
171	0x3d18a025	0.0372621
172	0x3e3b30cf	0.18280338
173	0xbe63719c	-0.22211307
174	0x3e20ee5f	0.15715931
175	0xbd8ff99f	-0.07030033
176	0xbe0f6043	-0.14001565
177	0xbe6c4476	-0.23072991
178	0xbd9699fd	-0.0735359
179	0xbdb0e59a	-0.08637543
180	0xbdd22f38	-0.102629125
181	0xbc795054	-0.015216906
182	0xbd9e84f8	-0.077402055
183	0xbd777cc0	-0.060421705
184	0xbe283cb6	-0.1642941
185	0xba1922eb	-0.000584169
186	0x3e1c3068	0.1525284
187	0x3d445fd2	0.047942944
188	0xbdb263c8	-0.08710438
189	0x3d607809	0.054801974
190	0x3d95d9b2	0.07316913
191	0xbe7c9db3	-0.24669532
192	0x3d234412	0.03985984
193	0x3dd9ff41	0.10644389
194	0xbd82de02	-0.06390001
195	0xbd86e7b4	-0.065871626
196	0xbe79e4df	-0.24403714
197	0xbecadcda	-0.3962162
198	0xbe19fc66	-0.15037689
199	0xbdf28e46	-0.11843543
200	0x3c1d1aa4	0.009588871
201	0xbdd2744e	-0.102760896
202	0xbc8eb60f	-0.017420797
203	0xbda612d9	-0.08109064
204	0x3c538819	0.012910866
205	0xbc79c9e9	-0.015245893
206	0x3caf0709	0.02136566
207	0xbe49d349	-0.19709505
208	0x3c4a085e	0.012331096
209	0x3cc837b3	0.024440622
210	0xbe7e882d	-0.24856634
211	0xbe1fad5a	-0.15593472
212	0xbd208613	-0.039190363
213	0xbd9d3bf0	-0.07677448
214	0xbd7821e7	-0.060579207
215	0x3d973290	0.07382691
216	0xbe62a5da	-0.2213358
217	0xbe6a967c	-0.22908968
218	0xbddeb268	-0.10873872
219	0x3c1d693f	0.009607612
220	0x3dbf57ca	0.09342916
221	0x3e83230a	0.2561267
222	0xbd2c94cf	-0.042134102
223	0x3ced0945	0.028935084
224	0x3d22e86f	0.039772447
225	0x3cc6166f	0.024180619
226	0xbd829963	-0.063769124
227	0xbd30efda	-0.04319749
228	0x3d5e036f	0.054202493
229	0x3d8dab37	0.06917422
230	0xbe46a862	-0.1940017
231	0xbd86b4cc	-0.06577453
232	0x3e1c499a	0.15262452
233	0x3dd701ea	0.10498412
234	0xbdd2edc9	-0.1029926
235	0xbce34a0e	-0.027745273
236	0x3d92f38e	0.071753606
237	0x3d1ea465	0.038730998
238	0x3d695c5d	0.05697285
239	0x3a46bc84	0.00075811916
240	0x3ca2a976	0.019856196
241	0x3e8c55b2	0.2740913
242	0xbce9479a	-0.028476525
243	0xbcdcf71f	-0.026973305
244	0x3bcf07b4	0.006318057
245	0xbe92aaff	-0.28646085
246	0xbd71c6ee	-0.059027605
247	0xbe6370ce	-0.22211
248	0xbe8ac753	-0.27105197
249	0xbe35a603	-0.1773911
250	0x3d6bbcdf	0.05755317
251	0x3d1deb22	0.03855432
252	0x3ca56ecb	0.020194432
253	0x3ce4b9a7	0.027920557
254	0x3e16057c	0.1465053
255	0xbd3903bb	-0.045169573

network_body._body_endoder.seq_layers.0.bias f4 [64]
0	0x3c1ce7c7	0.009576744
1	0xbd10b197	-0.035325613
2	0x3c95fdd5	0.018309513
3	0xbd0e784e	-0.0347827
4	0x3bc530ce	0.006017781
5	0x3ccbe6a8	0.024890259
6	0xbbe03ef3	-0.0068434416
7	0x3ca34216	0.019928973
8	0xbc31270c	-0.010812532
9	0xbc94394d	-0.01809373
10	0xbc0728d2	-0.008249478
11	0xbc2dcc91	-0.010607854
12	0x3cf31e45	0.02967752
13	0xbb69bc26	-0.0035665124
14	0xbca0c19a	-0.019623566
15	0xba441005	-0.0007479194
16	0xbd66751b	-0.056264024
17	0x3d2fd9ba	0.04293225
18	0x3d0db141	0.03459287
19	0xbcb1933c	-0.021676652
20	0xbd8bddea	-0.06829436
21	0xbcbd1b96	-0.023084443
22	0xbc01623a	-0.007896954
23	0xbd425b4b	-0.047450345
24	0xbc5c4fdd	-0.013446775
25	0xbc81492a	-0.015781958
26	0x3d2de5dc	0.04245554
27	0x3bf2d7fc	0.0074110013
28	0xbca1c3dc	-0.019746713
29	0xbd22470d	-0.03961854
30	0xbc10106c	-0.008792978
31	0xbbd20b3d	-0.006410031
32	0xbba23ff7	-0.004951473
33	0xbc392879	-0.011301153
34	0x3aa6c304	0.0012722914
35	0x3c5e29dd	0.013559786
36	0xbc0c86ef	-0.008577093
37	0xbd080161	-0.03320444
38	0x3ca31c0f	0.01991084
39	0x3cb9e204	0.02269078
40	0x3d1368df	0.035988685
41	0x3b00a71d	0.0019630857
42	0x3bf45c3c	0.0074572843
43	0xbcd056fd	-0.025432104
44	0xbbfc921c	-0.0077078473
45	0x3c830664	0.015994258
46	0xbd673ded	-0.05645554
47	0xbc95afc0	-0.01827228
48	0x3ca837ba	0.020534385
49	0xbd467ede	-0.048460834
50	0x3c7de12a	0.015495578
51	0xbd06d547	-0.03291824
52	0x3b52109e	0.0032053362
53	0xbd73fad2	-0.059565373
54	0xbcc283cb	-0.023744484
55	0xbc45efab	-0.012081067
56	0x3c8fcafd	0.017552847
57	0x3bae8a43	0.0053265407
58	0xbb43067d	-0.0029758506
59	0xbb76cc2f	-0.0037658324
60	0xbbf5867d	-0.007492839
61	0xbceca4e1	-0.028887214
62	0x3c307797	0.0107707
63	0x3d1119e6	0.03542509

network_body._body_endoder.seq_layers.2.weight f4 [64, 64]
0	0x3c980bc7	0.018560303
1	0xbdcbe237	-0.099552564
2	0xbe78676a	-0.242582
3	0x3d684e25	0.05671515
4	0xbd40cd46	-0.047070764
5	0xbd64579f	-0.055747624
6	0x3e92376b	0.28557906
7	0xbc822612	-0.015887294
8	0xbe8ca8a8	-0.27472425
9	0x3c2690c0	0.010166347
10	0xbd0928f8	-0.033486336
11	0xbdf623cc	-0.120185465
12	0xbd5990c9	-0.053116594
13	0x3cf3b6be	0.029750224
14	0x3d608b56	0.05482038
15	0xbd764697	-0.060125913
16	0xbe5bf33a	-0.21479502
17	0xbe6c0edb	-0.23052542
18	0x3d4a23fc	0.049350724
19	0x3d3fadda	0.046796657
20	0xbd8cc9d2	-0.06874432
21	0x3b8a4bcc	0.0042204615
22	0xbe28e8de	-0.16495082
23	0x3cad6a0b	0.02116873
24	0xbb30a403	-0.0026953227
25	0xbd24e9d7	-0.04026207
26	0xbcd5c7a5	-0.026096174
27	0xbe206cb9	-0.15666474
28	0x3cbe8fdb	0.023261955
29	0xbdc147b8	-0.094375074
30	0xbdcb98c6	-0.099412486
31	0xbe8e912a	-0.27845126
32	0x3d7e0520	0.062016606
33	0x3eb8eba2	0.36117274
34	0xbcc36c59	-0.023855375
35	0xbd31e09c	-0.043427095
36	0xbe85db04	-0.26143658
37	0xbcdff196	-0.027336877
38	0xbbc64de3	-0.0060517653
39	0x3e33af5a	0.1754736
40	0xbc7e8dbb	-0.015536721
41	0x3e82a90b	0.25519595
42	0x3e513b6b	0.20432822
43	0xbc399aa9	-0.011328378
44	0x3e644d29	0.2229506
45	0x3e44a0b5	0.1920193
46	0x3e57d0d1	0.21075751
47	0x3e101ea0	0.14074183
48	0xbd11179d	-0.03542291
49	0x3eb2e5bd	0.349409
50	0xbd4f7923	-0.050652634
51	0x3e28207a	0.16418639
52	0x3deacbec	0.11464676
53	0xbdbad92c	-0.091234535
54	0x3e5e8674	0.21730977
55	0x3de0d2c6	0.10977702
56	0x3cc2ceb5	0.023780206
57	0xbe3e046c	-0.18556374
58	0x3ec431ef	0.38319346
59	0x3cebc6b5	0.028781274
60	0xbe9346fb	-0.2876509
61	0x3d88189e	0.0664532
62	0xbe9e2135	-0.3088471
63	0x3d3b0214	0.04565628
64	0x3e7d5023	0.24737601
65	0x3db4b4d3	0.08823552
66	0xbd9338e6	-0.07188587
67	0xbe8e32bf	-0.2777309
68	0xbe445b94	-0.1917556
69	0xbd8413a5	-0.064490594
70	0xbe2f8c79	-0.1714343
71	0xbdb33c13	-0.087516926
72	0xbca44e64	-0.02005691
73	0x3e80d507	0.25162527
74	0xb9dae7be	-0.00041752862
75	0x3e28cb01	0.1648369
76	0xbdc645b1	-0.09681261
77	0xbccf0fa9	-0.025276022
78	0x38dcfe38	0.000105377694
79	0x3cd12306	0.025529396
80	0xbdbb5d94	-0.09148708
81	0x3e29b75e	0.16573855
82	0xbec2cea5	-0.38048282
83	0x3d8dbae6	0.06920414
84	0xbbf29a3d	-0.0074036405
85	0x3d3a451f	0.045476075
86	0x3dfe9e2b	0.12432512
87	0x3cadbef4	0.021209218
88	0xbd6ff8b8	-0.058586806
89	0x3d9c4182	0.07629682
90	0xbc69ee74	-0.014278043
91	0xbe3c811c	-0.18408626
92	0xbd425b54	-0.04745038
93	0x3c8f0bb6	0.017461639
94	0xbe910635	-0.28325048
95	0x3e265e3c	0.16246885
96	0x3d3333a5	0.043750424
97	0xbd591c77	-0.05300566
98	0xbefcf0f1	-0.49402574
99	0xbdb8ae8f	-0.090176694
100	0xbde84c49	-0.11342675
101	0xbd5b35a2	-0.053517945
102	0xbe57b68c	-0.2106573
103	0xbd00c673	-0.031439256
104	0xbe912034	-0.28344882
105	0x3c57e301	0.013176681
106	0xbd2bf2f7	-0.041979756
107	0x3e518785	0.20461853
108	0x3d10eacf	0.03538018
109	0x3e10b8c1	0.14132978
110	0xbe85706c	-0.26062334
111	0xbe3b1776	-0.18270668
112	0x3e8ac309	0.27101925
113	0xbd91010d	-0.070802785
114	0xbdcc41d3	-0.099734925
115	0xbdb59010	-0.08865368
116	0x3e850192	0.2597776
117	0x3e85379d	0.26018992
118	0x3df426ff	0.119215004
119	0xbe5f3277	-0.21796595
120	0xbe188989	-0.14896215
121	0xbdbbdd24	-0.091730386
122	0x3dd6a538	0.10480732
123	0x3e49826b	0.19678657
124	0xbd80543b	-0.06266066
125	0x3e83372d	0.25628033
126	0x3ec07b99	0.37594298
127	0xbe07fd02	-0.13280109
128	0x3e1b8f9c	0.15191501
129	0xbd762bb4	-0.060100272
130	0xbee123db	-0.43972668
131	0xbe5fcbde	-0.21855113
132	0x3ce4c7ba	0.027927268
133	0xbddba245	-0.1072431
134	0x3d4b5e90	0.04965073
135	0xbe1d0a25	-0.15335901
136	0xbca72e50	-0.020407826
137	0xbd8763fa	-0.06610866
138	0xbdffeda8	-0.12496501
139	0xbd1a69ae	-0.03769844
140	0xbe760777	-0.24026285
141	0x3db3445f	0.08753275
142	0x3e1df114	0.15423995
143	0x3cae10b4	0.021248199
144	0xbe879e3d	-0.26487914
145	0xbe151dcd	-0.1456215
146	0xbe9dcb24	-0.30819046
147	0xbdcc04d3	-0.09961858
148	0xbd0f1d76	-0.034940206
149	0x3e076e83	0.1322575
150	0x3d5ca139	0.05386469
151	0x3e24c608	0.16091168
152	0xbd86bef7	-0.065793924
153	0xbcd407ed	-0.025882686
154	0xbe6d81db	-0.23194067
155	0xbe5302a8	-0.20606482
156	0x3ea70323	0.3261958
157	0xbc9b6422	-0.018968645
158	0xbe05ecbf	-0.13078593
159	0x3e1273f4	0.14302045
160	0xbe966f49	-0.2938178
161	0xbe162cef	-0.14665578
162	0x3b956dfe	0.004560231
163	0xbec1076e	-0.3770098
164	0x3d72136c	0.059100553
165	0xbd5b1c0e	-0.053493552
166	0x3dd125db	0.102122985
167	0x3dc29f12	0.095029965
168	0x3e0afc81	0.13572885
169	0x3cc83abd	0.024442071
170	0xbcbc4bd0	-0.022985369
171	0xbd944128	-0.0723899
172	0x3e452867	0.19253694
173	0xbe339e21	-0.1754079
174	0xbea55deb	-0.32298216
175	0x3d79a94f	0.06095248
176	0x3e4f79d1	0.20261313
177	0xbe9130da	-0.28357583
178	0xbdf4ba36	-0.119495794
179	0xbe8657af	-0.26238772
180	0x3e1b58a3	0.15170531
181	0xbe3fdd3d	-0.1873674
182	0xba4de149	-0.00078536995
183	0xbde70f32	-0.11282195
184	0x3d8b3d06	0.06798749
185	0xbd94b319	-0.07260723
186	0x3e07f86a	0.13278356
187	0x3e2c1694	0.16805488
188	0xbde49f95	-0.1116325
189	0xbd47b4ee	-0.048756532
190	0x3d79dea6	0.06100335
191	0xbe6b6126	-0.22986278
192	0x3e097cfb	0.13426583
193	0xbda3b1b9	-0.07992882
194	0x3e2c5ab3	0.16831474
195	0x3e234db5	0.15947612
196	0xbd19171c	-0.037375554
197	0x3d95a97c	0.07307717
198	0xbba2fcf3	-0.0049740016
199	0xbca31c5b	-0.019910982
200	0xbdf187e7	-0.117934994
201	0xbdb92225	-0.09039716
202	0xbe55114b	-0.20807378
203	0x3c9d9fe6	0.019241285
204	0x3ea06084	0.31323636
205	0xbe7a0b40	-0.24418354
206	0xbed39397	-0.4132354
207	0x3dd31158	0.103060424
208	0xbd735ff4	-0.05941768
209	0xbd67ac7a	-0.05656097
210	0x3d9aac49	0.07552392
211	0x3e32a39d	0.17445226
212	0xbe7a445c	-0.2444014
213	0x3db57f2b	0.08862146
214	0xbde5de89	-0.11224086
215	0xbe507688	-0.20357716
216	0xbd923e98	-0.07140845
217	0xbd28f18d	-0.041245986
218	0x3e431a2e	0.19052956
219	0x3e202373	0.15638523
220	0xbe0e0f77	-0.13873087
221	0xbe3b7739	-0.18307199
222	0xbdf91550	-0.12162268
223	0xbd50145c	-0.050800666
224	0x3dacaa56	0.084309265
225	0x3e9d7719	0.30754927
226	0xbe0fa4c4	-0.14027697
227	0xbe63ff95	-0.22265466
228	0xbdd821df	-0.105533354
229	0xbe100441	-0.14064123
230	0x3de804c9	0.11329038
231	0x3c4c3e8b	0.012466083
232	0xbd1f609e	-0.0389105
233	0x3e21958e	0.15779707
234	0xbe0d4051	-0.13794066
235	0xbc14674d	-0.009057832
236	0xbde048d5	-0.109513916
237	0x3db317c3	0.087447666
238	0x3d3cf1dc	0.046129093
239	0xbdbcc473	-0.09217157
240	0xbee5557b	-0.4479178
241	0x3da8f4e3	0.082498334
242	0x3da6a807	0.081375174
243	0x3cdec5d1	0.027193936
244	0x3e768ef6	0.24077973
245	0xbe1c84b5	-0.15284999
246	0xbe9e2d7d	-0.3089408
247	0x3da84391	0.08216012
248	0x3da765a9	0.08173687
249	0x3ca403d4	0.020021357
250	0x3e573c6a	0.2101914
251	0xbdb87768	-0.0900715
252	0x3e87451f	0.26419923
253	0xbcd777c6	-0.02630223
254	0xbe87da65	-0.2653381
255	0x3d592097	0.053009596

network_body._body_endoder.seq_layers.2.bias f4 [64]
0	0x3d1ad3a1	0.03779948
1	0x3d44f9ea	0.0480899
2	0xbd24fd7e	-0.04028081
3	0xbb443b52	-0.0029942584
4	0xbc739c9a	-0.01486888
5	0xbd1548fb	-0.036446553
6	0x3d4087bb	0.047004443
7	0xbb2fd418	-0.0026829299
8	0xbcd32aaf	-0.025777189
9	0x3a3e4f38	0.00072597293
10	0xbc818ac4	-0.015813239
11	0xbca9cd8b	-0.020727893
12	0x3c9feab0	0.019521087
13	0xbcae8959	-0.021305727
14	0x3c36abe9	0.011149385
15	0x3d5cbfd7	0.05389389
16	0xbd18c2b7	-0.03729507
17	0xbc942c1c	-0.01808744
18	0x3bf5df91	0.007503458
19	0xbbed6c9b	-0.007245613
20	0x3d2114a9	0.039326344
21	0xbc902cad	-0.017599428
22	0xbd84c39b	-0.06482621
23	0xbc63f19d	-0.013912586
24	0xbcb23587	-0.02175404
25	0x3ca23629	0.019801216
26	0x3aefe09b	0.001830119
27	0xbc41f744	-0.011838738
28	0xbd02054f	-0.031743344
29	0x3cdc2bf1	0.026876422
30	0x3c6f5a95	0.014608999
31	0x3d22719f	0.03965914
32	0x3ba19d6e	0.004932097
33	0xbc8d9de9	-0.017287211
34	0x3d89b321	0.06723619
35	0xbcda9a94	-0.026685037
36	0x3cd274dc	0.025690489
37	0x3cd6acd1	0.026205452
38	0xbc99b62e	-0.018763628
39	0xbc220c24	-0.00989059
40	0xbc0a2793	-0.008432287
41	0x3d7a3f03	0.06109525
42	0x387e43ae	6.062135e-05
43	0x3d811834	0.063034445
44	0x3cbeef0a	0.023307342
45	0xbb2c9765	-0.0026335355
46	0x3c2af81f	0.010435133
47	0x3d4d58b6	0.05013343
48	0xbb8e1093	-0.004335472
49	0x3cc98d96	0.024603646
50	0x3d59ca6b	0.053171556
51	0xbc8014ff	-0.015635012
52	0x3d5e3e93	0.054258894
53	0x3c0dd5fe	0.008656977
54	0x3c90882b	0.017643055
55	0x3cc29d6f	0.02375671
56	0x3c9c829f	0.019105254
57	0xbceab346	-0.028649937
58	0xbc97a814	-0.018512763
59	0x3c880a27	0.016606404
60	0x3d516189	0.051118407
61	0x3bc35e6c	0.0059621837
62	0xbb8c74a5	-0.004286366
63	0xbcce9843	-0.025219088

network_body._body_endoder.seq_layers.4.weight f4 [64, 64]
0	0xbea22b25	-0.31673542
1	0x3e0e24db	0.13881247
2	0x3e6de034	0.23230058
3	0xbe18eee3	-0.14934878
4	0xbdfdbe0b	-0.123897634
5	0x3e67347b	0.22578613
6	0xbe106b8b	-0.14103524
7	0x3cd505af	0.026003687
8	0xbe04e31d	-0.12977262
9	0xbcabd717	-0.020976586
10	0x3d34884c	0.044075295
11	0xbdc07b75	-0.093985476
12	0x3ccfa612	0.025347743
13	0x3d23bfdc	0.039977893
14	0x3e8c40c3	0.2739316
15	0xbd1b7a9d	-0.03795873
16	0x3c83b472	0.016077254
17	0x3c95eb38	0.018300638
18	0x3daf4638	0.08558315
19	0x3ebda94a	0.3704322
20	0x3c56b316	0.013104221
21	0xbdd8ba5f	-0.105824225
22	0x3a863578	0.0010239324
23	0xbd88c9a7	-0.06679087
24	0xbd9f0614	-0.07764831
25	0xbd661d53	-0.05618031
26	0xbd8ebcc9	-0.06969602
27	0x3e8527cc	0.26006925
28	0xbe47fe90	-0.19530702
29	0xbc969e37	-0.01838599
30	0xbe36f483	-0.17866711
31	0xbd114b17	-0.035472002
32	0xbd32bfb7	-0.043639865
33	0xbe6c8aa4	-0.23099762
34	0xbe93192d	-0.28730145
35	0xbe02e4c7	-0.12782584
36	0xbc848a30	-0.016179174
37	0xbc873cd4	-0.016508497
38	0x3cecf8f6	0.028927308
39	0xbd158649	-0.036505017
40	0xbddb0edf	-0.10696196
41	0x3ddaea31	0.106892
42	0xbe504847	-0.20340072
43	0x3e226883	0.1586018
44	0xbd64c505	-0.055851955
45	0xbd3e978f	-0.046531256
46	0x3f0a9284	0.54129815
47	0xbdcb13dd	-0.09915898
48	0xbead2fed	-0.33825627
49	0x3dd4556d	0.10367856
50	0x3d07156a	0.032979406
51	0xbe89f066	-0.26941222
52	0x3e25b7da	0.16183415
53	0x3ea134a0	0.31485462
54	0xbce0e524	-0.027453013
55	0x3de1558a	0.110026434
56	0x3e0ebf81	0.1394024
57	0xbb9ba2ce	-0.0047496324
58	0xbbfdc9e6	-0.0077450154
59	0xbcdd9c16	-0.027051967
60	0x3eb36efa	0.35045606
61	0x3df6e4c4	0.12055352
62	0xbce2f0cc	-0.027702712
63	0xbdca84be	-0.098886
64	0x3dc9012e	0.09814678
65	0xbcd86b58	-0.026418373
66	0x3e7c9b8c	0.24668711
67	0xbe4e95af	-0.20174287
68	0xbe91febe	-0.28514665
69	0xbe05bd60	-0.13060522
70	0x3e6f2b52	0.23356369
71	0xbd3bcc9a	-0.04584942
72	0x3b3c19c5	0.0028701883
73	0xbca10d89	-0.019659774
74	0xbe582b9f	-0.2111039
75	0x3d18a6b8	0.03726837
76	0x3da9c3ea	0.08289321
77	0xbe3f9e0f	-0.18712638
78	0x3e0c1aa6	0.1368204
79	0x3c8ee7dd	0.017444545
80	0x3e2ee0a8	0.17077887
81	0xbdde4ee3	-0.1085489
82	0xbe1ebde5	-0.15502127
83	0xbd9ba5d3	-0.07599988
84	0xbdc800b9	-0.09765763
85	0x3df869c0	0.12129545
86	0xbc70b760	-0.0146921575
87	0xbd8b0db5	-0.06789724
88	0xbe1058b0	-0.14096332
89	0x3dfa0588	0.12208086
90	0x3d883761	0.06651188
91	0xbd8754fe	-0.06608008
92	0xbde34d63	-0.11098745
93	0x3c98bd72	0.018645022
94	0x3e33a55a	0.17543545
95	0x3e472459	0.1944746
96	0x3c4222f3	0.011849153
97	0x3e8802bc	0.26564586
98	0xbd9c0bca	-0.07619436
99	0xbc0f73f9	-0.008755677
100	0x3df0ad14	0.11751762
101	0x3dd5038e	0.10401069
102	0xbe1811b7	-0.14850508
103	0xbd0570e5	-0.032578368
104	0xbdbae1fe	-0.09125136
105	0xbd2da1d5	-0.042390663
106	0xbe22ce69	-0.15899052
107	0xbd1d24e9	-0.03836528
108	0xbda32eea	-0.079679325
109	0x3e919c69	0.28439644
110	0xbecdca6f	-0.40193507
111	0xbd1d4fa1	-0.03840602
112	0xbdd0ed7d	-0.10201547
113	0x3e07339a	0.13203278
114	0xbd10a772	-0.03531594
115	0xbabf156b	-0.0014578527
116	0xbd8c8a0f	-0.0686227
117	0xbe7f30e4	-0.24920994
118	0xbee02c3f	-0.43783757
119	0xbdcf2a84	-0.10115531
120	0xbdaafc48	-0.083489
121	0xbc1a3a26	-0.009413278
122	0xbd1ca2f2	-0.038241334
123	0x3ea1859d	0.3154725
124	0x3e1e5bd6	0.1546472
125	0x3df1b3ae	0.11801849
126	0xbd91ae50	-0.071133256
127	0xbde2d05c	-0.11074898
128	0xbe93e5fa	-0.28886396
129	0x3d06d9b4	0.03292246
130	0x3dc0576b	0.09391674
131	0xbe390a38	-0.18070304
132	0xbd5ce278	-0.053926915
133	0x3d26bb7a	0.040706135
134	0x3d8d9bad	0.069144584
135	0x3c815646	0.015788209
136	0x3e37d67f	0.17952918
137	0xbe864e1b	-0.26231465
138	0x3ceb072f	0.028689949
139	0xbe272854	-0.16323978
140	0xbe064620	-0.13112688
141	0xbe366753	-0.17812853
142	0x3cec12de	0.02881759
143	0xbe3e3ad8	-0.18577135
144	0xbde7a057	-0.11309879
145	0xbece212f	-0.40259692
146	0xbdab0d10	-0.08352101
147	0xbdd90539	-0.10596699
148	0xbd3eee71	-0.046614114
149	0x3e25c5e0	0.16188765
150	0x3cd2bffb	0.025726309
151	0x3dcbf19b	0.09958192
152	0xbdef5fd7	-0.11688202
153	0xbe4e32cc	-0.20136565
154	0xbd55fd44	-0.052243486
155	0xbcd55097	-0.026039405
156	0x3d6af702	0.05736447
157	0xbe9623be	-0.29324144
158	0x3c9a7e67	0.018859101
159	0xbe0ba8bd	-0.13638587
160	0xbe2d403f	-0.16919039
161	0x3d602bcb	0.054729264
162	0x3cf49067	0.029854013
163	0xbd5f9148	-0.05458191
164	0x3d1d679d	0.03842889
165	0xbdaa1d33	-0.083063506
166	0x3d86a7e7	0.065749936
167	0x3e206306	0.15662774
168	0xbd8e5995	-0.0695068
169	0x3c7540c5	0.014969056
170	0x3df20793	0.11817851
171	0x3eaa784c	0.33294904
172	0x3dc035b8	0.09385246
173	0xbe0fbf6d	-0.14037867
174	0xbc82f0f1	-0.01598403
175	0xbe19cc70	-0.15019393
176	0x3dbd40ca	0.09240873
177	0xbe0a0a53	-0.13480501
178	0x3d919507	0.07108503
179	0xbd237fe9	-0.039916907
180	0x3d234015	0.039856035
181	0xbe904332	-0.28176266
182	0x3d82332b	0.06357416
183	0x3d8b993a	0.06816335
184	0xbe308e9f	-0.17241906
185	0xbe14a1c8	-0.1451484
186	0x3e5ff6e2	0.21871522
187	0x3d03d261	0.032183055
188	0xbe9815f5	-0.29704252
189	0xbde59796	-0.11210553
190	0xbdf71a68	-0.120655835
191	0x3c372a89	0.011179575
192	0x3e4a71cb	0.19769971
193	0xbbfee719	-0.007779014
194	0xbe035dbf	-0.1282873
195	0xbc77dc93	-0.015128273
196	0xbd913d37	-0.07091754
197	0xbe96e079	-0.29468134
198	0xbe014dab	-0.12627284
199	0x3e0f7008	0.1400758
200	0xbd0968d8	-0.033547252
201	0x3e897fcd	0.26855317
202	0xbe4d5de7	-0.20055352
203	0xbe0c27e5	-0.13687094
204	0xbdf58498	-0.11988181
205	0xbe5d43dc	-0.21607918
206	0xbd1525c9	-0.036412988
207	0xbe127169	-0.14301075
208	0xbe301805	-0.17196663
209	0x3d122be3	0.035686385
210	0xbdffb4cf	-0.124856584
211	0xbe24d986	-0.16098604
212	0x3dde8167	0.10864525
213	0x3b270fcf	0.00254916
214	0x3d5be37b	0.05368374
215	0xbd9f369d	-0.077740885
216	0x3e604ebc	0.21905035
217	0xbd5737da	-0.0525435
218	0x3e02c3d4	0.12770015
219	0xbdd9471f	-0.106092684
220	0x3b5e9163	0.003396117
221	0x3e1aa36e	0.15101406
222	0xbd4d4150	-0.050111115
223	0x3e666921	0.22501041
224	0x3ea84a79	0.32869318
225	0x3e232339	0.15931405
226	0x3e0e99ad	0.1392581
227	0x3a9b69d9	0.0011857107
228	0xbe106eae	-0.14104721
229	0xbd21309c	-0.039353
230	0xbe1ef839	-0.15524377
231	0xbea3a608	-0.3196261
232	0xbda58ad1	-0.08083118
233	0x3ad61286	0.0016332425
234	0x3ebd7e7d	0.37010565
235	0xbc4cdd97	-0.012504003
236	0x3da3f024	0.080047876
237	0xbe1f6561	-0.15566017
238	0xbd0750a4	-0.03303589
239	0x3d8841b1	0.06653155
240	0xbe0854a1	-0.13313533
241	0xbba8de86	-0.00515348
242	0xbebb2f7b	-0.36559662
243	0x3d6bd21d	0.057573427
244	0x3e27059e	0.16310737
245	0x3e4bd64f	0.19905971
246	0xbdf10312	-0.11768164
247	0x3ebad9f0	0.36494398
248	0x3d40f5cf	0.04710942
249	0xbe3f3554	-0.18672687
250	0xbe1bf871	-0.15231492
251	0x3e8ff735	0.28118291
252	0xbe28fa8a	-0.16501823
253	0xbe92ecf7	-0.28696415
254	0x3e095be7	0.13413964
255	0xbd8d1dda	-0.06890459

network_body._body_endoder.seq_layers.4.bias f4 [64]
0	0x3d224bd0	0.03962308
1	0xbd99b9ed	-0.07506166
2	0x3d49e150	0.04928714
3	0x3d85fb51	0.065420754
4	0x3a270266	0.0006370902
5	0x3d1b424a	0.037905015
6	0xbd9994e8	-0.07499105
7	0x3d534030	0.051574886
8	0xbb3d040d	-0.0028841526
9	0x3d3b40a4	0.045715943
10	0x3c126d23	0.008937153
11	0xbd1c7ba2	-0.038203843
12	0x3dafa049	0.08575494
13	0xbd0485b5	-0.032354075
14	0x3d725d3d	0.05917095
15	0x3e015e03	0.12633519
16	0x3c5c7fbe	0.0134581905
17	0xbce02bca	-0.02736463
18	0xbdcf7796	-0.10130231
19	0x3c0cc341	0.008591474
20	0xbcd5714c	-0.026055
21	0x3c2a5215	0.010395546
22	0xbd20b3c2	-0.03923393
23	0xbca78fc7	-0.0204543
24	0x3b681422	0.003541239
25	0x3d730ebc	0.059340224
26	0x3d15acbc	0.036541685
27	0x3cbabb7d	0.02279448
28	0x3badae18	0.0053002946
29	0x3da124a0	0.07868314
30	0xbd5605a0	-0.05225146
31	0x3d2f324b	0.042772572
32	0xbd99c55e	-0.07508348
33	0x3d372333	0.044711303
34	0x3d7d5d2f	0.061856445
35	0xbdac7cb1	-0.084222205
36	0xbd6a9b6e	-0.057277136
37	0x3d972c01	0.0738144
38	0xbce35cb5	-0.027754167
39	0xbd518d9e	-0.051160447
40	0x3d776f00	0.060408592
41	0x3d99e503	0.07514384
42	0xba6ba3ef	-0.00089889666
43	0xbd2e00f9	-0.042481396
44	0x3cf977e0	0.030452669
45	0x3cdfe9df	0.027333198
46	0x3d9941a9	0.07483227
47	0xbd73dacc	-0.059534833
48	0xbc7aeb0d	-0.01531483
49	0x3df4cdcd	0.11953316
50	0x3d241a46	0.04006412
51	0xbcf54950	-0.029942185
52	0xbdd96e6c	-0.106167644
53	0x3d1457c0	0.036216497
54	0x3dde4d35	0.1085457
55	0x3d03b4f1	0.03215498
56	0xbaefaa80	-0.0018285066
57	0x3d86b487	0.065774016
58	0xbc63aad0	-0.013895705
59	0xbd925376	-0.07144825
60	0xbc5e8075	-0.013580431
61	0xbba8ee90	-0.005155392
62	0xbc9224a7	-0.017839743
63	0x3ccbae45	0.024863372

action_model._continuous_distribution.log_sigma f4 [1, 44]
0	0x3e6eeeb2	0.23333243
1	0x3e035bf9	0.12828054
2	0x3e530202	0.20606235
3	0x3eaa42df	0.33254144
4	0x3df5506b	0.11978229
5	0x3ec4e269	0.38453987
6	0x3eafd3ec	0.3434137
7	0x3eab5baf	0.33468387
8	0x3e3a3aa2	0.18186429
9	0x3d8fe447	0.07025962
10	0x3eb3dff4	0.351318
11	0x3e4c82be	0.19971749
12	0x3ea7d69a	0.32780915
13	0x3d982cc3	0.074304126
14	0x3edd78c8	0.4325621
15	0x3ea69c78	0.3254125
16	0x3d3c8712	0.04602725
17	0x3e8ba99a	0.27277833
18	0x3e42f350	0.19038129
19	0x3e0c111c	0.13678402
20	0x3ebaf003	0.3651124
21	0x3ec33f09	0.3813403
22	0x3e70cf9b	0.23516695
23	0x3ecb7d33	0.39743957
24	0x3d6b2b8a	0.05741457
25	0x3dda776d	0.1066731
26	0x3e2c76ef	0.16842245
27	0x3e1971f1	0.14984871
28	0x3e2de2e5	0.16981085
29	0x3eb08991	0.34479955
30	0x3ea513c1	0.32241634
31	0x3e7d7047	0.24749862
32	0x3e0562fe	0.13026044
33	0x3daad065	0.08340529
34	0x3e1bc112	0.15210369
35	0x3e46a194	0.19397575
36	0x3e7a4aca	0.24442592
37	0x3e067ac3	0.13132767
38	0x3d7ac5e2	0.061223872
39	0x3dfa567b	0.12223526
40	0x3eb3af59	0.35094717
41	0x3eb0d909	0.34540585
42	0x3e5b8192	0.21436146
43	0x3e578b28	0.21049178

action_model._continuous_distribution.mu.weight f4 [44, 64]
0	0xbc397883	-0.011320236
1	0xbd9c08cc	-0.07618865
2	0xbe14222c	-0.1446616
3	0xbce47ff5	-0.027893046
4	0xbe146e3c	-0.14495176
5	0x3d1f11d8	0.038835377
6	0x3db3ce6d	0.08779607
7	0x3cf24d9f	0.029578028
8	0xbd06be3b	-0.03289626
9	0x3c0c8c23	0.008578333
10	0xbe0f30a3	-0.13983397
11	0xbcb33596	-0.021876138
12	0xbcc85d8c	-0.02445867
13	0x3d53ddf4	0.051725343
14	0xbc6e1b52	-0.014532881
15	0xbd4b8c56	-0.04969438
16	0xbd8b903c	-0.0681462
17	0x3e7bc20f	0.24585746
18	0x3e2ae675	0.16689475
19	0xbd30b6ee	-0.043143205
20	0xbd0700ca	-0.032959737
21	0xbd1710c8	-0.03688124
22	0x3cdc53a0	0.026895344
23	0x3deba0cf	0.11505281
24	0x3da54e1a	0.08071537
25	0xbda77cef	-0.08178126
26	0x3c8b4a08	0.017003074
27	0x3d0f4c55	0.034984905
28	0x3cd66538	0.026171312
29	0xbcb19b03	-0.02168036
30	0x3dbbd028	0.09170562
31	0xbdff523c	-0.12466857
32	0xbce3085b	-0.027713945
33	0xbdb59b54	-0.08867517
34	0xbbf2119d	-0.0073873536
35	0x3cec0a98	0.028813645
36	0x3c981d9c	0.018568806
37	0x3dadcde5	0.08486537
38	0x3d327ad9	0.043574188
39	0x3dba1c58	0.090874374
40	0xbe3c64bd	-0.18397804
41	0xbe147620	-0.14498186
42	0xbca75399	-0.020425605
43	0x3e1ad5ab	0.1512057
44	0x3d2168f8	0.039406747
45	0x3b797be9	0.003806824
46	0xbda36fee	-0.07980333
47	0x3d5c4ae4	0.05378236
48	0xbd8de43c	-0.06928298
49	0x3c91b5fa	0.017786968
50	0x3de4bc3c	0.11168715
51	0xbab16626	-0.0013534471
52	0xbd15fb81	-0.036616806
53	0x3bcce08d	0.0062523545
54	0x3ddac3a0	0.10681844
55	0xbdfa2f87	-0.12216096
56	0x3d5dbb88	0.05413392
57	0xbcb3ad00	-0.021933079
58	0x3c5af09f	0.013363033
59	0xbda437cc	-0.08018455
60	0x3cb6e63a	0.022326577
61	0x3d393ea5	0.045225758
62	0x3cb19c57	0.021680994
63	0xbdd00039	-0.101562925
64	0xbdcf958c	-0.10135946
65	0x3e0aea76	0.13566002
66	0x3c3baae5	0.011454319
67	0x3c5f1964	0.013616893
68	0xbdc87edc	-0.097898215
69	0x3beff4b9	0.0073228744
70	0x3e111a65	0.14170225
71	0x3e242cd1	0.16032721
72	0x3d5f74b3	0.054554652
73	0x3d2628a0	0.040566087
74	0xbd9af86d	-0.07566915
75	0x3c888f8b	0.01667001
76	0x3d9b55ad	0.07584701
77	0x3dbec942	0.09315731
78	0xbc6d4705	-0.014482264
79	0xbd8248e9	-0.06361563
80	0x3ca49ce1	0.020094337
81	0x3da6be9d	0.08141825
82	0xbd751569	-0.05983487
83	0xbdf89cf7	-0.12139314
84	0x3d8e3042	0.06942798
85	0xbcabfeea	-0.020995576
86	0x3c43790f	0.011930718
87	0xbe4859e2	-0.19565538
88	0x3d0b3fe4	0.033996478
89	0xbd609997	-0.054833975
90	0xbbe9ff25	-0.0071410113
91	0xbd0bea59	-0.03415904
92	0xbdc6e663	-0.097119115
93	0xbc40c92f	-0.011766716
94	0xbca6bcc4	-0.020353682
95	0xbcb231e2	-0.021752302
96	0xbd65f76b	-0.05614416
97	0x3d72bf98	0.05926475
98	0x3d1669f3	0.036722135
99	0x3d5bbfe7	0.05364981
100	0x3de2bd3a	0.11071248
101	0x3dadbe74	0.08483592
102	0x3e173eec	0.14770097
103	0xbdc8e84c	-0.09809932
104	0xbd618baa	-0.055064835
105	0x3da7c874	0.0819253
106	0x3d96d27d	0.07364366
107	0x3d4eb67d	0.050467003
108	0x3db2da09	0.08732993
109	0xbcbb3868	-0.022854045
110	0xbc521440	-0.012822211
111	0x3d19346d	0.037403513
112	0xbddb6d4d	-0.10714207
113	0xbdbb2a40	-0.09138918
114	0x3d5042f5	0.050845105
115	0xbd95c655	-0.073132195
116	0x3d783781	0.060599808
117	0xbd20d21e	-0.039262883
118	0x3df48acd	0.11940537
119	0xbd215999	-0.039392088
120	0xbdbf8b47	-0.09352737
121	0xbd03c0bb	-0.032166224
122	0x3d8dae9f	0.06918072
123	0x3cacc84e	0.021091606
124	0x3d9dc238	0.0770306
125	0x3d8b9ce8	0.06817037
126	0x3d1b5faa	0.03793303
127	0xbe27f8c8	-0.16403496
128	0xbd099ea7	-0.03359857
129	0x3bb81138	0.005617287
130	0xbdc72f3c	-0.09725806
131	0xbd8162a6	-0.06317644
132	0x3cfe9145	0.03107513
133	0xbd988fef	-0.07449328
134	0x3d200fe6	0.039077662
135	0x3d632c3e	0.055462115
136	0x3ba3a234	0.0049937014
137	0xbd7f493b	-0.062325697
138	0x3d387c14	0.045040205
139	0x3d440fdb	0.047866683
140	0xbde8aa9c	-0.11360666
141	0x3dbf2ffa	0.09335323
142	0x3c1c4532	0.009537982
143	0x3c3aed99	0.011409187
144	0xbccee6a0	-0.025256455
145	0x3d9d7aea	0.076894596
146	0x3d23538c	0.0398746
147	0x3d6ea546	0.058263086
148	0x3c3720be	0.01117724
149	0x3be2bc72	0.006919437
150	0xbd718e51	-0.058973614
151	0x3e525d4f	0.20543407
152	0xbe061a72	-0.13096026
153	0xbcf47a6b	-0.02984353
154	0x3e1e009c	0.1542992
155	0xbb1cd482	-0.0023930375
156	0xbd6cbb0a	-0.05779556
157	0xbc4c01ba	-0.0124515835
158	0xba764ebd	-0.0009395888
159	0xbd3fb965	-0.046807665
160	0xbc8b7434	-0.017023183
161	0x3dfce6a3	0.12348678
162	0x3d364c40	0.04450631
163	0x3de8db37	0.11369937
164	0xbd3ea54a	-0.04654435
165	0xbda9c1c7	-0.08288913
166	0x3ce0c0f2	0.027435753
167	0x3c92c7a0	0.017917454
168	0xbe114f9b	-0.14190523
169	0xbc9f5b24	-0.019452639
170	0x3d87cbc1	0.0663066
171	0x3e2a41cf	0.16626666
172	0xbd827e5d	-0.06371758
173	0xbc6f6b8e	-0.014613045
174	0x3ce14efd	0.027503485
175	0x3db066f3	0.08613386
176	0x3d574471	0.052555505
177	0xbd49f236	-0.049303256
178	0x3d89cb9a	0.06728287
179	0xbd179480	-0.037006855
180	0xbd3fb93e	-0.04680752
181	0xbc6cb263	-0.014446828
182	0xbd7e756c	-0.0621237
183	0x3daec5b7	0.08533805
184	0x3db22231	0.08697928
185	0xbe05b164	-0.1305595
186	0xbd7038b2	-0.05864782
187	0x3c0aea7e	0.008478759
188	0x3d8f8d85	0.070094146
189	0x3ca19685	0.019725094
190	0x3b7d9b22	0.0038697203
191	0xbd80e940	-0.06294489
192	0xbbecc6af	-0.0072258334
193	0xbd38ce5f	-0.045118686
194	0xb91b6322	-0.00014818882
195	0x3dc58d3d	0.0964608
196	0xbcb14aad	-0.021642053
197	0x3d79687b	0.060890656
198	0xbc94d653	-0.018168604
199	0x3e4fef26	0.20306072
200	0x3e25ad40	0.16179371
201	0xbd89c8a1	-0.0672772
202	0xbab47535	-0.001376784
203	0xbbee208c	-0.0072670635
204	0x3d5e2472	0.054233976
205	0x3da468c4	0.08027795
206	0xba9cd6ab	-0.0011965832
207	0x3cf05ad0	0.029340178
208	0xbdbe8fbb	-0.09304758
209	0x3e018eb8	0.12652099
210	0xbd667317	-0.056262102
211	0x3c9c5261	0.01908225
212	0xbaa81c69	-0.001282585
213	0xbe0bfae7	-0.1366993
214	0x3d955782	0.072920814
215	0x3d299f38	0.04141161
216	0x3de47a97	0.11156195
217	0xbde9cbe7	-0.114158444
218	0x3da20ba5	0.07912377
219	0x3d86fa5b	0.0659072
220	0x3e1e69b3	0.15470009
221	0xbbf9ba9a	-0.0076211216
222	0x3d9939c7	0.07481723
223	0xbe0341a4	-0.12818009
224	0x3d1b7097	0.03794917
225	0xbd9e7d70	-0.07738769
226	0x3dd3ac09	0.103355475
227	0xbd1da77d	-0.038489807
228	0xbd7f77aa	-0.06236998
229	0x3d8bf130	0.06833112
230	0xbd822980	-0.06355572
231	0xbd39ea35	-0.045389373
232	0x3defc02b	0.11706575
233	0xbd0bcc73	-0.034130525
234	0x3c8c63fb	0.017137518
235	0xbe6b45e5	-0.22975881
236	0x3c0d0f64	0.008609626
237	0x3e1f1dc2	0.15538695
238	0x3d6cbd61	0.057797793
239	0xbcf6cc55	-0.03012673
240	0x3de5382e	0.11192356
241	0x3e0ddf02	0.13854602
242	0x3d8e63aa	0.06952603
243	0xbd9cbe31	-0.07653464
244	0xba611b9c	-0.0008587183
245	0x3d0e6005	0.03475954
246	0x3e3202d9	0.17383899
247	0x3dcb7fbe	0.09936474
248	0x3cd0016a	0.0253913
249	0xbdfd18af	-0.12358224
250	0xbd5800ef	-0.052735265
251	0xbdb2ddf2	-0.08733739
252	0x3d7eff26	0.062255047
253	0x3d495014	0.049148634
254	0x3c969383	0.018380886
255	0xbd777064	-0.06040992

action_model._continuous_distribution.mu.bias f4 [44]
0	0xbc75172d	-0.014959139
1	0xbd0aaa32	-0.033853717
2	0xbd7f06e0	-0.062262416
3	0x3d6fd000	0.058547974
4	0x3d9b1a86	0.07573418
5	0x3cf8c6b0	0.03036818
6	0x3d0a4b18	0.03376302
7	0x3d53d9fb	0.051721554
8	0x3d95e8c5	0.07319788
9	0x3aa80829	0.0012819815
10	0x3d36e975	0.044656236
11	0xbd17702c	-0.03697221
12	0x3d823031	0.06356848
13	0x3d1ca438	0.03824255
14	0xbcd93399	-0.026513861
15	0xbcef6c2d	-0.029226387
16	0xbc03fd57	-0.008056006
17	0x3cb92173	0.022598958
18	0xbdee444a	-0.11634119
19	0x3b64dc92	0.003492151
20	0xbce7eeea	-0.028312165
21	0xbcb62aec	-0.022237264
22	0xbd511589	-0.05104593
23	0xbd6008e4	-0.05469598
24	0xbc9d1f2a	-0.0191799
25	0xbdf79684	-0.120892555
26	0xbe2da428	-0.16957152
27	0xbd3d044e	-0.046146683
28	0xbcb3fd87	-0.021971477
29	0x3d4c41ac	0.049867317
30	0xbca7b5b9	-0.020472394
31	0xbd966020	-0.07342553
32	0xbdeda8f7	-0.11604493
33	0xbcbedaf0	-0.023297757
34	0xbd18a5c3	-0.037267458
35	0x3d096256	0.033541046
36	0x3c8367d4	0.01604072
37	0xbbec7352	-0.0072158957
38	0x3c96592d	0.01835307
39	0x3ccd7d76	0.025084238
40	0xbd856f83	-0.0651541
41	0xbcfd413c	-0.030914895
42	0xbdaacda7	-0.08340006
43	0x3d653897	0.05596217
