results/b090rereremaze22/Dynamic Table/Dynamic Table-10000010.pt (torch, 406934 bytes, 48 tensors)

network_body._body_endoder.seq_layers.0.weight f4 [64, 94]
0	0x3ec8710d	0.3914875
1	0xbe4031d7	-0.18769012
2	0x3d027c3c	0.03185676
3	0x3eb6c875	0.35699812
4	0x3d3aea69	0.045633707
5	0x3e3b8fc9	0.18316568
6	0x3eb7cf71	0.35900453
7	0xb98e72cd	-0.00027169884
8	0xbe9f4fa6	-0.31115454
9	0xbe711bf0	-0.23545814
10	0x3dc1a63c	0.09455535
11	0x3d968ff4	0.07351676
12	0x3e665b04	0.22495657
13	0xbd38740f	-0.045032557
14	0xbe0539ce	-0.13010332
15	0xbe37794f	-0.1791737
16	0xbe4dbb7e	-0.20091054
17	0xbe781bd0	-0.2422936
18	0xbcfa9069	-0.030586438
19	0x3e12f08c	0.14349574
20	0x3e916f9d	0.28405467
21	0x3ee4c832	0.44683987
22	0xbd4aede4	-0.049543276
23	0x3defb849	0.117050715
24	0xbe021f65	-0.12707289
25	0xbccc76a8	-0.024958923
26	0x3e7cb7b8	0.24679458
27	0x3eac5c7d	0.33664313
28	0xbd917a56	-0.07103412
29	0xbc9dbc01	-0.019254686
30	0x3ccfeee9	0.025382476
31	0x3da3ce73	0.079983614
32	0x3c8e59cc	0.017376803
33	0xbe19b285	-0.15009506
34	0x3d9188dc	0.07106182
35	0xbd8e821a	-0.06958409
36	0xbe202be0	-0.15641737
37	0x3f118d67	0.5685639
38	0x3cdd5df7	0.027022345
39	0xbe1c2245	-0.15247448
40	0x3d43885a	0.047737457
41	0x3e9c0b4e	0.30477375
42	0xbcdd57d4	-0.027019419
43	0x3d65b73a	0.05608294
44	0x3e89249b	0.2678574
45	0x3d50c33c	0.05096744
46	0xbe10debb	-0.14147465
47	0x3e4a746a	0.19770971
48	0x3d4e79d9	0.05040917
49	0xbe86ba67	-0.2631409
50	0xbdaa1d91	-0.083064206
51	0xbb33f69b	-0.002746022
52	0xbdecef68	-0.115691006
53	0xbe516dfd	-0.20452113
54	0x3dd5ea3f	0.104450695
55	0xbe6ab420	-0.22920275
56	0xbccbca04	-0.024876602
57	0xbeba3ecd	-0.36376038
58	0x3c95f17b	0.018303623
59	0xbe042605	-0.12905128
60	0xbd8f2cce	-0.06990968
61	0x3e264561	0.16237403
62	0xbe077d38	-0.13231361
63	0xbe4570e8	-0.19281352
64	0x3e7dd01a	0.24786416
65	0xbe851d34	-0.25998843
66	0xbd4fe0da	-0.050751545
67	0x3ccc23fd	0.024919504
68	0x3e0f1c4d	0.1397564
69	0xbe7b126a	-0.24518743
70	0x3e337c0a	0.17527786
71	0xbe510b7e	-0.2041454
72	0xbe6713e1	-0.22566177
73	0x3e37b12e	0.17938682
74	0xbefa7dd7	-0.48924133
75	0xbe9c3e4f	-0.30516288
76	0x3e6eb8bf	0.23312663
77	0xbe5db98d	-0.21652813
78	0x3b4c6686	0.0031189038
79	0x3e908089	0.28223065
80	0xbe7627d9	-0.24038638
81	0xbec969fe	-0.39338678
82	0xbdd7d8f7	-0.1053943
83	0x3dbf4c8a	0.093407705
84	0x3dcad315	0.09903542
85	0x3ded1e44	0.11578038
86	0xbe4510a6	-0.19244632
87	0xbded9fec	-0.11602768
88	0x3e12a1dd	0.14319558
89	0x3dae5dde	0.085139975
90	0xbc53b9f0	-0.012922749
91	0x3e4414f1	0.19148614
92	0x3d8d62ac	0.06903586
93	0xbd0ce560	-0.034398437
94	0x3e6defab	0.23235957
95	0x3e33611d	0.17517515
96	0xbe2a7bc9	-0.16648783
97	0xbe7827fa	-0.24234
98	0x3e700ada	0.2344164
99	0xbd1d9ad6	-0.03847774
100	0x3d5592c3	0.052141916
101	0x3dd1d969	0.10246546
102	0xbdc56f09	-0.09640319
103	0x3d7a619b	0.06112824
104	0x3d1a7e0f	0.037717875
105	0xbef875ea	-0.4852746
106	0xbe00cc98	-0.12578046
107	0x3df8ca8f	0.1214801
108	0xbd14d870	-0.036339223
109	0xbec0d264	-0.37660515
110	0xbea91c4b	-0.33029398
111	0x3e21f04f	0.15814327
112	0xbd08e08e	-0.033417277
113	0x3dcd00ec	0.100099415
114	0xbe0109ae	-0.12601349
115	0x3e90bea6	0.28270453
116	0xbe734585	-0.23756988
117	0xbd5ce257	-0.053926792
118	0x3e84b779	0.2592123
119	0x3df66a47	0.120319895
120	0x3efa38a6	0.48871344
121	0x3eb23460	0.34805584
122	0x3e6f1491	0.23347689
123	0xbdd32c73	-0.103112124
124	0xbebfe7a7	-0.37481424
125	0x3ccc8e7d	0.024970287
126	0xbd233024	-0.039840832
127	0x3f0b036e	0.5430211
128	0xbe93300c	-0.28747594
129	0x3c651810	0.013982788
130	0xbe7b5a48	-0.24546158
131	0x3d8ca27f	0.06866931
132	0xbe4ccf3d	-0.2000093
133	0x3e67aadc	0.22623771
134	0x3e624dca	0.22099987
135	0xbdf425df	-0.11921286
136	0xbc84dd9a	-0.01621895
137	0x3e276942	0.16348746
138	0x3f1ee74b	0.62071675
139	0x3dbc9c0e	0.092094526
140	0x3da951d3	0.0826756
141	0xbec08043	-0.37597856
142	0x3e660c85	0.22465713
143	0xbea0e801	-0.31427005
144	0x3dad5d85	0.08465103
145	0x3d86ba63	0.06578519
146	0x3bae0f6a	0.005311896
147	0x3d412d27	0.0471622
148	0xbdb95962	-0.090502515
149	0xbd28e6fe	-0.041235916
150	0x3c055dc7	0.008140034
151	0x3da48ec4	0.08035043
152	0x3c7cc432	0.015427636
153	0xbd205ec9	-0.039152894
154	0x3e4c9f48	0.19982636
155	0x3e69223d	0.22766967
156	0x3c800a56	0.015629929
157	0xbd2ce5ae	-0.042211227
158	0x3ddea4b3	0.10871258
159	0xbe729364	-0.23689038
160	0x3de8173b	0.11332556
161	0xbbbb7d47	-0.0057217213
162	0x3dea5076	0.11441128
163	0x3d74d8b9	0.059776995
164	0x3bfe9436	0.007769133
165	0xbe297bd8	-0.16551149
166	0xbe043466	-0.12910613
167	0x3daa264a	0.08308084
168	0x3e0313f1	0.12800576
169	0xbd93d36b	-0.07218059
170	0x3bea79df	0.0071556414
171	0x3cda11eb	0.026619872
172	0x3e140c3b	0.1445779
173	0xbdaec6e8	-0.08534032
174	0x3ddb2990	0.10701287
175	0xbd499924	-0.049218312
176	0xbe213cfe	-0.15745923
177	0xbe6ce093	-0.23132543
178	0xbe184448	-0.14869797
179	0xbdad0f9c	-0.08450243
180	0xbdd19119	-0.10232753
181	0xbd07d64b	-0.03316335
182	0xbdffb52f	-0.1248573
183	0xbc0bc75e	-0.00853142
184	0xbe3b1517	-0.18269764
185	0xbd44c445	-0.04803874
186	0x3e5153c4	0.2044211
187	0x3cf1ef11	0.029532941
188	0xbea6acff	-0.3255386
189	0x3e50fa97	0.20408092
190	0xbdce07b1	-0.10060061
191	0xbea5926b	-0.3233827
192	0xbacb14c9	-0.0015493865
193	0x3e5d7430	0.21626353
194	0xbe06d374	-0.131666
195	0xba60569a	-0.00085578265
196	0xbe59f71a	-0.21285668
197	0xbf16d309	-0.58915764
198	0xbeac9c2b	-0.33712897
199	0xbbc69e9d	-0.0060613886
200	0xbe80661f	-0.25077912
201	0xbd8df6ff	-0.069318764
202	0xbe5f9397	-0.21833645
203	0xbcb0c254	-0.021577038
204	0xbe0a53c6	-0.1350852
205	0x3dddfbe6	0.108390614
206	0x3ed945cc	0.42436063
207	0xbd295e3a	-0.041349627
208	0x3e044aae	0.12919113
209	0xb9d74a32	-0.00041063275
210	0xbf0f05f4	-0.5586846
211	0xbe89cd84	-0.26914608
212	0xbdd083a4	-0.101813585
213	0x3ecaf7f1	0.3964229
214	0x3e573ab9	0.21018495
215	0x3f112d69	0.56709915
216	0xbe2cb963	-0.16867594
217	0xbe661522	-0.22468999
218	0xbe47c69b	-0.19509356
219	0xbea763e2	-0.32693392
220	0x3d94cc8a	0.07265575
221	0x3ee997e3	0.45623693
222	0xbcd09d39	-0.025465595
223	0x3e9c452d	0.30521527
224	0xbf16ede8	-0.58956766
225	0xbe3205b2	-0.17384985
226	0x3bc55a3d	0.00602272
227	0xbcbaa346	-0.022782933
228	0x3efe5b57	0.49679062
229	0x3ec76f6d	0.389522
230	0x3d577665	0.052603144
231	0x3da4168c	0.08012113
232	0x3dc29313	0.095007084
233	0x3dedc2cb	0.116094194
234	0x3dd36e3c	0.1032376
235	0xbe18b399	-0.14912261
236	0x3da70b76	0.08156483
237	0x3ebc4925	0.36774555
238	0x3e96ad28	0.29428983
239	0xbd64d3cb	-0.055866044
240	0xbb4c71d8	-0.0031195786
241	0x3e8bf16c	0.27332628
242	0x3dc7376c	0.09727368
243	0x3d3332f2	0.043749757
244	0x3da835f9	0.082134195
245	0xbea4903a	-0.32141286
246	0xbd1c0c93	-0.03809793
247	0xbe92ee3b	-0.2869738
248	0xbedeb2a5	-0.4349567
249	0x3eb32751	0.34990934
250	0xbe9bcd7e	-0.30430216
251	0xbc9417cb	-0.018077752
252	0x3ec4da13	0.38447627
253	0xbea06c43	-0.31332597
254	0x3dfcf31c	0.12351057
255	0x3e492ca4	0.19645935

network_body._body_endoder.seq_layers.0.bias f4 [64]
0	0x3d53d29b	0.05171452
1	0xbc931f89	-0.017959373
2	0x3cd2bfa0	0.02572614
3	0xbcf321fe	-0.029679295
4	0x3bec9de9	0.007220973
5	0x3c139301	0.009007216
6	0x3da212bc	0.079137295
7	0x3da119f7	0.078662805
8	0xbc5d5dbb	-0.013511117
9	0x3b19b28c	0.002345237
10	0x3a0a5463	0.0005276857
11	0x3caafc2e	0.020872202
12	0x3d23175e	0.039817207
13	0xb9440d67	-0.0001869701
14	0x3b719ba1	0.0036866444
15	0xbc034d7c	-0.008014079
16	0xbd475e4f	-0.048673924
17	0x3d2d5552	0.042317696
18	0xbcb7f4b2	-0.022455547
19	0xbd888fff	-0.0666809
20	0xbba509b7	-0.0050365585
21	0x3b7a90e2	0.003823333
22	0x3bf5096c	0.00747793
23	0xbd57b9d0	-0.05266744
24	0xbda4c0f9	-0.08044619
25	0xbd16f315	-0.036852915
26	0xbcec21ad	-0.028824652
27	0x3daa8d53	0.08327737
28	0xbc6a91ee	-0.014317019
29	0xbd5143ab	-0.051089924
30	0xbd4b9b79	-0.049708817
31	0xba8e6ab6	-0.0010865543
32	0x3d27fbb0	0.041011512
33	0xbc72e311	-0.014824645
34	0xbd1d797f	-0.038445946
35	0xbd595585	-0.053060073
36	0xbcec1896	-0.028820317
37	0x3b5f843c	0.0034105917
38	0x3d965584	0.073405296
39	0x3d87c717	0.0662977
40	0x3d8d1446	0.068886325
41	0x3cdac3c3	0.026704675
42	0x3cb05840	0.021526456
43	0xbcd79d50	-0.02632013
44	0x3d6088af	0.05481785
45	0x3c747d21	0.014922411
46	0xbd0a66cf	-0.033789452
47	0xbd23ec21	-0.040020112
48	0xbda85c79	-0.08220763
49	0x3d6b6390	0.057467997
50	0xbcd60ef1	-0.026130171
51	0xbc4d1972	-0.012518274
52	0xbca75558	-0.020426437
53	0xbc7c6708	-0.015405424
54	0x3d802668	0.062573254
55	0xbc6d2c49	-0.01447589
56	0xbd46d306	-0.04854109
57	0x3d177651	0.03697807
58	0x3cd74fef	0.026283232
59	0xbb3c9c07	-0.0028779523
60	0xbb77741a	-0.003775841
61	0xbd643402	-0.05571366
62	0x3c19874a	0.009370634
63	0x3cb50677	0.02209781

network_body._body_endoder.seq_layers.2.weight f4 [64, 64]
0	0xbc683029	-0.0141716385
1	0xbec17559	-0.37784842
2	0xbdf3deb4	-0.119077116
3	0x3e187e0c	0.14891833
4	0xbe93b8e4	-0.28851998
5	0xbd8a681d	-0.06758139
6	0x3e90a8af	0.28253695
7	0x3dcaae1e	0.098964915
8	0xbe8f5e88	-0.2800181
9	0xbb61b3b9	-0.0034439398
10	0xbc5208c3	-0.012819472
11	0xbdfb1d12	-0.12261404
12	0xbe025ef1	-0.1273153
13	0x3e22cff5	0.15899642
14	0x3c89fc2d	0.01684388
15	0xbeada9c9	-0.33918598
16	0xbe86a90c	-0.26300848
17	0xbdfa942b	-0.12235292
18	0x3e29613c	0.16540998
19	0x3da5a252	0.08087601
20	0xbe4faead	-0.20281477
21	0xbda7f66a	-0.08201297
22	0xbeb587a5	-0.3545505
23	0x3e097c1d	0.13426252
24	0xbe62f0d1	-0.22162177
25	0x3d9a687e	0.075394616
26	0x3de1dc67	0.110283665
27	0xbda0a60b	-0.0784417
28	0x3e0fe35a	0.14051571
29	0xbdf1098a	-0.117693976
30	0xbeb378ef	-0.35053203
31	0xbe5e739a	-0.21723786
32	0x3db08b5f	0.08620333
33	0x3f0474c5	0.51740676
34	0x3e82ebcf	0.25570533
35	0xbe83fc95	-0.25778642
36	0xbe589ad5	-0.21152814
37	0x3d8a649c	0.06757471
38	0xbd6ca3c1	-0.057773355
39	0x3e219588	0.15779698
40	0xbe3efdf7	-0.18651567
41	0xbd8bb9a6	-0.06822519
42	0x3e985837	0.29754803
43	0xbe9383ae	-0.288114
44	0x3ca32b09	0.019917982
45	0x3e737113	0.23773603
46	0x3f212343	0.6294443
47	0x3d0e9d66	0.034818076
48	0x3da2e527	0.079538636
49	0x3e29344a	0.16523853
50	0xbe9e268c	-0.30888784
51	0x3e8efacf	0.27925727
52	0x3e5ccdb2	0.21562842
53	0xbe243c6d	-0.16038676
54	0x3eb3298d	0.34992638
55	0x3e80c2c4	0.25148594
56	0x3e4c5f70	0.19958282
57	0xbe514d1b	-0.2043957
58	0x3d0fb92c	0.035088703
59	0x3d8bad28	0.06820136
60	0xbed15d2e	-0.40891403
61	0x3e2e0186	0.16992769
62	0xbef3745f	-0.47549722
63	0xbdf8d31f	-0.12149643
64	0x3dec41d2	0.11535992
65	0x3e33e862	0.17569116
66	0xbe845026	-0.25842398
67	0xbd9c96ec	-0.076459736
68	0xbe1d926f	-0.15387891
69	0x3e5ce24b	0.21570699
70	0x3a5225c4	0.0008016492
71	0xbdce3932	-0.10069503
72	0xbe0128a2	-0.12613156
73	0x3c4aa8b3	0.012369323
74	0x3e1a1b5a	0.15049496
75	0x3f08fb33	0.535083
76	0xbe5f19f7	-0.21787249
77	0x3e34f04e	0.17669794
78	0xbe0fe6d5	-0.14052899
79	0x3b8b7d00	0.0042568445
80	0xbc90c222	-0.017670695
81	0x3e1a9682	0.15096477
82	0xbf0c3eea	-0.547835
83	0x3dd7fa9e	0.10545848
84	0xbe8bff7f	-0.27343366
85	0x3d128389	0.035769973
86	0x3e79c327	0.24390851
87	0x3e18db35	0.14927371
88	0x3e11dd54	0.14244586
89	0x3dbd3c2f	0.09239995
90	0xbe2fd618	-0.17171514
91	0xbddf203f	-0.10894822
92	0x3e377e72	0.17919329
93	0x3e85ac33	0.2610794
94	0xbe016dec	-0.12639588
95	0x3e187768	0.148893
96	0x3e8069df	0.25080773
97	0xbdc8eca9	-0.09810764
98	0xbf008092	-0.5019618
99	0xbd0a60e0	-0.033783793
100	0x3cc1f815	0.023677865
101	0xbe5ecf4b	-0.21758763
102	0xbddd2170	-0.10797393
103	0x3cd368dc	0.025806837
104	0xbe65f01d	-0.22454877
105	0xbe238bfb	-0.15971367
106	0x3e12011c	0.14258236
107	0x3ed01e19	0.40647963
108	0x3e918461	0.2842131
109	0x3e7ca657	0.24672829
110	0xbe244e8c	-0.16045588
111	0xbdc6798c	-0.09691152
112	0x3dfa2674	0.122143656
113	0xbe47617a	-0.19470778
114	0xbd8347ce	-0.0641018
115	0xbe90a66b	-0.28251967
116	0x3e906d8d	0.2820858
117	0x3ee2412c	0.44190347
118	0x3e886ce3	0.26645574
119	0xbeb13a4a	-0.34614784
120	0xbf191472	-0.5979682
121	0x3e0c6c3f	0.13713168
122	0x3e259186	0.16168794
123	0x3e8057fe	0.25067133
124	0x3ea28605	0.31742874
125	0x3e73d85b	0.23813002
126	0x3eb28f8c	0.34875143
127	0xbdb092be	-0.08621739
128	0xbe05ab89	-0.13053717
129	0xbbcb1693	-0.0061977594
130	0xbf1c3e4e	-0.6103257
131	0xbf018670	-0.5059576
132	0x3e232dcf	0.15935443
133	0xbe643d28	-0.22288954
134	0xbe9eae1a	-0.30992204
135	0xbdf847bb	-0.121230565
136	0x3d2a578f	0.04158741
137	0x3e8e12ac	0.2774862
138	0xbecc52e7	-0.39907
139	0x3d4a8dae	0.049451523
140	0xbe9c2e62	-0.30504137
141	0x3e5ff663	0.21871333
142	0x3e919621	0.28434852
143	0x3eb01ede	0.3439855
144	0xbe8b44f6	-0.2720105
145	0xbd895e20	-0.06707406
146	0xbe488c61	-0.195848
147	0xbf03ec5b	-0.51532525
148	0x3e1c893d	0.15286727
149	0x3e87841c	0.2646798
150	0x3e03f64e	0.12886927
151	0x3ddf77bf	0.10911512
152	0xbdc2426b	-0.094853245
153	0x3d1b952c	0.03798406
154	0xbd8fbef5	-0.07018844
155	0x3d9644f7	0.07337373
156	0x3f04806f	0.51758474
157	0x3e2d3a8a	0.16916862
158	0x3df9146c	0.12162098
159	0x3e489c53	0.19590883
160	0xbe754d7b	-0.23955338
161	0xbe71e8fb	-0.23624031
162	0xbe6723b1	-0.22572209
163	0xbeaf074c	-0.34185255
164	0xbda7bf6d	-0.081908084
165	0xbdc88245	-0.09790472
166	0x3ebcca7b	0.3687323
167	0x3d4c033e	0.04980778
168	0x3e4fffcf	0.20312427
169	0x3e8597b4	0.26092303
170	0xbc162d3c	-0.009166058
171	0x3df81300	0.12112999
172	0x3e87738e	0.2645535
173	0xbe3e5f4f	-0.18591045
174	0xbee4c7d7	-0.44683716
175	0x3d1775d2	0.036977597
176	0xbca79916	-0.02045874
177	0xbd2a130b	-0.041522067
178	0xbf1c9fe7	-0.6118149
179	0xbef54972	-0.47907597
180	0x3e64aa18	0.2233051
181	0x3d807cf9	0.06273837
182	0xbe9e7c6f	-0.3095431
183	0xbe8ba46c	-0.2727388
184	0x3e98093d	0.29694548
185	0xbcdd2f17	-0.026999993
186	0x3effa0a2	0.4992724
187	0xbeb83a0c	-0.35981786
188	0xbe6441c0	-0.22290707
189	0x3ea63302	0.3246079
190	0x3ee1524c	0.440081
191	0x3dcc0c69	0.099633045
192	0x3e79f377	0.2440928
193	0x3dbfee9d	0.09371684
194	0x3efbe66d	0.49199238
195	0x3e868156	0.2627055
196	0x3d86191d	0.06547759
197	0xbe806cfd	-0.2508315
198	0xbd43c131	-0.047791664
199	0xbd2ffcf6	-0.04296585
200	0xbe7fd6e7	-0.24984322
201	0xbe055d75	-0.13023932
202	0xbe8560ec	-0.26050508
203	0x3e51f4c4	0.20503527
204	0x3e8cfa8e	0.27534908
205	0xbeb6c2d1	-0.35695508
206	0xbe1d7b01	-0.15378954
207	0x3c6ac5d8	0.014329396
208	0xbdacbcc5	-0.084344424
209	0xbe1a4fa0	-0.15069437
210	0xbe0bb1d9	-0.13642062
211	0x3d8e3e5a	0.06945486
212	0xbed584b8	-0.4170282
213	0x3e6f0427	0.23341428
214	0xbe3bc763	-0.18337779
215	0xbe9cf3c7	-0.30654737
216	0xbe2a46b6	-0.16628537
217	0xbe89d5d5	-0.26920953
218	0x3eaabe12	0.33348137
219	0xbda87d62	-0.0822704
220	0x3e004592	0.12526539
221	0xbeb2bb8d	-0.34908715
222	0x3dc5569b	0.09635659
223	0xbf2ca912	-0.6744548
224	0x3deb7c41	0.11498309
225	0x3e96bb8d	0.29439965
226	0x3e3ad8a1	0.182467
227	0x3df58520	0.11988282
228	0x3da65875	0.081223406
229	0xbe227dbc	-0.15868276
230	0xbae44268	-0.001741481
231	0x3d8d534c	0.06900653
232	0xbd810919	-0.06300563
233	0x3ebb1b98	0.3654449
234	0xbe14ab5e	-0.14518496
235	0xbd07df10	-0.033171713
236	0x3c0e5304	0.008686785
237	0x3cc6bcab	0.024259886
238	0xbe4fbdae	-0.20287201
239	0xbf3c7fd9	-0.7363258
240	0xbefd4fcd	-0.49474946
241	0x3e37a56e	0.179342
242	0x3e6f7d7f	0.23387717
243	0xbe7439cd	-0.23850174
244	0x3e7b8466	0.24562225
245	0xbedaab17	-0.42708656
246	0xbebb825a	-0.36622888
247	0x3e9ba40d	0.30398598
248	0x3e650d4a	0.2236835
249	0xbd0d2e48	-0.034467965
250	0xbe993bff	-0.29928586
251	0xbe6ca7e8	-0.23110926
252	0x3f0e174a	0.55504286
253	0xbe50897e	-0.20364949
254	0xbebe64ba	-0.37186223
255	0x3d1c3d0f	0.038144168

network_body._body_endoder.seq_layers.2.bias f4 [64]
0	0x3d9b15ca	0.07572515
1	0x3e632253	0.22181062
2	0x3c66d337	0.0140884435
3	0xbbe24aaa	-0.0069058733
4	0xbd1ea51c	-0.03873168
5	0xbda87258	-0.08224934
6	0x3d1ccc4a	0.038280763
7	0x3d63ee81	0.055647377
8	0x3dd48124	0.10376194
9	0xbe4fbab0	-0.2028606
10	0xbd0c9a06	-0.034326576
11	0xbe0b322e	-0.13593361
12	0x3d71bb65	0.059016604
13	0x3dcf22e3	0.10114076
14	0x3db4179e	0.08793567
15	0x3e838559	0.25687674
16	0xbdc79c26	-0.0974658
17	0xbdbd644e	-0.09247647
18	0x3dadd556	0.08487956
19	0x3dd7cfca	0.105376795
20	0x3e2f9910	0.17148232
21	0x3d437b43	0.047724973
22	0xbe81df8f	-0.25365874
23	0xbb504286	-0.0031777932
24	0x3bc4bd44	0.0060040075
25	0x3d81ff15	0.06347481
26	0x3d91d6c6	0.07121043
27	0xbe455984	-0.19272429
28	0xbddc9fb7	-0.10772651
29	0x3d5361fb	0.051607113
30	0x3da4ad2e	0.08040844
31	0xbd15bd94	-0.03655775
32	0x3d9c4799	0.07630844
33	0x3e12bcad	0.14329787
34	0x3e274cbd	0.16337867
35	0xbe025e51	-0.12731291
36	0x3d00d7a9	0.03145567
37	0x3dec3a8e	0.11534606
38	0xbe0753b8	-0.1321553
39	0x3cab81b0	0.020935863
40	0xbd2363f5	-0.03989025
41	0x3d8f446e	0.06995474
42	0xbd934083	-0.07190039
43	0xbc729344	-0.014805619
44	0x3e26a2bc	0.16273016
45	0x3d2a04de	0.041508548
46	0x3c346a21	0.011011631
47	0x3cdae7bd	0.02672183
48	0xbd9cdb25	-0.07658986
49	0x3e22b9b8	0.15891159
50	0x3d1e18be	0.038597815
51	0xbd018e15	-0.03162964
52	0x3e1615fe	0.14656827
53	0xbd190b37	-0.03736421
54	0x3d2e11cb	0.042497437
55	0xbd7ef857	-0.062248554
56	0x3d459f3e	0.04824757
57	0x3da3b351	0.07993186
58	0xbdfae079	-0.12249846
59	0xbe93752d	-0.28800336
60	0x3db5b2dc	0.08872005
61	0xbd77b6f6	-0.06047722
62	0xbdaed950	-0.08537543
63	0xbdef22db	-0.1167657

network_body._body_endoder.seq_layers.4.weight f4 [64, 64]
0	0xbe953a8f	-0.2914624
1	0x3d757181	0.0599227
2	0xbe76991c	-0.24081844
3	0xbe951707	-0.2911913
4	0xbebe99a3	-0.3722659
5	0x3e9d7302	0.30751806
6	0x3cf86bd0	0.030324847
7	0xbd2c2fbc	-0.04203771
8	0x3df91560	0.1216228
9	0xbec797c3	-0.38982973
10	0x3e4ceda4	0.20012528
11	0xbed3838f	-0.4131131
12	0x3d120d2c	0.035657093
13	0x3d199620	0.037496686
14	0x3ed0975c	0.40740478
15	0xbe2c90fd	-0.16852184
16	0xbe5be8e6	-0.21475562
17	0xbcc57b2b	-0.024106583
18	0xbeb6bfdd	-0.35693255
19	0x3edcdf9d	0.43139353
20	0x3a57de43	0.00082347187
21	0x3e10341d	0.1408238
22	0xbe8fcbb0	-0.2808509
23	0xba96b823	-0.0011498969
24	0xbe8c3d30	-0.27390432
25	0xbe3f521c	-0.18683666
26	0x3e827975	0.2548329
27	0x3e80ce36	0.25157326
28	0xbea1d0c5	-0.3160459
29	0x3e3b4f8b	0.18292062
30	0xbe059dfb	-0.13048546
31	0xbd982e36	-0.07430689
32	0x3d6223ba	0.055209853
33	0xbc987de6	-0.01861472
34	0xbf26e5d9	-0.6519447
35	0xbe85722f	-0.26063678
36	0xbe30da92	-0.17270878
37	0x3e2ff30b	0.17182557
38	0x3ebf63a6	0.37380713
39	0x3e1f45b5	0.15553935
40	0xbe448dd4	-0.19194728
41	0xbe84d910	-0.25946856
42	0xbecd471f	-0.40093324
43	0x3e620a0a	0.22074142
44	0xbd41c65f	-0.047308322
45	0xbeb864a6	-0.3601429
46	0x3e94fcb2	0.2909904
47	0xbf2f2bf2	-0.6842643
48	0xbed1d0c7	-0.40979597
49	0xbd17f917	-0.037102785
50	0xbeb27794	-0.34856856
51	0xbdac0cd2	-0.08400883
52	0x3dcd5170	0.100252986
53	0x3da43e1e	0.080196604
54	0xbee9591a	-0.45575792
55	0xbef2732f	-0.47353503
56	0x3d6d5fdc	0.057952747
57	0x3d6f7670	0.05846256
58	0xbdcd128f	-0.100133054
59	0xbe22c59e	-0.15895697
60	0x3ea4da3f	0.3219776
61	0x3e2e0f32	0.16997984
62	0xbe61cd57	-0.22050987
63	0xbf1b1407	-0.60577434
64	0x3e0963a2	0.13416913
65	0xbe20c0d2	-0.15698555
66	0x3e88fd53	0.2675577
67	0x3e13817a	0.1440486
68	0xbed079f1	-0.40718034
69	0x39fd6569	0.00048331477
70	0x3deaf1ec	0.11471924
71	0x3d92836d	0.07153974
72	0xbea2c437	-0.31790325
73	0xbe8c8187	-0.27442572
74	0xbe477ddd	-0.19481607
75	0x3dd579f9	0.10423655
76	0x3e880ce7	0.26572344
77	0xbdb49e2a	-0.0881923
78	0x3e9bc847	0.30426237
79	0x3e1761f4	0.1478346
80	0x3d56e419	0.052463625
81	0xbde45791	-0.111495145
82	0x3d578dfd	0.052625645
83	0xbd34ce1d	-0.044141877
84	0xbd64f423	-0.05589689
85	0x3ebca870	0.36847258
86	0xbe3769ae	-0.17911407
87	0x3d880acb	0.066426836
88	0xbe268114	-0.16260177
89	0x3d9fbfa2	0.07800223
90	0x3d8149b3	0.06312885
91	0xbe143826	-0.14474544
92	0xbee75ed4	-0.45189536
93	0xbe2073df	-0.15669201
94	0xbd5730f0	-0.052536905
95	0xbee473c6	-0.44619578
96	0x3e088b4d	0.13334389
97	0x3efd579a	0.49480897
98	0xbe3a269f	-0.18178795
99	0xbc87a7f8	-0.016559586
100	0x3bf8f8c5	0.007598015
101	0x3e20c0c3	0.15698533
102	0xbec693b0	-0.38784552
103	0x3d299227	0.041399147
104	0x3de2147e	0.11039065
105	0xbe3cece1	-0.18449737
106	0xbe5621ac	-0.20911282
107	0xbe5be49c	-0.21473926
108	0xbe286298	-0.1644386
109	0xbf4c6ee2	-0.79856694
110	0xbecc4fbc	-0.39904583
111	0x3e30baee	0.17258808
112	0x3c617d79	0.013762825
113	0xbdc485ce	-0.09595834
114	0xbdbb9185	-0.09158615
115	0xbe60d1d2	-0.2195504
116	0xbe77b9e3	-0.24192004
117	0x3d412393	0.047153067
118	0xbec55352	-0.3854013
119	0xbd86c5e2	-0.06580712
120	0xbd05a103	-0.032624256
121	0x3d07db9b	0.033168416
122	0x3bae6ef5	0.0053232857
123	0x3ee45dc6	0.44602793
124	0x3e9be839	0.3045061
125	0xbe2fa648	-0.17153275
126	0xbdd5a190	-0.10431206
127	0xbd8dabc4	-0.06917527
128	0xbeb9e41a	-0.3630684
129	0x3d6e9abb	0.05825303
130	0x3ec3677c	0.3816489
131	0x3d34bbec	0.04412453
132	0x3e149d7e	0.14513204
133	0xbe97a565	-0.29618374
134	0xbe4eebb1	-0.20207097
135	0x3deb81e3	0.11499383
136	0x3cc790af	0.024360983
137	0x3e6ed93e	0.23325059
138	0x3e234123	0.15942816
139	0xbe1d97af	-0.15389894
140	0xbecb096f	-0.39655635
141	0xbf01b29a	-0.5066315
142	0xbe773100	-0.24139786
143	0xbe2a3645	-0.16622265
144	0xbe451e96	-0.19249949
145	0xbe998996	-0.29987782
146	0xbeb011f1	-0.34388688
147	0xbe50dd57	-0.20396934
148	0x3e959dc7	0.29221937
149	0x3ebd382c	0.36956918
150	0x3e3bb42e	0.18330452
151	0x3dc1b5b0	0.09458482
152	0xbe2da349	-0.1695682
153	0xbe4ee5c7	-0.2020484
154	0xbf0326bf	-0.51230997
155	0xbdcd1d35	-0.100153364
156	0x3ea06f6e	0.31335014
157	0xbe6be0de	-0.23034999
158	0x3e538120	0.20654726
159	0x3dc3cbda	0.09560366
160	0xbe894b69	-0.26815346
161	0x3e0ca3ba	0.13734332
162	0xbd301173	-0.04298539
163	0xbe5d59f6	-0.21616349
164	0xbe36433a	-0.17799082
165	0xbc6abcf4	-0.0143272765
166	0x3ea579fc	0.3231963
167	0xbe0639d2	-0.13107994
168	0xbe7332b1	-0.23749806
169	0xbeb53a68	-0.35396123
170	0xbe30b015	-0.1725467
171	0x3e4f8495	0.2026542
172	0x3e560054	0.20898563
173	0xbe86fa76	-0.26362962
174	0xbf0c765a	-0.5486809
175	0xbdbf92ea	-0.093541935
176	0x3e2b0109	0.16699614
177	0x3e135aa6	0.14390048
178	0xbf1da8fc	-0.61585975
179	0x3e44632c	0.19178456
180	0x3d6e1eaf	0.05813473
181	0x3d97dd29	0.0741523
182	0x3e710719	0.23537864
183	0x3e8374e6	0.25675124
184	0xbe1159ec	-0.14194459
185	0xbe01f32d	-0.1269042
186	0x3cf468eb	0.029835185
187	0x3ee91d03	0.45529947
188	0xbee1f2cc	-0.44130552
189	0x3e59abaa	0.21256891
190	0xbecbdfb0	-0.39819098
191	0xbdd7fb40	-0.10545969
192	0x3e23c221	0.15992023
193	0x3dfac4b4	0.122445494
194	0xbe6a4d1f	-0.22880982
195	0xbeb3bc45	-0.35104576
196	0xbe206d3a	-0.15666667
197	0xbea7b1c0	-0.327528
198	0xbdd26410	-0.10272992
199	0x3b098f3e	0.002098992
200	0xbe777435	-0.24165423
201	0x3eff9062	0.49914843
202	0xbef991f9	-0.4874418
203	0xbe7d3539	-0.24727334
204	0xbe79d29c	-0.24396747
205	0xbef2684c	-0.47345197
206	0xbdd61804	-0.10453799
207	0xbe378d55	-0.17925008
208	0xbe979850	-0.29608393
209	0x3d9c2e59	0.076260276
210	0xbde4cbdd	-0.11171696
211	0xbded2025	-0.11578397
212	0x3df25c9d	0.11834071
213	0xbe91543a	-0.28384572
214	0xbc9e7df9	-0.019347178
215	0xbe3e5d0f	-0.18590187
216	0xbdb907aa	-0.09034665
217	0x3dcc5ba1	0.09978414
218	0x3d39beb4	0.045347884
219	0xbea7fdf5	-0.3281094
220	0x3df8280a	0.12117012
221	0x3ea745c3	0.3267041
222	0xbe09ac3f	-0.13444613
223	0x3e40e484	0.18837172
224	0x3e120dac	0.14263028
225	0xbaae52f8	-0.0013299873
226	0x3e4d50fc	0.20050424
227	0xbdada770	-0.08479202
228	0xbe9421fc	-0.28932178
229	0xbebbf5e3	-0.36711034
230	0xbe15e9e7	-0.14640008
231	0xbea8e303	-0.32985696
232	0xbedf4b26	-0.4361202
233	0xbc6863c3	-0.014183941
234	0x3ed072db	0.40712628
235	0x3d60aeb6	0.054854117
236	0xbe8b9f43	-0.27269945
237	0x3d07c782	0.03314925
238	0x3e16ac10	0.14714074
239	0x3e8cbfc9	0.2749007
240	0xbde4f170	-0.11178863
241	0x3d99939b	0.07498857
242	0xbe378c29	-0.1792456
243	0xbe12fcb5	-0.14354213
244	0xbe674ebc	-0.22588629
245	0x3f064350	0.5244646
246	0xbc6e658a	-0.014550576
247	0x3f3c8c30	0.7365141
248	0x3e408a52	0.18802765
249	0xbf40276d	-0.7506016
250	0xbde965d4	-0.11396375
251	0xbdfe8c0c	-0.124290556
252	0xbdac8ee3	-0.08425691
253	0xbe92867f	-0.28618237
254	0x3d930b4a	0.071798876
255	0xbcda8b44	-0.026677735

network_body._body_endoder.seq_layers.4.bias f4 [64]
0	0x3e20c7e2	0.15701249
1	0x3e482d4d	0.19548531
2	0xbd2c110d	-0.04200845
3	0xbd3cf61d	-0.04613315
4	0x3e6629f7	0.22476946
5	0x3e8313b5	0.25600973
6	0xbe41e2e3	-0.18934207
7	0x3ebc0609	0.36723354
8	0xbdfa4afe	-0.12221335
9	0x3e9773e2	0.295806
10	0x3ed4f473	0.4159275
11	0xbe04723b	-0.129342
12	0x3d03bf43	0.032164823
13	0x3cf1466d	0.029452527
14	0x3e6018cd	0.21884461
15	0x3eb772fa	0.35829908
16	0xbe25d99a	-0.1619629
17	0x3e070835	0.13186724
18	0xbda95b86	-0.0826941
19	0x3e4ca2f0	0.1998403
20	0x3dccd765	0.10002021
21	0x3dce533f	0.10074472
22	0xbca30490	-0.019899637
23	0xbd796bee	-0.060893945
24	0xbd7140c2	-0.05889965
25	0x3d6b922a	0.05751244
26	0x3e9ef66e	0.31047386
27	0x3dd8a672	0.10578622
28	0xbcf7e230	-0.030259222
29	0x3ea28537	0.3174226
30	0x3e578a14	0.21048766
31	0x3e6cfe51	0.23143889
32	0xbdd249b3	-0.10267963
33	0x3d946957	0.072466545
34	0x3e9b5211	0.3033605
35	0xbcba125b	-0.02271383
36	0xbe1e121b	-0.15436594
37	0x3e8c2ca6	0.27377814
38	0x3d7b70ba	0.0613868
39	0xbe13fcf1	-0.14451958
40	0x3cb9efdc	0.022697382
41	0x3e3aac1e	0.1822972
42	0xbdb0cdcb	-0.08633002
43	0xbc98e463	-0.01866359
44	0xbd773c8c	-0.060360476
45	0x3cc0b48a	0.023523588
46	0x3e4af853	0.1982129
47	0xbd87d3a6	-0.066321656
48	0xbd8c142f	-0.06839787
49	0x3e48f5e6	0.19625053
50	0x3e03bf6c	0.1286599
51	0x3e299f01	0.16564561
52	0x3c27d734	0.0102441795
53	0xbe2b66c4	-0.1673842
54	0x3e90356f	0.28165767
55	0xbdb4869d	-0.08814738
56	0x3d45b807	0.048271205
57	0x3ebd0978	0.36921287
58	0xbd82e767	-0.06391793
59	0xbd212cb2	-0.039349265
60	0xbd02701f	-0.03184521
61	0x3c629302	0.013828995
62	0xbdb6bcbb	-0.08922716
63	0x3ec8f387	0.39248297

action_model._continuous_distribution.log_sigma f4 [1, 44]
0	0x3fe74ffd	1.8071285
1	0x4024cb81	2.574921
2	0x402e5c8b	2.7243984
3	0x40065475	2.0989048
4	0x40100a00	2.2506104
5	0x40011a72	2.017239
6	0x4007be67	2.1209962
7	0x40261337	2.5949228
8	0x40085f1a	2.1308045
9	0x3ffef751	1.9919225
10	0x400ac790	2.1684303
11	0x3fd78794	1.683825
12	0x3fb52f40	1.4155045
13	0x3fe91ae3	1.821133
14	0x40304074	2.753934
15	0x3fdd9488	1.7310953
16	0x3fb42465	1.4073607
17	0x3fd8341f	1.6890906
18	0x3f9ab0f7	1.2085255
19	0x3fedeeb0	1.8588467
20	0x3fba7a98	1.4568663
21	0x400ac754	2.168416
22	0x400cfda8	2.202982
23	0x40040ddc	2.063346
24	0x3f90b18a	1.1304181
25	0x3fc10374	1.5079179
26	0x3fc547dd	1.5412556
27	0x3fa64c99	1.2992126
28	0x3fa489e4	1.2854581
29	0x40256d6d	2.5848038
30	0x3ff9a176	1.9502399
31	0x3fcecf2c	1.6156974
32	0x3fe7a3d1	1.8096868
33	0x3f6bc3a9	0.9209543
34	0x3feab7aa	1.83373
35	0x3fb47939	1.4099494
36	0x4028607e	2.6308894
37	0x3fded702	1.7409365
38	0x3fbb2ddf	1.4623374
39	0x3f91d04e	1.1391695
40	0x401ce69c	2.4515753
41	0x402e2bee	2.7214313
42	0x3fb963be	1.4483564
43	0x400908a0	2.1411514

action_model._continuous_distribution.mu.weight f4 [44, 64]
0	0x3d3dd1a2	0.0463425
1	0xbdc54e47	-0.09634071
2	0xbded3dbf	-0.11584043
3	0xbe0f8ab8	-0.14017761
4	0xbdbed38e	-0.093176946
5	0xba219d5a	-0.000616511
6	0x3e1c286c	0.15249795
7	0xbe08c317	-0.13355671
8	0x3dfdbaae	0.12389122
9	0xbe83a8ed	-0.25714818
10	0xbe4851a8	-0.195624
11	0xbd47b23c	-0.048753962
12	0xbe566833	-0.20938186
13	0xbe8fdbc7	-0.28097364
14	0x3b8aebc7	0.0042395326
15	0xbe808b1b	-0.2510613
16	0xbed4f518	-0.41593242
17	0x3e491eba	0.19640628
18	0xbe194f47	-0.14971648
19	0xbe8f1c8b	-0.27951464
20	0x3d4762d7	0.048678245
21	0x3ea96670	0.33085966
22	0x3dd30b41	0.10304881
23	0x3f13d464	0.5774596
24	0xbe53a578	-0.2066859
25	0xbdafa1aa	-0.08575757
26	0x3e2b667c	0.16738313
27	0xbd33e071	-0.043915216
28	0xbe5a8c72	-0.21342638
29	0x3e38e79b	0.180571
30	0x3d8b641e	0.06806205
31	0x3b80924b	0.0039236895
32	0x3c58be85	0.013229017
33	0xbe8dad56	-0.27671307
34	0xbdb0397b	-0.086047135
35	0xbe7fc1db	-0.24976294
36	0xbd0cd7c8	-0.034385473
37	0x3eefcc7b	0.46835694
38	0xbde080e0	-0.10962081
39	0xbe2262f4	-0.1585806
40	0xbe6e3d8a	-0.23265663
41	0xbda75417	-0.08170336
42	0x3e456fb3	0.19280891
43	0x3d152f9b	0.036422353
44	0xbc15b453	-0.009137231
45	0xbe6ae19c	-0.22937626
46	0x3c3e81b3	0.011627602
47	0x3dfea0a6	0.12432985
48	0x3e49084e	0.19632074
49	0xbe4821d5	-0.19544156
50	0x3e0189ab	0.12650172
51	0xbdb00dea	-0.08596404
52	0xbeb9dcba	-0.36301214
53	0xbd798a32	-0.06092281
54	0xbe239f88	-0.15978825
55	0x3e2a467b	0.16628449
56	0xbe40f0e8	-0.18841898
57	0xbe151675	-0.14559348
58	0xbdf09417	-0.11746996
59	0x3caec4f9	0.021334158
60	0xbe0c1646	-0.13680372
61	0x3eadcc03	0.3394471
62	0xbe1e797f	-0.15476035
63	0xbe0cb523	-0.13740973
64	0xbeffbc0d	-0.4994816
65	0xbec259ab	-0.37959036
66	0xbda5969c	-0.08085367
67	0x3f1a69d5	0.60317737
68	0xbc896a66	-0.016774368
69	0x3df3447c	0.11878297
70	0x3e6bf9c2	0.23044494
71	0x3e3d1130	0.18463588
72	0x3d8c4ce3	0.068506025
73	0x3e686336	0.22694096
74	0xbe885a0e	-0.26631206
75	0x3e866b7f	0.26253888
76	0x3eb62719	0.35576704
77	0x3f16a1e2	0.58840764
78	0x3da8f533	0.08249893
79	0x3ec65c36	0.38742226
80	0x3ea9a410	0.33132982
81	0xbde1639d	-0.11005328
82	0xbda7ea88	-0.0819903
83	0xbf1789a4	-0.591944
84	0x3e09d418	0.13459814
85	0x3d9138bf	0.070909016
86	0x3e806df8	0.250839
87	0xbd6b2019	-0.057403658
88	0x3f0474fa	0.5174099
89	0xbe5a649e	-0.21327445
90	0x3c556864	0.013025377
91	0x3e403228	0.18769133
92	0x3d0515d4	0.03249152
93	0xbf0790b7	-0.5295519
94	0x3cf71326	0.030160498
95	0xbdee5435	-0.11637155
96	0xbe3b72a7	-0.18305455
97	0xbec6b490	-0.38809633
98	0xbe973fe2	-0.29540926
99	0xbf1b098d	-0.6056145
100	0xbe0715b4	-0.13191873
101	0xbac0f872	-0.001472248
102	0x3eac03e8	0.3359673
103	0xbe203169	-0.15643848
104	0xbd4401c6	-0.047853254
105	0x3e69fcaa	0.2285029
106	0x3d129f8c	0.035796687
107	0x3ca9cf20	0.020728648
108	0x3e38d165	0.18048628
109	0x3e89fcd0	0.26950693
110	0xbdbf313e	-0.09335564
111	0xbecfc682	-0.40581137
112	0xbe25572e	-0.16146538
113	0xbe8c9ef0	-0.2746501
114	0xbe477928	-0.19479811
115	0x3e663282	0.22480205
116	0xbf0017ae	-0.5003613
117	0xbe872385	-0.26394287
118	0x3d9ca9d9	0.07649583
119	0xbcb193d9	-0.021676945
120	0x3d6c10d8	0.05763325
121	0xbd8e4c87	-0.0694819
122	0xbd43138e	-0.04762607
123	0xbcb7f2b0	-0.02245459
124	0x3d5e7a0d	0.054315615
125	0x3d61a299	0.055086706
126	0x3dfccfb9	0.123443075
127	0xbe5bd775	-0.21468909
128	0xbee352d3	-0.44399127
129	0xbf016cf6	-0.50556886
130	0x3d60481f	0.05475628
131	0xbee442e4	-0.44582283
132	0xbc7a89c1	-0.015291632
133	0x3e6dd785	0.23226745
134	0xbde6d9ef	-0.11272036
135	0x3ea2cad2	0.31795365
136	0xbefc7103	-0.4930497
137	0xbea8785f	-0.32904336
138	0xbec9c9ef	-0.39411876
139	0x3defa82b	0.11701997
140	0xbea4c204	-0.32179272
141	0xbf0bb7ff	-0.5457763
142	0xbbc5952a	-0.0060297446
143	0x3af6a45e	0.0018817296
144	0x3df6a27f	0.120427124
145	0xbd1b64f3	-0.03793807
146	0x3cdbb499	0.026819514
147	0xbe46aefc	-0.19402689
148	0x3e9866fd	0.29766074
149	0x3df57e59	0.119869895
150	0x3e0b5433	0.13606338
151	0xbc9f859a	-0.019472886
152	0xbea75574	-0.32682383
153	0x3c9d48f3	0.019199824
154	0x3ed6beed	0.4194254
155	0x3efc548c	0.49283254
156	0x3dff3921	0.12462068
157	0xbedc09d1	-0.4297624
158	0x3f0298fe	0.510147
159	0x3ebc3b7f	0.36764142
160	0xbcf266cb	-0.029590031
161	0xbdc62ac5	-0.096761264
162	0x3df84fdc	0.12124607
163	0x3ecd1604	0.4005586
164	0x3d4ff2c7	0.05076864
165	0x3ead421e	0.33839506
166	0x3ee3d9a0	0.44501972
167	0x3ee0b6b6	0.43889397
168	0x3eb6f447	0.35733244
169	0xbcdde8d7	-0.027088566
170	0x3e5e5f18	0.21715963
171	0xbe588562	-0.21144632
172	0xbe0267d1	-0.12734915
173	0x3cbfdf8f	0.02342203
174	0x3d1f41bf	0.03888106
175	0x3ea7399b	0.32661137
176	0x3de57944	0.1120477
177	0xbe4c7800	-0.19967651
178	0x3e949439	0.29019335
179	0x3ee99ae6	0.4562599
180	0x3e487108	0.19574368
181	0xbde32482	-0.11090948
182	0xbeb23ef6	-0.3481366
183	0x3e2b7578	0.1674403
184	0x3eb82645	0.35966697
185	0xbf2021f3	-0.625518
186	0xbea6010f	-0.32422683
187	0x3f0b5009	0.54419
188	0xbe424525	-0.18971689
189	0x3e2186e7	0.15774117
190	0x3d54a1ef	0.051912244
191	0xbe859b90	-0.26095247
192	0xbde7c205	-0.11316303
193	0xbe3e528a	-0.18586174
194	0x3eb4af3b	0.3528994
195	0xbd63ad33	-0.055585098
196	0xbe17ac9d	-0.1481194
197	0xbd2ed0bd	-0.042679537
198	0x3ec3bd4c	0.3823036
199	0x3e79c6a6	0.24392185
200	0x3e0e4da6	0.13896808
201	0xbeae890c	-0.34088933
202	0xbee45c8d	-0.4460186
203	0x3d4c18c8	0.04982832
204	0xbc383a5b	-0.011244382
205	0x3d596ece	0.053084187
206	0x3ea52211	0.32252553
207	0xbcf66725	-0.03007848
208	0xbeae7084	-0.34070218
209	0xbe4c0b75	-0.19926246
210	0x3f2d061e	0.6758746
211	0x3c0d6959	0.008631074
212	0xbd04eab1	-0.03245038
213	0xbedfe47a	-0.43729
214	0x3debe99b	0.11519166
215	0x3c358782	0.011079671
216	0x3dfd0a0a	0.123554304
217	0xbcae5519	-0.021280812
218	0x3dd22060	0.10260081
219	0x3ee5d299	0.44887236
220	0xbd928cb3	-0.071557425
221	0xbe91ad68	-0.2845261
222	0xbd241701	-0.040061
223	0xba583195	-0.00082471344
224	0xbec6fe3c	-0.3886584
225	0xbe983e18	-0.29734874
226	0x3e981c0c	0.29708898
227	0x3dc111b4	0.09427205
228	0x3c17ca09	0.0092644775
229	0xbc6af7e3	-0.014341327
230	0x3de0aafd	0.109701134
231	0x3ebb9edb	0.36644635
232	0x3e9ec643	0.31010637
233	0x3c70008b	0.014648567
234	0x3dceffc7	0.101073794
235	0xbf0f6861	-0.56018645
236	0x3d2c0ed6	0.042006336
237	0x3ecd86b3	0.4014183
238	0xbd03d51b	-0.032185655
239	0x3d3c1084	0.045914188
240	0x3e16c830	0.14724803
241	0x3e3eba3b	0.18625729
242	0x3cc88fc4	0.024482615
243	0xbdd72111	-0.10504354
244	0xbe01614c	-0.12634772
245	0x3e31232b	0.17298572
246	0x3f02add3	0.51046485
247	0x3da381a1	0.07983709
248	0xbe0fd889	-0.14047445
249	0xbf17fa91	-0.5936671
250	0x3d44bff7	0.048034634
251	0x3d6dae63	0.058027636
252	0x3e4f2e92	0.20232609
253	0x3da25c21	0.079277284
254	0x3cbbbba1	0.022916617
255	0xbeb15f70	-0.34643126

action_model._continuous_distribution.mu.bias f4 [44]
0	0x3cb73ff5	0.022369364
1	0xbdc3fb21	-0.095693834
2	0x3cb745f1	0.022372218
3	0xbe5af696	-0.21383128
4	0xbdc51b17	-0.096243076
5	0xbdcc1412	-0.099647656
6	0xbcc2156b	-0.023691854
7	0x3d7d3d44	0.061826006
8	0xbdcfd245	-0.101475276
9	0xbe8c3808	-0.27386498
10	0xbe8a25a3	-0.2698184
11	0xbe716bd4	-0.2357629
12	0xbe03ca1d	-0.12870069
13	0xbe1f9fe5	-0.15588339
14	0xbdadf183	-0.0849333
15	0xbe748625	-0.23879297
16	0xbe5d9727	-0.21639691
17	0xbeb174eb	-0.34659514
18	0xbea124c9	-0.31473377
19	0xbea90115	-0.33008638
20	0xbe858b0e	-0.26082653
21	0xbdf38d8c	-0.11892232
22	0xbe716b47	-0.2357608
23	0xbea533f7	-0.3226621
24	0xbde03f6f	-0.10949599
25	0xbec64fe8	-0.3873284
26	0xbedc7b01	-0.43062595
27	0xbead48fd	-0.33844748
28	0xbe73db83	-0.23814206
29	0x3dd71fef	0.10504138
30	0xbd52e696	-0.051489435
31	0xbe703c30	-0.2346046
32	0xbf168026	-0.5878929
33	0xbe219256	-0.15778479
34	0xbea3b126	-0.3197109
35	0xbe3ed145	-0.18634517
36	0xbe877f8c	-0.26464498
37	0xbe54d4a6	-0.20784244
38	0xbe754b35	-0.2395447
39	0xbdbc4bb8	-0.0919413
40	0xbe4bcccf	-0.19902347
41	0xbe5adfc7	-0.21374427
42	0xbde909d6	-0.11378829
43	0x3e52c1ef	0.20581792

exp_avg f4 [64, 94]
0	0x38b28a1a	8.513425e-05
1	0x378f8684	1.7109567e-05
2	0x3662c456	3.3790907e-06
3	0x37cb1bfb	2.4212515e-05
4	0x38657947	5.4710803e-05
5	0x38ea473a	0.000111712565
6	0x37d073e9	2.4849507e-05
7	0x388ea395	6.801557e-05
8	0x37a1c717	1.9285404e-05
9	0x371c618a	9.321035e-06
10	0x388997dd	6.560956e-05
11	0x362acf87	2.545277e-06
12	0xb7721c28	-1.443088e-05
13	0x370a228f	8.233487e-06
14	0x36f6073f	7.332215e-06
15	0x37301d74	1.0497275e-05
16	0x3780686a	1.530741e-05
17	0xb40204a1	-1.2108877e-07
18	0x3690c7c7	4.3147916e-06
19	0x36f31511	7.244417e-06
20	0x374fca1b	1.2385218e-05
21	0x371b10d8	9.242642e-06
22	0x34c2fc20	3.631876e-07
23	0xb78f1450	-1.7056387e-05
24	0x386d514c	5.6580917e-05
25	0x35b5f463	1.3556677e-06
26	0x35cc6129	1.5227462e-06
27	0xb75b75a8	-1.3080811e-05
28	0xb6087300	-2.0332518e-06
29	0x37c64a80	2.3638131e-05
30	0xb754377a	-1.2649101e-05
31	0x382d992f	4.1389078e-05
32	0xb65c00c3	-3.2782998e-06
33	0xb767ee95	-1.3824222e-05
34	0xb73f026f	-1.1385054e-05
35	0x3462039a	2.10492e-07
36	0x377c22eb	1.50285005e-05
37	0x386a8d05	5.5921282e-05
38	0xb6e03652	-6.682044e-06
39	0xb7021317	-7.7530485e-06
40	0xb5ceece5	-1.5417141e-06
41	0x37844268	1.5766549e-05
42	0x3682c637	3.897377e-06
43	0x36b57d03	5.4087736e-06
44	0x37e97717	2.783122e-05
45	0x3919f4d5	0.00014682424
46	0xb94374bc	-0.00018640136
47	0xb88342ee	-6.2590334e-05
48	0x3905a79a	0.00012746305
49	0xb914a73b	-0.00014176678
50	0x38087e85	3.2542757e-05
51	0x3921e38a	0.00015438921
52	0x3914df7a	0.00014197631
53	0x38f41de3	0.000116403935
54	0x392f2a3b	0.00016705033
55	0x38fd7561	0.000120858436
56	0x388e0deb	6.77368e-05
57	0x383f446a	4.5601664e-05
58	0x36bc1deb	5.6063195e-06
59	0x3762bafe	1.3514187e-05
60	0xb605a8aa	-1.991672e-06
61	0x36597ae6	3.2407056e-06
62	0x378b54dd	1.6609609e-05
63	0x37b3e05b	2.1442936e-05
64	0xb6cb7bc3	-6.064279e-06
65	0x37d96327	2.5914587e-05
66	0x37a56a14	1.971893e-05
67	0x35e16c1c	1.679527e-06
68	0x37986d75	1.8170782e-05
69	0x37879ed4	1.6167214e-05
70	0xb65e24b1	-3.3101935e-06
71	0x37c248d0	2.3160508e-05
72	0x37c2a0b7	2.320144e-05
73	0x3707dc9d	8.097993e-06
74	0x37452bd5	1.17523205e-05
75	0x378ccf70	1.6785896e-05
76	0x37804715	1.529189e-05
77	0x3698f487	4.5584197e-06
78	0x371dd699	9.407894e-06
79	0x37dd2974	2.6364556e-05
80	0xb6da94f3	-6.5142463e-06
81	0x36d484f7	6.3335715e-06
82	0x37c3ada9	2.3326678e-05
83	0xb6694b8e	-3.4763684e-06
84	0x3551049e	7.7865286e-07
85	0x37b69d47	2.1769329e-05
86	0xb600c86c	-1.9190147e-06
87	0x35fbec46	1.8769722e-06
88	0x37b77f86	2.1874683e-05
89	0xb607da71	-2.0243717e-06
90	0xb4948284	-2.766211e-07
91	0x37b77f86	2.1874683e-05
92	0xb607da71	-2.0243717e-06
93	0xb4948244	-2.766193e-07
94	0x373800ae	1.0967413e-05
95	0xb8919c01	-6.943197e-05
96	0xb91a64c0	-0.00014724117
97	0x37992ee5	1.8260858e-05
98	0xb7fb1894	-2.9932977e-05
99	0xb95c5bf2	-0.00021015087
100	0xb9b7b142	-0.00035036547
101	0xb9850ff4	-0.00025379623
102	0xb907db21	-0.00012956235
103	0xb89d9713	-7.514483e-05
104	0xb8e2e81d	-0.00010819754
105	0xb97b3d9e	-0.0002396018
106	0xb8be19b5	-9.064694e-05
107	0x38772ad2	5.892927e-05
108	0xb8927242	-6.983105e-05
109	0xb9745e65	-0.00023304818
110	0x35130a5d	5.477685e-07
111	0xb6854b3c	-3.9724673e-06
112	0xb813a4b8	-3.5200937e-05
113	0xb8819b62	-6.180142e-05
114	0xb8013e5e	-3.081408e-05
115	0xb9a05178	-0.00030578277
116	0xb94a2cd1	-0.00019280917
117	0xb996fe66	-0.0002879977
118	0xb90c7fb8	-0.0001339902
119	0xb869b1fb	-5.5717286e-05
120	0xb810035b	-3.43354e-05
121	0xb8cc19f0	-9.732309e-05
122	0xb90240cf	-0.00012421909
123	0xb934d434	-0.0001724519
124	0xb97c9d59	-0.0002409121
125	0xb91df5d6	-0.00015064268
126	0xb823c309	-3.904387e-05
127	0xb8d003ea	-9.918942e-05
128	0xb8896320	-6.5511325e-05
129	0xb68f6346	-4.273289e-06
130	0xb918f688	-0.0001458769
131	0xb98ecfe1	-0.00027239232
132	0xb914ec71	-0.00014202461
133	0xb8d33ef1	-0.00010072988
134	0xb943865c	-0.00018646702
135	0xb8afcb84	-8.382558e-05
136	0xb8b1bb2e	-8.4748826e-05
137	0xb93dba82	-0.00018093924
138	0xb991e426	-0.0002782654
139	0xba7e7041	-0.0009706058
140	0xb8a86e16	-8.031369e-05
141	0xba2e7c49	-0.0006656093
142	0xba46571c	-0.0007566081
143	0x39ce5bc8	0.00039359764
144	0xba05b9c5	-0.0005101229
145	0xba540a53	-0.00080886966
146	0xba50922a	-0.00079563505
147	0xba5036b9	-0.00079427246
148	0xba5546a9	-0.00081358344
149	0xba747925	-0.0009325913
150	0xba3e61c9	-0.0007262496
151	0xba79d73e	-0.000953067
152	0xba26177f	-0.00063358987
153	0xba573552	-0.00082095445
154	0xba234a4f	-0.00062290294
155	0xb7f2c23c	-2.8939096e-05
156	0xb8be1777	-9.064277e-05
157	0xb8eb99ab	-0.00011234296
158	0xb8507766	-4.9702263e-05
159	0xb8928c53	-6.98796e-05
160	0xb8e7bed8	-0.00011050486
161	0xb8375cba	-4.371696e-05
162	0xb89f19a8	-7.58649e-05
163	0xb8e75941	-0.00011031563
164	0xb75bc4d2	-1.3099243e-05
165	0xb8df4f6c	-0.00010648262
166	0xb8ecf929	-0.000112997666
167	0xb7f46ba4	-2.913719e-05
168	0xb8bdad20	-9.044469e-05
169	0xb907d182	-0.00012952651
170	0xb8624fc0	-5.3956872e-05
171	0xb889a028	-6.5625005e-05
172	0xb8d38910	-0.00010086794
173	0xb6113c73	-2.164187e-06
174	0xb8f63e26	-0.0001174177
175	0xb90acce6	-0.00013237036
176	0xb8b9631a	-8.8399465e-05
177	0xb802c9dd	-3.1182415e-05
178	0xb8b88bde	-8.799856e-05
179	0x3602b261	1.947534e-06
180	0xb8fedd9b	-0.00012152941
181	0xb8ef1ec9	-0.00011402142
182	0xb8bae8ee	-8.912558e-05
183	0xb7ff7c5f	-3.0456284e-05
184	0xb8b56f01	-8.651429e-05
185	0xb8bae8ee	-8.912558e-05
186	0xb7ff7c5f	-3.0456284e-05
187	0xb8b56f01	-8.651429e-05
188	0xb7834588	-1.5648795e-05
189	0x398c8e1c	0.0002680876
190	0x3780b259	1.5341839e-05
191	0x37defef5	2.6583186e-05
192	0x392032bc	0.00015277689
193	0x38857988	6.364571e-05
194	0x394fe50f	0.0001982639
195	0x393e7ee2	0.0001816708
196	0x39120016	0.00013923677
197	0x38a4e015	7.861868e-05
198	0x38d04eb1	9.93287e-05
199	0x390a20bb	0.00013172899
200	0x38e84c82	0.00011076873
201	0x39816f01	0.00024687502
202	0xb78bb993	-1.6656506e-05
203	0x37ed104d	2.8260192e-05
204	0x36f6f64d	7.3600445e-06
205	0xb6c339a5	-5.8181636e-06
206	0x3782c375	1.5588224e-05
207	0x385364ee	5.040032e-05
208	0x39a4f013	0.00031459387
209	0x38cf2d72	9.878994e-05
210	0xb8b729e7	-8.733925e-05
211	0xb70004aa	-7.6304805e-06
212	0x38304d3d	4.2033604e-05
213	0x3839faa7	4.4340875e-05
214	0xb78395e9	-1.5686224e-05
215	0x388795e0	6.465218e-05
216	0x39e6760e	0.00043956976
217	0x38d4e67e	0.0001015188
218	0x3906b8ed	0.00012848126
219	0x358dd09f	1.0566035e-06
220	0xb6a970e9	-5.049737e-06
221	0x37a5116f	1.9677651e-05
222	0x394f11b2	0.0001974765
223	0x39849058	0.00025284546
224	0xb86b209d	-5.605874e-05
225	0xb6f43cc7	-7.278842e-06
226	0x3817c599	3.6185233e-05
227	0x381de9e3	3.764954e-05
228	0x3966166b	0.0002194286
229	0x399210e5	0.00027859877
230	0x38ba6af5	8.8890934e-05
231	0xb8b48ced	-8.609318e-05
232	0xb8ca6c78	-9.6523145e-05
233	0x3a14da27	0.0005678259
234	0x3a0e93ce	0.0005438895
235	0xb94950f0	-0.00019199005
236	0x39c6cc9d	0.00037917952
237	0x399adc9f	0.00029537544
238	0x39981125	0.00029004473
239	0x39563b78	0.00020430784
240	0x390c4a64	0.00013379153
241	0x396fdab9	0.00022874297
242	0x397c387d	0.00024053636
243	0x39cee00e	0.00039458316
244	0x398dcb01	0.00027044865
245	0x39e0603e	0.00042796315
246	0x39bf8968	0.00036532735
247	0x39eed957	0.00045556828
248	0x3a0cb685	0.00053677737
249	0x38816f47	6.171926e-05
250	0xb5961777	-1.11827e-06
251	0x37ee0932	2.8376093e-05
252	0x3879bd4b	5.954252e-05
253	0x358e1091	1.0584646e-06
254	0x379be0e1	1.8582157e-05
255	0x3822d6b7	3.882378e-05

exp_avg_sq f4 [64, 94]
0	0x335da720	5.160757e-08
1	0x334efdc9	4.819393e-08
2	0x32fff3cd	2.9796775e-08
3	0x33a326c3	7.59733e-08
4	0x3399c9e2	7.16134e-08
5	0x33cbb333	9.48552e-08
6	0x33c208aa	9.035405e-08
7	0x33b75d8c	8.5386176e-08
8	0x324b5195	1.1834705e-08
9	0x331ccb1e	3.6506314e-08
10	0x330f44af	3.335725e-08
11	0x329fea8b	1.8616694e-08
12	0x3283fc1f	1.5365059e-08
13	0x327376ba	1.4171457e-08
14	0x3295d1a9	1.7441225e-08
15	0x329817db	1.7705977e-08
16	0x320b7261	8.116872e-09
17	0x3218ca11	8.893509e-09
18	0x30ff3511	1.8568774e-09
19	0x31fb4f94	7.3141084e-09
20	0x332343a1	3.8012903e-08
21	0x335dae58	5.1614137e-08
22	0x32b41266	2.0963125e-08
23	0x32c01108	2.2359487e-08
24	0x3313ffa4	3.445861e-08
25	0x31ae24ec	5.068264e-09
26	0x3143a371	2.846914e-09
27	0x327ffff4	1.49011505e-08
28	0x32ddf36e	2.5838485e-08
29	0x32ebb76c	2.7441011e-08
30	0x32d7de19	2.5130293e-08
31	0x33475993	4.6414765e-08
32	0x32b62eba	2.1208837e-08
33	0x326efd82	1.3911064e-08
34	0x320fed14	8.377601e-09
35	0x32ad41b6	2.0169733e-08
36	0x31c4aaa7	5.7237517e-09
37	0x33390797	4.3080572e-08
38	0x3318a643	3.5541472e-08
39	0x32326921	1.0384867e-08
40	0x32e6bcff	2.686147e-08
41	0x32c6d46b	2.314683e-08
42	0x3228625b	9.8012505e-09
43	0x32ae64ce	2.0302107e-08
44	0x35328993	6.6510364e-07
45	0x35445eb2	7.315349e-07
46	0x3549b02f	7.5134716e-07
47	0x350e726e	5.306564e-07
48	0x34f6c40b	4.596371e-07
49	0x351711b2	5.6277634e-07
50	0x343c861e	1.7557656e-07
51	0x3509489e	5.114215e-07
52	0x34bb225f	3.4856473e-07
53	0x34da1d0c	4.06268e-07
54	0x3485be27	2.4911535e-07
55	0x34a85443	3.1353747e-07
56	0x3469d700	2.1778033e-07
57	0x34848b62	2.468833e-07
58	0x345f1c13	2.0778707e-07
59	0x3426873f	1.5509157e-07
60	0x346e930b	2.2218971e-07
61	0x310bf870	2.0368383e-09
62	0x32231ee1	9.49487e-09
63	0x32297c72	9.86539e-09
64	0x31f33344	7.078059e-09
65	0x319230f2	4.2547237e-09
66	0x31e707b5	6.723861e-09
67	0x3196c875	4.388364e-09
68	0x31f1409c	7.0213684e-09
69	0x3206a367	7.83698e-09
70	0x32135ef5	8.578117e-09
71	0x314584cf	2.8742766e-09
72	0x31a51d5e	4.8054707e-09
73	0x31d38585	6.1560876e-09
74	0x31ab72cc	4.989806e-09
75	0x31cfd05b	6.04818e-09
76	0x3223a6cd	9.525775e-09
77	0x30dc2067	1.6016316e-09
78	0x3190587e	4.201012e-09
79	0x320d2891	8.216504e-09
80	0x3145a19f	2.8759144e-09
81	0x31a3a294	4.7624074e-09
82	0x32252ceb	9.614477e-09
83	0x30b4c461	1.3152538e-09
84	0x3189b8d7	4.0082386e-09
85	0x322bc993	9.999343e-09
86	0x30bc0e4e	1.3682866e-09
87	0x314d9738	2.9917384e-09
88	0x3213d769	8.605505e-09
89	0x312a86d8	2.4814906e-09
90	0x319344af	4.2860715e-09
91	0x3213d769	8.605505e-09
92	0x312a86d8	2.4814906e-09
93	0x319344ac	4.28607e-09
94	0x34076cd8	1.2612452e-07
95	0x34a44c75	3.060301e-07
96	0x342a28a6	1.5847272e-07
97	0x341a0bf3	1.4346715e-07
98	0x3477f12d	2.3091407e-07
99	0x3494a6a5	2.7688398e-07
100	0x34b4bc87	3.3664784e-07
101	0x34b2c543	3.329861e-07
102	0x34419840	1.8029914e-07
103	0x340abda2	1.292124e-07
104	0x33bbff2c	8.7542816e-08
105	0x33c74460	9.279097e-08
106	0x33ea5ba9	1.0913147e-07
107	0x34464c8f	1.8468039e-07
108	0x33cf2ee3	9.647717e-08
109	0x33d60aa1	9.967085e-08
110	0x3351300c	4.8705303e-08
111	0x329faf81	1.8589846e-08
112	0x325c3278	1.2817161e-08
113	0x33c0c209	8.9759915e-08
114	0x34636071	2.1176108e-07
115	0x34830c9f	2.4409835e-07
116	0x342ab410	1.589799e-07
117	0x33ec25af	1.0996461e-07
118	0x33f06fef	1.11962315e-07
119	0x3301b84a	3.0202763e-08
120	0x32ad4c3a	2.0174515e-08
121	0x333dc436	4.4183444e-08
122	0x342c8452	1.6066886e-07
123	0x3413b32d	1.3755626e-07
124	0x3431c1d0	1.6554918e-07
125	0x33ad6af3	8.075394e-08
126	0x33506f5f	4.8530065e-08
127	0x3390ada4	6.7371076e-08
128	0x33b6511d	8.48979e-08
129	0x33fd26cf	1.178829e-07
130	0x333eff02	4.446975e-08
131	0x33e45fa4	1.0634474e-07
132	0x33cf208a	9.6451075e-08
133	0x34080022	1.2666035e-07
134	0x34151bdb	1.388684e-07
135	0x34066ced	1.251935e-07
136	0x3443d709	1.823902e-07
137	0x3449fd30	1.8811693e-07
138	0x36460c7d	2.9511568e-06
139	0x36917476	4.3348946e-06
140	0x367a2e5a	3.7279883e-06
141	0x3636e5d3	2.7253889e-06
142	0x364a56f8	3.0150968e-06
143	0x36357da8	2.7044243e-06
144	0x35eef084	1.7802381e-06
145	0x36330ea5	2.6681603e-06
146	0x3624519f	2.4485414e-06
147	0x36393d66	2.7602887e-06
148	0x362c8084	2.5704803e-06
149	0x36462194	2.9523844e-06
150	0x362c7bd2	2.570207e-06
151	0x3641c0f4	2.8871555e-06
152	0x3629a33a	2.5277973e-06
153	0x362f0a67	2.6083087e-06
154	0x362e9748	2.6016078e-06
155	0x3300f480	3.0024694e-08
156	0x3333ce3e	4.186426e-08
157	0x335d0ee7	5.1469126e-08
158	0x3319781d	3.573233e-08
159	0x3315e684	3.490142e-08
160	0x334adcd8	4.7232646e-08
161	0x32fe94eb	2.9637212e-08
162	0x332f242a	4.0778254e-08
163	0x3364b0eb	5.3246293e-08
164	0x33148d9b	3.4587725e-08
165	0x33184688	3.5454406e-08
166	0x3354f720	4.9584855e-08
167	0x32e50b81	2.666434e-08
168	0x334277ea	4.5278206e-08
169	0x33749b2e	5.6951812e-08
170	0x331986fe	3.5745863e-08
171	0x331926fe	3.565855e-08
172	0x3354f146	4.9579533e-08
173	0x32ee6b4b	2.7755638e-08
174	0x3340523e	4.4778282e-08
175	0x336f33ad	5.5693523e-08
176	0x331c8268	3.6440184e-08
177	0x332071a0	3.7356244e-08
178	0x33516dcb	4.876146e-08
179	0x330ad815	3.2327154e-08
180	0x332c377e	4.009734e-08
181	0x33581959	5.0314473e-08
182	0x330b17a0	3.2384946e-08
183	0x332ebd64	4.068478e-08
184	0x33578b58	5.018532e-08
185	0x330b17a0	3.2384946e-08
186	0x332ebd64	4.068478e-08
187	0x33578b56	5.0185314e-08
188	0x32d62302	2.4928799e-08
189	0x33fcdf81	1.17753196e-07
190	0x330cd84a	3.2793004e-08
191	0x32aa872c	1.9852074e-08
192	0x33a21e0d	7.549179e-08
193	0x33e83bd3	1.0814224e-07
194	0x34042bb5	1.2309359e-07
195	0x34075112	1.2602348e-07
196	0x333bed7b	4.3755318e-08
197	0x3243c680	1.13956276e-08
198	0x32a908d2	1.96782e-08
199	0x331adb89	3.6055585e-08
200	0x3305e556	3.1175055e-08
201	0x339e0eca	7.3601385e-08
202	0x32393851	1.0781222e-08
203	0x32b0d284	2.0584828e-08
204	0x32386e71	1.0735321e-08
205	0x3250ab76	1.2146179e-08
206	0x3269cc53	1.3608843e-08
207	0x3342a348	4.531765e-08
208	0x341f0aba	1.4811931e-07
209	0x34124951	1.3623982e-07
210	0x33671d1e	5.381036e-08
211	0x32bb8217	2.1828823e-08
212	0x3283b158	1.5331054e-08
213	0x324c2918	1.18837065e-08
214	0x32863b49	1.5626613e-08
215	0x3332f84f	4.166969e-08
216	0x33e0c9d6	1.04675266e-07
217	0x3385838e	6.217225e-08
218	0x334a0424	4.7035556e-08
219	0x3247415f	1.1598188e-08
220	0x323c808a	1.0972267e-08
221	0x330e7187	3.3165204e-08
222	0x3313453c	3.4289073e-08
223	0x33943f8c	6.903346e-08
224	0x32ae8c92	2.032019e-08
225	0x330fb313	3.345765e-08
226	0x32df872c	2.6022086e-08
227	0x33e3fd99	1.06166404e-07
228	0x33d793fb	1.0038635e-07
229	0x339b9392	7.244593e-08
230	0x33ce3ae8	9.6033375e-08
231	0x3441c111	1.8044763e-07
232	0x3574d664	9.120906e-07
233	0x35f32abb	1.8117347e-06
234	0x35bcd847	1.4070037e-06
235	0x35724676	9.025456e-07
236	0x3596e7c0	1.1243319e-06
237	0x35830c05	9.763759e-07
238	0x353829fe	6.860645e-07
239	0x35410e2e	7.1918737e-07
240	0x355edf03	8.302597e-07
241	0x355d1505	8.2359503e-07
242	0x3598a29f	1.1372211e-06
243	0x35904def	1.0751518e-06
244	0x358ad139	1.0342693e-06
245	0x3577fce3	9.238267e-07
246	0x356906f1	8.6809365e-07
247	0x3549b8dc	7.514734e-07
248	0x353d04c9	7.041495e-07
249	0x32b63fb3	2.1216556e-08
250	0x31c88581	5.8359437e-09
251	0x326e570a	1.3873214e-08
252	0x32b18599	2.0666265e-08
253	0x31f4c8bd	7.124156e-09
254	0x3289932a	1.6015822e-08
255	0x32a54c32	1.9243178e-08
