results/076targetrun/Dynamic Table/Dynamic Table-8499943.pt (torch, 408327 bytes, 48 tensors)

network_body._body_endoder.seq_layers.0.weight f4 [64, 95]
0	0xbdb5296a	-0.0884579
1	0xbd80a4fa	-0.06281467
2	0x3da77f21	0.08178545
3	0x3e0e1a28	0.13877165
4	0x3d231274	0.03981252
5	0xbd9ede86	-0.07757287
6	0xbc2cb692	-0.010541575
7	0xbe0c7464	-0.13716274
8	0xbe99f9a6	-0.3007328
9	0xbe7e5154	-0.24835712
10	0x3decdbbb	0.11565348
11	0xbdc22509	-0.0947972
12	0x3e8c77d2	0.27435166
13	0x3d16b6c4	0.036795393
14	0xbe887fbb	-0.2665995
15	0xbc2b51ec	-0.010456543
16	0x3cb8d3fc	0.02256202
17	0xbe823e75	-0.25438276
18	0xbcd5ef42	-0.026115064
19	0xbe24c227	-0.16089688
20	0xbdbfaeb3	-0.09359493
21	0x3e84414f	0.25831077
22	0xbd4691c0	-0.04847884
23	0xbd7a35d1	-0.06108648
24	0xbdb12962	-0.08650471
25	0x3dd96ae2	0.106160894
26	0xbe51ac55	-0.20475896
27	0xbdc67c3f	-0.09691667
28	0xbdd1d557	-0.102457695
29	0x3b70c949	0.003674107
30	0xbd966218	-0.07342929
31	0xbe30eed4	-0.17278606
32	0xbe31a663	-0.17348628
33	0x3a551fe3	0.00081300567
34	0xbde20bdd	-0.11037419
35	0xbcc840f4	-0.024445035
36	0x3dcaf2f1	0.09909619
37	0x3da57934	0.08079758
38	0xbe83d188	-0.25745797
39	0x3c25f2a1	0.010128648
40	0xbe7c3cca	-0.24632564
41	0xbe7b23c3	-0.24525361
42	0xbde8954c	-0.11356601
43	0x3e27c3ea	0.16383329
44	0x3e77c7e5	0.24197347
45	0x3ab6aa61	0.0013936275
46	0xbcedc205	-0.02902318
47	0xbeb409e2	-0.3516379
48	0xbcf41986	-0.029797327
49	0xbec494fe	-0.38394922
50	0xbdee6fdd	-0.1164243
51	0x3e150725	0.14553507
52	0xbdb27737	-0.08714145
53	0xbe2db445	-0.16963299
54	0x3e213124	0.15741402
55	0x3e11ac1e	0.14225814
56	0x3db63bf1	0.08898152
57	0xbe14c2c5	-0.14527424
58	0x3d14a273	0.036287736
59	0x3bcb23bc	0.006199328
60	0x3e63c353	0.22242479
61	0x3c9a983c	0.01887142
62	0x3e8ea811	0.278626
63	0xbdc1a2ec	-0.09454903
64	0xbdcd9479	-0.100380845
65	0xbc710189	-0.014709839
66	0x3d052b5f	0.032512065
67	0xbdee8aa5	-0.11647538
68	0xbe455b38	-0.19273078
69	0xbcbfd488	-0.023416772
70	0xbdcdfaef	-0.100576274
71	0x3e1ba266	0.15198669
72	0xbe1a2c12	-0.15055874
73	0xbdc28281	-0.09497548
74	0x3d962e89	0.073330946
75	0xbdc85c25	-0.097832
76	0x3e295756	0.16537222
77	0x3e5b8b9a	0.21439973
78	0xbe5b1b6b	-0.21397178
79	0xbe234ef6	-0.1594809
80	0x3d9ae88d	0.07563887
81	0xbe16baa8	-0.14719641
82	0x3cbbbe33	0.022917842
83	0xbba72a6a	-0.0051014917
84	0x3b92364c	0.004462039
85	0x3e2934bc	0.16524023
86	0xbe9273a8	-0.28603864
87	0x3e82013b	0.25391564
88	0x3d4eec8e	0.050518565
89	0xbe4985df	-0.19679974
90	0xbdea82d1	-0.114507325
91	0x3e132e1c	0.14373058
92	0xbe0b11a0	-0.13580942
93	0x3c4488bf	0.011995493
94	0xbe18f102	-0.14935687
95	0x3da60e74	0.081082255
96	0xbe6c561f	-0.23079728
97	0x3df94a24	0.12172344
98	0x3e5ef6ba	0.21773806
99	0x3e0f8b32	0.14017943
100	0x3d602446	0.054722093
101	0x3d936fdd	0.071990706
102	0x3d27b04b	0.04093961
103	0x3e146bda	0.14494267
104	0xbe254233	-0.16138534
105	0x3d42fc34	0.0476038
106	0x3c162539	0.009164148
107	0x3e8af714	0.2714163
108	0xbe027354	-0.12739307
109	0xbe101574	-0.14070684
110	0x3ddb9d97	0.10723417
111	0xbe05dbfc	-0.13072199
112	0xbe3b7399	-0.18305816
113	0x3e3694a9	0.17830147
114	0x3d3ab0aa	0.045578636
115	0xbe034b2e	-0.12821648
116	0xbd951a74	-0.07280436
117	0x3c0be2af	0.008537932
118	0x3d4378fd	0.047722805
119	0x3d70fdb6	0.058835708
120	0x3dd579d6	0.10423629
121	0x3e4b44d8	0.1985048
122	0x3e33da41	0.17563726
123	0x3d2c3e82	0.0420518
124	0xbe5c60a6	-0.21521243
125	0xbdbaf114	-0.09128013
126	0xbd3f9828	-0.046775967
127	0xbe8d53cf	-0.27603003
128	0xbcf4ab34	-0.029866792
129	0xbd246c18	-0.04014215
130	0xbda4d5fa	-0.08048625
131	0xbd1ef44d	-0.038807202
132	0xbeaa137c	-0.3321799
133	0x3d557820	0.052116513
134	0xbd82f3c5	-0.063941516
135	0xbc8e2f49	-0.017356532
136	0xbe492d91	-0.19646288
137	0xbdedcb42	-0.11611034
138	0x3bff542b	0.007792016
139	0xbd657f1e	-0.05602943
140	0x3eafc40f	0.34329268
141	0x3e82845d	0.2549161
142	0xbc8d83ca	-0.017274756
143	0xbe0e5db6	-0.13902935
144	0x3c5e0692	0.013551371
145	0x3d91b837	0.07115214
146	0x3e0f7fec	0.14013642
147	0xbe1117c3	-0.1416922
148	0xbef76235	-0.48317114
149	0xbe4a063e	-0.19728944
150	0xbe8b7007	-0.27233908
151	0x3c4f1fa9	0.012641826
152	0xbd27e63a	-0.040991046
153	0xba6ba0bc	-0.000898849
154	0xbd9ebe63	-0.07751157
155	0x3e6df0c5	0.23236378
156	0xbe3f7001	-0.1869507
157	0x3dde013b	0.108400784
158	0x3cba9481	0.02277589
159	0xbce84072	-0.028351042
160	0x3e1cbaa0	0.15305567
161	0x3e1d6f5e	0.15374514
162	0xbe5859b9	-0.21127976
163	0x3dd83790	0.10557473
164	0xbd8fe72e	-0.07026516
165	0xbd22ea7f	-0.039774414
166	0x3cf6d585	0.03013111
167	0x3ecfa6e6	0.4055702
168	0xbd304e15	-0.043043215
169	0x3e1be4a0	0.15223932
170	0xbd029e4f	-0.031889256
171	0x3e03a465	0.1285568
172	0xbd26e337	-0.040744033
173	0x3e30681f	0.17227219
174	0x3d130cb0	0.03590077
175	0x3e4addb2	0.19811133
176	0xbc557c84	-0.013030175
177	0x3d5a39ba	0.05327771
178	0xbcd0f85a	-0.025509048
179	0xbd1fc341	-0.039004568
180	0xbe396371	-0.1810434
181	0xbc222ffb	-0.009899135
182	0x3df042c7	0.11731487
183	0x3e0546c0	0.1301527
184	0xbdc19950	-0.0945307
185	0x3de673f5	0.11252586
186	0x3da75be5	0.08171824
187	0xbe190748	-0.14944184
188	0x3d511f70	0.05105537
189	0xbb9f9cce	-0.0048709875
190	0x3dac05ef	0.08399569
191	0xbdffee84	-0.12496665
192	0xbe213fbe	-0.15746972
193	0x3e44f5ef	0.19234441
194	0x3e461b4b	0.19346349
195	0xbdffa748	-0.12483078
196	0xbee62b50	-0.4495492
197	0xbe51c391	-0.20484759
198	0x3e2f881b	0.17141764
199	0x3d541870	0.051781118
200	0xbe24cefc	-0.16094583
201	0xbd126c42	-0.035747774
202	0xbe464cc6	-0.19365224
203	0xbe213ba1	-0.15745403
204	0xbd0227d9	-0.031776283
205	0xbc31911d	-0.01083782
206	0xbdb17db1	-0.08666552
207	0xbcdf7632	-0.02727804
208	0xbe53ff0c	-0.20702761
209	0xbd6ea428	-0.05826202
210	0xbe9c179b	-0.3048676
211	0x3b3327aa	0.0027336874
212	0x3d47a569	0.04874173
213	0xbde20e39	-0.11037869
214	0x3a4b663d	0.000775907
215	0xbe28ae2f	-0.16472696
216	0xbeebd08b	-0.46057543
217	0xbd5cb2d1	-0.05388147
218	0xbe58bc12	-0.21165493
219	0x3d91854c	0.071055025
220	0xbe107cdd	-0.14110132
221	0xbdb20870	-0.086930156
222	0x3e9a4425	0.30130115
223	0xbe3f5357	-0.18684135
224	0xbe4884ca	-0.19581905
225	0xbebce698	-0.3689468
226	0xbd90f3e4	-0.070777684
227	0xbe042093	-0.12903051
228	0x3e04fa9a	0.12986222
229	0x3cddf414	0.027093925
230	0x3e3cf841	0.18454076
231	0xbf0ab776	-0.5418619
232	0x3e26ff63	0.1630836
233	0x3d5e0549	0.05420426
234	0xbd2e764d	-0.04259329
235	0x3d765ee6	0.060149096
236	0x3ddfca3c	0.10927245
237	0x3df10926	0.11769323
238	0x3df4de77	0.11956494
239	0x3d3ed854	0.046593025
240	0x3d554f4a	0.05207757
241	0x3dc6da70	0.097096324
242	0xbe6daac3	-0.23209672
243	0xbe30792c	-0.17233723
244	0xbed2179d	-0.4103364
245	0xbe7cf174	-0.24701482
246	0x3c759815	0.014989872
247	0x3cac4749	0.021030085
248	0xbd52c2f3	-0.05145545
249	0x3e1359f9	0.1438979
250	0x3e07812a	0.13232866
251	0x3d689fc0	0.056792974
252	0xbc76f5d3	-0.0150732575
253	0x3d171449	0.03688458
254	0xbe889a3b	-0.26680169
255	0xbb973ba5	-0.0046152645

network_body._body_endoder.seq_layers.0.bias f4 [64]
0	0xbbef08b0	-0.007294737
1	0x3d47ae7d	0.04875039
2	0x3c8c7a1c	0.01714807
3	0xbc7a13e5	-0.015263532
4	0x3caa1f4a	0.020766873
5	0xbd7d0ec7	-0.06178167
6	0xbc6a7a4f	-0.014311387
7	0x3ccda439	0.025102722
8	0xbc199b4a	-0.009375403
9	0xbd39dc9d	-0.04537641
10	0x3d343f1a	0.04400549
11	0xbd4f3462	-0.050587066
12	0xbd159aca	-0.03652457
13	0x3ccd673b	0.025073638
14	0xbd67f6fc	-0.056632027
15	0x3c0d9fd9	0.008644068
16	0x3cd349ea	0.02579208
17	0xbc984598	-0.018587872
18	0x3c42dbe4	0.011893246
19	0xbb820949	-0.003968392
20	0xbca24308	-0.019807354
21	0xb9d92212	-0.0004141485
22	0xbd053213	-0.032518458
23	0xbc6c5840	-0.014425337
24	0x3aa02014	0.0012216591
25	0xba153d6e	-0.00056930527
26	0xbd687252	-0.05674965
27	0x3c691327	0.014225758
28	0x3c984866	0.01858921
29	0xbd206629	-0.039159928
30	0xbc5244b0	-0.012833759
31	0x3d5a49da	0.053293087
32	0x3d10db42	0.03536535
33	0xba85dd4c	-0.0010213046
34	0x3c38802a	0.011261025
35	0xbd1e6540	-0.03867078
36	0xbd04ec70	-0.032452047
37	0xbdc1d04b	-0.09463557
38	0x3c8ad062	0.016945068
39	0x3b42b698	0.0029710885
40	0x3c6caa8e	0.01444496
41	0xbb92652b	-0.0044676266
42	0x3d0b2548	0.0339711
43	0xbb1416d3	-0.0022596612
44	0xbca2f9bd	-0.019894475
45	0xbd29754f	-0.04137164
46	0x3c9f6924	0.019459315
47	0x3b64e816	0.0034928373
48	0x3b3e303d	0.0029020451
49	0xbce4e660	-0.027941883
50	0xbd871e0a	-0.06597526
51	0xbd2ebb11	-0.04265887
52	0x3c48f420	0.012265235
53	0xba3a1df7	-0.0007099802
54	0xbda6be1a	-0.08141728
55	0x3d26d06f	0.04072612
56	0x3cb6ff79	0.022338616
57	0x3d35c6dd	0.044379104
58	0xbd8f465b	-0.06995841
59	0x3c9f7f41	0.01946986
60	0xbd744ded	-0.05964463
61	0x3d84e7ab	0.064895
62	0xbdd08889	-0.10182292
63	0xbc7d989c	-0.015478279

network_body._body_endoder.seq_layers.2.weight f4 [64, 64]
0	0xbe4f8a72	-0.20267656
1	0xbea132bc	-0.3148402
2	0xbe58c44f	-0.21168636
3	0xbdc8cdb0	-0.09804857
4	0xbe12266f	-0.14272474
5	0xbed4ebc5	-0.41586128
6	0xbdf58dc1	-0.11989928
7	0xbd8861cb	-0.066592775
8	0x3e0218a5	0.12704714
9	0x3ece1b8a	0.40255386
10	0x3e05dcf3	0.13072567
11	0x3cba64ca	0.022753138
12	0xbe9da4a3	-0.3078967
13	0x3d9fde86	0.07806115
14	0xbe9cec2d	-0.30648938
15	0x3e0e3e0b	0.13890855
16	0x3e35c61d	0.17751355
17	0x3d4fd686	0.050741695
18	0xbe3a3915	-0.18185838
19	0xbe962b21	-0.2932978
20	0x3de8aa69	0.11360628
21	0xbe614e6b	-0.2200257
22	0x3d983944	0.074327976
23	0xbe70bada	-0.23508778
24	0x3df6b8a4	0.12046936
25	0xbd7ba323	-0.061434876
26	0xbda11755	-0.07865778
27	0x3cfd2794	0.030902661
28	0x3e4f1c9e	0.2022576
29	0xbe61f9cb	-0.22067945
30	0x3de0e349	0.10980851
31	0xbca33d4c	-0.01992669
32	0xbe7ebd46	-0.2487689
33	0x3e8f3789	0.27972057
34	0x3c12a79e	0.008951096
35	0x3e7d96d5	0.24764569
36	0x3e0f8184	0.1401425
37	0x3ded5c0b	0.115898214
38	0xbe3d584a	-0.18490711
39	0x3e0a31c7	0.13495551
40	0xbd862ea4	-0.06551865
41	0x3e8ebb51	0.27877286
42	0x3e008d8c	0.12553996
43	0x3d917fb6	0.07104437
44	0xbe1ca2b3	-0.1529644
45	0x3d9b1d18	0.075739086
46	0xbe839b01	-0.25704196
47	0xbe0ff769	-0.14059223
48	0xbdac8bd1	-0.08425105
49	0x3d1a97ba	0.037742354
50	0xbc75887c	-0.014986154
51	0xbd069700	-0.03285885
52	0xbbc883e3	-0.0061192377
53	0xbd884f39	-0.066557355
54	0xbe9efd02	-0.31052405
55	0xbe57d12c	-0.21075886
56	0xbd81a459	-0.06330175
57	0x3d1cdb43	0.03829504
58	0xbded3aaa	-0.11583455
59	0x3dc87e7c	0.0978975
60	0x3dcce4c6	0.100045726
61	0x3dd4a620	0.10383248
62	0xbdf11e27	-0.11773329
63	0xbdddcfef	-0.10830676
64	0x3d2f3bd0	0.04278165
65	0xbe310fc3	-0.17291169
66	0xbea53af9	-0.32271555
67	0xbdf49ed0	-0.119443536
68	0xbddd3923	-0.108019136
69	0x3e225a51	0.15854765
70	0xbd032e18	-0.03202638
71	0x3e68e499	0.22743453
72	0x3cfaa0eb	0.03059431
73	0xbdb0766d	-0.08616338
74	0xbee9d210	-0.45668077
75	0x3de7a6c3	0.11311104
76	0xbdaeef2f	-0.085417144
77	0x3e10b71b	0.14132349
78	0xbd4ae47e	-0.049534313
79	0x3d7785f7	0.060430493
80	0xbdae75c6	-0.08518557
81	0x3db87597	0.090068035
82	0x3ddb74a9	0.107156105
83	0x3db35d84	0.08758071
84	0xbe638c18	-0.2222141
85	0xbd6ba589	-0.057530914
86	0xbddfdc64	-0.10930708
87	0xbdcb6fb1	-0.09933413
88	0x3ca725e4	0.02040381
89	0x3e4e587e	0.20150945
90	0x3bf613f7	0.007509704
91	0xbe69df9e	-0.2283921
92	0xbd7d33a3	-0.061816823
93	0x3e0b9b60	0.1363349
94	0x3d3642bc	0.044497237
95	0xbec6b584	-0.3881036
96	0x3e1caa17	0.15299259
97	0xbe0bbb61	-0.13645698
98	0x3bccce55	0.0062501826
99	0xbde964ad	-0.113961555
100	0x3df4630f	0.119329564
101	0xbd963fe6	-0.073364064
102	0x3ce18ae1	0.027532043
103	0xbccc983a	-0.024974931
104	0xbe1183ba	-0.14210406
105	0xbe803fe0	-0.25048733
106	0x3e9a5403	0.3014222
107	0x3e3d01a6	0.1845766
108	0xbd1ebb15	-0.038752634
109	0x3dccde45	0.10003332
110	0xbdd81857	-0.105515175
111	0xbcf0a67f	-0.029376267
112	0x3d75b363	0.05998553
113	0xbd21b725	-0.0394813
114	0xbda6e284	-0.08148673
115	0x3e530c71	0.20610215
116	0x3dde1320	0.108434916
117	0x3dcdc450	0.10047209
118	0xbdc78e98	-0.097439945
119	0x3dff6f80	0.12472439
120	0xbd1085f0	-0.035283983
121	0xbd956fee	-0.072967395
122	0x3e16865c	0.14699692
123	0x3e31bc10	0.17356896
124	0x3de708c7	0.11280971
125	0xbd524f53	-0.05134518
126	0x3e43debf	0.1912794
127	0xbdc56cb7	-0.09639876
128	0x3c8549b9	0.016270505
129	0xbe464411	-0.19361903
130	0xbe9a5f9c	-0.3015107
131	0xbdfe75b5	-0.124247946
132	0xbe357338	-0.17719734
133	0xbf06fe09	-0.52731377
134	0x3e1cb50a	0.15303436
135	0x3e261bc3	0.16221528
136	0x3ce2b310	0.027673274
137	0xbc747fd9	-0.014923059
138	0x3d937d2c	0.07201609
139	0xbd5db16b	-0.054124277
140	0x3d3132d0	0.04326135
141	0xbeeb8cc8	-0.46005845
142	0xbccd932f	-0.025094597
143	0x3d9247b6	0.07142584
144	0xbc1608b0	-0.009157345
145	0xbe07fdf0	-0.13280463
146	0x3ade25c6	0.0016948513
147	0xbc38376e	-0.011243684
148	0xbc2ef61c	-0.010678794
149	0xbed697f0	-0.41912794
150	0x3da50d16	0.080591366
151	0xbe8854e7	-0.26627275
152	0x3e112ad4	0.14176494
153	0xbdbcbaf7	-0.09215348
154	0x3dc828ba	0.09773393
155	0x3e4dfb32	0.20115355
156	0x3ed88f05	0.42296615
157	0xbde4019a	-0.11133118
158	0xbe24bf07	-0.16088496
159	0xbb7b0180	-0.0038300455
160	0x3bc83bc2	0.0061106393
161	0xbd71fc19	-0.05907831
162	0x3dcbea94	0.099568516
163	0xbd85bc83	-0.065300964
164	0x3e295b07	0.1653863
165	0x3d87c379	0.0662908
166	0xbd7a09dd	-0.061044563
167	0x3da44fce	0.08023034
168	0x3d3bf9a2	0.045892365
169	0xbe818735	-0.25298467
170	0x3da597dd	0.08085606
171	0x3dc93759	0.0982501
172	0x3e93ab13	0.28841457
173	0xbd8d85f2	-0.06910314
174	0x3eb5aca5	0.3548328
175	0x3dbb8d35	0.091577925
176	0x3da2b768	0.07945138
177	0xbe525875	-0.20541556
178	0xbdbbec66	-0.09175949
179	0x3e643ea8	0.22289526
180	0xbe8c23f3	-0.27371177
181	0x3c5ca537	0.013467125
182	0xbbb098df	-0.0053893174
183	0x3ec37c37	0.38180706
184	0x3dd4e9d8	0.10396165
185	0xbdd3ef95	-0.10348431
186	0x3dbb5f5f	0.0914905
187	0x3d946e17	0.072475605
188	0xbe73cde1	-0.23809005
189	0x3d888c29	0.066673584
190	0xbe3d3e64	-0.18480831
191	0xbd892c67	-0.06697922
192	0x3e935f70	0.2878375
193	0xbdac9f02	-0.08428766
194	0x3ddad9e3	0.1068609
195	0x3e125b14	0.14292556
196	0xbe1c55c5	-0.15267093
197	0x3e189566	0.14900741
198	0x3c071b11	0.008246199
199	0x3e29cc32	0.165818
200	0x3e8ef679	0.2792242
201	0x3e3941a6	0.18091449
202	0x3a8afeeb	0.0010604536
203	0xbea0bc2a	-0.31393558
204	0xbe597a31	-0.21238019
205	0x3cb342db	0.021882465
206	0x3e4d9283	0.20075421
207	0x3da17843	0.07884266
208	0xbda67be1	-0.08129097
209	0xbe65143f	-0.22371005
210	0x3e13e296	0.14441904
211	0xbe8f1732	-0.27947384
212	0xbe06a78d	-0.13149853
213	0xbdabbdcd	-0.08385811
214	0xbd8b2d2f	-0.067957275
215	0x3c96bab8	0.018399581
216	0xbe01b92f	-0.12668298
217	0x3e18daa2	0.14927152
218	0x3e830393	0.25588664
219	0x3e3f74d2	0.18696907
220	0xbd4962b8	-0.04916641
221	0x3db1fc25	0.08690671
222	0x3d70ba65	0.05877151
223	0x3e0d4df8	0.13799274
224	0x3cea585c	0.028606586
225	0x3d7938a7	0.060845044
226	0x3eb1a91b	0.3469933
227	0xbd8f6484	-0.07001594
228	0xbd042b84	-0.032268062
229	0x3e71e5b4	0.23622781
230	0xbdc48dc6	-0.09597354
231	0x3d85336b	0.06503948
232	0x3e193bef	0.14964269
233	0x3e355a10	0.17710137
234	0x3dbc967d	0.09208391
235	0xbe180ca9	-0.1484858
236	0x3d547b37	0.05187532
237	0xbd8f1395	-0.06986157
238	0x3da03235	0.07822076
239	0xbd635c82	-0.055508144
240	0xbd38765d	-0.045034755
241	0xbe5714d7	-0.21004044
242	0xbd47e2f2	-0.048800416
243	0x3dd7c591	0.1053573
244	0xbd1732c4	-0.03691365
245	0xbcee8ff9	-0.029121386
246	0xbd9fe3f4	-0.078071505
247	0xbe32f2bb	-0.17475407
248	0xbb9a8a1a	-0.00471617
249	0x3e561cdc	0.20909446
250	0xbecf9c9e	-0.40549177
251	0xbe3237d8	-0.17404115
252	0x3e9120d3	0.28345355
253	0x3e1492e6	0.14509162
254	0xbdb80b6c	-0.089865535
255	0x3e346219	0.17615546

network_body._body_endoder.seq_layers.2.bias f4 [64]
0	0xbd70e17b	-0.058808785
1	0x3d18c15f	0.037293788
2	0x3d9e7836	0.07737772
3	0x3ccca3b7	0.02498041
4	0xbc86abd1	-0.01643935
5	0xbba63c76	-0.0050731255
6	0x3d0fcff3	0.035110425
7	0xbd8904ec	-0.06690392
8	0x3da60c26	0.08107786
9	0xbd1822ec	-0.03714268
10	0xbd26b0bd	-0.040695895
11	0x3d38627a	0.04501579
12	0xbcf8388d	-0.030300403
13	0x3b355ebd	0.0027674877
14	0x3ddd5871	0.108078845
15	0x3b73e3bd	0.00372146
16	0xbdac0d5b	-0.08400985
17	0x3d0822ee	0.033236437
18	0x3d98c426	0.07459287
19	0xbd0f694c	-0.03501253
20	0x3d06d2e6	0.032915972
21	0x3d47788b	0.048698943
22	0xbcd9a0bd	-0.026565904
23	0x3bb4e838	0.0055208467
24	0xbd226bb2	-0.039653488
25	0x3939df7a	0.00017726226
26	0xbd0b3c16	-0.03399285
27	0xbc777e60	-0.015105814
28	0xbd43b5a0	-0.047780633
29	0x3c5de68e	0.013543738
30	0x3cbfee86	0.023429167
31	0xbbbe49c3	-0.005807133
32	0x3dc02e1b	0.09383794
33	0x3b9ef2b8	0.0048507117
34	0x3d6eec2a	0.058330692
35	0x3c31e723	0.01085833
36	0xbd3ccffb	-0.046096783
37	0x3be9fd39	0.007140782
38	0xbc71d694	-0.014760632
39	0x3cb113c2	0.021615867
40	0x3cae94e6	0.021311235
41	0xbd64f26b	-0.05589525
42	0x3d371fc9	0.044708047
43	0x3d8f4a2d	0.0699657
44	0x3d0d345f	0.034473773
45	0x3d37e315	0.044894297
46	0x3d62af26	0.055342816
47	0x3d5e729d	0.054308522
48	0x3d07dabf	0.033167597
49	0x3dcb8491	0.099373944
50	0x3b89d955	0.004206816
51	0x3d642f85	0.05570938
52	0x3d0d3156	0.03447088
53	0x39b42a2d	0.000343637
54	0xbd0e229c	-0.034700975
55	0x3d58904e	0.052871995
56	0x3c36a534	0.011147786
57	0x3d3e565a	0.04646907
58	0xbe2f318d	-0.17108746
59	0xbd09a77e	-0.033607
60	0x3d00a4d8	0.031407207
61	0x3c8c201e	0.017105158
62	0x3cc7246c	0.02430936
63	0xbcce4569	-0.025179582

network_body._body_endoder.seq_layers.4.weight f4 [64, 64]
0	0x3d99714f	0.07492315
1	0x3c5728ed	0.013132316
2	0x3d3e7e87	0.046507385
3	0x3d84ad25	0.06478337
4	0x3de3d0e2	0.111238256
5	0xbe429fe4	-0.19006306
6	0x3deed791	0.1166221
7	0x3d59ce03	0.053174984
8	0xbe0a1c3a	-0.1348733
9	0x3e1abac0	0.15110302
10	0x3cc89833	0.024486637
11	0x3c978573	0.01849625
12	0x3e2ca2eb	0.16859023
13	0xbe43c65c	-0.19118637
14	0x3e419dd2	0.1890786
15	0x3eed2ec9	0.46324757
16	0x3e15d977	0.14633738
17	0xbf404509	-0.7510534
18	0x3d3447ab	0.04401366
19	0x3e2d144f	0.16902278
20	0xbe13f0c3	-0.14447312
21	0x3d7de402	0.061985023
22	0x3e783cea	0.24241987
23	0x3e000fcb	0.12506025
24	0x3dcf1407	0.10111242
25	0xbe34a011	-0.17639185
26	0xbe8cf66a	-0.2753175
27	0xbe6c2127	-0.23059522
28	0x3d8520ea	0.065004185
29	0x3df59130	0.11990583
30	0x3e60589f	0.21908806
31	0x3e0c3fea	0.13696256
32	0xbdc592e4	-0.09647158
33	0xbdf77c92	-0.12084307
34	0x3cdb58e7	0.02677579
35	0x3ce888f6	0.02838562
36	0xbe4f9151	-0.20270278
37	0xbe0f012d	-0.13965292
38	0x3b2f56d2	0.002675463
39	0x3eebf5c5	0.46085945
40	0xbe16cb65	-0.14726026
41	0x3e134cfc	0.14384836
42	0x3d1f3111	0.038865153
43	0xbe4a9bbd	-0.19785972
44	0xbddca326	-0.107733056
45	0x3df004fc	0.11719701
46	0x3e78df11	0.24303843
47	0xbddd1159	-0.107943244
48	0x3e277f03	0.16357045
49	0xbe336ab4	-0.17521173
50	0xbe623287	-0.22089587
51	0xbd89dbb5	-0.06731359
52	0xbe31280a	-0.1730043
53	0xbdf37d1c	-0.11889097
54	0x3e12a318	0.14320028
55	0xbdda0c86	-0.1064692
56	0x3e377ab9	0.17917909
57	0x3d8fb515	0.070169605
58	0xbe459619	-0.19295539
59	0xbe704a4a	-0.23465839
60	0x3d174cb6	0.03693839
61	0x3e134f7e	0.14385793
62	0x3d386f00	0.045027733
63	0x3eebf32d	0.46083966
64	0xbd493940	-0.049126863
65	0x3e75c6c7	0.24001609
66	0xbd920e2e	-0.07131611
67	0x3deb49d9	0.11488695
68	0x3ebee5fe	0.37284845
69	0xbd1d5b50	-0.03841716
70	0xbd08c4f1	-0.033390943
71	0xbeafb1d4	-0.3431536
72	0xbc9f4b96	-0.019445222
73	0xbe5f3af3	-0.21799831
74	0x3e925a61	0.2858458
75	0x3c6e92fb	0.01456141
76	0x3dbd09b0	0.09230363
77	0xbd7fcfaa	-0.062453903
78	0x3c87a1df	0.016556678
79	0xbe280b43	-0.16410546
80	0x3da504d8	0.080575645
81	0x3c839fcd	0.01606741
82	0x3ddf970c	0.10917482
83	0xbdb3e6af	-0.08784234
84	0x3e5fa2e0	0.21839476
85	0x3bd5b1c6	0.0065214364
86	0xbda4785f	-0.080307715
87	0x3ecc3816	0.3988654
88	0x3c80d53e	0.015726682
89	0x3c766ef2	0.0150411
90	0xbe716ee1	-0.23577453
91	0xbc13ef21	-0.009029181
92	0xbda74034	-0.08166543
93	0x3e971766	0.2951004
94	0x3e755fdd	0.2396235
95	0x3ea5f9e9	0.3241723
96	0xbd93bcec	-0.07213768
97	0x3e179634	0.14803392
98	0x3b864962	0.0040981034
99	0xbeb5c463	-0.35501394
100	0x3ea44c0d	0.32089272
101	0x3d720c72	0.0590939
102	0x3e7172db	0.2357897
103	0xbda3cb25	-0.07997731
104	0xbcd73e81	-0.026274921
105	0xbd90a5dd	-0.07062886
106	0xbe654089	-0.223879
107	0xbcec7790	-0.028865606
108	0x3d7c302b	0.061569374
109	0x3d60d23d	0.054888
110	0xbe126b38	-0.14298713
111	0x3ddd50e2	0.10806443
112	0xbc56cc03	-0.013110164
113	0xbddf3eed	-0.10900674
114	0x3c7a2494	0.01526751
115	0xbe039a0c	-0.12851733
116	0xbe7a519c	-0.24445194
117	0x3dc1f3e6	0.09470348
118	0xbe849894	-0.25897658
119	0xbda15c19	-0.07878894
120	0x3e5cf607	0.21578227
121	0xbd663de1	-0.056211356
122	0xbd81863c	-0.06324431
123	0xbe5cb172	-0.21552065
124	0xbec21f7c	-0.37914646
125	0x3bb8b789	0.0056371135
126	0x3e18a68d	0.14907284
127	0xbe712997	-0.23551022
128	0x3d47ddaa	0.04879538
129	0x3e3d5829	0.18490662
130	0x3deac588	0.11463457
131	0x3e389ea4	0.18029267
132	0xbdbdb309	-0.09262664
133	0xbe685ba8	-0.22691214
134	0x3d3f3e58	0.046690315
135	0xbe1013a1	-0.14069988
136	0xbd905a78	-0.070485055
137	0x3e59bdda	0.21263829
138	0x3dbff2c0	0.09372473
139	0xbdc2a0fe	-0.09503363
140	0x3e0fbb6e	0.14036343
141	0x3c0a17a5	0.008428489
142	0xbc923dbd	-0.017851705
143	0xbde9958e	-0.114054784
144	0xbdb97824	-0.09056118
145	0x3db10458	0.08643407
146	0x3e0bc628	0.1364981
147	0xbdb67a8c	-0.08910093
148	0xbead483b	-0.3384417
149	0x3cd00c0e	0.025396373
150	0xbdfe582f	-0.124191634
151	0x3e2e594c	0.17026252
152	0x3bbafa36	0.005706097
153	0x3d99dc24	0.075126916
154	0xbe3e8b83	-0.18607907
155	0xbe78fc5f	-0.24315022
156	0xbd625223	-0.055254113
157	0xbe687b7c	-0.22703356
158	0x3e839c96	0.25705403
159	0x3e9148ec	0.28375947
160	0xbe6e1135	-0.23248751
161	0x3e1059bc	0.14096731
162	0x3c9ef7d9	0.019405292
163	0x3bb5557a	0.0055338712
164	0x3d012d93	0.031537604
165	0xbe17ca99	-0.14823379
166	0x3d0a0cdd	0.033703674
167	0x3dc85417	0.09781664
168	0xbe68c141	-0.2272997
169	0x3d711cfc	0.058865532
170	0xbebfbeed	-0.37450352
171	0xbcec1895	-0.028820315
172	0x3e716b35	0.23576052
173	0xbe96edf0	-0.29478407
174	0x3d7b9356	0.061419807
175	0xbea74859	-0.32672384
176	0xbe4991f2	-0.1968458
177	0x3d120b1f	0.035655137
178	0x3ce95f8b	0.028487941
179	0x3dd82faa	0.10555966
180	0x3b371bba	0.002794011
181	0x3e20805f	0.1567397
182	0x3ded66bd	0.115918614
183	0xbdde4d5e	-0.108546
184	0x3d989aeb	0.07451423
185	0x3e233df0	0.15941596
186	0xbd7fa7e7	-0.062415984
187	0x3e68ba7e	0.22727391
188	0xbd92045d	-0.071297385
189	0xbe2eb8cf	-0.17062686
190	0xbe24c191	-0.16089465
191	0x3e0743cb	0.13209455
192	0xbdab1a2a	-0.083546
193	0x3dcfca31	0.10145987
194	0xbbaa8b6c	-0.0052046087
195	0xbd027eaa	-0.031859078
196	0x3eaed10b	0.34143862
197	0x3e3b2728	0.18276656
198	0xbcde8cbc	-0.027166717
199	0x3d78c703	0.060736667
200	0xbe188d69	-0.14897694
201	0xbe0cfdca	-0.13768688
202	0x3d51993d	0.05117153
203	0x3e0afb55	0.13572438
204	0xbdac8dc6	-0.08425479
205	0xbdd3d39e	-0.10343097
206	0x3d16cee2	0.036818393
207	0x3eb37603	0.35050973
208	0x3e3c8f9b	0.18414156
209	0xbe449328	-0.1919676
210	0x3e1e332d	0.1544921
211	0xbd4965c3	-0.049169313
212	0x3cf83ac4	0.03030146
213	0xbe230ddc	-0.15923256
214	0xbe4a19dc	-0.19736427
215	0x3e7d1336	0.2471436
216	0xbf2d3a32	-0.67666924
217	0x3d01626a	0.031587996
218	0x3e6ad48e	0.22932646
219	0x3d95b505	0.07309917
220	0xbe42e367	-0.1903206
221	0xbd97df6b	-0.074156605
222	0x3c8e5399	0.017373847
223	0xbebc8ee9	-0.36827782
224	0x3e281c74	0.16417104
225	0xbf02218a	-0.50832427
226	0xbe20708b	-0.15667932
227	0xbcc8a11f	-0.024490891
228	0xbe14ac0a	-0.14518753
229	0x3e05d022	0.13067678
230	0x3e2b7889	0.167452
231	0x3b592353	0.0033132627
232	0x3df6c054	0.120484024
233	0xbed9bad9	-0.42525366
234	0xbdfdaffb	-0.12387081
235	0xbcf81c2c	-0.03028687
236	0xbe67d5a1	-0.22640087
237	0xbd975785	-0.0738974
238	0xbe66a0ce	-0.2252228
239	0x3e26e4aa	0.16298166
240	0x3e17b24e	0.14814112
241	0xbe735dd9	-0.23766269
242	0xbe81f95e	-0.25385565
243	0xbdc77bc9	-0.09740407
244	0x3d5f3c12	0.054500647
245	0xbe8c9cbb	-0.27463326
246	0x3e287c6c	0.16453713
247	0x3dd6803e	0.10473679
248	0x3e88a535	0.26688543
249	0x3e2d8370	0.1694467
250	0xbe8923fe	-0.26785272
251	0x3e0cdcae	0.13756058
252	0xbe157c04	-0.1459809
253	0xbde7f5d0	-0.11326182
254	0x3da21983	0.07915022
255	0xbd9e1605	-0.07719044

network_body._body_endoder.seq_layers.4.bias f4 [64]
0	0xbd7cb373	-0.061694574
1	0x3c4e936b	0.012608389
2	0x3caf481b	0.021396687
3	0x3e0581f8	0.1303786
4	0x3dedf2af	0.11618554
5	0xbe2b1d66	-0.16710433
6	0xbd6fdf8d	-0.058562804
7	0x3d8df8a8	0.06932193
8	0x3d8e9420	0.06961846
9	0x3d190c6b	0.03736536
10	0xbc3dfc38	-0.011595778
11	0x3d82b03a	0.06381269
12	0x3ce79859	0.028270887
13	0xbd61e82f	-0.05515307
14	0xbc2eb72a	-0.010663787
15	0xbd0d8066	-0.03454628
16	0x3e3eaab8	0.18619812
17	0x3d1e5065	0.03865089
18	0x3d007d0b	0.03136925
19	0x3cb53bde	0.022123273
20	0x3ce5eadd	0.028066093
21	0x3d893f78	0.06701559
22	0xbd22ac25	-0.03971495
23	0xbda28e41	-0.07937289
24	0x3cb5ee8f	0.02220848
25	0x3c92b794	0.017909802
26	0xbd80cd76	-0.062891886
27	0x3d0f76ea	0.035025515
28	0x3de54299	0.11194343
29	0x3d1c4ead	0.03816097
30	0x3c5b0614	0.013368148
31	0x3bf98ab4	0.0076154117
32	0x3d867999	0.06566162
33	0x3dbf586c	0.09343037
34	0x3d39b4e9	0.045338545
35	0x3d38c1a1	0.045106534
36	0x3d53792e	0.051629238
37	0xbbf729c9	-0.007542823
38	0x3d3a68d2	0.04551012
39	0x3d599aa3	0.05312599
40	0x3dc04217	0.09387606
41	0x3d8bd954	0.068285614
42	0x3d32d088	0.043655902
43	0x3c1f3b3f	0.009718715
44	0x3d9cc93b	0.07655569
45	0x3ddf041f	0.10889458
46	0x3cd1e486	0.025621664
47	0xbcb8d1db	-0.022561004
48	0x3d0fb2f6	0.03508278
49	0x3db6248f	0.08893692
50	0xbcb66184	-0.022263296
51	0x3c98555b	0.018595388
52	0x3d9ef720	0.07761979
53	0xba20ade8	-0.00061294297
54	0x3e1deadd	0.15421624
55	0x3d22b2fb	0.03972147
56	0x3c5a2507	0.013314492
57	0xbdbd52c0	-0.09244299
58	0x3df496d7	0.11942833
59	0x3dd544bf	0.10413503
60	0xbc8ba078	-0.01704429
61	0xbddeb9d0	-0.10875285
62	0x3def32c6	0.11679606
63	0x3cadd862	0.021221343

action_model._continuous_distribution.log_sigma f4 [1, 44]
0	0x3e756c5e	0.2396712
1	0x3f10d97c	0.56581855
2	0x3e74fed3	0.23925333
3	0x3f3d6a73	0.73990554
4	0x3f23a909	0.639298
5	0x3f1431d8	0.57888556
6	0x3f31490d	0.6925209
7	0x3f6545a6	0.895594
8	0x3dc562c6	0.0963798
9	0x3edb4aef	0.42830607
10	0xbdf1383e	-0.117783055
11	0xbe0bd187	-0.13654147
12	0xbd983674	-0.07432261
13	0x3eae0053	0.33984622
14	0x3f6d168d	0.92612535
15	0xbda61918	-0.08110255
16	0x3f2cfd52	0.67574036
17	0x3eb84112	0.35987145
18	0x3ee3ab1e	0.4446649
19	0xbe0e6338	-0.13905036
20	0xbe55d5a2	-0.20882276
21	0x3ee0dd9a	0.4391907
22	0x3f2cef48	0.67552614
23	0x3f488f42	0.78343594
24	0xbd8f4ee8	-0.06997472
25	0x3db32db7	0.08748954
26	0x3d081fcf	0.03323346
27	0xbdde1af5	-0.108449854
28	0xbe9ac36a	-0.30227214
29	0x3f0ead43	0.55733126
30	0x3e08731b	0.13325159
31	0x3e16d7ef	0.1473081
32	0xbeffb679	-0.49943903
33	0x3eb50757	0.35357162
34	0xbda5a831	-0.080887206
35	0x3efa6ccd	0.48911133
36	0x3ee68571	0.45023683
37	0x3e4ed717	0.20199238
38	0xbe3216ff	-0.17391585
39	0x3ecbe194	0.3982054
40	0x3c388923	0.011263165
41	0x3e1416b4	0.14461786
42	0x3d98964f	0.07450544
43	0x3e80bc73	0.25143775

action_model._continuous_distribution.mu.weight f4 [44, 64]
0	0xbd5735e6	-0.052541636
1	0xbe1de185	-0.1541806
2	0xbda51851	-0.080612786
3	0x3da6b0e1	0.08139206
4	0x3ddfd7ff	0.1092987
5	0xbdafac54	-0.08577791
6	0x3d590180	0.052979946
7	0x3d8fa4c4	0.070138484
8	0xbd87982c	-0.06620821
9	0xbe1a3362	-0.15058663
10	0xbe7b99e9	-0.24570431
11	0xbdf0052f	-0.11719739
12	0x3c81abf7	0.01582907
13	0x3e08822b	0.13330905
14	0xbe86555c	-0.26237
15	0xbd8cf3ee	-0.068824634
16	0x3daf733d	0.08566902
17	0xbe21fffa	-0.15820304
18	0xbd8d51a7	-0.069003396
19	0x3b4ee63f	0.0031570343
20	0xbd838164	-0.06421164
21	0x3b00ba05	0.0019642126
22	0xbe66c7a7	-0.22537099
23	0xbd3791ba	-0.04481671
24	0x3c047a57	0.008085809
25	0xbd90cfd4	-0.0707089
26	0xbd00fbd4	-0.031490162
27	0xbd3a363f	-0.04546189
28	0xbdbfb844	-0.09361318
29	0x3e28d43e	0.16487214
30	0xbc127c1f	-0.008940726
31	0x3abf339f	0.0014587528
32	0x3e2411bd	0.16022392
33	0x3e55e4e3	0.20888095
34	0xbd9314fb	-0.07181736
35	0x3c822ee5	0.015891502
36	0x3d1c2553	0.038121533
37	0x3e5ddea0	0.21666956
38	0x3c0515a3	0.008122834
39	0x3df5e487	0.12006479
40	0x3e5bf0ea	0.2147862
41	0x3e189ac2	0.14902785
42	0x3e0cbe75	0.13744529
43	0xbdefc730	-0.11707914
44	0xbe0fa2ba	-0.14026919
45	0xbd03d07a	-0.03218124
46	0xbd1ee7da	-0.03879533
47	0x3da52576	0.08063786
48	0x3e3d1aaa	0.18467203
49	0x3e530451	0.20607115
50	0xbc4683cd	-0.012116385
51	0xbdee22dd	-0.116277434
52	0xbe19358d	-0.14961834
53	0x3e5c84ec	0.2153508
54	0x3d4a3927	0.04937091
55	0x3e5e9e9f	0.21740197
56	0xbdd8191f	-0.105516665
57	0x3c6e1829	0.014532127
58	0x3e504a67	0.20340882
59	0x3e1b3ba0	0.15159464
60	0xbdac7d52	-0.084223405
61	0x3ca9b46c	0.020715915
62	0xbc6f3da7	-0.014602101
63	0x3e5568b6	0.20840725
64	0xbda3f3e4	-0.08005503
65	0xbdbc136b	-0.09183391
66	0xbe725f27	-0.2366911
67	0x3da2e0b3	0.07953014
68	0x3d9b7c0b	0.07592019
69	0xbdb53e26	-0.088497445
70	0xbde3df83	-0.11126616
71	0xbe6fba0f	-0.2341082
72	0xbe1fa8c4	-0.15591723
73	0xbd4a1993	-0.049340796
74	0x3db0e50f	0.086374395
75	0x3dd266fc	0.10273549
76	0xbce02b4b	-0.027364394
77	0xbe2c4d22	-0.16826299
78	0x3da14992	0.078753605
79	0x3e180e16	0.14849123
80	0xbd7bce05	-0.061475772
81	0xbcfb6e96	-0.03069238
82	0x3d03fa08	0.03222087
83	0xbe1f3fe2	-0.15551713
84	0xbdd6b631	-0.10483969
85	0xbd67881f	-0.0565263
86	0xbcbec097	-0.023285193
87	0x3cf33915	0.029690305
88	0xbe2ec029	-0.17065491
89	0xbe4ff88e	-0.2030966
90	0x3c6ac099	0.014328145
91	0xbd232ad8	-0.03983578
92	0xbdde8142	-0.10864498
93	0x3dbddae6	0.09270267
94	0x3d768bfc	0.060192093
95	0xbbff0fe6	-0.0077838777
96	0x3bc42d46	0.0059868423
97	0x3e10d7fb	0.1414489
98	0xbde567cf	-0.112014405
99	0xbd03c468	-0.03216973
100	0xbcad9ecd	-0.021193886
101	0xbd9ae930	-0.07564008
102	0xbdf545ec	-0.11976227
103	0xbd2e0529	-0.04248539
104	0xbcda60f9	-0.026657568
105	0xbde8db31	-0.113699324
106	0xbca35df8	-0.019942269
107	0xbeab970a	-0.3351367
108	0xbd022215	-0.031770784
109	0xbdd85a7f	-0.10564136
110	0xbe57553c	-0.21028608
111	0xbe045377	-0.12922464
112	0xbdbd06dc	-0.09229824
113	0xbe1d7f34	-0.15380555
114	0x3d17a48d	0.037022162
115	0x3be5a02f	0.0070076208
116	0x3d97e735	0.07417146
117	0x3d8f2d67	0.06991082
118	0xbdbd92b4	-0.09256497
119	0x3ca82247	0.020524157
120	0xbe7089bf	-0.23490046
121	0xbe5ab8b2	-0.21359518
122	0xbd608e64	-0.054823294
123	0xbcc2c0ab	-0.023773512
124	0x3c741fd6	0.014900168
125	0x3d9b5ad4	0.075856835
126	0xbdbce677	-0.09223645
127	0xbe0d4cec	-0.13798875
128	0xbda02df9	-0.078212686
129	0xbdf1ee4a	-0.11813028
130	0xbda46d4d	-0.0802866
131	0xbe08e533	-0.13368683
132	0x3e84a214	0.25904906
133	0xbd4aa191	-0.049470488
134	0xbde2dc01	-0.11077119
135	0x3b644b77	0.003483502
136	0xbe406f92	-0.1879256
137	0xbc175169	-0.009235718
138	0x3d86361d	0.0655329
139	0x3de5d447	0.11222129
140	0x3ddbd5e6	0.10734157
141	0xbdef832c	-0.11694941
142	0x3bb7e872	0.0056124264
143	0xbe4edd23	-0.20201544
144	0x3e823f7f	0.2543907
145	0xbd748942	-0.05970121
146	0xbe7f261f	-0.24916886
147	0xbe2988c0	-0.16556072
148	0x3dd4319c	0.10361025
149	0x3d08ad44	0.033368364
150	0xbd523f3a	-0.05132983
151	0xbde34792	-0.11097635
152	0x3e4cd28e	0.20002195
153	0xbdeffd95	-0.11718289
154	0xbe45015c	-0.192388
155	0xbe207f3c	-0.15673536
156	0x3e07d6aa	0.13265482
157	0xbe034e7f	-0.12822913
158	0x3e3c9981	0.18417932
159	0xb9f3c442	-0.00046494795
160	0xbd8d551b	-0.06900998
161	0x3e4573f1	0.1928251
162	0x3da37962	0.07982136
163	0xbe111cad	-0.14171095
164	0xbc871457	-0.016489191
165	0x3c08023a	0.008301312
166	0x3e2c9713	0.16854505
167	0xbe10306d	-0.14080973
168	0x3dd4cfd2	0.10391201
169	0xbe72382d	-0.23654242
170	0x3dcd598a	0.10026844
171	0xbda3cfd0	-0.079986215
172	0x3e7e9566	0.24861678
173	0x3e5864b9	0.21132173
174	0x3d5f2f00	0.054488182
175	0x3c3ebd19	0.011641764
176	0x3d0a77ac	0.033805534
177	0xbd2aa604	-0.04166223
178	0xbe15c531	-0.14626004
179	0xbda3bcc2	-0.07994987
180	0x3dabc7ef	0.08387744
181	0x3e475932	0.19467619
182	0x3dc8424d	0.09778271
183	0xbc21b273	-0.009869206
184	0xbe0345a4	-0.12819535
185	0x3dd6527a	0.1046495
186	0x3d9238fe	0.07139777
187	0x3e149eca	0.14513698
188	0xbe2368d1	-0.15957953
189	0xbd1e839e	-0.03869974
190	0x3d5dddf4	0.05416675
191	0xbc899422	-0.016794268
192	0xbdee3ed0	-0.11633074
193	0xbcb8e85f	-0.02257174
194	0x3da99e9d	0.08282206
195	0xbd8374b0	-0.06418741
196	0x3d51b1a2	0.051194794
197	0x3c901f88	0.01759316
198	0xbc426d42	-0.011866869
199	0x3d693fb4	0.056945518
200	0x3e7301e4	0.2373119
201	0xbe3d5aa0	-0.18491602
202	0x3d1ffa4c	0.03905706
203	0xbdfcb390	-0.12338936
204	0xbd9deaa9	-0.077107735
205	0x3e45da94	0.19321662
206	0xbdd02436	-0.10163157
207	0x3dcc47f8	0.099746644
208	0xbde522fb	-0.111883126
209	0xbe23fd82	-0.16014674
210	0x3dd5b59a	0.104350284
211	0x3e97ced0	0.29649973
212	0x3e193966	0.14963302
213	0x3d831428	0.06400329
214	0xbe1e46a6	-0.15456638
215	0x3dd7b392	0.10532297
216	0x3ca9e81c	0.020740561
217	0xbcfe4e62	-0.031043235
218	0x3db76297	0.089543514
219	0xbd9caf43	-0.07650616
220	0x3e38e59d	0.1805634
221	0x3b943c18	0.0045237653
222	0x3e0f24a4	0.13978821
223	0x3e31f92e	0.17380211
224	0x3df48b5e	0.11940645
225	0x3b8fe8d7	0.0043917703
226	0xbd4b5358	-0.04964003
227	0xbe9de536	-0.30838937
228	0xbe7df330	-0.247998
229	0x3e0ba540	0.13637257
230	0x3e09ceb1	0.13457753
231	0xbe85048e	-0.25980037
232	0x3e8eb33f	0.2787113
233	0xbcf0f286	-0.02941252
234	0x3b73abe6	0.0037181317
235	0xbc42400f	-0.011856093
236	0x3e350133	0.17676239
237	0xbdfb6216	-0.12274568
238	0xbc398c0d	-0.011324895
239	0xbe6f5701	-0.23373033
240	0xbc8a5344	-0.016885407
241	0xbcee8972	-0.029118273
242	0x3d304e64	0.04304351
243	0xbe4cb117	-0.1998943
244	0x3db9dd1a	0.09075375
245	0x3db12c4c	0.08651027
246	0x3d17bffb	0.03704832
247	0xbd52caad	-0.051462818
248	0xbd4642fe	-0.048403732
249	0xbe0777ae	-0.13229248
250	0xbd2f182d	-0.042747665
251	0x3e7f558d	0.24934979
252	0xbeb6fb75	-0.3573872
253	0xbd0b2db8	-0.033979148
254	0x3e45013e	0.19238755
255	0xbd93fe34	-0.0722622

action_model._continuous_distribution.mu.bias f4 [44]
0	0x3d359c3c	0.04433845
1	0xbe097b02	-0.1342583
2	0x3e155daf	0.14586519
3	0x3dcaed61	0.09908558
4	0xbdeb9481	-0.11502934
5	0xbd33c2b4	-0.043886855
6	0xbdfac038	-0.12243694
7	0x3dffa029	0.1248172
8	0x3d1de0c0	0.038544416
9	0xbcb60012	-0.02221683
10	0xbd9ffe75	-0.07812206
11	0x3e059c58	0.13047922
12	0xbe073904	-0.13205343
13	0xbc900c56	-0.017584007
14	0xbe35f987	-0.17770968
15	0xbd045440	-0.03230691
16	0xbe6e51b6	-0.23273358
17	0xbdd94049	-0.106079645
18	0xbe246eed	-0.1605794
19	0xbb8afd23	-0.004241602
20	0x3d514c50	0.051098168
21	0xbdc9ceed	-0.09853921
22	0xbdf92031	-0.12164343
23	0xbe26a145	-0.16272457
24	0xbd960cae	-0.07326637
25	0xbe104076	-0.1408709
26	0xbe78699f	-0.24259041
27	0xbba7c535	-0.0051199445
28	0xbd60c0e1	-0.054871444
29	0xbd007274	-0.03135915
30	0x3cdae3ff	0.026720045
31	0xbe01d1df	-0.12677716
32	0x3e09e0a0	0.13464594
33	0xbdd37086	-0.103241965
34	0x3d7b3213	0.06132705
35	0x3d9d5e14	0.076839596
36	0x3c39ac67	0.011332608
37	0xbc848994	-0.016178884
38	0x3dcf6daa	0.10128339
39	0xbe1da57a	-0.15395156
40	0x3dbe03ae	0.092780456
41	0x3c757f6c	0.014983993
42	0xbd172891	-0.03690392
43	0xbc92b38b	-0.017907878

exp_avg f4 [64, 95]
0	0x391a4ebe	0.00014715918
1	0x391c849f	0.00014926725
2	0x3890785c	6.888874e-05
3	0x39b7ff76	0.00035094813
4	0x394ca15b	0.00019515066
5	0x39232452	0.00015558422
6	0x380ae18e	3.3111828e-05
7	0x396ce568	0.00022592174
8	0xb7c085a5	-2.2950417e-05
9	0x379a56a9	1.8398585e-05
10	0xb7b9dbb0	-2.2156019e-05
11	0x39a50214	0.000314728
12	0x38426476	4.6346766e-05
13	0x39b45624	0.00034396455
14	0x37f6e7d6	2.9433442e-05
15	0x39a738a1	0.00031894914
16	0xb8363de9	-4.344984e-05
17	0x3945f54d	0.00018878766
18	0x3930e7c8	0.00016871013
19	0x38afaa4a	8.376369e-05
20	0x39a06048	0.00030589313
21	0xb938f592	-0.0001763909
22	0xb7e0580a	-2.6743877e-05
23	0xb81f2d81	-3.7950933e-05
24	0x38b53633	8.640848e-05
25	0x3966a2e9	0.00021995198
26	0x38d6feeb	0.00010251797
27	0x392e4f08	0.00016623375
28	0xb992c034	-0.00027990493
29	0xb898ed79	-7.2921575e-05
30	0x390b197c	0.00013265567
31	0xb8c52d62	-9.402145e-05
32	0x39484e23	0.00019102595
33	0x3926dd67	0.00015913472
34	0x39577649	0.00020548062
35	0x3901bee1	0.00012373507
36	0x39c81fda	0.00038170704
37	0x393be91f	0.00017920554
38	0x39e4005c	0.00043487817
39	0xb98942ae	-0.00026180357
40	0x398e6c6c	0.0002716513
41	0x393c8a8a	0.00017980687
42	0x39889196	0.0002604841
43	0x38a55182	7.882995e-05
44	0x38f8dd17	0.00011866743
45	0x3a8fc9e5	0.0010970203
46	0x3a202b9f	0.00061100157
47	0xb9c119c0	-0.00036831014
48	0x3aaa4b39	0.0012992389
49	0x392bfa31	0.00016401034
50	0x3a9b60f3	0.0011854455
51	0x3a17f8ef	0.0005797287
52	0x3ab019e3	0.0013435449
53	0x3a927f7a	0.0011176907
54	0x3ae7a5aa	0.0017673273
55	0x3ad2fd66	0.0016097247
56	0x3b0a085d	0.0021062114
57	0x3aaa20f6	0.0012979794
58	0x3b02d2f6	0.0019962168
59	0x3af2c0aa	0.0018520553
60	0x3b0325a1	0.0020011442
61	0x3ae3b5e7	0.0017372937
62	0x380a81fc	3.302282e-05
63	0x38df9cfb	0.000106627085
64	0x38b019e9	8.39716e-05
65	0x3913e952	0.00014105931
66	0xb5bd2b2a	-1.409416e-06
67	0x38927f75	6.985563e-05
68	0xb8872385	-6.443918e-05
69	0x395600be	0.00020408907
70	0x38e7a5a0	0.000110457884
71	0x3881536f	6.16674e-05
72	0x38a38a8b	7.798251e-05
73	0x38d2fd66	0.000100607795
74	0x38741c14	5.8200283e-05
75	0x38aacfef	8.144962e-05
76	0x390a085c	0.0001316382
77	0x389df3ed	7.531778e-05
78	0x3886ea0c	6.4332125e-05
79	0x38aa20f7	8.112372e-05
80	0x388aac65	6.612464e-05
81	0x389a3194	7.352527e-05
82	0x3902d2f2	0.0001247635
83	0x37a31e00	1.9445084e-05
84	0x38fc1677	0.00012020481
85	0x38f2c0a6	0.00011575343
86	0x388498ba	6.322698e-05
87	0x38a0453c	7.6422904e-05
88	0x3903259f	0.00012507148
89	0x388c7495	6.697435e-05
90	0x38986965	7.267556e-05
91	0x38e3b5ed	0.0001085809
92	0x388c7495	6.697435e-05
93	0x38986965	7.267556e-05
94	0x38e3b5ec	0.00010858089
95	0x3581015f	9.611648e-07
96	0x34c179d4	3.6037693e-07
97	0xb7cd5d61	-2.4481387e-05
98	0xb6a101fd	-4.7984054e-06
99	0xb7b1ef5e	-2.1211508e-05
100	0xb868979d	-5.545431e-05
101	0x36d4932f	6.3352268e-06
102	0xb7fc2ad2	-3.006068e-05
103	0xb6871cb6	-4.026656e-06
104	0xb811242a	-3.4604374e-05
105	0x35fbb699	1.87541e-06
106	0xb3a3368a	-7.6001996e-08
107	0xb6d88acc	-6.4534597e-06
108	0xb78eacc9	-1.7008178e-05
109	0xb83f4b4a	-4.5608067e-05
110	0xb73012a4	-1.0494758e-05
111	0x34324f77	1.6606451e-07
112	0xb85e061b	-5.293461e-05
113	0x366ae86f	3.5004011e-06
114	0xb75c2045	-1.3120535e-05
115	0xb8475b91	-4.7530575e-05
116	0x3656a868	3.198651e-06
117	0xb7e53526	-2.7323676e-05
118	0xb62f4d76	-2.612212e-06
119	0xb738731a	-1.0994054e-05
120	0xb8db91b3	-0.00010469872
121	0xb7dc3518	-2.6250767e-05
122	0xb7e0293a	-2.6722078e-05
123	0x3505f366	4.990055e-07
124	0x359707d0	1.125265e-06
125	0xb889429f	-6.545078e-05
126	0xb7080ff3	-8.109945e-06
127	0xb86e6fdd	-5.6847803e-05
128	0xb825b09b	-3.9503542e-05
129	0xb88e1921	-6.775768e-05
130	0xb689686f	-4.095076e-06
131	0xb7f5cdfb	-2.9302193e-05
132	0xb7d818e9	-2.5760806e-05
133	0xb6eab714	-6.9950565e-06
134	0xb86a9d8e	-5.593668e-05
135	0xb8480172	-4.7685062e-05
136	0xb6a10cf2	-4.799681e-06
137	0xb7db89b1	-2.6170952e-05
138	0xb7db3250	-2.6130263e-05
139	0xb61c9c59	-2.3336818e-06
140	0xb9a164fc	-0.00030783552
141	0xb9bb783a	-0.00035756995
142	0xb682ac72	-3.894377e-06
143	0xb990b310	-0.00027599232
144	0xb82eda04	-4.1687876e-05
145	0xb9e1a472	-0.00043037866
146	0xb8ae176b	-8.3013285e-05
147	0xb8cbd17d	-9.7188145e-05
148	0xb8b2011b	-8.487907e-05
149	0xb8ce44a1	-9.8356286e-05
150	0xb90519bb	-0.00012693454
151	0xb9bba29a	-0.00035788567
152	0xb9887db3	-0.00026033595
153	0xb9c7f8f9	-0.00038141737
154	0xb9b8f5ef	-0.0003527845
155	0xb9de3aa6	-0.00042386836
156	0xb9ea3eb6	-0.0004467868
157	0xb80d062e	-3.3622775e-05
158	0xb4c47c3b	-3.6598234e-07
159	0xb6cbd177	-6.0742564e-06
160	0xb80e9a95	-3.3999404e-05
161	0x3236dc20	1.0643845e-08
162	0xb6b2011a	-5.3049416e-06
163	0xb8101659	-3.435309e-05
164	0x34c3994b	3.6433116e-07
165	0xb6ce449f	-6.147267e-06
166	0xb80f7638	-3.4203957e-05
167	0x34671069	2.1519521e-07
168	0xb70519bb	-7.933409e-06
169	0xb7ae36c7	-2.0767924e-05
170	0xb75dcf11	-1.3220838e-05
171	0xb7bba29b	-2.2367856e-05
172	0xb7b3b64a	-2.1423348e-05
173	0xb752d00b	-1.2565414e-05
174	0xb7887db1	-1.6270993e-05
175	0xb70a4c7a	-8.243247e-06
176	0xb7d7f812	-2.5745514e-05
177	0xb7c7f8f5	-2.3838578e-05
178	0xb76b2074	-1.4014648e-05
179	0xb7a78e16	-1.9974115e-05
180	0xb7b8f5ef	-2.2049031e-05
181	0xb71d67fb	-9.382139e-06
182	0xb7ce6a52	-2.4606623e-05
183	0xb7de3aa5	-2.649177e-05
184	0xb7481aa5	-1.1927133e-05
185	0xb7b910fe	-2.2061631e-05
186	0xb7ea3eb4	-2.7924172e-05
187	0xb7481aa5	-1.1927133e-05
188	0xb7b910fe	-2.2061631e-05
189	0xb7ea3eb2	-2.7924169e-05
190	0x37e4a122	2.7254751e-05
191	0x35707512	8.9577327e-07
192	0xb671e94b	-3.6047593e-06
193	0x388d688d	6.742878e-05
194	0x378f2c48	1.7067548e-05
195	0x38f39ea1	0.0001161669
196	0x3814fa17	3.5518864e-05
197	0xb74aa888	-1.20793775e-05
198	0x374b6f0a	1.2125596e-05
199	0x39655e56	0.00021874285
200	0x38aa0238	8.106645e-05
201	0x384eccd1	4.9304977e-05
202	0xb803ac0e	-3.1393072e-05
203	0x389a71bc	7.364477e-05
204	0xb8181338	-3.6257523e-05
205	0x3853efaa	5.0529525e-05
206	0x3826deb1	3.978488e-05
207	0xb7e9e622	-2.7882928e-05
208	0x387f7ee9	6.0914932e-05
209	0x38aa28b9	8.113817e-05
210	0xb74bfd5b	-1.2158732e-05
211	0x378f2fcf	1.7069191e-05
212	0x39388317	0.00017596442
213	0x38e293d3	0.00010804054
214	0x373737fd	1.0920686e-05
215	0xb816f8f4	-3.5994643e-05
216	0x36af5833	5.225674e-06
217	0x38987deb	7.271379e-05
218	0xb6f2b45e	-7.2331595e-06
219	0x3696ae86	4.4906656e-06
220	0x37a6ef93	1.9900303e-05
221	0x36cd4ba3	6.1182814e-06
222	0x38c36466	9.317025e-05
223	0x38b4bcaa	8.61821e-05
224	0x38bbd1dc	8.955944e-05
225	0xb58f79e6	-1.0689807e-06
226	0x37ba05d7	2.2175647e-05
227	0x389e2588	7.541018e-05
228	0x395544d5	0.00020338905
229	0x39004f59	0.0001223659
230	0x38488931	4.7811485e-05
231	0x38946726	7.076403e-05
232	0x389e3fcc	7.54591e-05
233	0x386c3e65	5.6324894e-05
234	0xba08019b	-0.00051882275
235	0x3a10f936	0.00055302994
236	0x3a0b49fc	0.0005313454
237	0xb8e10a41	-0.00010730746
238	0x3a1f5008	0.0006077294
239	0xb92cb1ba	-0.00016469407
240	0x3a797d23	0.0009517243
241	0x39963cac	0.00028655434
242	0x39489af1	0.00019131206
243	0x39a3cb34	0.0003124118
244	0x39542961	0.0002023331
245	0x3a17846a	0.0005779924
246	0x39799003	0.00023800139
247	0x3a8fb01a	0.0010962517
248	0x39b3c4e6	0.0003428824
249	0x3a9491ff	0.0011335014
250	0x3a2813d8	0.00064116484
251	0x3a93fb3a	0.0011290081
252	0x38932447	7.0162634e-05
253	0x34eb7d4a	4.386332e-07
254	0x37489af2	1.1957005e-05
255	0x38947c54	7.080348e-05

exp_avg_sq f4 [64, 95]
0	0x359612eb	1.1181377e-06
1	0x348128f2	2.4057914e-07
2	0x35ecc1de	1.7639793e-06
3	0x35cd888e	1.5313433e-06
4	0x358f3c59	1.0671894e-06
5	0x3556d42f	8.002998e-07
6	0x34ddbcae	4.130174e-07
7	0x360640f9	2.0005375e-06
8	0x357ce3af	9.420864e-07
9	0x34f4ee45	4.5621906e-07
10	0x357e9b40	9.484829e-07
11	0x358d00f9	1.0505602e-06
12	0x3589cb5b	1.026648e-06
13	0x36019769	1.931063e-06
14	0x33d8fbfe	1.0104121e-07
15	0x3486523b	2.5019276e-07
16	0x34292534	1.5752886e-07
17	0x34b241d4	3.320298e-07
18	0x341baf2e	1.449923e-07
19	0x354f18d6	7.714965e-07
20	0x35e4124c	1.6992649e-06
21	0x357b442e	9.3604e-07
22	0x335dedc4	5.167182e-08
23	0x34037221	1.2241846e-07
24	0x34725ab9	2.2571011e-07
25	0x34082487	1.2679276e-07
26	0x335a26f2	5.07925e-08
27	0x342eceb5	1.6280212e-07
28	0x356568aa	8.5461454e-07
29	0x35239075	6.0932445e-07
30	0x351781d8	5.644083e-07
31	0x350a3989	5.149273e-07
32	0x35043bb7	4.926073e-07
33	0x3405e4f9	1.246989e-07
34	0x355a2ccf	8.1276534e-07
35	0x3580c111	9.592933e-07
36	0x350967e8	5.118768e-07
37	0x35724eaf	9.0266525e-07
38	0x35a1b7ab	1.2048889e-06
39	0x35460996	7.37747e-07
40	0x35d8b6d3	1.6146463e-06
41	0x359ebc3a	1.1826698e-06
42	0x35049e96	4.9404605e-07
43	0x35270755	6.222302e-07
44	0x36ae0137	5.1857455e-06
45	0x37ef6ed7	2.8542634e-05
46	0x36db8e80	6.543298e-06
47	0x3709c2d8	8.211202e-06
48	0x381c1969	3.7216963e-05
49	0x370d828b	8.434649e-06
50	0x37b94029	2.2083595e-05
51	0x3729b941	1.0116318e-05
52	0x38a7e102	8.0050915e-05
53	0x38c183c7	9.2275026e-05
54	0x38cd3354	9.784722e-05
55	0x38b64376	8.691002e-05
56	0x38c865cc	9.555704e-05
57	0x38b690ba	8.705394e-05
58	0x38cbd60b	9.719663e-05
59	0x38d34725	0.00010074516
60	0x38e29e43	0.00010805998
61	0x38c1fcd9	9.250054e-05
62	0x34d549e7	3.9728113e-07
63	0x33c8570d	9.32906e-08
64	0x34a7e102	3.126989e-07
65	0x34b17b9d	3.305876e-07
66	0x3413af22	1.3754155e-07
67	0x34c183c4	3.6044923e-07
68	0x34a22e75	3.0208653e-07
69	0x3432cea4	1.6652717e-07
70	0x34cd3354	3.8221572e-07
71	0x34d2ab66	3.9240257e-07
72	0x33dc4a03	1.0258011e-07
73	0x34b64376	3.3949226e-07
74	0x34bd0fe7	3.5215564e-07
75	0x340d959b	1.3186074e-07
76	0x34c865cb	3.7326967e-07
77	0x34d44a8d	3.954232e-07
78	0x33d66d88	9.985075e-08
79	0x34b690b5	3.400543e-07
80	0x34b37eaf	3.3433523e-07
81	0x340f78d2	1.3361867e-07
82	0x34cbd606	3.796742e-07
83	0x34a0e8c4	2.9971682e-07
84	0x343b7b85	1.7460668e-07
85	0x34d34721	3.9353566e-07
86	0x348f5ebb	2.670475e-07
87	0x345b934c	2.044955e-07
88	0x34e29e42	4.2210928e-07
89	0x34c0752b	3.5848038e-07
90	0x340af6ee	1.2942084e-07
91	0x34c1fcd7	3.6133017e-07
92	0x34c0752b	3.5848038e-07
93	0x340af6ee	1.2942084e-07
94	0x34c1fcd8	3.613302e-07
95	0x31bb567f	5.4522498e-09
96	0x312a4703	2.4778621e-09
97	0x333554b8	4.2219398e-08
98	0x331b8837	3.6212636e-08
99	0x3229c770	9.8824415e-09
100	0x32b1df65	2.07071e-08
101	0x32ac0e76	2.0030011e-08
102	0x32c00a3d	2.2356398e-08
103	0x332631be	3.8695127e-08
104	0x3245efe2	1.1521452e-08
105	0x32cec431	2.4070774e-08
106	0x332274d6	3.7824826e-08
107	0x337ddcf7	5.910712e-08
108	0x3271b3b8	1.406891e-08
109	0x31ac674a	5.0176014e-09
110	0x32b276be	2.0775925e-08
111	0x32c20a97	2.2589388e-08
112	0x3214ab5a	8.653695e-09
113	0x31fafa6d	7.3044277e-09
114	0x333adcca	4.3507306e-08
115	0x32a23506	1.8883394e-08
116	0x30986c3e	1.109022e-09
117	0x31e87c54	6.766223e-09
118	0x32e56b56	2.670792e-08
119	0x331e5d06	3.6871846e-08
120	0x3240a319	1.1212955e-08
121	0x323448cc	1.0493931e-08
122	0x32717f99	1.4057059e-08
123	0x3289200d	1.5963474e-08
124	0x300fd006	5.2318716e-10
125	0x327cdb18	1.4718147e-08
126	0x32a5e8a7	1.9314326e-08
127	0x3275ce64	1.4307805e-08
128	0x32f7e8b4	2.8860406e-08
129	0x330c2e45	3.2638372e-08
130	0x320b3f56	8.105266e-09
131	0x327915da	1.4498676e-08
132	0x327f05f3	1.4844306e-08
133	0x32549bd2	1.23754536e-08
134	0x33273abd	3.893614e-08
135	0x329a0a5f	1.7932676e-08
136	0x30a879d3	1.2258233e-09
137	0x3264d601	1.33200055e-08
138	0x329f8a09	1.8572807e-08
139	0x34b59975	3.3825532e-07
140	0x35143730	5.5214605e-07
141	0x35370758	6.81835e-07
142	0x344f207d	1.9290196e-07
143	0x35078a10	5.0492326e-07
144	0x346f2499	2.2271924e-07
145	0x35d2986d	1.5690581e-06
146	0x3400475c	1.194689e-07
147	0x337d643e	5.8997323e-08
148	0x337d8d90	5.9034903e-08
149	0x33f7a835	1.15324305e-07
150	0x348c39e0	2.6119142e-07
151	0x3524e9e5	6.143512e-07
152	0x35939646	1.0996089e-06
153	0x35ab119d	1.2745619e-06
154	0x35c8b06c	1.4952507e-06
155	0x35e042b1	1.670871e-06
156	0x36057713	1.9887855e-06
157	0x32081042	7.9199385e-09
158	0x2c126354	2.0802986e-12
159	0x2f7d643d	2.3045828e-10
160	0x32081f00	7.9232905e-09
161	0x28cf2cbd	2.3001019e-14
162	0x2f7d8d8b	2.3060502e-10
163	0x3208151d	7.9210425e-09
164	0x2e259c1d	3.7655313e-11
165	0x2ff7a836	4.504856e-10
166	0x3206af41	7.839675e-09
167	0x2ea562e0	7.520895e-11
168	0x308c39de	1.0202788e-09
169	0x31f03b51	6.991663e-09
170	0x309d3ba1	1.1440201e-09
171	0x3124e9e7	2.39981e-09
172	0x31c0db2e	5.6128533e-09
173	0x31316d64	2.5819071e-09
174	0x31939645	4.2953467e-09
175	0x31a28d19	4.7308615e-09
176	0x316e370d	3.466485e-09
177	0x31ab119a	4.978756e-09
178	0x3160ed44	3.273116e-09
179	0x31a291a2	4.731377e-09
180	0x31c8b06c	5.840823e-09
181	0x31498382	2.9324103e-09
182	0x31b5bdab	5.289356e-09
183	0x31e042ae	6.5268386e-09
184	0x2f8006a4	2.3287783e-10
185	0x32042407	7.691603e-09
186	0x32057712	7.768692e-09
187	0x2f8006a4	2.3287783e-10
188	0x32042407	7.691603e-09
189	0x32057712	7.768692e-09
190	0x32ef9c5b	2.7894364e-08
191	0x3282cac7	1.5226204e-08
192	0x3415065f	1.3879024e-07
193	0x3423aed9	1.5244167e-07
194	0x333f403a	4.4529067e-08
195	0x33c7286f	9.2740144e-08
196	0x337af55a	5.8430807e-08
197	0x33a8c323	7.858605e-08
198	0x3415308a	1.3894365e-07
199	0x33a51be8	7.6884874e-08
200	0x33b1771d	8.2638714e-08
201	0x342e8a38	1.6255296e-07
202	0x344f79b6	1.9322655e-07
203	0x3382fa75	6.0991546e-08
204	0x32e8fa2b	2.7122118e-08
205	0x33d12197	9.738431e-08
206	0x3399aeb7	7.156398e-08
207	0x332c0dcd	4.0059422e-08
208	0x32874e62	1.5751713e-08
209	0x3412583e	1.3629412e-07
210	0x3322bac5	3.788843e-08
211	0x31ae8aac	5.0798317e-09
212	0x3391f24d	6.796163e-08
213	0x33ecc057	1.1024593e-07
214	0x33f041c1	1.11878315e-07
215	0x329c678f	1.8207883e-08
216	0x32881169	1.5840401e-08
217	0x3274f5e2	1.42585765e-08
218	0x326f0062	1.3911718e-08
219	0x31287888	2.4515732e-09
220	0x332f2425	4.0778236e-08
221	0x3387b2fd	6.318985e-08
222	0x331ecef8	3.697548e-08
223	0x339664d1	7.003258e-08
224	0x33ae8cf6	8.128147e-08
225	0x318e5bb3	4.143169e-09
226	0x32c11737	2.2478714e-08
227	0x338b9342	6.499478e-08
228	0x33318995	4.1336154e-08
229	0x3403849d	1.224857e-07
230	0x339b10a2	7.2207754e-08
231	0x326c2c12	1.3747028e-08
232	0x333e1171	4.4253685e-08
233	0x3381e8af	6.0493555e-08
234	0x35a93b2b	1.2608701e-06
235	0x3600b609	1.9179445e-06
236	0x3631c02e	2.6486919e-06
237	0x354499e9	7.323966e-07
238	0x36043f3e	1.9706345e-06
239	0x357854b8	9.251048e-07
240	0x36b94359	5.52127e-06
241	0x34cdc223	3.832548e-07
242	0x34341265	1.6770498e-07
243	0x3489a353	2.5637073e-07
244	0x348e5c9d	2.6516946e-07
245	0x35c0c2c5	1.43618e-06
246	0x35bdb22d	1.4133453e-06
247	0x36bf2ee6	5.6977033e-06
248	0x3661e213	3.3659205e-06
249	0x36e78dd5	6.900848e-06
250	0x36afa886	5.235025e-06
251	0x3702c51d	7.794498e-06
252	0x3303059d	3.050592e-08
253	0x2bc7fed2	1.4210527e-12
254	0x30341264	6.5509753e-10
255	0x33030a5c	3.0510236e-08
