results/checkpoints/b075 (01)/Dynamic Table/Dynamic Table-1499994.onnx (onnx, 74838 bytes, 9 tensors)

network_body._body_endoder.seq_layers.0.weight f4 [64, 95]
000000 2b a6 5c bd 73 01 d5 bc 3a a2 62 3d 84 d2 07 ba
       -0.053869408 -0.026001668 0.055330493 -0.00051812106
000010 1c cd 46 bd ee f3 13 be 4d 17 38 be b2 78 61 be
       -0.04853545 -0.1444852 -0.17977639 -0.22018698
000020 c2 d0 38 3e 44 5c ce bb 77 c3 65 3e 3d a8 5e bd
       0.18048385 -0.00629762 0.22437845 -0.054359663
000030 28 d3 42 3b 72 b6 c6 3d 24 30 fe bb 1f 16 14 3e
       0.002972791 0.097027674 -0.0077572037 0.14461564
000040 a6 ab f8 3c 4c 1a e2 bd 5e 5b 4c bd 05 99 82 be
       0.030355286 -0.11040172 -0.049891822 -0.2550737
000050 3c 03 16 3e cc b7 51 be 7f 2b 86 be fd 4c 02 3e
       0.14649671 -0.20480269 -0.2620506 0.12724681
000060 22 0e 1f be c4 45 2e bd 73 ef e4 3c 28 3e 7d bb
       -0.15532735 -0.042547002 0.02794621 -0.0038641784
000070 c7 20 88 3c cc c5 b1 bb b9 a2 61 bc ad 4d fe 3c
       0.016617192 -0.0054251906 -0.013771706 0.031042898
000080 bb 52 d3 3c f0 5f 1e be 60 85 0a 3e 5f 03 e2 3d
       0.025796285 -0.15466285 0.13527441 0.11035799
000090 dc ff 65 be 6e 73 a1 3c 93 cd e9 bd 22 3d 9e bd
       -0.22460884 0.019708361 -0.11416163 -0.07726504
0000a0 f7 0b 42 be df 2a 03 bd 9f ea ce 3d 3c 3b 32 3d
       -0.18949877 -0.032023307 0.10103344 0.04351352
0000b0 2f 03 13 3e 71 e6 d7 3d a0 10 0c 3e fe 8c 44 3e
       0.14356683 0.10542 0.13678217 0.19194409
0000c0 19 b7 50 3c 66 3f f8 bd c7 e2 88 3d 3d 92 a9 bb
       0.012738966 -0.12121467 0.06683879 -0.0051749037
0000d0 10 55 bc bd 03 4e 79 be 99 52 8a 3d c4 1b 80 bd
       -0.09195912 -0.24346165 0.067540355 -0.06255296
0000e0 25 f5 5b bd 69 3b 6c bd 3f 33 af 3d 6d 58 2b 3e
       -0.053700585 -0.057673845 0.08554696 0.1673295
0000f0 aa 1d 80 bd 98 61 53 be d6 4f f2 3d b4 be 10 be
       -0.06255658 -0.20642698 0.11831634 -0.14135247
000100 08 5b bb bc a5 de c6 3d 7f c7 1b be 7c ee 98 bd
       -0.022870556 0.09710435 -0.1521282 -0.07467362
000110 4b 8c 6c bd a3 3c 3a 3e 8d d3 b5 3d 5e f0 39 3d
       -0.05775098 0.18187194 0.08878241 0.045395248
000120 02 7a 28 3d e1 6b a0 bc d3 c9 e4 3d 41 ef f9 3d
       0.04113198 -0.01958269 0.111713074 0.12203837
000130 a0 6b 59 3e 9e 99 0b bd 39 73 f3 3c 4b f5 c0 bc
       0.21232462 -0.034082048 0.029718028 -0.023554465
000140 b4 b9 61 3c 45 8a d8 bd c9 46 d6 bb 0c cc 87 3c
       0.013777185 -0.10573248 -0.0065392 0.01657679
000150 3d bf ae bd 14 fb 83 3d 23 eb d2 3d b9 d6 ab bb
       -0.085325696 0.06444374 0.10298755 -0.005244103
000160 1b 83 67 3d 2e 22 d3 3d a0 cc 07 be df 3e 47 bd
       0.056521516 0.10309254 -0.13261652 -0.048643943
000170 37 c1 34 be f8 10 06 be e5 09 d3 3d 79 29 12 be
       -0.1765183 -0.1309241 0.103046216 -0.14273633
000180 78 89 03 3d af 74 13 3d fe 93 9a bc 11 a0 33 be
       0.032113522 0.03599995 -0.018869396 -0.17541529
000190 9d ba bf 3d e6 01 18 3e 0c 1c 46 3e 21 08 89 bd
       0.093617655 0.14844474 0.19346637 -0.066910036
0001a0 cc 46 47 bc 42 68 5e bd cf 91 f2 3c 21 70 ff 3d
       -0.012162875 -0.054298647 0.029610543 0.12472559
0001b0 ed 6d 19 bd 55 b9 08 be de 8e 05 be 82 70 e4 3d
       -0.03745835 -0.13351949 -0.13042781 0.11154272
0001c0 44 71 c8 3d 4e 79 88 bd 94 7a 4b bd 04 a5 40 be
       0.09787229 -0.06663762 -0.049677446 -0.18812948
0001d0 73 d0 8b bd 93 bb ad bd bb 8f b2 bd 56 b4 88 3c
       -0.06826868 -0.084830426 -0.08718821 0.016687553
0001e0 11 95 12 be 89 25 e5 3d 80 19 6e be 5a 4b e0 3d
       -0.14314677 0.111888 -0.23251915 0.10951872
0001f0 5a dd 97 3e 8f 12 0e be 78 ad 89 3d 76 23 ec bd
       0.29661065 -0.13874267 0.0672254 -0.11530201
000200 97 22 49 bd 88 4a 45 3d 0d 8f 3e bb 1f bf d8 bd
       -0.049105253 0.04816678 -0.0029076964 -0.105833285
000210 be a3 b1 bd b2 db b5 3d 4c 10 0e 3d e8 68 8c bc
       -0.086738095 0.08879794 0.03468351 -0.017139867
000220 5e eb 0e 3d df e0 59 3e f6 7d 52 3d d1 c3 99 3d
       0.034892432 0.21277188 0.051389657 0.07508052
000230 bc fc e8 bd 84 82 b3 3d 5f 4e c6 3d d7 19 0f bd
       -0.1137633 0.08765128 0.09682917 -0.034936752
000240 29 f1 b9 3c f9 a2 99 bd 60 7b ec bd 52 73 0d be
       0.022698002 -0.07501788 -0.115469694 -0.13813522
000250 ea 36 a2 bd 10 02 aa 3d 4d 96 d3 bb a4 86 59 3e
       -0.0792063 0.08301175 -0.0064571262 0.21242768
000260 a1 74 ac bd 86 80 2a 3d 34 7a 3a be e1 c0 a4 bd
       -0.08420683 0.041626476 -0.1821068 -0.08044601
000270 02 a0 dd 3d 06 3f f4 bc 53 6f 51 be 73 86 da bd
       0.10821535 -0.029815208 -0.20452623 -0.106701754
000280 22 9a 88 bd 01 38 f4 3c ee 23 56 be 28 05 3a be
       -0.066700235 0.029811861 -0.20912144 -0.1816603
000290 ed 00 f7 bb a0 e4 e4 bd 38 db b5 3b 1b c3 87 bd
       -0.007537952 -0.11176419 0.0055498146 -0.0662901
0002a0 75 02 93 be 9e f9 2c bd e2 87 24 3d 16 96 02 3e
       -0.28712812 -0.04223024 0.04016865 0.12752566
0002b0 af 3f b8 3d 4c 75 69 3d db d3 ac 3c a0 05 13 be
       0.08996522 0.05699663 0.021097114 -0.14357615
0002c0 b1 2c 46 3e be 50 77 3c 56 72 b0 3c ab 09 17 be
       0.19352986 0.015094934 0.021538895 -0.14749782
0002d0 c5 55 6d bd f2 29 9a 3d af 4c 2e 3d 9c d8 12 be
       -0.057943124 0.07527532 0.0425536 -0.14340442
0002e0 6b c3 72 3e ec 56 45 3d e2 43 80 3e 3b f0 c5 3d
       0.23707359 0.0481786 0.2505179 0.09664961
0002f0 df 5e 67 be bf fc 83 bd db cb 87 3d 68 ad 05 be
       -0.22594784 -0.06444692 0.06630679 -0.1305443
000300 68 10 0a bd a5 46 9e 3d 88 e1 c5 bd a0 72 48 3e
       -0.033707052 0.07728318 -0.09662157 0.19574976
000310 30 78 df bd 27 54 32 be 21 2e 86 bd c3 dc ef 3d
       -0.10911596 -0.17414914 -0.06551767 0.11712029
000320 5f 8e 8f bd e0 2a 43 be cc 5a 84 3d 1a d1 db bd
       -0.07009577 -0.19059324 0.06462631 -0.10733242
000330 20 31 d0 3d ad 02 cd 3c 58 bd 9b 3d f7 b6 15 bd
       0.1016562 0.02502569 0.07604474 -0.036551442
000340 a2 80 81 be 5c 18 2b 3d 6e 68 c8 bb d8 47 15 3e
       -0.25293452 0.041771278 -0.0061159646 0.14578187
000350 82 33 d2 3c 5b 27 ee 3d e0 70 b0 3d 99 da 07 bd
       0.025659326 0.116286 0.08615279 -0.033167455
000360 32 4a f7 bd f6 83 a1 ba 2e 59 80 3e c2 ed f7 3d
       -0.120746985 -0.0012322653 0.2506804 0.121058956
000370 83 bf 0a be 5d 96 d5 3b f9 63 e8 bd 32 79 0c be
       -0.13549618 0.006518169 -0.11347193 -0.13718107
000380 ef 95 f3 bd eb 7a 7a bd 7b 57 dd bc 38 c0 46 bd
       -0.11893832 -0.06115238 -0.027019253 -0.048523158
000390 2b 1f 9f bd 5b 2e 35 3e c5 49 44 3d 7a 5b 8f bc
       -0.07769617 0.17693464 0.047921915 -0.017499674
0003a0 2e 22 a3 bc 1f 7d a7 bd bf a0 90 bd f4 4c 8b 3b
       -0.01991376 -0.08178162 -0.0706191 0.004251117
0003b0 3f 7c c7 bc 91 46 13 3e 8a 64 cf 3d d6 99 48 3e
       -0.024351237 0.14382388 0.10126598 0.19589934
0003c0 c2 f9 ea bd 4b a3 b2 3c 09 8d 33 bc 8d ec 13 be
       -0.11473419 0.02180638 -0.010958918 -0.14445706
0003d0 94 32 9a be f0 3e df 3d bc c8 76 be 09 7a f6 bd
       -0.30116713 0.10900676 -0.24100012 -0.12034995
0003e0 72 50 7d bc ae fe 62 be 8a a1 b2 3d c9 7a c9 bd
       -0.015461074 -0.22167465 0.087222174 -0.098378725
0003f0 38 b4 06 3e 43 67 f6 bc 50 4f 04 3d f0 c2 a7 bd
       0.13154685 -0.030078536 0.0323022 -0.08191478

network_body._body_endoder.seq_layers.0.bias f4 [64]
000000 62 bd d8 3c bd 0c 8e bb a5 79 ac bb fd 72 5f bb
       0.026457492 -0.0043350146 -0.0052635246 -0.0034095638
000010 74 46 31 bb f0 28 39 bd 12 91 ef 3b e7 bf 80 bc
       -0.002705005 -0.045205057 0.007310995 -0.015716506
000020 fa d5 97 ba 15 14 79 bb a4 3a 8f 3c 31 10 9c bc
       -0.0011584156 -0.0038006355 0.017484017 -0.01905069
000030 9d 66 0b bd 44 56 9b 3b 7f be ac 3b 2c dc c7 3c
       -0.034033407 0.0047405083 0.0052717323 0.024396978
000040 1d 3e 77 3c c8 4c b9 bc 79 f9 c1 bc 80 fa 07 bd
       0.015090493 -0.02261962 -0.023678528 -0.03319788
000050 61 c0 4e 3c f1 c0 9d bc 06 9a 26 bd ae 81 38 bc
       0.012619109 -0.01925704 -0.040674232 -0.011261387
000060 bb 83 4d 3c 37 d1 7b 3c 6e d2 3c bc 71 e7 22 3c
       0.012543614 0.015369705 -0.01152478 0.009942875
000070 ec 0c fe 3b 02 8a d3 3c 12 be 8d 3c 62 a5 18 3d
       0.0077530053 0.025822643 0.017302547 0.037267096
000080 a3 cd 69 bc 98 bd f4 bb 89 ef 87 3c 25 44 7f bd
       -0.014270219 -0.0074688904 0.016593711 -0.062320847
000090 07 c1 a5 bc bc f2 25 3c d5 c1 02 bd 42 99 a5 bc
       -0.020233644 0.010128673 -0.031923134 -0.02021468
0000a0 d5 f2 7f bc 7c cd dc bc 64 58 d3 bc 1f e0 aa bc
       -0.0156218605 -0.026953451 -0.025798984 -0.020858822
0000b0 5c 1a 82 bb f9 1a ec bb 77 c7 81 3c 92 cf 19 3c
       -0.0039704274 -0.007205364 0.015842183 0.0093878675
0000c0 c6 6e 7f b8 5d 59 ce 3c 82 e0 fe 3c 1b ab b0 bc
       -6.0899903e-05 0.025189096 0.031112913 -0.021565964
0000d0 d7 af ea bb f1 8a 0e bc eb c7 3c bc 6f 11 0e bd
       -0.007162075 -0.008700118 -0.0115222735 -0.034684595
0000e0 cb ba c4 bc fe 2f 63 bc 6c d3 ea bc 18 98 a1 3c
       -0.024014851 -0.013866423 -0.028665267 0.019725844
0000f0 a2 d1 56 bc 69 0f 3f bd 2a 84 f8 bb c3 52 31 3c
       -0.013111504 -0.046645556 -0.0075841146 0.010822955

network_body._body_endoder.seq_layers.2.weight f4 [64, 64]
000000 21 4b 35 be cd 5d 95 bb 56 b4 e5 3d 9d a1 7a 3d
       -0.1770444 -0.004558301 0.11216037 0.061189283
000010 92 4a 1e bd e6 1d a4 3c d1 ff e2 bc 67 78 4b bd
       -0.038645335 0.020033788 -0.027709873 -0.04967537
000020 72 f4 ad bc 82 4d 20 3d 79 1f 67 be e6 b0 38 be
       -0.021234725 0.039136417 -0.225706 -0.18036231
000030 f1 38 80 3e 72 d3 c4 bd de ce 9e 3d 85 05 a4 be
       0.25043443 -0.096106425 0.077543005 -0.3203546
000040 a9 36 30 be 8d 99 8f 3d e3 d0 2f 3e 42 ce 1e 3d
       -0.17208351 0.07011709 0.17169528 0.03877092
000050 11 7e 20 3e b7 6c ab bd a9 7d 0e 3d 03 d2 68 be
       0.1567309 -0.08370345 0.034787808 -0.22736363
000060 80 b7 9c 3d c2 67 74 be bc df 81 3e 2c ac 5d 3c
       0.07652187 -0.23867705 0.25366008 0.0135298185
000070 5e e4 58 be b5 88 da bd 5b d5 97 3d b7 7d bb bd
       -0.21180865 -0.10670606 0.07413741 -0.091548376
000080 da 07 7b bd 1e 2d 86 bd 68 ee 58 bd 17 b7 1b 3e
       -0.061286785 -0.06551574 -0.052961737 0.15206562
000090 c9 d7 b8 bd 71 94 5c be af 8e 6d bd d9 85 1c 3e
       -0.09025533 -0.21541001 -0.0579974 0.15285434
0000a0 7f ee 21 bc 34 f6 86 bd 7f e4 8b 3d 79 35 0f be
       -0.009883522 -0.06589928 0.068306915 -0.13985242
0000b0 7e 26 b6 bc 51 f4 98 bd 85 26 2b 3e ff d4 1c bd
       -0.022235151 -0.07468475 0.16713913 -0.038289066
0000c0 e0 a4 6a be f2 08 46 3e 57 07 ac bd 95 14 b1 bd
       -0.22914457 0.1933935 -0.083998375 -0.08646504
0000d0 a4 e8 3b be 7f af 29 3a 6b 01 4f 3d 2a 5d a0 be
       -0.18350464 0.00064729893 0.05053846 -0.3132108
0000e0 38 ee 00 3e a6 8c 88 bd e1 9b 8f be a7 02 8e bd
       0.12590873 -0.066674516 -0.28048614 -0.069341
0000f0 d3 25 f4 bd 56 8a 40 3c 04 51 7e 3e 4b 6e 28 be
       -0.11921277 0.011751732 0.24835593 -0.16448323
000100 ad ae 8e bd 4e c1 88 3b 3c eb b1 bc dc 51 cc 3b
       -0.069669105 0.0041734343 -0.021718614 0.0062353443
000110 7d 83 9d 3d 5e 25 d1 bd 6b 82 5e 3d 1d 34 cd 3d
       0.07691095 -0.10212205 0.054323595 0.100197054
000120 12 5c b9 be 63 e3 dc bc 44 a1 d7 bb 14 f9 58 3b
       -0.36203057 -0.026963895 -0.0065805037 0.0033107447
000130 2b 08 98 bd da 87 a8 be 25 fd df bd 4b 94 98 be
       -0.07423433 -0.32916147 -0.10936955 -0.2980064
000140 6a 79 0d be c5 67 80 be bf 7b 5e be a0 86 ef 3c
       -0.13815847 -0.2507917 -0.21726893 0.029238999
000150 73 c6 d1 3d e4 c8 ac be cb 29 9b 3e 04 6a cc 3d
       0.10242929 -0.33747017 0.30305323 0.099811584
000160 58 2e 0f 3e cd 5a 95 3c 7d c0 1f 3d cd b9 9f bd
       0.13982522 0.018231774 0.03900193 -0.077991106
000170 20 55 fe bb 7d 77 2b 3d bc c7 20 bd 2e bf fd 3d
       -0.0077616125 0.041862 -0.03925298 0.1238998
000180 6f 2f a4 3d f0 72 c3 bd 4c 9d e3 3d 36 67 8c 3d
       0.0801686 -0.09543407 0.111139864 0.068556234
000190 27 83 34 3e c5 2d f0 bd 6f dd 7f 3c ea b3 ae 3d
       0.17628156 -0.1172748 0.015616759 0.0853041
0001a0 eb fd 81 3e 11 e7 3e 3c 26 4e 04 3e 64 03 d0 3d
       0.25389037 0.01165177 0.12920436 0.10156897
0001b0 3a 03 f4 3d a8 90 0f bc 23 e1 5f be 1c 61 5d 3d
       0.11914678 -0.008762516 -0.21863227 0.05404769
0001c0 4c cb c8 bd d6 c9 53 be c0 51 a8 bd 0e 5a 36 be
       -0.09804401 -0.20682463 -0.082187176 -0.1780779
0001d0 3a 18 2d be 2d 3b f4 bc f1 d6 fb bd af 3b 20 3e
       -0.16903773 -0.029813373 -0.12296856 0.15647767
0001e0 91 82 57 bd 82 cc dc bd 73 d0 8f be c2 fd 82 bd
       -0.052614752 -0.10781194 -0.28088722 -0.06396057
0001f0 20 44 08 bd d5 90 ed bd 9f ca 7f be 33 dc f9 bd
       -0.033268094 -0.1159989 -0.24979638 -0.12200203
000200 9e a8 e2 3d 60 c2 97 3d 9d 82 24 3e 1e 14 3c bd
       0.110673174 0.07410121 0.1606545 -0.045917623
000210 3f f5 6a be fa af 5f 3d d0 c9 07 be 63 db ee bc
       -0.22945116 0.054611184 -0.13260579 -0.029157346
000220 36 c6 1a 3d 33 fa 18 3e b2 f4 4c bd ea 82 db 3d
       0.037786685 0.14939193 -0.050038047 0.10718329
000230 5a 80 b9 bd 31 00 5a be 19 dc b4 be 1a 88 83 3e
       -0.09057684 -0.21289136 -0.3532417 0.25689775
000240 e0 ac 2e be 5e ee a4 3c 80 2c 45 be da 74 5c 3c
       -0.17058134 0.020133194 -0.19255257 0.013455594
000250 22 cc 81 be 58 5b 10 3e 01 72 38 bd b1 fa 7c bd
       -0.25351053 0.14097345 -0.045030598 -0.061762515
000260 da 26 bc bd a6 b3 95 3d f7 ed 3a 3e 09 66 28 3c
       -0.09187098 0.07309656 0.18254839 0.010278233
000270 90 6b ae bd 48 80 7d 3e d4 45 9e 3c 12 81 0f 3e
       -0.0851661 0.24755967 0.019320406 0.1401408
000280 1f 4d ad bd 20 3f 97 3e 83 9a 91 3c 88 2e 77 bc
       -0.08461975 0.29540348 0.017773872 -0.0150867775
000290 ec 6e ef 3b d9 c2 28 bd 78 09 bc 3d a8 ac 83 bc
       0.007306924 -0.041201446 0.091814935 -0.01607354
0002a0 63 b1 76 bd 0f fd 0a 3c 71 ce 0f bd 71 a2 09 be
       -0.060227763 0.008483185 -0.035108987 -0.13440873
0002b0 0d 94 f1 bc 37 e8 53 3e 59 6c 93 be da da 50 3c
       -0.029489541 0.20694052 -0.287936 0.012747491
0002c0 fd 4f 44 3e 9b 3a cc 3d 50 45 4e be 69 9d 1b 3e
       0.19171138 0.099721156 -0.20143628 0.15196766
0002d0 fd b5 b6 bd 4f 08 d4 3d 5c 49 6a 3d 66 ef 46 3d
       -0.0892143 0.10353147 0.057198867 0.048568152
0002e0 e6 19 8a 3d ef 6c d8 bd bc 8e 88 be 46 b6 55 3e
       0.06743221 -0.105676524 -0.26671398 0.20870313
0002f0 98 11 07 be db c4 96 bd 71 eb 17 bd 22 ea 80 3e
       -0.13190305 -0.07361766 -0.03708977 0.2517863
000300 92 cd 96 bd 9b 4d 72 be b0 0b f3 3d 0d 40 ac bc
       -0.07363428 -0.23662417 0.118674636 -0.021026636
000310 01 05 16 3e 46 77 66 be dd f1 aa bd 3c b0 00 3e
       0.14650346 -0.22506437 -0.08346913 0.12567228
000320 e5 ac 97 bc a5 f5 b9 bd 8b 77 03 3e 08 1f 22 3e
       -0.01851506 -0.09080056 0.12838571 0.1583215
000330 1c 9f 16 3e 7c bb 83 bd 9e d4 21 3e c6 94 36 be
       0.14709133 -0.06432244 0.15803763 -0.1783019
000340 1d 19 17 3e 10 21 13 3e ee d1 79 3c fe 3b 4b 3e
       0.14755674 0.14368081 0.015247805 0.19847104
000350 04 0d ac bc 1e b0 05 be 22 27 fa 3c 48 fa 99 be
       -0.0210023 -0.13055465 0.030536238 -0.30073762
000360 ae 1b c0 bd 61 6a 41 3e 9e af af bd 21 49 c0 3d
       -0.093802795 0.18888237 -0.08578418 0.09388948
000370 b4 1d 10 be 97 14 89 bd f9 ca 06 3e b6 6c 41 be
       -0.14073831 -0.0669338 0.13163365 -0.18889126
000380 99 0c 83 bc d2 c7 8a 3d b4 8a 44 3e e5 5d bf 3d
       -0.015997218 0.06776394 0.19193536 0.09344081
000390 6d 1e 33 be 6e 00 45 be 18 f1 06 3d f0 0e b1 ba
       -0.17492075 -0.19238445 0.03294477 -0.001350848
0003a0 ec cf 2b be c8 d6 3a 3e 6b 15 dd bd a5 cf 34 3e
       -0.16778535 0.18245995 -0.10795101 0.17657335
0003b0 29 ca 2c 3d 17 a7 1d be 23 0b cb 3c fb fa 40 be
       0.042184982 -0.15395771 0.024785584 -0.18845741
0003c0 14 a5 97 bc c1 d2 4b be 10 03 89 3e b2 d1 f0 3c
       -0.018511333 -0.19904615 0.2676015 0.029396866
0003d0 83 9e 27 bd 33 30 26 be d1 13 9b 3c 90 f4 80 3c
       -0.040922653 -0.16229324 0.018930348 0.015741616
0003e0 44 a1 51 3e 91 8a 75 3e 51 93 23 3d 6f 64 4a be
       0.20471674 0.2397864 0.039935414 -0.19764875
0003f0 73 31 88 3d 1e b7 6a 3d d3 98 34 3e ca 8a 52 3d
       0.06650057 0.05730354 0.17636423 0.05140189

network_body._body_endoder.seq_layers.2.bias f4 [64]
000000 f1 73 8e bd e5 7a 31 bc 9d 3c f7 3c cb ee 03 bd
       -0.06955708 -0.010832523 0.03018027 -0.032210153
000010 23 7d 49 3b d7 9a e7 3b 5b 7e 41 3c aa e6 06 bc
       0.0030744753 0.007068019 0.011809911 -0.008233706
000020 bd 1f 85 bb 0d 97 96 bc 58 ee 62 bc f5 8f 8f bc
       -0.0040626214 -0.018382574 -0.013850771 -0.017524699
000030 95 f4 dd bc e8 d7 9d bc 1a f8 29 bd d7 c9 ea bb
       -0.027094165 -0.019267991 -0.041496374 -0.0071651745
000040 c0 4f c3 3b 57 e8 fc bc 2f 83 10 bc da 0b 14 bd
       0.0059604347 -0.030872507 -0.008820339 -0.036144115
000050 aa 40 eb ba c0 a9 84 3c 29 a3 a5 3c e8 c0 55 3c
       -0.0017948349 0.016194224 0.020219402 0.013046481
000060 75 6a 57 3c 5c 9a 89 bc fb d1 19 bd ee 31 86 3c
       0.01314794 -0.016797237 -0.03755377 0.01638123
000070 40 dc 5e bd 1b f3 29 bb 0b 43 b6 bc 4c d8 92 bc
       -0.054409266 -0.0025932256 -0.022248765 -0.017925404
000080 97 44 5b 3c e7 de 41 bc f9 be 6b bc 55 d0 ad 3c
       0.013383052 -0.011832929 -0.014388793 0.021217505
000090 fe 9b 54 3c 2f c7 fc bc 53 6a 6c 3c 39 68 ff 3c
       0.012976645 -0.030856697 0.014429647 0.031177627
0000a0 c1 85 29 bd c6 6f 31 bd 77 1d 06 3d 71 bf 80 3c
       -0.041387323 -0.043319486 0.032742944 0.015716286
0000b0 74 76 e9 3a 84 a7 1b bd 3d 1f a6 3b c1 d7 f7 3c
       0.0017811791 -0.038001552 0.005069642 0.030254247
0000c0 65 02 4c 3d fe a1 a0 bc 6c 84 2a bb e7 51 7b bb
       0.04980697 -0.019608494 -0.002601887 -0.0038348378
0000d0 e8 b6 a8 bc ee d3 68 bc 2f 18 b2 bc 64 da 7a bc
       -0.020595029 -0.014210684 -0.021740047 -0.015310857
0000e0 88 cd 17 3c ee aa 72 bd 5c 5d 1b bd 01 61 6d 3c
       0.009265311 -0.059245043 -0.03793083 0.01448846
0000f0 6e ab d3 bb f8 de 13 bd 8e e0 b8 bc d1 ce 63 3c
       -0.006459645 -0.03610131 -0.022568014 0.013904289

network_body._body_endoder.seq_layers.4.weight f4 [64, 64]
000000 87 42 52 be 79 ca 8f be 6f 18 66 be dc a3 cb 3d
       -0.2053319 -0.28084162 -0.22470258 0.09943363
000010 da 48 f9 3d 79 e1 cc bd 95 06 33 3e a9 f2 96 3d
       0.121720985 -0.10003943 0.1748298 0.073705025
000020 a6 f2 ad bd 3c 3f e2 3d bf b2 e8 bd a1 d4 7b be
       -0.08493547 0.11047217 -0.11362218 -0.2459283
000030 58 53 0e 3e da db cf bb 2e 36 94 3d aa c4 ef 3b
       0.1389898 -0.006343347 0.072368965 0.0073171454
000040 e4 83 02 be 00 64 f6 bd 3c 21 1a be d8 4d 92 be
       -0.12745625 -0.12030792 -0.1505174 -0.28575015
000050 65 a1 50 bd b9 23 a5 3e c6 61 0b 3e 48 91 1f be
       -0.050935168 0.32253817 0.13611516 -0.15582764
000060 68 b2 a3 3e e7 a4 18 be 52 6a 33 3d 93 9c 23 3e
       0.3197205 -0.14906655 0.043802567 0.15977697
000070 9f 77 91 3d 84 c6 94 3d 86 ff 5f be 3b 33 1b 3e
       0.07102894 0.07264426 -0.21874818 0.15156262
000080 11 78 42 3e ce d2 15 be 30 e8 bd 39 89 81 25 3e
       0.18991114 -0.14631197 0.00036221882 0.16162695
000090 4a 0d 13 3d a0 fa ee 3d 77 bb 27 be c3 27 54 3d
       0.035901345 0.11668897 -0.16380106 0.051795732
0000a0 10 11 83 bd 7d 5f a7 3e 30 71 c7 3d 13 6f a5 3d
       -0.06399739 0.3269004 0.09738386 0.08077826
0000b0 1d a4 9d 3d 00 8d 12 3e 56 e5 34 be 15 59 3f be
       0.07697318 0.143116 -0.1766561 -0.18686326
0000c0 30 98 04 be 46 a0 8b 3e 30 8c 43 39 f8 53 e2 bd
       -0.1294868 0.27270716 0.00018648873 -0.11051172
0000d0 56 4b db bd 00 70 8a 3d c6 52 ef 3c 39 29 64 3c
       -0.107077286 0.067596436 0.029214274 0.013925844
0000e0 b8 a3 36 bc a1 76 a5 3d de dc 48 be ec 59 21 be
       -0.011147432 0.08079267 -0.19615504 -0.15756959
0000f0 82 6a 40 3c 8e b9 93 3d 84 48 eb 3d 8d 89 cd bd
       0.011744143 0.07213126 0.11488441 -0.10036001
000100 b3 39 9c 3d 75 f3 27 3d 83 e0 4f 3e b0 3a 7c bc
       0.07628193 0.041003663 0.20300488 -0.015394852
000110 df 7d 86 bd 56 96 8f 3d 80 94 89 bd aa c6 49 bd
       -0.06566977 0.07011096 -0.06717777 -0.049261726
000120 a1 88 2a 3d e4 bd 73 bd d0 eb f8 bd a5 6d 5f 3d
       0.041634206 -0.059507266 -0.12154353 0.054547925
000130 9e 63 4b 3e 1b ac d3 bd 2a 00 22 3c 5d f7 22 be
       0.1986222 -0.10335561 0.009887734 -0.15914674
000140 94 58 3e 3e 8c 62 aa bd c7 00 17 3e 1a 90 19 3d
       0.18588477 -0.083195776 0.1474639 0.03749094
000150 d0 8a 87 3d 29 02 05 bd a5 74 84 3d c8 cb 8b 3b
       0.06618273 -0.032472763 0.06467561 0.004266236
000160 98 24 e0 3c 4d d5 aa bd 19 6f bd bd 0f 54 13 be
       0.0273612 -0.08341465 -0.09249706 -0.14387535
000170 12 03 78 bd 67 52 cb 3d 0d c5 11 bd 83 73 da 3d
       -0.060549803 0.099278264 -0.035588313 0.10666563
000180 2e 30 99 bd 2d 28 79 bd ac 89 94 bd 54 18 aa bc
       -0.07479893 -0.06082933 -0.07252821 -0.020763554
000190 f4 2a 19 be 45 bb 34 be 05 4c 96 bd c9 db d7 3c
       -0.14957792 -0.17649563 -0.07338718 0.026349919
0001a0 a5 03 bf bc df d8 6b 3e 8f ca 19 3e c9 1b b8 be
       -0.023317168 0.23031949 0.15018676 -0.35958698
0001b0 e9 99 01 be 6e 4f 2d 3d e6 19 e3 3c 43 c7 93 3e
       -0.12656368 0.04231208 0.02772231 0.28862962
0001c0 22 c7 c6 bd cd ad b7 3e 39 79 1a 3e 7a 24 8d 3d
       -0.0970595 0.35874787 0.15085305 0.06891723
0001d0 4e e7 71 bd b3 97 97 bd d8 89 81 3c 2c e7 84 be
       -0.05905848 -0.07401981 0.0158128 -0.2595762
0001e0 72 62 f9 3d 69 e7 0c 3e 95 66 1f 3e ec 3a 8f bd
       0.1217698 0.13760151 0.15566476 -0.0699366
0001f0 cb 2f 35 be 5d 07 df bd 49 aa a9 bd 5d 61 17 be
       -0.17694013 -0.10890076 -0.082844324 -0.14783235
000200 b8 8d 28 3d 4e 82 8a be 57 82 30 3e d5 0d d2 3d
       0.04115078 -0.2705254 0.1723722 0.102565445
000210 c9 b8 5a 3e 3e 52 83 3d 8d f1 26 bd 19 db 36 bb
       0.21359552 0.06412171 -0.040757705 -0.0027901588
000220 74 96 03 3e dd 8f 6f be c8 4c f5 3c 1a 5a 0d bd
       0.12850362 -0.23394723 0.029943839 -0.034509756
000230 29 8f af bd ac a5 b5 be 69 39 35 bd 33 d9 24 3d
       -0.085722275 -0.3547796 -0.044244204 0.0402462
000240 96 a1 c2 3d 4c c5 76 bd 32 9e 13 3e 95 f2 ff 3d
       0.09503476 -0.06024675 0.14415815 0.12497441
000250 f2 34 23 bd 55 1b 2e be f2 04 5e 3c cf 51 df 3d
       -0.039845414 -0.17002614 0.013550984 0.109042756
000260 44 26 4e bd c1 40 e5 3c 14 18 5b 3e 95 22 86 bd
       -0.05032946 0.027984979 0.21395904 -0.06549565
000270 8d 22 25 be 48 04 72 be 64 55 18 3d 13 a3 c8 3d
       -0.16126461 -0.23634446 0.03719081 0.09796729
000280 69 42 61 bd 07 94 1f 3e 5d 13 60 bd 22 02 f8 bd
       -0.054994974 0.15583812 -0.054705966 -0.12109782
000290 68 df 35 3e 27 c2 32 be 95 cb 6b 3e e6 48 88 bc
       0.17761004 -0.17456876 0.23026879 -0.016636323
0002a0 c3 c4 64 be 56 02 5f 3a 6f 67 88 3c a6 90 75 3e
       -0.22340684 0.0008507123 0.016650883 0.2398096
0002b0 ff dc 30 3e ea 47 48 3e 5b 7f 02 be 9f 8d 71 be
       0.17271803 0.19558683 -0.12743895 -0.2358918
0002c0 d8 6e 22 bd 2b 77 84 3d e1 4b 4f 3e 76 70 88 bd
       -0.03965649 0.06468042 0.2024379 -0.06662075
0002d0 f5 73 d4 3b be 79 7f be 9f 90 c0 bd c2 50 87 bd
       0.0064835497 -0.24948785 -0.09402584 -0.066072
0002e0 5b 61 27 be 01 39 26 3e 7b 46 7c bc 77 b8 db 3d
       -0.16345732 0.16232683 -0.015397663 0.10728543
0002f0 3c 6c d9 3d b3 92 28 bd 71 7d 81 3d a7 23 75 3d
       0.10616347 -0.04115553 0.06322754 0.059848454
000300 d0 a5 93 be 7c 49 7c bd f7 a7 46 3e 46 b9 70 bd
       -0.28837442 -0.061593518 0.19400011 -0.05877044
000310 42 03 e5 3d bc e0 17 3e 94 08 fd bd 8e f2 d8 3e
       0.11182262 0.14831823 -0.12355152 0.42372555
000320 d9 9b 98 3d 5b 3a 4d bd 70 3b d4 3d 69 ab a9 3e
       0.074516006 -0.05010448 0.10362899 0.33138588
000330 3d 56 28 be 05 33 3d bd a0 8c 39 3d 12 31 5f be
       -0.16439147 -0.046191234 0.045300126 -0.21796063
000340 3b 3e c4 bc 41 4e c8 3d be 57 f2 3d c8 07 07 3e
       -0.023955455 0.09780551 0.11833142 0.13186562
000350 2e fe 83 bd 40 d2 8c 3e d0 30 25 3e 51 e1 56 3e
       -0.06444965 0.27504158 0.16131902 0.20984389
000360 e2 d2 2d bd 0d 7f 57 3d 74 33 17 bd 60 ca 55 be
       -0.04243744 0.0526114 -0.036914304 -0.20877981
000370 17 5a a0 3d 40 81 b0 3e 34 87 f2 bd fa 97 f7 3d
       0.07829683 0.3447361 -0.11842194 0.12089534
000380 ab 19 9a bc 02 34 11 bd cf 32 3d 3d 90 fc 20 be
       -0.018811068 -0.03544999 0.046191033 -0.15721345
000390 b6 00 04 be 30 bc 2b be a2 16 89 3d fe 73 68 3a
       -0.12890896 -0.16771007 0.0669377 0.0008867382
0003a0 3a 56 13 be 4e b6 2e 3e 2e 3e 5f 3d 47 92 57 3c
       -0.14388362 0.17061731 0.05450266 0.013157434
0003b0 6d af 13 be 90 94 27 3c 00 91 5b be eb e9 9c be
       -0.14422388 0.010228291 -0.21442032 -0.30647215
0003c0 d6 a1 62 3e d9 4e 50 bd 5e 29 48 3e 34 2d e7 bd
       0.22132048 -0.050856445 0.1954703 -0.11287919
0003d0 53 15 03 3d 17 1d b6 be 02 c5 6d be 26 f2 bc 3c
       0.03200276 -0.3556907 -0.23219684 0.023064684
0003e0 b9 9c d5 3d 99 da 3e 3d 74 d5 35 3c 51 c9 54 bd
       0.10430283 0.04659519 0.0110982545 -0.051949803
0003f0 c4 5f c9 3c 7f 50 8d bd c7 82 0e be b8 8b aa 3d
       0.024581797 -0.06900119 -0.13917075 0.083274305

network_body._body_endoder.seq_layers.4.bias f4 [64]
000000 eb 6a 14 3d 79 a3 50 3c bb 05 0a 3d ef 91 80 bc
       0.036234777 0.012734287 0.03369687 -0.015694587
000010 22 0d 53 3c 8a 5e 30 3c ea d6 49 3c 66 58 92 bc
       0.012881549 0.010764727 0.012319306 -0.017864417
000020 0a 7d 05 bd 49 fa ab 3c 90 47 99 bc de 79 10 bd
       -0.03258995 0.020993369 -0.018710881 -0.03527247
000030 59 53 9b 3c 7d 7e 92 bc 2e c8 e8 bc b0 4d 0b 3d
       0.018960642 -0.01788258 -0.028415766 0.034009635
000040 9a bb 86 bd dc e4 b1 3c 81 c4 b0 3b c3 b7 ad bd
       -0.06578751 0.021715574 0.005394519 -0.084823154
000050 05 a3 59 3d b0 25 77 3c 1d cb 1b bd a0 34 db bc
       0.053133983 0.015084669 -0.0380355 -0.026758492
000060 bc 26 75 3c 69 76 7c 3d 85 61 63 bc 0f 9a a9 ba
       0.014962848 0.061636362 -0.013878231 -0.001293959
000070 62 f4 8a 3c ba 27 9d 3c fc b6 a4 bb 85 07 a2 3d
       0.016962234 0.019183982 -0.0050266962 0.079115905
000080 13 65 8d 3c 57 ba a1 3c bf c1 d1 bc 75 f1 15 3b
       0.01726011 0.019742174 -0.02560508 0.0022879515
000090 6a 9a 4c bb d1 bb 84 bc d5 fb f7 ba 8b a8 32 bc
       -0.0031219968 -0.01620284 -0.0018919656 -0.010904442
0000a0 b7 6e 1c 3d f0 7e 54 3d be c6 a3 bc c5 80 f1 3c
       0.038191523 0.05187887 -0.019992229 0.029480347
0000b0 65 df bb bb 1b 8e ce bb b7 a0 bf 3c 46 7d 53 bb
       -0.005733418 -0.0063035614 0.023392064 -0.0032270714
0000c0 46 a1 e5 3b 05 7e 6b 3c 83 21 67 bd a1 79 1a bd
       0.0070077507 0.014373307 -0.056428444 -0.03771365
0000d0 c4 4f 23 bd 73 b0 ef bc 97 97 b0 bc 14 98 0b bd
       -0.039870992 -0.029258942 -0.021556659 -0.03408058
0000e0 de ce 8b 3d 17 d3 6a bc 41 eb e9 bc ce af 1c 3d
       0.06826566 -0.014332554 -0.02855456 0.038253598
0000f0 57 e3 23 3c ac e8 97 bc 58 e4 24 3c 0b 8f be bc
       0.0100029325 -0.018543564 0.010064207 -0.023261568

action_model._continuous_distribution.log_sigma f4 [1, 44]
000000 6a 3c d7 bd d8 ef 04 bd fc 55 78 bc 42 aa 8c bc
       -0.1050957 -0.032455295 -0.015157219 -0.017171029
000010 64 7d 08 ba 70 2c fd 3d e5 b0 af 3d c3 a5 3d bd
       -0.0005206673 0.123619914 0.08578662 -0.04630066
000020 0a ca 70 bb ba 3d f8 3d 9e eb 8e 3c bc 67 69 3d
       -0.0036741518 0.121211484 0.017446335 0.056983694
000030 6a c1 0f be 11 ea bd bb 01 5e c1 3d e0 77 3e 3d
       -0.14038625 -0.005795725 0.09441758 0.04650104
000040 65 13 04 3e c1 ad f3 3d ca c9 6f 3d f2 65 38 be
       0.12898023 0.11898375 0.05854205 -0.18007639
000050 88 d8 92 3c 4e e3 d0 3d ad b1 d0 bc 18 76 22 bd
       0.017925516 0.10199605 -0.025475347 -0.039663404
000060 1a f9 cf bc b3 06 69 3d 7b 3d c2 bc 48 a4 0a 3d
       -0.025387336 0.056891154 -0.023710957 0.033848077
000070 90 3e 6b bd a4 da 06 3e 2a 12 cd 3d 3f 7d 96 bd
       -0.05743271 0.13169342 0.1001323 -0.073481075
000080 7c 0d 21 bd f2 57 c0 3d 80 28 69 bd bd b3 3f bd
       -0.0393195 0.09391774 -0.05692339 -0.04680227
000090 9f fa 04 bc 40 d1 c8 3c d5 95 fa 3a b8 84 89 bc
       -0.008116393 0.02451384 0.001911814 -0.016786918
0000a0 09 9c dd bd 6e c5 95 bd 32 d7 82 3c 5e 7d 46 bb
       -0.10820777 -0.07313047 0.015971754 -0.0030287127

action_model._continuous_distribution.mu.weight f4 [44, 64]
000000 9e d2 3b 3d 6f 0a aa 3d 53 54 71 bc ea 1f e4 3d
       0.045855157 0.08302771 -0.014729577 0.111388996
000010 ef 1b 4b bd 97 6f 07 bd a7 54 25 bd 32 9a d3 3c
       -0.049587186 -0.033065405 -0.040363934 0.025830362
000020 06 3e 9d 3d a5 0e 86 bb 3c 7d 8f bc f7 4f b4 bc
       0.07677846 -0.0040911012 -0.017515771 -0.022010786
000030 3b 49 51 bd 2e 78 dc 3d b3 82 92 bc e6 94 22 bd
       -0.05109523 0.1076511 -0.017884588 -0.039692782
000040 5c e2 25 3b 1e a1 43 3d 41 3e 28 3d c4 88 8c bc
       0.0025311923 0.047761075 0.041074995 -0.017155059
000050 1d a7 29 bc d3 fe 25 bc d2 db 27 bd 86 1c 86 bd
       -0.010354784 -0.010131556 -0.04098112 -0.06548409
000060 20 6c b0 bb 69 8a bc bd 8c ae 22 3d 2c 14 81 3d
       -0.0053839833 -0.09206087 0.039717242 0.063026756
000070 04 2f 8f bd eb 5d cc bd bf 15 42 bd e8 97 68 bc
       -0.069913894 -0.09978851 -0.04738402 -0.0141963735
000080 c6 fa 6b bc 8f f4 0b 3d 79 25 d4 bc 42 0b 89 bc
       -0.014403051 0.034168776 -0.025896775 -0.016729001
000090 f9 fe f3 bc e8 bf 2c 3d 2b fc 2a bd 46 3e bf bb
       -0.029784666 0.042175204 -0.041744392 -0.005836281
0000a0 4c a0 91 bc 3b a9 05 bc 4e db e2 3d 90 36 d6 bb
       -0.01777663 -0.0081580235 0.11076985 -0.006537266
0000b0 87 01 6c 3c 7a 74 b8 bd b0 8b bc bd 56 9e 4c bd
       0.014404661 -0.09006591 -0.09206331 -0.04995569
0000c0 b9 78 b6 bd 3b bb 21 bd 03 c6 af 3d 50 0e a1 3b
       -0.08909745 -0.039485198 0.085826896 0.0049150363
0000d0 4a a7 99 bc 52 92 c4 3d 2a d2 85 bd a5 1a b7 3c
       -0.018756527 0.09598221 -0.06534226 0.022351572
0000e0 5d bd 9e 3c f5 82 e7 bb 92 e7 c6 3b 7a 1e 05 bd
       0.019377405 -0.007065172 0.006070086 -0.032499768
0000f0 58 f4 df 3b 22 5c 82 bc 38 21 6b 3c 34 cc 5e 3d
       0.006834548 -0.015913073 0.014351182 0.054393962
000100 5b e7 68 3b c9 31 ac bd 54 6f 22 bc c6 a9 b9 3d
       0.003553829 -0.08407933 -0.009914238 0.09065585
000110 08 45 83 bd c9 1c 46 3d d7 35 81 3d b4 c3 af 3c
       -0.06409651 0.048367295 0.06309097 0.021455623
000120 d3 eb 84 3b 91 6e d3 3b e6 49 13 3d 64 c8 b0 bc
       0.0040564328 0.0064523895 0.035959147 -0.021579929
000130 9f 33 ff b9 3c ac dc 3d 88 65 c2 3b 27 a1 8b bc
       -0.0004867585 0.107750386 0.0059325136 -0.017044617
000140 e9 3a 1c bd 6f 3e f3 3d 9a a9 65 bd 0c fb 60 3d
       -0.03814212 0.11877143 -0.056069948 0.054926917
000150 b3 5a 1d be 0f 73 08 3d 4e cf 25 3d 6a 6e 81 3d
       -0.1536663 0.033312853 0.040480904 0.06319888
000160 2a 90 f7 3c 2b c3 bf 3a be 97 b8 3d 4a f2 d3 3d
       0.03022011 0.0014630308 0.090133175 0.10348947
000170 a9 da 41 bd da 5c e3 3c 14 89 67 3c cd 50 e8 bc
       -0.04732767 0.027754236 0.014131803 -0.028358841
000180 13 77 a4 3d 54 57 33 3d 96 4d 9b 3c fe 3c 6d bc
       0.08030524 0.043784454 0.018957894 -0.014479874
000190 92 87 a6 3d f3 63 80 bd ee 7f 98 bc 12 b3 a1 bc
       0.08131327 -0.06269064 -0.01861569 -0.019738708
0001a0 b0 b7 4d bc f5 ac ac 3d f0 e3 43 bd 12 a2 9f 3c
       -0.012556002 0.084314264 -0.0478248 0.01948646
0001b0 53 9f 1e bd 5d 94 c9 bc c4 e3 b7 bc 7b 5e 77 bc
       -0.038726162 -0.024606878 -0.022447474 -0.0150982095
0001c0 67 d5 91 3d 6f 1b bf 3c 6c 81 68 3a d1 45 0d 3d
       0.071207814 0.023328511 0.0008869383 0.03449041
0001d0 6b 16 8e bd 29 10 99 3d c3 19 be bd 56 4a 3d 3e
       -0.0693787 0.074737854 -0.092822574 0.18485388
0001e0 b7 d8 fe 3c 5f 31 0a 3d 7f 91 d2 bd 60 aa 87 3d
       0.031109197 0.03373849 -0.102816574 0.06624293
0001f0 c0 84 a4 bc 0a 30 2b 3d 98 a5 91 3d 5b b3 d0 3d
       -0.020082831 0.04179386 0.071116626 0.10190459
000200 4c ff 3b 3b ca 13 91 bd 07 7f c0 3c 10 58 ad bd
       0.0028686104 -0.070838526 0.023498071 -0.08464062
000210 14 2c 39 3d 2e e8 65 3a 01 41 2c 3d af 75 0b 3d
       0.04520805 0.0008770254 0.04205418 0.03404778
000220 57 93 44 bc 9e 4c 12 3d a1 22 ba 3c a1 89 a9 bc
       -0.011998019 0.0357176 0.02272159 -0.02069551
000230 89 e0 11 3e 7b 2c 4f bd e4 e9 c7 bc 01 28 3d 3c
       0.1424581 -0.05057953 -0.02440352 0.011545182
000240 37 e0 0a 3d 4a bd ff bb f1 01 81 bd 36 df 12 3d
       0.033905234 -0.0078045474 -0.062991984 0.0358574
000250 da 5d bf bd 89 3d 37 3d 17 2a 4b 3c 03 63 56 bb
       -0.09344073 0.04473642 0.012400172 -0.0032712824
000260 71 a8 8a 3d 2b 75 a0 3c ae 9a cc 3d 87 ab 16 3d
       0.06770409 0.01958712 0.0999044 0.036784675
000270 68 1e af 3c 2c 82 a5 3d 44 d5 ff 3c 93 01 e5 bd
       0.021376804 0.08081469 0.031229623 -0.11181941
000280 be 68 d8 3c 3f 5a df 3b 50 c2 19 3b e0 03 e3 3c
       0.026417132 0.006816178 0.0023461767 0.027711809
000290 7e b3 dc 3d 4e 80 41 bd da 5b 31 3d fa 0f 05 bd
       0.10776423 -0.0472415 0.043300487 -0.03248594
0002a0 e6 58 50 bd d4 38 52 bd 3e 89 0d 3c 39 89 66 3d
       -0.05086603 -0.051323727 0.008638678 0.05628321
0002b0 69 35 c0 3d fb 68 5d 3b 72 89 31 3d 16 a8 c8 bc
       0.09385187 0.0033784497 0.04334397 -0.024494212
0002c0 f6 44 15 3d 76 b0 f3 bc f6 8f c8 bd 26 8b b8 3c
       0.03644272 -0.02974723 -0.09793083 0.022527289
0002d0 d6 da ff 3c 2c b3 4c 3d 56 fb ec 3c 88 2d c7 3d
       0.031232279 0.04997556 0.02892844 0.09725481
0002e0 3b b5 fa bb 15 52 ac bc 66 f0 13 3d 50 06 a1 3d
       -0.007650999 -0.021035234 0.036117934 0.07862532
0002f0 5b 4d 2d 3d 83 bf 12 3d da 79 62 bd cc 70 72 3d
       0.0423101 0.03582717 -0.055291988 0.059189603
000300 63 87 1e bd 14 e9 a9 bc 6a d4 45 bc a2 ad 97 3d
       -0.038703334 -0.020741023 -0.012074569 0.07406165
000310 4a d3 04 3d a5 c7 a7 bc d8 f8 17 3e 47 ed cf 3c
       0.032428063 -0.02048094 0.1484102 0.025381697
000320 ad 9a 59 bc 12 b0 41 bd 31 f4 e9 bb d4 a7 b8 3d
       -0.0132815065 -0.047287054 -0.0071397056 0.09016386
000330 13 60 49 bd d2 38 1b 3c e2 d7 03 3e c6 f5 b5 bc
       -0.04916389 0.009473996 0.12875322 -0.02221192
000340 40 7f 70 3d ca 49 c2 bd ba 57 a1 3c 98 b0 03 be
       0.058715105 -0.094867304 0.019695152 -0.12860334
000350 b4 b7 87 bd 77 63 d9 3c ff 72 dd bc e4 cb d3 ba
       -0.066268355 0.026536686 -0.027032373 -0.0016158787
000360 a1 cb 08 bd 20 0a 44 3d 74 e4 3f 3d 9c 3e ae 3d
       -0.03339732 0.04786122 0.04684873 0.085080355
000370 c4 0f 5a 3c 45 ff 32 3d 6e 47 3e 3d 48 c4 17 3d
       0.013309423 0.043700475 0.04645484 0.037052423
000380 3b f8 65 bd 4e f7 64 3c 44 d3 d6 3d 5f 4c 2d 3d
       -0.056144934 0.013974978 0.104895145 0.04230916
000390 c8 5a 6f 3c c5 3e 05 3b 38 cb 56 3d be f4 8d 3d
       0.014609046 0.0020331603 0.0524399 0.069314465
0003a0 2d 9b f2 3d a7 ec 0f be e0 aa b1 3b 38 42 73 3c
       0.11846004 -0.1405512 0.005421981 0.014847331
0003b0 65 af 84 3c 09 a9 9d 3d 64 7b 92 bd 79 67 c3 bc
       0.016196916 0.076982565 -0.07152441 -0.02385305
0003c0 4b 02 e3 3c 46 5a 5f 3d bc c2 f9 3b 6e e5 a6 3d
       0.027711054 0.05452945 0.007622091 0.08149229
0003d0 ba 85 36 3d 52 4a a4 3d 04 91 7c 3d 00 78 a7 3c
       0.044561125 0.08021988 0.061661735 0.020442963
0003e0 ec f8 33 bd c2 fa 19 bd 50 1b 28 3d e3 30 34 bd
       -0.043938562 -0.037592657 0.041041672 -0.043991935
0003f0 fd 9a ba 3d c3 de 66 3d b1 25 b3 bd 42 02 81 3b
       0.09111593 0.056364786 -0.087474234 0.0039370367

action_model._continuous_distribution.mu.bias f4 [44]
000000 5a 70 65 bd 80 89 0a 3c 47 56 b0 3d b3 3d 1a bc
       -0.05601535 0.008455634 0.08610206 -0.009414124
000010 86 68 00 bd 70 a7 58 bd 39 ef fe bc 4e 9c 48 bd
       -0.03134968 -0.052894056 -0.03111993 -0.04897719
000020 fe e5 6c 3d fa dd 2e bd 7f 70 57 bc be de 4c bd
       0.057836525 -0.042692162 -0.01314938 -0.05001711
000030 a1 42 16 bd 3d a7 6a bc 0f db 2e bc bc 6a 72 3d
       -0.036684636 -0.014322099 -0.010672345 0.05918382
000040 b2 77 f9 bc 98 bb 5d bd 8c 87 89 ba 53 cf ac 3c
       -0.030452583 -0.05413398 -0.0010492667 0.021094954
000050 4a aa 87 3d d9 78 67 bc 74 b6 46 3c 3c f1 91 bc
       0.06624277 -0.014127933 0.012128461 -0.017815225
000060 1f 13 70 bd 1a af 77 bb c5 20 47 bd ed ec 79 bc
       -0.058611985 -0.0037793578 -0.048615236 -0.015254241
000070 27 3e 77 bd ba 2b 58 bc 66 c0 0d 3d 14 5a 98 bb
       -0.060362007 -0.013194019 0.034607314 -0.00464941
000080 5e 87 68 bd f9 9c fe bb ae 9c f4 bc 63 60 94 bd
       -0.05676972 -0.0077701774 -0.029859867 -0.07244947
000090 99 3b e1 bc 45 df a3 bc 54 2d 5b 3d 22 c8 f1 3c
       -0.027494239 -0.020003924 0.053510025 0.029514376
0000a0 53 a0 02 bd 55 45 14 bd d5 77 58 3d 4c d1 ee bc
       -0.03189118 -0.036198933 0.052848656 -0.029152535
