results/b090rereremaze222/Dynamic Table/Dynamic Table-4899993.pt (torch, 406791 bytes, 48 tensors)

network_body._body_endoder.seq_layers.0.weight f4 [64, 94]
0.3791666 -0.13872664 0.07758208 0.32150796 0.026574671 0.2228977 0.3621109 0.055204716
-0.27537352 -0.30808997 0.04893177 0.13055916 0.09555213 -0.06384384 -0.18237208 -0.1630636
-0.20110862 -0.22712807 0.05652301 0.14296009 0.3642894 0.498005 -0.097097844 0.10873235
-0.1529634 -0.058985062 0.35409194 0.32372904 0.03507992 -0.052578844 0.055028994 0.0695394
0.051048126 -0.20262182 0.08090572 -0.041061286 -0.1666833 0.59510666 0.0869972 -0.12083949
0.12377325 0.4404265 -0.050930742 0.1151781 0.2748953 0.055624355 -0.1390741 0.18636914
0.04682722 -0.26406267 -0.105988234 -0.00021532273 -0.12803668 -0.18170524 0.06500727 -0.22998366
-0.083175756 -0.43312472 -0.012909144 -0.18911384 -0.121112384 0.2255707 -0.16399322 -0.19028275
0.23136449 -0.24333814 -0.06309676 -0.032887068 0.18020487 -0.2223729 0.203555 -0.25903842
-0.26510158 0.14890175 -0.458739 -0.30594134 0.28095573 -0.36270374 -0.055172928 0.3467839
-0.34478208 -0.46274358 -0.09529311 0.06294654 0.06782565 0.14138074 -0.2622259 -0.17608131
0.15353376 0.058863 -0.06411925 0.2018243 0.04275909 -0.08559477 0.20010217 0.10484648
-0.20532659 -0.22296743 0.21072601 -0.13600156 0.09697502 0.068478085 -0.08345585 0.09803361
0.032877438 -0.5680915 -0.09506971 0.08563825 -0.024738682 -0.31858188 -0.29571107 0.24557145
0.0071118204 0.09446106 -0.22030552 0.2451102 -0.23954113 -0.096988685 0.22484683 0.13884217
0.49099386 0.5047192 0.19327216 -0.06553317 -0.41356102 -0.045332994 -0.11820276 0.5545931
-0.29452595 0.068294175 -0.15671425 0.105269186 -0.21509458 0.16541483 0.29567397 -0.17583239
-0.07813019 0.22968622 0.63572747 0.07586658 0.09465287 -0.3936317 0.21180929 -0.35340047
0.051461637 0.058819935 -0.004874791 0.0658285 -0.09785125 -0.041045103 -0.022941925 0.08218574
-0.004941186 -0.0333838 0.19113953 0.27712813 -0.039863776 -0.04917637 0.10727484 -0.24386676
0.10313908 -0.021745507 0.118131995 0.07844255 0.00043562177 -0.17445268 -0.13645506 0.11586129
0.0934639 -0.071989715 0.043368783 -0.022213398 0.11349676 -0.11420215 0.11638019 -0.047383048
-0.16038114 -0.2418537 -0.16906516 -0.09499583 -0.10653363 -0.027394332 -0.15347797 -0.0011782532
-0.19138433 -0.07665985 0.21177456 0.02084639 -0.43168423 0.19378066 -0.19934712 -0.385344
-0.0340942 0.12547402 -0.19690134 -0.030318301 -0.17753863 -0.5750982 -0.3649538 -0.09291277
-0.34573746 -0.027002292 -0.1866065 -0.12559044 -0.15375054 0.11935078 0.4190387 -0.13854471
0.06196826 -0.050935294 -0.5141428 -0.29515663 -0.018145194 0.5080922 0.1856275 0.606726
-0.20987639 -0.209378 -0.09940737 -0.46565768 0.06587435 0.49835548 -0.06185126 0.20477696
-0.6537167 -0.24907568 0.077620134 0.006081478 0.46264127 0.47102836 0.071965 0.119634725
0.048600506 0.07982289 0.11711845 -0.1679711 0.03208107 0.37898877 0.27176583 -0.09739295
-0.051084165 0.24618943 0.055722233 0.045197286 0.05978701 -0.37140384 -0.056157522 -0.32850844
-0.4436333 0.33358404 -0.37638906 -0.0596005 0.3363268 -0.32091194 0.07555081 0.16935946
00000000: 2022 c23e 5b0e 0ebe 5be3 9e3d b19c a43e
00000010: 20b3 d93c 4b3f 643e 9a66 b93e 571e 623d
00000020: c2fd 8cbe f8bd 9dbe ae6c 483d 4db1 053e
00000030: d6b0 c33d 8fc0 82bd bfbf 3abe 25fa 26be
00000040: 6bef 4dbe 4394 68be ac84 673d 2164 123e
00000050: 2484 ba3e 83fa fe3e 3cdb c6bd 11af de3d
00000060: 70a2 1cbe 529a 71bd 8a4b b53e d0bf a53e
00000070: f6af 0f3d ea5c 57bd 1566 613d ac6a 8e3d
00000080: d717 513d 187c 4fbe e6b1 a53d e12f 28bd
00000090: 07af 2abe e958 183f 972b b23d b27a f7bd
000000a0: d47c fd3d 957f e13e c19c 50bd 7fe2 eb3d
000000b0: 14bf 8c3e 5dd6 633d 7169 0ebe 8dd7 3e3e
000000c0: e6cd 3f3d 3933 87be 5c10 d9bd 41c8 61b9
000000d0: 0c1c 03be f010 3abe 8822 853d d680 6bbe
000000e0: 0d58 aabd 86c2 ddbe e080 53bc 0fa7 41be
000000f0: c509 f8bd 01fc 663e d7ed 27be 7bd9 42be
00000100: d0ea 6c3e a22d 79be e038 81bd 97b4 06bd
00000110: a087 383e b9b5 63be b970 503e afa0 84be
00000120: 65bb 87be b379 183e d7df eabe 58a4 9cbe
00000130: 6ed9 8f3e 4eb4 b9be 02fd 61bd a98d b13e
00000140: 4787 b0be baec ecbe 0929 c3bd 1eea 803d
00000150: 2de8 8a3d 1dc6 103e 7942 86be a94e 34be
00000160: f437 1d3e 541a 713d f450 83bd 08ab 4e3e
00000170: 2824 2f3d 504c afbd 95e7 4c3e c0b9 d63d
00000180: 2241 52be 9351 64be 8fc8 573e fe43 0bbe
00000190: d79a c63d 3d3e 8c3d e7ea aabd d8c5 c83d
000001a0: 7eaa 063d 726e 11bf e8b3 c2bd 1b63 af3d
000001b0: c7a8 cabc 2a1d a3be 7167 97be 1577 7b3e
000001c0: 460a e93b cd74 c13d c597 61be 2bfe 7a3e
000001d0: 454a 75be 01a2 c6bd 3f3e 663e a42c 0e3e
000001e0: 8c63 fb3e 4735 013f 23e9 453e 4136 86bd
000001f0: 45be d3be 17af 39bd 4a14 f2bd d0f9 0d3f
00000200: 1bcc 96be d1dd 8b3d b379 20be 5f97 d73d
00000210: c141 5cbe 8162 293e 9462 973e 680d 34be
00000220: b902 a0bd dd32 6b3e 09bf 223f f05f 9b3d
00000230: 5dd9 c13d 188a c9be 89e4 583e e8f0 b4be
00000240: 70c9 523d 2ced 703d b6bc 9fbb 18d1 863d
00000250: 3c66 c8bd e91e 28bd b4f0 bbbc ff50 a83d
00000260: ace9 a1bb 74bd 08bd 15ba 433e bde3 8d3e
00000270: 3348 23bd 296d 49bd e9b2 db3d 35b8 79be
00000280: 953a d33d a223 b2bc 30ef f13d 7da6 a03d
00000290: 2a64 e439 b9a3 32be e0ba 0bbe af48 ed3d
000002a0: 006a bf3d 586f 93bd 77a3 313d dff8 b5bc
000002b0: fd70 e83d d1e2 e9bd bd58 ee3d ba14 42bd
000002c0: f43a 24be 7fa8 77be 6b1f 2dbe 2c8d c2bd
000002d0: 4e2e dabd 146a e0bc 5429 1dbe 9e6f 9aba
000002e0: 41fa 43be d7ff 9cbd 6edb 583e 0cc6 aa3c
000002f0: b705 ddbe 706e 463e a721 4cbe cf4b c5be
00000300: 5ca6 0bbd 437c 003e 81a0 49be 165e f8bc
00000310: b0cc 35be a339 13bf 39db babe 0d49 bebd
00000320: 8004 b1be e933 ddbc c615 3fbe c89a 00be
00000330: c870 1dbe 2f6e f43d 3e8c d63e aade 0dbe
00000340: 6ed2 7d3d 87a1 50bd dd9e 03bf c51e 97be
00000350: 3ba5 94bc 5512 023f 2315 3e3e 6552 1b3f
00000360: d6e9 56be 3067 56be 1796 cbbd af6a eebe
00000370: 22e9 863d 7328 ff3e bf57 7dbd 0db1 513e
00000380: fa59 27bf b20d 7fbe 4ef7 9e3d 2347 c73b
00000390: 51df ec3e a12a f13e 6362 933d 0d03 f53d
000003a0: 5311 473d 2f7a a33d ccdb ef3d 9e00 2cbe
000003b0: 7167 033d d10a c23e e424 8b3e f475 c7bd
000003c0: a13d 51bd 1519 7c3e ff3c 643d ca20 393d
000003d0: 39e3 743d a528 bebe 6e05 66bd 4232 a8be
000003e0: e723 e3be 87cb aa3e 11b6 c0be a71f 74bd
000003f0: 0733 ac3e 924e a4be 62ba 9a3d 916c 2d3e

network_body._body_endoder.seq_layers.0.bias f4 [64]
0.048661523 -0.028438147 -0.025680145 -0.058257613 -0.048187613 0.047193557 0.07614244 0.08280134
0.011369379 -0.019896869 -0.006366134 -0.029239086 0.028859008 0.019136507 0.0023014524 0.0066686748
-0.031688884 0.051836036 -0.060729522 -0.06740021 -0.011626457 -0.004719558 -0.044742305 -0.041730613
-0.05896672 -0.016564872 -0.029884988 0.10476643 0.026450912 -0.05518465 -0.043550696 0.007487257
0.03259019 -0.020171776 -0.025080401 -0.040223803 -0.023352446 -0.0024749378 0.07389415 0.05908765
0.04233835 0.017222585 0.014339505 -0.01595785 0.06602328 -0.004708494 -0.05077475 -0.031184811
-0.18429314 0.05478316 0.010670382 -0.023136474 -0.007853743 -0.032443848 0.06406522 -0.033547737
-0.00985073 0.026651802 0.05611798 -0.02823856 0.0074276333 -0.045082584 0.008667154 0.057474166
00000000: 4e51 473d 1ef7 e8bc 2b5f d2bc 899f 6ebd
00000010: 6060 45bd 084e 413d 91f0 9b3d c093 a93d
00000020: a246 3a3c c2fe a2bc 019b d0bb cf86 efbc
00000030: ba69 ec3c 2ac4 9c3c f7d3 163b e684 da3b
00000040: 34cc 01bd 0652 543d 85bf 78bd 1f09 8abd
00000050: e57c 3ebc 86a6 9abb b543 37bd b8ed 2abd
00000060: 1687 71bd 0eb3 87bc 5dd1 f4bc c88f d63d
00000070: 95af d83c 4d09 62bd 3762 32bd aa57 f53b
00000080: 4b7d 053d 483f a5bc 6a75 cdbc b7c1 24bd
00000090: a14d bfbc 9132 22bb d155 973d e405 723d
000000a0: fa6a 2d3d 6116 8d3c 3ef0 6a3c 09ba 82bc
000000b0: 3737 873d b649 9abb 2ff9 4fbd 4a77 ffbc
000000c0: 57b7 3cbe 4f64 603d d3d2 2e3c b488 bdbc
000000d0: fcac 00bc d7e3 04bd a034 833d 5a69 09bd
000000e0: f564 21bc e154 da3c f8db 653d 8d54 e7bc
000000f0: 8163 f33b 84a8 38bd ae00 0e3c 086a 6b3d

network_body._body_endoder.seq_layers.2.weight f4 [64, 64]
0.06391079 -0.34903586 -0.16746901 0.22866012 -0.22606046 -0.16291402 0.29189003 0.06415595
-0.18941393 -0.011109519 0.044443008 -0.1544772 -0.11714599 0.18697874 0.043240517 -0.23420551
-0.24204363 -0.0528787 0.23029786 -0.02695872 -0.07480315 -0.056432486 -0.41999313 0.15206064
-0.15069397 0.20787129 0.038434796 -0.12467504 0.09492568 -0.07946276 -0.37706628 -0.21705668
0.0831038 0.560924 0.1987728 -0.26901534 -0.2647882 0.07691623 -0.17657241 0.10220517
-0.22008936 -0.032814473 0.33601934 -0.27900842 0.13216381 0.23016627 0.5943632 0.0077180597
0.095945165 0.12510215 -0.26761687 0.3381793 0.22634192 -0.11106473 0.36912277 0.266086
0.092833914 -0.19547583 0.04694999 0.052278943 -0.44160825 0.17245546 -0.53216285 -0.10606646
0.15415664 0.21225773 -0.29323694 -0.039872624 -0.13128445 0.2584265 -0.033935063 -0.062217128
-0.06937519 0.008252247 0.16459629 0.5991158 -0.13865992 0.1385669 -0.20351464 0.052439578
-0.036940485 0.16313723 -0.54574907 0.12463957 -0.2103444 0.10002181 0.24889673 0.18737684
0.15245499 0.13651295 -0.15753707 -0.12335007 0.17597553 0.29177645 -0.17837967 0.1622588
0.29830968 -0.044415534 -0.38489783 -0.03827654 -0.049097046 -0.1629863 -0.08617233 0.0743004
-0.2123016 -0.16271889 0.12828906 0.45206618 0.27429014 0.31623688 -0.16956408 -0.10728073
0.121483214 -0.21457046 -0.06146746 -0.19929856 0.3147612 0.44460803 0.24710868 -0.29276243
-0.6200452 0.19736615 0.19168341 0.2675462 0.3379509 0.20037779 0.5032441 -0.1281582
-0.12970719 0.027471222 -0.66962343 -0.47750437 0.12717734 -0.2400662 -0.35937512 -0.10746102
0.10627966 0.22804052 -0.38801378 0.13504702 -0.27107072 0.21413682 0.3442937 0.3046983
-0.28654665 -0.14585522 -0.2647083 -0.505466 0.15495437 0.29399496 0.22878255 0.16365796
-0.040535774 0.065040044 -0.12714642 0.20072606 0.4636264 0.2464971 0.098653734 0.23987366
-0.1944816 -0.20660311 -0.39807764 -0.4060218 -0.14328796 -0.107039526 0.49218264 0.06704467
0.2943797 0.23609063 0.030736854 0.15777367 0.29817507 -0.12986471 -0.33473843 -0.002053918
-0.03901064 -0.016607028 -0.6129592 -0.5029281 0.22638448 0.13159037 -0.26633397 -0.21945544
0.32503328 -0.03384431 0.572666 -0.41449597 -0.22301541 0.37554285 0.39950067 0.15404592
0.22196211 0.10342691 0.4791916 0.17478155 -0.055147745 -0.23799527 -0.04020743 -0.12252307
-0.1718371 -0.19900605 -0.24088268 0.27562556 0.30575794 -0.3379283 -0.17517924 0.07902644
-0.08432827 -0.22361544 -0.11125918 0.08555293 -0.47618514 0.29155132 -0.1403709 -0.2869605
-0.09969364 -0.15166384 0.35228914 -0.23798192 0.14773902 -0.42889312 0.06762646 -0.5744819
0.11257426 0.3307771 0.20547341 0.18216099 0.026538821 -0.1572673 -0.08536741 0.08344608
-0.10517614 0.43457603 -0.13292891 0.013497572 -0.026730122 0.012670207 -0.21688224 -0.6386365
-0.4848709 0.18829809 0.26509735 -0.17724974 0.2791364 -0.4522043 -0.40437207 0.33498496
0.32525212 -0.011968111 -0.27495155 -0.18461022 0.452652 -0.24777105 -0.40565848 0.027951704
00000000: a9e3 823d d4b4 b2be ff7c 2bbe e125 6a3e
00000010: 657c 67be efd2 26be 9c72 953e 3264 833d
00000020: baf5 41be b304 36bc df09 363d 452f 1ebe
00000030: 3dea efbd 5b77 3f3e f81c 313d 92d3 6fbe
00000040: 49da 77be 5697 58bd 34d3 6b3e 89d8 dcbc
00000050: 6532 99bd c025 67bd 5709 d7be c9b5 1b3e
00000060: 854f 1abe 36dc 543e ce6d 1d3d a155 ffbd
00000070: 6568 c23d 5fbd a2bd d50e c1be 1b44 5ebe
00000080: 5332 aa3d b798 0f3f 198b 4b3e 61bc 89be
00000090: 5292 87be 4286 9d3d 66cf 34be f250 d13d
000000a0: 1b5f 61be 7868 06bd ba0a ac3e 31da 8ebe
000000b0: f355 073e b5b0 6b3e 3028 183f c7e7 fc3b
000000c0: e67e c43d c71a 003e 1405 89be d625 ad3e
000000d0: 2dc6 673e e875 e3bd a9fd bc3e 6d3c 883e
000000e0: b51f be3d d12a 48be a24e 403d 7222 563d
000000f0: 7a1a e2be 2a98 303e d33b 08bf 5f39 d9bd
00000100: 3ddb 1d3e 175a 593e 2723 96be 7a51 23bd
00000110: 6e6f 06be 7a50 843e 7eff 0abd 63d7 7ebd
00000120: 9414 8ebd 6f34 073c ee8b 283e a75f 193f
00000130: defc 0dbe 7be4 0d3e 2466 50be e2ca 563d
00000140: e84e 17bd 720d 273e 36b6 0bbf 0843 ff3d
00000150: 8664 57be 3cd8 cc3d c9de 7e3e b7df 3f3e
00000160: 291d 1c3e 0dca 0b3e 6651 21be f69e fcbd
00000170: ee32 343e b963 953e 29a9 36be 2c27 263e
00000180: 0cbc 983e 10ed 35bd 5411 c5be dcc7 1cbd
00000190: fc19 49bd e1e5 26be 1e7b b0bd cf2a 983d
000001a0: 9765 59be c89f 26be 355e 033e 3875 e73e
000001b0: c26f 8c3e cde9 a13e 35a2 2dbe 00b6 dbbd
000001c0: 31cc f83d 5cb8 5bbe 4ec5 7bbd ec14 4cbe
000001d0: 6128 a13e aaa3 e33e 0f0a 7d3e f5e4 95be
000001e0: 48bb 1ebf 5a1a 4a3e a848 443e d1fb 883e
000001f0: e607 ad3e d62f 4d3e 9bd4 003f e73b 03be
00000200: f6d1 04be 540b e13c 716c 2bbf 747b f4be
00000210: c73a 023e ead3 75be 0400 b8be 8614 dcbd
00000220: 26a9 d93d 7483 693e bea9 c6be c449 0a3e
00000230: c8c9 8abe af46 5b3e 4447 b03e 6a01 9c3e
00000240: 3eb6 92be 125b 15be d987 87be 3866 01bf
00000250: 5cac 1e3e 8286 963e f945 6a3e f495 273e
00000260: d708 26bd b733 853d ac32 02be 228b 4d3e
00000270: 7160 ed3e bc69 7c3e f80a ca3d 71a1 753e
00000280: 2f26 47be c48f 53be d5d0 cbbe 17e2 cfbe
00000290: 14ba 12be 8a37 dbbd 5dff fb3e b74e 893d
000002a0: f0b8 963e bec1 713e dbcb fb3c 6c8f 213e
000002b0: 67aa 983e 41fb 04be d662 abbe 079b 06bb
000002c0: 9fc9 1fbd 760b 88bc e5ea 1cbf e5bf 00bf
000002d0: 55d1 673e a0bf 063e ed5c 88be edb8 60be
000002e0: c36a a63e 55a0 0abd 3d9a 123f d138 d4be
000002f0: 275e 64be 2747 c03e 5a8b cc3e 37be 1d3e
00000300: 094a 633e 7dd1 d33d 9a58 f53e eff9 323e
00000310: 9ae2 61bd 08b5 73be 8cb0 24bd 60ed fabd
00000320: 11f6 2fbe 3ec8 4bbe f3a9 76be cb1e 8d3e
00000330: 4e8c 9c3e f004 adbe 3062 33be 9dd8 a13d
00000340: 4db4 acbd 72fb 64be dadb e3bd 6036 af3d
00000350: 8ace f3be 3746 953e 64bd 0fbe 7dec 92be
00000360: 2e2c ccbd c44d 1bbe 3e5f b43e 88b1 73be
00000370: e648 173e e197 dbbe be7f 8a3d 3f11 13bf
00000380: 558d e63d 9e5b a93e 9f67 523e 6988 3a3e
00000390: f167 d93c ae0a 21be 1cd5 aebd c7e5 aa3d
000003a0: 9766 d7bd c080 de3e 841e 08be ec24 5d3c
000003b0: 21f9 dabc b396 4f3c 6116 5ebe af7d 23bf
000003c0: 0041 f8be 37d1 403e d7ba 873e f580 35be
000003d0: f7ea 8e3e 5287 e7be db09 cfbe 2683 ab3e
000003e0: 7287 a63e e515 44bc 73c6 8cbe 760a 3dbe
000003f0: 01c2 e73e b2b7 7dbe 78b2 cfbe f9fa e43c

network_body._body_endoder.seq_layers.2.bias f4 [64]
0.10165132 0.26923376 0.045630395 -0.012141141 -0.07722954 -0.071025394 0.013881347 0.07135942
0.13699019 -0.16725367 -0.02015733 -0.11489222 0.0471082 0.06002113 0.102542 0.2876818
-0.079818614 -0.1189318 0.099561505 0.088933766 0.19302163 0.06191927 -0.16179827 0.030615088
0.0060915053 0.0644471 0.08416659 -0.22180262 -0.19985583 0.004174517 0.0795729 -0.022951385
0.06372772 0.14599504 0.16679996 -0.09818159 0.004562946 0.13508053 -0.14713834 0.057021026
-0.053694062 0.062465362 -0.083062105 0.019537099 0.16076307 0.063909106 -0.054769456 -0.016849969
-0.06256201 0.17383657 0.021939635 -0.02577297 0.13538685 -0.019349447 0.048539896 -0.081332386
0.056015648 0.11735281 -0.1624885 -0.2600404 0.09870233 0.0036173721 -0.13633384 -0.084540285
00000000: 912e d03d 02d9 893e f0e6 3a3d a3eb 46bc
00000010: 852a 9ebd c375 91bd 976e 633c e324 923d
00000020: 2847 0c3e 8c44 2bbe fc20 a5bc 9d4c ebbd
00000030: 87f4 403d b7d8 753d 8a01 d23d 074b 933e
00000040: f177 a3bd 8492 f3bd e7e6 cb3d e822 b63d
00000050: 76a7 453e 0f9f 7d3d 72ae 25be 7ecc fa3c
00000060: 409b c73b d7fc 833d 885f ac3d 3a20 63be
00000070: 02a7 4cbe 63ca 883b 1ef7 a23d 8b04 bcbc
00000080: ae83 823d b97f 153e 9ccd 2a3e 6e13 c9bd
00000090: c484 953b 8d52 0a3e 6fab 16be e18e 693d
000000a0: 4eee 5bbd aedb 7f3d 771c aabd 440c a03c
000000b0: 139f 243e c7e2 823d f055 60bd f208 8abc
000000c0: 8320 80bd 3702 323e c0ba b33c d621 d3bc
000000d0: daa2 0a3e bb82 9ebc c5d1 463d 9891 a6bd
000000e0: aa70 653d ac56 f03d 6363 26be 0424 85be
000000f0: 7224 ca3d 6f11 6d3b 199b 0bbe 7523 adbd

network_body._body_endoder.seq_layers.4.weight f4 [64, 64]
-0.30771878 0.1426613 -0.23536253 -0.32904127 -0.35418105 0.35354587 0.19835322 -0.061148454
0.09299472 -0.36366627 0.25824696 -0.36401558 0.06461988 0.03953667 0.45449904 -0.1371082
-0.21599504 -0.03836554 -0.31207 0.4519749 0.075277455 0.20348078 -0.13758448 0.05077709
-0.35439786 0.040805157 0.27748534 0.1654199 -0.28287873 0.21933953 -0.16461082 -0.06725126
0.09418185 0.03183572 -0.6340425 -0.28002378 -0.2813203 0.17053828 0.4572248 0.22093251
-0.13449825 -0.21253279 -0.1537062 0.23884216 -0.06704066 -0.2976172 0.29060614 -0.5690349
-0.38083208 -0.022201909 -0.3281852 -0.084483266 0.13078418 0.056963988 -0.40530124 -0.4340855
0.09676803 0.085923225 -0.11232902 -0.11936344 0.35708246 0.17865439 -0.14588086 -0.65490675
0.17728692 -0.16808604 0.34440938 0.13328068 -0.30620366 -0.0026588226 0.13169238 0.10133848
-0.318707 -0.13121678 -0.14432359 0.06406446 0.32868183 -0.078972735 0.33055294 0.105270825
0.03692346 -0.08949611 0.11534751 0.019373072 -0.030966682 0.4441834 -0.36384606 0.06111017
-0.121403195 0.18113974 0.087723404 -0.17770873 -0.27644488 -0.05192183 -0.017152714 -0.4878331
0.14407867 0.5057099 -0.11990684 0.073044874 -0.03945932 0.19788559 -0.34888548 0.14387918
0.21449646 -0.25457963 -0.17230254 -0.19184147 -0.23804961 -0.84972763 -0.36693347 0.2108008
0.11685963 -0.08540466 -0.08954168 -0.14796571 -0.1371898 0.13369727 -0.4155128 -0.01394679
0.027082127 0.041061014 0.06997512 0.41517594 0.25523207 -0.1107888 -0.22249459 0.08088552
-0.42637014 0.080693305 0.3980735 0.01078431 0.16667236 -0.16399485 -0.216282 0.14546113
-0.031842083 0.26860622 0.20344163 -0.019613916 -0.43729132 -0.51571375 -0.26036492 -0.16208856
-0.15041512 -0.26013947 -0.37396082 -0.17823192 0.257452 0.3942158 0.17542748 0.06952512
-0.20777313 -0.1740948 -0.47460797 -0.19449937 0.4210398 -0.1566359 0.25785437 0.12177067
-0.30438197 0.19169784 -0.10682433 -0.28663987 -0.098112024 -0.013791722 0.31665114 -0.09667801
-0.22245412 -0.42390174 -0.10974831 0.28229994 0.1854054 -0.2928609 -0.5228239 -0.13814959
0.16133113 0.10234312 -0.4826553 0.342701 0.17956218 0.10279737 0.25823832 0.29228464
-0.06443707 -0.13131876 0.07436537 0.49839318 -0.35922444 0.21416844 -0.37752104 -0.05400329
0.17091134 0.12071065 -0.2131126 -0.33728075 -0.12265123 -0.34120718 -0.09365895 -0.12793237
-0.26315245 0.6720705 -0.49439633 -0.26722166 -0.3571666 -0.43435577 -0.12918743 -0.23864129
-0.29672614 0.1529585 -0.08381045 -0.08546369 0.12631333 -0.2709213 -0.14117233 -0.1877169
-0.07734514 0.11746968 -0.0020947373 -0.29424143 0.12828444 0.31961447 -0.105401374 0.20765546
0.1606323 -0.059785724 0.21114793 -0.13089538 -0.2557567 -0.4011762 -0.12781385 -0.36204877
-0.55033207 -0.036678497 0.44252262 0.016153147 -0.25991523 0.034568265 0.13574149 0.3075468
-0.14076439 0.050489113 -0.24142534 -0.18420236 -0.3611023 0.5507096 -0.040233273 0.73240703
0.16193418 -0.76865554 -0.012624186 -0.08015471 -0.050373547 -0.20045184 0.073576175 0.016119989
00000000: 518d 9dbe ce15 123e e002 71be 1978 a8be
00000010: 3857 b5be f703 b53e 1b1d 4b3e cd76 7abd
00000020: 0474 be3d 7732 babe f238 843e 4060 babe
00000030: 6d57 843d 34f1 213d 19b4 e83e 1866 0cbe
00000040: ce2d 5dbe 2f25 1dbd a4c7 9fbe 4169 e73e
00000050: 112b 9a3d 445d 503e f2e2 0cbe a3fb 4f3d
00000060: a373 b5be 4f23 273d 8f12 8e3e d663 293e
00000070: 7bd5 90be 8b9a 603e bd8f 28be 07bb 89bd
00000080: 6ae2 c03d 2c66 023d 9c50 22bf 475f 8fbe
00000090: 3709 90be 96a1 2e3e 5e19 ea3e 223c 623e
000000a0: e9b9 09be 32a2 59be 2865 1dbe 0a93 743e
000000b0: 9d4c 89bd 4861 98be 54ca 943e 45ac 11bf
000000c0: 6cfc c2be c7e0 b5bc e407 a8be 9005 adbd
000000d0: 4aec 053e 1253 693d a583 cfbe 7440 debe
000000e0: 512e c63d 84f8 af3d c20c e6bd d274 f4bd
000000f0: 83d3 b63e 2df1 363e cb61 15be f8a7 27bf
00000100: b48a 353e bf1e 2cbe 6d56 b03e bb7a 083e
00000110: bac6 9cbe a43f 2ebb 5eda 063e 8d8a cf3d
00000120: 902d a3be b15d 06be 90c9 13be 3a34 833d
00000130: fc48 a83e 75bc a1bd 3c3e a93e 3b98 d73d
00000140: 0e3d 173d bd49 b7bd 513b ec3d 47b4 9e3c
00000150: d7ad fdbc 026c e33e 084a babe a84e 7a3d
00000160: 3da2 f8bd b27c 393e 54a8 b33d 47f9 35be
00000170: 2f8a 8dbe fcab 54bd d983 8cbc 43c5 f9be
00000180: 5c89 133e 3476 013f b891 f5bd 8d98 953d
00000190: 19a0 21bd 85a2 4a3e 1ea1 b2be 1055 133e
000001a0: f6a4 5b3e 4358 82be 1470 30be 1772 44be
000001b0: 47c3 73be c087 59bf b4de bbbe 2adc 573e
000001c0: 1a54 ef3d a3e8 aebd a161 b7bd 5384 17be
000001d0: 7c7b 0cbe f0e7 083e 18be d4be 1481 64bc
000001e0: 56db dd3c 982f 283d 1e4f 8f3d f191 d43e
000001f0: c7ad 823e 3de5 e2bd 9fd5 63be 4fa7 a53d
00000200: 304d dabe 8842 a53d 4ad0 cb3e adb0 303c
00000210: 29ac 2a3e 44ee 27be 0779 5dbe c3f3 143e
00000220: d86c 02bd c186 893e 0153 503e 5dad a0bc
00000230: a6e4 dfbe d105 04bf 8d4e 85be 8bfa 25be
00000240: 6c06 1abe 0031 85be cb77 bfbe 6e82 36be
00000250: c0d0 833e a7d6 c93e 43a3 333e 3063 8e3d
00000260: 7bc2 54be e845 32be d1ff f2be d82a 47be
00000270: 8792 d73e 2965 20be 7d05 843e e762 f93d
00000280: f4d7 9bbe 704c 443e b7c6 dabd 76c2 92be
00000290: f5ee c8bd adf6 61bc 1920 a23e 1fff c5bd
000002a0: 03cb 63be a609 d9be b9c3 e0bd 9e89 903e
000002b0: eada 3d3e ddf1 95be cad7 05bf 1677 0dbe
000002c0: fd33 253e 4599 d13d 981e f7be 8176 af3e
000002d0: 26df 373e 6d87 d23d d037 843e 55a6 953e
000002e0: 95f7 83bd 6d78 06be df4c 983d 642d ff3e
000002f0: 44ec b7be f94e 5b3e 704a c1be 8e32 5dbd
00000300: 6203 2f3e 2537 f73d 303a 5abe 10b0 acbe
00000310: 9130 fbbd b5b2 aebe 43d0 bfbd b400 03be
00000320: ebbb 86be d00c 2c3f 8421 fdbe 47d1 88be
00000330: 8ade b6be e163 debe b649 04be 625e 74be
00000340: 7dec 97be 27a1 1c3e d0a4 abbd 9607 afbd
00000350: 4858 013e 32b6 8abe 7b8f 10be dc38 40be
00000360: 2167 9ebd f293 f03d dc47 09bb d0a6 96be
00000370: ff5c 033e 82a4 a33e addc d7bd a2a3 543e
00000380: cb7c 243e e0e1 74bd 2a37 583e 7009 06be
00000390: 8bf2 82be f866 cdbe a2e1 02be 755e b9be
000003a0: 90e2 0cbf 313c 16bd 5392 e23e 9b53 843c
000003b0: 9c13 85be 7497 0d3d d1ff 0a3e c676 9d3e
000003c0: 8a24 10be accd 4e3d 3438 77be 8b9f 3cbe
000003d0: 67e2 b8be 4efb 0c3f a5cb 24bd 077f 3b3f
000003e0: 13d2 253e 9cc6 44bf add5 4ebc 2728 a4bd
000003f0: 7e54 4ebd 3f43 4dbe 1baf 963d 110e 843c

network_body._body_endoder.seq_layers.4.bias f4 [64]
0.20544419 0.21110246 0.00017259114 -0.050271153 0.24990654 0.23423949 -0.20037071 0.386037
-0.024033505 0.26195958 0.4340258 -0.16085759 -0.05330776 0.0017304821 0.30311117 0.3820772
-0.13745382 0.16627401 -0.09110634 0.19047976 0.116852865 0.15987812 -0.0134248445 -0.0277986
-0.048299782 0.06293715 0.36251172 0.07877256 -0.03367994 0.33688423 0.24398547 0.22431411
-0.08170502 0.1266926 0.29440588 -0.038506657 -0.09037033 0.282595 0.040396404 -0.16555932
0.010881117 0.25125435 -0.041858494 -0.012087278 -0.038458195 0.014110227 0.2709245 -0.059104946
-0.04259149 0.25970462 0.12980282 0.19351192 0.019173136 -0.1866153 0.26579937 -0.05721286
0.07004195 0.45357937 -0.0993343 -0.04436838 -0.039951954 0.009078533 -0.023534011 0.42104003
00000000: f65f 523e 3e2b 583e 95f9 3439 20e9 4dbd
00000010: 80e7 7f3e 7adc 6f3e fb2d 4dbe a4a6 c53e
00000020: eae1 c4bc 911f 863e a138 de3e dab7 24be
00000030: 3d59 5abd 58d1 e23a 6331 9b3e 9f9f c33e
00000040: b2c0 0cbe bc43 2a3e f695 babd 200d 433e
00000050: 8e50 ef3d 17b7 233e e1f3 5bbc e4b9 e3bc
00000060: fed5 45bd 31e5 803d 239b b93e 8253 a13d
00000070: faf3 09bd 177c ac3e 54d7 793e 99b2 653e
00000080: f654 a7bd b4bb 013e 5ebc 963e 28b9 1dbd
00000090: 1414 b9bd 4bb0 903e b376 253d 6288 29be
000000a0: b646 323c 69a4 803e d073 2bbd b809 46bc
000000b0: 5786 1dbd 952e 673c 9eb6 8a3e 0718 72bd
000000c0: 6a74 2ebd 01f8 843e 08eb 043e fd27 463e
000000d0: fb10 9d3c 1518 3fbe db16 883e 0858 6abd
000000e0: 2772 8f3d 8e3b e83e c86f cbbd 9ebb 35bd
000000f0: a9a4 23bd 21be 143c 66ca c0bc 8f92 d73e

action_model._continuous_distribution.log_sigma f4 [1, 44]
2.2787812 3.057767 3.0339735 2.6039386 2.6178458 2.3255327 2.3996594 3.1154249
2.5609884 2.4047205 2.485852 2.0072923 1.6978437 2.3404543 3.1316922 2.0312316
1.8257626 2.05897 1.5004873 2.123892 1.6461735 2.5795329 2.6441135 2.6150408
1.3049574 1.8289167 1.9092884 1.5107667 1.3779302 3.117805 2.2526302 1.9920911
1.9952394 1.0050224 2.2082677 1.6802255 3.190124 2.131615 1.6759967 1.1170727
2.7436018 3.001279 1.75739 2.4382737
00000000: 8dd7 1140 74b2 4340 9f2c 4240 eea6 2640
00000010: c98a 2740 87d5 1440 0594 1940 1f63 4740
00000020: 3ce7 2340 f1e6 1940 3318 1f40 7a77 0040
00000030: f152 d93f 01ca 1540 a56d 4840 b3ff 0140
00000040: 97b2 e93f 2ac6 0340 f80f c03f d9ed 0740
00000050: d0b5 d23f 1117 2540 2839 2940 d45c 2740
00000060: d808 a73f f119 ea3f 9063 f43f ce60 c13f
00000070: 0460 b03f 1e8a 4740 182b 1040 d7fc fe3f
00000080: 0164 ff3f 93a4 803f 4254 0d40 a111 d73f
00000090: fe2a 4c40 616c 0840 0f87 d63f 3dfc 8e3f
000000a0: 2c97 2f40 f514 4040 28f2 e03f ad0c 1c40

action_model._continuous_distribution.mu.weight f4 [44, 64]
0.04226488 -0.15283032 -0.11801612 -0.0754638 -0.0561636 0.14142114 0.15734555 -0.05210076
0.18673323 -0.21818289 -0.20434801 0.04067611 -0.13975105 -0.27453417 0.0666536 -0.17436594
-0.35914853 0.24125189 -0.13017811 -0.27716702 0.2108043 0.31540602 0.1682786 0.54327184
-0.15724131 -0.00014789987 0.24048549 0.06450897 -0.18568197 0.17270075 0.15143894 0.06471505
0.12117608 -0.1568173 -0.08041424 -0.29038692 0.017636064 0.5528283 -0.03764447 -0.0058551375
-0.1058598 -0.005837823 0.30186075 0.055341795 0.08206525 -0.24787094 0.026251696 0.19543676
0.27821085 -0.047018666 0.26083156 -0.06605342 -0.3821973 -0.050930467 -0.12111239 0.26979172
-0.16830646 -0.17734632 -0.09892293 0.1274092 -0.037354246 0.37724996 -0.121112786 -0.16486637
-0.5420733 -0.35641518 -0.081190996 0.5756803 -0.02445876 0.1205974 0.16833073 0.22962604
0.0013721783 0.2205042 -0.2883539 0.24883203 0.34378627 0.57197046 0.05113966 0.3842545
0.5099849 -0.079017125 -0.035995137 -0.5408316 0.13643943 0.08257038 0.22027977 -0.072917365
0.45614386 -0.14184046 0.08450063 0.35673776 0.15139423 -0.5254335 0.1250934 -0.07755341
-0.3170327 -0.38027173 -0.2620248 -0.51476693 -0.049358778 -0.03418381 0.33295307 -0.021731004
-0.049734384 0.2523818 -0.026407827 0.14627 0.07319446 0.31083286 -0.0995916 -0.31815997
-0.25391096 -0.35726812 -0.21027437 0.083480045 -0.44350716 -0.25771615 0.0652113 -0.2294597
0.09500533 -0.016930567 -0.14921789 0.071435295 0.10824092 0.0765216 0.12557384 -0.18364117
-0.50839436 -0.54597235 0.114169285 -0.47478017 0.07885864 0.11242908 -0.20316042 0.20023388
-0.6089233 -0.4928279 -0.512223 0.097459994 -0.45316073 -0.60501146 -0.09209541 -0.20273711
0.25685006 0.017522274 0.073543265 -0.18731378 0.18942003 0.16814883 -0.0043527624 0.023005545
-0.5222685 0.003423551 0.446511 0.57860947 0.16354336 -0.50512767 0.58421266 0.31864175
-0.19110966 -0.070921585 0.104002975 0.29924557 -0.019604966 0.3143882 0.36027467 0.51547813
0.42201588 -0.048890848 0.33612636 -0.14788593 -0.039440423 -0.040421795 0.10553141 0.3393905
0.2086634 -0.35695133 0.2985881 0.3721234 0.102095604 0.011992634 -0.55314666 0.16199286
0.45570916 -0.7901455 -0.15408473 0.66856724 -0.18360166 0.18215805 0.022876378 -0.41544887
-0.0761723 -0.14359152 0.4279108 0.023673287 -0.17788695 0.0027735343 0.44749638 0.2194478
0.20702966 -0.3248593 -0.40585953 0.09029652 0.01297681 0.13954686 0.37505156 0.00619068
-0.19777878 -0.2197918 0.714798 -3.884104e-05 -0.05727261 -0.5723851 0.13359223 -0.0020553914
0.19759555 -0.084961236 0.12967497 0.46828535 0.051323622 -0.2827291 -0.013069359 0.0021713485
-0.31892186 -0.43838617 0.28786653 0.0041790227 0.038138412 -0.07126445 0.13157606 0.45580164
0.3790854 -0.11710864 0.036873624 -0.5951861 0.0011293698 0.5368636 0.0106262835 0.039190736
0.2079418 0.29044434 0.037044697 -0.09419125 -0.21203364 0.1297595 0.6436484 0.066072926
-0.18309093 -0.5937303 0.025160298 0.10075629 0.19145334 0.11258942 0.016233686 -0.31848294
00000000: f01d 2d3d 8d7f 1cbe 6fb2 f1bd c48c 9abd
00000010: ce0b 66bd b4d0 103e 311f 213e 9b67 55bd
00000020: ff36 3f3e 566b 5fbe 9b40 51be fe9b 263d
00000030: e61a 0fbe be8f 8cbe af81 883d fc8c 32be
00000040: 51e2 b7be bc0a 773e 694d 05be d6e8 8dbe
00000050: 15dd 573e e67c a13e 3a51 2c3e dd13 0b3f
00000060: de03 21be 9215 1bb9 d441 763e 471d 843d
00000070: 6a23 3ebe 77d8 303e cf12 1b3e 5389 843d
00000080: 2a2b f83d b794 20be 39b0 a4bd 98ad 94be
00000090: 8279 903c 2886 0d3f 1631 1abd 74dc bfbb
000000a0: 06cd d8bd 354b bfbb 7e8d 9a3e 14ae 623d
000000b0: d311 a83d e1d1 7dbe cc0d d73c 9320 483e
000000c0: a771 8e3e a596 40bd b78b 853e 0447 87bd
000000d0: 5daf c3be 779c 50bd c609 f8bd 2422 8a3e
000000e0: 8758 2cbe 469a 35be 1b98 cabd 8f77 023e
000000f0: c400 19bd e826 c13e fb09 f8bd bbd2 28be
00000100: 51c5 0abf 0d7c b6be 7747 a6bd c95f 133f
00000110: bd5d c8bc c5fb f63d e45e 2c3e 1723 6b3e
00000120: aada b33a dacb 613e 1fa3 93be d3cd 7e3e
00000130: c104 b03e a86c 123f d277 513d 01bd c43e
00000140: 5f8e 023f bbd3 a1bd a36f 13bd f173 0abf
00000150: c7b6 0b3e a91a a93d 0591 613e b355 95bd
00000160: b08b e93e a03e 11be ab0e ad3d 55a6 b63e
00000170: 1707 1b3e cf82 06bf 7c18 003e 52d4 9ebd
00000180: 1c52 a2be fab2 c2be 1d28 86be c4c7 03bf
00000190: 6e2c 4abd 5304 0cbd d378 aa3e 3805 b2bc
000001a0: 48b6 4bbd 3038 813e 3a55 d8bc cec7 153e
000001b0: fae6 953d 7c25 9f3e aef6 cbbd dde5 a2be
000001c0: 9e00 82be d9eb b6be 2a52 57be 96f7 aa3d
000001d0: 5f13 e3be 5ff3 83be 818d 853d 7cf7 6abe
000001e0: 2892 c23d f9b1 8abc 93cc 18be ab4c 923d
000001f0: 6aad dd3d 5bb7 9c3d 6e96 003e 6e0c 3cbe
00000200: 2226 02bf d8c4 0bbf 96d1 e93d 6316 f3be
00000210: a380 a13d 3841 e63d 4909 50be 1c0a 4d3e
00000220: 66e2 1bbf f053 fcbe 0c21 03bf 1b99 c73d
00000230: af04 e8be 08e2 1abf 859c bcbd 519a 4fbe
00000240: da81 833e df8a 8f3c da9d 963d 2fcf 3fbe
00000250: 53f7 413e 352f 2c3e 9ea1 8ebb 2076 bc3c
00000260: 63b3 05bf a85d 603b 179d e43e c01f 143f
00000270: e977 273e 0c50 01bf f68e 153f 0325 a33e
00000280: 40b2 43be 563f 91bd 83ff d43d b736 993e
00000290: 989a a0bc 7df7 a03e ec75 b83e 60f6 033f
000002a0: 7712 d83e c541 48bd c118 ac3e 696f 17be
000002b0: 488c 21bd 5391 25bd da20 d83d 97c4 ad3e
000002c0: dcab 553e 53c2 b6be 8ae0 983e f586 be3e
000002d0: 8017 d13d c17c 443c 059b 0dbf 75e1 253e
000002e0: b652 e93e fa46 4abf 63c8 1dbe 3927 2b3f
000002f0: 1302 3cbe a487 3a3e 3e67 bb3c b7b5 d4be
00000300: 3900 9cbd a809 13be 2017 db3e 7bee c13c
00000310: ff27 36be 2fc4 353b 3f1e e53e edb6 603e
00000320: 95ff 533e f553 a6be d2cc cfbe 62ed b83d
00000330: b09c 543c 5fe5 0e3e c206 c03e 30db ca3b
00000340: 8586 4abe 1a11 61be 00fd 363f 40e9 22b8
00000350: af96 6abd d487 12bf 67cc 083e bfb3 06bb
00000360: 7d56 4a3e 2800 aebd 84c9 043e 19c3 ef3e
00000370: b838 523d dec1 90be dd20 56bc 2f4d 0e3b
00000380: ba49 a3be 2774 e0be 3e63 933e 2ff0 883b
00000390: 0637 1c3d 19f3 91bd e0bb 063e d55e e93e
000003a0: 7b17 c23e a8d6 efbd cc08 173d 1e5e 18bf
000003b0: 5d07 943a e56f 093f dd19 2e3c 7786 203d
000003c0: b2ee 543e 1fb5 943e 2ebc 173d 58e7 c0bd
000003d0: 591f 59be addf 043e 24c6 243f 3e51 873d
000003e0: 307c 3bbe b5fe 17bf f81c ce3c 5059 ce3d
000003f0: 580c 443e 4895 e63d 82fc 843c 3210 a3be

action_model._continuous_distribution.mu.bias f4 [44]
0.09837719 -0.104179494 -0.04967094 -0.18051502 -0.20676595 -0.10177456 -0.086709425 0.099101156
-0.13163616 -0.33029026 -0.269111 -0.28681952 -0.15364085 -0.15934362 -0.058650546 -0.23033568
-0.22190003 -0.39236826 -0.3315888 -0.37853283 -0.22103539 -0.0653301 -0.23552811 -0.33464012
-0.12614235 -0.4659651 -0.45508313 -0.3383504 -0.2751081 0.08918127 -0.030656395 -0.22950341
-0.5991179 -0.16089529 -0.36804697 -0.16768895 -0.30039695 -0.23089272 -0.25251785 -0.069177434
-0.24626763 -0.21063423 -0.122144684 0.22730102
00000000: fb79 c93d 0f5c d5bd c173 4bbd eed8 38be
00000010: 74ba 53be 2e6f d0bd b694 b1bd 8cf5 ca3d
00000020: a1cb 06be ce1b a9be ebc8 89be 02da 92be
00000030: 0754 1dbe f92a 23be 8e3b 70bd 1edd 6bbe
00000040: c339 63be 7ee4 c8be 02c6 a9be 0ecf c1be
00000050: 1a57 62be cacb 85bd 482e 71be f355 abbe
00000060: 762b 01be fa92 eebe a800 e9be 433c adbe
00000070: f8da 8cbe aba4 b63d 1f23 fbbc f102 6bbe
00000080: ca5f 19bf bcc1 24be a770 bcbe a7b6 2bbe
00000090: a1cd 99be 246f 6cbe 054a 81be e6ac 8dbd
000000a0: 952d 7cbe 80b0 57be fe26 fabd 99c1 683e

exp_avg f4 [64, 94]
-4.18254e-06 2.2678862e-06 1.348346e-06 2.9460068e-06 1.5018968e-06 -4.305097e-06 -1.2599906e-05 5.816734e-07
-8.825368e-06 1.3296472e-05 -1.889238e-05 3.4135855e-06 -1.5156505e-05 1.1914609e-06 1.8568097e-06 1.1750307e-06
2.153064e-06 9.362582e-07 -2.9201033e-06 3.888142e-06 -2.3474928e-05 -1.0192241e-05 9.596082e-06 1.3438202e-05
7.305544e-06 -2.836401e-07 1.0598775e-06 -4.8772695e-06 -1.6614924e-05 -8.690564e-06 1.3670954e-05 1.7478054e-05
2.3367068e-07 -9.544741e-06 -9.821209e-08 4.7829803e-06 -1.1625859e-05 1.4664893e-05 1.8467188e-05 -2.2390403e-05
-2.400186e-06 -2.9392888e-06 -5.3103413e-06 -2.092152e-05 -6.330687e-05 -5.8874404e-05 1.3259257e-05 -7.3266245e-05
-5.10789e-05 2.6183558e-05 -4.5631765e-05 -1.22679785e-05 -2.1083228e-05 1.7322426e-06 -8.955953e-06 1.194382e-06
-2.8709994e-05 -3.120351e-05 -5.7282476e-05 -3.6316364e-05 -3.2264867e-05 -4.991896e-06 -2.547497e-06 -1.7038801e-06
-1.1755403e-06 -6.363853e-06 -2.9282198e-06 -7.7771365e-06 2.377419e-07 2.4059133e-07 -9.799375e-06 2.2599802e-06
-1.2438813e-06 -1.065204e-05 3.112645e-06 1.6589077e-07 -9.971591e-06 2.4321969e-06 -3.9874903e-06 -5.077683e-06
-2.461711e-06 -4.333819e-06 -3.5047972e-06 -4.034598e-06 -7.955894e-06 -6.4330065e-06 -1.1063879e-06 -5.0439357e-06
-9.3469735e-06 1.8075797e-06 -4.4812286e-06 -9.3469735e-06 1.8075797e-06 -4.4812286e-06 -0.00013644651 -2.2968448e-05
5.3090753e-05 -7.388922e-05 -7.672962e-05 4.9424434e-05 3.5444064e-05 8.249683e-05 -4.2305324e-05 6.4956994e-06
5.7395278e-06 4.6999654e-07 7.854429e-06 5.7777256e-06 -0.00028625556 -0.0001054242 -7.3745185e-05 -4.9440825e-07
8.524035e-06 -6.5342506e-06 4.2801523e-05 9.113267e-05 -0.00020969509 -6.514236e-05 -1.3728941e-05 3.181031e-05
-4.1756407e-06 1.4537454e-05 1.6027821e-05 4.7355858e-05 -5.666873e-05 -3.7734506e-05 2.3575021e-05 -7.577038e-06
-2.8553064e-05 5.944483e-05 -7.4931045e-06 -0.00010167082 -5.7025358e-05 1.6832099e-06 9.043201e-05 5.755451e-05
1.0083505e-05 1.37281795e-05 0.00019617227 -0.00018120368 -0.00014577321 0.00044517618 -0.00019223877 6.0548355e-05
-0.00033548623 -0.00034318643 -0.0002886984 -0.00022010799 -0.00017480802 -9.226105e-05 -0.00024783402 -0.00012750045
-0.00025331604 -0.0001826378 -0.00022018727 3.3630964e-05 -6.375175e-05 -4.766479e-05 4.218546e-05 -7.230624e-05
-4.0097e-05 3.0444273e-05 -6.056506e-05 -3.0570558e-05 -1.8097038e-05 -1.2023743e-05 -2.4278886e-05 -6.3885923e-06
-2.3732191e-05 -1.2814043e-05 -1.0242124e-05 -1.987867e-05 -3.4421428e-05 -6.913188e-06 -2.32076e-05 -1.7708378e-05
1.5639808e-06 -3.168476e-05 -3.5182777e-05 -7.288649e-06 -2.2832135e-05 -2.5366415e-05 9.635635e-07 -3.1084346e-05
-3.058158e-05 9.635635e-07 -3.1084346e-05 -3.058158e-05 -5.606983e-06 -3.808871e-05 -3.1712927e-06 -1.0575565e-05
-3.6201786e-06 -3.4391836e-05 -9.102059e-06 8.843208e-06 3.923847e-06 1.1933255e-05 1.4881471e-06 -4.9557525e-06
1.2409948e-06 -1.6067184e-05 1.1674851e-05 -3.725593e-06 -2.589967e-06 2.941264e-06 -1.3093922e-05 -1.8957538e-05
5.605006e-06 1.8448063e-05 2.8008697e-05 -1.9358624e-06 6.215418e-07 -1.2309713e-05 -1.707793e-05 -9.5650175e-06
3.0148885e-06 1.953079e-05 1.5996227e-05 4.468162e-06 -5.819328e-06 1.7426642e-05 -7.655742e-06 1.1614943e-06
6.276803e-06 1.6586904e-05 2.5977059e-05 4.7247202e-05 5.318945e-06 -1.4177236e-05 8.942067e-05 2.4980523e-05
3.2902983e-05 4.7232592e-05 7.7859535e-05 -0.00012540202 4.140395e-05 7.6021635e-05 3.738522e-06 4.5528695e-06
5.295688e-05 3.1939475e-05 9.95331e-05 0.00010256094 7.1962444e-05 9.143582e-05 2.2435204e-05 -9.0149215e-06
-9.45503e-06 1.223838e-05 -6.63727e-06 6.3234114e-07 4.8858865e-06 7.152229e-07 7.355118e-06 8.828396e-06
00000000: bf57 8cb6 fd31 1836 d1f8 b435 03b4 4536
00000010: c894 c935 8074 90b6 2f64 53b7 4b24 1c35
00000020: ab10 14b7 ea13 5f37 147b 9eb7 f414 6536
00000030: b148 7eb7 49ea 9f35 7f37 f935 bfb5 9d35
00000040: 5c7d 1036 2c53 7b35 fef6 43b6 e376 8236
00000050: 06ec c4b7 57ff 2ab7 dcfe 2037 a374 6137
00000060: 2522 f536 3347 98b4 1d41 8e35 6da7 a3b6
00000070: 4760 8bb7 b0cd 11b7 4d5c 6537 d69d 9237
00000080: e8e6 7a34 5a22 20b7 abe8 d2b3 7d7d a036
00000090: af0c 43b7 3c09 7637 fce9 9a37 06d3 bbb7
000000a0: e212 21b6 9940 45b6 7c2f b2b6 9f80 afb7
000000b0: 9ec3 84b8 e9ef 76b8 1374 5e37 84a6 99b8
000000c0: 8d3d 56b8 c3a4 db37 bc64 3fb8 91d2 4db7
000000d0: e3db b0b7 677f e835 8641 16b7 a74e a035
000000e0: 3ed6 f0b7 84e0 02b8 9742 70b8 6652 18b8
000000f0: 2354 07b8 0f80 a7b6 aaf5 2ab6 e0b0 e4b5
00000100: 42c7 9db5 1589 d5b6 6f82 44b6 8c7a 02b7
00000110: ff45 7f34 9f2a 8134 ff67 24b7 2aaa 1736
00000120: 70f3 a6b5 2ab6 32b7 d5e2 5036 b51f 3234
00000130: a84b 27b7 d338 2336 48cc 85b6 f760 aab6
00000140: df33 25b6 396b 91b6 f533 6bb6 ef60 87b6
00000150: 4e7a 05b7 1bdb d7b6 337f 94b5 143f a9b6
00000160: f2d0 1cb7 f79b f235 765d 96b6 f2d0 1cb7
00000170: f79b f235 765d 96b6 1513 0fb9 5eac c0b7
00000180: c3ad 5e38 f9f4 9ab8 e7e9 a0b8 154d 4f38
00000190: c6a9 1438 2602 ad38 ff70 31b8 a2f5 d936
000001a0: 2b96 c036 d553 fc34 84c6 0337 49de c136
000001b0: 9214 96b9 3017 ddb8 a5a7 9ab8 7ab7 04b5
000001c0: 7402 0f37 c940 dbb6 c985 3338 7b1e bf38
000001d0: 99e1 5bb9 0a9d 88b8 5a55 66b7 0f6c 0538
000001e0: 7b1c 8cb6 e4e5 7337 7c73 8637 f79f 4638
000001f0: 96af 6db8 1e45 1eb8 f9c2 c537 433e feb6
00000200: 3d85 efb7 6654 7938 476d fbb6 1b38 d5b8
00000210: 832e 6fb8 a7ea e135 51a6 bd38 af66 7138
00000220: 532c 2937 1552 6637 98b3 4d39 7e01 3eb9
00000230: b3da 18b9 8966 e939 b493 49b9 4df5 7d38
00000240: 33e4 afb9 b4ed b3b9 715c 97b9 cacc 66b9
00000250: ac4c 37b9 467c c1b8 b8ef 81b9 a4b1 05b9
00000260: 81cf 84b9 7682 3fb9 12e2 66b9 f90e 0d38
00000270: 76b2 85b8 aeeb 47b8 4bf0 3038 1ea3 97b8
00000280: d32d 28b8 9462 ff37 3d07 7eb8 e338 00b8
00000290: 18cf 97b7 95b9 49b7 83aa cbb7 975d d6b6
000002a0: 7e14 c7b7 e5fb 56b7 96d5 2bb7 1ec1 a6b7
000002b0: ba5f 10b8 d5f7 e7b6 f1ad c2b7 748c 94b7
000002c0: f9e9 d135 41e5 04b8 3891 13b8 0591 f4b6
000002d0: a387 bfb7 f6c9 d4b7 ca53 8135 9060 02b8
000002e0: b944 00b8 ca53 8135 9060 02b8 b944 00b8
000002f0: 9e23 bcb6 71c1 1fb8 65d2 54b6 b56d 31b7
00000300: 32f2 72b6 f43f 10b8 0cb5 18b7 4a5d 1437
00000310: 97a9 8336 f134 4837 58bc c735 9749 a6b6
00000320: 4290 a635 04c8 86b7 1adf 4337 3305 7ab6
00000330: 4bcf 2db6 8862 4536 f7ad 5bb7 0107 9fb7
00000340: a312 bc36 eac0 9a37 38f4 ea37 dde9 01b6
00000350: 07d8 2635 d185 4eb7 9342 8fb7 7079 20b7
00000360: 6453 4a36 0dd6 a337 a32f 8637 38ed 9536
00000370: a643 c3b6 6e2f 9237 2971 00b7 a4e4 9b35
00000380: 549d d236 1b24 8b37 4fe9 d937 4c2b 4638
00000390: 6479 b236 c4da 6db7 5b87 bb38 448d d137
000003a0: 4f01 0a38 9c1b 4638 8548 a338 597e 03b9
000003b0: 27a9 2d38 ce6d 9f38 52e3 7a36 dac4 9836
000003c0: 041e 5e38 c0f6 0538 6dbc d038 fc15 d738
000003d0: 8bea 9638 3bc1 bf38 3c33 bc37 cb3e 17b7
000003e0: 0ba1 1eb7 7153 4d37 b7b5 deb6 27be 2935
000003f0: 72f1 a336 befd 3f35 fccb f636 ac1d 1437

exp_avg_sq f4 [64, 94]
9.075871e-08 6.306538e-08 1.9056714e-08 5.5891473e-08 9.717128e-08 9.5630696e-08 6.1575264e-08 7.835625e-08
1.3993819e-08 2.9849772e-08 6.237897e-08 2.875122e-08 2.0772283e-08 1.1025143e-08 1.3115063e-08 1.44392205e-08
6.878289e-09 6.851019e-09 2.276112e-09 3.759317e-09 2.3563054e-08 3.2694597e-08 1.6053113e-08 1.6941696e-08
1.4388629e-08 1.416409e-09 1.2764094e-09 3.2930525e-09 1.1060733e-08 2.3015145e-08 1.7949729e-08 3.2823426e-08
8.542334e-09 4.2712123e-09 2.2549056e-09 1.3295906e-08 4.433112e-09 3.369447e-08 7.8815646e-08 1.9200478e-08
1.4806768e-08 1.8930463e-08 7.568413e-09 3.3865472e-08 4.8554017e-07 6.705455e-07 9.047664e-07 4.02329e-07
4.285942e-07 6.056863e-07 1.268255e-07 4.3427985e-07 3.6699447e-07 3.6417097e-07 2.7657381e-07 2.8930435e-07
1.9141395e-07 1.8161116e-07 1.6650564e-07 1.03953916e-07 1.6456558e-07 2.40824e-09 7.7810265e-09 8.377308e-09
5.2673794e-09 4.9350297e-09 7.07936e-09 4.0077754e-09 6.162441e-09 7.0249024e-09 6.9843447e-09 3.241488e-09
5.3351417e-09 5.7788316e-09 4.4743893e-09 5.580703e-09 9.042743e-09 1.0294394e-09 3.6923995e-09 8.706454e-09
1.6718825e-09 3.5033032e-09 9.081117e-09 1.0911019e-09 3.2119083e-09 9.757219e-09 5.7274124e-10 2.005288e-09
8.468452e-09 1.8046811e-09 3.174491e-09 8.468452e-09 1.8046811e-09 3.174491e-09 1.3874084e-07 1.410282e-07
8.2638266e-08 1.3127867e-07 1.8089075e-07 1.6558994e-07 1.7436578e-07 2.1542003e-07 1.0610613e-07 8.205064e-08
7.32797e-08 4.4311477e-08 7.0838716e-08 9.803274e-08 8.7246484e-08 7.728374e-08 2.7009824e-08 1.6586268e-08
9.665446e-09 3.1253034e-08 1.0678212e-07 1.8404913e-07 1.3049373e-07 8.4737856e-08 6.3016806e-08 1.5402685e-08
1.6161756e-08 1.938485e-08 6.9398254e-08 1.1121812e-07 9.906705e-08 7.932858e-08 5.0072202e-08 5.295287e-08
4.1281698e-08 7.754426e-08 4.9090357e-08 8.066786e-08 1.1711259e-07 1.5291127e-07 9.884289e-08 9.9241056e-08
1.2628446e-07 1.7710163e-07 1.8017512e-06 3.66086e-06 2.8946542e-06 1.6548644e-06 2.4705432e-06 2.0185444e-06
1.5137772e-06 2.3045652e-06 2.1748415e-06 2.3107914e-06 2.1717572e-06 2.3725406e-06 2.110685e-06 2.3226512e-06
1.947722e-06 1.987427e-06 1.9774704e-06 2.1090676e-08 3.569973e-08 4.44553e-08 2.5890904e-08 3.037673e-08
4.1953008e-08 2.2072927e-08 3.4753647e-08 4.4575472e-08 2.4395588e-08 3.0845808e-08 4.189338e-08 1.86516e-08
3.613695e-08 4.5766537e-08 2.5848909e-08 2.7666028e-08 4.0715403e-08 1.9489985e-08 3.536471e-08 4.480422e-08
2.8731854e-08 2.5290923e-08 3.7571763e-08 2.7351247e-08 2.678288e-08 3.833773e-08 2.6653469e-08 2.8171836e-08
3.8145714e-08 2.6653469e-08 2.8171836e-08 3.8145714e-08 7.775304e-09 2.2630436e-08 4.5117265e-09 7.09628e-09
1.1641822e-08 2.0566587e-08 1.7311962e-08 2.6331703e-08 8.833461e-09 2.5364146e-09 3.9676173e-09 6.157812e-09
5.648844e-09 1.8920106e-08 1.21923e-08 1.0604941e-08 5.1512568e-09 7.858149e-09 7.490259e-09 5.1658304e-09
2.8036052e-08 3.854029e-08 3.8226286e-08 1.0048327e-08 5.766481e-09 3.58063e-09 2.807394e-09 6.604778e-09
1.5610427e-08 2.6230891e-08 2.6561603e-08 6.9533046e-09 3.3648873e-09 1.1068025e-08 4.4532076e-09 1.9759712e-08
1.7654944e-08 1.3391705e-08 1.3372819e-08 5.1283784e-08 3.235595e-08 2.3728626e-08 5.1740866e-08 6.607823e-08
2.5244177e-07 5.639453e-07 5.4623234e-07 3.21177e-07 3.6729625e-07 3.899965e-07 2.2104945e-07 1.789845e-07
2.4042694e-07 2.3075212e-07 3.985578e-07 3.6490164e-07 3.5275244e-07 2.861647e-07 2.2205768e-07 1.7851062e-07
1.3944394e-07 8.227589e-09 5.711561e-10 3.452633e-09 7.330963e-09 1.4489725e-09 4.6378608e-09 7.577606e-09
00000000: 21e7 c233 8f6e 8733 28b2 a332 530d 7033
00000010: 7aac d033 885d cd33 5c3b 8433 ce44 a833
00000020: 7869 7032 2c34 0033 34f5 8533 9af8 f632
00000030: bc6e b232 1769 3d32 a850 6132 5d10 7832
00000040: 1256 ec31 3366 eb31 c969 1c31 4d2b 8131
00000050: b467 ca32 176c 0c33 2be5 8932 2f87 9132
00000060: dc31 7732 76ab c230 aa6d af30 fe4b 6231
00000070: 9e05 3e32 d7b2 c532 df2f 9a32 bdf9 0c33
00000080: 95c1 1232 fbc1 9231 b8f4 1a31 036c 6432
00000090: 1152 9831 76b7 1033 5c41 a933 4cee a432
000000a0: db60 7e32 879c a232 3b06 0232 7b73 1133
000000b0: 1156 0235 89ff 3335 13df 7235 adff d734
000000c0: 8a19 e634 7296 2235 872d 0834 f826 e934
000000d0: 5607 c534 4783 c334 047c 9434 b051 9b34
000000e0: 7787 4d34 e500 4334 b9c8 3234 453d df33
000000f0: 71b3 3034 357e 2531 51ad 0532 caeb 0f32
00000100: 5cfc b431 fb90 a931 b63e f331 c4b4 8931
00000110: 67bd d331 b25f f131 f2fa ef31 dcc0 5e31
00000120: 6750 b731 248f c631 25bd 9931 62c0 bf31
00000130: 685a 1b32 2e7c 8d30 61bd 7d31 6493 1532
00000140: 23c8 e530 c3be 7031 2d03 1c32 bcf5 9530
00000150: 7db8 5c31 b4a0 2732 156f 1d30 66cd 0931
00000160: a57c 1132 9208 f830 3c26 5a31 a57c 1132
00000170: 9208 f830 3c26 5a31 cbf8 1434 896d 1734
00000180: de76 b133 9bf5 0c34 df3a 4234 04cd 3134
00000190: 4d39 3b34 354e 6734 76dc e333 d133 b033
000001a0: f15d 9d33 fc50 3e33 ff1f 9833 1286 d233
000001b0: 435c bb33 2ff7 a533 3b03 e832 9779 8e32
000001c0: 150d 2632 133b 0633 1750 e533 0a9f 4534
000001d0: d81d 0c34 21f9 b533 db53 8733 dd4e 8432
000001e0: 14d4 8a32 bc83 a632 1808 9533 cfd6 ee33
000001f0: b0be d433 595b aa33 f80e 5733 4c6e 6333
00000200: b54d 3133 6886 a633 6bd7 5233 a03b ad33
00000210: 547f fb33 ee2f 2434 7443 d433 591e d533
00000220: cf98 0734 5329 3e34 b3d3 f135 19ad 7536
00000230: c841 4236 b51c de35 9ccb 2536 5476 0736
00000240: fd2c cb35 21a8 1a36 7ef3 1136 1813 1b36
00000250: 81be 1136 f037 1f36 4ba5 0d36 d8de 1b36
00000260: 9cb5 0236 bc5f 0536 afb4 0436 e32a b532
00000270: 4554 1933 1fef 3e33 b366 de32 9177 0233
00000280: d22f 3433 e19a bd32 0a44 1533 4073 3f33
00000290: 778e d132 537b 0433 42ee 3333 4d37 a032
000002a0: ff34 1b33 d790 4433 5a0a de32 3da6 ed32
000002b0: 0fdf 2e33 ee6a a732 e9e3 1733 c36e 4033
000002c0: 04ce f632 543f d932 975e 2133 07f2 ea32
000002d0: 2d10 e632 c8a8 2433 99f3 e432 86fe f132
000002e0: a8d5 2333 99f3 e432 86fe f132 a8d5 2333
000002f0: 2694 0532 db64 c232 9105 9b31 8ad3 f331
00000300: 4601 4832 67aa b032 68b5 9432 0730 e232
00000310: f9c1 1732 144d 2e31 8853 8831 b094 d331
00000320: c217 c231 c185 a232 4d76 5132 0631 3632
00000330: effe b031 8100 0732 82ae 0032 207f b131
00000340: eed3 f032 7f87 2533 3f2e 2433 02a1 2c32
00000350: 8122 c631 1c0f 7631 33ec 4031 3ef0 e231
00000360: b117 8632 5752 e132 9529 e432 eae9 ee31
00000370: b93b 6731 b025 3e32 d402 9931 11bc a932
00000380: a2a7 9732 5711 6632 48be 6532 1e43 5c33
00000390: bef7 0a33 cdd3 cb32 af39 5e33 e4e6 8d33
000003a0: 5587 8734 0762 1735 cda0 1235 3b6e ac34
000003b0: d030 c534 b660 d134 9c59 6d34 e22e 4034
000003c0: 0714 8134 a9c4 7734 5ef9 d534 b3e7 c334
000003d0: ed61 bd34 2da2 9934 c06e 6e34 a0ac 3f34
000003e0: 0fba 1534 5259 0d32 8aff 1c30 5d43 6d31
000003f0: d5e3 fb31 3025 c730 0e5b 9f31 aa2e 0232

exp_avg f4 [64]
-7.5393973e-06 -3.0120778e-05 5.6011136e-06 1.6202648e-07 -1.7719261e-06 6.6322027e-06 -1.3544198e-05 -2.3174012e-05
-2.900503e-05 -2.3697864e-06 -7.870384e-06 -1.9952201e-06 4.8909093e-05 -5.9279202e-05 -1.049645e-05 1.0991616e-05
-1.4814955e-05 7.847141e-06 9.237789e-07 1.5698333e-05 -1.6080936e-07 3.0572348e-05 1.0936726e-06 -2.6320826e-05
-2.4119624e-06 -4.207719e-05 -2.4578085e-05 1.8311961e-05 3.531377e-08 -3.6329904e-05 7.773769e-06 -1.7089988e-05
-2.2934719e-05 -2.0762205e-05 3.638078e-05 1.602185e-05 -7.217613e-07 4.0451785e-05 2.9182363e-06 3.2738462e-05
-3.3851826e-05 2.0677293e-05 -5.1066403e-05 -6.2114756e-05 -1.1725144e-06 -7.825113e-06 -5.082658e-07 1.4333873e-05
-8.418077e-09 8.108282e-06 -2.2562534e-05 -2.3667744e-06 1.2990764e-05 -4.2246535e-05 2.0508858e-05 7.877636e-06
7.845861e-06 -2.0001191e-05 2.7114314e-05 -9.92586e-06 -2.2465879e-06 -4.5587447e-05 -5.2955156e-06 4.9541363e-06
00000000: eefa fcb6 e1ab fcb7 33f1 bb36 80f9 2d34
00000010: ebd2 edb5 308a de36 e33b 63b7 d065 c2b7
00000020: d44f f3b7 9f08 1fb6 0b0b 04b7 9fe5 05b6
00000030: bd23 4d38 8fa2 78b8 e919 30b7 a268 3837
00000040: bf8d 78b7 37a7 0337 9af9 7735 eaaf 8337
00000050: f1aa 2cb4 cf3a 0038 4eca 9235 8bcb dcb7
00000060: 33dd 21b6 0a7c 30b8 092d ceb7 a39c 9937
00000070: e7ab 1733 f060 18b8 156c 0237 785c 8fb7
00000080: ef63 c0b7 7f2a aeb7 9197 1838 a966 8637
00000090: 0fbf 41b5 c6aa 2938 ebd6 4336 a850 0938
000000a0: 1ffc 0db8 2674 ad37 2230 56b8 9b43 82b8
000000b0: 4a5f 9db5 9b48 03b7 c36f 08b5 847b 7037
000000c0: 189f 10b2 ce08 0837 ac44 bdb7 e0d4 1eb6
000000d0: e8f2 5937 df31 31b8 700a ac37 302a 0437
000000e0: b7a1 0337 3bc8 a7b7 8c73 e337 3e87 26b7
000000f0: 16c4 16b6 2635 3fb8 22b0 b1b6 b53b a636

exp_avg_sq f4 [64]
1.0348705e-08 5.981128e-08 8.8623295e-09 2.0427064e-09 3.3925098e-09 6.801061e-09 2.5834355e-08 4.9040356e-08
2.9127882e-08 2.6360585e-08 2.6958572e-08 3.8616084e-09 1.002365e-07 3.9547043e-08 3.5458392e-08 1.0291832e-08
3.9274465e-08 2.1494971e-08 2.6075637e-09 3.095234e-09 7.933522e-10 9.435949e-08 1.4045459e-09 3.4183284e-08
7.775684e-09 2.5506848e-08 1.6976934e-08 2.9807367e-08 1.2738352e-08 2.0778272e-09 1.28730395e-08 1.4345263e-08
7.980162e-08 1.4726507e-07 5.088699e-08 1.03527755e-08 9.3472785e-09 1.2873885e-07 5.8374123e-09 6.3575605e-08
3.0475167e-08 1.2481125e-08 1.0513161e-07 1.1755107e-07 4.833477e-09 3.8528302e-08 3.7202008e-09 1.6985037e-08
2.064282e-14 3.6462872e-08 2.788981e-08 5.2477624e-08 8.195284e-08 2.6941175e-08 1.7765064e-08 4.9523322e-08
3.6602597e-09 1.1034437e-07 1.40393555e-08 1.01834114e-08 2.3183977e-08 1.9769269e-08 2.54162e-08 7.499148e-09
00000000: 16ca 3132 9971 8033 f040 1832 ac5f 0c31
00000010: aa21 6931 c4ae e931 59ea dd32 71a0 5233
00000020: e434 fa32 8a6f e232 8792 e732 11af 8431
00000030: 9941 d733 6fda 2933 ea4a 1833 f5cf 3032
00000040: bbae 2833 f1a3 b832 bf30 3331 efb3 5431
00000050: 3313 5a30 aea2 ca33 110a c130 ebd0 1233
00000060: d295 0532 271a db32 acd4 9132 8c05 0033
00000070: ddd7 5a32 86c9 0e31 3a28 5d32 2273 7632
00000080: 685f ab33 ea1f 1e34 d68e 5a33 fddb 3132
00000090: c495 2032 773b 0a34 6c92 c831 0f87 8833
000000a0: cde3 0233 916c 5632 b7c4 e133 6270 fc33
000000b0: b713 a631 517a 2533 77a6 7f31 7ee6 9132
000000c0: 1aef b928 5a9b 1c33 5792 ef32 c263 6133
000000d0: 0dfe af33 456c e732 ca99 9832 78b3 5433
000000e0: f887 7b31 75f6 ec33 bd31 7132 1ef3 2e32
000000f0: 1b26 c732 15d1 a932 d152 da32 9ad5 0032
