results/b090rereremaze222/Dynamic Table/Dynamic Table-4199968.onnx (onnx, 74582 bytes, 9 tensors)

network_body._body_endoder.seq_layers.0.weight f4 [64, 94]
00000000: 5e78 be3e fc91 26be 3318 b43d 6cfc a03e
00000010: 448b 623c 7882 5b3e c8db b43e 4d9e 5a3d
00000020: a7b3 90be cff2 a6be b3ae 343d 095d 023e
00000030: b9ed bd3d 0275 52bd cfa0 26be af7f 1abe
00000040: 75a6 52be 71be 52be f124 883d 70e9 0c3e
00000050: 344e b53e d4b0 fc3e e870 b0bd d1ee f03d
00000060: c35b 1cbe 3ca5 56bd 9767 a93e 7dbd a63e
00000070: 9063 933c cf7a 80bd abcb 833d 29b6 673d
00000080: 7995 683d 61db 4dbe 23bc c43d 3368 dfbc
00000090: aea3 2ebe ecf5 1a3f 34a2 8c3d c145 05be
000000a0: e807 0b3e 4b69 ec3e bf40 93bd cf27 dd3d
000000b0: e1dd 8a3e 2889 533d 1e81 09be 8ae0 3c3e
000000c0: f633 373d 0b6f 85be a2c3 d4bd 6084 babb
000000d0: 4b1d 06be c85f 3ebe 8502 7d3d 1e25 75be
000000e0: 6939 b9bd d8db e1be 36fa 93bc b290 3ebe
000000f0: 621c e7bd a7b9 683e 2ef5 2bbe 1475 48be
00000100: 9d92 6a3e 09ac 7abe 253b 87bd b78f 08bd
00000110: dc61 353e 7304 68be 84c4 493e 686f 81be
00000120: a163 89be 179d 243e 2f8f f2be 6776 a1be
00000130: 61cb 8d3e 4fe9 b6be 7cbe 7fbd 9146 b13e
00000140: c44b b4be ce05 f1be 22ec b7bd 90cc 163d
00000150: 315a 803d c63b 0b3e 33b8 80be 8038 31be
00000160: a413 0d3e 9865 ab3d 68c8 64bd b886 3e3e
00000170: 906a 8a3d 7f5f 9ebd 293d 543e 9284 053e
00000180: 0e5b 48be b10c 61be ca1d 523e f7fb cbbd
00000190: 0a2a d23d 2b82 a83d b3d5 a0bd 0aaa c83d
000001a0: 467a 083d 258f 0dbf c0e8 dabd 73e3 bf3d
000001b0: 2da2 09bc 9daa a5be 8997 98be bf23 763e
000001c0: 2549 1abc fa06 e93d cb39 3abe 6dfe 863e
000001d0: a2d7 7cbe 245e b0bd 80a1 523e 0536 0b3e
000001e0: 4d88 003f bf83 023f 7822 523e d5c7 94bd
000001f0: 7df1 d2be d986 43bd c19f f2bd 4567 0e3f
00000200: 1f37 9bbe 4edf b63d ed81 40be 1142 bf3d
00000210: 0b3f 5dbe 4088 3b3e 173e 943e 8472 29be
00000220: 8a74 acbd 422c 5d3e a741 243f a0e8 ad3d
00000230: be38 cb3d 8899 c2be 09a9 5d3e 22ee b2be
00000240: 4f91 813d c98c 833d 862b 6f3b 7461 883d
00000250: f7ca cabd 8e41 15bd 613f a5bc d64f b63d
00000260: 796f 133b 8b21 debc b10a 4c3e 7fee 8c3e
00000270: c533 04bd 3341 33bd e4b4 e23d 6531 76be
00000280: 6eaf e43d 2b2e 89bb 474a e23d e636 a23d
00000290: f0f8 c93c 9304 43be 36ed 0cbe f8d4 043e
000002a0: 2007 b83d ca00 8abd b19d 4b3d b2d1 afbc
000002b0: 3a1d ee3d 0277 f3bd 2e7a 013e 1817 26bd
000002c0: 64b7 19be 60ae 7bbe 65c2 25be 34f5 b9bd
000002d0: cc81 d4bd 4d11 adbc a34b 21be 6ef6 1e3c
000002e0: b3a9 3bbe 9c44 a5bd afff 633e 914a ed3c
000002f0: 0a43 cebe 807b 3e3e 5f43 45be da0f b7be
00000300: 5e31 50bd c394 0b3e 5525 49be 9c93 0cbd
00000310: 0552 29be 229e 0fbf ecc3 c7be 3dfb acbd
00000320: a6df a6be a3bc 28bd e806 53be 46e8 f7bd
00000330: 4476 20be 221f c33d 0b69 d03e aecf 00be
00000340: bf2d 483d b46d 33bd c535 05bf 98e5 8fbe
00000350: 3c8a 12bc 4ca6 fa3e 6c17 093e e2d0 163f
00000360: b34d 58be c4da 61be 5be6 cbbd aae7 f3be
00000370: 4deb 853d 4093 043f 3096 40bd 5842 6c3e
00000380: b03d 22bf 1824 5dbe 8b9a 993d 004b 0d3c
00000390: 30ca f03e 3aed e83e 6984 9c3d cfe7 033e
000003a0: 9751 c13c e680 b53d 0a77 123e 13ee 42be
000003b0: c011 283d 74b3 c93e fa19 983e 08e8 bfbd
000003c0: 60ce 10bd 2fec 803e a4e1 903d 27b4 3f3d
000003d0: 4af1 7f3d 4757 b8be 5044 5cbd 3b5f a2be
000003e0: 12e0 e2be 2f83 b33e 6147 cdbe 5104 65bd
000003f0: 1e99 b43e 2dbd acbe f3f0 ba3d 0ffd 2f3e
0.37201208 -0.16266626 0.08793678 0.31442583 0.013827149 0.21436489 0.3532393 0.053373624
-0.28262064 -0.32607123 0.04411192 0.12730803 0.092738576 -0.05138112 -0.16272281 -0.1508777
-0.20571311 -0.2058046 0.06647671 0.13760924 0.35411227 0.4935366 -0.08615285 0.117643006
-0.1526938 -0.052403674 0.33086845 0.32566443 0.017991811 -0.06273424 0.06435331 0.056570206
0.056783173 -0.20103218 0.09606197 -0.027271366 -0.17054626 0.60531497 0.06866875 -0.1301489
0.13577235 0.46174082 -0.07190084 0.107986085 0.27122405 0.051644474 -0.1342816 0.1844503
0.04472729 -0.26061282 -0.103888765 -0.00569205 -0.13097112 -0.18591225 0.06176998 -0.2393994
-0.09044153 -0.4411304 -0.018063646 -0.18609884 -0.112847105 0.22727071 -0.16792747 -0.19575912
0.22907491 -0.24479689 -0.06603078 -0.033340182 0.17713112 -0.22657947 0.19703871 -0.2528031
-0.26833823 0.1607555 -0.47374865 -0.31535646 0.27694228 -0.35724875 -0.06243752 0.3462415
-0.35214055 -0.4707474 -0.08980586 0.03681618 0.06267203 0.1359702 -0.25140533 -0.1730671
0.13777024 0.08368987 -0.055855185 0.18606079 0.067586064 -0.07733058 0.20726456 0.13038853
-0.19565985 -0.21977498 0.20519176 -0.09960168 0.102619246 0.082279526 -0.0785326 0.097980574
0.033319734 -0.55296546 -0.10688925 0.09369554 -0.008400482 -0.3235673 -0.29803112 0.24037074
-0.009416853 0.11378284 -0.18186109 0.26365986 -0.24691632 -0.08611706 0.2056942 0.13594826
0.5020798 0.5098228 0.20520961 -0.072646774 -0.41199866 -0.047736023 -0.11846877 0.55626327
-0.30315492 0.08929311 -0.18799563 0.09338773 -0.2160608 0.18313694 0.2895362 -0.1654759
-0.084206656 0.21598914 0.6416268 0.08491635 0.09922932 -0.3800776 0.21646513 -0.34947306
0.063265435 0.06423337 0.0036494448 0.06659213 -0.09901994 -0.03643947 -0.020171823 0.08901946
0.0022496863 -0.027115604 0.19925953 0.27525708 -0.032275934 -0.04376335 0.110696584 -0.2404228
0.11166273 -0.004186412 0.110493235 0.07920627 0.024654835 -0.19044714 -0.13762364 0.12971866
0.08985734 -0.06738432 0.049710933 -0.021462295 0.11626668 -0.11887933 0.12644264 -0.040549368
-0.15011364 -0.24578238 -0.16187437 -0.09079972 -0.10376319 -0.021126414 -0.1575151 0.009702308
-0.18326454 -0.08069727 0.22265504 0.02896622 -0.40285522 0.18601799 -0.19263981 -0.3575428
-0.05082833 0.13630967 -0.19643147 -0.03432046 -0.16535194 -0.56100667 -0.39016664 -0.084463574
-0.32592505 -0.041195523 -0.20608103 -0.121048495 -0.15670115 0.095274225 0.4070514 -0.12579224
0.048871752 -0.043805793 -0.5203517 -0.28104854 -0.00894409 0.48955 0.13387841 0.5891248
-0.2112339 -0.22056109 -0.09956046 -0.47637683 0.06539021 0.51787186 -0.04701823 0.23072183
-0.6337538 -0.215958 0.0750018 0.008623838 0.47029257 0.4549349 0.07642443 0.12881397
0.023598475 0.08862476 0.14303222 -0.1903613 0.041032553 0.39394724 0.2970732 -0.09370428
-0.035353065 0.25180194 0.070742875 0.046802666 0.06248597 -0.36004087 -0.053776085 -0.3171328
-0.44311577 0.35061023 -0.4009352 -0.05591232 0.3527307 -0.3373808 0.09127989 0.17186378

network_body._body_endoder.seq_layers.0.bias f4 [64]
00000000: 86f4 3d3d 7e6c c1bc 9b40 8abc face 31bd
00000010: 34bd 5ebd 6bd8 473d aeee 803d 8427 b43d
00000020: 71d7 a0bb 1521 2bbc 9b04 9bbb 74c4 13bd
00000030: 4b1f a83c 5118 a13c f95b f33b ef23 313b
00000040: 12d2 d3bc fa0d 773d 0a78 1abd d415 56bd
00000050: ab1b d0bb c1b2 d5bb 811f 37bd 0836 39bd
00000060: 633b 6cbd a341 cdbc 6318 0abd 2169 de3d
00000070: 283e fa3c c734 78bd f15f 03bd 793b f73b
00000080: f705 173d b3f8 90bc 8567 03bd b5e6 55bd
00000090: 031b c8bc 2723 c3ba 87af 993d 808a 8c3d
000000a0: 55d8 1a3d fd73 9b3c 5cce 3c3c bc6d 72bc
000000b0: 76c0 643d fb8b 543b 7d10 8ebd adbf 13bd
000000c0: afad 2ebe 596a 6c3d 15d3 2e3c 1afe ddbc
000000d0: 8850 75bc 051b ecbc 9ecd 753d 2253 fcbc
000000e0: 17a9 e0bc bbd7 b53c 33ea 793d 34da c0bc
000000f0: 661c 113c b108 3dbd 8b80 e63a de40 773d
0.046375774 -0.023611303 -0.01687651 -0.04341028 -0.054379657 0.048790377 0.062955245 0.087965995
-0.004908495 -0.010444899 -0.0047307736 -0.036076024 0.020522734 0.019664915 0.0074267355 0.0027029475
-0.025857005 0.060316063 -0.037712134 -0.05226691 -0.0063509545 -0.0065215533 -0.04470778 -0.045217544
-0.057673823 -0.025055712 -0.033714663 0.108598955 0.030547217 -0.060597207 -0.03207392 0.0075449315
0.036870923 -0.017696714 -0.032081146 -0.052221972 -0.024426943 -0.0014887796 0.07504182 0.06862354
0.037803967 0.018976206 0.011523809 -0.0147966705 0.055847608 0.0032432068 -0.06936739 -0.03607147
-0.17058443 0.05771861 0.010670443 -0.027098704 -0.014972813 -0.028821478 0.060010545 -0.03080136
-0.027424378 0.022197595 0.061014365 -0.023541547 0.008856868 -0.046150867 0.0017585916 0.060364597

network_body._body_endoder.seq_layers.2.weight f4 [64, 64]
00000000: 115f 543d c365 bcbe f370 2fbe acb2 5e3e
00000010: 40bb 5dbe 248e dfbd 6201 953e c4a7 793d
00000020: 791c 51be 3810 74bc 6fff f23c 282e 14be
00000030: d832 ebbd 3cf7 453e 73f7 3b3d 4c79 80be
00000040: c3a4 79be 798c 87bd 5801 683e d44a a9bc
00000050: 9aae 93bd 610c 81bd e2e2 d6be aed2 1b3e
00000060: c886 ebbd b145 3c3e cd62 313d 1b25 0cbe
00000070: d958 cf3d bf95 7cbd 81a3 c6be 42e5 65be
00000080: 8d2c b73d f772 0e3f f409 533e 93e5 81be
00000090: 7482 83be 8b1c 9e3d a8ce 00be 17b0 c93d
000000a0: 31cc 5bbe c317 57bd 2385 ac3e fbea 91be
000000b0: 5f08 093e 434f 7f3e 6cdc 1b3f 1376 a63c
000000c0: a617 b43d 6a91 083e 79ee 7abe 5434 a93e
000000d0: 3b44 6f3e 64b3 fabd 6f2c b93e a8dc 863e
000000e0: 4923 b13d bb2f 50be b1e0 723d b4b9 393d
000000f0: a7f4 e1be 5b52 3a3e f129 05bf 5690 e0bd
00000100: b2ed 3b3e bc38 603e 0113 91be a8e9 42bd
00000110: 0430 f3bd 46bf 7d3e 524a fcbc 8670 39bd
00000120: 0966 3ebd 2a41 ec3c 50af 293e 3b4f 133f
00000130: 59cc 02be 2494 213e 7a98 44be 4bb9 713d
00000140: b598 22bd 89a7 2e3e 52bd 0dbf 7e32 e73d
00000150: c8a7 47be 7571 c33d 5a8d 873e 2a49 383e
00000160: 76f2 3b3e 44bc 113e fc1e 24be 0196 0bbe
00000170: 6287 3c3e dc19 8d3e 2e97 48be c51a 313e
00000180: 1457 923e 1270 38bd 52e8 c9be 7327 f7bc
00000190: 032c 28bd e027 27be fead 04be 8e96 b23d
000001a0: 27c8 6bbe fa64 0ebe 526f 033e d9f1 e53e
000001b0: 39d4 a03e f51f 9a3e 12c9 2abe 649a bcbd
000001c0: 2907 e73d 96c5 60be bb39 7dbd 4221 45be
000001d0: 17bc a53e 4528 e23e 190a 773e 286d 95be
000001e0: e701 1abf 03f2 473e 0fa6 3f3e 8f2d 873e
000001f0: d1f5 a93e fa23 383e b5f5 fb3e 93f3 d4bd
00000200: 88d4 f7bd 85aa 7c3c 0341 26bf 22b0 f6be
00000210: b283 003e d3d3 85be e17f a4be cd8e 01be
00000220: 582c b03d 0227 653e 6808 ccbe 355b e13d
00000230: 1c91 8dbe 2056 6c3e 1cd9 9e3e 56b8 993e
00000240: 7262 99be 1705 1cbe 2ee1 84be 7922 fbbe
00000250: 02f6 193e 8a57 903e ac94 5f3e 763b 1a3e
00000260: d9a4 40bd 3aa6 8f3d b501 1abe 38fc 523e
00000270: 315f d63e 54a0 6e3e f1e8 de3d c38c 643e
00000280: f275 4abe 13bf 5cbe 87b5 c5be 0920 d7be
00000290: 8a11 21be 92b2 dfbd 5c2e 043f 6955 473d
000002a0: 4599 963e 78ec 6d3e 9e27 db3c b4f0 213e
000002b0: 50fb 913e a45a 00be 76a4 aebe d788 99bc
000002c0: 14f9 24bd 10f4 d1bc a32a 27bf 95fc fcbe
000002d0: ab1f 643e f91e 0a3e bf17 7ebe c789 79be
000002e0: 5199 ae3e 3eb6 13bd 5086 103f f477 c4be
000002f0: e0f7 64be 9b87 ca3e e01a cf3e 0a74 193e
00000300: bac0 4f3e e7f0 b73d aa39 023f 4666 3f3e
00000310: df2a 71bd 7501 83be f812 16bd 1cfb d9bd
00000320: a0e8 3ebe dd3c 4ebe b35f 68be b4a1 8c3e
00000330: 4d05 913e 1b7c 9fbe 78b8 32be 7342 303d
00000340: 4dbe adbd ea8f 5ebe 8652 c3bd 2467 763d
00000350: 33ee 00bf 7ff2 8a3e e1f0 12be 473f 92be
00000360: bfb3 babd d61d 34be 5ed1 bc3e ad81 4fbe
00000370: a5d8 323e 3d1a dbbe 8a7e 543d 6457 17bf
00000380: 5d2f fe3d 3531 ad3e 64cd 533e c1bb 283e
00000390: d673 503d 7531 28be 46d9 96bd abdd af3d
000003a0: b563 e6bd 5c9e e13e f35a febd 5877 883c
000003b0: 5bb8 3bbd a93d 1d3d 8275 79be 3af7 1bbf
000003c0: ed98 fdbe db44 413e 96d5 8d3e b211 4dbe
000003d0: 1691 963e a910 e6be 5182 d2be 5623 a73e
000003e0: 4f77 993e 9b4a d1bc 2efb 8cbe cab6 3bbe
000003f0: af1d f13e 2082 6ebe 42d5 c7be f960 813c
0.051848475 -0.36796388 -0.1713293 0.21747845 -0.21653461 -0.10915783 0.29102618 0.06095101
-0.20421018 -0.014896445 0.029662816 -0.14470732 -0.11484307 0.19332594 0.045890283 -0.25092542
-0.24379258 -0.0661859 0.22656763 -0.020665564 -0.07211037 -0.06301189 -0.41969973 0.15217087
-0.11500317 0.1838596 0.043307114 -0.1368603 0.10124368 -0.061666247 -0.3879662 -0.22450736
0.08944044 0.5564417 0.20609266 -0.25370464 -0.25685465 0.07720288 -0.12578833 0.098480396
-0.21464612 -0.052512895 0.33695325 -0.28499588 0.133821 0.2493258 0.6088321 0.020319974
0.08793573 0.13336721 -0.24505033 0.33047736 0.23365872 -0.12241247 0.36166713 0.26340222
0.08649308 -0.20330708 0.059296314 0.045343116 -0.44131967 0.18195479 -0.5201712 -0.1096503
0.18352392 0.21896642 -0.2833481 -0.047586113 -0.11874393 0.24779996 -0.030797157 -0.045273326
-0.046484027 0.028839666 0.16570783 0.5754277 -0.12773265 0.15779167 -0.1919879 0.0590146
-0.039696414 0.17056097 -0.55367005 0.112889275 -0.19497597 0.095431246 0.2647503 0.1799666
0.1835421 0.14231974 -0.16027445 -0.1363144 0.1841102 0.27558792 -0.1958892 0.17295368
0.2858206 -0.045028754 -0.3943506 -0.030170178 -0.041057598 -0.16323805 -0.12956998 0.08720122
-0.23025571 -0.13905707 0.12835434 0.44911078 0.31411913 0.30102506 -0.16678265 -0.09209135
0.112806626 -0.21950373 -0.061822634 -0.19250968 0.32370064 0.44171348 0.24124946 -0.29184842
-0.6015915 0.19525914 0.1871569 0.26401946 0.33195356 0.17982474 0.49210897 -0.103980206
-0.12101084 0.015421514 -0.6494295 -0.48181254 0.12550238 -0.26138172 -0.32128814 -0.1265213
0.08602208 0.22378162 -0.39850163 0.110037245 -0.27649772 0.23079729 0.31025016 0.3002345
-0.2995792 -0.15236317 -0.25953048 -0.49049738 0.15035251 0.28191787 0.21834058 0.15061745
-0.04703221 0.07014127 -0.15039714 0.20604026 0.418695 0.23303348 0.10884274 0.22319321
-0.19771555 -0.21557264 -0.38615057 -0.42016628 -0.15729347 -0.109227315 0.5163324 0.048665438
0.2941381 0.23234737 0.02675229 0.15814477 0.2851205 -0.12534577 -0.3410985 -0.018742008
-0.040276602 -0.025629073 -0.65299433 -0.49411455 0.22277705 0.13488378 -0.24813746 -0.24368964
0.34101346 -0.03606247 0.56454945 -0.38372767 -0.22360182 0.39556584 0.40450191 0.14985672
0.20288363 0.08981495 0.5086924 0.18691358 -0.058878776 -0.2558705 -0.036639184 -0.106435984
-0.18643427 -0.20140405 -0.22692756 0.2746712 0.28324357 -0.31149372 -0.17453182 0.04303212
-0.084835626 -0.21734586 -0.095372245 0.060156956 -0.50363463 0.27138135 -0.143497 -0.28563902
-0.09116315 -0.17589507 0.36878484 -0.20264311 0.17465456 -0.42793456 0.05187849 -0.5911772
0.124113776 0.33826604 0.20683819 0.16477872 0.05089172 -0.16425116 -0.0736566 0.08587202
-0.11249486 0.4406613 -0.12419691 0.01665847 -0.045830112 0.03838888 -0.24361232 -0.6092411
-0.49530736 0.18873923 0.27702016 -0.20026281 0.29407567 -0.44934586 -0.4111505 0.32644147
0.29973838 -0.02554827 -0.27535385 -0.18331447 0.4709296 -0.23291826 -0.3902989 0.01579331

network_body._body_endoder.seq_layers.2.bias f4 [64]
00000000: 064e c93d 585e 8b3e 9b4a 233d 8216 c2bb
00000010: 9251 94bd c7dc 84bd 17a8 2a3c 112a 753d
00000020: d0ee 0b3e acbd 23be e580 b2bc 0951 fbbd
00000030: 8e2f 543d 5a06 703d 79ec ca3d 644f 933e
00000040: cb1d 65bd 9881 ccbd e9a6 9c3d 11e7 ac3d
00000050: 8ba2 4f3e 8523 553d b6b1 22be f489 693c
00000060: 66cf 683c 4165 723d 7f0f bd3d 6b29 57be
00000070: f79b 4fbe 9047 b83b 1a10 9c3d 6608 86bc
00000080: 28c8 693d 9961 133e 496d 3a3e 91b1 d0bd
00000090: 2a16 d43a 9e09 0a3e d25f 03be 719f 733d
000000a0: 908e 54bd 7746 853d 53c1 93bd ae57 433c
000000b0: 9b3e 293e 1f43 953d 555d 9dbd 5499 cabb
000000c0: de42 42bd ee59 3d3e 3dcc 3c3c bc3a 2ebd
000000d0: 2f5d 0b3e 97c8 1cbc 6fc3 523d 5afb b7bd
000000e0: 1199 843d 439a e23d c4ff 08be 58c2 82be
000000f0: 5f15 c93d 5512 35bc c8e0 00be 6547 b0bd
0.09829335 0.27220416 0.03986607 -0.0059230933 -0.07242121 -0.064874224 0.010416052 0.05985457
0.13665318 -0.15990323 -0.021789977 -0.122713156 0.051803164 0.058599807 0.09908385 0.28771508
-0.055936616 -0.099856555 0.07649023 0.0844251 0.20276849 0.052035827 -0.15888104 0.014254082
0.014209604 0.059178594 0.09231471 -0.21011893 -0.2027434 0.0056237653 0.07620259 -0.016361427
0.05707565 0.143927 0.18205751 -0.10190118 0.0016180922 0.13480231 -0.12829521 0.059478227
-0.05189377 0.06507581 -0.07214608 0.01192276 0.16527788 0.07288193 -0.07683817 -0.006182829
-0.04742705 0.18491337 0.011523304 -0.042536482 0.13609765 -0.009569309 0.05145591 -0.089834884
0.064745076 0.11064579 -0.13378817 -0.25538898 0.09818529 -0.011051734 -0.12585747 -0.086073674

network_body._body_endoder.seq_layers.4.weight f4 [64, 64]
00000000: e139 94be 8783 153e 8118 7abe f653 a6be
00000010: 414e b9be 05ce b93e 05fd 3a3e e175 07bd
00000020: 9115 9f3d 2e69 c1be dd24 843e 9b9d b9be
00000030: 8842 853d 42f3 253d 784d e63e cf00 0fbe
00000040: fdc8 62be eabf 73bd 312d a8be 59d5 e13e
00000050: 6ee5 893d 1c5f 4a3e eb74 a2bd 9405 983c
00000060: e002 a0be bb77 363d 1b70 8c3e 8106 233e
00000070: ed3c abbe da41 533e 19d9 22be 88ff b4bd
00000080: 2e41 ec3d e71b 0a3d c4cd 29bf a60c 96be
00000090: 60ae 8cbe fbb7 3a3e af01 ea3e fe79 7d3e
000000a0: 6a0e 0bbe c191 6bbe 5658 1dbe 4931 7d3e
000000b0: d676 36bd 7cad 97be bb5d 8e3e 2978 19bf
000000c0: a260 c5be 22d2 2dbc 2315 9abe 78d3 85bd
000000d0: fff9 fb3d 6b8f a73d 7289 c4be f558 d6be
000000e0: f3aa bd3d 966c b53d ee80 bebd e1cb 08be
000000f0: 5f7e ac3e 24cc 2e3e ac54 2bbe ee50 22bf
00000100: b523 303e 7461 34be 2c2a b23e 8f63 1d3e
00000110: b5f0 a9be efd1 683b 3503 253e fb51 013e
00000120: 7f15 9ebe 0512 10be a64e 2fbe 776d a93d
00000130: 3d1b a63e 441d bcbd a527 a23e 5fd7 c23d
00000140: 331a 373d 2d58 9fbd 6e5f dd3d a2de 213d
00000150: 8825 e4bc b263 df3e 72bf a6be 8eaa 8c3d
00000160: 6d9b e1bd 3fc2 1d3e 4e0f 923d c2f4 42be
00000170: f092 8bbe d8f4 3dbd 4a74 a1bc ed51 fbbe
00000180: 614b 1e3e c464 fd3e a3df ecbd e41b 943d
00000190: 7b16 4cbc a27f 463e 0c4a afbe 694e 1e3e
000001a0: 5426 503e a406 90be 2372 45be c921 54be
000001b0: 0095 6dbe 9cfa 57bf f4c2 babe d56a 563e
000001c0: 7123 ea3d 8e1a a7bd 77ea cabd 8355 26be
000001d0: 6a52 15be a628 0b3e b0e3 cebe a3bd 1cba
000001e0: 14df 7c3c c5e0 f43c d365 573d 005d d23e
000001f0: 280c 873e fc50 d2bd 5ce2 50be 8d60 ac3d
00000200: 886f e5be 38e2 683d 3d25 c83e 0e44 fe3c
00000210: 928f 1c3e c6d7 4abe c976 4dbe ad86 f43d
00000220: 5e39 65bd ed0d 653e a28a 443e 8f73 9abd
00000230: 2161 e2be d008 fcbe d4d4 8abe fb09 3bbe
00000240: 2424 19be 8bff 94be 5153 cabe df08 34be
00000250: a262 703e 1ef2 c03e abd7 343e 6830 8b3d
00000260: c3ab 68be e0e1 40be 50c3 01bf 477b 41be
00000270: 849c c43e 57e3 43be 281e 773e 2e0c 983d
00000280: 6475 a7be 6faf 313e 2fee dbbd cb60 a5be
00000290: 16e4 e3bd fdb0 9ebc 16c3 a63e 6689 07be
000002a0: aaa5 7ebe 0686 d8be 2e6a 07be 1c8e 823e
000002b0: 19dc 393e a709 85be 7fba 03bf ca47 10be
000002c0: 4d3b 193e 00b1 c53d 3540 00bf e393 9b3e
000002d0: a6c4 273e f62c 9c3d e206 7f3e e598 8a3e
000002e0: 45d8 e1bd adb5 13be 4b2b 663d 6dca f43e
000002f0: 0fe2 cdbe 005a 503e fe34 d3be 3ec9 83bd
00000300: 44b4 303e 5993 f63d 9a95 5bbe 7af6 a2be
00000310: ebe0 1bbe 0d84 b6be a29a c0bd 5263 0abe
00000320: b964 81be bf16 2d3f b3da 01bf 98b5 83be
00000330: 8470 bbbe e9e1 d3be 08fb 04be b3fc 7cbe
00000340: f455 a2be 609f 0c3e 789e cebd 2301 abbd
00000350: 6169 0a3e 263b 9dbe 523f f1bd 1437 46be
00000360: 3bbb a1bd 14f3 f13d d6d0 35bb 2792 92be
00000370: b030 083e 076d 9e3e a662 d1bd a3da 473e
00000380: 6c34 2b3e f809 acbd 57dd 5b3e 551f e7bd
00000390: 7d71 86be bf4d d3be 67e4 23be bfe3 b0be
000003a0: 822d 11bf f50f dfbc 9cb0 ea3e 37b3 4fbb
000003b0: 256c 85be aafb 283d 51b2 f63d d68d 953e
000003c0: 5e9d 11be 50b0 863d 07ad 7cbe 096b 39be
000003d0: 36ff b5be 3b2f 0c3f 2208 16bd 7358 3b3f
000003e0: e1e3 203e b8f8 44bf f752 c5bc 8158 82bd
000003f0: 7cd0 59bd fda9 70be b239 c43d 56b9 273b
-0.28950408 0.14600955 -0.2442341 -0.32485932 -0.36192515 0.36289993 0.18260582 -0.033071402
0.07767785 -0.37775558 0.25809374 -0.36253056 0.065068305 0.04051519 0.4498098 -0.13965152
-0.22146983 -0.059509195 -0.32846978 0.44108084 0.06733213 0.19762844 -0.079324566 0.018557347
-0.31252193 0.044547778 0.2742928 0.1592045 -0.3344492 0.20630589 -0.15903129 -0.08837801
0.115358695 0.033718016 -0.663296 -0.29306525 -0.27476788 0.18234245 0.4570441 0.24753568
-0.13579717 -0.2300482 -0.15365729 0.24725832 -0.044546925 -0.29624546 0.27805886 -0.59948975
-0.38550287 -0.010609182 -0.3009425 -0.06534475 0.12303542 0.08181652 -0.38386112 -0.41864744
0.092611216 0.08858602 -0.09301935 -0.13359024 0.33690163 0.17070061 -0.16731519 -0.6340474
0.17201121 -0.176153 0.347978 0.1537001 -0.33191457 0.003552552 0.16114505 0.1262893
-0.30875775 -0.14069374 -0.17119846 0.08272832 0.32442656 -0.091852695 0.3167087 0.09513735
0.04470272 -0.0778049 0.108092174 0.03951896 -0.027849928 0.4363075 -0.32567936 0.06868468
-0.11015973 0.1540613 0.071318254 -0.1903868 -0.27260542 -0.04637608 -0.019708771 -0.49085942
0.15458442 0.4949094 -0.11566093 0.07231882 -0.012456532 0.19384626 -0.3423618 0.15459599
0.20327121 -0.28130066 -0.19281821 -0.20716013 -0.2320137 -0.84366775 -0.36476862 0.2093919
0.11432541 -0.08159362 -0.09908002 -0.16243558 -0.1458222 0.13589725 -0.40408087 -0.0005979186
0.015434045 0.029892335 0.05258734 0.41086578 0.26376462 -0.10269353 -0.20398849 0.08416853
-0.44811654 0.056856364 0.3909091 0.03103831 0.15289143 -0.19808874 -0.20064844 0.1193975
-0.055962913 0.22368594 0.19193509 -0.07541572 -0.44214728 -0.49225473 -0.271155 -0.18265526
-0.14955193 -0.29101214 -0.3951669 -0.17581509 0.23475125 0.3768472 0.17660396 0.06796342
-0.22721772 -0.18836164 -0.5068865 -0.18894683 0.38400662 -0.19129692 0.24132597 0.07424198
-0.3270675 0.17352079 -0.10738789 -0.3230041 -0.11127488 -0.019371504 0.32570714 -0.13236007
-0.24867883 -0.42289752 -0.13224098 0.25499046 0.18150367 -0.25983927 -0.51456445 -0.14089885
0.14964028 0.09652901 -0.5009797 0.30386266 0.16383609 0.07625763 0.2490497 0.27069774
-0.11027578 -0.14424773 0.05619363 0.4781069 -0.40211532 0.20346832 -0.41251367 -0.06434868
0.17256266 0.12039823 -0.21443787 -0.31828672 -0.15222518 -0.35647622 -0.09404494 -0.1351445
-0.25272158 0.6761283 -0.50724334 -0.25724483 -0.3660928 -0.41383293 -0.12986386 -0.24705772
-0.31706202 0.13732672 -0.10088819 -0.08349826 0.13516761 -0.3070919 -0.117796555 -0.19356948
-0.078970395 0.118139416 -0.0027742884 -0.2862713 0.13299823 0.30942556 -0.10223894 0.19516997
0.16719216 -0.08400339 0.21471153 -0.11285273 -0.2625846 -0.41270253 -0.16005097 -0.34548756
-0.56710064 -0.027229289 0.45837867 -0.0031692514 -0.2605907 0.04125563 0.1204573 0.29209775
-0.14220187 0.06576598 -0.2467538 -0.18107237 -0.35546273 0.5475957 -0.03662885 0.7318184
0.15711929 -0.76942015 -0.024087412 -0.06364537 -0.05317734 -0.23502345 0.09581317 0.0025592647

network_body._body_endoder.seq_layers.4.bias f4 [64]
00000000: b60f 4f3e 5ecf 553e f631 c3bc 233a 46bd
00000010: 7287 843e 1f35 763e 8dc5 6fbe 53bd c43e
00000020: cc5a fabc ecbb 8b3e e9ff db3e 81bc 38be
00000030: 4904 c7bc d70b ea3b bccb 963e e3f7 b93e
00000040: 98cd 17be 5985 143e a6f3 eabd eae7 313e
00000050: f54d c23d 0481 133e 3117 283b 294c 4abd
00000060: d8ce 51bd 45e4 7e3d 6fc5 b43e 9a99 a13d
00000070: 4d6b 06bd 6914 ab3e 5313 753e 165a 6c3e
00000080: 38df acbd 82b3 dc3d 8f40 953e a530 40bd
00000090: f3de a6bd bbf5 933e be11 343d 6643 2abe
000000a0: a8a2 3f3c 1e40 803e b904 44bd 2182 62bc
000000b0: 86c0 2abd ef4d e9bb 320f 883e 685e 58bd
000000c0: 593b 10bd e508 813e 2410 053e 7768 3f3e
000000d0: 19d7 c33c 24a2 36be 0546 953e a855 8fbd
000000e0: 8e64 913d 66e3 ec3e 873d bcbd 4517 3fbd
000000f0: 3d1d 17bd c50e 093d e04a 1dbd 6780 d63e
0.20220837 0.20879886 -0.023827534 -0.048395287 0.25884587 0.24043702 -0.23415203 0.38425693
-0.030560873 0.2729181 0.4296868 -0.18040659 -0.024294036 0.0071425247 0.29452312 0.36321935
-0.14824522 0.14503993 -0.114722535 0.17373624 0.094875254 0.14404684 0.0025648589 -0.04938904
-0.051222652 0.062229414 0.3530688 0.07890625 -0.032817174 0.3341401 0.23933153 0.2308124
-0.08441013 0.10776426 0.29150817 -0.04692139 -0.08147993 0.28898415 0.043962233 -0.16627273
0.011696495 0.25048918 -0.047856066 -0.01382497 -0.04168751 -0.007119886 0.26574093 -0.052824408
-0.03521285 0.25202098 0.12994438 0.18692194 0.023906277 -0.17835289 0.29154983 -0.069987595
0.070992574 0.4626724 -0.09191423 -0.04665305 -0.03689312 0.03346135 -0.038401484 0.41894838

action_model._continuous_distribution.log_sigma f4 [1, 44]
00000000: ce2f 0e40 415b 4140 d790 4040 3fe4 2340
00000010: 49bb 2440 72bd 1240 8209 1a40 05c5 4240
00000020: 0a1d 2140 0e6c 1a40 d759 1d40 2163 fc3f
00000030: bf1c db3f dc5f 1540 e42f 4840 52e9 f93f
00000040: c0d9 e53f ad06 0140 c76a b83f 0013 0640
00000050: 6604 cc3f a5e9 1f40 9c9a 2640 0080 2440
00000060: 8eb9 a93f 2e4a e83f 0da6 f43f 164a bc3f
00000070: 8e30 b13f 1ed9 4240 87f0 0d40 125d fb3f
00000080: a7b7 fe3f ae40 853f 46ed 0b40 d731 d23f
00000090: 69f5 4b40 3977 0740 4ec7 d23f 3319 943f
000000a0: 096b 2e40 0281 3c40 0d6d e03f 6bb7 1b40
2.2216678 3.0211947 3.0088403 2.560806 2.573931 2.2928128 2.4068303 3.043275
2.5173974 2.4128451 2.4586084 1.9717752 1.7118148 2.3339758 3.127923 1.9524329
1.7957077 2.0160325 1.4407586 2.0949097 1.5938842 2.4986355 2.6031866 2.5703125
1.3259752 1.8147638 1.9113175 1.4710109 1.3842943 3.0445018 2.2178056 1.9637778
1.9899796 1.0410364 2.186357 1.642146 3.1868536 2.1166518 1.6467073 1.157019
2.725283 2.945374 1.753328 2.43307

action_model._continuous_distribution.mu.weight f4 [44, 64]
00000000: bd5e 773d a490 0abe f316 ebbd 19ee c0bd
00000010: cfc3 18bd a048 c83d 51df fd3d 0f04 96bd
00000020: 5fe9 1d3e a393 6abe 6035 37be 9b41 143d
00000030: 1dab 24be c467 9bbe 804f 4e3d 6522 62be
00000040: 41d4 babe eacc 703e 310f 1ebe 2f36 85be
00000050: 3d68 0a3e dc7e 9f3e ec8a 1d3e 7b26 093f
00000060: 7987 3ebe f625 66bc 992b 883e 306d a03d
00000070: ecb1 49be 9432 3b3e c70f 243e 305b 823d
00000080: bcd2 ea3d 93d0 1abe c138 4bbd c3cd 8dbe
00000090: b9f5 f33c 199a 093f f9a1 84bd 19f1 21ba
000000a0: d67f a8bd 092d 9cbc b157 903e 6fdb 533d
000000b0: cb5a 513d 45e2 92be ea46 573d 6ba7 723e
000000c0: 32f3 703e 0688 c2bd 19b1 873e bf71 b5bd
000000d0: 11a3 c5be 7b6a 80bd 7852 01be d214 7d3e
000000e0: b286 18be df11 2fbe 3311 03be ac97 0b3e
000000f0: 945e 63bd e08c c83e 1072 ebbd 973b 36be
00000100: e319 0bbf 59e3 a7be 9741 e2bd e5f5 133f
00000110: d950 c9bc 0dcb f13d fdec 4b3e eecf 733e
00000120: 3144 b6bb 0f07 5d3e c9da 96be 682b 5b3e
00000130: a8f4 b53e 5dcc 103f 82c9 d13c 097d bb3e
00000140: 2dd6 033f 61f0 02be a2db 80bc ffd1 04bf
00000150: fb43 083e 35ba 763d 06c7 773e cdae 9fbd
00000160: 1499 e53e e8f2 f8bd 4351 bb3d efea a63e
00000170: 308d 103e 9048 06bf 24f6 c83d dbc9 acbd
00000180: 133b 9dbe e8be c7be 466b 77be e74c 03bf
00000190: d66c 60bd 916a 0bbd 2c0d a13e 9a59 2abd
000001a0: f5d9 89bd 990f 6a3e 70ab 193c 0caa 113e
000001b0: 3ae3 c03d 29ff 883e bf6d d2bd c754 a2be
000001c0: 3f57 87be d2f1 adbe d87e 54be edf7 a03d
000001d0: 04f3 d2be 9c02 85be 8610 633d f66f 60be
000001e0: 4afd d93d 3e61 2cbd 6df0 fbbd 09f1 2a3d
000001f0: a557 db3d c23e 4d3d 18fc e63d 4675 51be
00000200: 07a6 05bf dfb9 10bf eb7e c13d aed9 e5be
00000210: 2451 7a3d 61df 093e 8835 4dbe 1ef8 4c3e
00000220: 929e 14bf 650f f6be ef59 08bf 99d4 bc3d
00000230: 2049 e5be ac56 12bf 0e14 bcbd ee1f 4dbe
00000240: 0224 603e 0946 b43c 573d 343d 2cbc 53be
00000250: 0416 4e3e 8bff 233e 1654 6a3c 0748 523d
00000260: 86d9 02bf c08b 7ebb 05d2 dd3e a55d 0f3f
00000270: 67fa 123e 7464 06bf 847b 163f 9124 a13e
00000280: 042a 2dbe 5c85 aebd 4265 a83d f75f 963e
00000290: 27a4 b3bc 56d2 9b3e e58f b33e f1dc ff3e
000002a0: e10c d13e 7e62 8bbd e249 9c3e bb84 26be
000002b0: ca3a 52bc a6ae 97bd 0051 c13d c837 ae3e
000002c0: 365b 413e 6e74 acbe 1dfe a73e 56f9 c13e
000002d0: 83e4 be3d 0195 0e3c 9bf2 0cbf d2a6 2b3e
000002e0: 5358 e33e 314a 4dbf 1912 39be 6bfa 273f
000002f0: 775b 35be a9a8 323e b01e 913b b75b d4be
00000300: 9dbe 63bd 0898 0cbe a860 bd3e 386a 893c
00000310: 0283 13be 11fb 973c dc8f d93e 4610 7f3e
00000320: f5c0 273e 470a a9be e060 cabe 689b 383d
00000330: 4ee0 8d3b d875 b13d 9c8f c73e 1f38 6c3c
00000340: 157b 77be 9712 27be 2c2d 363f ee4f 183d
00000350: 750b 3dbd 02b4 0abf c61d 1b3e 6530 9fbb
00000360: 1ad3 4e3e c5ba 79bd 4e96 383e 0167 013f
00000370: c11e 6b3d 2c94 8bbe f9e6 913c 9ea0 883c
00000380: 09aa 94be 8eba c6be ba4a a13e a985 1e3c
00000390: 9905 783d 7e9b 34bd fb64 203e 1b05 f03e
000003a0: 65a5 d33e 99dd 9ebd 5d4d 0a3d 861a 1cbf
000003b0: a58b 1dbd 6842 073f a416 883d 3dd9 c13d
000003c0: 30ee 4e3e ba23 8d3e d0dd af3d 80cf 08be
000003d0: 8a30 5fbe 97c9 123e 4afe 263f c012 083d
000003e0: a3b6 d5bd 82e2 16bf 29a4 553c 6b06 1a3e
000003f0: 4196 353e e31d 273e 5caa 0a3d 76eb a4be
0.060393084 -0.13531739 -0.114789866 -0.094204135 -0.037296113 0.09779477 0.1239611 -0.07324993
0.15421055 -0.22907881 -0.17891455 0.03619538 -0.160809 -0.30352604 0.050368786 -0.22083433
-0.36490062 0.23515669 -0.15435483 -0.260179 0.13516326 0.31151474 0.15385026 0.5357434
-0.18606366 -0.0140471365 0.26595762 0.07833326 -0.19696778 0.18281013 0.16021644 0.06365049
0.11465976 -0.15118627 -0.04961467 -0.27696046 0.029780256 0.5375076 -0.06476206 -0.0006177589
-0.08227508 -0.019064443 0.28191903 0.05172294 0.051111978 -0.28688255 0.052557863 0.23696677
0.23530272 -0.09498601 0.26502302 -0.08859586 -0.38600972 -0.062703095 -0.12629116 0.24714974
-0.14895132 -0.17096661 -0.1279953 0.13632077 -0.05551012 0.3916998 -0.11496365 -0.17796169
-0.54336375 -0.3279064 -0.110476665 0.5779708 -0.024574684 0.11806307 0.19914623 0.23809788
-0.0055623283 0.21584724 -0.29463795 0.21403277 0.3553822 0.56561834 0.025608782 0.36618832
0.5149868 -0.1278701 -0.01572973 -0.5188293 0.13307182 0.060236175 0.24197015 -0.077970125
0.44843352 -0.12155706 0.09146359 0.32601115 0.14116359 -0.5245447 0.098125726 -0.084369384
-0.30709133 -0.39012837 -0.24162015 -0.5128922 -0.054791294 -0.034037177 0.31455362 -0.041589357
-0.06731025 0.22857513 0.009379253 0.14225024 0.0941834 0.26757172 -0.10274839 -0.31705305
-0.2643375 -0.33973557 -0.20751512 0.07859788 -0.4120103 -0.25978553 0.05543568 -0.2191771
0.10644014 -0.042084925 -0.12301717 0.041733775 0.10710076 0.05010868 0.11278552 -0.20454893
-0.5220646 -0.56533617 0.09448036 -0.4489264 0.061112538 0.13464119 -0.20039952 0.20016524
-0.5805446 -0.4805862 -0.5326223 0.09220237 -0.44782352 -0.571635 -0.09183513 -0.20031711
0.21888736 0.022006052 0.04400381 -0.2067725 0.20125586 0.1601545 0.014302274 0.051338222
-0.51113164 -0.0038840622 0.43324295 0.56002265 0.14353333 -0.5249703 0.5878222 0.3147321
-0.16910559 -0.0852153 0.082224384 0.2937009 -0.02192886 0.3043391 0.3507072 0.49973252
0.40830138 -0.06805895 0.30525118 -0.1626157 -0.012831399 -0.074063584 0.09439278 0.34026933
0.1888245 -0.3368258 0.3281106 0.3788554 0.09320929 0.0087025175 -0.55057687 0.16762856
0.44403324 -0.8019133 -0.1807331 0.6561648 -0.17710672 0.17447151 0.004428707 -0.41476223
-0.055601705 -0.1372987 0.36987805 0.016774282 -0.14405444 0.018552335 0.42492568 0.24908552
0.16382201 -0.33015653 -0.39527035 0.045070082 0.0043297177 0.08665055 0.38976753 0.014417677
-0.24168046 -0.16315685 0.71162677 0.037185602 -0.046153504 -0.5418092 0.15148076 -0.004858064
0.20197716 -0.060969133 0.18026087 0.50547796 0.057402376 -0.27261484 0.017810332 0.01667815
-0.29035977 -0.38814205 0.31502324 0.009675422 0.060552213 -0.0440936 0.15663521 0.46878895
0.41337124 -0.0775711 0.033765186 -0.6097797 -0.038463254 0.528357 0.06644943 0.09465263
0.20208049 0.2756632 0.08587229 -0.13360405 -0.2179586 0.14334713 0.65231764 0.033221006
-0.10435226 -0.58939373 0.013039627 0.15041511 0.17733099 0.16319995 0.033853874 -0.32210892

action_model._continuous_distribution.mu.bias f4 [44]
00000000: ac81 b73d 5c58 e7bd 8939 55bd c158 1fbe
00000010: 86a7 43be 33b7 acbd 2fcf bebd 521a d33d
00000020: e5e0 fabd 11c0 a0be 35fd 7ebe 4ad4 8ebe
00000030: fbfb 06be 7d80 11be 9e5c adbd 14fb 54be
00000040: b853 55be d38d c6be 2b63 a6be 404e cabe
00000050: 52e6 6dbe 0b06 96bd 5ee7 52be ccfe b5be
00000060: 0026 03be 9430 ebbe 4484 ecbe 3169 abbe
00000070: fcec 8cbe 2f76 df3d 16cb e3bc b50a 7abe
00000080: c0df 19bf d5ef 1fbe fb19 b4be 126f 2abe
00000090: f4d2 9ebe 61d9 71be bb27 77be c99e 91bd
000000a0: 465a 7dbe f84a 29be 7f1d f7bd 6d10 6a3e
0.0896028 -0.1129615 -0.052056823 -0.155612 -0.19106874 -0.0843338 -0.09316861 0.103077546
-0.122499265 -0.31396535 -0.24901278 -0.2789634 -0.1318206 -0.1420917 -0.08464931 -0.20798904
-0.20832717 -0.38780078 -0.32497534 -0.39512825 -0.23232391 -0.07325371 -0.20596072 -0.35545957
-0.12807465 -0.459355 -0.4619466 -0.33478692 -0.27524555 0.109112136 -0.0278068 -0.24418147
-0.6010704 -0.15618832 -0.35176072 -0.16643932 -0.3102032 -0.2361808 -0.2413625 -0.07110364
-0.24741468 -0.16532505 -0.12066173 0.22857828
