Assets/Models/078.onnx (onnx, 75094 bytes, 9 tensors)

network_body._body_endoder.seq_layers.0.weight f4 [64, 96]
00000000: ea76 423e c0b5 b0be 3044 2a3d 4c07 c4bd
00000010: 69c1 13be f302 98bd 8d1a aa3d 230f d63d
00000020: 8949 823e 57b0 493d 68db 74bd c90f 4ebd
00000030: c5ab adbd 97c5 38bd 964c 473e 5c95 7abe
00000040: fccb 463e 0875 07bd 4680 d53d 5685 17be
00000050: fcc7 6abd b72b 113d c999 f43d be50 143d
00000060: 70ec 68bd 2148 2bbd 50f0 30be fd25 cdbe
00000070: a52d c7be 55bc 86bd e426 f6bd 7635 363c
00000080: 79ae 843e 0d96 853d a4c4 a9bd 6a4d 4ebd
00000090: f160 aa3b 6746 27bd 3608 0cbe cec3 81be
000000a0: de49 e1be a65c 0cbe 208a fb3d 8217 913d
000000b0: 9f17 52be 83b1 bc38 ddca 3d3e 82ca 21be
000000c0: 317e 0f3e bf3b f3bd a315 92bd c850 febc
000000d0: fddf 343e d891 3ebd 3995 98bc 0e59 203e
000000e0: be08 eebc 9032 f83c 987e 36be ad01 24be
000000f0: fc4e c6bd ec9c 6ebe f214 39bd 0a6e b43d
00000100: 783c 973d 51e8 273d db11 a13d 21e0 d93d
00000110: 885d 48bd 3436 d63d b1cf 94bd 7283 b23d
00000120: 0db7 2ebe bcdf fabc a832 813d 28d0 b23d
00000130: 957f b23d 177f 24be 5a58 093e 3130 14be
00000140: ca29 37be 0ab2 573c c63b 07be 82f1 ff3d
00000150: 6bf5 c4bd cb94 3a3c 85dc 1bbe 05d9 453e
00000160: 53ea 0abd ee8a 183d 287d 1b3e 443e c43d
00000170: e6bd afbc 239f f53d 7861 28be c0a3 dabd
00000180: c0d8 05be 4e0b 13bc 8abd d0bd 7062 17be
00000190: 567f a0bd 0ba5 b2bd cd0c 03be 16e9 dbbd
000001a0: 3a79 5a3d 7505 2f3d a756 b13c 1de4 793e
000001b0: 2aec f33d b446 043c 127b ff3d 7396 8fbe
000001c0: cf0e 923d 6528 3a3e f492 303e f939 42be
000001d0: 29db 09bc 8054 0bbe 3ed2 5bbe faf3 c7be
000001e0: 1f09 783e 1733 c33c 9df3 efbb 9ad0 083e
000001f0: 3fc1 343e 38e0 b4bd bbc2 d23c 83f3 a3be
00000200: ad68 ce3d 9133 e13d 50fb 903d 780b 253e
00000210: cb57 8cbe 094a b43b 2086 7cbc f1d5 443e
00000220: 22a8 e03e e49d a93c cb60 46be 81cb 463e
00000230: 22f2 bbbd cf3e 573e 2b9f e7bd 63fb 1bbe
00000240: 6643 003c c5a0 0a3e 5e40 f1bc 1d09 51be
00000250: cbac d13d 3423 533d 4cc9 7c3c 2467 043e
00000260: 8513 d83c 2ac6 2fbe 2f43 af3d 4abd 33be
00000270: 626e e6bc 5858 f93c 930b a2bd 0730 273d
00000280: 59e0 1fbe 5bee bd3d 549a bf3d 55ab adbd
00000290: 90a4 0bbd 13b9 d83d 1436 153d 1c6b ea3c
000002a0: c8cb 253d f78c e3bd 20fb 05be 1d52 113d
000002b0: 8f48 10be 38c9 7abd 082b cfbb 1747 dcbd
000002c0: 576f 62be 5fff 2b3e 402f a9be e9b8 16be
000002d0: f6b0 ec3d 3df2 bdbc 6272 21bd 9725 5e3e
000002e0: 5df0 84be 5d22 1abe 61ea 843d a054 17be
000002f0: d23e f2bd b7a4 093e 27c1 afbe 1c06 4d3d
00000300: 4a2a b13e 3ab3 7e3d 8eac a4bd fcab 93be
00000310: d842 83b9 2e25 6fbc 0c0e 06be aca8 f33d
00000320: 3139 d7bd dbb8 2cbd 35b3 683d 14da 6dbc
00000330: 42e8 163e 38e3 7abc d323 82bd 882d d0be
00000340: f677 153d 415e 17bd 791b 32be b603 c3be
00000350: a100 a0be 1c9c abbd 2b8d a3be cc0a 3a3e
00000360: 7fc4 8b3d f8e3 bf3c b437 c23d 7e51 98bd
00000370: 96ac 54bc 6433 94be ef8e ab3d 6209 163e
00000380: bbdc 393e 9825 dabd 6f12 913d dd6c 253e
00000390: 0886 e53d d3e0 933d 564d 14be 0b7e f83d
000003a0: 1ab2 0c3e a1bb c93d d1b8 64bd af67 27be
000003b0: b6de 263e 3733 20bd ccf1 97bc 296f 5fbd
000003c0: 17e7 16be 2378 983e 6402 3f3d ca52 2bbe
000003d0: 9589 0d3d 7154 133e 3e29 00bd 5d42 fe3d
000003e0: 68d6 65be 1efc bdbd a477 2bbe dcbb 0dbd
000003f0: d52f 03bd 2747 33bd 312c 35bd 58ab 4abe
0.18990675 -0.34513664 0.041568935 -0.09571704 -0.14429249 -0.074224375 0.083058454 0.10452106
0.25446728 0.049240436 -0.059779555 -0.050308023 -0.08480028 -0.04511031 0.19462809 -0.24471039
0.19413751 -0.033070594 0.10424857 -0.14796957 -0.057319626 0.03544208 0.11943395 0.036209814
-0.05686611 -0.041816834 -0.17279172 -0.40068045 -0.38902012 -0.0657889 -0.120191365 0.0111211445
0.25914362 0.065227605 -0.08289459 -0.050366797 0.0051995446 -0.040838625 -0.13675007 -0.253447
-0.4400167 -0.13707218 0.12282205 0.07084562 -0.20516823 8.997603e-05 0.18534417 -0.15799907
0.14012982 -0.1187663 -0.07133033 -0.031044379 0.1766357 -0.046525806 -0.018625842 0.15658972
-0.029056903 0.030297548 -0.17821729 -0.16016264 -0.09683034 -0.23302048 -0.04518599 0.08810051
0.073845804 0.04099304 0.07864734 0.10638452 -0.048917323 0.10459557 -0.072661765 0.087164775
-0.17062016 -0.030624263 0.0630849 0.08731109 0.087157406 -0.16064106 0.1341261 -0.14471509
-0.17887035 0.013165006 -0.13206396 0.12497236 -0.09617122 0.011388014 -0.1522084 0.19321068
-0.033914875 0.03724187 0.15184462 0.09582189 -0.021452855 0.119932435 -0.16443431 -0.10675764
-0.13070965 -0.008974863 -0.10192402 -0.14783645 -0.078367874 -0.08722886 -0.12797852 -0.10737817
0.053338267 0.042729814 0.021647764 0.24403425 0.11910279 0.008073498 0.12474646 -0.2804447
0.07131731 0.18179472 0.17243558 -0.18967427 -0.008414068 -0.13606453 -0.2146692 -0.39053327
0.2422223 0.023828072 -0.007322742 0.13360825 0.17651843 -0.08831829 0.02572762 -0.32021722
0.10078559 0.10996164 0.07079184 0.16117656 -0.2741073 0.0055019897 -0.015412837 0.19222237
0.43878275 0.02070517 -0.19372861 0.19413568 -0.091770425 0.21020053 -0.11309656 -0.15232615
0.007828569 0.13537891 -0.029449638 -0.20413633 0.10238036 0.051547244 0.015428852 0.1292997
0.026376495 -0.17165437 0.08557736 -0.17552677 -0.028128807 0.030437633 -0.07912364 0.040817287
-0.15612926 0.09273978 0.09355608 -0.084799446 -0.034092486 0.10582175 0.036428526 0.028615527
0.040477544 -0.11110871 -0.13084078 0.0354787 -0.14090179 -0.061227053 -0.0063222684 -0.10755747
-0.22112785 0.16796635 -0.3304386 -0.14718975 0.1155719 -0.023186797 -0.039415725 0.21694027
-0.25964633 -0.15052171 0.06490017 -0.14778376 -0.11828388 0.1344174 -0.3432705 0.050054654
0.34602576 0.062182643 -0.08040725 -0.2884215 -0.0002503607 -0.014596267 -0.13091296 0.11897406
-0.10508955 -0.04216848 0.05681153 -0.014517326 0.14737037 -0.015312962 -0.06354489 -0.40659738
0.036491357 -0.036955122 -0.17393292 -0.3808877 -0.3125048 -0.08379385 -0.3194364 0.18168181
0.06824588 0.023424134 0.09483281 -0.074374184 -0.012980601 -0.28945458 0.08376872 0.14652017
0.18150608 -0.10651702 0.07083594 0.1615481 0.11207205 0.07220616 -0.14482626 0.12133416
0.13739815 0.098502405 -0.055840317 -0.16348146 0.16295895 -0.039111342 -0.018547915 -0.05454937
-0.14736591 0.29779157 0.04663314 -0.167308 0.034555037 0.1438768 -0.03128933 0.124150015
-0.2244507 -0.09276603 -0.16744858 -0.034602985 -0.032028038 -0.043769028 -0.044231597 -0.19791925

network_body._body_endoder.seq_layers.0.bias f4 [64]
00000000: 33dc 4a3d 169a d13a 3f30 573c 1488 6abb
00000010: 2fea 633c e673 173d 255c 1b3c 3d3b ecbc
00000020: 278c 4f3d 9511 a5bc 87e9 8c3c 89ca fc3c
00000030: 78fd 1dbd 8804 8fbc f5dd b3bb 81c4 ed3c
00000040: fee2 5f3c 60a9 083c 750f be3c b943 0d3c
00000050: d5b1 20bd dc51 0d3d e708 bbbb 0bb7 13bd
00000060: 2598 e4bb 068d 0bbd 3374 adbb 5dbf b13b
00000070: aba4 12bd 0d28 ce3c e01b 8dbc 4687 bdbc
00000080: ce89 463d bbd5 513d b8d4 f93c 7f8c d8bb
00000090: e6bc 133c 3d2a 2c3b 8941 4d3d ff2f 3cbd
000000a0: 1467 dbbd 495b a23d 18bd bf3b e278 9fbb
000000b0: 555d 74bc 420e 143d fa86 f53c df59 dd3c
000000c0: 8d8a 7c39 8341 5cbb a1aa 5a3d 12b8 cc3c
000000d0: 2c18 3c3c 1a6d 863d a6f5 9c3d aec1 72bb
000000e0: b8f3 833c 155e 913c e428 873d cd25 06bc
000000f0: ef6f ef39 8a20 5d3d 7367 153d 2cb1 5e3c
0.049526405 0.0015991356 0.013134061 -0.0035786675 0.013910814 0.036975764 0.009482418 -0.02883684
0.05067077 -0.020149985 0.017201198 0.030858295 -0.038571805 -0.017458215 -0.005489106 0.029024364
0.013664959 0.008341163 0.02320073 0.008622103 -0.039232094 0.034501895 -0.0057078484 -0.036063235
-0.006976145 -0.034070037 -0.005293393 0.0054244236 -0.03580157 0.025165582 -0.017225206 -0.023135792
0.048471265 0.05122922 0.03049694 -0.0066085453 0.009017205 0.0026270293 0.050111327 -0.04594421
-0.1071302 0.079275675 0.005851399 -0.0048667053 -0.01491483 0.03614641 0.029971588 0.027020393
0.00024084207 -0.0033608384 0.05338538 0.024990115 0.011480372 0.06563778 0.07664041 -0.0037041712
0.016107425 0.017745057 0.06599596 -0.008187723 0.0004566903 0.05398611 0.03647561 0.013592046

network_body._body_endoder.seq_layers.2.weight f4 [64, 64]
00000000: 7b6a 4dbe 6c91 0b3e 3619 c9be 9801 a2be
00000010: 224a 80be c7a6 10be d4a0 c2bd 2f70 ebbd
00000020: c548 f73d 3cca a6be bff9 933d 38a8 37bd
00000030: cc54 17be 92dc 90bd 7644 69be 86bc 1abd
00000040: 4345 273e ddd3 6cbe 43e2 f4bb 10de 3abd
00000050: 1185 99bc 9354 67be da9a 05be 0ceb 29be
00000060: ad01 10bd 4a49 23be 45ec 69be 5b3a 82be
00000070: 54e7 59be 40c7 b93d ade2 93be 9208 a6be
00000080: 4062 193e 88c0 abbe 5458 db3c 4741 493c
00000090: fd2c b53d 14b4 8f3c 1f58 93be 076e ea3c
000000a0: 5f05 04be 0f57 70be 03c4 febd 4ebb b43b
000000b0: 10ee 553d a47b 20be 78d4 6c3d ff1c 583e
000000c0: f71d 9bbd b3dd a53d 6cbf 883c d8e9 2ebe
000000d0: 4737 c3bd 8d03 03be 4ca7 42be 8822 d6b9
000000e0: 281b 223e c3ae 0b3d 4786 80bd 8299 0cbd
000000f0: adba eebd ee26 6dbd 9a2a 94be 3386 2fbe
00000100: 3dce 9a3d d792 c5bd f6be cebc faed ff3d
00000110: 3547 05be 6862 a03d f91a 23bd 4541 d4bd
00000120: 4d84 cdbd 63f2 8dbd 12a4 4abe 0667 f8bc
00000130: 36fc 873c cf6f 603d 2895 5fbd e9af 573d
00000140: 1575 3dbe fa83 a8be e1a5 9ebd ff5b 64bd
00000150: 1af5 483e ee2d d5bd 3275 033e e323 61be
00000160: 7d0d 40be ec6b c8bd 0313 f03c b7e6 283e
00000170: c018 1abe 6d9b 09be ef8e b9be 11e6 4ebe
00000180: 94ba 1abd 8b2c d83d f9e6 59bd 071b a3bd
00000190: f223 7fbd 622a 483e 585c 19be fe3b 623d
000001a0: 7ba0 7abe d7e2 aabd b3f9 8f3d 56a0 62be
000001b0: 6a62 20be 8d3f babe 5734 2cbd a743 b2bd
000001c0: 0c0c b1be cfcf 93bd 55dc bf3e f2d2 8a3c
000001d0: e5e9 c8bd 8207 d8be f38f 5d3e 84d1 1bbe
000001e0: 07ea fe3c 98ed afbd 6aa3 163e 4e27 82be
000001f0: bcec 20be f132 77bc 0004 8fbe ffc8 7abe
00000200: 6b3c 363c 70d1 f1bd 8ed9 f1bd a13a cf3d
00000210: efc3 3e3e 7992 fcbe 6d37 7abd 495e 1a3d
00000220: ead6 fc3c 26f5 303e 4401 84be 919f 1b3e
00000230: 6eb4 273e a699 c63d 3ed2 b93d 7273 f0bd
00000240: b01b 57bd f08d ba3e da89 8f3c e9f1 bb3d
00000250: 6d1b a63e d751 5fbc cce5 73be f1b1 2f3d
00000260: 3b38 9e3e b04e 183d 5537 ebbc 57c4 b5bd
00000270: 8251 263e c5fa 46be 444f 80be 99ac ea3b
00000280: 1698 b0bb f3ef 47be ab5f 26bc 60e9 53bc
00000290: ab4e 9c3e f351 9d3c 48d8 f6bd 0f97 06be
000002a0: 5694 ff3d 82fc abbe a86c 8a3e 7cf9 92bd
000002b0: 2cd2 57be 5814 40be 6075 cdbc 26cc 5ebd
000002c0: c9b2 45be 3115 df3c be35 79be cc04 6a3c
000002d0: 1a4a 833e f8ab 26ba 6143 873e 3778 3bbe
000002e0: 1cf4 303e 9b6c 03be 8f61 8dbe f077 5e3e
000002f0: f83e 853d b469 6f3e d4b2 8cbe 4c10 05bd
00000300: 39ec 3cbd fd98 3abe 48f4 5abe fcf1 58be
00000310: 053e 44bd 41e0 92be f215 0c3e cfc8 6e3e
00000320: 0476 b63d 7eab 243d b174 7c3d 5c0e e43d
00000330: c7f8 653e a272 bebd c833 84be d604 a5bd
00000340: 838f e9bd a2c8 59be b02c 803e 38c4 b93d
00000350: 31ab 0e3e 3c56 d7bd 3eb5 89bd d1c4 833e
00000360: 99a7 e43d b5e4 83be 5720 71bd 5af4 abbd
00000370: 78aa e43d b909 17be 983e eebd 4c40 9c3d
00000380: 24cc 2e3d 773b b2be 8199 9bbe bbce 93bd
00000390: 2849 d73d 6e55 0f3e 369e af3d d3a9 e83d
000003a0: ea55 143e 98a0 1e3e c9f5 163e 994b 1f3d
000003b0: c9f5 693e 90a1 9d3e 3f15 723d a793 59bc
000003c0: 23b7 933e 19bf 333e d34f 13be 8029 263d
000003d0: 7834 233b c0b9 793d 78de 3dbe 185c 303c
000003e0: 239a 50be 37b1 8e3e abe3 12bc 2513 8fbd
000003f0: c906 45be 5b40 b53d 9c30 283e 3508 b3bd
-0.2006015 0.13629693 -0.39277047 -0.3164184 -0.2505656 -0.1412612 -0.09503332 -0.11496007
0.120744266 -0.32576168 0.0722537 -0.04483816 -0.14778441 -0.070733204 -0.22780022 -0.037777446
0.16335015 -0.23127694 -0.0074732616 -0.04562193 -0.018740209 -0.22590856 -0.13047352 -0.1659357
-0.03515785 -0.15945926 -0.22844036 -0.25435147 -0.21279651 0.09071207 -0.28883877 -0.32428414
0.14978886 -0.33545327 0.026775517 0.01228363 0.088464715 0.017541923 -0.2877817 0.028616918
-0.12892674 -0.2347071 -0.1243973 0.0055154925 0.052228987 -0.15672165 0.057819813 0.21104811
-0.07574075 0.080989264 0.01669284 -0.17081392 -0.09532028 -0.12794323 -0.19009131 -0.00040842989
0.15830672 0.034102213 -0.06275611 -0.034326084 -0.11656699 -0.057898454 -0.28938752 -0.17141037
0.07558868 -0.09647148 -0.025237542 0.12496562 -0.13015445 0.078312695 -0.039820645 -0.10364012
-0.10035 -0.06930997 -0.1978915 -0.030322563 0.016599756 0.05479413 -0.054585606 0.052657995
-0.18501695 -0.3291319 -0.07746483 -0.055751797 0.19624749 -0.10409151 0.12837675 -0.21986346
-0.18755145 -0.097862095 0.02930594 0.1649426 -0.15048504 -0.13438196 -0.36241862 -0.20204951
-0.03777559 0.10555371 -0.05319879 -0.079641394 -0.06229014 0.19547418 -0.14976633 0.055232994
-0.24475281 -0.083440475 0.07030048 -0.22131476 -0.15662542 -0.3637661 -0.042042103 -0.0870431
-0.34579504 -0.07217371 0.37472787 0.01694629 -0.09810237 -0.42193228 0.21636944 -0.15216643
0.031117452 -0.08590239 0.14710775 -0.25420612 -0.15715307 -0.015087829 -0.2793274 -0.24490736
0.011122803 -0.11807525 -0.118090734 0.101186045 0.1862943 -0.493305 -0.061088014 0.037687574
0.030864198 0.17281017 -0.25782216 0.15197589 0.16377422 0.09697275 0.09073304 -0.117407694
-0.05251664 0.36436415 0.017521787 0.09177 0.324428 -0.013630352 -0.2381813 0.042894308
0.30902275 0.037184417 -0.028712908 -0.088753395 0.1624203 -0.19431598 -0.25060475 0.0071616885
-0.005389224 -0.19525127 -0.010154645 -0.012934059 0.3052877 0.019204115 -0.12052971 -0.13143562
0.12479465 -0.33591086 0.27036023 -0.071764916 -0.21076268 -0.1875776 -0.025080383 -0.05439391
-0.19306482 0.027231785 -0.24336907 0.01428337 0.25642473 -0.0006358023 0.26418594 -0.18307577
0.1728062 -0.12834398 -0.27613494 0.2172544 0.06506151 0.23380166 -0.27480185 -0.032486245
-0.046123717 -0.18222423 -0.21382248 -0.2118606 -0.04791071 -0.28686717 0.13680246 0.2331879
0.089092284 0.04020261 0.061634723 0.11135551 0.22458182 -0.09299208 -0.25820756 -0.08057563
-0.11404326 -0.21267942 0.25034094 0.09070629 0.13932492 -0.10514495 -0.06724022 0.25736097
0.11164779 -0.25760427 -0.058868732 -0.08396216 0.11165327 -0.14749803 -0.116330326 0.07629451
0.042675152 -0.34810993 -0.30390552 -0.07217165 0.10512 0.13997433 0.08575098 0.113605164
0.14485899 0.15490949 0.14742197 0.038890455 0.22847666 0.30787325 0.059102293 -0.013279832
0.2885066 0.17553367 -0.1438592 0.04056692 0.00249031 0.06096816 -0.18541896 0.010764144
-0.20371298 0.2786958 -0.008965413 -0.069860734 -0.1924087 0.088501655 0.16424793 -0.087418

network_body._body_endoder.seq_layers.2.bias f4 [64]
00000000: 4e32 2ebd f4b5 43bd b79a ef3c 77b4 e03c
00000010: e90b d83b fca6 a03c ea69 83bd 4d62 2e3c
00000020: b3bd ee3b a8db 66bc a56b 29bd 9329 ed3c
00000030: 605b 15bd 21a9 3fbd 9ecb b33c d2ac 703d
00000040: 2e6e c8bd 5036 913c 5104 0dbc f9fd ed3c
00000050: b6eb 853c 3f16 383c 1bed 813d e8a1 3abb
00000060: fcdb 013c d446 d53a d131 a33c 58dd 133d
00000070: 3125 47bd 22da 353d 31f7 39bd 6ce7 263d
00000080: abc1 dfbc 8148 b9ba e55f 503c d5a6 263c
00000090: 5d70 a23c 9ce0 a13d 4e16 c93b 020e 613d
000000a0: 1c38 293c 9bb5 273d 270f 1dbd 9ade 30bd
000000b0: 5e79 273d 6c12 3bbd dcc3 12bd c31a 023c
000000c0: ff1c 193d 8ebc f6bb f28c 25bc 2c29 063d
000000d0: 85af f0bc d60c 873d b5c6 98bd 853e 423c
000000e0: 203f 893d 5f04 883d 4cbd b83c 7745 b93c
000000f0: b7d1 c33b 0d19 9a3d 715e 0b3d ed35 49bd
-0.042528443 -0.047780946 0.029248578 0.027429802 0.0065932167 0.019610874 -0.06416686 0.010643554
0.0072857975 -0.014090456 -0.041362423 0.028950488 -0.036464095 -0.046792153 0.021947678 0.058758564
-0.0978664 0.017726094 -0.008606986 0.029051768 0.016347747 0.011235773 0.063440524 -0.0028477851
0.0079259835 0.0016271719 0.019921215 0.03609976 -0.048619453 0.04439748 -0.045401756 0.040748045
-0.027314028 -0.0014135988 0.012718176 0.010171612 0.01982897 0.07904169 0.006136692 0.054945
0.010328319 0.040944677 -0.03834453 -0.04318104 0.04088723 -0.045671865 -0.035831317 0.007940951
0.03738117 -0.0075298017 -0.010104405 0.03275411 -0.02938057 0.06594245 -0.07459775 0.011855726
0.06701493 0.06641459 0.022551201 0.022616131 0.0059759277 0.07524309 0.034025613 -0.049123693

network_body._body_endoder.seq_layers.4.weight f4 [64, 64]
00000000: 9545 57be e722 35bd 8bba 8dbe 7b01 cabd
00000010: 04cc 84bd f032 813e 856a a93d 88f9 453e
00000020: 8b38 01bd 17d0 7fbe 445c a13e 21ec b43c
00000030: af2d f1bd ff46 8d3e 0e4f aebc bfaa 28be
00000040: 410f 083d 28f0 16be c9be a2bc e40b c5bb
00000050: 3407 1ebd e372 57bd 9089 96bd 25f7 51be
00000060: f56e 0f3e d6b6 e13d a74e 9bbd 93c7 1dbd
00000070: 8bfa d4bb 330f 2dbe 6ee4 11bd 1d90 07be
00000080: 2fe5 c33d f8a7 db3c 0731 4b3e e31b 46be
00000090: d167 5d3c e25c a8be 9775 803e b27e 81be
000000a0: 3ecd 283e 7fdd 3fbe 7eab 77bb e742 bd3e
000000b0: fd95 b03d 451b 343c a4f9 6b3d 366b 173e
000000c0: f816 123e 124a 823e a753 40bd 6e52 58be
000000d0: 517a 1d3e 15e9 2fbd c193 14be f7e9 8a3d
000000e0: da89 35bd 3b6a af3b c684 18bd 86d3 07bb
000000f0: 3f6e 0a3e 36ee fd3d 0f49 9ebd 4378 9bbe
00000100: cd25 1bbe 30a8 8c3d 449b a23d 23b6 2dbe
00000110: edc5 933d 262e 81be 15f5 c23e 5da9 df3d
00000120: d314 2fbe 9778 acbe 09d5 23bc 81d0 18be
00000130: 6b98 7d3d e3ee 933d 9d62 bf3d 34f1 a8bd
00000140: e8d2 4bbd e754 493e e300 abbc 4660 3ebd
00000150: 3ac9 2cbe 7298 0bbe 0e7f 45be 7c7c 58bc
00000160: 44ae 96be 46e3 cf3d 2f28 7a3e 0d9a 793e
00000170: c51a 973e b123 f8be fadb 143e 14f9 693d
00000180: 4c92 b6be 06c2 053d 393e f1bd 7a2d 973d
00000190: b960 623d 1ad9 993d 6fe7 22be ee8d 063e
000001a0: 93ce 40be 9e59 65be 2845 37be f399 c3bd
000001b0: 3247 06be 7231 eb3d af9d c7bd 611a 5ebe
000001c0: e50a d43d bb88 293e e2dc df3d 69de f73d
000001d0: 24e8 5cbe 935f 093e 4af0 34be d4b4 963e
000001e0: 99f3 8d3d 8fea 1e3e d75e 9dbe 83e5 afbd
000001f0: b631 3ebe f336 babc dc4a 0d3e b942 893d
00000200: ad08 ca3d 71e4 263e 4956 b23e 710a bcbd
00000210: 7454 22be bc5f 023d 50fa 92bb 2a74 f0bd
00000220: 8a70 1ebd fd07 81bd 7107 b73c caac bb3c
00000230: b73b 58be ceda db3c e9d5 2f3d 4f47 a3bd
00000240: e9e4 013d adad 883c 6204 2bbe bb21 86be
00000250: cddc 63be e987 fd3d 0567 263e aa50 a03d
00000260: 7d65 8c3e 02ec 33bd c084 f63d 1807 9f3d
00000270: 9b4a 8ebe 937e 263e ae69 523e 0182 b5be
00000280: bc81 66be 7ec5 b2bc 3bd4 51bc 3bfa 18bd
00000290: 049a 0dbd f980 473e bac5 cc3d 057a 7dbe
000002a0: a8a8 643c f541 473d 3314 82bd deb5 13be
000002b0: b0ca 71bd 3a46 20be 1e67 d33c 2d98 91be
000002c0: b38d 8dbc d9e7 05bd eea3 223e 0d59 1cbe
000002d0: b06b 2dbd c890 3dbe bebe f23d 8e21 7b3d
000002e0: 996d a9bd 5113 e73a f1d0 87be 93ea 47bc
000002f0: f8a8 5bbd 8608 4f3d bb22 f13c 3079 643e
00000300: 09e9 e83d 8a1c 54bc b79a 9a3e 1638 013d
00000310: eeb0 10be e848 4cbe 7a55 0ebd 22f4 9abd
00000320: e387 38bd f806 6f3e d6c6 42be c74a 02be
00000330: 9505 7ebe 063f 33bc 3799 a03d ada4 b33e
00000340: ac69 bfbd b79b 5ebe 409a c1bc 2e1b a1be
00000350: 5e2d ad3d 5490 50be 2531 fabd d1ad 883b
00000360: 4409 3cbd cfad 313e f6c4 09bc 4bc1 953c
00000370: b643 193e 0711 5b3e d6b9 a03c 0275 e5bd
00000380: fba9 6c3e 8868 483e 70fe 42be cb0a 2d3d
00000390: cc66 e3bd 3c5e 8cbe 2b8e 183e 760e d13b
000003a0: ec0a a9bd cd8c 32be 7054 883e dc72 56be
000003b0: 2c3b d4bd ca90 c93d 1686 163e ff95 81bd
000003c0: 787d d3bd e0b4 a23c ccd0 d53c 618c 2cbd
000003d0: e6e3 6e3e 03f1 863e 139f a9bd 4e4a a63c
000003e0: af9e a2be d499 bc3c 10a6 80be 1166 303d
000003f0: fffc 3e3e 9d1b 163e d5d6 d1bb e49b 803e
-0.21022637 -0.04422274 -0.27681383 -0.098635636 -0.064842254 0.25234175 0.0827227 0.1933347
-0.031548064 -0.24981724 0.31515706 0.022085251 -0.117762916 0.27593228 -0.02127793 -0.16471384
0.033217672 -0.1474005 -0.019866364 -0.0060133804 -0.03858109 -0.0525998 -0.07350457 -0.20504434
0.1400717 0.11021201 -0.07583361 -0.038520407 -0.0064995936 -0.1690033 -0.03561824 -0.13238569
0.09565198 0.026813492 0.19842921 -0.19346575 0.013513521 -0.32883364 0.25089714 -0.25291973
0.16484544 -0.18736838 -0.0037791426 0.36965105 0.08622358 0.01099283 0.057611123 0.14786991
0.14266574 0.25447136 -0.046954777 -0.21125194 0.15378691 -0.042946894 -0.14509489 0.067829065
-0.04432092 0.00535324 -0.037235998 -0.0020725443 0.13518618 0.12398951 -0.077287786 -0.3036519
-0.15151139 0.06868017 0.07939771 -0.16964011 0.07215486 -0.2523052 0.38077608 0.10920975
-0.17097788 -0.33685753 -0.009999522 -0.14923288 0.061912935 0.072232984 0.09344981 -0.08249131
-0.049761683 0.19661294 -0.020874446 -0.046478532 -0.16873637 -0.13632372 -0.19286749 -0.013213273
-0.2942983 0.10150771 0.24429391 0.24375172 0.2951261 -0.4846473 0.1453704 0.057122305
-0.3565849 0.03265574 -0.11779446 0.07381721 0.055268023 0.07512112 -0.15908597 0.1314008
-0.18828802 -0.22397467 -0.17897475 -0.09550848 -0.13113096 0.1148404 -0.09746873 -0.2168975
0.103536405 0.16556065 0.10930802 0.12102968 -0.2157293 0.13415365 -0.17669788 0.29434836
0.06931228 0.15519165 -0.3073642 -0.08588698 -0.1857365 -0.02273128 0.13798088 0.067021795
0.09864936 0.16298081 0.34831455 -0.09181679 -0.15852529 0.03182958 -0.004485406 -0.117409065
-0.038681544 -0.06300352 0.022342416 0.02290954 -0.2111653 0.026837733 0.04292861 -0.079725854
0.031712446 0.016684378 -0.1670089 -0.2619761 -0.22252198 0.123794384 0.16250236 0.078278854
0.2742118 -0.043926246 0.12037039 0.07765025 -0.27791294 0.16259222 0.20548126 -0.35450748
-0.22510427 -0.021822687 -0.012806947 -0.037348013 -0.03457071 0.19482793 0.09998651 -0.24753578
0.013956226 0.048646886 -0.06351509 -0.14424846 -0.05903119 -0.1565179 0.025806006 -0.28436413
-0.017279482 -0.03269181 0.15882847 -0.15268345 -0.042339027 -0.18512261 0.118527874 0.061311297
-0.08272857 0.0017629658 -0.26526597 -0.012201923 -0.053627938 0.050545238 0.029435506 0.22311854
0.11372573 -0.012946257 0.30196163 0.03154763 -0.14129993 -0.19949687 -0.034749486 -0.07566096
-0.045051467 0.23342502 -0.19021162 -0.12723838 -0.24806817 -0.010940319 0.078417234 0.35086575
-0.09346327 -0.21739088 -0.023633122 -0.3146605 0.08455919 -0.20367557 -0.12216405 0.004171111
-0.045907274 0.17351459 -0.008408776 0.018280646 0.14967236 0.21393214 0.019619863 -0.11203958
0.23111717 0.19571126 -0.19042373 0.04224662 -0.11103591 -0.27415645 0.14897983 0.0063798977
-0.08254036 -0.17436524 0.2662692 -0.20942253 -0.10362849 0.098420694 0.14699587 -0.063274376
-0.10326666 0.019861639 0.026100539 -0.042126063 0.23329124 0.26355752 -0.08282294 0.020299103
-0.3176169 0.02302257 -0.25126696 0.043066088 0.18651198 0.14658971 -0.006403784 0.25118935

network_body._body_endoder.seq_layers.4.bias f4 [64]
00000000: e112 cd3c 710e db3c aa26 16bd 4036 033d
00000010: f3d8 b8ba 9285 bb3d cdbe 893d 0c1b 4e3d
00000020: 7e40 d43c 68d3 8fbc 07f8 04bc 7a3a 3c3d
00000030: 89ba 823d f64b 8a3d 7095 8fbc e21f 56bc
00000040: 4e0c 8d3d c844 d63c 6d02 e83d 2271 b33c
00000050: 2af6 c93d 6ae4 313d 6a35 c13c c6fc 763c
00000060: f9ab 52bd a893 123d 6c9b 11bd 29fd 3d3d
00000070: 178d 773b 35b9 8d3d 4831 e83d 9f5f f83c
00000080: 5b1c 6e3d 297f 543d 1cfb 063d 1d5c bd3c
00000090: 4f13 4b3c 239f 89bd db43 acbc f8b2 99bc
000000a0: 6496 e13d b969 d13c 3ac3 603d b9aa 2e3d
000000b0: f832 b43c 2474 543d 6920 9c3b 4706 f939
000000c0: 1a02 543c 6cac 993d f225 663d 9338 c73d
000000d0: 0b41 d53c a685 383b 90f1 153d 33e9 5abd
000000e0: 9bf5 8bbc 2b94 86bd f9e4 cc3d 44b8 9b3d
000000f0: eb1d 653c 7b1d 1fbd bd64 a4bb 7f3a 3a3b
0.025033416 0.026740285 -0.036657967 0.03203416 -0.0014102742 0.09156336 0.067258455 0.050318763
0.025909659 -0.017556861 -0.008115775 0.045954205 0.06383235 0.0675277 -0.017527312 -0.013069125
0.068871126 0.026155844 0.11328588 0.021904532 0.09861405 0.043430723 0.02358504 0.015074914
-0.051433537 0.035785347 -0.035548612 0.04638401 0.0037773305 0.06920091 0.11337525 0.030319033
0.05813251 0.051879082 0.03295432 0.023115212 0.01239474 -0.06719806 -0.02102845 -0.018762097
0.11015013 0.025563108 0.054873683 0.042643283 0.02199696 0.051868573 0.004764606 0.00047497658
0.012939954 0.0750359 0.05618853 0.097275876 0.026031991 0.0028155833 0.036607325 -0.053445052
-0.017084887 -0.065712295 0.100046106 0.07603505 0.013984184 -0.038846474 -0.0050168918 0.0028416214

action_model._continuous_distribution.log_sigma f4 [1, 44]
00000000: 7c2c ab3e 6c1d 663e 9e06 bc3d 94dc 2c3e
00000010: 41b9 31be 4326 ed3d 4487 a13e efbf 4f3e
00000020: 7f78 663e 9530 063e 2eeb cbbe 40fb e9ba
00000030: ec0d 033d dca4 6fbe ee4a da3d 2c0c 29be
00000040: 3803 eb3d 81f8 c0bd 94d3 1ebe 618b abbe
00000050: 5053 503d a374 363d e9ed fd3c 7ba2 4a3e
00000060: d498 203e 3188 2fbe ae1e 583d 9183 8dbe
00000070: 6947 44be 14d2 a6bc 6a04 86bc 7a5a 5fbe
00000080: 5712 b1be d84b babe ce10 abbe 07c7 50be
00000090: 5806 e63e 8f3c 4c3e d5ca 0ebe d0d6 883e
000000a0: f9e5 65bd 7f52 8e3e d266 8a3e d0f0 efbd
0.33432376 0.22472161 0.0918095 0.16881019 -0.17355825 0.115795635 0.31548512 0.2028806
0.22506903 0.1310447 -0.39827865 -0.0017851368 0.0319957 -0.23402733 0.10658823 -0.1650855
0.11475223 -0.09422398 -0.15510398 -0.33504775 0.050860703 0.044544827 0.030997233 0.19788544
0.156833 -0.17141797 0.052763633 -0.2763944 -0.19167866 -0.020363845 -0.016359527 -0.21811858
-0.34584305 -0.3638599 -0.33411258 -0.20388423 0.44926715 0.19944976 -0.13944562 0.2672639
-0.056127522 0.27797315 0.2703157 -0.11715853

action_model._continuous_distribution.mu.weight f4 [44, 64]
00000000: 17bd 16bd 6698 213d dacb ae3d 5060 26be
00000010: 859d b0bd 6193 b93d b586 ed38 3320 e93c
00000020: 1f89 f33d d042 0ebe c36a 7c3b 6b1f 26be
00000030: 8980 d5bc 8411 34bd c60c 80be 0738 ae3d
00000040: 940e 33be 96e1 e13c aad4 30bd ca50 2bbe
00000050: 35c5 74bd 0fc8 b63d 8d43 8c3d 3451 1fbc
00000060: 207f 3fbe 674c 353e afcb 58be cf08 b43c
00000070: d9f3 89bc 3446 6abd 7fcb 903e c9d8 78bd
00000080: 3fad ba3d b89e 1b3e 2ed1 8b3c d60e 2abe
00000090: 3d85 f4bd 612d 883d 6fac ecbc a0ca e33d
000000a0: 3859 ebbc 4b02 b63d 8860 acbd a3ef 3b3e
000000b0: cdf2 cb39 992e 7c3e c807 35bc 61a8 e73c
000000c0: c712 6dbc 2a7b 0b3d b902 363d a613 243e
000000d0: 3208 9a3c ea14 7cbd 70ee 03bd 9b44 583d
000000e0: 8828 74bd 379e d1bd 0953 6c3e 21d7 04be
000000f0: beb7 97bd ec2d 58be 68a0 e4bd 521f 19bd
00000100: 65a8 043d fdfa 6dbd 63af 13bc 6c9e e43c
00000110: c61a a7bd c74b 053e be83 163e 251f ffbd
00000120: cfeb 053e ca05 a3bc fa3e 533d 7042 21be
00000130: bdf0 a4bd 8116 3c3e 9f92 483d 3f0c 003e
00000140: 8a20 05be 44d7 a93d bcf5 88bd 7355 6abd
00000150: 2037 a7bd 2859 1abe 72ab 29bc e181 193d
00000160: 3a98 bfba 8c0d 253e 610c b13d 9154 353e
00000170: d622 2f3d 394b dcbb 022c 4d3c 97c1 95bd
00000180: a6fc d03c 1e43 c8bd 833a 963d 02b1 663d
00000190: a329 cbbd bd5b c0bd 732f d93d e7cb 1e3e
000001a0: 85aa 61bd e13b c73d 8621 dabd f3d6 c13d
000001b0: 7bb7 9abd a0e5 213e fab1 0fbd f358 c53d
000001c0: e0e4 a63d 97cd c13d 40a9 18be 59c0 6d3e
000001d0: 21d0 e7bc 0f1a b5bd dfd8 443e cacf 15be
000001e0: 3fdf 0fbe 9b0e 2abd 11f2 5cbe 446f cbbc
000001f0: 5065 5ebd 8e5d 2abd e6cc d7bb 5754 dbbd
00000200: 9fd6 873d 4634 1e3e 94a7 c7bc 3c4e 3abc
00000210: eb03 703e 96d0 3b3a 25b1 be3c 693c 5e3e
00000220: 6163 ec3d dd34 6cbd d569 a13d b21f 963d
00000230: 1bf8 69be 40d8 66bd 4a68 8abd 3c93 bcbd
00000240: 97c6 9a3d 745a 3fbb f77b abbd 5d51 93bd
00000250: d717 fbbc 1165 b8bc 4f11 953d 6116 e0bd
00000260: 310c 353e 0f35 40bd 26bb f03d 8c36 95bb
00000270: 0bce a73c 7073 9a3d c302 c63d 5740 24bd
00000280: 851f 7e3e 7614 fabd 0ed6 3c3d d2c6 00bc
00000290: 21f5 87bd 0ade cc3d b2a3 c43d bfbd 6c3d
000002a0: 2417 1bbe ac30 2abd 991e adbd 45c1 db3c
000002b0: 9a6f fcba ecec 193d f7af 513e d2d2 5ebd
000002c0: 94b1 56be 7c84 0a3e cd9e 063d 88b1 23be
000002d0: 001d 9b3d 8a11 26be 9cc8 34be 9eaf a23d
000002e0: 9534 3e3e 53bf 1f3e bc1a 8b3d d937 95bd
000002f0: 7abe bfbd 1075 653e 630e 6fbd dd1f 703c
00000300: dc2c df3c 29e6 653e a977 7d3d b41f 463c
00000310: 0500 23be 283b 2a3e 5fd5 d33d 244b 2b3b
00000320: 564c d93d a4bc fb3d 7a8c cd3c e4cd bf3c
00000330: 33ed 1b3e 275a 0f3e 3aca 4cbc d7c9 533d
00000340: 3531 c53c ec01 91bc 02b0 4ebd 5ea9 aebd
00000350: d6c3 2b3d 3588 60bd 0cba 80bd cb6f 023e
00000360: 5b4e edbd 9272 313c 705e 11be c4a8 d73c
00000370: 9d89 113d 35d1 3cbc d678 be3d bcd0 5abc
00000380: 79be f5bd 6a4a 123e cae2 6ebe 1571 d03d
00000390: f5c9 54bd 71b3 db3d 1402 13be 4bb0 b03c
000003a0: 8046 733d dfb1 15bd a940 683d 3ee7 0f3e
000003b0: 21d6 8dbd 5830 2c3d 3ab2 03be 3a94 e63d
000003c0: 8eaa babd bfce fd3d 6924 b93d 8bb2 853d
000003d0: 95f3 14be 580f fc3c 3606 d43d cc84 24be
000003e0: f2e1 b83d 350f 5bbe e431 efbc a427 1fbe
000003f0: b1ee 3cbe 2731 e3bc c78c 0ebc e462 883d
-0.036801424 0.03945198 0.08534975 -0.16247678 -0.086237945 0.090613134 0.00011326132 0.028457737
0.11891388 -0.13892674 0.0038515783 -0.16222923 -0.026062267 -0.043962017 -0.25009745 0.0850678
-0.1748603 0.027573388 -0.043171562 -0.16730037 -0.059758384 0.08924877 0.06848822 -0.00972395
-0.18700838 0.17704926 -0.21171449 0.021976857 -0.016839908 -0.057195857 0.28280255 -0.060753617
0.09115075 0.15197265 0.017067518 -0.16607222 -0.11939476 0.0664928 -0.028890816 0.11122632
-0.028729066 0.08887156 -0.084168494 0.18353133 0.00038900078 0.2462715 -0.0110492185 0.028278532
-0.014469809 0.034053005 0.04443619 0.1602312 0.018802736 -0.061543383 -0.032209814 0.052799802
-0.059608966 -0.10235255 0.2307855 -0.1297269 -0.07408093 -0.21111268 -0.111634076 -0.037383385
0.032387156 -0.05810069 -0.009013983 0.027907573 -0.081594035 0.13017188 0.14698693 -0.12457112
0.13078235 -0.019900221 0.05157373 -0.15748 -0.0805373 0.1836796 0.048967954 0.12504672
-0.13000694 0.08293012 -0.06687495 -0.057210397 -0.08164811 -0.15073073 -0.010355817 0.037477378
-0.0014617511 0.16118449 0.08644939 0.17708041 0.04275783 -0.0067228344 0.012522699 -0.07312315
0.025511097 -0.097784266 0.07335379 0.05632115 -0.09920051 -0.09392498 0.10604753 0.1550747
-0.05509426 0.09728218 -0.10650925 0.094648264 -0.07554527 0.15810251 -0.03508184 0.09636106
0.08149123 0.09463041 -0.14908314 0.23217906 -0.028297486 -0.08842861 0.19223355 -0.14630046
-0.14050005 -0.041517835 -0.21576716 -0.024833329 -0.054295838 -0.041593127 -0.006585705 -0.10709446
0.066327326 0.15449628 -0.0243719 -0.011371192 0.23438995 0.00071645656 0.023277828 0.21702732
0.115423925 -0.0576676 0.07881514 0.07330264 -0.22848551 -0.056358576 -0.06758173 -0.0920777
0.07557409 -0.0029198201 -0.08373254 -0.07193253 -0.030651016 -0.02250913 0.07278692 -0.109417684
0.17680432 -0.0469256 0.11754446 -0.0045536216 0.020483991 0.07541549 0.096684955 -0.04010042
0.24816711 -0.12210934 0.046102576 -0.007859902 -0.066385515 0.10003288 0.09601535 0.057798143
-0.15145546 -0.041550323 -0.08453102 0.026825557 -0.0019259334 0.037579462 0.20477282 -0.054400273
-0.20966178 0.13527101 0.032866288 -0.15985692 0.07573891 -0.16217628 -0.17654651 0.079436526
0.18574746 0.15600328 0.067922086 -0.07286043 -0.093625024 0.22407937 -0.05836333 0.014656034
0.02724307 0.2245108 0.061881695 0.01209252 -0.15917976 0.16624129 0.10343432 0.0026137317
0.10610263 0.1229184 0.025091399 0.023413606 0.15227203 0.13999234 -0.012499386 0.05170616
0.024071315 -0.017701112 -0.050460823 -0.08528398 0.04193481 -0.054817397 -0.062854856 0.12737958
-0.11587211 0.010830538 -0.14196181 0.02632559 0.03553163 -0.011524488 0.093003914 -0.01335543
-0.119992204 0.14286199 -0.233287 0.10177819 -0.051950414 0.10727585 -0.14356261 0.021568438
0.059393406 -0.036546584 0.05670229 0.14053056 -0.069256075 0.04203829 -0.12860957 0.11258741
-0.09114562 0.12392949 0.09040148 0.06528195 -0.14546044 0.030769035 0.10352747 -0.16066283
0.09027471 -0.2139252 -0.029198594 -0.15542465 -0.18450429 -0.027733399 -0.008700556 0.06659487

action_model._continuous_distribution.mu.bias f4 [44]
00000000: ee67 5a3d 141e fcbb d2b8 59bd 6e6c 053e
00000010: 6585 9e3d 4eb0 d93c 5955 2cbc f3b8 a33d
00000020: 7824 c63d 4a12 47bd b5f6 2fbd f0af d23d
00000030: f86b b1bc 7437 9f3d 1e58 823b b567 5abd
00000040: 88ab 16be 69c2 543c e575 b2bd 9211 ed3d
00000050: cbd6 8fbd d40f febc cb27 c7bd 138c 2c3a
00000060: 8474 01bd e11b a23c 5696 35be d8b3 2ebd
00000070: d3c4 a9bc 54b5 c7bd 3043 2d3d f962 60bc
00000080: 4d08 54bc 1b4d 5fbc 0956 c03c 441e d2bc
00000090: 3dcb f53d 5bd6 6cbd de2d e03c a4d7 cfbb
000000a0: 8118 0e3d 897a 8b3b 73e3 f0bd e5e8 d9bc
0.05332177 -0.0076940153 -0.053154774 0.13029644 0.07740287 0.026573326 -0.010518395 0.07994261
0.096749246 -0.048601426 -0.042959888 0.10287464 -0.021657929 0.07774249 0.0039777895 -0.05332156
-0.14713871 0.012985804 -0.08713893 0.11575617 -0.070233904 -0.031013407 -0.09724387 0.0006582152
-0.03160526 0.019788684 -0.1773313 -0.04265198 -0.020723736 -0.097513825 0.042300403 -0.013695472
-0.012941432 -0.013629223 0.023478525 -0.025649197 0.12001655 -0.057821613 0.027365621 -0.006342845
0.034691337 0.0042565507 -0.117621325 -0.02660031
