results/b090test/Dynamic Table/Dynamic Table-999971.pt (torch, 406712 bytes, 48 tensors)

network_body._body_endoder.seq_layers.0.weight f4 [64, 94]
000000 dd 7c 95 3d 19 69 f1 3d 4f f8 d3 bc 2e 4d a4 3c
       0.072992064 0.11787624 -0.025875239 0.020056333
000010 e8 db ad bd 07 1c 9a bc 69 f9 a2 3d 0b 13 a9 3d
       -0.084892094 -0.018812193 0.079577275 0.08255585
000020 c4 23 81 3c 1b 3d 98 bd 60 79 ed 3c 9b 67 d8 bd
       0.015764125 -0.0743353 0.02898854 -0.10566636
000030 81 3a 66 be 18 40 37 3d 64 99 0b 3c 9d 8c 28 3e
       -0.22483255 0.04473886 0.008520458 0.1645989
000040 06 a2 34 bd a0 4d 69 bd 73 14 32 3d af 83 35 bd
       -0.04409983 -0.056958795 0.043476533 -0.044315036
000050 83 a3 98 bd 67 b1 03 be cb a4 16 bd 26 7d 86 3d
       -0.074530624 -0.12860642 -0.036778253 0.06566839
000060 20 c5 af bc a0 87 9b 3d e3 c1 41 3e 4b e1 55 3e
       -0.021456301 0.07594228 0.18921618 0.20886724
000070 f9 da c8 3c 3a fd a7 3d 8b 00 26 bc 47 e0 36 3e
       0.024518477 0.08202596 -0.010131965 0.17858993
000080 23 3f 98 bd 00 ab 1c 3e 93 c3 8a 3d f8 2a 05 be
       -0.074339174 0.15299606 0.06775584 -0.13004673
000090 ba 32 23 ba ad fc 6a bd 3c 58 95 bd d2 2a 49 3e
       -0.00062255154 -0.057369877 -0.0729222 0.19645241
0000a0 c7 7d 0a 3d e9 ef 76 be 73 8f 39 3e b8 0e 66 be
       0.033811357 -0.24114956 0.18121128 -0.22466552
0000b0 e5 71 c5 3d b4 93 f6 bd 08 20 be 3d 8c 48 6f 3e
       0.09640864 -0.12039891 0.09283453 0.23367518
0000c0 ce 31 94 3e 91 53 22 3e 79 1a be bb 58 cd 65 bd
       0.28944248 0.1585219 -0.0058014956 -0.056104034
0000d0 7b 05 16 bc 8f ca 29 be 2c c9 94 3d 16 4e c1 bd
       -0.00915658 -0.16581176 0.07264933 -0.09438722
0000e0 67 18 1d 3e 60 69 9c 3d 7b 93 61 bd 2d 0b e5 bd
       0.1534134 0.07637286 -0.05507229 -0.11183772
0000f0 3d a1 81 be 2a c1 31 be 81 f8 5b bd ea e2 a1 3b
       -0.25318328 -0.17358842 -0.05370379 0.0049403803
000100 0b b2 2a 3b d7 d8 b6 3d 33 a4 23 bd 81 cb 39 be
       0.0026046063 0.08928078 -0.039951514 -0.18144037
000110 a9 1c ca 3d b9 bd ac bc 35 09 dc 3d 32 5d 05 bd
       0.09868748 -0.02108656 0.107439436 -0.03255958
000120 5c 04 bf 3d 31 1a 4a bc 5a 66 a2 3c df 2d 06 be
       0.09327003 -0.012335346 0.019824196 -0.13103436
000130 56 d6 4e bd 8b 32 a9 be 87 4a 99 3d 98 39 e3 bd
       -0.050497375 -0.33046374 0.07484918 -0.110949695
000140 ce 5e 37 bd 70 38 00 be fe ee 13 3e 68 1b 85 bd
       -0.044768147 -0.12521529 0.14446637 -0.06499368
000150 93 5a f6 3d 84 32 1b 3e ef 7e a5 bd fe e6 41 bd
       0.120289944 0.15155989 -0.08080851 -0.047339432
000160 ca 61 bc 3d c3 09 ab 3b 41 00 0d be 15 24 3b bb
       0.09198339 0.0052196695 -0.13769628 -0.0028555442
000170 2c 9b 18 bd 0d ea a8 3d 28 e1 6b be 05 83 d0 3b
       -0.03725736 0.08247767 -0.23035109 0.006363275
000180 d8 59 5a 3e 7a 0d ba 3d 0a 35 25 bd 73 1e d9 3d
       0.21323335 0.09084602 -0.040333785 0.10601511
000190 e2 d6 15 3e aa d0 56 be e9 63 03 bd b2 bc 82 bc
       0.14632753 -0.20978037 -0.032077704 -0.015959118
0001a0 2c 94 49 bb 59 2c cc bd e9 c0 86 bc f2 a8 c1 3d
       -0.0030758483 -0.09969396 -0.016449409 0.09456052
0001b0 3e f3 db 3d df 2a 5f 3e e7 92 10 be bd 6a e2 3b
       0.10739754 0.21793698 -0.14118539 0.006909697
0001c0 0e 72 0f be 6d 1d d5 bc 24 14 0c be 2d d5 36 3e
       -0.14008352 -0.026015008 -0.13679558 0.17854758
0001d0 b4 85 a3 bd 8b 7e 59 bd 11 62 0c 3e 17 7b 00 3b
       -0.07984486 -0.053099196 0.13709284 0.0019604617
0001e0 86 1a 07 bd 4c ae 5f 3e 7f 77 35 3c cc 48 87 3e
       -0.03298428 0.21843833 0.011075853 0.26422727
0001f0 a3 17 63 3c 0c 5a 56 3e 48 40 c9 bd 8c 8e 06 3e
       0.013860616 0.20932788 -0.09826714 0.13140315
000200 05 16 f8 bd 4a 61 06 3d f0 49 de 3c 12 6a dd 3c
       -0.12113575 0.032807626 0.027134866 0.027028117
000210 b7 36 88 3e 61 80 1f 3e c3 27 48 3e 16 0e ff 3d
       0.26604244 0.15576316 0.19546418 0.124538586
000220 a7 0d db 3d 66 4d 9d 3d f6 54 fd 3d 03 35 c3 3d
       0.10695963 0.07680778 0.12369721 0.095315956
000230 a5 05 35 3e f7 da 26 bd de cc 16 be dc b6 10 bd
       0.17677934 -0.040736165 -0.14726588 -0.03533064
000240 e9 46 28 bc 49 ed b1 be e1 02 e6 3d 62 ff c5 3c
       -0.010270813 -0.34751347 0.11231018 0.024169628
000250 cf 6e ff 3c 2d bb 6d 3d 71 ed 1a 3d 0f 12 2c be
       0.031180767 0.058039833 0.037824098 -0.16803764
000260 87 c9 6d bd f9 60 a7 3c a5 a8 73 3c cf 3e d0 bc
       -0.05805352 0.020431982 0.014871751 -0.025420574
000270 2b 5a 09 3e f0 60 b6 3d 0b bc 87 3c 7f 1e 7b bd
       0.13413303 0.08905208 0.016569158 -0.06130838
000280 00 a2 16 3e 6e 11 e1 3d 05 42 b2 bd 01 04 d2 3c
       0.14710236 0.109896526 -0.087039985 0.025636675
000290 c5 20 3e bd 98 47 b6 bd ea a0 e7 3d d2 4c 1e be
       -0.04641797 -0.08900374 0.11309989 -0.15458992
0002a0 85 66 ae 3c f8 c2 d7 bd bd 06 7a 3e 82 a8 75 bd
       0.02128912 -0.10535234 0.24416633 -0.059975155
0002b0 15 38 0a be 01 7d 02 be f2 2a af 3d e0 39 d5 bd
       -0.13497956 -0.12742998 0.08553113 -0.104114294
0002c0 75 1f b0 bd 0f bd 8a 3d ca 43 93 3d d9 45 64 be
       -0.0859975 0.06774341 0.07190664 -0.2229227
0002d0 04 ca 48 3e 3f ef 1d 3d 72 e9 c4 3d 4b 52 97 bd
       0.19608313 0.03855824 0.09614839 -0.07388743
0002e0 0c 86 c7 bd d1 9e 5c 3d 43 9f 1e 3d 22 ca 8e bd
       -0.09742364 0.053862397 0.038726103 -0.069721475
0002f0 a1 76 84 be 48 e6 8e 3d 69 65 0e 3c af 4a ac bc
       -0.25871757 0.069775164 0.00869117 -0.021031706
000300 c3 9d b2 bd e7 09 77 3c 68 ab 5c bd 75 eb 9c bd
       -0.08721497 0.0150780445 -0.053874403 -0.07662097
000310 ba b6 bf bc 0d 91 ae be ce 4c 7a 3d dc b7 80 bd
       -0.02340256 -0.3409504 0.061108403 -0.062850684
000320 5f 91 20 bd 4e 34 fb bc 4a b6 c1 3a 73 14 8e 3d
       -0.039201137 -0.03066459 0.0014779058 0.06937494
000330 e6 02 d2 3c de 2f 60 3d da 88 fa 3d 22 19 08 be
       0.025636148 0.05473315 0.122331336 -0.13290837
000340 48 07 2a 3d 4d 0a 89 3c dd bc 38 3e e9 be 0d 3e
       0.04151085 0.016728545 0.18040796 0.13842358
000350 4d ea e6 3c 90 07 ca 3c 15 fc 02 3a 40 47 47 be
       0.028187895 0.02466181 0.00049966696 -0.19460773
000360 22 91 2e 3d 0f 3f 18 be ad 18 ed bd ed ce 45 3d
       0.04261888 -0.14867805 -0.11576972 0.048293043
000370 98 f8 61 bd 50 3b ca bd 91 a8 96 bd c5 14 be bd
       -0.055168718 -0.09874594 -0.0735637 -0.09281305
000380 b9 8d 82 3d 2d af dd 3d 92 bc c5 3d af 87 ab bc
       0.06374688 0.10824428 0.096551076 -0.020938722
000390 ea fc cc 3d ee 0d 14 bd b3 c7 7f bb 72 bd 1f 3e
       0.10009177 -0.036146097 -0.0039028942 0.15599611
0003a0 1e 3e da bd 3d f5 c6 bd 07 0a 48 be b7 9f f5 bd
       -0.10656379 -0.09714744 -0.19535075 -0.11993354
0003b0 a1 4e 93 be 38 fc 6e 3e e0 30 2a be 21 61 6b be
       -0.28770927 0.23338401 -0.16620207 -0.2298627
0003c0 24 98 03 be b6 04 68 bd 79 c0 11 3e 7b 88 78 3c
       -0.12851006 -0.056645118 0.14233579 0.015169258
0003d0 ba 08 0f bb 76 c3 cf 3d 84 b0 d2 bd 00 6a f7 bd
       -0.002182527 0.10144703 -0.10287574 -0.12080765
0003e0 f0 ef e9 3d 82 ee d6 3d 60 d1 c2 bc 57 28 93 bb
       0.114227176 0.104947105 -0.023781478 -0.004490893
0003f0 b2 a6 d7 3b 02 58 d4 bd 52 d7 ac bd 23 76 26 3e
       0.006581151 -0.10368349 -0.084395066 0.16256003

network_body._body_endoder.seq_layers.0.bias f4 [64]
000000 5e c9 73 bc 88 48 b2 3b d1 0e 58 b9 fb dd b0 3c
       -0.014879553 0.0054407753 -0.00020604885 0.021590224
000010 f6 b4 e2 3a f8 01 00 3d bc 86 ac 38 3f 42 b3 bc
       0.0017296362 0.031251878 8.226695e-05 -0.021882175
000020 97 a0 7c bc 53 f1 3d 3c ef ba 25 3b 1a bb 29 3c
       -0.015419147 0.011593181 0.0025288423 0.01035955
000030 f7 6e e5 3b 26 e3 9a bb c8 74 ae bc 28 fd 14 3c
       0.0070017534 -0.0047267852 -0.02129592 0.00909356
000040 0f aa 24 3d 4d 87 21 bc ab f5 a6 bb d2 54 8c 3b
       0.040201243 -0.009858918 -0.005095204 0.0042825723
000050 63 9d 44 bc 1e 32 63 3c c2 d0 57 3c d3 5d 03 3b
       -0.012000415 0.013866929 0.01317233 0.0020044937
000060 cd 72 6c b9 f9 c3 87 ba c8 20 20 3b 86 b2 cd bc
       -0.0002254948 -0.0010358087 0.0024433602 -0.02510954
000070 da 89 80 bc 43 1c ae bb e3 4a bb 3b 0c 14 1a bd
       -0.015690733 -0.0053134277 0.0057157143 -0.037616774
000080 e1 a0 08 3d bc 78 9c 3c 57 59 84 bb 16 cd c5 3c
       0.03335655 0.01910054 -0.0040389705 0.024145644
000090 13 ef 28 3c 7e a2 c4 39 00 9d 6c 3c 2a 9f ee ba
       0.010310906 0.000375051 0.014441729 -0.0018205394
0000a0 6d de ee bc cb 81 15 3c ce ac e5 bc d4 16 a7 bc
       -0.029158795 0.009125183 -0.028036501 -0.020396627
0000b0 2c 37 f4 3b a0 de 1d bb e3 07 45 bc 56 2c 1b 3c
       0.007452866 -0.0024088994 -0.012025806 0.00947102
0000c0 75 a2 8f bc e2 34 9b 3c eb 58 c3 3b 57 01 80 bc
       -0.01753352 0.018946115 0.0059615276 -0.015625639
0000d0 bd d7 87 bc 33 c2 09 bc 6a aa a1 bc 78 d6 45 3b
       -0.016582364 -0.008408117 -0.01973458 0.0030187648
0000e0 65 b6 78 bc 41 e8 ce bb e8 16 27 bc 26 34 b1 bc
       -0.015180205 -0.006314308 -0.010198332 -0.021631312
0000f0 f9 9f ca bc 48 04 ce 3b 4f 97 af bb 83 08 4c bc
       -0.024734484 0.0062871315 -0.0053586136 -0.012453201

network_body._body_endoder.seq_layers.2.weight f4 [64, 64]
000000 4c ce 10 bd 35 a2 ce 3c e5 c9 06 be c9 a3 9a bd
       -0.03535299 0.02522383 -0.13162954 -0.07550771
000010 ab 64 a4 bd da 8a 78 3e 68 44 e7 bc 92 c5 3d bd
       -0.080270134 0.24271718 -0.02823086 -0.046330996
000020 a6 00 8e 3d 14 3f 4a bd 84 2a ef bd 4e 68 99 bd
       0.069337174 -0.049376562 -0.11678031 -0.07490598
000030 ea e6 c8 3d e6 85 ab 3d d1 85 c2 bb 57 31 cd bd
       0.09809668 0.083751485 -0.0059363623 -0.100191765
000040 e8 86 cf 3c bf 2d 9c 3d a2 e2 05 bd a0 81 90 bc
       0.025332883 0.07625913 -0.032686837 -0.017639935
000050 7d 43 7a bd 44 6d d9 bc 71 2a 44 bd da 09 96 bd
       -0.061099518 -0.02654136 -0.047892038 -0.07326098
000060 4f 2e 07 3b dc 7e 81 bb c4 02 30 3e 27 87 a2 bd
       0.0020626967 -0.0039518904 0.17188555 -0.079359345
000070 27 27 a8 bd 43 fb 42 3d 7e 23 41 bd 07 7b 13 bd
       -0.08210593 0.047602903 -0.04715299 -0.036006
000080 4b 36 6a 3e ee 6c 0b be 89 fb 8b bd 71 ae a3 bc
       0.22872274 -0.13615772 -0.06835086 -0.019980641
000090 f7 82 f4 3d ff 2e 41 3e c6 b4 d3 bd 23 8b de 3d
       0.11939042 0.18865584 -0.10337214 0.10866382
0000a0 63 1a 39 3e 4c a1 02 be 6f 36 f5 bc cf eb b6 3e
       0.18076472 -0.12756842 -0.029933183 0.35726783
0000b0 ce cb 56 3e b2 25 0d be eb 6b 01 3d ca 1b fa 3d
       0.20976183 -0.13783911 0.03159706 0.122123316
0000c0 22 f8 22 bd 11 e1 13 3e 89 2e 22 be 59 53 28 be
       -0.03978742 0.14441325 -0.15838064 -0.16438045
0000d0 80 c5 43 3e 3e 46 84 3d 69 18 2a bd 82 fc 43 3e
       0.19118309 0.0645871 -0.041527186 0.19139293
0000e0 27 c5 11 be c7 d8 29 3e 67 0c 8a be 4b a0 bc 3d
       -0.14235364 0.165866 -0.26962587 0.09210261
0000f0 cb f8 fa 3d e1 05 a5 3d 12 ac 89 bd d7 14 f7 3d
       0.12254485 0.08057762 -0.06722273 0.12064522
000100 9c d1 56 be 9c 1c 55 3d 57 33 33 3e e9 22 42 3e
       -0.20978397 0.052029237 0.17500053 0.1895863
000110 84 72 74 3d 00 ad 50 be 4c d6 2b 3d 09 b7 d9 3d
       0.059679523 -0.20378494 0.041952416 0.10630614
000120 7d 99 41 3e 85 b4 70 be 84 ad a0 bd 51 38 7e bd
       0.18906207 -0.23506363 -0.078455955 -0.062065426
000130 0f a0 16 3e 1e 1d 92 3b 27 86 e0 3c b3 40 2f bd
       0.14709495 0.0044590374 0.027407719 -0.04278631
000140 3e d2 a4 bc ff ac 36 be 86 1c 9b bd 32 4a ca bc
       -0.020119783 -0.1783943 -0.075738 -0.024693582
000150 d1 e7 63 be 5a da 0b 3e 65 ef 55 bd f3 c7 2b 3d
       -0.222564 0.13657513 -0.052230258 0.041938733
000160 df 64 17 3e 01 86 e5 3d 7d e0 b1 bd e8 d2 4e 3c
       0.14784573 0.112072 -0.08685396 0.012623526
000170 37 8e 05 be 52 d5 ee bd 7c b3 d9 bc 3e 73 fb 3d
       -0.13042532 -0.11661781 -0.026574843 0.1227784
000180 88 cf a5 3e 4a bb cd bd 68 f8 57 bd 36 ff 18 be
       0.32384896 -0.10045488 -0.052727133 -0.14941105
000190 7e f6 22 be 22 89 3a 3e 47 79 eb 3d 41 0b 0c 3d
       -0.15914342 0.18216375 0.11497741 0.03419042
0001a0 dd b5 45 3d ce cf 03 bd 85 f9 30 3e 68 d1 0c be
       0.04826914 -0.0321806 0.17282684 -0.13751757
0001b0 97 8f 16 be 17 0a 2e be 5a 63 e1 3d 97 3a 0c 3e
       -0.14703213 -0.16996036 0.11005278 0.13694225
0001c0 72 f1 74 3d 3e be 2e bd 3f 8d 32 bd b8 da df 3c
       0.059800573 -0.042661898 -0.043591734 0.027325973
0001d0 00 e4 24 be 0d bb f0 3e fc e6 69 bd 4e 90 c0 3b
       -0.161026 0.47017708 -0.05710505 0.0058765775
0001e0 2a 14 a6 3c 5f 5d 84 be 5e 38 f5 3d 2f 41 d2 bd
       0.020273287 -0.25852486 0.11973642 -0.10266339
0001f0 b5 82 95 bd 73 57 35 3e 92 00 1f 3e 49 0e 6b 3d
       -0.07300321 0.1770914 0.15527561 0.05738667
000200 eb 38 7b bd 0f 90 59 be cd b5 44 3d 84 21 55 bd
       -0.061333578 -0.2124636 0.04802494 -0.052033916
000210 96 74 0e be fb ed 62 bd fe f7 51 bd 7d 86 01 bd
       -0.13911662 -0.055402737 -0.051261894 -0.0316224
000220 1e e6 21 be 35 64 38 bd 8c 69 a6 bb 42 f7 21 3e
       -0.15810439 -0.04501744 -0.0050785 0.15816978
000230 85 62 80 bc f9 a8 d7 3d d4 aa 28 bd 42 34 fa bb
       -0.015671978 0.10530276 -0.04117854 -0.007635624
000240 71 92 92 3d 2a d5 08 3d 28 77 17 be 78 34 f4 bd
       0.07156838 0.033406414 -0.14791548 -0.1192407
000250 3e 6d 5c be 74 f8 bb 3d 67 a2 15 bd 74 fa 00 be
       -0.21526048 0.09178248 -0.036531832 -0.1259554
000260 1f 12 e1 bd 38 8b 1a be 19 e9 f1 3d db 5a f6 3c
       -0.109897844 -0.1509217 0.11812038 0.03007262
000270 ff f7 11 be 47 bf 7c 3d 7b cd d7 3d eb 87 3d 3c
       -0.14254759 0.061705854 0.10537239 0.01156805
000280 44 16 05 be ca 59 9a 3e 0f a9 f9 bd e4 a4 d7 3d
       -0.12996775 0.3014663 -0.121904485 0.10529497
000290 ab 95 72 3e a9 6b 8c bd 7b 2e 60 bd 58 3d e9 3d
       0.23689906 -0.06856472 -0.054731827 0.113886535
0002a0 ed 49 39 bc fd 2c 1c 3d a6 79 96 3d 07 d1 fa bc
       -0.011309129 0.03812884 0.07347421 -0.03061725
0002b0 4f 49 93 3e 37 f1 10 be 72 41 42 3e 45 3f c8 3d
       0.28766868 -0.14154516 0.18970278 0.09777693
0002c0 47 d1 35 3d bb 9a 0a 3e 93 61 8a 3d 34 bd c3 be
       0.044389036 0.13535587 0.06756892 -0.38230288
0002d0 60 b4 33 3e 97 63 ff bc 56 8d a2 3b 19 74 67 be
       0.17549276 -0.031175418 0.004960696 -0.22602881
0002e0 53 69 16 be 50 92 8c 3e c5 ff 11 3e 05 fe 0c 3e
       -0.14688616 0.27455378 0.14257725 0.13768776
0002f0 19 34 a0 be f9 00 35 bd e8 b9 45 3d 2d 61 12 3d
       -0.31289747 -0.04419038 0.048272997 0.035737205
000300 4f 28 41 3e b8 00 24 3e d4 0c 84 bd 79 d4 1a 3c
       0.18863033 0.16015899 -0.06447759 0.0094500715
000310 4e d3 b3 bd 7f b6 05 3d b1 2a 03 be 19 ef f0 3a
       -0.087805375 0.032644745 -0.12809254 0.0018381804
000320 d6 ba 86 bc a4 a0 a5 3e 1a 9b 12 3e f7 bc 2d 3d
       -0.016446512 0.32349122 0.14316979 0.04241654
000330 d2 3a 8a bd f6 73 38 bc 4c 4a 9f bd bc 8c fc 3d
       -0.067495 -0.011258116 -0.07777843 0.123315305
000340 d7 9d c0 bd 14 08 3b 3e 52 51 bc 3d 00 44 9b 3c
       -0.094051056 0.182648 0.09195198 0.018953323
000350 f9 b3 43 bd 5d fb 04 be f0 56 01 3e 92 dc 8a 3e
       -0.047779057 -0.12986512 0.1263082 0.27121407
000360 22 b4 7d bd 34 21 a8 3e ad cc bc be 16 1d 87 3e
       -0.061939366 0.32837832 -0.36874905 0.26389378
000370 56 c2 1d be ea c8 01 bd 65 8f 44 3e 6a ec 25 3c
       -0.15406165 -0.031685747 0.19195326 0.010127166
000380 3b 3d 75 3e 0a 4f 7f be e3 f5 ab bc b4 4f 0a be
       0.23949139 -0.24932495 -0.020991271 -0.13506967
000390 b7 18 b8 bd 87 cd 6b be c3 27 66 bd fb cf 97 3d
       -0.08989089 -0.23027621 -0.056190263 0.07412716
0003a0 84 be 26 3c 29 f7 d5 bd 91 e9 d4 bd cf 82 bd bc
       0.010177258 -0.10447533 -0.10396112 -0.023133663
0003b0 d5 06 ad bd 9e 57 ce 3c a1 01 d1 3d 69 a4 41 3e
       -0.08448569 0.025188264 0.10205389 0.18910374
0003c0 97 e8 03 3e d5 e7 69 ba a7 13 d5 bd 05 80 9a 3c
       0.12881695 -0.00089227903 -0.10404139 0.018859873
0003d0 8b b8 43 bc 0e b3 92 3d 0a 6c 18 3d 5c b2 1c be
       -0.011945854 0.07163058 0.03721241 -0.15302414
0003e0 f2 3e 2c 3d ee 23 d7 3d 34 ac c5 3c e2 3e 34 3c
       0.042052217 0.105049 0.024129964 0.011001321
0003f0 5b 31 5a 3d f9 65 b9 be d0 8b 4a be e5 2b 26 be
       0.053269725 -0.3621061 -0.19779897 -0.16227682

network_body._body_endoder.seq_layers.2.bias f4 [64]
000000 ca b7 fc bc 82 47 70 bc 21 16 05 3d 96 5b 13 3d
       -0.030849356 -0.014665486 0.032491807 0.035976015
000010 8e 21 d3 bb 3d 8c e8 bb 3b 3e e5 3c d4 95 ee bb
       -0.006443209 -0.007096796 0.027983775 -0.0072810445
000020 b7 11 12 3d 63 c4 3b 3c 89 e1 11 3c b5 a9 0a 3c
       0.035661425 0.011460396 0.008903869 0.008463313
000030 8e de 27 bd 2b 8e 45 bc 5e 07 f2 3c 23 4f 37 3c
       -0.04098373 -0.012057821 0.029544529 0.011188301
000040 ae bc 01 bd 47 c8 03 3c 34 cd df 3c 5f 5e 5b bd
       -0.03167408 0.008043355 0.027319528 -0.053556796
000050 2e ca 90 ba 10 23 a5 bc 5c 2a 5e 3c 8f f2 5d bd
       -0.0011046582 -0.02015832 0.013559904 -0.0541864
000060 e8 e0 47 bc 30 54 75 3c b7 0c 02 3d 81 ec 01 3d
       -0.012199618 0.014973685 0.031750407 0.03171969
000070 8c ea d2 bc 29 19 81 3c 64 af 86 bc d2 ce cc bb
       -0.025746606 0.015759068 -0.016441055 -0.006250241
000080 b3 e8 93 3c 2c 3e ef 3b a1 49 1b 3d 86 28 15 bd
       0.018055296 0.0073011126 0.037912015 -0.0364156
000090 24 39 7f bc fa 9d 95 bc 25 b2 a6 bc 34 aa 30 3c
       -0.015577588 -0.018263806 -0.020348618 0.010782767
0000a0 73 14 93 3c 37 2c 3b bc 7f 4d cf b9 aa af fe bb
       0.017954087 -0.011424116 -0.00039539856 -0.0077724056
0000b0 48 1b c2 3c f1 e6 9a 3b 42 49 af bc 14 59 4d bd
       0.02369465 0.0047272374 -0.021397237 -0.05013378
0000c0 fb 2d 53 3c 9f d3 bb bc 69 f1 95 bc b8 3b 27 3b
       0.012889381 -0.022928057 -0.01830359 0.0025517773
0000d0 e2 8d 89 bb 5a 9a e7 3b f8 e6 8d bc ba 84 1a bd
       -0.004197822 0.0070679607 -0.017322049 -0.037724234
0000e0 12 ee 9b bc a4 de 9b bc f0 f5 88 bb b2 f7 06 bd
       -0.01903442 -0.019027062 -0.0041797087 -0.032951064
0000f0 4b 29 67 39 35 ff 19 bb 97 09 8e 3c 49 64 1b 3c
       0.0002204526 -0.0023498063 0.017338557 0.009484359

network_body._body_endoder.seq_layers.4.weight f4 [64, 64]
000000 e5 ba 05 bd b1 5d 4c 3e fb 98 f3 3d 1a 9b 3f 3e
       -0.03264894 0.19957615 0.11894413 0.1871151
000010 d4 99 ca 3d 99 57 dd bd 34 86 29 bd f2 05 15 3e
       0.09892622 -0.108077236 -0.04138775 0.14553049
000020 0f b7 25 3d d9 05 a9 be 56 28 49 3e e8 20 4f be
       0.04045778 -0.33012274 0.19644293 -0.20227396
000030 85 b4 8c be f0 c7 b3 bd b9 7a 80 3d e3 81 ae 3d
       -0.27481475 -0.087783694 0.062734075 0.08520868
000040 05 23 8f bc c8 fa 8d 3e c6 91 0b be 2c e1 0d be
       -0.017472753 0.27730393 -0.13629827 -0.13855428
000050 67 4a 0f bd ec 6b c5 3d 14 b7 80 be b6 38 92 3b
       -0.034983065 0.09639725 -0.25139678 0.004462327
000060 32 5f f0 3d c3 05 ef 3d 0b 09 37 3e 8b c6 19 be
       0.11736907 0.11671021 0.17874543 -0.15017144
000070 05 a5 25 bc b7 04 32 3e 05 2c 21 be 97 b2 ed 3c
       -0.0101101445 0.17384611 -0.15739448 0.029015822
000080 19 4e ea 3d f4 fe e8 bd 7d a2 86 b8 69 af 53 be
       0.11440677 -0.113767534 -6.419884e-05 -0.20672382
000090 50 16 50 bd 81 ed 6e 3e c7 9b 21 be 2b 3b e4 3d
       -0.05080253 0.23332788 -0.1578208 0.11144098
0000a0 71 3a 8e bd bb 84 ab be 5c ad ac 3d 03 a3 50 3d
       -0.069447406 -0.33499703 0.08431503 0.05093671
0000b0 84 34 03 3d 98 80 40 3e e1 ef 0e 3d f2 7c c1 bd
       0.032032505 0.18799055 0.034896735 -0.094476596
0000c0 8e 49 96 3e be f4 39 3e e3 33 5d bc df 1d 6f 3c
       0.29352993 0.18159768 -0.01350114 0.014594524
0000d0 ff 76 2e bd 87 ab ef 3d f1 c1 bc 3d fc 8e db 3d
       -0.042593952 0.11702638 0.09216679 0.107206315
0000e0 59 52 52 ba 31 e9 69 bd 7e e0 5e 3e 20 9a 7c 3d
       -0.0008023135 -0.057107154 0.21765324 0.061670423
0000f0 bd 94 a1 38 59 db cd bd 49 e1 be bc e8 c0 7c be
       7.704783e-05 -0.10051603 -0.023300784 -0.24682963
000100 0c f5 50 3c ac 54 86 be 22 20 90 be df 6c 18 3e
       0.012753736 -0.26236475 -0.28149515 0.14885281
000110 d7 83 ff bd bd 6a 93 3e 1d 8d 44 bd 7b 26 d1 bd
       -0.12476318 0.28792372 -0.04798614 -0.10212418
000120 ac 4f 2e 3d 9b 8b 9d 3d 9a 63 e2 bd 5f 4c 16 be
       0.04255645 0.07692643 -0.11054154 -0.14677571
000130 41 59 ef 3d b1 aa bd bc 4a 93 2f be a0 d9 1a 3e
       0.11686946 -0.023152681 -0.1714603 0.1512208
000140 b0 13 87 bd d6 93 b2 3d e3 1b 1f bb 1b 45 1a 3e
       -0.06595552 0.08719604 -0.0024278096 0.15065424
000150 ba 71 24 3e e8 13 1c bd 10 bf 83 3c da 48 9a bd
       0.16059008 -0.03810492 0.016082317 -0.075334266
000160 76 ba a0 3d c9 70 91 be f5 24 21 bd 6c af 08 be
       0.078480646 -0.2840636 -0.039341886 -0.13348168
000170 6a 3c 1b 3e c0 c0 31 3d 80 07 99 3d f2 d0 10 3e
       0.15159765 0.04339671 0.07472134 0.14142206
000180 2d bc f1 bd 91 46 eb bd 6c aa 1f be f1 3b 11 3d
       -0.1180347 -0.11488069 -0.15592355 0.035457555
000190 d0 ed 4e bd 25 ab b1 3c 2d 98 67 bd 50 ed 09 3e
       -0.050519764 0.021688053 -0.05654161 0.13469434
0001a0 00 fa ba bd 56 2c e3 bd 5b 0b b2 bd 53 39 23 be
       -0.09129715 -0.11092441 -0.08693572 -0.15939836
0001b0 c7 31 5f 3e 1b b2 28 bd 81 b0 2f 3d 40 ac 03 be
       0.21796332 -0.04118548 0.042892937 -0.12858677
0001c0 5e dd a3 be 0b 3a ce bc 13 c3 b1 3d d3 c7 0c 3e
       -0.32004827 -0.025174161 0.086797856 0.13748102
0001d0 ed fa 86 be 02 ba 01 bd 86 71 9f 3d b1 ad 2a bd
       -0.26363316 -0.03167153 0.07785325 -0.04166955
0001e0 03 68 84 3d 75 a2 64 bd c1 cb ca 3d 23 ee 97 3b
       0.06465151 -0.055818994 0.09902144 0.0046365424
0001f0 e6 66 26 bd 6f 6f bb 3c c9 c4 40 3e d5 d8 1c be
       -0.040625475 0.022880284 0.18825068 -0.1531709
000200 5c c4 9c bd 39 b6 5c 3d 96 59 a6 3d 5b ce 5b bd
       -0.0765464 0.05388472 0.08122556 -0.053663593
000210 3a d2 25 bd 1a c9 39 3d f7 91 ed bd b1 6c 3b bd
       -0.04048369 0.0453578 -0.11600106 -0.045757953
000220 b8 61 4e 3c 3a bc b8 bd 77 c3 7e ba 08 17 8e 3d
       0.01259654 -0.09020276 -0.00097184576 0.069379866
000230 43 09 32 3d 31 b1 a8 3c a7 a9 87 3d be 06 ae bd
       0.043465864 0.020592304 0.066241555 -0.0849738
000240 ce 1f 03 be b1 01 22 3c d7 bf 23 3d 08 1e 28 3c
       -0.12805101 0.009888099 0.039977875 0.010261066
000250 69 09 98 3e a3 dd 53 bd e3 78 55 3d de 9e 7c 3d
       0.2969468 -0.05172504 0.05211724 0.061674945
000260 87 37 4a bd 44 c0 01 be 20 bd 79 3d f9 1d 16 3e
       -0.04936936 -0.12671 0.06097138 0.14659871
000270 51 44 39 3d 75 4e 3a 3e 62 dc b8 bd d8 bf 93 bd
       0.045231167 0.18193991 -0.0902641 -0.07214326
000280 f6 66 11 bd 3e ea 3d be a7 96 b7 bc e7 e8 e8 3d
       -0.03549858 -0.18546388 -0.022410704 0.113725476
000290 69 b7 5e 3e a2 bf 42 3e 29 1c 1f 3e ca 1e f4 bc
       0.21749653 0.19018415 0.15538086 -0.029799838
0002a0 a8 8a 3b bd d8 c4 b6 3c 23 a0 18 bd 12 1c 2b be
       -0.04578653 0.02231066 -0.037262093 -0.16709927
0002b0 c0 07 f0 bd 3b 94 2f 3e 5f f8 8c bd f3 d9 1d be
       -0.11720228 0.17146389 -0.068833105 -0.15415172
0002c0 3a 2a 48 be 98 55 58 bc 84 e6 8a ba bb 0b d9 3c
       -0.19547358 -0.013204001 -0.0010597263 0.026494851
0002d0 37 e4 2e be 84 de 83 be b9 04 ed bc f7 0b 05 be
       -0.17079245 -0.25755703 -0.028932916 -0.12992845
0002e0 21 6e 58 3c e7 da a5 3d 9a c6 42 be 46 e8 e9 3c
       0.0132098505 0.08098393 -0.19021073 0.02855314
0002f0 9c b1 2a 3d 89 fd 5e bc c5 82 05 3e c4 69 23 3e
       0.041673288 -0.013610252 0.13038166 0.15958315
000300 bb 71 56 be 6e fd 27 bd ee f0 7a 3d 17 b2 0f be
       -0.20941822 -0.041013174 0.061264925 -0.1403278
000310 6d e5 94 bc 99 07 b0 bd e9 57 33 3e fd d8 72 be
       -0.018175805 -0.08595199 0.17514004 -0.23715587
000320 7c ee c2 3a 4d ed cf bd 90 27 18 3e ec 6f 8b be
       0.0014872099 -0.101526834 0.14858842 -0.27233827
000330 21 9c 13 bc 50 f5 6e 3e 11 1a a3 bd 67 d7 5a bc
       -0.009009392 0.23335767 -0.07963956 -0.01335702
000340 d8 a0 d3 bd 8e d5 58 3d c6 90 ad bd 1b 9d 36 bd
       -0.10333413 0.052938037 -0.08474879 -0.04458342
000350 63 a0 ae 3d e2 bf 03 3e b9 12 01 3e f7 fa 09 39
       0.08526685 0.12866166 0.12604798 0.0001315883
000360 d9 e2 6d 3c 1d a8 17 3e 2e 04 e2 3d 3d 93 52 be
       0.014519417 0.14810224 0.110359535 -0.2056398
000370 ea 1f 7a bd 3f a2 2e be 3c f1 5e bc 66 ea 9a 3d
       -0.061065592 -0.1705408 -0.013607319 0.07564239
000380 f3 0b 00 be 06 32 1b 3e 30 a1 a3 3e 53 c3 67 3d
       -0.12504558 0.15155801 0.31958914 0.05658276
000390 36 4f 79 bc 41 e1 58 3e 13 4f 3b 3e 21 a9 82 3d
       -0.015216639 0.21179678 0.18291883 0.06379915
0003a0 35 64 8e be ea 76 54 3c 39 84 06 be da 2a 5f bc
       -0.27810827 0.012967804 -0.13136376 -0.013621056
0003b0 c8 a5 2b ba e5 41 83 be a5 10 8b 3c db 0c a0 bc
       -0.00065478357 -0.2563621 0.01697571 -0.01953738
0003c0 16 c0 94 3d fe b7 31 3e 44 04 44 3e 5f ec 34 bd
       0.072632 0.17355344 0.19142252 -0.044170734
0003d0 a3 0b 34 3d c9 8c 9c 3c 85 01 e3 bd 42 72 b1 bc
       0.04395641 0.0191101 -0.11084274 -0.021660928
0003e0 2b f0 6c 3e 43 e3 2b 3d 6c e8 a0 be 1b 0c 8c 3d
       0.23138492 0.04196478 -0.31427324 0.068382464
0003f0 d2 52 05 3e 01 50 93 3d 06 69 cc bd 63 b0 3f be
       0.13019875 0.07192994 -0.09980969 -0.1871963

network_body._body_endoder.seq_layers.4.bias f4 [64]
000000 ba a7 0c 3d a9 15 b2 bc f1 18 3b bd 60 3e 43 bc
       0.034339644 -0.021738844 -0.045678083 -0.011916727
000010 64 e0 90 bc e7 d8 45 bc c5 2b 81 39 47 fb bc 3c
       -0.017685123 -0.012075639 0.00024637408 0.023069037
000020 7a a6 09 bc cc 2b 23 bc 61 c9 41 3d 98 69 bb bc
       -0.0084015075 -0.009959172 0.04731119 -0.0228775
000030 38 43 33 bc 5c 66 34 3a 41 fc 1e bd 2e b9 1b 3d
       -0.010941319 0.0006881708 -0.038814787 0.038018398
000040 b4 32 9d bc 45 8a 2c bd 09 d7 8e 3c 99 1c 41 3d
       -0.019189216 -0.04212405 0.017436521 0.047146413
000050 78 72 59 3d f5 14 81 bc 0b f6 dc ba 2e c0 a7 3c
       0.05308768 -0.015757063 -0.0016857994 0.02047738
000060 82 73 b8 3d 72 5b 23 3d 3e 76 00 3c 05 c1 da 3a
       0.09006406 0.03988213 0.007840691 0.0016689604
000070 ad 16 b3 bc ac 1a bd 3c 78 33 ac 3c bb c9 09 bd
       -0.021861399 0.023084007 0.021020636 -0.03363965
000080 27 da 63 bd 66 34 a9 bc 68 99 89 bb d4 2b 8d bd
       -0.05562797 -0.020654868 -0.0041991957 -0.06893125
000090 79 62 ad ba 30 32 c2 bc af e2 06 3d d5 f0 52 3d
       -0.00132282 -0.023705572 0.032931026 0.051499207
0000a0 2b 69 69 bc e5 23 5a 3b 78 80 b8 3c b7 2d 71 bc
       -0.014246265 0.0033285555 0.022522196 -0.014720372
0000b0 a4 d3 1a 39 5c e5 ed 3c 49 30 86 bc 56 f8 a6 3b
       0.00014765427 0.029040031 -0.016380446 0.005095522
0000c0 89 c0 6e bc fe 17 c5 bb d7 78 24 bd 61 05 a4 bc
       -0.014572271 -0.006014823 -0.040154304 -0.020022096
0000d0 5e 11 04 3d 83 a7 b2 3c b5 5f 7a bc 2b 67 9a 3c
       0.032243125 0.021808391 -0.015281607 0.018848022
0000e0 ad 73 0a 3d b4 12 b0 3c 8e 27 ba bc 0d 3b a7 bc
       0.033801723 0.021493293 -0.02272394 -0.0204139
0000f0 4e a8 1c bd ef 2d 16 bd e5 f2 1b 3d 56 9d 40 bc
       -0.038246445 -0.0366649 0.03807344 -0.011756262

action_model._continuous_distribution.log_sigma f4 [1, 44]
000000 a7 6b dd 3c 70 ba 7a 3d 18 8e f1 3d b6 41 f5 3d
       0.027028872 0.061212957 0.1179468 0.11975424
000010 a2 21 75 3d c5 7d 2c 3e 01 75 90 3d aa b3 9d bd
       0.059846528 0.16844852 0.07053567 -0.07700284
000020 9b 49 03 3e 0c 2f 0d 3e bc 5d 92 3c e1 07 c6 3d
       0.12821047 0.13787478 0.017866962 0.096694715
000030 a5 f6 c5 3d 13 5c a9 bd 39 fb 58 3d 2f bb e9 3c
       0.09666184 -0.08269515 0.05297396 0.028531639
000040 38 20 d8 3d fd 13 d8 3d 3d 96 a6 3d 28 af 21 3d
       0.1055302 0.105506875 0.081341244 0.039473683
000050 65 43 2d 3c 29 0b 81 3d c4 0a 08 3e 17 a8 91 3d
       0.01057515 0.06300957 0.13285357 0.07112139
000060 4f 24 8d 3d 9a e1 b7 3d 14 fb 2a 3d 40 85 11 3e
       0.06891691 0.08978577 0.041743353 0.14210987
000070 a8 d6 0b 3e 2d 26 23 3e bf 70 47 3e 31 92 55 3d
       0.13656104 0.15932532 0.19476603 0.052141372
000080 09 5e 3d bc ef 6f 02 3e 98 39 94 3b 46 3e 39 3e
       -0.011558064 0.12738012 0.0045234673 0.18090162
000090 41 bb ae 3d e0 5d 24 bc 2b 0d 85 3c 00 cd 25 3e
       0.085318096 -0.010032147 0.01624163 0.16191483
0000a0 72 17 09 3d 14 47 fb 3d 75 53 95 3d f3 47 d2 3d
       0.033469625 0.122694165 0.07291309 0.102676295

action_model._continuous_distribution.mu.weight f4 [44, 64]
000000 e9 49 48 3d 18 da 81 bd 5e 5c 65 bd a7 51 68 3d
       0.04889861 -0.06340426 -0.05599629 0.056718495
000010 b3 40 c2 bd 26 30 a4 bd 47 2b 69 bd bb f1 bf 3a
       -0.09484997 -0.08016996 -0.056926038 0.0014644185
000020 5e e8 6f bd c9 0f 24 bd 85 f5 d3 3c 68 01 9a 3c
       -0.058571212 -0.040054116 0.025873909 0.018799499
000030 6a ad 68 bd c4 0c 03 bb 62 17 84 3d 15 87 02 3c
       -0.056806006 -0.0019996623 0.064497724 0.007966776
000040 97 59 27 3c 72 bb 35 3c fe 3c 70 3a 73 8d 0a bc
       0.010214231 0.011092054 0.0009164362 -0.008456576
000050 e6 3e cc bc 55 c0 6b 3d 1e 0b 93 bd 08 8f 64 bd
       -0.024932336 0.05755647 -0.07179855 -0.055800468
000060 a1 27 88 bd 56 c7 36 3d 93 9d 90 3b 4c 90 29 be
       -0.066481836 0.044623695 0.0044133156 -0.16558951
000070 ee 33 08 bd 51 42 8e bd 98 54 35 bd f4 32 d5 b8
       -0.03325265 -0.069462426 -0.044270128 -0.00010166122
000080 f7 1f 40 bd 1d f0 c2 3d 28 76 b3 bb 75 b3 f8 bc
       -0.046905484 0.09518454 -0.005476732 -0.03035901
000090 c5 4c 65 bd cd ac ce bd 4f c5 16 3d 53 00 84 bd
       -0.055981416 -0.10091553 0.036809262 -0.06445374
0000a0 42 9c a5 3a c9 6a 02 3d a0 63 e0 b9 a0 07 80 3d
       0.001263507 0.03184012 -0.00042798836 0.06251454
0000b0 dd 0f f4 bd 6e 97 bc bd cf d0 58 3c 73 e8 95 3c
       -0.11917088 -0.092085704 0.013233378 0.018299317
0000c0 d7 7c f3 bc c3 f9 d2 bc 89 ad 07 3a 7e ea bc 3d
       -0.029722614 -0.025753861 0.00051757 0.09224413
0000d0 04 94 3a 3b 97 01 a2 bb de 20 df bd bb b6 ad bd
       0.0028469572 -0.004944037 -0.10894941 -0.08482119
0000e0 b3 d1 d0 bc b4 d9 94 3d 67 b5 28 3d 33 e9 26 bd
       -0.025490617 0.07268086 0.041188624 -0.04074974
0000f0 3b 08 c6 bc 70 6f 4d 3d 26 5c 57 bc b6 85 fb bd
       -0.024173846 0.050155103 -0.0131445285 -0.12281363
000100 6e 41 8f bd 50 73 6e 3d 76 43 50 3d 93 6e 6a bd
       -0.069949016 0.05821544 0.050845586 -0.057234358
000110 38 06 1c bd 52 8a 46 bd 7f 58 96 3d 39 cf 6a bc
       -0.03809187 -0.048471756 0.07341098 -0.014331632
000120 54 5a 68 bb 88 00 33 3b be 70 5b 3c 29 dd 10 3d
       -0.003545423 0.002731355 0.013393579 0.035367165
000130 ac 91 68 bd 23 d9 db bd 0b 77 cc 3d 8b 00 2f bd
       -0.05677955 -0.10734775 0.09983643 -0.042725127
000140 81 c3 ca 3d 16 c7 e8 3c 15 89 df 3c fc 25 48 bc
       0.09900571 0.028415244 0.027287045 -0.012216087
000150 1e 49 ac bd 14 df df bc 37 b8 1a bd 10 c9 c9 3b
       -0.084123835 -0.027328052 -0.037773337 0.0061580017
000160 6e 9f 38 bd bb c2 a5 bb a7 e0 f8 3c 64 d1 d4 3d
       -0.04507392 -0.005058614 0.03038056 0.103915006
000170 d0 1d c6 bb 84 d5 f8 3c 57 07 b4 bc e8 57 3a 3c
       -0.0060460344 0.03037525 -0.021976156 0.011373498
000180 39 5d 1b 3d f6 f2 9a bd f6 6a d3 bd b2 44 23 3d
       0.0379307 -0.07565872 -0.103231356 0.039860435
000190 bf 9c 67 3d 22 bf 7e 3c c8 ef 09 3c ab aa c2 bd
       0.05654597 0.015548499 0.008418985 -0.095052086
0001a0 7b 00 19 3d 08 03 c2 bc 46 06 02 bd d2 40 2d 3c
       0.037353974 -0.023683086 -0.031744264 0.010574536
0001b0 bf 36 60 3d cd c4 6e bc d4 66 64 3b bf 73 10 bd
       0.05473971 -0.014573288 0.003485133 -0.035266634
0001c0 a5 f8 14 3d fb 20 a1 3d 9f 66 23 3d e3 b2 69 bd
       0.03636994 0.07867619 0.03989279 -0.057055365
0001d0 5e 8e b1 bd d5 1a 1d bd 07 1d 86 3c 21 2a ac 3c
       -0.086697325 -0.038355667 0.016371263 0.021016182
0001e0 ef b2 af bd 40 5c d6 3d 28 bb 03 bd 1a ba 1d bd
       -0.08579051 0.10466814 -0.032160908 -0.03850756
0001f0 9f 2b a9 3c 95 03 49 3c 15 5c 21 3c 06 4d d6 3b
       0.020650683 0.01226892 0.009848614 0.0065399436
000200 ed e2 98 3d 10 bd 1b 3d 36 ba 61 3d 0c 89 92 3d
       0.07465158 0.0380221 0.055109225 0.07155046
000210 02 3d 5f bd 96 c4 83 3d 4b fd bf bc d6 2f 3e 3d
       -0.05450154 0.0643398 -0.02343621 0.04643234
000220 6c 7e 1f 3c 29 0b 6e 3c 20 76 61 3d 99 26 50 bd
       0.009734731 0.014529028 0.055044293 -0.05081806
000230 e8 68 45 bd 7b de f5 3b 1a a5 05 bd 45 f3 92 3a
       -0.04819575 0.0075033284 -0.032628156 0.0011211416
000240 3f e1 ad bd af 8b b2 bc c5 1c a9 3c d4 e3 00 bc
       -0.08490228 -0.021795122 0.020643601 -0.007866818
000250 65 2d 0f 3c df 5b 09 3d da 3b e5 3b d7 d0 ad 3d
       0.00873885 0.03353488 0.0069956603 0.08487099
000260 05 b6 84 bb 41 03 d1 3d a0 50 d3 bc 99 32 b2 3c
       -0.0040500187 0.10205699 -0.025795281 0.021752642
000270 f6 ae ac bd 41 97 08 3e c1 8b 90 3d 23 44 0f bd
       -0.08431809 0.13338949 0.07057906 -0.03497709
000280 a7 29 bd bb 40 02 a5 bc e7 d0 65 bc ac 61 b7 bc
       -0.0057727876 -0.020142674 -0.014026857 -0.02238544
000290 1e 88 48 3a 7c 3a 55 bd 19 29 a0 bd 21 22 92 bb
       0.00076496776 -0.05205773 -0.07820339 -0.004459635
0002a0 cf 96 3d 3c 33 39 ce 3c d7 8a 05 3d 89 a5 04 be
       0.0115716 0.02517376 0.03260311 -0.12953772
0002b0 d6 ab 2b bc b9 0e 7c bc 8b d5 c7 3d b3 69 a8 3c
       -0.010477981 -0.0153843695 0.09757527 0.020558214
0002c0 17 64 e6 3b cb 71 9f bd ea 55 19 3d e7 1a 95 3c
       0.0070309746 -0.07785376 0.03743545 0.018201305
0002d0 b7 90 3d bb 0a 31 97 3d 1d e9 db bc d7 30 55 b9
       -0.0028925368 0.073824 -0.026844556 -0.00020331457
0002e0 8d 58 31 bd 4d ea 39 3c 6c d8 30 3d 90 08 07 bd
       -0.04329734 0.011347366 0.043175146 -0.03296715
0002f0 00 67 86 3c fc 8d 4e 3d 67 2a 1e be 15 5b cc 3c
       0.016406536 0.050428376 -0.15445863 0.024945775
000300 e3 02 3a 3d 1c fc 28 3d 85 4b 42 3d 00 83 09 3c
       0.04541291 0.041256055 0.047435302 0.008393049
000310 73 82 1c bc 46 f0 05 bd 47 f0 94 bc 65 4d b7 bb
       -0.009552586 -0.032699846 -0.01818098 -0.005593943
000320 72 4e b4 3d 41 24 d5 bc 7d 8d 4e bd f1 35 12 3d
       0.08804025 -0.026018264 -0.050427902 0.035695974
000330 13 2c c4 3b ae bd fb 3c 91 07 0a 3d df ab db bc
       0.0059866994 0.030730095 0.033698622 -0.026815353
000340 0f c0 b0 3d 00 d9 f8 3b a2 a5 26 bd 49 f4 d3 bc
       0.08630382 0.007594228 -0.040685304 -0.02587332
000350 e1 ff e5 3c 96 df 96 bd f8 7b 88 3d 23 78 57 bd
       0.028076114 -0.073668644 0.0666427 -0.052604806
000360 65 7c 34 bd 61 dc 1b bd 0e 6f 8b bc 5c 8e 22 bd
       -0.044063944 -0.038051967 -0.017020728 -0.039686546
000370 03 b4 10 bd 1f c6 a8 bb 60 be b0 bd 14 bf 38 3d
       -0.035327923 -0.005150571 -0.08630061 0.0451041
000380 c3 ea ac bc 89 86 f9 3d 3e 25 0c 3d f9 1e 49 3d
       -0.021108037 0.12183864 0.034215204 0.049101803
000390 e4 c5 89 3a 3f c8 a5 bc a0 21 b8 3c 50 cd a4 bc
       0.0010511247 -0.020237086 0.022476971 -0.020117432
0003a0 61 ff ab bd 89 56 d6 bc 34 bd 12 3c 8a 5e 34 3c
       -0.08398319 -0.02616431 0.008956242 0.011008868
0003b0 86 e1 a5 3a f9 e7 a1 b8 53 dd 49 bd 6b 02 60 3d
       0.0012655712 -7.7202865e-05 -0.049283337 0.054689806
0003c0 b1 cd ab 3c 2f cb 5f 3d e2 11 b4 3d 7f a4 0b bc
       0.020972105 0.05463713 0.087924734 -0.008523106
0003d0 4c ce 1c 3c 2a 18 a1 bd 02 4e 81 bd fc b2 91 3c
       0.009570669 -0.07865937 -0.06313707 0.017785542
0003e0 ce 11 35 3d 0d 35 d7 bb 56 3b f8 bb 75 75 02 bd
       0.044206433 -0.0065676034 -0.007575433 -0.031850297
0003f0 da cc 2b 3d ea a1 8b 3c ad 1e 1f 3d 6d 79 ef 3c
       0.04194341 0.01704498 0.038847614 0.029232705

action_model._continuous_distribution.mu.bias f4 [44]
000000 04 12 f6 bc a3 17 4f bd 11 2b 2b 3d e7 4a eb bc
       -0.030037887 -0.05055965 0.04178912 -0.02872224
000010 3c 68 8a 3d f6 96 fa 3c 8f 92 46 bc 06 86 2e 3d
       0.067581624 0.030589562 -0.012119903 0.042608283
000020 58 7a db 3b d3 5b ad 3b 0b 27 91 bd 6c 07 1c 3c
       0.006697934 0.0052904873 -0.07087525 0.009523254
000030 87 ae 0e 3d f4 69 09 3d 94 b6 15 bd 1d fd e5 ba
       0.03483441 0.03354831 -0.036551073 -0.0017546747
000040 a8 ee 46 bd 17 91 40 bc e4 eb 5e bd 36 76 8c bc
       -0.048567444 -0.011753342 -0.05442418 -0.017146211
000050 2e 60 51 bb 50 ab a1 bc 4f d1 0a 3d 01 76 ec 3b
       -0.0031948197 -0.019735008 0.03389102 0.0072162156
000060 50 53 87 bd 9e bf 9a bd 18 df 62 bc 2d a3 00 bd
       -0.066076875 -0.07556079 -0.013847135 -0.031405617
000070 bf ce d6 b8 e9 9f 1f bd 7d 76 36 3c 62 dc 1e bd
       -0.00010242825 -0.03897086 0.011136648 -0.038784392
000080 e5 6e 0e bd 58 e5 bf 3a 03 b3 20 bd 33 32 b3 bc
       -0.034773726 0.0014640493 -0.03923322 -0.021874523
000090 ef 92 81 bd b0 ac 38 bd b9 3d 0a 3d 25 53 cc 3b
       -0.063268535 -0.045086563 0.03375027 0.0062354975
0000a0 a0 50 b7 bb a0 de 71 3b c3 5e c8 3c 7c ea 20 bd
       -0.005594328 0.0036906376 0.024459248 -0.03928612

exp_avg f4 [64, 94]
000000 9d 36 2b b7 2f 27 2d b6 f8 20 e7 35 21 a6 02 b7
       -1.020511e-05 -2.5801817e-06 1.7220436e-06 -7.787284e-06
000010 90 6f 60 37 03 6a 44 37 02 c1 20 36 af 7c 9b 36
       1.3377416e-05 1.1707193e-05 2.3954203e-06 4.633875e-06
000020 31 45 7c b6 65 75 a0 b6 a5 73 61 b6 e2 e7 87 36
       -3.75912e-06 -4.782038e-06 -3.3594927e-06 4.0503082e-06
000030 4f c5 52 b6 2c bb d9 b6 07 f9 94 b4 d1 bd 79 b7
       -3.1407287e-06 -6.4888936e-06 -2.774834e-07 -1.4885752e-05
000040 6e 19 5b b7 75 f6 71 36 f0 3b 08 36 a7 00 20 b6
       -1.3059338e-05 3.6055255e-06 2.0300467e-06 -2.3842238e-06
000050 80 2a 12 b7 7c 9f e1 b6 29 8d 55 b5 d3 a2 c8 b6
       -8.712173e-06 -6.724089e-06 -7.95541e-07 -5.9794197e-06
000060 44 dc be b6 5a 6f 15 b7 57 91 9d b6 95 ea 79 37
       -5.6880835e-06 -8.907018e-06 -4.6958844e-06 1.4896174e-05
000070 e6 ab a7 37 b8 95 4a 37 d8 ed e8 36 06 a2 97 36
       1.9987998e-05 1.2074997e-05 6.9418275e-06 4.5190127e-06
000080 39 eb 65 b7 0f b0 3b b5 5a 2e 81 b6 a9 a7 8d 36
       -1.3704231e-05 -6.991913e-07 -3.8498956e-06 4.2216457e-06
000090 e5 02 e8 36 7e 5c 0d 37 02 01 cb 35 79 28 85 b5
       6.9144758e-06 8.42579e-06 1.5124972e-06 -9.921051e-07
0000a0 96 d2 57 b6 b7 4b 60 37 c8 06 cf 34 3d ca 0c 36
       -3.2160074e-06 1.3369069e-05 3.856169e-07 2.0979344e-06
0000b0 00 fa 73 b8 33 c4 fb b7 94 64 e1 37 b0 4e 59 b8
       -5.8168545e-05 -3.0012894e-05 2.6868925e-05 -5.1810115e-05
0000c0 5e 52 2d b8 49 0a 4f 37 0e 22 6a b7 63 2a 5c b8
       -4.1323125e-05 1.2340556e-05 -1.3955416e-05 -5.2491563e-05
0000d0 f0 d4 1e b8 6d f0 33 b8 af a9 19 b8 5d 2f 31 b8
       -3.786845e-05 -4.290084e-05 -3.6636073e-05 -4.22442e-05
0000e0 07 e5 05 b8 12 64 12 b8 35 16 13 b8 28 8d 04 b8
       -3.192297e-05 -3.490231e-05 -3.5068213e-05 -3.1602714e-05
0000f0 64 80 16 b8 1b f1 ad 36 a2 96 3f b7 d6 a0 f4 b6
       -3.588236e-05 5.18387e-06 -1.1419559e-05 -7.2904904e-06
000100 b5 38 90 35 59 4a f5 b6 c1 7a b0 b6 cc df 42 36
       1.074534e-06 -7.310224e-06 -5.259499e-06 2.903852e-06
000110 08 56 19 b7 b3 ee c7 b6 0a 52 e0 b6 f6 5d f1 34
       -9.139541e-06 -5.9584504e-06 -6.685271e-06 4.4958114e-07
000120 90 bc aa b6 f4 f8 4c b5 0e 9d b7 b6 5a df c4 b6
       -5.0883464e-06 -7.6358197e-07 -5.4721086e-06 -5.8672567e-06
000130 c9 79 62 b7 69 b7 f3 36 9e c5 94 b6 58 15 25 b6
       -1.3499005e-05 7.263316e-06 -4.4337494e-06 -2.459934e-06
000140 02 63 7d b6 1a a8 a2 b6 86 56 02 b6 e7 10 90 b6
       -3.7757568e-06 -4.847546e-06 -1.9421873e-06 -4.293502e-06
000150 fb 6d a3 b6 16 54 3e b6 3e 24 64 b6 6f 47 93 b6
       -4.870582e-06 -2.836115e-06 -3.3995743e-06 -4.3892574e-06
000160 64 aa 43 b6 f0 cd 5e b6 4a 39 a7 b6 64 aa 43 b6
       -2.9156445e-06 -3.320045e-06 -4.983657e-06 -2.9156445e-06
000170 f0 cd 5e b6 4a 39 a7 b6 be 0b 48 b7 a6 fd 24 b4
       -3.320045e-06 -4.983657e-06 -1.1923663e-05 -1.5365967e-07
000180 1b 5f 17 b8 6a d6 61 b8 bb f5 1b b8 7a 05 b5 b7
       -3.608978e-05 -5.384387e-05 -3.7183734e-05 -2.1579432e-05
000190 7a 3c 06 b8 bd 5c 0b b8 d4 e9 00 b5 e3 24 ef b6
       -3.2004413e-05 -3.322655e-05 -4.802398e-07 -7.1270492e-06
0001a0 56 35 db 36 29 1f 21 b6 ae 88 5f b7 5c 3f 72 b7
       6.5329177e-06 -2.4009007e-06 -1.3323659e-05 -1.4439076e-05
0001b0 fb f2 b3 b7 82 47 85 b7 1d e7 d8 35 5d 0f e7 35
       -2.145161e-05 -1.5888134e-05 1.6160517e-06 1.7215312e-06
0001c0 2c 2f 8d b6 51 c9 71 b5 ea 20 f8 36 2a 00 87 b7
       -4.207619e-06 -9.007245e-07 7.3948077e-06 -1.609333e-05
0001d0 74 08 8c b7 d3 3e 80 b7 22 85 a2 37 fd ba eb 37
       -1.6693237e-05 -1.5288044e-05 1.93739e-05 2.8101256e-05
0001e0 87 52 f5 36 c9 eb a7 37 c5 9f eb b6 5f 95 f3 36
       7.3111764e-06 2.0017747e-05 -7.0221454e-06 7.2593534e-06
0001f0 cf 42 a8 36 2b c9 ae b5 d9 8c 76 b6 5a 0f 8a 37
       5.0145677e-06 -1.3022558e-06 -3.673884e-06 1.645803e-05
000200 c0 1b d4 37 99 a7 dc 37 32 fe aa b7 94 e4 f9 36
       2.5285291e-05 2.6304087e-05 -2.0383948e-05 7.4473883e-06
000210 bf a2 c4 36 14 a2 aa b7 74 84 29 36 fd 88 e9 b6
       5.8602013e-06 -2.0341053e-05 2.526006e-06 -6.9598887e-06
000220 e5 91 0f 36 b1 d4 29 b7 8c 25 3a b9 ed 22 7e b7
       2.1393582e-06 -1.0122706e-05 -0.0001775233 -1.5147712e-05
000230 00 0d a4 b8 c7 bb 34 b9 f4 9d 46 b8 72 2a 84 b8
       -7.822551e-05 -0.0001723609 -4.7353984e-05 -6.3021565e-05
000240 49 ea c1 b7 b5 73 82 b8 ad 99 0f b8 9c 38 9a b8
       -2.311649e-05 -6.220435e-05 -3.423698e-05 -7.3538366e-05
000250 40 e2 01 b8 07 67 b9 b8 64 5c 02 b8 fb 3f bb b8
       -3.096671e-05 -8.840678e-05 -3.108046e-05 -8.928772e-05
000260 e7 ac 32 b8 a5 7f b4 b8 22 2d 58 b8 b7 30 26 36
       -4.2599535e-05 -8.6068445e-05 -5.1540446e-05 2.4764283e-06
000270 a5 22 20 b7 59 f2 10 b7 53 5b ac b6 41 a3 01 b6
       -9.5448095e-06 -8.639495e-06 -5.136631e-06 -1.9317524e-06
000280 54 8e 9f b6 e2 3a 6e 35 26 7a 05 b7 5b 5b 2b b7
       -4.7551384e-06 8.8747595e-07 -7.955858e-06 -1.0213665e-05
000290 5f 7f 67 b7 ca d1 e1 36 ca 50 90 b6 42 80 84 36
       -1.3798329e-05 6.729945e-06 -4.3009395e-06 3.9488377e-06
0002a0 9a d6 38 b7 a6 00 4e b7 9d 81 43 b7 47 d6 99 36
       -1.10172205e-05 -1.2278708e-05 -1.1653084e-05 4.5847005e-06
0002b0 65 d8 90 b6 b1 05 b3 36 50 19 50 b7 38 0e 50 b7
       -4.316726e-06 5.3352783e-06 -1.240366e-05 -1.2401077e-05
0002c0 ec cf 0c b7 95 cb b1 35 21 87 c6 b6 1d 0d c6 36
       -8.393061e-06 1.3246778e-06 -5.916591e-06 5.9023864e-06
0002d0 08 9d 59 b7 c9 8d 48 b7 40 57 67 34 af 67 f4 b6
       -1.297077e-05 -1.1953941e-05 2.1545293e-07 -7.283837e-06
0002e0 26 32 f0 b6 40 57 67 34 af 67 f4 b6 27 32 f0 b6
       -7.1583954e-06 2.1545293e-07 -7.283837e-06 -7.158396e-06
0002f0 ee 27 37 b5 a5 c7 a3 b5 e4 b3 13 b4 76 41 18 b5
       -6.823092e-07 -1.2202551e-06 -1.3755886e-07 -5.671967e-07
000300 31 f0 50 b4 a8 e9 ac b5 db c8 30 b5 b9 dd a0 b5
       -1.945889e-07 -1.2883002e-06 -6.585739e-07 -1.1985459e-06
000310 01 ff 45 b5 50 e8 85 b4 d2 15 f0 b5 51 27 bc b5
       -7.37593e-07 -2.494221e-07 -1.7887744e-06 -1.4018534e-06
000320 4f b3 b9 b5 b9 48 cb b4 7b 0e 8e b5 cc 81 41 b6
       -1.383576e-06 -3.786461e-07 -1.0584039e-06 -2.8834793e-06
000330 b2 8b 19 b6 cd 31 b6 35 7f b9 cb b5 f4 27 0a b6
       -2.288009e-06 1.3574551e-06 -1.5178665e-06 -2.0586858e-06
000340 23 b2 db b5 f7 e0 9c b5 a0 5b 42 b6 cf da 37 b5
       -1.6368616e-06 -1.1688379e-06 -2.8961585e-06 -6.849122e-07
000350 7d 18 ce b5 5c 72 28 b6 b5 ab 76 b5 1e bf fc b5
       -1.5355323e-06 -2.5100517e-06 -9.189201e-07 -1.8831086e-06
000360 ad 79 68 b5 21 67 a2 34 58 5a 3c b6 95 35 97 b5
       -8.6603796e-07 3.0249888e-07 -2.806677e-06 -1.1265971e-06
000370 23 96 f9 34 bd 3e 1d b6 a4 18 b6 b5 66 03 7c b5
       4.6489103e-07 -2.3431342e-06 -1.3567228e-06 -9.388226e-07
000380 c5 63 96 b5 af d9 91 b5 e3 e7 33 b5 a7 0b 84 b4
       -1.1204908e-06 -1.0866696e-06 -6.7020136e-07 -2.4595394e-07
000390 bb ed eb b5 c2 30 d2 34 11 b0 a8 b4 81 31 82 b5
       -1.7578053e-06 3.9151024e-07 -3.1420544e-07 -9.700162e-07
0003a0 f5 25 c2 b5 e9 96 4c b6 ad 5d f0 b6 9c bc ed 35
       -1.4465173e-06 -3.048621e-06 -7.1634627e-06 1.7712769e-06
0003b0 51 1f 63 b5 7d b3 b0 33 f4 b7 96 b5 91 89 ed 35
       -8.460966e-07 8.2282874e-08 -1.1229408e-06 1.7697913e-06
0003c0 93 ce 97 b4 a0 f4 e0 35 c1 3d cf b3 f6 96 d0 35
       -2.8276244e-07 1.6760496e-06 -9.6504216e-08 1.5541143e-06
0003d0 6a 22 84 b4 03 42 e3 35 ed dd 3e b5 dc d5 8d 32
       -2.4611955e-07 1.693203e-06 -7.110346e-07 1.6511812e-08
0003e0 76 bc b1 b5 2b 40 ec b4 aa c1 a9 34 12 f7 83 34
       -1.3242377e-06 -4.4005114e-07 3.1619612e-07 2.458042e-07
0003f0 83 47 49 b4 fe 94 88 33 88 ac 28 b3 67 9a 50 b5
       -1.87456e-07 6.360095e-08 -3.9272464e-08 -7.7710723e-07
