Notes/Versions/077O/Dynamic Table.onnx (onnx, 74838 bytes, 9 tensors)

network_body._body_endoder.seq_layers.0.weight f4 [64, 95]
-0.12222995 0.46939242 0.10800543 0.02803721 0.013186554 -0.07492719 -0.0751801 0.094941236
-0.18002869 -0.2691041 -0.098933324 0.17852025 -0.06470159 0.079330415 -0.17992707 -0.11598296
-0.022789754 0.3248294 0.121981174 0.16763628 -0.09775691 0.10727127 -0.043168735 0.03418445
0.046005093 0.187131 -0.08842068 -0.009051861 0.16032414 -0.097346015 -0.067431 -0.31389076
0.085147835 0.22573039 -0.033349466 0.02960193 0.0011952502 0.051472057 -0.060288724 0.26511154
-0.0009045762 0.17137803 -0.08001175 0.24825804 0.025641948 0.12564525 0.042395342 -0.05932382
0.14862798 0.17939252 0.0009111934 0.16502894 0.06847319 0.11778545 -0.034198698 0.020437546
0.057796508 -0.077699915 0.041946746 -0.017813753 -0.39293456 -0.14193746 0.15189618 -0.064943
0.051376496 -0.050895933 0.17728905 -0.011536936 0.072089545 0.055077966 -0.08339341 -0.181118
0.20193368 0.05899151 0.014164828 0.26784346 -0.006257638 -0.1628029 0.3321262 0.025476692
-0.002281633 -0.032857016 0.020974912 -0.054643612 0.2751895 0.07508553 0.095622644 -0.2331771
-0.07261571 -0.0125098545 0.25367892 -0.05916787 -0.048221063 0.12783809 0.013679476 -0.22149384
-0.11193728 0.0421923 0.20116727 0.24068938 -0.09958065 0.11873446 -0.17462619 -0.024722327
0.06265978 0.011814725 -0.018062135 0.17525408 0.033389483 0.0759663 -0.286244 0.06251291
-0.029647097 -0.2589302 0.036963962 0.31062052 -0.1600867 -0.13019362 0.0009901216 0.0055873324
0.05337354 0.057176404 0.08641057 -0.007371386 0.08998858 -0.11150811 -0.050953843 -0.030564975
-0.063758075 -0.036588993 -0.1560987 -0.1262693 -0.064100295 -0.074281536 0.054470595 0.06015579
0.19246739 0.22487082 -0.060274232 0.28545532 -0.11159139 0.2723357 -0.13881893 0.090477556
0.29612106 0.006443235 0.035254154 0.03487933 0.04827413 -0.116323926 -0.050097354 -0.17909658
0.23799743 -0.29851902 -0.047052313 -0.14944264 0.022462783 0.050524704 0.056029204 0.13357635
-0.039228253 0.1633435 0.19587143 0.039754257 -0.16015625 0.05444703 0.15648043 0.02498065
-0.08943603 0.08994725 0.11730459 -0.016362026 0.33130828 -0.29620865 -0.08025932 -0.023519622
0.08745183 -0.08785196 0.18666048 -0.051338896 0.019912926 -0.08152629 0.20849888 0.11758783
-0.012888916 -0.040095814 0.028048998 0.097724654 0.11838638 0.15079674 0.16282327 0.38074812
-0.027510041 -0.025183558 0.1850948 0.035692863 -0.063673384 0.14731233 0.028475547 0.08514367
-0.036107425 -0.035742056 -0.04872179 0.06700242 0.12716135 0.036035437 -0.036083177 -0.027445517
0.08034172 -0.20552692 0.14835632 -0.10785407 -0.18807806 -0.13498579 -0.06713284 0.038344808
0.05215693 0.12551233 -0.03509827 -0.07243188 -0.13222207 -0.11739681 -0.10572814 0.037459463
-0.06698849 0.014407676 -0.033787664 -0.12830754 -0.010572565 -0.102939785 -0.017867891 0.042518616
0.12228439 -0.030713782 0.2995137 -0.04192191 0.050214697 -0.3748999 0.09479194 0.23923813
-0.10971329 -0.051240943 0.04124657 0.19885333 0.19659595 0.07187439 -0.079000756 -0.16922587
-0.08704854 -0.028201023 0.04268283 0.105078705 0.07580778 -0.19569962 0.07583524 0.11448778
00000000: b253 fabd 3454 f03e f331 dd3d 4bae e53c
00000010: 6b0c 583c 6d73 99bd 06f8 99bd 8d70 c23d
00000020: 7159 38be 03c8 89be 8e9d cabd 03ce 363e
00000030: 4482 84bd fc77 a23d cd3e 38be 7988 edbd
00000040: 94b1 babc 0a50 a63e 44d1 f93d d8a8 2b3e
00000050: c634 c8bd 0ab1 db3d b3d1 30bd fe04 0c3d
00000060: d66f 3c3d 459f 3f3e e715 b5bd 424e 14bc
00000070: 032c 243e 595d c7bd 4419 8abd 4ab6 a0be
00000080: fd61 ae3d de25 673e 7399 08bd bf7f f23c
00000090: f1a9 9c3a 5dd4 523d 4ff1 76bd b3bc 873e
000000a0: 1521 6dba b97d 2f3e 33dd a3bd 5b37 7e3e
000000b0: 100f d23c 26a9 003e bda6 2d3d 89fd 72bd
000000c0: ef31 183e acb2 373e 27dd 6e3a 59fd 283e
000000d0: ac3b 8c3d 7f39 f13d ef13 0cbd a46c a73c
000000e0: 08bc 6c3d 2221 9fbd 5ad0 2b3d 26ee 91bc
000000f0: b82e c9be 0e58 11be ac8a 1b3e d600 85bd
00000100: 2970 523d 4178 50bd 438b 353e 6b05 3dbc
00000110: afa3 933d 6f99 613d 2aca aabd ff76 39be
00000120: b4c7 4e3e 15a1 713d 9813 683c c722 893e
00000130: df0c cdbb ceb5 26be 720c aa3e 7fb4 d03c
00000140: 7387 15bb 1495 06bd 94d3 ab3c fbd1 5fbd
00000150: a3e5 8c3e 71c6 993d ced5 c33d fac5 6ebe
00000160: 8cb7 94bd 22f6 4cbc 34e2 813e 025a 72bd
00000170: 7383 45bd fde7 023e e21f 603c 48cf 62be
00000180: 5f3f e5bd d5d1 2c3d cbfe 4d3e 4777 763e
00000190: f1f0 cbbd 0d2b f33d 35d1 32be 7a86 cabc
000001a0: c553 803d 8c92 413c 0bf7 93bc ce75 333e
000001b0: 69c3 083d 3894 9b3d 938e 92be c506 803d
000001c0: 78de f2bc 8092 84be 8667 173d a709 9f3e
000001d0: c5ed 23be 7a51 05be f8c6 813a f115 b73b
000001e0: 379e 5a3d ce31 6a3d 06f8 b03d ab8b f1bb
000001f0: ef4b b83d 5d5e e4bd fab4 50bd 6663 fabc
00000200: 9893 82bd 57de 15bd 56d8 1fbe bd4c 01be
00000210: 0447 83bd eb20 98bd 8f1c 5f3d eb65 763d
00000220: 2c16 453e 8944 663e 1de2 76bd 3327 923e
00000230: 078a e4bd 966f 8b3e 8d26 0ebe 4c4c b93d
00000240: 2e9d 973e c621 d33b a966 103d a1dd 0e3d
00000250: 18bb 453d 3d3b eebd e232 4dbd 1865 37be
00000260: 99b5 733e 7cd7 98be edb9 40bd 7e07 19be
00000270: df03 b83c fef2 4e3d e17e 653d 3dc8 083e
00000280: cead 20bd 8543 273e 8592 483e 5cd5 223d
00000290: 0000 24be d903 5f3d 683c 203e 38a4 cc3c
000002a0: 3d2a b7bd 4436 b83d 643d f03d a809 86bc
000002b0: 3da1 a93e a9a8 97be 005f a4bd 39ac c0bc
000002c0: f219 b33d baeb b3bd ed23 3f3e bc48 52bd
000002d0: 6f20 a33c 41f7 a6bd bb80 553e e3d1 f03d
000002e0: 082c 53bc 823b 24bd 03c7 e53c dd23 c83d
000002f0: 8f74 f23d 766a 1a3e 25bb 263e 6bf1 c23e
00000300: bd5c e1bc c04d cebc 7e89 3d3e ae32 123d
00000310: 3167 82bd 0bd9 163e 8d45 e93c ce5f ae3d
00000320: 61e5 13bd 4366 12bd 8090 47bd 9138 893d
00000330: 9636 023e e599 133d f4cb 13bd 6cd5 e0bc
00000340: 338a a43d a675 52be b8ea 173e 98e2 dcbd
00000350: 8997 40be b739 0abe f17c 89bd 720f 1d3d
00000360: 81a2 553d 4e86 003e 34c3 0fbd 2a57 94bd
00000370: 3965 07be bd6d f0bd ff87 d8bd 186f 193d
00000380: 4331 89bd 2c0e 6c3c ef64 0abd 0d63 03be
00000390: 8d38 2dbc 18d2 d2bd af5f 92bc 0028 2e3d
000003a0: 3d70 fa3d 789b fbbc dc59 993e 4fb6 2bbd
000003b0: edad 4d3d e1f2 bfbe 4722 c23d d7fa 743e
000003c0: 5db1 e0bd 06e2 51bd 2af2 283d 35a0 4b3e
000003d0: 7350 493e e132 933d 26cb a1bd 8c49 2dbe
000003e0: 8146 b2bd d505 e7bc 31d4 2e3d 8133 d73d
000003f0: 1c41 9b3d 7b65 48be 824f 9b3d 9278 ea3d

network_body._body_endoder.seq_layers.0.bias f4 [64]
0.016457776 0.022996739 0.015020735 0.0046192766 0.005157472 0.0056630354 0.049388908 -0.013466898
0.018310105 -0.04089152 0.03142069 0.040425204 0.014709842 -0.00046556004 -0.0750243 0.027577948
0.00887106 -0.037066378 -0.0067153173 -0.0730952 0.007655335 -0.007379159 -0.028715374 0.044955373
-0.04595662 -0.013478523 0.021776998 0.0034666865 0.014429607 0.01213472 0.04448833 0.047773927
0.008169575 0.041609507 -0.030703701 0.056425 -0.015411986 0.005857553 0.014091644 0.03534604
0.0022023013 0.03283089 0.0034929058 0.028384166 0.00036476762 0.038544208 0.024394197 0.019543229
-0.0023531606 0.064416595 0.013610134 0.022527846 -0.015731629 -0.034660332 0.014965701 0.017601334
0.042769894 -0.023378447 -0.040158 -0.010811026 -0.0048197806 0.02918721 0.0023870417 -0.004222149
00000000: 75d2 863c a863 bc3c 8719 763c 4d5d 973b
00000010: 0300 a93b fc90 b93b 064c 4a3d 44a4 5cbc
00000020: 13ff 953c de7d 27bd fbb2 003d e694 253d
00000030: 8d01 713c 6916 f4b9 57a6 99bd 26eb e13c
00000040: ec57 113c ead2 17bd 2a0c dcbb f0b2 95bd
00000050: 9bd9 fa3b dfcc f1bb 813c ebbc 2023 383d
00000060: 023d 3cbd 06d5 5cbc ad65 b23c 5931 633b
00000070: 296a 6c3c b4d0 463c 6539 363d 98ae 433d
00000080: aed9 053c bb6e 2a3d 5486 fbbc e71d 673d
00000090: 8e82 7cbc b7f0 bf3b a4e0 663c 02c7 103d
000000a0: 7c54 103b af79 063d 3ce9 643b e985 e83c
000000b0: 483e bf39 88e0 1d3d 57d6 c73c 1f19 a03c
000000c0: 7c37 1abb d9ec 833d 0afd 5e3c 518c b83c
000000d0: 9edf 80bc fef7 0dbd b332 753c ac30 903c
000000e0: 7c2f 2f3d 2884 bfbc b77c 24bd bb20 31bc
000000f0: 40ef 9dbb 041a ef3c ea6f 1c3b f459 8abb

network_body._body_endoder.seq_layers.2.weight f4 [64, 64]
-0.113157354 0.13870959 0.106064446 0.17936508 0.40621433 -0.10403911 0.12354797 0.1711433
0.12833449 0.005705603 -0.11206102 -0.0056843576 0.019195091 -0.14694501 -0.0014713655 -0.013674761
-0.10511596 -0.057448223 -0.1750152 -0.17248474 0.1679238 -0.07684543 -0.10899096 0.04672941
-0.103629015 0.20347053 -0.3296132 -0.5063332 -0.43020034 -0.15979922 -0.1562436 -0.19006565
0.25767714 0.29125926 -0.03196301 -0.33698192 0.043039173 0.057909913 -0.11411495 0.12508824
-0.033345625 -0.14767577 -0.31915766 -0.2475305 -0.029465904 0.42583323 -0.22396992 0.05531093
0.14825167 -0.056107577 -0.14102873 0.035295714 0.037077717 0.10745154 -0.048404764 0.046264254
-0.20120612 -0.04022211 0.16531141 0.16742934 0.07473716 -0.124894686 -0.28804967 -0.090871245
0.11327057 -0.2834005 -0.003911825 0.03638711 0.001031838 -0.15777375 0.051309235 0.28483373
0.04470792 -0.22788055 0.043721028 0.13665435 -0.110864565 -0.1404212 0.03879496 0.029281627
0.11604669 0.056738835 -0.10386866 -0.13426442 0.078752026 -0.06363586 -0.08512374 -0.21334708
0.121851854 -0.1530805 0.05415286 0.0674788 0.25370324 0.05264501 0.14485608 0.14751926
-0.060580697 0.10277107 -0.037970174 0.12680003 -0.1044836 0.113215804 0.334333 -0.21024378
-0.4220455 0.3829528 0.03158719 -0.25893182 0.08780905 -0.31942856 -0.07592879 -0.008150291
-0.013275172 -0.007687962 -0.28623497 0.19403793 -0.10223392 0.031705502 -0.26891053 0.00072054873
0.28102937 -0.04852513 -0.23669186 -0.20250322 -0.14785515 0.049265295 -0.24859539 0.046389278
0.08424098 0.15995122 0.055383313 -0.11691333 0.25582755 -0.031112494 0.15548447 0.2811568
-0.06587906 -0.027903382 -0.0019568978 0.4154982 0.0316568 0.2630546 0.38281414 -0.2573614
0.12417882 0.06969771 0.076557614 0.10774548 0.016178662 0.09054248 0.0075318883 -0.18138021
0.25663677 0.13987216 0.10509162 -0.030402265 0.038865793 0.12119896 -0.026737673 0.10997674
0.08253778 -0.10190337 0.18238868 -0.19718629 -0.070114255 0.0019858512 0.089488 0.009011486
-0.24919318 0.09059665 0.07101368 0.07593325 -0.19699323 0.1304398 -0.14360373 0.024549821
0.16870598 -0.23374216 -0.058024365 0.10509104 -0.19789328 0.054158982 -0.13217908 -0.023701603
-0.042095132 0.0679138 -0.13700472 0.017241294 0.16460651 -0.120693155 -0.03834603 -0.24189782
0.26881716 0.25404668 0.061931074 0.16374047 -0.55560154 -0.037706364 0.035156902 0.2699753
-0.04140984 0.15770899 0.076078154 -0.11210285 0.103216976 0.042241663 0.22536176 -0.02040412
0.09179278 -0.09532119 -0.07896013 -0.26918966 -0.08402684 0.094160356 0.038820755 -0.022975957
-0.22108237 -0.028820874 0.39027137 0.023810795 0.21369453 -0.116578214 0.018951517 0.13562147
-0.054802235 0.11817689 0.18510549 -0.042747695 0.16900814 -0.3314067 0.10171182 -0.0056792023
-0.06114646 -0.014958647 -0.22219887 0.28267783 -0.044944394 0.10270998 0.19486311 0.15508871
-0.221235 -0.08378932 0.14147955 0.023310196 -0.20145465 -0.22346069 0.015352209 0.05964119
-0.22176924 0.004405314 0.07229746 0.017467856 0.30555034 0.057167884 -0.09625653 -0.092421986
00000000: 0bbf e7bd e309 0e3e 5138 d93d 7bab 373e
00000010: 53fb cf3e 7512 d5bd b806 fd3d 3040 2f3e
00000020: 1e6a 033e 11f6 ba3b 4080 e5bd d943 babb
00000030: 063f 9d3c c178 16be d5da c0ba 1b0c 60bc
00000040: 0947 d7bd d44e 6bbd 2f37 33be d79f 30be
00000050: 37f4 2b3e 2361 9dbd a736 dfbd 5667 3f3d
00000060: 733b d4bd 945a 503e 10c3 a8be 0d9f 01bf
00000070: 3843 dcbe 68a2 23be 53fe 1fbe 92a0 42be
00000080: 42ee 833e ef1f 953e a5eb 02bd e588 acbe
00000090: d849 303d f232 6d3d 19b5 e9bd 2217 003e
000000a0: 6c95 08bd 5138 17be a268 a3be a378 7dbe
000000b0: 7b62 f1bc d006 da3e 5f58 65be b78d 623d
000000c0: 49cf 173e 0fd1 65bd d669 10be 3d92 103d
000000d0: cede 173d 8e0f dc3d 1344 46bd 967f 3d3d
000000e0: fa08 4ebe f0bf 24bd 6547 293e 9972 2b3e
000000f0: cc0f 993d c9c8 ffbd 3f7b 93be b41a babd
00000100: 67fa e73d df19 91be c42e 80bb a60a 153d
00000110: bd3e 873a 718f 21be a229 523d bad5 913e
00000120: a71f 373d 8559 69be d214 333d 1eef 0b3e
00000130: f60c e3bd 93ca 0fbe 77e7 1e3d 06e0 ef3c
00000140: e3a9 ed3d fb66 683d 18b9 d4bd 9d7c 09be
00000150: be48 a13d 8553 82bd 5b55 aebd a877 5abe
00000160: 778d f93d 22c1 1cbe 64cf 5d3d 5332 8a3d
00000170: 64e5 813e 4ba2 573d 2755 143e 4a0f 173e
00000180: 7723 78bd a479 d23d 9d86 1bbd ded7 013e
00000190: 7ffb d5bd b0dd e73d b22d ab3e 254a 57be
000001a0: 5916 d8be 6412 c43e 9261 013d b692 84be
000001b0: 3bd5 b33d 248c a3be 8e80 9bbd cc88 05bc
000001c0: 1b80 59bc 4deb fbbb 648d 92be e1b1 463e
000001d0: 0460 d1bd a1dd 013d a4ae 89be 35e3 3c3a
000001e0: 15e3 8f3e 49c2 46bd 5a5f 72be 015d 4fbe
000001f0: 5767 17be 68ca 493d ca8f 7ebe af02 3e3d
00000200: 8986 ac3d 41ca 233e 9dd9 623d 4270 efbd
00000210: d4fb 823e a1df febc 5237 1f3e c9f3 8f3e
00000220: 9aeb 86bd a295 e4bc 4c3f 00bb 2ebc d43e
00000230: 90aa 013d 18af 863e 3700 c43e e0c4 83be
00000240: 7751 fe3d acbd 8e3d 3dca 9c3d aaa9 dc3d
00000250: 1d89 843c 566e b93d 0fce f63b bcbb 39be
00000260: e565 833e a63a 0f3e 463a d73d 2c0e f9bc
00000270: bd31 1f3d 2937 f83d f708 dbbc 7c3b e13d
00000280: 9109 a93d b7b2 d0bd 19c4 3a3e 34eb 49be
00000290: 1098 8fbd 0e25 023b 7c45 b73d e9a4 133c
000002a0: 7f2c 7fbe bd8a b93d 9f6f 913d e482 9b3d
000002b0: 98b8 49be 0392 053e db0c 13be b51c c93c
000002c0: 43c1 2c3e 1b5a 6fbe f5aa 6dbd f939 d73d
000002d0: 89a4 4abe cfd5 5d3d f459 07be dd29 c2bc
000002e0: f26b 2cbd 6416 8b3d f74a 0cbe 9d3d 8d3c
000002f0: 9c8e 283e f92d f7bd ba10 1dbd 10b4 77be
00000300: 67a2 893e 6812 823e 70ab 7d3d 95ab 273e
00000310: e73b 0ebf fd71 1abd af00 103d 343a 8a3e
00000320: 5d9d 29bd 777e 213e ddce 9b3d 2e96 e5bd
00000330: 6c63 d33d 9805 2d3d 3cc5 663e 8b26 a7bc
00000340: dafd bb3d c237 c3bd d9b5 a1bd 3ad3 89be
00000350: 4416 acbd 25d7 c03d 8302 1f3d 1338 bcbc
00000360: 6b63 62be c119 ecbc a6d1 c73e db0e c33c
00000370: bdd2 5a3e 8fc0 eebd 3640 9b3c 5be0 0a3e
00000380: 4f78 60bd ba06 f23d 4b8c 3d3e 3518 2fbd
00000390: 7810 2d3e 24ae a9be 494e d03d 9a18 babb
000003a0: b674 7abd 1d15 75bc 1a88 63be 26bb 903e
000003b0: 9d17 38bd 9c59 d23d 328a 473e 93cf 1e3e
000003c0: 6e8b 62be bc99 abbd 04e0 103e 06f5 be3c
000003d0: 214a 4ebe e1d2 64be d587 7b3c 524a 743d
000003e0: 7a17 63be 745a 903b b110 943d c018 8f3c
000003f0: 1871 9c3e df28 6a3d 2522 c5bd bd47 bdbd

network_body._body_endoder.seq_layers.2.bias f4 [64]
-0.008921552 0.024361603 0.019888898 -0.024057912 -0.03926458 -0.012498358 -0.029957939 0.023879383
-0.0034931994 0.04209173 0.06497295 0.06714345 0.020477477 0.07828215 0.035023972 0.048966058
0.013958149 0.009956048 -0.010394039 0.05104878 -0.0138407685 -0.038688652 -0.009336316 -0.0027191103
-0.064342685 -0.0058085537 0.0027858925 0.035545047 -0.003310419 0.021839023 0.036814068 -0.008058008
-0.003628897 0.00533376 0.034105353 0.01388462 0.030055711 0.024708668 0.123683594 -0.029265847
0.0076337554 0.031320922 0.004690447 0.017706301 -0.014842081 0.039610732 0.034739584 0.060228173
0.014267551 0.05483593 0.0008159116 0.08077707 -0.045504086 -0.102720916 0.059517123 0.022383379
0.016461326 0.0010567908 -0.002821969 0.01987606 0.00528354 0.040003724 -0.01864664 -0.014783498
00000000: b42b 12bc fc91 c73c 0bee a23c 1915 c5bc
00000010: e5d3 20bd eac5 4cbc 5a6a f5bc b29e c33c
00000020: 29ee 64bb 6168 2c3d 8a10 853d 8182 893d
00000030: 62c0 a73c 6452 a03d 4c75 0f3d a290 483d
00000040: b8b0 643c b11e 233c c24b 2abc 8718 513d
00000050: 64c4 62bc fe77 1ebd 59f7 18bc 1a33 32bb
00000060: 19c6 83bd ae55 bebb 8593 363b af97 113d
00000070: 9df3 58bb c0e7 b23c 59ca 163d bc05 04bc
00000080: cad2 6dbb d2c6 ae3b 0eb2 0b3d 517c 633c
00000090: 6537 f63c d569 ca3c d34d fd3d eebe efbc
000000a0: 9524 fa3b 5e4a 003d 52b2 993b ce0c 913c
000000b0: 332c 73bc dd3e 223d 184b 0e3d d1b1 763d
000000c0: 72c2 693c a49b 603d e7e2 553a 736e a53d
000000d0: 7e62 3abd 585f d2bd 3ac8 733d 595d b73c
000000e0: e7d9 863c 0484 8a3a c9f0 38bb 1ed3 a23c
000000f0: 8c21 ad3b f2da 233d d7c0 98bc 7c36 72bc

network_body._body_endoder.seq_layers.4.weight f4 [64, 64]
-0.045622278 -0.21559885 -0.17618757 0.022992734 -0.22219974 -0.118030824 0.37192985 0.0431602
-0.087587245 0.13284719 -0.21753752 0.16392823 -0.18291269 0.21843638 0.123852044 0.106334046
-0.35886854 -0.019199394 -0.16725503 -0.09304075 -0.17989002 -0.20946589 0.1291639 -0.007460364
0.021393077 0.08986336 -0.031722862 0.0011840418 0.030225646 0.04669648 0.10426195 -0.29216594
-0.05549883 -0.27573478 -0.2542215 -0.055004723 -0.024172971 0.33192137 -0.040179137 0.17691116
-0.07013108 0.03342652 -0.0052880836 -0.1348981 0.16931294 -0.29154792 -0.2190844 -0.24011609
-0.12633373 -0.2306462 -0.20741035 -0.24373701 -0.013202345 0.07632099 0.006025923 0.07850304
-0.2590538 0.105613254 0.12922816 -0.16322646 0.31263125 -0.12497126 -0.1635875 0.060592193
-0.24658279 0.37561268 0.13238259 -0.17723884 0.12468275 -0.09114815 -0.15026122 0.064716466
0.19008172 0.042768463 -0.0780217 -0.17205364 0.04045392 -0.22199349 -0.32136953 0.2658035
0.06676269 -0.07328332 0.04371517 -0.08871742 0.029351044 0.0405589 -0.06496238 0.018092174
-0.12575202 -0.2850214 -0.036345206 -0.22203481 -0.10660224 0.058050532 -0.033805974 0.14393346
0.059564184 0.028635455 0.17033844 0.09397451 -0.2184213 -0.09634453 0.12605885 0.18306215
0.2072329 0.14642881 -0.06863116 -0.07836851 -0.122208476 -0.27521747 0.032806806 0.03743119
0.009015998 -0.34903443 0.2312338 -0.37097767 -0.13586855 -0.21792585 -0.10049846 0.30795345
-0.035079166 -0.020424891 0.17447804 -0.22754939 -0.3011639 0.1477078 -0.08230318 0.25383294
0.06277997 -0.0061353114 -0.21809617 0.08800438 0.0032293145 -0.043042142 -0.11811044 0.15807308
0.20108397 0.1420792 0.3338008 0.22304466 0.086533636 -0.016334452 -0.07735682 -0.09214184
0.18884164 -0.083174825 0.18787739 0.13647139 -0.15372023 -0.2605561 -0.09023656 -0.029774068
0.013756683 0.15596944 0.056256365 0.061217733 0.0967909 -0.0677309 0.06165779 -0.0521829
-0.028166607 -0.11957921 -0.08240676 -0.10697332 0.028542228 -0.20868687 0.08271743 -0.19445804
0.16782697 0.14649668 -0.03689971 0.06601047 0.2804547 -0.19498126 -0.045797307 0.02848868
-0.17686027 -0.35459903 0.03210639 -0.1628122 0.07777824 0.1352886 0.1807316 0.0023821802
-0.21060088 0.050482776 -0.09912764 -0.0999046 0.16392653 -0.021845166 -0.04693296 -0.019034704
-0.026039962 0.1207673 -0.2703846 0.05454396 0.032270815 -0.03997831 0.11532296 -0.0725356
-0.07022633 -0.17287432 -0.10203566 -0.15477435 0.32457358 0.2970436 -0.017992286 0.065450795
-0.02117504 -0.1858065 -0.05616581 0.0149406865 -0.0877911 -0.039941024 -0.024015522 0.04992544
-0.21857227 0.3320699 0.20505624 0.00046291275 0.058659714 -0.20946313 -0.16516048 -0.041995358
-0.16124527 -0.0911033 -0.31983534 -0.19545555 -0.33365113 -0.15724045 0.0007721354 0.064130805
-0.22798222 0.11237126 -0.14128757 0.03758543 0.12301191 0.02918702 -0.058796585 -0.12968913
0.06197412 -0.11661391 0.08045967 0.20156363 0.056780905 0.1614789 0.13813007 0.21677001
-0.06507834 0.12159493 0.19854267 0.015156462 0.19285186 0.0016083948 -0.010626987 0.029887823
00000000: 6dde 3abd f2c5 5cbe 846a 34be 425b bc3c
00000010: 5488 63be 25ba f1bd 976d be3e c0c8 303d
00000020: f160 b3bd 1809 083e 28c2 5ebe cddc 273e
00000030: 774d 3bbe c9ad 5f3e 24a6 fd3d aac5 d93d
00000040: 9ebd b7be 0c48 9dbc e744 2bbe 268c bebd
00000050: 1735 38be 3a7e 56be 8b43 043e 1276 f4bb
00000060: 8940 af3c 480a b83d d5ef 01bd da31 9b3a
00000070: c69b f73c cf44 3f3d 4a87 d53d c696 95be
00000080: be52 63bd 1c2d 8dbe 5229 82be a24c 61bd
00000090: 6506 c6bc 99f1 a93e e192 24bd 3328 353e
000000a0: e2a0 8fbd 3fea 083d a947 adbb ba22 0abe
000000b0: 5f60 2d3e c545 95be a957 60be fee0 75be
000000c0: a15d 01be 842e 6cbe 6163 54be 3296 79be
000000d0: a64e 58bc 2e4e 9c3d 1b75 c53b 34c6 a03d
000000e0: b3a2 84be c34b d83d 6354 043e d624 27be
000000f0: 3411 a03e eff0 ffbd 7b83 27be 852f 783d
00000100: 3380 7cbe 4e50 c03e 4d8f 073e 197e 35be
00000110: ab59 ff3d e2ab babd 14de 19be 118a 843d
00000120: c8a4 423e fc2d 2f3d d7c9 9fbd d42e 30be
00000130: 02b3 253d 4352 63be 8c8a a4be 6517 883e
00000140: e1ba 883d 9115 96bd ae0e 333d 7bb1 b5bd
00000150: 9a71 f03c 1721 263d ff0a 85bd 0a36 943c
00000160: 23c5 00be 53ee 91be b6de 14bd 185d 63be
00000170: 4652 dabd 65c6 6d3d 2278 0abd 4b63 133e
00000180: 93f9 733d e794 ea3c 336d 2e3e b575 c03d
00000190: d5a9 5fbe 4850 c5bd 9215 013e a574 3b3e
000001a0: dd34 543e 6ff1 153e 7e8e 8cbd ab7f a0bd
000001b0: 7048 fabd 4ee9 8cbe 6e60 063d 7351 193d
000001c0: d6b7 133c a4b4 b2be 8ec8 6c3e c9f0 bdbe
000001d0: 2021 0bbe f427 5fbe 23d2 cdbd 13ac 9d3e
000001e0: 2caf 0fbd 1a52 a7bc 5faa 323e b502 69be
000001f0: 2832 9abe b740 173e 928e a8bd 64f6 813e
00000200: c992 803d b90a c9bb 9a54 5fbe a43b b43d
00000210: e8a2 533b f54c 30bd e3e3 f1bd e9dd 213e
00000220: f5e8 4d3e 367d 113e f0e7 aa3e d265 643e
00000230: 8c38 b13d d4cf 85bc 416d 9ebd dcb4 bcbd
00000240: b45f 413e 9057 aabd ee62 403e 28bf 0b3e
00000250: d668 1dbe 9c67 85be f2cd b8bd bfe8 f3bc
00000260: b663 613c 74b6 1f3e 136d 663d 72bf 7a3d
00000270: 4f3a c63d 80b6 8abd e18c 7c3d bdbd 55bd
00000280: a8bd e6bc f2e5 f4bd e0c4 a8bd d414 dbbd
00000290: 64d1 e93c 03b2 55be c267 a93d 0220 47be
000002a0: d5da 2b3e 3a03 163e 2624 17bd 7f30 873d
000002b0: c297 8f3e 2ba9 47be f595 3bbd 1861 e93c
000002c0: dc1a 35be 018e b5be fd81 033d 3eb8 26be
000002d0: 334a 9f3d 1889 0a3e b411 393e 5a1e 1c3b
000002e0: c2a7 57be 07c7 4e3d 6f03 cbbd c89a ccbd
000002f0: 5bdc 273e a2f4 b2bc c73c 40bd abee 9bbc
00000300: c251 d5bc d954 f73d da6f 8abe 7d69 5f3d
00000310: 672e 043d 4cc0 23bd 722e ec3d 8b8d 94bd
00000320: d2d2 8fbd f705 31be 12f8 d0bd 2b7d 1ebe
00000330: 822e a63e 1916 983e 8f64 93bc 110b 863d
00000340: 4777 adbc 0f44 3ebe 1f0e 66bd c8c9 743c
00000350: d2cb b3bd 3399 23bd 33bc c4bc 9e7e 4c3d
00000360: 69d1 5fbe 1105 aa3e 43fa 513e 19b3 f239
00000370: 2b45 703d 817d 56be d41f 29be 5303 2cbd
00000380: 7b1d 25be 5e94 babd 75c1 a3be 8025 48be
00000390: 52d4 aabe a403 21be 2169 4a3a 0357 833d
000003a0: 2c74 69be e722 e63d b0ad 10be 2ef3 193d
000003b0: abed fb3d 9e19 ef3c b0d4 70bd 3acd 04be
000003c0: 93d8 7d3d 46d3 eebd 0ac8 a43d b266 4e3e
000003d0: 1893 683d ba5a 253e f871 0d3e f5f8 5d3e
000003e0: cb47 85bd c306 f93d c54e 4b3e cf52 783c
000003f0: f57a 453e c6d0 d23a d01c 2ebc 4fd7 f43c

network_body._body_endoder.seq_layers.4.bias f4 [64]
-1.952143e-05 -0.012879722 -0.03835536 0.045209907 0.06402288 -0.010247615 0.065565355 -0.025776034
-0.013393958 -0.019443167 0.017379466 -0.04902009 0.017178755 0.07426668 0.004217286 0.019049363
0.024202604 0.021964774 0.023067111 0.033487927 0.013443498 -0.012731156 0.035692208 0.018062124
-0.011281866 0.06356928 0.04313269 0.008397896 0.011607236 0.04116716 0.05364927 0.03201524
0.03248493 -0.034600586 0.026201606 -0.0044909604 0.0199359 -0.017371783 0.01982832 -0.04258728
-0.06611164 -0.016801612 -0.023415092 0.031806186 0.035575055 -0.0037710008 -0.04415029 0.043300673
-0.056778852 0.067094475 0.011398749 -0.03835712 -0.09161787 0.0047890367 0.017374154 -0.04956633
-0.008339965 -0.0032621804 -0.039747436 -0.0065233456 0.03043796 -0.041388154 0.031747248 0.004128227
00000000: f4c1 a3b7 7805 53bc 831a 1dbd 062e 393d
00000010: 6d1e 833d 9de5 27bc 2147 863d 4328 d3bc
00000020: 5572 5bbc 4747 9fbc 625f 8e3c 4ac9 48bd
00000030: 76ba 8c3c 2119 983d 2931 8a3b 690d 9c3c
00000040: 8a44 c63c 78ef b33c 3df7 bc3c a32a 093d
00000050: 1e42 5c3c 5796 50bc fe31 123d 05f7 933c
00000060: 93d7 38bc 9c30 823d e7ab 303d 5497 093c
00000070: 472c 3e3c e59e 283d 56bf 5b3d 6a22 033d
00000080: eb0e 053d 58b9 0dbd c0a4 d63c e828 93bb
00000090: 9d50 a33c 454f 8ebc 006f a23c 0070 2ebd
000000a0: 8a65 87bd 89a3 89bc 02d1 bfbc 3447 023d
000000b0: 26b7 113d e522 77bb efd6 34bd 0c5c 313d
000000c0: f190 68bd d468 893d d2c1 3a3c 5b1c 1dbd
000000d0: 26a2 bbbd 5aed 9c3b 3e54 8e3c 1006 4bbd
000000e0: 59a4 08bc 4eca 55bb 35ce 22bd cac1 d5bb
000000f0: 0759 f93c a086 29bd 6709 023d 1446 873b

action_model._continuous_distribution.log_sigma f4 [1, 44]
0.08007212 0.08775677 -0.08816513 -0.0076818177 -0.09866463 0.3177525 -0.0834313 -0.052342363
-0.028346343 0.05356025 -0.014704819 0.11329889 0.10594675 -0.15679172 0.03790326 -0.14731406
0.0012341952 -0.0013462983 -0.22121054 -0.026975166 0.03212443 -0.1112632 -0.12359595 0.097823754
-0.16473664 -0.16268168 -0.15013705 -0.22275534 0.10042764 -0.16997579 -0.050429672 -0.14120112
-0.11126071 -0.16940176 -0.08697489 -0.15471613 0.1831963 0.011177189 -0.2041042 -0.075328074
0.10566208 0.016149422 0.035710976 0.016276175
00000000: dafc a33d d2b9 b33d eb8f b4bd c2b7 fbbb
00000010: ae10 cabd 75b0 a23e 08de aabd f264 56bd
00000020: 9736 e8bc fe61 5b3d 7bec 70bc 4009 e83d
00000030: 9cfa d83d 028e 20be 7340 1b3d 7fd9 16be
00000040: b8c4 a13a 4676 b0ba 0485 62be 06fb dcbc
00000050: e894 033d f6dd e3bd e01f fdbd d257 c83d
00000060: b9b0 28be 0796 26be 87bd 19be fa19 64be
00000070: 02ad cd3d 220e 2ebe 588f 4ebd 0797 10be
00000080: a8dc e3bd a877 2dbe e41f b2bd e86d 1ebe
00000090: d097 3b3e 8720 373c b100 51be 9b45 9abd
000000a0: 5c65 d83d cb4b 843c ac45 123d 9d55 853c

action_model._continuous_distribution.mu.weight f4 [44, 64]
-0.14197576 0.14217532 0.015386058 -0.025547639 0.16220228 0.06588432 0.19507332 0.06702222
-0.07722511 -0.11536643 -0.07415078 -0.1162588 0.07797243 -0.028833913 0.08474538 0.11057009
0.21064712 0.06086835 -0.002014911 0.017382843 -0.06392988 0.039704505 -0.0105529055 0.085508846
-0.06039509 -0.065126345 -0.08837329 -0.10580564 -0.011303485 -0.006332359 0.04771771 0.080264226
0.10384442 0.07940129 0.13735491 -0.107709855 -0.006125142 0.11170126 0.02712519 0.013711378
-0.07642129 0.035449125 -0.06519259 0.055165984 -0.093389854 -0.043522276 0.113405764 -0.05859993
0.0033117994 0.0155262565 -0.0037858791 0.102600805 0.053224493 -0.10708962 0.08860686 -0.09138552
0.10872802 -0.0021171453 -0.019139413 0.081653126 -0.028631156 -0.04565082 0.027909422 -0.12188205
-0.108995676 0.09497361 0.007010267 0.0719995 -0.03209391 0.03569627 0.035663508 0.109287836
-0.007985527 -0.09203943 0.033590447 -0.04760891 0.060443606 -0.050854832 -0.05201344 0.043391775
-0.0651786 0.04728336 0.048531976 -0.108294025 -0.103204384 -0.043080825 -0.0017505615 -0.063937135
-0.03668096 0.057352297 0.084734134 0.040111363 0.043502644 -0.009680704 -0.03907725 0.05455665
-0.08203358 -0.076171346 -0.0019204206 0.07106138 -0.069251254 0.093622126 -0.04105897 0.010383676
0.14905879 -0.041895177 -0.024155311 0.025126927 -0.1488196 -0.019569814 0.01561813 0.0028048255
-0.015556861 0.024080414 -0.08175167 0.016632631 -0.112361185 -0.071662314 -0.0081094345 0.031870965
0.053127818 0.003931367 -0.00079636736 -0.0008603953 0.07982268 -0.064743124 0.16644293 -0.12350364
0.13236097 -0.14041144 -0.08487848 0.10798184 0.08102513 -0.08219204 0.04711773 -0.039564233
0.09066589 -0.06091941 0.12120362 -0.0019804412 -0.0037779293 0.0840062 -0.16540872 0.050639976
0.015115346 -0.095284596 0.088121146 0.13063377 0.08912742 0.029347727 0.012219188 -0.045792013
0.014959103 0.08632185 -0.06838088 0.031931266 -0.06470842 0.0009282923 -0.09834454 -0.064676344
-0.015719263 0.014011434 0.030362502 0.0011829819 -0.001252202 0.08262338 -0.041604877 -0.13120598
-0.03874749 -0.08229066 -0.016572522 0.1233694 0.053410105 0.08726003 -0.03905962 -0.02537711
-0.17987476 0.007054917 0.0047776387 -0.086546466 -0.014290462 -0.07241698 0.12185205 -0.011057855
-0.05034315 -0.14590447 0.070088536 -0.15073273 0.020136205 0.08020884 0.0967697 0.07630823
-0.08600926 -0.11216394 -0.19846645 -0.08732598 0.15589824 -0.015215187 -0.0086631 -0.062243477
-0.017973104 -0.063009225 -0.06456997 -0.041780956 -0.00450247 0.048372705 -0.1245129 0.026853204
0.08668985 0.030833062 -0.13597806 0.031145466 0.1091466 0.050687533 0.002950128 -0.1521404
-0.13073903 0.18303156 0.054128036 -0.06556668 -0.005686315 -0.017402768 -0.035352826 -0.020553352
0.03897594 -0.07906656 0.09996281 -0.052905083 0.13931029 -0.031462003 0.011543516 -0.10383984
0.047712464 0.026021196 0.02857815 0.14322166 0.08223534 0.067481816 -0.022422668 -0.026929779
-0.02082693 0.0035335198 0.028685905 -0.119489945 0.03480226 -0.17162313 -0.1253207 -0.036617514
-0.027578562 0.11618938 -0.01192715 0.031301353 0.14169455 0.030857123 -0.02818229 0.037931103
00000000: 1862 11be 6896 113e ce15 7c3c 4849 d1bc
00000010: 5b18 263e 5cee 863d 4dc1 473e f242 893d
00000020: 3328 9ebd 3c45 ecbd 5ddc 97bd 1819 eebd
00000030: 02b0 9f3d 1935 ecbc fc8e ad3d 9272 e23d
00000040: e1b3 573e 1751 793d 990c 04bb 7766 8e3c
00000050: abed 82bd 31a1 223d 18e6 2cbc 431f af3d
00000060: d860 77bd f660 85bd 0efd b4bd a1b0 d8bd
00000070: 4132 39bc ad7f cfbb a573 433d 9261 a43d
00000080: 62ac d43d 259d a23d c4a6 0c3e fc96 dcbd
00000090: 6ab5 c8bb a1c3 e43d a535 de3c b0a5 603c
000000a0: c482 9cbd 1a33 113d b183 85bd baf5 613d
000000b0: 2e43 bfbd 6a44 32bd 4841 e83d 7b06 70bd
000000c0: c60a 593b d761 7e3c 831c 78bb 5f20 d23d
000000d0: ed01 5a3d cd51 dbbd 8377 b53d 5528 bbbd
000000e0: ccac de3d cebf 0abb 42ca 9cbc c139 a73d
000000f0: e38b eabc 5bfc 3abd 4da2 e43c 4c9d f9bd
00000100: 2039 dfbd 8681 c23d 62b6 e53b 7974 933d
00000110: e774 03bd 4136 123d e613 123d 4dd2 df3d
00000120: bad5 02bc 2b7f bcbd 2396 093d 8f01 43bd
00000130: b793 773d 284d 50bd 0b0c 55bd 93bb 313d
00000140: 5c7c 85bd 32ac 413d 77c9 463d 42c9 ddbd
00000150: d25c d3bd 8575 30bd 1973 e5ba 79f1 82bd
00000160: c63e 16bd 3eea 6a3d 1789 ad3d d04b 243d
00000170: d42f 323d d19b 1ebc 770f 20bd cb76 5f3d
00000180: 3901 a8bd b9ff 9bbd 9fb6 fbba a188 913d
00000190: 9ad3 8dbd f5bc bf3d 732d 28bd 4b20 2a3c
000001a0: dea2 183e 479a 2bbd 5ce1 c5bc fcd6 cd3c
000001b0: 2a64 18be e050 a0bc 2fe3 7f3c 2ad1 373b
000001c0: 34e2 7ebc 4a44 c53c 6b6d a7bd 2841 883c
000001d0: 9f1d e6bd b1c3 92bd 6fdd 04bc 218b 023d
000001e0: 8e9c 593d b2d2 803b 4fc3 50ba 278c 61ba
000001f0: 137a a33d 0b98 84bd 0470 2a3e 7aef fcbd
00000200: a289 073e 04c8 0fbe c5d4 adbd 9525 dd3d
00000210: 81f0 a53d 4d54 a8bd 85fe 403d 1b0e 22bd
00000220: 0aaf b93d a286 79bd 9b39 f83d 4aca 01bb
00000230: 2397 77bb 710b ac3d e760 29be dd6b 4f3d
00000240: 5ba6 773c 9224 c3bd dc78 b43d dcc4 053e
00000250: 7088 b63d a56a f03c fd32 483c 6890 3bbd
00000260: 0717 753c 83c9 b03d 460b 8cbd 5cca 023d
00000270: d985 84bd a458 733a dd68 c9bd 0875 84bd
00000280: afc5 80bc 3790 653c c8ba f83c 490e 9b3a
00000290: ed20 a4ba 7236 a93d e069 2abd dc5a 06be
000002a0: b0b5 1ebd 0188 a8bd 19c3 87bc 19a9 fc3d
000002b0: 8ec4 5a3d 63b5 b23d fbfc 1fbd a8e3 cfbc
000002c0: 1731 38be ef2c e73b bd8d 9c3b 463f b1bd
000002d0: 8b22 6abc 5b4f 94bd 918d f93d 012c 35bc
000002e0: 9e34 4ebd fb67 15be 948a 8f3d ae59 1abe
000002f0: aff4 a43c 8844 a43d 312f c63d 7d47 9c3d
00000300: 9f25 b0bd 35b6 e5bd ca3a 4bbe f7d7 b2bd
00000310: caa3 1f3e 1f49 79bc adef 0dbc 04f3 7ebd
00000320: 553c 93bc fb0a 81bd 433d 84bd 8222 2bbd
00000330: 7589 93bb 7522 463d 9f00 ffbd 40fb db3c
00000340: 738a b13d 9e95 fc3c d53d 0bbe c724 ff3c
00000350: 4188 df3d bb9d 4f3d ef56 413b b1ca 1bbe
00000360: 74e0 05be a06c 3b3e 5cb5 5d3d d347 86bd
00000370: 4454 babb 4090 8ebc 20ce 10bd 815f a8bc
00000380: 3ca5 1f3d a6ed a1bd 4db9 cc3d 00b3 58bd
00000390: 5ba7 0e3e 4dde 00bd 0421 3d3c fba9 d4bd
000003a0: 256e 433d 672a d53c b91c ea3c b3a8 123e
000003b0: 006b a83d e833 8a3d beaf b7bc d79b dcbc
000003c0: 3d9d aabc a092 673b b4fe ea3c 25b7 f4bd
000003d0: d18c 0e3d f9bd 2fbe 1254 00be 3ffc 15bd
000003e0: 70ec e1bc b3f4 ed3d 186a 43bc d935 003d
000003f0: 6018 113e 14c8 fc3c 8cde e6bc a55d 1b3d

action_model._continuous_distribution.mu.bias f4 [44]
0.025757233 -0.049424965 0.026587896 0.06806921 -0.02220248 -0.061054822 0.0047159507 0.017194087
0.01233431 -0.02400682 -0.01651764 -0.02863266 -0.051999975 0.0135344975 0.08209506 -0.052211758
0.020670207 0.0368354 0.011992579 0.018646717 0.02142668 -0.014580854 0.042221256 0.03136935
-0.04491316 -0.012437141 -0.15569058 -0.113212876 -0.03353563 -0.03254698 -0.024268135 -0.122188985
0.023107333 -0.107697815 -0.024601081 0.028455863 -0.02437749 0.030338405 0.041367453 0.0061221765
-0.08510068 0.011887129 -0.04377686 0.056258436
00000000: d500 d33c d571 4abd dcce d93c df67 8b3d
00000010: fae1 b5bc 9f14 7abd 4388 9a3b 9dda 8c3c
00000020: d915 4a3c f3a9 c4bc 0050 87bc 0a8f eabc
00000030: edfd 54bd ccbf 5d3c 7421 a83d ffdb 55bd
00000040: 9154 a93c b7e0 163d 867c 443c 00c1 983c
00000050: 0187 af3c 89e4 6ebc 32f0 2c3d 267d 003d
00000060: ddf6 37bd 26c5 4bbc 5a6d 1fbe 27dc e7bd
00000070: a85c 09bd fb4f 05bd f8cd c6bc 383e fabd
00000080: 974b bd3c ac90 dcbd 3588 c9bc 451c e93c
00000090: 4db3 c7bc 3f88 f83c eb70 293d 8a9c c83b
000000a0: 4449 aebd 3cc2 423c 5d4f 33bd 3f6f 663d
