results/b090reremaze2/Dynamic Table/Dynamic Table-5599955.onnx (onnx, 74582 bytes, 9 tensors)

network_body._body_endoder.seq_layers.0.weight f4 [64, 94]
0.18993616 -0.20394117 -0.049410727 0.15050516 -0.04780745 0.0015209937 0.17183454 -0.107325174
-0.44396535 -0.37008157 0.032142956 0.050091166 0.28110054 0.041371275 -0.21841612 -0.18402386
-0.25968665 -0.12121318 0.08486314 0.13973613 0.3018116 0.22017619 -0.073446535 -0.037673134
-0.16635537 -0.09229297 0.08266206 0.33116722 0.06909199 -0.09691121 -0.23143333 -0.21194412
0.05051419 -0.025374874 0.09477685 -0.02148695 -0.117738105 0.3204155 0.11690532 -0.15510064
-0.0060066776 0.13171726 -0.08186645 0.2505842 0.22098796 0.01127692 -0.04515595 0.13944562
0.0015762955 -0.17799054 -0.102779105 -0.0035578427 -0.16176347 -0.21942912 0.075311914 -0.22993577
-0.0463441 -0.3102747 -0.05064189 -0.15705486 -0.04521696 -0.097576514 -0.08823714 -0.19362025
0.119949944 -0.22990175 -0.096800245 -0.08835181 0.20098723 -0.26008752 0.091600716 -0.16351089
-0.2547617 0.17307979 -0.51800233 -0.30588824 0.13271119 -0.13240561 -0.018311976 0.19838658
-0.19085717 -0.33989424 -0.19034855 0.19746141 0.03011994 0.023632655 -0.13689113 -0.14402857
0.07513618 0.10020512 0.011752874 0.123426855 0.08410076 -0.009722865 0.080347225 0.13050763
-0.08181215 -0.20893796 0.24054423 -0.03650796 0.0588818 0.07256566 0.042728215 -0.12033392
0.012301995 -0.30401126 -0.048002705 0.13933818 -0.018827505 -0.14702396 -0.21936607 0.1797
0.10619418 0.11941168 -0.16340224 0.22192559 -0.1651322 0.10010202 0.24016395 0.004732351
0.26408875 0.09803298 0.11412529 -0.023800712 -0.22306962 0.172036 0.14276432 0.42901966
-0.20199218 0.11580461 -0.15070923 0.08690655 -0.19317971 0.0658387 0.20243149 -0.09649453
0.004071503 0.15663883 0.5205401 0.07996277 0.0442685 -0.3183195 0.20712028 -0.25322148
0.16576509 0.05514874 -0.038706157 -0.025312934 -0.10417327 -0.06828451 0.0059340606 0.03920879
0.050402716 -0.057549283 0.20809492 0.08083037 0.09823042 -0.052847452 0.09408707 -0.24969003
0.069308884 0.024413988 0.08336629 -0.012695908 -0.08274793 -0.1214921 -0.14277568 0.042359088
0.113029145 -0.09922643 -0.011337623 0.021935312 0.14237255 -0.022539595 0.04551854 -0.09035717
-0.17891626 -0.24037796 -0.11372325 -0.13056909 -0.09547679 -0.05155843 -0.08961507 -0.05978847
-0.17442922 -0.012797513 0.1531625 0.037801743 -0.13722302 -0.058704942 -0.20125447 -0.2288396
0.03336291 0.09560409 -0.19329752 -0.15642308 -0.4336765 -0.33877966 -0.21872275 -0.16208784
-0.14322229 -0.0031165106 -0.20838623 -0.13397418 -0.13307233 -0.02210612 0.14956726 -0.09006461
-0.0012937704 -0.10454006 -0.35635573 -0.25822356 0.004863982 0.31029272 0.15948819 0.3397157
-0.22242002 -0.2620442 -0.0860428 -0.08874657 0.1648784 0.6257608 -0.18289647 0.12517242
-0.4155327 -0.0451159 0.005040485 -0.12002546 0.29794636 0.023423247 -0.11672724 -0.06807663
0.11680288 0.08484461 -0.090918645 -0.08429273 0.07332821 0.13804483 0.14490359 -0.057257883
-0.01820121 0.2808412 0.02142251 0.020271262 0.041556753 -0.33369988 -0.08207788 -0.29214725
-0.405341 0.1898436 -0.15234916 -0.01946574 0.29493687 -0.22726989 0.10843507 0.14035514
00000000: a07e 423e f4d5 50be e762 4abd 061e 1a3e
00000010: bfd1 43bd 145c c73a 65f5 2f3e 4dcd dbbd
00000020: 6d4f e3be 557b bdbe 55a8 033d 652c 4d3d
00000030: 69ec 8f3e ed74 293d 7aa8 5fbe c070 3cbe
00000040: a6f5 84be 9e3e f8bd bacc ad3d fd16 0f3e
00000050: 0d87 9a3e de75 613e 236b 96bd 254f 1abd
00000060: 1059 2abe 1904 bdbd ba4a a93d c08e a93e
00000070: 1a80 8d3d 6279 c6bd dcfc 6cbe e107 59be
00000080: f8e7 4e3d f8de cfbc 5d1a c23d 6605 b0bc
00000090: ad20 f1bd 800d a43e 0e6c ef3d b4d2 1ebe
000000a0: aad3 c4bb e4e0 063e 99a9 a7bd 924c 803e
000000b0: ab4a 623e d5c2 383c 72f5 38bd d5ca 0e3e
000000c0: b39b ce3a 2743 36be da7d d2bd b22a 69bb
000000d0: 53a5 25be 07b2 60be 223d 9a3d 4874 6bbe
000000e0: 50d3 3dbd 53dc 9ebe df6d 4fbd fdd2 20be
000000f0: 6b35 39bd 32d6 c7bd acb5 b4bd 6344 46be
00000100: 51a8 f53d 5d6b 6bbe 353f c6bd cbf1 b4bd
00000110: 99cf 4d3e 312a 85be 2899 bb3d 666f 27be
00000120: 2070 82be d43b 313e cd9b 04bf 629d 9cbe
00000130: 71e5 073e 5695 07be ff02 96bc da25 4b3e
00000140: 1070 43be 9e06 aebe bbea 42be 5333 4a3e
00000150: 18be f63c 4599 c13c 302d 0cbe 3a7c 13be
00000160: ffe0 993d 5838 cd3d 208f 403c 38c7 fc3d
00000170: 053d ac3d a74c 1fbc 168d a43d cba3 053e
00000180: 218d a7bd d5f3 55be 3a51 763e 5f89 15bd
00000190: 0b2e 713d 4e9d 943d c803 2f3d a171 f6bd
000001a0: 4f8e 493c 5da7 9bbe 7c9e 44bd abae 0e3e
000001b0: 243c 9abc 738d 16be 80a1 60be 4703 383e
000001c0: 567c d93d 1c8e f43d eb52 27be 7640 633e
000001d0: 6a18 29be 4a02 cd3d 8aed 753e d611 9b3b
000001e0: a436 873e 84c5 c83d 85ba e93d b6f9 c2bc
000001f0: 5d6c 64be 352a 303e cf30 123e 77a8 db3e
00000200: 0ad7 4ebe f82a ed3d 8553 1abe 10fc b13d
00000210: e7d0 45be 71d6 863d 334a 4f3e ed9e c5bd
00000220: 3e6a 853b ee65 203e 1e42 053f 85c3 a33d
00000230: e352 353d c6fa a2be 5717 543e 3fa6 81be
00000240: 53be 293e a5e3 613d 598a 1ebd 125d cfbc
00000250: cc58 d5bd c0d8 8bbd 8272 c23b 6599 203d
00000260: 1473 4e3d ccb8 6bbd d616 553e 658a a53d
00000270: 082d c93d 9276 58bd b9b0 c03d beae 7fbe
00000280: d1f1 8d3d d8ff c73c f2bb aa3d 7f02 50bc
00000290: bf77 a9bd dad0 f8bd ca33 12be b980 2d3d
000002a0: d37b e73d 3a37 cbbd 70c1 39bc afb1 b33c
000002b0: 1cca 113e f5a4 b8bc a671 3a3d 2e0d b9bd
000002c0: d335 37be a425 76be bce7 e8bd e7b3 05be
000002d0: 5689 c3bd ef2e 53bd 1b88 b7bd c1e4 74bd
000002e0: 939d 32be a9ac 51bc a1d6 1c3e 00d6 1a3d
000002f0: 3184 0cbe 9874 70bd a715 4ebe ee54 6abe
00000300: 8ca7 083d 14cc c33d c9ef 45be 5f2d 20be
00000310: d90a debe 8774 adbe dbf8 5fbe 5bfa 25be
00000320: dda8 12be 5f3e 4cbb 3363 55be 8730 09be
00000330: 1d44 08be e517 b5bc 2928 193e cb73 b8bd
00000340: bb93 a9ba 1919 d6bd 4274 b6be e135 84be
00000350: 0a62 9f3b b0de 9e3e df50 233e 37ef ad3e
00000360: 13c2 63be a82a 86be 3537 b0bd c3c0 b5bd
00000370: e2d5 283e dc31 203f 3649 3bbe 332d 003e
00000380: b4c0 d4be 73cb 38bd a72a a53b e9cf f5bd
00000390: 6d8c 983e 1ce2 bf3c b10e efbd c36b 8bbd
000003a0: 5936 ef3d 03c3 ad3d 8e33 babd aba1 acbd
000003b0: 1a2d 963d a05b 0d3e 9b61 143e 3e87 6abd
000003c0: b41a 95bc 6bca 8f3e 427e af3c eb0f a63c
000003d0: 6a37 2a3d b6da aabe 7318 a8bd 5394 95be
000003e0: db88 cfbe 5c66 423e 6b01 1cbe 9e76 9fbc
000003f0: f701 973e 70b9 68be 3513 de3d 42b9 0f3e

network_body._body_endoder.seq_layers.0.bias f4 [64]
-0.0028587277 -0.03793301 0.014206631 -0.02533026 -0.010112186 -0.04047918 0.050677087 0.07866893
-0.032026168 -0.015902422 -0.060052417 0.02126219 0.035778057 -0.013314501 -0.022410873 -0.004751161
-0.07077003 0.05622781 0.033117145 -0.037266355 -0.029741775 -0.024269776 -0.02454971 -0.05615739
-0.07475263 -0.03178062 -0.045505136 0.04397713 0.06074353 -0.0120825 -0.019494757 -0.019646617
0.0071945135 0.0011049538 -0.058667857 -0.030866565 0.012367159 -0.006586041 0.057744678 0.05759387
-0.0038656204 0.016163798 0.0101724705 -0.027154537 0.0014923454 0.034320485 -0.034944814 -0.017222013
-0.05293773 0.027212387 -0.0062108575 -0.007643423 -0.012008452 -0.048350517 0.042219497 -0.017393997
-0.10139201 -0.00947823 0.023999235 -0.028501492 -0.0077308193 -0.060535014 -0.0046185604 0.07062066
00000000: 7e59 3bbb a55f 1bbd eec2 683c 6881 cfbc
00000010: 95ad 25bc 7fcd 25bd c792 4f3d 2d1d a13d
00000020: df2d 03bd cc45 82bc 86f9 75bd 0b2e ae3c
00000030: 038c 123d 1125 5abc 0297 b7bc a1af 9bbb
00000040: e1ef 90bd 224f 663d d8a5 073d 9ba4 18bd
00000050: 06a5 f3bc 69d1 c6bc 791c c9bc 4b05 66bd
00000060: e817 99bd 652c 02bd 9863 3abd 5d21 343d
00000070: 35ce 783d aef5 45bc 78b3 9fbc f1f1 a0bc
00000080: f4bf eb3b 19d4 903a b54d 70bd e1db fcbc
00000090: a09f 4a3c b7cf d7bb af85 6c3d 8de7 6b3d
000000a0: 5956 7dbb f169 843c 6faa 263c 3173 debc
000000b0: cd9a c33a a393 0c3d 4b22 0fbd 2e15 8dbc
000000c0: 3cd5 58bd 83ec de3c 7384 cbbb ae75 fabb
000000d0: 19bf 44bc 310b 46bd 5aee 2c3d db7d 8ebc
000000e0: 9da6 cfbd 944a 1bbc 0b9a c43c f67b e9bc
000000f0: d052 fdbb 90f3 77bd 4b57 97bb 91a1 903d

network_body._body_endoder.seq_layers.2.weight f4 [64, 64]
0.044695653 -0.2548893 -0.142531 0.12547427 -0.22894345 0.07094745 0.20566253 0.130204
-0.36909556 0.06578294 0.11901319 0.018160895 -0.09295046 0.08234291 -0.04149076 -0.09788851
-0.14748336 0.035299707 0.1556927 0.04838635 0.019073578 0.00011886407 -0.31161222 0.075608194
0.03798807 0.07947637 -0.03120229 -0.057555754 -0.055177983 -0.032705747 -0.26773673 -0.31681246
0.077965476 0.39482093 0.019942315 -0.30539235 -0.22111279 0.020149361 -0.062113684 0.11027211
0.025021158 0.07444782 0.19875957 -0.18979675 0.04875137 0.17144576 0.36963132 0.11127711
-0.034179796 0.3158042 -0.10928484 0.2223353 0.08161858 -0.18963893 0.37302127 0.09258655
0.1507375 -0.18358864 0.26310468 0.0581971 -0.34972578 0.054268 -0.43612134 -0.04685656
0.016171359 0.15822142 -0.32959804 -0.20229048 -0.117100984 0.009194274 -0.11058164 -0.10355408
-0.16615267 0.08272364 0.027730348 0.29331315 -0.13332188 0.16623811 -0.133319 -0.10498017
-0.091593444 0.06955376 -0.6042521 -0.153798 -0.20522088 0.0693015 0.32288823 0.05015871
-0.051460613 0.19580357 -0.21790583 -0.040135704 0.026014969 0.13398091 -0.08839046 0.085283905
0.14976953 -0.040487256 -0.5406011 0.0077383188 -0.123496495 -0.13429528 -0.20484082 -0.0045743417
-0.21420522 -0.11141342 0.0036369439 0.3623653 0.32113156 0.16485086 -0.38306808 -0.064886
0.11650542 -0.19362737 -0.12557387 -0.13177578 0.26857772 0.38211823 0.19291216 -0.3150235
-0.2102731 0.046985667 0.00041243693 0.22933891 0.24375539 0.22692141 0.4403693 -0.19214724
0.044900183 -0.00033526708 -0.3927347 -0.44281542 0.23212977 -0.099571854 -0.2649072 -0.17688088
0.06274051 0.14061317 -0.24021575 -0.26909822 -0.29185554 -0.022574369 0.18474674 0.30490762
-0.26713702 0.012856857 -0.31009322 -0.31932026 0.08962437 0.2155131 0.14937703 0.19357173
-0.10828312 0.10118823 -0.28682697 -0.09291122 0.29016826 0.19045526 0.12794033 0.071306705
-0.27914244 -0.2778298 -0.11414719 -0.3870469 0.0033222951 -0.073435575 0.0951461 0.013028025
0.15222022 0.10617149 0.011848848 0.039320502 0.25059283 -0.26981604 -0.31171247 -0.0945376
0.22439592 -0.022712918 -0.4577725 -0.4041386 0.17494251 0.027986534 -0.24752912 -0.31577605
0.054847673 0.028938666 0.2572524 -0.17679626 -0.17901783 0.13783105 0.20054394 -0.102432944
0.23486884 0.0034329868 0.21538866 0.2189026 0.13442999 0.07731367 -0.016554764 -0.12556179
-0.069998674 -0.1498386 -0.05997316 0.21803403 0.32669306 -0.18767892 -0.17317209 0.075986706
-0.07411921 -0.216127 -0.24854971 0.10944216 -0.36722568 0.25627413 -0.14808014 -0.30180162
-0.096708335 -0.042520594 0.16328767 0.05397895 -0.15843049 -0.27986512 0.0052424246 -0.47150365
0.13929203 0.40124193 0.014561359 0.122987494 0.121918865 -0.052984413 0.07641653 0.11088252
-0.059347097 0.2531461 -0.07952917 -0.039431326 -0.039856967 0.21162865 -0.01928128 -0.44456416
-0.46647143 0.18818831 0.21981429 -0.13338317 0.32299623 -0.26425943 -0.26176688 0.22003971
0.120445564 -0.029583639 -0.1166477 -0.19332889 0.41573584 -0.08261136 -0.38471624 0.054807734
00000000: ca12 373d da80 82be a5f3 11be 547c 003e
00000010: 2770 6abe e64c 913d 3399 523e 3354 053e
00000020: 18fa bcbe 35b9 863d 30bd f33d 28c6 943c
00000030: d05c bebd 66a3 a83d 37f2 29bd c579 c8bd
00000040: e105 17be 6d96 103d e86d 1f3e c430 463d
00000050: 3140 9c3c a946 f938 a38b 9fbe 78d8 9a3d
00000060: 6199 1b3d 82c4 a23d f29b ffbc 95bf 6bbd
00000070: 4f02 62bd 76f6 05bd ca14 89be 3e35 a2be
00000080: 5dac 9f3d f825 ca3e 115e a33c 635c 9cbe
00000090: 646b 62be 4610 a53c eb6a 7ebd 58d6 e13d
000000a0: 2cf9 cc3c 1978 983d a187 4b3e 145a 42be
000000b0: 84af 473d 7a8f 2f3e 5140 bd3e 41e5 e33d
000000c0: 1d00 0cbd 17b1 a13e bbd0 dfbd ddab 633e
000000d0: a427 a73d b530 42be a5fc be3e 049e bd3d
000000e0: ee5a 1a3e a9fe 3bbe a8b5 863e 1560 6e3d
000000f0: 420f b3be 1f48 5e3d 4c4b dfbe aaec 3fbd
00000100: cc79 843c cc04 223e 13c1 a8be 3c25 4fbe
00000110: a4d2 efbd 95a3 163c a078 e2bd 2914 d4bd
00000120: ed23 2abe 036b a93d c12a e33c 242d 963e
00000130: 8885 08be 533a 2a3e c784 08be d8ff d6bd
00000140: 5895 bbbd 3472 8e3d 44b0 1abf 397d 1dbe
00000150: 6c25 52be f2ed 8d3d 9b51 a53e 3873 4d3d
00000160: 5dc8 52bd bb80 483e b522 5fbe 5665 24bd
00000170: 581d d53c 4b32 093e 0f06 b5bd 54a9 ae3d
00000180: 2f5d 193e f7d5 25bd d564 0abf b991 fd3b
00000190: bbeb fcbd b484 09be cbc1 51be 5ce4 95bb
000001a0: 9d58 5bbe b82c e4bd cb59 6e3b f287 b93e
000001b0: 5b6b a43e aace 283e 8021 c4be f3e2 84bd
000001c0: 659a ee3d 4146 46be 7096 00be 3bf0 06be
000001d0: 0583 893e 00a5 c33e c48a 453e c34a a1be
000001e0: d551 57be 0b74 403d 593c d839 d2d7 6a3e
000001f0: 039b 793e 165e 683e 1678 e13e 3fc2 44be
00000200: 41e9 373d c9c6 afb9 8614 c9be b4b8 e2be
00000210: 6db3 6d3e 54ec cbbd eba1 87be 4320 35be
00000220: 197e 803d e6fc 0f3e 1efb 75be 3ec7 89be
00000230: 176e 95be e2ed b8bc 402e 3d3e da1c 9c3e
00000240: 2fc6 88be 91a5 523c 8ac4 9ebe f27d a3be
00000250: fb8c b73d 77af 5c3e 4bf6 183e ab37 463e
00000260: 8ac3 ddbd c63b cf3d fcda 92be 3d48 bebd
00000270: ef90 943e b406 433e ca02 033e 4009 923d
00000280: c2eb 8ebe b53f 8ebe 00c6 e9bd 032b c6be
00000290: ddba 593b 6465 96bd f5db c23d 7f73 553c
000002a0: 9edf 1b3e 7070 d93d ac21 423c 890e 213d
000002b0: b44d 803e 5425 8abe c798 9fbe ee9c c1bd
000002c0: 0bc8 653e 7110 babc 2861 eabe 41eb cebe
000002d0: 2124 333e 0444 e53c 4678 7dbe 66ad a1be
000002e0: f4a7 603d c810 ed3c 96b6 833e 140a 35be
000002f0: 7350 37be 9523 0d3e 645b 4d3e 5dc8 d1bd
00000300: 7581 703e f6fb 603b d88e 5c3e 0128 603e
00000310: 04a8 093e a156 9e3d db9d 87bc 4593 00be
00000320: 775b 8fbd 4a6f 19be 6ba6 75bd 5044 5f3e
00000330: 5044 a73e e72e 40be 0654 31be eb9e 9b3d
00000340: d0cb 97bd 6550 5dbe d183 7ebe 3623 e03d
00000350: 0105 bcbe 5d36 833e 52a2 17be be85 9abe
00000360: 050f c6bd 132a 2ebd e234 273e 0819 5d3d
00000370: 9a3b 22be 7b4a 8fbe a5c8 ab3b ed68 f1be
00000380: 92a2 0e3e 956f cd3e c492 6e3c dee0 fb3d
00000390: 99b0 f93d 2f06 59bd 4580 9c3d 6016 e33d
000003a0: f115 73bd 5e9c 813e 31e0 a2bd be82 21bd
000003b0: 0f41 23bd 2eb5 583e c6f3 9dbc ea9d e3be
000003c0: 58d5 eebe 70b4 403e ff16 613e 9995 08be
000003d0: c35f a53e 034d 87be 4f06 86be 1752 613e
000003e0: 2aac f63d 6359 f2bc fde4 eebd 02f8 45be
000003f0: 54db d43e 2530 a9bd 87f9 c4be 137e 603d

network_body._body_endoder.seq_layers.2.bias f4 [64]
0.05836868 0.14778171 0.0011296421 0.029471414 -0.089539774 -2.9386616e-05 0.042797476 0.0012049901
0.032151468 -0.0836969 0.013142456 -0.06243269 0.079573035 0.0469054 0.0423712 0.09347431
0.023582762 -0.061781313 -0.0027569747 0.0025297592 0.02634953 0.0054280185 -0.10050541 -0.08643089
0.0013519881 0.074828856 -0.016600307 -0.081993826 -0.026841879 0.03969466 -0.00369341 -0.013902176
-0.045612276 0.07075764 0.10828421 -0.09288278 0.031671792 0.077743776 -0.16241297 0.0078727575
-0.004005259 0.020338684 -0.08412655 0.0716451 0.063121155 0.04916116 0.03488524 0.03479562
-0.0556034 0.10986767 -0.0021290132 -0.05978161 0.09838624 -0.058264434 -0.019600524 -0.021582965
0.009934978 0.0034009365 -0.18464568 -0.15339525 0.04099198 -0.035052683 0.013981714 -0.061254445
00000000: ff13 6f3d 1754 173e 8010 943a 096e f13c
00000010: a160 b7bd 4783 f6b7 684c 2f3d c2f0 9d3a
00000020: 42b1 033d 4869 abbd 7553 573c 6cb9 7fbd
00000030: 30f7 a23d e01f 403d 6c8d 2d3d 766f bf3d
00000040: a330 c13c 670e 7dbd 5cae 34bb 51ca 253b
00000050: f8da d73c 85dd b13b c8d5 cdbd ae02 b1bd
00000060: 3135 b13a df3f 993d 5efd 87bc 61ec a7bd
00000070: 80e3 dbbc de96 223d 230d 72bb f4c5 63bc
00000080: f0d3 3abd 62e9 903d 1dc4 dd3d 5439 bebd
00000090: 48ba 013d 2138 9f3d 964f 26be bdfc 003c
000000a0: 8c3e 83bb 509d a63c 8a4a acbd abba 923d
000000b0: aa45 813d 365d 493d d3e3 0e3d da85 0e3d
000000c0: 64c0 63bd 4d02 e13d ea86 0bbb 90dd 74bd
000000d0: ba7e c93d b0a6 6ebd 4791 a0bc c2ce b0bc
000000e0: 51c6 223c 3fe2 5e3b c213 3dbe a513 1dbe
000000f0: 35e7 273d 6793 0fbd 8f13 653c f1e5 7abd

network_body._body_endoder.seq_layers.4.weight f4 [64, 64]
-0.2415806 -0.07063146 0.15497302 -0.29181987 -0.19323768 0.1924678 -0.04281626 -0.004277669
-0.03444398 -0.27010512 0.11469659 -0.3687449 -0.008633842 0.06893612 0.3441904 -0.0882566
-0.060538724 -0.031098189 -0.18034048 0.35480928 -0.016152836 -0.039742984 -0.20760705 -0.098236635
-0.41681978 -0.029183801 0.14925751 0.2554612 -0.3287244 0.025989689 -0.07216795 -0.2422481
0.15772064 -0.14993298 -0.421692 -0.279509 0.084722996 0.07095671 0.05689098 -0.012882299
-0.17839614 0.083619714 -0.46638787 0.20428984 -0.010051977 -0.02307183 0.39589876 -0.5346037
-0.46264967 -0.06433512 -0.08786015 -0.3380692 0.1704428 0.20815147 -0.46680853 -0.2255234
0.11842116 0.042434644 -0.18885012 -0.119852655 0.440441 0.042760007 -0.13091876 -0.39454848
0.18354721 -0.26924148 0.12419829 -0.0158765 -0.13189398 -8.107865e-05 0.117240705 -0.08023298
-0.41926292 -0.07110773 -0.2653935 0.13876283 0.21147268 -0.14275385 0.27112958 0.009294911
0.05329421 -0.1889382 -0.18916632 0.04563786 -0.1851385 0.34317252 -0.048158124 -0.033216137
-0.25346398 -0.00586016 0.07503098 -0.1767696 -0.34332657 -0.25278255 0.017407533 0.051002793
0.14243354 0.36278322 -0.3963335 -0.010717283 0.11918672 0.17978917 -0.2037814 -0.096535504
-0.08135358 -0.42119414 -0.19128503 -0.0061620623 -0.26596197 -0.20956837 -0.3571336 -0.0021991949
0.015757384 0.09019847 -0.096589714 -0.05470292 -0.3426811 -0.29484358 -0.33262455 -0.316315
-0.12611121 -0.08264043 -0.07085429 0.38264972 -0.13576128 0.2967155 -0.13603044 0.0862135
-0.10764694 -0.110650584 0.19944952 0.31589243 0.099362165 -0.090402216 -0.15368891 0.12498465
0.2004784 -0.01788301 0.0074794153 -0.23486128 -0.31727666 -0.17979504 -0.07906142 -0.16428201
-0.1616612 -0.18016766 -0.28759295 -0.06426433 0.11254962 0.29809207 0.032821484 0.296224
-0.06408305 0.02004175 -0.16052453 -0.10308305 0.23634776 -0.2822672 0.09170833 -0.15252341
-0.25970998 0.032014936 0.0008814391 0.005045524 0.06645218 0.09463954 0.019632984 -0.07152955
-0.027127754 -0.021830952 0.19363645 0.14661857 0.22422327 -0.28882626 -0.2221079 -0.13634728
0.23771314 -0.18947348 -0.31315634 -0.017801555 0.111147925 -0.05891211 0.04938492 0.10310782
-0.15489727 -0.21909907 -0.0051924 0.35981238 -0.45865783 0.17811333 -0.3516495 -0.030351806
0.18714148 0.08518899 -0.25854647 -0.18075028 -0.089675784 -0.2493958 -0.06629191 0.045857646
-0.09033259 0.3888485 -0.338728 -0.4188161 -0.22233036 -0.32727763 -0.0712118 -0.04405066
-0.3465196 0.060289647 -0.12816766 -0.10880578 0.06336609 -0.24579415 0.041239344 -0.10054367
0.15274322 0.0005179695 0.09316792 -0.08939088 -0.039298113 0.31134838 -0.079376705 0.17975658
0.16855317 0.117172256 0.2080103 -0.042739663 -0.100376114 -0.25175974 -0.21889137 -0.36489946
-0.47985992 0.009992775 0.22964738 -0.06549065 -0.23235124 -0.037431087 -0.016024945 0.21525286
-0.23025946 0.071266085 -0.1611575 -0.028369782 0.0737144 0.33403382 0.020418108 0.5291413
0.083212934 -0.4268043 -0.15140893 0.11643882 -0.18674836 -0.31178942 -0.059364952 -0.13600172
00000000: e860 77be 3aa7 90bd 3fb1 1e3e 6a69 95be
00000010: 19e0 45be 4716 453e 1a60 2fbd b02b 8cbb
00000020: 2115 0dbd 384b 8abe 0ce6 ea3d 22cc bcbe
00000030: f574 0dbc 612e 8d3d b939 b03e e0bf b4bd
00000040: 74f7 77bd a1c1 febc 2dab 38be 90a9 b53e
00000050: f452 84bc 8ac9 22bd f196 54be 4a30 c9bd
00000060: 6769 d5be de12 efbc f6d6 183e cfcb 823e
00000070: 914e a8be 54e8 d43c cacc 93bd e30f 78be
00000080: 8581 213e 0888 19be 04e8 d7be ce1b 8fbe
00000090: 4083 ad3d c051 913d 8406 693d 4710 53bc
000000a0: 7aad 36be d040 ab3d 64ca eebe 5b31 513e
000000b0: 0cb1 24bc 2201 bdbc 3eb3 ca3e cadb 08bf
000000c0: 6be0 ecbe 22c2 83bd 06f0 b3bd 6817 adbe
000000d0: 8f88 2e3e a925 553e 8701 efbe 9bef 66be
000000e0: cb86 f23d f3cf 2d3d ed61 41be 4f75 f5bd
000000f0: 7c81 e13e 1e25 2f3d 910f 06be 4202 cabe
00000100: cdf3 3b3e 05da 89be ac5b fe3d 6f0f 82bc
00000110: 370f 07be c508 aab8 e51b f03d 3051 a4bd
00000120: a1a9 d6be eea0 91bd a8e1 87be d817 0e3e
00000130: 4b8c 583e 112e 12be 7fd1 8a3e af49 183c
00000140: 084b 5a3d 0479 41be d1b4 41be c4ee 3a3d
00000150: f294 3dbe 4fb4 af3e 7441 45bd a50d 08bd
00000160: 08c6 81be 9606 c0bb d8a9 993d 1703 35be
00000170: 80c8 afbe b76c 81be 3e9a 8e3c 4ee8 503d
00000180: 19da 113e b9be b93e 39ec cabe 8b97 2fbc
00000190: 2b18 f43d a71a 383e 12ac 50be 68b4 c5bd
000001a0: b59c a6bd c2a6 d7be 39e0 43be 20eb c9bb
000001b0: 2b2c 88be 1799 56be 37da b6be 5e20 10bb
000001c0: a115 813c fab9 b83d d4d0 c5bd 2b10 60bd
000001d0: e673 afbe bdf5 96be c44d aabe 0af4 a1be
000001e0: 4c23 01be 633f a9bd 0e1c 91bd aaea c33e
000001f0: 0105 0bbe 18eb 973e 904b 0bbe b490 b03d
00000200: 0076 dcbd c69c e2bd 7f3c 4c3e a7bc a13e
00000210: 647e cb3d cc24 b9bd a060 1dbe f4f7 ff3d
00000220: 364a 4d3e 647f 92bc e215 f53b 7a7f 70be
00000230: 1672 a2be 311c 38be f4ea a1bd 8b39 28be
00000240: 838a 25be df7d 38be 623f 93be 049d 83bd
00000250: 6a80 e63d 869f 983e d26f 063d acaa 973e
00000260: f93d 83bd 992e a43c 8b60 24be 351d d3bd
00000270: 2605 723e 5485 90be 94d1 bb3d 192f 1cbe
00000280: b5f8 84be 1822 033d 6010 673a ec54 a53b
00000290: 1518 883d 60d2 c13d 5ad5 a03c 167e 92bd
000002a0: 063b debc d3d6 b2bc a248 463e 2e23 163e
000002b0: c99a 653e 09e1 93be 4170 63be 9f9e 0bbe
000002c0: 136b 733e 5605 42be 0756 a0be 91d4 91bc
000002d0: 86a1 e33d d34d 71bd d847 4a3d 312a d33d
000002e0: 649d 1ebe 825b 60be 0225 aabb 5439 b83e
000002f0: 33d5 eabe 5763 363e 670b b4be 5aa4 f8bc
00000300: 04a2 3f3e 9177 ae3d 3460 84be 9a16 39be
00000310: f0a7 b7bd 9d61 7fbe 0ec4 87bd 3ad5 3b3d
00000320: 4b00 b9bd 2717 c73e c26d adbe 106f d6be
00000330: 92aa 63be ef90 a7be 7ed7 91bd 776e 34bd
00000340: 046b b1be 47f2 763d 623e 03be 91d5 debd
00000350: 15c6 813d 76b1 7bbe 96ea 283d d7e9 cdbd
00000360: b868 1c3e 58c8 073a d3ce be3d 9112 b7bd
00000370: 0ff7 20bd 0e69 9f3e 4190 a2bd 1c12 383e
00000380: 3499 2c3e 02f8 ef3d a700 553e c90f 2fbd
00000390: fe91 cdbd a7e6 80be 0f25 60be 1ad4 babe
000003a0: 33b0 f5be bcb8 233c af28 6b3e f61f 86bd
000003b0: 7ced 6dbe 5751 19bd bf46 83bc 3f6b 5c3e
000003c0: 23c9 6bbe f4f3 913d 7906 25be bf67 e8bc
000003d0: 93f7 963d 7b06 ab3e e043 a73c ce75 073f
000003e0: 8b6b aa3d 1886 dabe f10a 1bbe 7a77 ee3d
000003f0: f63a 3fbe dda2 9fbe aa28 73bd 0944 0bbe

network_body._body_endoder.seq_layers.4.bias f4 [64]
0.09142534 0.019941147 -0.024424264 -0.01382854 0.061313245 0.13424683 -0.09123908 0.12090279
-0.07528027 0.11306544 0.1844905 -0.0024027564 0.032160114 -0.06081276 0.075143054 0.2180787
0.041330114 0.08422589 -0.10089467 0.13819112 0.053798437 -0.03470649 -0.07745211 -0.07018586
0.050400343 0.043393217 0.1322897 -0.039651655 0.021663915 0.11707655 -0.011210446 0.10797576
-0.15698873 0.1248488 0.13582104 0.0033164266 -0.028849231 0.058579694 0.024188003 -0.19878191
-0.01755224 0.07855968 -0.01970702 -0.034902524 -0.030856604 -0.019650845 0.06748693 -0.06870809
0.03862182 0.14980523 0.06607555 -0.000627603 -0.020445365 0.034615748 0.20584013 0.009595811
0.030971121 0.16750859 -0.05153109 0.004906678 -0.15617488 -0.0014486513 -0.117411554 0.22950745
00000000: 353d bb3d 9e5b a33c 6515 c8bc 1a91 62bc
00000010: 9923 7b3d 0078 093e 8edb babd e29b f73d
00000020: 8b2c 9abd da8e e73d 14eb 3c3e 9077 1dbb
00000030: 53ba 033d cd16 79bd 9ae4 993d 0650 5f3e
00000040: c449 293d a07e ac3d dda1 cebd f981 0d3e
00000050: c05b 5c3d 6428 0ebd 369f 9ebd 9bbd 8fbd
00000060: 9770 4e3d 16bd 313d f376 073e c669 22bd
00000070: 8678 b13c d5c5 ef3d 05ac 37bc 6522 dd3d
00000080: a7c1 20be bab0 ff3d ac14 0b3e 6858 593b
00000090: 3955 ecbc 43f1 6f3d eb25 c63c 7c8d 4bbe
000000a0: b7c9 8fbc e6e3 a03d 9e70 a1bc f3f5 0ebd
000000b0: fdc6 fcbc cffa a0bc 9636 8a3d d4b6 8cbd
000000c0: ea31 1e3d 8b66 193e 9e52 873d b985 24ba
000000d0: 0a7d a7bc 3ec9 0d3d c1c7 523e c037 1d3c
000000e0: 26b7 fd3c 5f87 2b3e 4412 53bd 33c8 a03b
000000f0: 4fec 1fbe ace0 bdba 7875 f0bd 0004 6b3e

action_model._continuous_distribution.log_sigma f4 [1, 44]
0.8210129 1.4735237 1.2269467 1.025258 0.8381151 0.9448128 0.8839101 1.0176142
0.9876072 0.8500338 1.277266 0.92477727 0.77940667 0.9394811 1.4326477 0.9531996
0.52963763 0.737568 0.6041234 0.87741405 0.7652241 1.0097821 1.0874034 1.3360955
0.4635476 0.75879914 0.8781525 0.6142775 0.45312873 1.297301 0.940544 0.95819974
1.1054133 0.36894602 0.847543 0.6293671 0.96927845 0.886301 0.70745677 0.61474824
1.2723004 1.2011973 0.55935013 0.9175777
00000000: e72d 523f 6d9c bc3f 970c 9d3f a73b 833f
00000010: b68e 563f 40df 713f ef47 623f 2f41 823f
00000020: d3d3 7c3f d19b 593f 747d a33f 34be 6c3f
00000030: 3287 473f d581 703f 0061 b73f e404 743f
00000040: 5596 073f 42d1 3c3f d5a7 1a3f 359e 603f
00000050: bae5 433f 8a40 813f 0930 8b3f 2d05 ab3f
00000060: 1c56 ed3e a940 423f 9ace 603f 4a41 1d3f
00000070: 7d00 e83e f60d a63f 7ec7 703f 944c 753f
00000080: 2f7e 8d3f 7ee6 bc3e 94f8 583f 341e 213f
00000090: a222 783f 9fe4 623f e31b 353f 2460 1d3f
000000a0: bdda a23f d5c0 993f 9231 0f3f 5fe6 6a3f

action_model._continuous_distribution.mu.weight f4 [44, 64]
0.0010947677 0.0125135295 0.0630733 -0.025270661 -0.017965555 -0.014354112 0.118210666 -0.02276106
0.10986484 0.0070743575 -0.031080808 -0.07785892 -0.16574742 -0.23076002 0.04830533 -0.113802284
-0.26321673 0.20151933 0.03535272 -0.13599822 0.13656981 -0.084205225 0.15679646 0.40415746
-0.12279106 -0.00876241 0.06939142 0.022439616 -0.17671216 0.18676755 0.05956466 -0.1417153
-0.14361033 -0.1328664 0.02719928 -0.12464367 -0.08797602 0.21481135 0.12120983 -0.11721692
-0.14754187 -0.24783556 0.17219053 0.17275861 0.08969806 -0.030929994 0.03734637 0.16712064
0.110631384 -0.054962717 0.18799604 -0.20610724 -0.053666838 -0.05467245 0.044035114 -0.08581067
-0.07985803 -0.014371486 -0.036540043 -0.20665073 -0.049673464 0.19787261 -0.12963578 -0.068486705
-0.3952065 -0.25620866 0.047315195 0.252926 -0.050776478 0.11895205 0.057314202 0.20158423
0.031036679 0.049116075 -0.32396242 0.15182695 0.34296745 0.20835802 0.13821718 0.30662596
0.19629951 -0.09100497 0.08482061 -0.44659454 0.21730162 0.052077774 0.14079203 0.0764103
0.43234876 -0.30869728 -0.046188544 -0.024586337 -0.18958034 -0.37561515 0.07760406 -0.18646231
-0.11303554 -0.22807056 -0.25928602 -0.223201 0.036857948 -0.05003593 0.2928375 -0.07016835
-0.102989815 0.11646487 -0.04242728 0.20234586 -0.049402896 0.09297754 0.042035498 -0.32975128
-0.31267795 -0.114040405 -0.26814198 0.09640347 -0.29497817 -0.23274125 -0.023817586 0.009900122
-0.1786112 -0.15733142 -0.08110785 0.07466996 -0.16208988 0.1537705 0.07343028 -0.1702182
-0.060211614 -0.2469068 0.08551295 -0.12789103 0.15983592 -0.0044840914 -0.022110952 -0.05026918
-0.1479837 -0.13760681 -0.027644128 0.0013153101 -0.16304396 -0.12650037 0.18592672 -0.05923009
0.15772253 -0.06156809 0.029223882 -0.07254445 0.1272719 0.12946588 0.14638832 0.0079877805
-0.04082784 -0.12946388 0.18469562 0.13126726 0.088004515 -0.18104495 0.15402739 0.07698007
0.020151118 -0.019325852 0.1575344 0.25479746 -0.20574589 0.012490486 0.2613494 0.23376454
0.09135569 -0.064147815 0.27967158 0.003552824 -0.051597916 -0.07032669 0.043560166 0.32453743
-0.1497668 -0.24909988 0.1654904 0.14865568 0.0051795985 -0.04210646 -0.18907401 0.22703043
0.36423928 -0.2832856 -0.03728866 0.19969013 -0.21016388 0.10483301 -0.090705715 -0.16341577
-0.0031364334 0.07175549 0.1532134 -0.003283548 -0.108635224 -0.025808278 0.4476486 0.1952305
0.16758932 -0.2528074 -0.20490006 0.0017093578 -0.030769276 0.06433907 0.1464306 0.01996596
-0.34322572 -0.12080134 0.4880978 0.06329344 0.005869615 -0.16497564 0.14177273 0.06352465
0.20194831 -0.11011882 0.05191746 0.17725943 0.11902364 -0.0686595 0.021190383 -0.011719571
-0.047977343 -0.1385514 0.24189636 -0.002763183 -0.14107737 0.011968218 0.0636787 0.09551734
0.07688327 0.10507044 0.017836072 -0.3943822 -0.016766403 0.1962872 0.20520125 0.07247063
0.0892577 0.2677 0.02678868 -0.15340571 -0.062049072 0.20971121 0.17636852 0.16024035
0.0292349 -0.35251117 -0.047190916 -0.099629834 0.31787407 0.1444254 0.13364682 -0.15500583
00000000: 4f7e 8f3a 8c05 4d3c 932c 813d 6b04 cfbc
00000010: 802c 93bc 822d 6bbc 6f18 f23d 6775 babc
00000020: d100 e13d 03d0 e73b 2e9d febc 7f74 9fbd
00000030: b1b9 29be 5b4c 6cbe cfdb 453d 2c11 e9bd
00000040: 58c4 86be 155b 4e3e 04ce 103d 1e43 0bbe
00000050: f5d8 0b3e ca73 acbd 408f 203e baed ce3e
00000060: e179 fbbd 3690 0fbc 171d 8e3d 49d3 b73c
00000070: 08f4 34be fe3f 3f3e 13fa 733d d11d 11be
00000080: 960e 13be 210e 08be 06d1 de3c 2e45 ffbd
00000090: c62c b4bd 82f7 5b3e dc3c f83d 6d0f f0bd
000000a0: 3715 17be 9bc8 7dbe b752 303e a2e7 303e
000000b0: 9eb3 b73d e660 fdbc 82f8 183d ac21 2b3e
000000c0: b592 e23d 9620 61bd 0982 403e c70d 53be
000000d0: c2d1 5bbd 38f0 5fbd 2a5e 343d 81bd afbd
000000e0: 9b8c a3bd 6276 6bbc 03ab 15bd 409c 53be
000000f0: 6776 4bbd 1e9f 4a3e 3ebf 04be c242 8cbd
00000100: 8258 cabe c82d 83be 94cd 413d 847f 813e
00000110: fffa 4fbd 229d f33d 4cc2 6a3d 196c 4e3e
00000120: a240 fe3c f02d 493d 67de a5be 8678 1b3e
00000130: 6e99 af3e ce5b 553e ce88 0d3e 14fe 9c3e
00000140: bd02 493e d060 babd 6eb6 ad3d 0aa8 e4be
00000150: 5184 5e3e 814f 553d c92b 103e 017d 9c3d
00000160: d15c dd3e 920d 9ebe 3330 3dbd 4969 c9bc
00000170: 5921 42be a150 c0be e1ee 9e3d faef 3ebe
00000180: 2d7f e7bd 548b 69be 23c1 84be ce8e 64be
00000190: 5cf8 163d 7af2 4cbd ccee 953e 6db4 8fbd
000001a0: 53ec d2bd 2285 ee3d 3ac8 2dbd c133 4f3e
000001b0: b15a 4abd 026b be3d 6a2d 2c3d 29d5 a8be
000001c0: 5317 a0be 048e e9bd e849 89be 2f6f c53d
000001d0: 6107 97be b953 6ebe 191d c3bc 1f34 223c
000001e0: dbe5 36be 7d1b 21be df1b a6bd 90ec 983d
000001f0: e4fa 25be 0476 1d3e 9d62 963d ae4d 2ebe
00000200: 74a0 76bd 23d5 7cbe 6a21 af3d def5 02be
00000210: 07ac 233e 49ef 92bb 0722 b5bc 0ee7 4dbd
00000220: 0a89 17be cde8 0cbe f075 e2bc 7c66 ac3a
00000230: fff4 26be 5089 01be 9363 3e3e 409b 72bd
00000240: 0482 213e d22e 7cbd ec66 ef3c 2f92 94bd
00000250: 9153 023e b492 043e d2e6 153e 2edf 023c
00000260: 183b 27bd 2e92 04be d920 3d3e ed6a 063e
00000270: b63b b43d d963 39be 5bb9 1d3e baa7 9d3d
00000280: f513 a53c 4051 9ebc b350 213e d074 823e
00000290: 0daf 52be e5a4 4c3c 97cf 853e f95f 6f3e
000002a0: b118 bb3d ee5f 83bd 1d31 8f3e 7fd6 683b
000002b0: 5658 53bd 7107 90bd 256c 323d c529 a63e
000002c0: 785c 19be 0a14 7fbe 5176 293e 3239 183e
000002d0: 9fb9 a93b d377 2cbd 9e9c 41be aa7a 683e
000002e0: 927d ba3e cf0a 91be febb 18bd 927b 4c3e
000002f0: 3335 57be b0b2 d63d ebc3 b9bd 7756 27be
00000300: 9f8c 4dbb 8bf4 923d f9e3 1c3e cb30 57bb
00000310: 257c debd e26b d3bc 3332 e53e 81ea 473e
00000320: 899c 2b3e f96f 81be 52d1 51be 880c e03a
00000330: d90f fcbc 34c4 833d e7f1 153e a78f a33c
00000340: 48bb afbe b166 f7bd f4e7 f93e fe9f 813d
00000350: e655 c03b 60ef 28be df2c 113e 3619 823d
00000360: 8acb 4e3e fa85 e1bd 67a7 543d 7f83 353e
00000370: abc2 f33d 5a9d 8cbd 7497 ad3c 7203 40bc
00000380: e483 44bd 6be0 0dbe aeb3 773e 8516 35bb
00000390: 9676 10be 5816 443c fa69 823d 989e c33d
000003a0: fa74 9d3d 2c2f d73d f41c 923c 77ec c9be
000003b0: b259 89bc 83ff 483e 4720 523e 7b6b 943d
000003c0: becc b63d f90f 893e ef73 db3c 6316 1dbe
000003d0: 2b27 7ebd 89be 563e f399 343e 0c16 243e
000003e0: 077e ef3c 587c b4be 434b 41bd ba0a ccbd
000003f0: 64c0 a23e 41e4 133e b6da 083e d9b9 1ebe

action_model._continuous_distribution.mu.bias f4 [44]
0.045888484 -0.110696875 -0.039646335 -0.11516321 0.0011298833 -0.0018807761 0.1082559 0.10181481
-0.0125633655 -0.077837616 0.0056665116 -0.06023525 -0.0716037 -0.002427912 0.004997349 -0.10241658
-0.062376194 -0.18422163 -0.25428635 -0.2641271 -0.09660013 -0.027027002 -0.13739306 -0.17228507
-0.06075177 -0.23496838 -0.2918928 -0.22281876 -0.13298105 0.06464375 -0.13219085 -0.20151617
-0.35591578 -0.11822464 -0.19205649 -0.049668696 -0.0051429886 -0.1121292 -0.13155267 0.0024562017
-0.12767327 -0.15090376 -0.08778256 0.20666331
00000000: 90f5 3b3d 0bb5 e2bd 3264 22bd b0da ebbd
00000010: 9818 943a 6084 f6ba 45b5 dd3d 4884 d03d
00000020: 93d6 4dbc 5469 9fbd 25ae b93b 3db9 76bd
00000030: f6a4 92bd 9b1d 1fbb cdc0 a33b c9bf d1bd
00000040: 2e7e 7fbd 98a4 3cbe d231 82be ab3b 87be
00000050: 4ad6 c5bd bb67 ddbc c4b0 0cbe 7f6b 30be
00000060: d9d6 78bd 8d9b 70be f972 95be 9a2a 64be
00000070: 2f2c 08be f163 843d 0a5d 07be 415a 4ebe
00000080: 983a b6be c31f f2bd 75aa 44be 6771 4bbd
00000090: 8486 a8bb fea3 e5bd beb5 06be 3af8 203b
000000a0: c8bc 02be 8486 1abe 58c7 b3bd 8c9f 533e
