results/b090reremaze2/Dynamic Table/Dynamic Table-4199998.onnx (onnx, 74582 bytes, 9 tensors)

network_body._body_endoder.seq_layers.0.weight f4 [64, 94]
000000 32 85 60 3e 71 08 52 be f2 5f de bc 88 20 2d 3e
       0.2192581 -0.20511033 -0.02714536 0.16906941
000010 9e b9 5d bd 5e 68 eb bc c7 e1 18 3e 34 72 13 be
       -0.054132096 -0.02873629 0.14929877 -0.14399034
000020 cb b5 d1 be 56 7c a3 be 32 f6 50 3d 95 9b 4d 3d
       -0.4095901 -0.31930798 0.05101604 0.050197203
000030 7b 1a 7f 3e a1 f7 eb 3c 10 3c 5b be 7c 3e 3f be
       0.24912445 0.028804602 -0.21409631 -0.1867618
000040 f3 85 82 be ab 60 d8 bd e8 50 ea 3d ae 79 34 3e
       -0.2549282 -0.10565313 0.11441213 0.17624542
000050 88 97 77 3e 4b 30 5f 3e d7 79 ea bd e0 b5 a6 bd
       0.24178898 0.21795766 -0.1144902 -0.08140159
000060 1d 0e 0c be e8 dd 6d bd 8e 15 ec 3d b5 38 9b 3e
       -0.13677259 -0.058072954 0.11527549 0.30316702
000070 c1 34 38 3d f0 4c 13 be b1 50 8e be 18 d1 49 be
       0.044972185 -0.14384818 -0.27795938 -0.19708669
000080 95 22 7f 3d 6a 5a db bc a7 32 4c 3d 32 d8 1f bd
       0.06228884 -0.026776511 0.049852993 -0.03902454
000090 69 e8 02 be 8a be 92 3e f0 b0 e7 3d d2 4a 22 be
       -0.1278397 0.28660995 0.11313045 -0.15848854
0000a0 5e b1 0e bd 9d 00 cd 3d ee 3c c4 bd 76 fe 68 3e
       -0.03483712 0.100098826 -0.09581934 0.22753319
0000b0 b9 3f 3d 3e 69 6c 16 3c 06 0a 9b bc fb 30 d1 3d
       0.1848134 0.00918112 -0.018925678 0.102144204
0000c0 61 35 20 bc d3 0e 25 be 54 79 d8 bd 35 1f ad bc
       -0.0097783515 -0.16118936 -0.105700165 -0.021133045
0000d0 08 45 24 be 09 60 73 be de e5 a7 3d e3 f8 73 be
       -0.16041958 -0.23767103 0.081981406 -0.23825411
0000e0 a2 a1 7b bd 02 d3 a1 be 6e c8 84 bd 7d c7 32 be
       -0.061433442 -0.316063 -0.064835414 -0.17458911
0000f0 a1 00 a6 bd a3 16 64 bd 8d 7b f4 bd 0d 42 58 be
       -0.08105589 -0.05568565 -0.11937628 -0.21118946
000100 00 17 b5 3d d2 41 3f be ac 7d c3 bd 77 cd e6 bd
       0.088422775 -0.18677452 -0.095454544 -0.11269658
000110 62 5d 5b 3e f0 7e 8e be 92 2e 8c 3d 38 a7 e4 bd
       0.21422341 -0.2783122 0.0684482 -0.11164707
000120 ec 0b 7e be f5 9f 19 3e bd 25 00 bf 93 dd a0 be
       -0.24809235 0.15002425 -0.50057584 -0.31419048
000130 25 2f f8 3d 7c 4d f5 bd ee c2 08 bd cd 15 3e 3e
       0.12118367 -0.119776696 -0.033389024 0.18563004
000140 11 ee 30 be 75 fc b0 be 45 29 40 be 4c d1 2d 3e
       -0.17278315 -0.3456761 -0.18765743 0.16974372
000150 4f 88 82 3c 57 33 9e ba ff 10 75 bd b4 6d 25 be
       0.015934138 -0.0012069744 -0.059830662 -0.1615513
000160 89 46 9e 3d d6 0c 8f 3d dc 2c c5 bc 5c 96 00 3e
       0.07728297 0.0698487 -0.024069242 0.12557358
000170 59 23 5c 3d fa 8d 3a bd a9 c0 dc 3d 3f e3 ed 3d
       0.053744648 -0.045545556 0.107789345 0.116156094
000180 fa a3 9c bd 75 3e 60 be 3b 95 77 3e e8 f7 ae bc
       -0.076484635 -0.21898825 0.2417802 -0.021358445
000190 fc 08 93 3d 4d 46 78 3d c5 8f 22 3d 9e 1a 1c be
       0.07179448 0.06061392 0.03968789 -0.15244529
0001a0 3d 70 47 bb cf ab c0 be 4f b2 47 bd a3 6a e4 3d
       -0.003043189 -0.3763108 -0.048754033 0.11153152
0001b0 92 fc 24 bd 9e c2 fc bd 81 0c 55 be 1d 0d 22 3e
       -0.040279932 -0.12341808 -0.20805551 0.15825315
0001c0 a4 78 10 3e cd 7d d7 3d 79 5b f6 bd 6d dc 6e 3e
       0.14108521 0.105220415 -0.12029166 0.23326273
0001d0 39 23 09 be b4 0d d3 3d 6b a5 29 3e c2 b1 a0 bc
       -0.13392343 0.10305348 0.16567008 -0.019616012
0001e0 6c 7a 80 3e 89 fb d7 3d 1b 71 02 3e 2e 96 30 bc
       0.250934 0.105460234 0.12738459 -0.010777993
0001f0 0c 7a 65 be 9e 9b 21 3e c1 68 37 3e 60 d0 c2 3e
       -0.22409838 0.1578202 0.17911054 0.38049603
000200 49 db 59 be 8c 10 0a 3e b8 a4 24 be cf 9c dc 3d
       -0.21275057 0.13482875 -0.1607846 0.10772096
000210 99 a9 2f be d8 9d 97 3d 1c d9 33 3e 38 e9 9d bd
       -0.1715454 0.07403153 0.1756329 -0.077104986
000220 3f 10 7a 3c 56 d3 33 3e cb c2 05 3f 11 39 9d 3d
       0.015262662 0.17561087 0.52250355 0.076769
000230 2e 07 91 3c c5 5d 9b be a6 9a 4c 3e 98 5d 8a be
       0.017703619 -0.30344978 0.19980869 -0.2702453
000240 30 c2 1e 3e 32 48 80 3d b3 44 18 bd 40 16 0d bd
       0.15503764 0.0626377 -0.03717489 -0.034445047
000250 35 27 d5 bd 0a 23 9a bd c2 53 08 3c b2 cf aa 3c
       -0.10407869 -0.075262144 0.008320751 0.02085099
000260 9a 80 67 3d b4 2d 9b bd 2f a6 52 3e 56 8d 9a 3d
       0.05651913 -0.075770766 0.20571207 0.07546489
000270 c1 52 bf 3d ee c9 39 bd e4 5c c6 3d fb 4d 85 be
       0.09341956 -0.04535859 0.09685686 -0.26036057
000280 94 14 91 3d d5 fd c0 3c 44 10 9d 3d 1f d0 b2 bc
       0.07084003 0.023558537 0.07669118 -0.021827755
000290 31 2d b8 bd ca 71 fa bd 08 1b 12 be cf 9a c8 3b
       -0.089929946 -0.12228735 -0.14268124 0.0061219702
0002a0 be c6 04 3e 6d 81 d9 bd 56 f4 47 bd d5 ab 51 3d
       0.12966439 -0.10620389 -0.048817 0.051189262
0002b0 b8 3b 14 3e 64 b4 0d bc fc 86 ca 3c af a5 de bd
       0.14475906 -0.0086489655 0.024722569 -0.108714454
0002c0 77 1a 3c be 79 af 7c be 34 61 dc bd e6 29 f7 bd
       -0.1836947 -0.24676313 -0.107607275 -0.12068538
0002d0 9d 24 ee bd 7a e8 8e bd e9 35 b7 bd 04 55 8e bd
       -0.11628077 -0.06977935 -0.089458294 -0.06949809
0002e0 53 0e 35 be 82 1b 4f bc 44 e5 12 3e 54 13 11 3d
       -0.17681246 -0.012640836 0.1434527 0.035418823
0002f0 56 e6 0c be 16 a6 9d bd 8e 55 57 be 68 82 7a be
       -0.13759741 -0.07697694 -0.2102873 -0.24463809
000300 b0 bc 30 3d 11 e9 95 3d 9d 23 42 be 64 7d 31 be
       0.043148696 0.073198445 -0.18958898 -0.17332989
000310 a5 ce 01 bf cf 7a ae be 69 74 66 be 99 d5 1f be
       -0.5070594 -0.3407807 -0.22505344 -0.15608825
000320 ec cc 19 be e2 e7 92 bc 21 2a fa bd 93 f1 b7 bd
       -0.15019578 -0.017932836 -0.12215067 -0.089816235
000330 dc dc 08 be ba 26 1e bc e6 b5 f9 3d c0 7f e3 bd
       -0.13365501 -0.009652788 0.121928975 -0.11108351
000340 63 d7 09 3d 91 28 08 be 04 ac a7 be 71 88 91 be
       0.033652674 -0.13296725 -0.32748425 -0.2842441
000350 83 1f 70 bd 9d 0e 90 3e 58 62 f4 3d d4 44 ab 3e
       -0.058623802 0.2813615 0.1193282 0.3345095
000360 a5 24 3f be 83 89 5f be 0f dd b4 bd 5a 98 cb bd
       -0.18666323 -0.218298 -0.08831226 -0.09941168
000370 62 c2 10 3e 3c 86 1e 3f 44 b0 22 be d6 7a 24 3e
       0.14136651 0.61923575 -0.15887552 0.16062483
000380 de fc cf be 05 5c 26 bd 11 0c d0 bb c7 9d 13 be
       -0.4062261 -0.0406151 -0.0063490947 -0.14415656
000390 75 ac 7b 3e ea 22 84 bd 7c 88 fd bd f5 06 70 bd
       0.24577506 -0.06451972 -0.12379548 -0.058600385
0003a0 9a a0 28 3e f4 bd a5 3d 14 0a 8b bd be e4 ab bd
       0.16467515 0.08092871 -0.067890316 -0.083932385
0003b0 c8 3d 9f 3d 96 f8 1a 3e c2 05 e2 3d 53 6f 90 bd
       0.07775456 0.1513389 0.110362545 -0.070524834
0003c0 ce 54 d4 bc 1e 41 8f 3e 15 b3 17 3c b2 2f 59 3c
       -0.025919344 0.27979368 0.009259005 0.013256
0003d0 b0 6c e4 3c 8c 74 a3 be 74 76 8f bd be a1 81 be
       0.027883857 -0.31924856 -0.07005015 -0.25318712
0003e0 c8 40 be be 43 45 5e 3e 97 a3 31 be e8 10 06 bd
       -0.371588 0.21706109 -0.17347561 -0.032730967
0003f0 17 88 93 3e 72 51 57 be 1a 45 ce 3d e0 31 1d 3e
       0.28814766 -0.21027163 0.10071774 0.15351057

network_body._body_endoder.seq_layers.0.bias f4 [64]
000000 db 03 62 bc 80 82 35 bd 65 2a 9a 3c cb 9f ae bc
       -0.0137948645 -0.044313908 0.018819043 -0.02131643
000010 08 84 30 3c 9d 8f 7f 3b c4 0d 0f 3d f9 67 5e 3d
       0.010773666 0.0038995512 0.034925237 0.054298375
000020 3b b3 b4 bc c2 a4 9b bb 4a af 21 bd 7c 5a c0 3c
       -0.02205812 -0.0047498653 -0.03947381 0.023480646
000030 a6 c4 0d 3d c4 96 b6 bc 4b 3d 00 bd 93 6f e3 ba
       0.034611367 -0.022288688 -0.031308454 -0.0017351977
000040 48 b0 97 bd 94 f1 70 3d 41 d5 c5 3c 76 4c 47 bd
       -0.0740667 0.058824137 0.024149539 -0.048656903
000050 9c 59 f5 b9 43 5c af bc 82 86 f3 bc 03 ef 6b bd
       -0.00046796806 -0.021406299 -0.029727224 -0.057600986
000060 20 56 67 bd dc 4d 01 bd 64 c9 f6 bc 9d ab 32 3d
       -0.05647862 -0.031568393 -0.030125327 0.043620694
000070 1d 37 82 3d 1a e2 af bc 7d 45 e8 bc be 6c 9c bc
       0.06358168 -0.021470118 -0.028353447 -0.019094821
000080 c0 e3 9d 3b 1d 77 0d 3b 05 21 64 bd fb 82 a4 bc
       0.0048184097 0.002158589 -0.055695552 -0.020081988
000090 b5 e3 3d 3c dc e4 3e bc a0 a0 76 3d b3 ff 5d 3d
       0.011589934 -0.011651244 0.060211778 0.054198932
0000a0 9c 27 90 bc 15 0d ea 3b 72 12 ab 3b eb ad c1 bc
       -0.017597012 0.007142673 0.0052207047 -0.0236425
0000b0 70 46 86 bc 3f 90 15 3d 33 a6 c6 bc b2 e1 fe bc
       -0.01639101 0.036514517 -0.024249172 -0.03111348
0000c0 d3 92 87 bd 2a ca 0d 3d cf 73 30 bc d0 ba 11 bc
       -0.06619801 0.034616627 -0.010769798 -0.008894637
0000d0 2b a0 45 bc cc b0 10 bd 44 de 08 3d 09 df 81 bc
       -0.012062113 -0.035324857 0.033415094 -0.015853422
0000e0 34 8e d3 bd 55 0d 6e bb 55 ae 0c 3d 6a 20 9c bc
       -0.103298575 -0.0036323864 0.034345943 -0.019058425
0000f0 3e e7 3c bc bf 00 93 bd d7 18 c3 bc b1 aa a7 3d
       -0.011529742 -0.07177877 -0.023815555 0.08186854

network_body._body_endoder.seq_layers.2.weight f4 [64, 64]
000000 14 0e 4e 3c 84 53 70 be 45 05 05 be 94 10 e1 3d
       0.012576599 -0.23469359 -0.12990291 0.1098949
000010 8b ed 68 be 9e a7 99 3d 9b 95 8a 3e 64 6a fb 3d
       -0.22746865 0.075026736 0.27067265 0.12276152
000020 c6 a9 b8 be 47 2d 99 3d 25 d8 17 3e 51 59 fe 3c
       -0.36067027 0.07479339 0.14828546 0.031048449
000030 3e a3 cd bd 1a 04 98 3d a5 5a 5b bd a0 fb b6 bd
       -0.100409016 0.07422657 -0.053553242 -0.089347124
000040 ef 04 0b be f8 33 64 3d db 09 34 3e ff 49 c4 3c
       -0.13576101 0.055713624 0.17581885 0.023961065
000050 bc 6d e0 3c 41 17 46 3d 34 19 aa be b7 85 8c 3d
       0.027396075 0.04836202 -0.33222353 0.068614416
000060 bc 57 15 3c 15 e3 01 3e a7 af b7 bc 06 c5 dd bd
       0.009115156 0.12684281 -0.022422625 -0.10828595
000070 4f 52 cd bc b9 5d 69 bb 36 11 6a be 98 2f cb be
       -0.025063662 -0.0035608842 -0.22858128 -0.3968475
000080 93 45 6d 3d 4f a4 c8 3e 20 3f b3 3c 27 ea 71 be
       0.05792768 0.39187858 0.021880686 -0.23624478
000090 5d bf 5a be fc 02 88 3c eb d7 e5 bd 84 19 f6 3d
       -0.21362062 0.016602986 -0.11222824 0.120165855
0000a0 34 d1 b8 3c 02 35 17 3e 9d fd 48 3e 6e 2f 29 be
       0.022560693 0.14766315 0.19627996 -0.16521999
0000b0 e7 c8 a1 3d 89 f1 3e 3e 37 b9 b6 3e f1 ac 08 3e
       0.07899647 0.18646826 0.35688183 0.13347222
0000c0 18 4b 54 bd 25 d9 b0 3e 82 61 0d be 5d 2c 78 3e
       -0.051829427 0.34540668 -0.13806728 0.24235673
0000d0 d6 08 b8 3d e9 76 22 be bb d2 bf 3e 54 b7 cd 3d
       0.0898606 -0.15865673 0.37465462 0.10044733
0000e0 a8 ed df 3d 52 6d 3a be 73 07 9e 3e b7 c4 bb 3d
       0.10934001 -0.18205765 0.30865058 0.0916838
0000f0 84 c0 9d be 9e 4a 90 3d c2 a6 03 bf 2f 22 e0 bc
       -0.3081094 0.07045482 -0.5142633 -0.02736005
000100 db 5a 9f 3d f9 bc 1c 3e f0 41 95 be 87 1f 56 be
       0.07781001 0.15306462 -0.2915187 -0.20910464
000110 32 e9 cc bd b5 03 0e bc fa 27 eb bd 30 23 cb bd
       -0.10005416 -0.008667876 -0.11482234 -0.09918821
000120 01 93 20 be 48 58 39 3d 00 55 9d 3c 7c 58 8c 3e
       -0.15681078 0.045250207 0.01920557 0.27411258
000130 40 05 ff bd 10 d4 3d 3e 11 14 e1 bd c8 3c 9c bd
       -0.12452173 0.18537927 -0.109901555 -0.076287806
000140 66 6f a0 bd 81 02 6a 3d 8d 00 1b bf 94 df 02 be
       -0.078337476 0.057131294 -0.60547715 -0.12780601
000150 40 3c 7b be b8 61 9d 3d d0 6a 9c 3e 53 00 80 3d
       -0.24534702 0.07684654 0.3055024 0.06250062
000160 b7 de 92 bc bd b0 34 3e c7 94 49 be 41 a0 9a bc
       -0.017928464 0.17645545 -0.1968566 -0.018875243
000170 c4 ec 06 3d b3 d5 02 3e 6e 2f d7 bd 43 06 af 3d
       0.03294064 0.12776832 -0.10507093 0.08546116
000180 a7 db 19 3e 2c 87 0d bd 33 ee 02 bf 5e 89 de 3c
       0.15025197 -0.034552738 -0.51144713 0.027165111
000190 b3 d2 bc bd a3 ed e3 bd 95 1b 77 be 81 a6 aa 3c
       -0.09219875 -0.1112931 -0.24131615 0.020831348
0001a0 f1 22 62 be c0 0d bf bd 2a 20 6b 3c 6b d0 b0 3e
       -0.22083642 -0.093287945 0.01435093 0.3453401
0001b0 92 3b 9e 3e 0c 35 3d 3e 58 a4 c8 be b0 0b 9c bd
       0.30904824 0.18477267 -0.39187884 -0.07619417
0001c0 f3 88 f9 3d f3 c5 61 be 31 c9 07 be 82 42 fa bd
       0.12184324 -0.22048168 -0.13260342 -0.122197166
0001d0 d9 bb 8c 3e 33 8d b3 3e f5 17 32 3e ee 5b 9b be
       0.27487066 0.35068664 0.17391951 -0.30343574
0001e0 5a 54 53 be ac 6b 82 3c 59 27 7f bc 96 24 7f 3e
       -0.20637646 0.015920483 -0.015573346 0.249163
0001f0 67 4f 85 3e db e7 72 3e 60 1b eb 3e 21 cc 35 be
       0.26037142 0.23721258 0.45919323 -0.1775365
000200 fe fd 88 3d 9f 29 21 3c 4d 8e b5 be 62 a3 ea be
       0.0668907 0.009836583 -0.3546013 -0.45827776
000210 d4 11 6b 3e 96 a7 a4 bd ad b7 55 be 9b a4 3c be
       0.2295602 -0.08039777 -0.20870848 -0.18422167
000220 92 1c 15 3d fb 1f 12 3e 4c 62 5b be 98 49 74 be
       0.0364042 0.14270012 -0.21424216 -0.23856199
000230 f4 f1 83 be 7f f6 73 bc fb 13 45 3e a2 a4 88 3e
       -0.25770533 -0.014890312 0.19245903 0.26688105
000240 57 ff 8e be b7 bb 50 3c 80 87 bb be 74 d9 93 be
       -0.27929184 0.012740067 -0.36626816 -0.2887684
000250 84 60 a5 3d e5 d8 66 3e f4 4c 11 3e 7a 15 6c 3e
       0.080750495 0.22543676 0.14189512 0.23055068
000260 a4 c4 e2 bd 99 aa f5 3d 7f ba 73 be f2 99 0d be
       -0.110726625 0.119954295 -0.23801611 -0.13828257
000270 1b 3a ac 3e 22 60 45 3e 21 ec e4 3d 1a c3 e3 3d
       0.3363808 0.19274953 0.111778505 0.11121197
000280 d7 fb 90 be c8 d1 96 be 58 06 9a bd c3 27 bf be
       -0.2831714 -0.29456925 -0.07520741 -0.37335023
000290 a7 e4 96 3c 3b b7 9f bd 7e 1f 42 3d 97 7c 1c 3d
       0.018419577 -0.0779862 0.047393315 0.038204756
0002a0 15 49 ea 3d 47 09 b5 3d 43 97 a7 3b af 6c 4d 3d
       0.114397205 0.0883966 0.0051144673 0.050152477
0002b0 02 da 85 3e 0c c7 8a be 86 51 95 be c3 97 dd bd
       0.2614289 -0.27104986 -0.2916376 -0.10819962
0002c0 b7 d8 58 3e b9 cb b9 bc 1e 50 d8 be 7e 9d cf be
       0.2117642 -0.02268015 -0.42248625 -0.40549845
0002d0 c3 c7 24 3e 2f 63 5e 3d fe 8c 47 be f6 80 9e be
       0.16091828 0.054293808 -0.19487378 -0.30957764
0002e0 06 0f bc 3d 97 49 0f 3d 5c 9a 8a 3e 50 7a c5 bd
       0.09182553 0.03498229 0.27070892 -0.0964247
0002f0 f4 b2 62 be b2 6b 8d 3d 4f 5f 16 3e 71 94 de bd
       -0.22138578 0.06905307 0.14684795 -0.10868157
000300 18 3c 86 3e cf 94 a9 3c 7d 39 64 3e ea be 4a 3e
       0.26217723 0.02070084 0.22287555 0.1979939
000310 99 f4 2d 3e 1c 49 4b 3d ed 19 15 3d 44 24 e0 bd
       0.16987838 0.04963027 0.036401678 -0.10944417
000320 6d d2 66 bd fd f5 19 be 28 42 4d bd b6 e3 65 3e
       -0.05635302 -0.15035243 -0.05011192 0.22450146
000330 1c a3 b2 3e 7e 62 48 be 6c d9 42 be 7e f5 b7 3d
       0.34890068 -0.19568822 -0.19028252 0.08982371
000340 91 18 58 bd 40 dd 36 be 2b 95 63 be aa 9e 00 3e
       -0.052757803 -0.17857838 -0.22224872 0.12560526
000350 cf 37 c4 be 5c da 7e 3e fb b1 27 be a3 03 9b be
       -0.3832383 0.24887985 -0.16376488 -0.30276212
000360 66 93 07 be 5a 0e 30 bd 99 e6 11 3e 01 0c d7 3c
       -0.13239822 -0.042982437 0.14248122 0.026250841
000370 67 9e dc bd 96 70 8c be 5b ae ed 3c 66 98 f1 be
       -0.107724 -0.27429646 0.029013803 -0.47186583
000380 8f af 15 3e 58 fd c8 3e 76 b4 63 3d 45 ff c6 3d
       0.14617752 0.39255786 0.055592023 0.097166575
000390 30 08 f9 3d e2 17 2a bd fe dc a4 3d 57 b1 bd 3d
       0.12159765 -0.041526683 0.080499634 0.092623405
0003a0 0f af c5 bc 16 26 86 3e 8b 0c b7 bd 44 c4 4d bd
       -0.024131326 0.26200932 -0.08937939 -0.050236
0003b0 6e fe fd bb 69 ac 52 3e 8c 84 0a bb e8 68 df be
       -0.0077512776 0.20573582 -0.0021136133 -0.43634725
0003c0 a0 a5 ef be e0 7b 36 3e eb 54 76 3e 12 4c f2 bd
       -0.4680605 0.17820692 0.24055831 -0.118309155
0003d0 2c c3 9b 3e 3e 27 72 be 8c 69 95 be 5f 92 64 3e
       0.30422342 -0.23647782 -0.29182088 0.22321461
0003e0 da 62 35 3e dd ab 27 bd 05 02 2e be ae 3d 3e be
       0.1771349 -0.040935386 -0.16992958 -0.18578216
0003f0 16 55 df 3e cc 5f 63 bd ba 1e b5 be 4e d5 d2 3c
       0.43619603 -0.05551128 -0.35375005 0.025736477

network_body._body_endoder.seq_layers.2.bias f4 [64]
000000 90 64 7e 3d ea 5e 14 3e 45 d5 89 3c d7 91 10 3d
       0.062107623 0.14489332 0.016825328 0.035295334
000010 0c 2b 8a bd 67 48 b5 bc 41 27 6f 3d 6f c2 03 bd
       -0.06746492 -0.02212925 0.058387045 -0.03216785
000020 8a 74 e8 3c e9 b2 80 bd 91 5e ea 3b 2d ec 5f bd
       0.028375883 -0.062841244 0.0071523865 -0.054668594
000030 80 1e 96 3d 4d c7 36 3d e3 30 01 3d 14 d2 91 3d
       0.07330036 0.04462366 0.031540763 0.07120147
000040 b4 51 89 3c ad d9 81 bd 72 08 43 3c 3e 39 85 bc
       0.016762592 -0.063403465 0.011903869 -0.016262647
000050 ea 5e e5 3c 46 b1 de 3a d2 e3 99 bd 2e 8b 7d bd
       0.02799936 0.0016990087 -0.075141564 -0.06190031
000060 8b d4 09 bc da 81 bb 3d e6 5e 65 bc cc 73 c4 bd
       -0.008412491 0.091556266 -0.013999676 -0.09592399
000070 cd b1 85 bc f3 7b 14 3d e3 a3 42 3c 67 cb 44 3a
       -0.016320134 0.03625102 0.011879894 0.0007507116
000080 d4 fe 62 bc 4b cf 79 3d 59 0e ce 3d c2 5a c8 bd
       -0.013854701 0.060988706 0.1006133 -0.09782936
000090 84 90 ff 3c 44 5f 96 3d dd 20 05 be f9 22 d9 3c
       0.03119684 0.07342389 -0.13000818 0.026505934
0000a0 c2 81 b2 bb 30 73 86 3c ae 13 ee bd 1c 03 b0 3d
       -0.0054475972 0.016412348 -0.11624847 0.08594343
0000b0 fb 62 2f 3d f4 2c 54 3d 37 b0 09 3d a8 69 9c 3c
       0.042819005 0.051800683 0.033615317 0.01909335
0000c0 48 6a 5f bd f2 2b db 3d 1c 0d 2e bc ed 9e 58 bd
       -0.054544717 0.10701741 -0.010623243 -0.05288594
0000d0 10 1b ba 3d 25 14 1f bd a6 95 cb bc 48 58 f2 bb
       0.09087193 -0.03883757 -0.024851631 -0.007395778
0000e0 50 c6 28 ba 4e af f5 bb c1 34 28 be 1e cb 0e be
       -0.0006438242 -0.0074977046 -0.16426374 -0.1394467
0000f0 19 5d fb 3b c6 70 48 bd 1d d1 96 3c 37 c6 72 bd
       0.00767101 -0.048935674 0.01841026 -0.059271064

network_body._body_endoder.seq_layers.4.weight f4 [64, 64]
000000 01 c4 86 be 40 78 22 bd 49 2b 7a 3e df 74 96 be
       -0.26321414 -0.03966546 0.24430574 -0.2938604
000010 e4 51 75 be ca 30 44 3e cc f9 7a bd f8 f2 11 3c
       -0.2395702 0.19159237 -0.06127338 0.008908026
000020 e3 47 47 bd 2e c2 9a be bf d3 89 3d 63 17 b9 be
       -0.04865254 -0.30226272 0.067298405 -0.36150655
000030 2a 2f 2e 3b a7 1b 78 3d 48 80 a7 3e a6 bf 04 bd
       0.0026578405 0.060573246 0.32715058 -0.032409333
000040 d2 b9 7c bd f5 3f a5 bc 43 e3 c8 bd 07 db a8 3e
       -0.06170065 -0.020172099 -0.09808972 0.32979605
000050 66 05 52 bd 4e e3 96 bd 53 d8 4a be ba 76 e5 bd
       -0.05127468 -0.07367574 -0.19809084 -0.11204286
000060 09 8b ca be cf e0 a6 bd 9a 35 78 3d 56 56 55 3e
       -0.395592 -0.081483476 0.060597993 0.20833716
000070 3a 10 ad be fe fd 26 bd a8 00 d7 bd 51 31 84 be
       -0.33801442 -0.04076957 -0.10498172 -0.25818875
000080 cd 34 1a 3e 59 54 1d be 7a d6 c0 be 5c ce a4 be
       0.15059204 -0.15364207 -0.37663633 -0.3218869
000090 ae 0f 4e 3c 49 e0 36 3d da 90 13 3b c0 f3 cd bd
       0.0125769805 0.04464749 0.0022516758 -0.10056257
0000a0 6b 61 23 be 6e c2 58 3d 4e 35 e3 be b1 b0 42 3e
       -0.15955131 0.052919798 -0.44376606 0.19012715
0000b0 8a 97 d9 3c 22 75 a1 bc 2a af cb 3e 0b d2 f9 be
       0.026561517 -0.019709174 0.39782077 -0.48793063
0000c0 1b 2b f1 be 51 1d 14 bc d6 23 e5 bd c6 1c c2 be
       -0.471032 -0.009040193 -0.11188476 -0.37912577
0000d0 e7 a9 19 3e 80 d0 80 3e 55 77 e6 be fb 46 1c be
       0.15006219 0.25159073 -0.45012918 -0.15261452
0000e0 11 49 e8 3d af 87 88 3d 90 14 22 be d9 b1 24 be
       0.11342061 0.066665046 -0.15828156 -0.16083468
0000f0 2e 56 d3 3e cd 8b 31 bc 08 57 5e be 42 c0 c1 be
       0.41276687 -0.010836554 -0.21712887 -0.37841994
000100 3f 5e 34 3e dd cd 88 be d3 59 22 3e 7f c1 a8 bd
       0.17614077 -0.2671956 0.15854578 -0.082400315
000110 97 07 00 be 9f bc 7f bc e3 e0 eb 3d 1e 01 46 bd
       -0.12502895 -0.015608936 0.11517503 -0.04834091
000120 53 fa ca be 01 49 9d bc fe d8 86 be 93 28 16 3e
       -0.39644107 -0.01919985 -0.26337427 0.14663915
000130 e4 15 64 3e 04 8a 03 be e4 be 81 3e 2b 91 3f bc
       0.22273976 -0.12845618 0.2534095 -0.011692326
000140 33 90 cc 3d 1e 16 49 be 96 bd 12 be 78 c3 27 3d
       0.09988441 -0.19637343 -0.14330134 0.040957898
000150 24 be 20 be 93 58 d0 3e b9 16 9b bd 4d 7b 94 3c
       -0.15697533 0.40692577 -0.075726934 0.0181252
000160 de 39 6e be 1e 4a fc 3b 6d 76 de 3d f2 95 0d be
       -0.23264262 0.007699265 0.10862432 -0.13826731
000170 fb f0 ba be 2a 0c 71 be 53 53 b5 3d db 26 56 3d
       -0.36511979 -0.23539796 0.088537835 0.05228315
000180 15 88 10 3e 94 9c b9 3e 92 0c e2 be 29 a2 fa 3c
       0.14114411 0.36252272 -0.44150215 0.030594902
000190 9c 41 12 3e 71 1c 37 3e c4 32 1e be 07 7f d2 bd
       0.1428284 0.17881943 -0.15449053 -0.10278135
0001a0 d5 31 42 bd 4c ac c4 be fb 6d 61 be 6e 52 fc bc
       -0.047410805 -0.38412702 -0.2201461 -0.030801024
0001b0 51 7e 84 be f8 38 1d be 1f b7 a3 be 9a 18 a0 bc
       -0.25877622 -0.15353763 -0.31975648 -0.019542981
0001c0 e3 db e2 bb a9 a2 81 3d 99 d7 c9 bd 10 2f d9 bb
       -0.006923185 0.06329853 -0.09855575 -0.0066279247
0001d0 81 9d af be d9 61 7f be af b6 a8 be f5 d6 95 be
       -0.34299853 -0.2493967 -0.32951877 -0.29265562
0001e0 78 35 1d be b4 d9 ba bd 7a 5c 99 bd e9 55 c0 3e
       -0.15352428 -0.09123555 -0.07488342 0.37565544
0001f0 dc 09 e8 bd 0b 02 a2 3e 37 d2 4c be cc 95 53 3c
       -0.113300055 0.31642184 -0.20002066 0.012914132
000200 81 b7 d5 bd 07 df 10 be 17 3b 3f 3e 9d 4e a4 3e
       -0.10435391 -0.14147578 0.18674885 0.32091227
000210 01 49 82 3d 84 50 aa bd 71 6b 25 be 18 8d 9d 3d
       0.06361581 -0.083161384 -0.16154267 0.07692927
000220 50 e6 21 3e ff 78 b1 bd db 3a ec 3c 91 56 5c be
       0.15810513 -0.08665656 0.028836658 -0.21517397
000230 b8 e4 99 be c1 4b 3e be d2 20 0e bd d5 3a 5e be
       -0.3005731 -0.18583585 -0.03469927 -0.2170213
000240 ec ad 2e be 22 a1 39 be ef 47 9b be f5 0e 46 bb
       -0.17058533 -0.18127874 -0.30328318 -0.0030221317
000250 a2 cd c6 3d f9 0b 87 3e 42 17 96 bc 17 2d 91 3e
       0.0970719 0.26376322 -0.018321637 0.28354713
000260 83 10 d2 bd 46 51 86 3d 72 8a 33 be cf 66 c3 bd
       -0.102570556 0.065584704 -0.17533281 -0.095410936
000270 0e 90 4d 3e 7f 58 86 be 10 9a ae 3b ba 0f 06 be
       0.20074484 -0.26239392 0.0053284243 -0.13091937
000280 aa 10 8d be c1 bf 14 3d c7 48 ac 3b 5b 89 9f bc
       -0.27551776 0.036315683 0.005257699 -0.019474676
000290 7a 8e 7e 3c df 8b 9f 3d 15 ec 68 bb db a4 dd bd
       0.015536899 0.0779035 -0.0035541106 -0.10822459
0002a0 26 ec 9c bd 67 ae 15 bd 91 49 51 3e 95 a9 1f 3e
       -0.07662229 -0.036543276 0.2043822 0.15592034
0002b0 83 fa 39 3e 67 71 88 be d5 21 41 be 11 ed f9 bd
       0.18161969 -0.2664902 -0.18860562 -0.1220342
0002c0 07 fa 45 3e 30 2d 70 be 96 87 9b be 63 57 70 bd
       0.19333659 -0.23454738 -0.3037688 -0.05867709
0002d0 77 16 9c 3d 56 22 bf bd 18 b2 e9 3c f3 b2 f8 3d
       0.07621472 -0.09332721 0.028527305 0.12143507
0002e0 6e d2 1f be 25 fb 42 be 1a 65 0e 3b 82 07 a4 3e
       -0.15607616 -0.19041117 0.0021727742 0.32036978
0002f0 12 35 dc be 21 b9 1e 3e 78 f7 a9 be c9 50 63 bd
       -0.4300924 0.15500309 -0.33196616 -0.055496965
000300 f0 dd 53 3e 38 60 d0 3d ca f5 6a be e0 60 33 be
       0.20690131 0.10174602 -0.22945324 -0.17517424
000310 b6 df 7b bd 89 26 6e be 3a 66 97 bd ca 91 d0 3d
       -0.061492644 -0.23256887 -0.07392545 0.10184057
000320 6e 5a 87 bd 1f 70 d1 3e 9e ef a6 be e0 c1 e7 be
       -0.06609045 0.40905854 -0.32604688 -0.45265102
000330 40 59 50 be 5f d8 a0 be bf 5d 40 bd f1 c4 c7 bc
       -0.20346546 -0.31415078 -0.046964403 -0.024385901
000340 b8 c4 9d be ec 9b ae 3d 85 9c f3 bd d4 43 19 be
       -0.30814147 0.085258335 -0.11895088 -0.1496728
000350 08 8a ec 3d 73 b6 57 be 77 21 4b 3d c0 1a be bd
       0.11549765 -0.21065693 0.04959246 -0.09282446
000360 60 74 2f 3e fc bd 46 3b 15 a6 13 3e c1 89 e3 bd
       0.17134237 0.0030325642 0.14418824 -0.11110259
000370 a6 31 98 3b 3b ad a1 3e 6a 3d db bd c6 b8 47 3e
       0.0046445904 0.31577477 -0.10705073 0.19504079
000380 e5 a8 4e 3e 44 bb 13 3e 96 9a 6b 3e 50 0e 22 bd
       0.20181616 0.14426905 0.23008189 -0.03956443
000390 f4 6d 8c bd e2 c8 7e be 79 cd 52 be f0 74 ba be
       -0.068569094 -0.24881318 -0.20586194 -0.3641734
0003a0 c3 53 dc be 0b 7b 5b 3c 38 74 4e 3e a6 59 31 bd
       -0.43032655 0.013396035 0.20161521 -0.043298386
0003b0 5d 0f 5c be e1 bc 13 bd 26 02 4f 3b cf 39 73 3e
       -0.21490236 -0.0360688 0.0031586974 0.23752521
0003c0 1f 68 5c be 64 e1 bb 3d 5f 6c 1f be d6 11 e0 bb
       -0.21524094 0.09173849 -0.15568684 -0.0068380637
0003d0 9f 10 04 3e 73 2a c9 3e e5 b2 70 3d 1f 94 09 3f
       0.12896965 0.392902 0.058764357 0.5374164
0003e0 87 e4 d5 3d 38 29 cd be c4 6b 30 be df 85 ef 3d
       0.10443979 -0.4007051 -0.1722861 0.11695456
0003f0 d6 4e 4f be f0 f0 ca be d8 d9 19 bd 29 a6 15 be
       -0.20244917 -0.39636946 -0.037561268 -0.14614166

network_body._body_endoder.seq_layers.4.bias f4 [64]
000000 6e d9 c2 3d 0a f6 d8 ba 30 ec c1 bc 4b 29 da 3c
       0.09514128 -0.0016552818 -0.023672193 0.026631018
000010 01 e0 5a 3d 4f e5 03 3e 5c f0 e1 bd c5 a5 02 3e
       0.053436283 0.12880443 -0.11032173 0.12758549
000020 9d b2 77 bd 35 55 0a 3e 5f e8 3a 3e 53 a3 7f bc
       -0.060473073 0.13509066 0.18252705 -0.015602904
000030 c8 e9 10 3d 3d ff 1c bd 56 b7 9c 3d fd 31 3c 3e
       0.0353792 -0.03832935 0.07652156 0.18378444
000040 28 32 31 3d ef b3 a6 3d 77 ac c3 bd 17 0a f5 3d
       0.043260723 0.08139788 -0.095543794 0.11964815
000050 ff e4 2b 3d 7b 45 b9 bc 8e 8c bb bd 39 d9 f9 bc
       0.041966435 -0.022616139 -0.09157668 -0.030499088
000060 1f a4 79 3d eb c1 fa 3c d7 3d 06 3e b7 ee 8b bc
       0.060947534 0.030610045 0.13109528 -0.017081602
000070 a0 f3 bb 3c 1c 3d 06 3e fc 5c d7 bc 0e 1d c4 3d
       0.022943318 0.13109249 -0.026289456 0.09575854
000080 d3 4e 12 be 2c 77 fb 3d 94 74 1f 3e 70 b2 1d bc
       -0.14287882 0.122785896 0.15571815 -0.009625062
000090 ba 22 ed bc 41 b7 7f 3d 07 f2 49 3b 43 a2 52 be
       -0.028947223 0.062430624 0.0030814426 -0.2056971
0000a0 52 ee db 3a ec c6 a7 3d 70 7d 00 bc f2 ab 92 bc
       0.0016779399 0.08192238 -0.007842407 -0.017904256
0000b0 1e c5 a3 bc d4 ce 9d bc 1e a2 8d 3d 9c 56 9b bd
       -0.019991454 -0.019263662 0.06915687 -0.07584879
0000c0 b9 f9 60 3c 58 ef 1e 3e e7 6a 77 3d 3d 8a e6 3c
       0.0137314135 0.1552099 0.060404684 0.028142089
0000d0 4a ba f9 bc 7f 18 77 3d 90 a9 47 3e 75 08 6d 3c
       -0.030484337 0.060326096 0.19498277 0.014467348
0000e0 24 35 1e 3c 31 ce 30 3e 5d 05 19 bd e7 63 3e bd
       0.009656224 0.17266156 -0.03735863 -0.046481993
0000f0 13 71 31 be 5c 84 62 3b 1b c5 cf bd 63 e8 5f 3e
       -0.1732829 0.0034563756 -0.10145017 0.21865992

action_model._continuous_distribution.log_sigma f4 [1, 44]
000000 3f 94 48 3f a2 c6 ad 3f f4 5a 92 3f 6f f1 69 3f
       0.78351206 1.3576243 1.1434007 0.91384023
000010 5f cd 46 3f a1 64 57 3f 3f 5a 4a 3f 95 18 7c 3f
       0.7765712 0.8413792 0.79043955 0.9847501
000020 40 89 70 3f 5d 59 49 3f 99 1f a4 3f 21 f0 55 3f
       0.93959427 0.7865198 1.2822143 0.8356953
000030 e0 00 43 3f f0 51 66 3f e4 a0 ab 3f 48 06 5f 3f
       0.7617321 0.89968777 1.3408475 0.8711896
000040 7b d4 fd 3e 84 fc 33 3f 37 16 02 3f b1 0a 52 3f
       0.49576172 0.70307183 0.5081515 0.82047564
000050 2b f5 37 3f c5 b3 77 3f ab 6f 76 3f a1 3d 9b 3f
       0.7185847 0.9675868 0.9626414 1.2128183
000060 c7 69 d1 3e a9 52 2e 3f d1 fc 44 3f 8c 79 29 3f
       0.40901014 0.6809488 0.7694827 0.6620109
000070 ef e7 d6 3e ee 16 9e 3f c1 be 64 3f ca f2 63 3f
       0.41973826 1.2350748 0.8935357 0.8904234
000080 53 38 81 3f 89 83 b3 3e 14 02 52 3f dc 77 19 3f
       1.0095314 0.3506129 0.8203442 0.59948516
000090 67 d0 4f 3f 8d 53 41 3f aa f0 2f 3f 6a 79 0b 3f
       0.8117737 0.75518113 0.687266 0.5448214
0000a0 82 b9 98 3f fb 09 93 3f 28 90 df 3e ce bc 62 3f
       1.1931612 1.1487421 0.4366467 0.88569343

action_model._continuous_distribution.mu.weight f4 [44, 64]
000000 bc 89 81 bc f1 06 d6 3c dd f6 2e 3d 90 f0 a8 bc
       -0.015812747 0.026126357 0.042715896 -0.020622522
000010 2d f4 15 bd e8 3b ee bc 51 a6 9c 3d 5a 90 05 bb
       -0.036609817 -0.0290813 0.0764891 -0.002038023
000020 fd b4 f1 3d 43 a5 7f bb 2f 7a 50 bd d3 bf c5 bd
       0.11802099 -0.0039008416 -0.050897773 -0.09655728
000030 d5 62 eb bd fd 91 67 be 4e 13 cd 3c 75 2c 03 be
       -0.1149346 -0.22614284 0.02503362 -0.12809928
000040 b8 36 8b be 64 d1 1f 3e 24 7d 5b 3d 5a 24 11 be
       -0.27190185 0.1560722 0.05358614 -0.14174023
000050 0f c1 00 3e 2b 58 be bd 28 1f 15 3e d9 ab c3 3e
       0.12573646 -0.092941605 0.14562666 0.38217047
000060 1a a1 fb bd 26 d2 76 3d f2 d9 95 3d 2e b8 ba 3b
       -0.12286587 0.060259007 0.073169604 0.0056982255
000070 e4 cb 09 be 13 53 32 3e c9 9f ca bc f4 db 26 be
       -0.13456684 0.17414503 -0.024734395 -0.16294843
000080 4d dd 22 be 1b 1d 05 be f7 6f 00 3d b6 30 20 be
       -0.15904732 -0.12999384 0.031356778 -0.15643582
000090 d5 5d d8 bd 89 89 37 3e 77 61 24 3e 52 1d 2a be
       -0.10564772 0.17923559 0.16052805 -0.16612747
0000a0 f5 1d 1d be 3f e6 41 be 9b 8a 0a 3e 38 26 6a 3e
       -0.15343459 -0.18935488 0.13529436 0.22866142
0000b0 2b 77 a9 3d c2 7a fc bc 27 2b 7f 3d 3e 81 2a 3e
       0.082746826 -0.030820254 0.062297013 0.16650864
0000c0 49 e9 83 3d e6 d9 a5 bd 9c f9 1f 3e 8e c7 47 be
       0.0644098 -0.080982015 0.15622562 -0.19509718
0000d0 d9 2f 4d bd a1 49 91 bd 68 7c 22 3d 87 9f 91 bd
       -0.05009446 -0.07094122 0.039669424 -0.071105056
0000e0 42 8c bf bd 14 31 b8 bc 47 3e 49 3c c8 f6 67 be
       -0.09352924 -0.02248434 0.0122829145 -0.22652733
0000f0 3e 61 3e bd cb 2c 30 3e 0c b6 09 be 58 92 bf bd
       -0.046479456 0.17204587 -0.13448352 -0.09354085
000100 23 7a b1 be e9 48 47 be 6d 97 e1 bc 6e 76 42 3e
       -0.34663495 -0.19461407 -0.027538026 0.1899049
000110 85 67 f7 bc c7 ea cd 3d b1 2a cb 3d 09 6e 2f 3e
       -0.03020073 0.10054546 0.09920252 0.17131819
000120 68 41 66 3d e5 39 52 38 5e 42 9b be 84 a8 30 3e
       0.05621472 5.012182e-05 -0.30324072 0.17251784
000130 a3 fc 8b 3e b9 0e 14 3e e6 89 10 3e 01 26 55 3e
       0.27341184 0.14458741 0.14115104 0.20815279
000140 4b 3d 1c 3e fb 57 67 bd 2a 6f c3 3d 5b fa b2 be
       0.15257756 -0.05648039 0.09542687 -0.3495663
000150 36 8c 28 3e 7b de 4f 3d 32 5a 0d 3e 79 c7 b3 3d
       0.16459736 0.050749283 0.13803938 0.08778281
000160 04 c5 c9 3e 5f 4a 8e be 3c 1c f7 bc f8 66 85 3c
       0.39408123 -0.27791116 -0.03016483 0.01628445
000170 01 69 16 be 04 76 b2 be af 6d ae 3d f2 6d 3a be
       -0.14688493 -0.34855664 0.08517014 -0.18206003
000180 d5 f1 b6 bd 6f 85 16 be 9d ac 4f be f0 64 45 be
       -0.089328445 -0.14699338 -0.2028069 -0.19276786
000190 f0 f8 cc 3d d3 24 b5 bd cf 3f 8f 3e a8 86 ac bd
       0.100084186 -0.08844914 0.2797837 -0.08424121
0001a0 c6 61 df bd c7 4a cc 3d 36 a4 ad bb 58 9a 49 3e
       -0.10907321 0.099752 -0.0052991165 0.19687784
0001b0 9c 82 fa bc e2 22 09 3d 56 b0 21 3d 43 ce 90 be
       -0.030579858 0.033480532 0.039474808 -0.28282365
0001c0 b5 f1 6c be 30 7c 15 be 2e d7 88 be fd 60 a2 3d
       -0.23139079 -0.14598155 -0.2672667 0.07928655
0001d0 6c c3 7f be f2 36 20 be a4 40 6d 3c 64 2c 3b bc
       -0.24976891 -0.1564596 0.014480744 -0.011424158
0001e0 c4 1c f1 bd 04 d6 2a be 3d 75 e3 bc 81 2f cf 3d
       -0.11773065 -0.16683203 -0.027765865 0.101164825
0001f0 05 01 35 be 62 98 33 3e 59 d1 e8 3d 35 87 70 be
       -0.1767617 0.17538598 0.11368055 -0.23489077
000200 3a c5 cf bd b7 fb 80 be cf 03 b1 3d d9 ef 25 be
       -0.1014504 -0.25192043 0.086433046 -0.16204776
000210 10 70 41 3e 92 4d fa bc f1 46 63 3c 71 f9 9b bd
       0.18890405 -0.030554567 0.013871894 -0.076159365
000220 b1 95 35 be 1d 27 eb bd 5a 4f 65 bd 3b 8a 34 3c
       -0.17732884 -0.1148207 -0.05598388 0.011019285
000230 f2 b0 3e be e8 8d bb bd 9f c6 64 3e 01 c7 1e be
       -0.18622187 -0.09157926 0.22341393 -0.15505601
000240 53 7c 1a 3e 2a 11 44 bd f3 6e da 3d 2a ea a4 bd
       0.15086488 -0.04786793 0.10665693 -0.08052476
000250 ce 77 8a 3d 9f 57 4d 3d 63 84 ef 3d 3c e7 21 3d
       0.06761132 0.05013239 0.11695173 0.039527163
000260 dd ec 9a bd 44 a3 01 be 6c 32 1b 3e 19 a0 47 3e
       -0.07564709 -0.12659937 0.15155953 0.19494666
000270 68 38 61 3d cd 56 3b be 41 f9 34 3e 8f 0c 78 3d
       0.054985434 -0.1829483 0.17673208 0.06055885
000280 99 f7 78 bd 82 3c 57 3c a1 c9 e6 3d 15 ae 70 3e
       -0.060783003 0.013136985 0.112689264 0.23503907
000290 89 e7 39 be af 27 d7 bc 8e 8f 61 3e 4e 5b 8c 3e
       -0.1815473 -0.02626404 0.22027418 0.2741341
0002a0 be fb 8e 3d 06 5e 01 be f5 8d ac 3e 04 dc 92 3d
       0.0698161 -0.12633523 0.33702055 0.07170871
0002b0 f8 21 ee bc a2 88 6c bd bc c5 09 bd 89 ee 94 3e
       -0.029068932 -0.05774749 -0.03363584 0.29088238
0002c0 9b f3 6c bd 5b 04 91 be 36 f3 bf 3d 47 69 39 3e
       -0.057849508 -0.28323635 0.09372561 0.18106566
0002d0 0b fb 3e bc 98 4a a8 bd 70 42 63 be ed 7d 95 3e
       -0.011656533 -0.08217353 -0.22193313 0.29197636
0002e0 8a d5 b7 3e b7 69 89 be 9c 56 0c 3d 5d a1 4f 3e
       0.35905105 -0.26838467 0.034262285 0.20276399
0002f0 e7 99 32 be 11 0e d0 3d c2 b2 cf bd 35 7f 4e be
       -0.17441522 0.10158933 -0.10141517 -0.20165713
000300 c3 ba dd 3c a8 40 9d 3d 60 20 07 3e 34 55 c8 3c
       0.027066594 0.07678348 0.13195944 0.02445469
000310 a3 5b ee bd 7b 1d 76 bd 8d 20 e3 3e 26 ee 3a 3e
       -0.11638572 -0.06008671 0.44360772 0.18254909
000320 ef 68 42 3e d9 1f 5b be 3a 13 23 be f7 b3 c9 3c
       0.18985341 -0.21398868 -0.15925303 0.024621947
000330 af ce 66 3d 1f 9a 96 3d 58 11 24 3e 09 0b b2 3d
       0.056349453 0.07353615 0.16022241 0.08693511
000340 22 f0 9b be 73 bb 09 be 62 36 f7 3e 81 da 5f 3d
       -0.30456644 -0.13450412 0.48283678 0.05465174
000350 50 5d 4f 3c 95 b2 fd bd 12 62 3f 3e 86 be ab 3d
       0.012656525 -0.123875774 0.18689755 0.08385949
000360 65 70 6a 3e cc 61 d4 bd bb 72 4f 3c 38 52 0b 3e
       0.22894438 -0.10370216 0.012661631 0.13605583
000370 e5 c1 30 3e 46 ca b6 bd 5d 4f c9 3c 94 36 05 bd
       0.17261465 -0.08925299 0.024573976 -0.032522753
000380 12 94 81 bd c3 2b 11 be 93 7a 88 3e e2 c5 e4 3c
       -0.0632707 -0.1417685 0.26656017 0.02792639
000390 48 63 1a be b0 a7 e0 bb 42 8f 9f 3d 58 b1 b6 3d
       -0.15076935 -0.0068559274 0.07790996 0.089205444
0003a0 ed 5f ac 3d c1 56 a1 3d 60 d4 85 bd 04 c3 dc be
       0.08416734 0.07877875 -0.06534648 -0.43117535
0003b0 90 3a b8 bc 46 47 1e 3e 59 02 5c 3e 02 43 9b 3d
       -0.022488862 0.15456876 0.2148527 0.0758114
0003c0 1e a1 65 3d 5c 2d 92 3e 00 1f 3c 3d 04 0d 06 be
       0.056061856 0.2855023 0.045928 -0.13090903
0003d0 97 28 8b bd 42 0f 41 3e 60 e2 e3 3d d9 18 b0 3d
       -0.06794851 0.18853477 0.11127162 0.08598489
0003e0 e6 ab 0b 3c 58 13 9f be 67 20 d8 bd 92 fa ea bd
       0.0085248705 -0.31069446 -0.10553055 -0.11473574
0003f0 06 07 71 3e 9a 4d 21 3e d7 b0 d9 3d cc bd 08 be
       0.23537835 0.15752259 0.10629433 -0.13353652

action_model._continuous_distribution.mu.bias f4 [44]
000000 a0 2b 19 3d 68 5a c8 bd cf a6 8c bd 1e c7 cf bd
       0.03739512 -0.097828686 -0.06867754 -0.101454005
000010 95 63 00 bc 59 75 62 3c 3d 41 d9 3d 7b 8b 92 3d
       -0.007836242 0.013821923 0.10608146 0.0715551
000020 85 81 3a bc 00 79 94 bd a5 ad f0 38 d0 28 ee bd
       -0.011383419 -0.072496414 0.000114764356 -0.11628878
000030 84 fe 42 bd 66 03 7a 3c 00 dd 5a bd cc 34 8d bd
       -0.047606006 0.015259599 -0.05343342 -0.06894836
000040 42 e2 84 bd bc e0 2e be 61 24 86 be 55 d7 71 be
       -0.06488468 -0.17077917 -0.2619963 -0.23617299
000050 f2 cb af bd 5e c8 45 bd 40 42 2f be 52 0f e9 bd
       -0.08583821 -0.04828679 -0.17115116 -0.11379875
000060 e6 41 b9 bd b0 a6 5e be 63 11 a4 be 3b a2 48 be
       -0.09045772 -0.21743274 -0.32044515 -0.19593136
000070 48 a4 f6 bd 71 2a b9 3d 56 fe e2 bd a5 f6 4d be
       -0.12043053 0.09041298 -0.11083667 -0.20113619
000080 a5 e2 97 be 80 9b f3 bd 1e e4 32 be d1 89 33 bd
       -0.29665104 -0.11894894 -0.17469832 -0.043832604
000090 7c d0 00 3d 0f 3b c0 bd 09 4e c4 bd 28 7d ea 3c
       0.031448826 -0.093862645 -0.095851965 0.028624132
0000a0 9c b8 09 be 74 d3 f9 bd c6 08 9a bd 43 94 00 3e
       -0.13449329 -0.121985346 -0.07521205 0.12556557
