results/b090reremaze2/Dynamic Table/Dynamic Table-9799988.onnx (onnx, 74582 bytes, 9 tensors)

network_body._body_endoder.seq_layers.0.weight f4 [64, 94]
00000000: 0187 4b3e 59d9 2bbe d968 4cbd fd6a 2e3e
00000010: 73c5 00bd c242 a93c 54fc 4d3e 1afc f0bd
00000020: 46ef e9be f34c d2be 9626 513d 3e6b c13d
00000030: 661d ae3e e632 643d 034b 28be 71c6 31be
00000040: 50b1 7cbe dace d3bd 3110 013e 1cb4 343e
00000050: 445b a73e 78ff 473e 9d79 c1bc 137e aebd
00000060: 34c5 30be 33fd 80bd e67e 8e3d 8f54 923e
00000070: 54a3 ad3d a5af e2bd c048 3ebe 26d0 74be
00000080: 99c1 323d e59b 3fbd 77b3 b33d 3dda 43bd
00000090: 5c06 12be a05b a73e b8b6 f23d 8973 10be
000000a0: a68e 06bc 74da 073e 08b0 233b af1a 853e
000000b0: 7974 693e 350d b23c 0799 96bd d98a 273e
000000c0: 8874 093c 6cda 50be 4daa 02be 6c73 d939
000000d0: 2b59 28be 7b15 57be 10d4 973d 3270 57be
000000e0: 9eae 48bd e2b4 8ebe b204 2dbd 272a 06be
000000f0: beb3 48bd 59a9 d6bd 65d5 99bd 4633 42be
00000100: d79d fa3d 2684 5bbe 33a6 cbbd 0d15 b4bd
00000110: 4e2d 5a3e 825c 80be 5c77 c43d 2dc9 24be
00000120: 680a 83be 7bba 2d3e 2123 00bf 1b9c 92be
00000130: 73c3 163e 5814 35be a6b6 abbc 7e60 423e
00000140: 25b4 f5bd 2ae1 9dbe c05c 4ebe cfe3 803e
00000150: b0c4 1d3d 1d4d 263c 7416 59bd 59ad f1bd
00000160: b714 bc3d 3838 bd3d 6296 023c 707d 0f3e
00000170: e93c 9c3d 1345 5dbc cd44 673d a788 0d3e
00000180: ef81 97bd 9d6b 4ebe 2a72 5f3e de0d 3fbd
00000190: 16f3 d03d abcf ae3d 7d44 5d3d b07d e0bd
000001a0: f00f de3b ab4d a8be 4354 02bd f7b8 203e
000001b0: bfd6 2bbd df32 26be c40d 49be ea20 fa3d
000001c0: a6cc 923d 926a 8d3d 1a85 27be 9437 7b3e
000001d0: 20ef 23be 320f 8e3d ea07 6a3e cac8 a0bb
000001e0: 5c00 8e3e 3c30 d93d ce64 cd3d bff2 79bd
000001f0: e7ef 5ebe 293a e23d b510 df3d ea39 e73e
00000200: 6bf0 8dbe f2fe 923d 4d51 1bbe 7532 c43d
00000210: 38b5 4abe e56d 2c3d 2d76 083e c618 d5bd
00000220: 78bd 733b 643f 123e 059d 073f f2db 9f3d
00000230: b216 183d a385 b2be f115 573e fd31 87be
00000240: a21b 123e bf01 813d 71c7 ffbc bc09 03bc
00000250: 66a0 b8bd 0163 58bd 87bc b23b e83d 4c3d
00000260: b948 083d 17b2 35bd b946 4f3e 7c8f 8b3d
00000270: 0f85 e13d 3757 38bd 5337 863d 9568 63be
00000280: 2645 9d3d 9fc0 21bb 7650 d93d 0857 973b
00000290: 5bb7 adbd 5946 f0bd b6d7 03be b231 563b
000002a0: d73d 133e 5490 abbd ca38 afbb 36a9 9f3c
000002b0: 394c 113e 104c b6bc d095 413d 4e3b a3bd
000002c0: 4f54 24be 7f52 82be 59fe 05be a765 f5bd
000002d0: df1f d0bd a828 1dbd 1d8a 7ebd d63c a3bd
000002e0: bc6d 38be 7b6b 703c 8a71 083e ce95 033d
000002f0: a5a5 acbd 7d01 31bd d49c 7dbe 2e00 79be
00000300: b0b9 413d c5f5 dc3d 88c4 35be 6a03 bbbd
00000310: deb3 dbbe fd73 c3be 071e 38be cb71 30be
00000320: d3dd d2bd ea29 34bd 614d 6fbe 42ff f2bd
00000330: fba3 13be ed79 c83c 20c7 653e 8fa9 abbd
00000340: db00 343c beb5 07bd 3554 bebe 71d0 81be
00000350: 79e1 95bb 09a9 a63e c0e9 4c3e ab93 bd3e
00000360: 3d8a 37be 713f 6abe e83e bbbd 5cf7 ebbd
00000370: 2787 113e 0899 213f fc54 fabd a555 4a3e
00000380: d639 c1be 0d54 acbd 3e8f 3fbc 6ff1 05be
00000390: 6f52 ab3e 359b 973d 6d47 09be 473e 31bd
000003a0: 9200 703d 6d36 d93d 356d e6bd 02e7 17be
000003b0: 4404 c63d 0f14 d13d 9686 5c3e 4210 f3bc
000003c0: bef2 3e3c 11f1 993e 5146 4b3d 3ebd e13c
000003d0: 226d eb3c 19e8 a0be 21c9 a7bd 72dd 87be
000003e0: 9c9b c9be fecb 563e eb7c 0abe 39fb 043c
000003f0: 1e2a a73e f34d 65be 9d9a 0d3e 32af 313e
0.19875719 -0.1678213 -0.049904678 0.17033 -0.031438302 0.020661715 0.20115787 -0.117668346
-0.45690364 -0.41074333 0.05106219 0.09444283 0.34006804 0.055712603 -0.16434865 -0.17360856
-0.24677014 -0.10342188 0.12603833 0.17646831 0.32686818 0.19531047 -0.02361756 -0.085201405
-0.17262727 -0.06298294 0.06957798 0.28580138 0.08478418 -0.11068658 -0.1858244 -0.23907527
0.04364166 -0.046779532 0.087744646 -0.04781555 -0.14260238 0.32687092 0.11851257 -0.14106573
-0.008212721 0.13266927 0.002497675 0.2599692 0.22798337 0.021734813 -0.073534064 0.1636156
0.0083896 -0.20395821 -0.12760277 0.0004147546 -0.16440265 -0.21004288 0.074134946 -0.21038893
-0.048994653 -0.27872378 -0.042240806 -0.13102017 -0.04899954 -0.10481519 -0.07511405 -0.18964872
0.12237137 -0.2143713 -0.09943809 -0.087930776 0.21306345 -0.25070578 0.095930785 -0.16092367
-0.25593877 0.16965668 -0.500536 -0.28634724 0.14722995 -0.17683542 -0.020961117 0.18982121
-0.119972505 -0.3083585 -0.20152569 0.25173804 0.038517654 0.010150221 -0.05299993 -0.118006416
0.091836385 0.092392385 0.007970424 0.14012694 0.07628805 -0.013505238 0.056462098 0.1382166
-0.0739783 -0.20158239 0.21820894 -0.046644084 0.10202615 0.08535703 0.054020394 -0.10961473
0.0067768022 -0.32871756 -0.03181864 0.15695558 -0.041952845 -0.16230343 -0.19634157 0.12213309
0.0716794 0.06905092 -0.16359368 0.2453292 -0.16009188 0.06936492 0.22854581 -0.0049067484
0.2773465 0.10604903 0.100289926 -0.061022516 -0.21771203 0.110462494 0.108918585 0.45161372
-0.27722487 0.07177533 -0.15167733 0.095799364 -0.19795692 0.04209699 0.1332633 -0.10405116
0.003719179 0.14281994 0.5297397 0.07805623 0.03713102 -0.34867582 0.21004464 -0.26405326
0.14268354 0.06299161 -0.03122303 -0.007997926 -0.090149686 -0.052828792 0.005454603 0.049863726
0.03327248 -0.044359293 0.20241822 0.06814477 0.11011707 -0.04500505 0.06553521 -0.22207864
0.07679205 -0.0024681462 0.1061105 0.004618529 -0.08482238 -0.11732168 -0.12875256 0.003268343
0.14379059 -0.08377138 -0.005347346 0.019489866 0.14189233 -0.022253066 0.047262013 -0.07970296
-0.16047786 -0.25453565 -0.13085307 -0.11982279 -0.10162329 -0.03836885 -0.062143434 -0.07970588
-0.1801061 0.014674063 0.13324562 0.032125287 -0.08430032 -0.04321431 -0.24766856 -0.24316475
0.047296226 0.10789064 -0.17750752 -0.091315106 -0.42910665 -0.3817443 -0.17980205 -0.17230909
-0.10296216 -0.043985285 -0.23369361 -0.11865093 -0.14418022 0.024472201 0.22439241 -0.0838195
0.010986532 -0.033132307 -0.3717362 -0.2535434 -0.0045739976 0.3255084 0.20011044 0.37026724
-0.17923827 -0.22875763 -0.09142858 -0.115217894 0.14211713 0.6312413 -0.12223241 0.19759233
-0.37739438 -0.08414469 -0.011691866 -0.13080381 0.3346133 0.0740265 -0.13406153 -0.043272283
0.058594294 0.10606084 -0.11251298 -0.14834216 0.09668782 0.10208904 0.21535715 -0.029670838
0.011654554 0.30066732 0.049627606 0.027556058 0.028738562 -0.31427076 -0.08192659 -0.26536137
-0.39376533 0.20976254 -0.13524215 0.008116537 0.3264932 -0.22393017 0.13828512 0.17351988

network_body._body_endoder.seq_layers.0.bias f4 [64]
00000000: d0ff 8c3b a774 12bd c071 1e3d e53d 35bc
00000010: c829 29bb b191 83bc 66fb 5a3d 7d0d 9f3d
00000020: cc91 64bd 6675 c8bc 3f40 48bd 7b2d df3c
00000030: fea5 b03c e1ff b3bc fff9 12bc 32f5 3ebc
00000040: 1db5 89bd 2a75 4c3d dab9 313d d3f1 61bd
00000050: 7eed 27bd 9238 7fbc 89db c6bc 1b1c 78bd
00000060: 44af a0bd 78a0 f6bc c0f9 39bd 975c 913d
00000070: 5f8e 6b3d 261c b7bc 3f5b 94bc 329a 44bc
00000080: a329 893c 3bd2 693b e7f7 39bd 8c50 1abd
00000090: 3534 05bc be23 963a f494 333d 8f78 623d
000000a0: 2c34 b63c fbc1 4d3c f2fa 573c a97a f4bc
000000b0: d40a c93c 79b2 263d 3480 31bd 0634 03bd
000000c0: 5916 6ebd db15 373d 51ee ab3b c17f a0bc
000000d0: 513e 9abc dac7 3fbd 4d0e 4d3d 44bb 47bc
000000e0: cd17 5cbd e924 52bb 1d10 dd3c 20e7 18bd
000000f0: a9e9 adbb ff03 87bd 1581 86bc ff76 833d
0.004302956 -0.03575578 0.0386827 -0.01106212 -0.0025812257 -0.016060682 0.05346241 0.077662446
-0.055803105 -0.024470042 -0.048889395 0.027243366 0.021563526 -0.021972599 -0.0089707365 -0.011655139
-0.06723998 0.049916424 0.043390132 -0.055162262 -0.040997975 -0.015577452 -0.024274604 -0.06057368
-0.07845929 -0.030105814 -0.045404196 0.07097738 0.057508823 -0.02235229 -0.018109916 -0.011999654
0.016743487 0.0035678286 -0.045402434 -0.03767447 -0.008130123 0.0011454744 0.043843225 0.055290755
0.022241674 0.012558456 0.013182389 -0.029843645 0.024541296 0.04069755 -0.043335155 -0.032032035
-0.05812678 0.044698577 0.0052469154 -0.019592168 -0.018828543 -0.046821453 0.050062466 -0.012190644
-0.053733636 -0.0032065457 0.026985222 -0.037329793 -0.0053073955 -0.06592559 -0.016418973 0.06419181

network_body._body_endoder.seq_layers.2.weight f4 [64, 64]
00000000: 7bb4 5d3d 1b4f 98be fd9f b8bd a2fa 043e
00000010: 9192 61be c2e5 b43d f0ad 4f3e 0dd6 fb3d
00000020: 0d8b b4be afb7 5c3d 71c4 ad3d 3245 103d
00000030: 7101 f9bd c4f5 d93d 9e02 41bd 4651 aabd
00000040: 82c9 2dbe ded1 073d aaf3 0c3e 1326 673d
00000050: 1fce 803c 7ad4 38bd aac2 b8be 6fd6 773d
00000060: 129c 653c 1380 903d e648 2dbd 4897 e4bd
00000070: 5953 91bd a71c 1ebd 0508 97be f294 96be
00000080: 515b a23d bb07 d33e a42f 683c ed58 9cbe
00000090: 64a6 4ebe afb2 973b f9f5 a7bd c819 d83d
000000a0: 02af 29bd bcaa a03d 1e4e 493e 5075 6abe
000000b0: 4ce7 733d 8fe8 233e ecdc df3e d406 123e
000000c0: 7861 91bc a496 993e a057 11be fe85 463e
000000d0: 73cd c83d 03eb 48be 3025 b93e c01d a93d
000000e0: ccf0 c83d 8dfc 51be 0bd5 7e3e 053d 003d
000000f0: a9a7 c1be de89 973d 129d e3be 91d7 cebc
00000100: 9f7a 5b3d 1fea 1c3e 67fb 88be 28ae 46be
00000110: 0816 b7bd 0130 86bd a122 ffbd d955 a4bd
00000120: 62ae 25be 5ec0 023d dd0e 663d 3cc3 b33e
00000130: 0e88 b7bd 9cc1 3e3e f1cc f6bd 2b6c 8cbd
00000140: c3ca 3fbd ac65 e23d dcf3 10bf 4ce9 20be
00000150: 059f 39be eba0 b23d 61b4 9a3e 5a74 c93d
00000160: 5d86 9fbd 68ee 343e a831 46be 900e 3fbd
00000170: 4c00 003d eba2 1e3e 5655 fabd 8b5c 663d
00000180: 6a40 353e 88f6 0ebd 4ec2 08bf 249a 663c
00000190: 61c7 e1bd cfa4 05be bd2e 56be e28f 4b3c
000001a0: 0bc9 64be 25ff c2bd c492 1b3d 6a30 bf3e
000001b0: 70f5 a63e d46c 343e a384 e0be 6335 93bd
000001c0: 78b8 df3d 1efa 4bbe 7cf3 cbbd fbf6 fabd
000001d0: 2baa 853e bf8f ca3e 33ef 513e e762 adbe
000001e0: 9efb 40be 1869 613d 40f1 893a f5dc 643e
000001f0: 2f26 7e3e 558f 823e b655 d83e 027e 4cbe
00000200: b565 39bb a759 2f3c ea63 dabe eaf3 e6be
00000210: 50ba 4a3e 5130 09bd 3f5c 82be d24d 49be
00000220: 554c 8e3d 9c55 323e 4e8a a3be 3a1a 54be
00000230: 523d 8cbe e2f8 b33c ca5e 433e 4116 8e3e
00000240: c376 94be e6f7 c2bb af1f a7be e762 c6be
00000250: 9451 893d 3065 6c3e 6f83 293e a4ca 563e
00000260: 9b94 ffbd 2ef8 083e 4eee 94be b5f2 bdbd
00000270: 89e1 b13e f145 3b3e db85 073e f9ca f53d
00000280: 2e47 82be 3c6b 93be 9826 74bd e82c c8be
00000290: 3cb0 d23c 7ac9 42bd 4b1b f83d b961 f43c
000002a0: 327b 203e aeb6 c23d 4df4 8cbb 503c 673d
000002b0: 705c 5a3e 70d2 84be b3f3 9dbe 7982 b2bd
000002c0: 8245 973e db13 f7bc a221 f7be 45fd ccbe
000002d0: 7f40 3c3e d3b0 283c 0ce3 81be 3306 70be
000002e0: 8d2c 9b3d 0d08 843d d1e7 943e b109 36be
000002f0: 0637 22be 08ca 0c3e 036c 3c3e e12d c6bd
00000300: dad1 283e 672d 51bc b9e0 5c3e 1b8e 893e
00000310: 5b16 2f3e 4a24 623d 37b1 c3bd 857d 11be
00000320: f720 afbd bf50 2cbe 3259 0abd ea6c 543e
00000330: 79a8 a13e 5fe6 3ebe be37 3ebe 74fd 0f3c
00000340: db97 1dbd 61dd 8abe df78 79be 5797 ec3d
00000350: 472e 9fbe 8c13 763e 4037 06be e811 9abe
00000360: c9c2 febd 15af 9fbd d3bd 2f3e 6a6f 2a3b
00000370: e0b1 14be 4c2b 84be 8987 cd3c 6147 f0be
00000380: 1d8b 083e 9daa dd3e 60f2 b93b eaca dd3d
00000390: 3f87 a83d 107f 3cbd 2fea 733d bf45 f43d
000003a0: e95b 9fbd 4163 913e 89a7 9ebd 762b 28bd
000003b0: 88cb 95bd f6d2 403e 9a5f e9bc 8daf efbe
000003c0: c8ed e1be db60 843e bca2 713e 406b 25be
000003d0: 1f50 a93e 9d9f 7bbe 187e 8cbe 672a 6e3e
000003e0: 0358 1c3e 6149 29bd 2039 f0bd b75a 59be
000003f0: 5edd d53e 2be1 bcbd 4b84 d8be 4ab7 ef3c
0.054127198 -0.29747853 -0.0901489 0.12986234 -0.22028567 0.08832885 0.20281196 0.12296686
-0.35262337 0.05388611 0.08484734 0.03522224 -0.12158478 0.10642579 -0.047121637 -0.08316283
-0.169714 0.03315913 0.13764825 0.056432795 0.015723286 -0.04512451 -0.36086017 0.060507234
0.014014261 0.07055678 -0.04230585 -0.11161667 -0.070959754 -0.038601544 -0.29498306 -0.2941051
0.079275735 0.41216835 0.014171515 -0.30536595 -0.2018066 0.004629455 -0.082012124 0.105517924
-0.041426666 0.07845065 0.19658706 -0.22896314 0.059546754 0.16006683 0.43723238 0.14260417
-0.017746672 0.29997742 -0.14193583 0.19387051 0.09804811 -0.196209 0.36161184 0.082576275
0.09811553 -0.20506497 0.24885957 0.031308193 -0.37823227 0.07399343 -0.44455773 -0.025249274
0.053583737 0.15323685 -0.26754305 -0.19402373 -0.08939749 -0.06552125 -0.12457777 -0.08024187
-0.16179803 0.031921737 0.05616652 0.3510989 -0.08961497 0.18628544 -0.12050808 -0.06856569
-0.046824228 0.110545486 -0.566221 -0.15713996 -0.18127067 0.08722099 0.30215743 0.098366454
-0.077893 0.1766907 -0.1935488 -0.046644747 0.031250283 0.15491836 -0.12223308 0.0562406
0.17700353 -0.03490308 -0.53421485 0.014074836 -0.11024357 -0.1305115 -0.20916267 0.012424441
-0.22342317 -0.09521321 0.037981763 0.37341624 0.3260913 0.1761964 -0.43851194 -0.07187917
0.109238565 -0.19919631 -0.0995855 -0.12254139 0.2610639 0.39562795 0.20501404 -0.3386452
-0.18845984 0.055031866 0.0010524169 0.22349913 0.24819253 0.2549998 0.42252892 -0.19969943
-0.0028289382 0.010702527 -0.42654353 -0.45107967 0.19797635 -0.033493344 -0.25461003 -0.19658592
0.06948153 0.1741547 -0.31941456 -0.2071313 -0.27390534 0.021969263 0.19079128 0.27751353
-0.28996858 -0.005949962 -0.3264136 -0.38747332 0.06705013 0.23085475 0.16554044 0.20975739
-0.12479516 0.13375923 -0.29088062 -0.09274808 0.34742382 0.182884 0.13234656 0.120016046
-0.2544493 -0.2879275 -0.05960712 -0.3909676 0.0257188 -0.047555424 0.12114581 0.029831754
0.15671995 0.095075 -0.004301584 0.056454003 0.21324325 -0.259418 -0.3084999 -0.08716292
0.29545218 -0.030160835 -0.48267847 -0.4003698 0.18383978 0.010296064 -0.25368536 -0.23439865
0.07576857 0.06446848 0.29083112 -0.17777134 -0.15841302 0.13748944 0.18400578 -0.096767195
0.16486302 -0.012767172 0.215701 0.2686623 0.17098372 0.05521039 -0.095552854 -0.14208038
-0.085512094 -0.16827677 -0.03377647 0.20744672 0.31573847 -0.18642567 -0.18575951 0.008788455
-0.0384749 -0.27122024 -0.24362515 0.11552303 -0.31089994 0.24030894 -0.13107014 -0.30091786
-0.12439496 -0.07797066 0.17162256 0.002600635 -0.14520979 -0.25814283 0.025089042 -0.46929458
0.13334318 0.4329423 0.0056746453 0.108297184 0.08228921 -0.046019614 0.059549507 0.119273655
-0.07781202 0.28396037 -0.077467985 -0.041057073 -0.07314211 0.18830475 -0.02848797 -0.46813622
-0.44126725 0.25855145 0.23597234 -0.16154194 0.3306894 -0.24572606 -0.27439952 0.23258363
0.15267949 -0.041329745 -0.11729646 -0.21226011 0.41770452 -0.09222635 -0.42288432 0.029262204

network_body._body_endoder.seq_layers.2.bias f4 [64]
00000000: 5b13 5c3d 463a 2e3e 2dcf bb3b d30c fa3c
00000010: fe3e cdbd 7dde d23b d366 623d 2494 a33c
00000020: 3ded 463d a4b1 ccbd fe21 3c3c bec6 8bbd
00000030: 2d9b 9d3d db75 8f3d 3967 433d cdd4 f03d
00000040: 440a 483c 3641 a3bd 2ec3 1fbd f3a0 dd3a
00000050: b392 563d 18c6 94bb 900d cfbd a116 87bd
00000060: b9da e0ba c764 853d 568d 2abc 1d35 c1bd
00000070: 194f a83a 17a6 ee3a e28e 393c a761 b3bb
00000080: f49a a83b 6222 913d 160d fa3d 3d57 b0bd
00000090: b496 693c 44d0 a13d c705 4ebe 6e1a 083c
000000a0: 4302 0e3c c376 623d df88 10be 2209 873d
000000b0: 292d a33d 2ced 4f3d f176 693d f31a 1c3d
000000c0: 3c7b c4bc 4bc0 df3d f3b8 3cbc c242 22bd
000000d0: 5abc c73d 0f8b 5fbd 2b06 963b 2741 85bc
000000e0: f61c 223d 047c 683b 19f8 37be f875 00be
000000f0: 9732 0bbc de16 5dbd 0a8c 893c 9bb3 65bd
0.053729396 0.17014417 0.0057314844 0.030523693 -0.100217804 0.006435214 0.055273842 0.0199681
0.04856609 -0.0999482 0.011482714 -0.068250164 0.07695613 0.07004901 0.047705863 0.117593385
0.012209479 -0.079714224 -0.039004497 0.0016908929 0.052385997 -0.004540216 -0.10110009 -0.06596113
-0.0017155028 0.065133624 -0.010409674 -0.09433959 0.0012840956 0.0018207458 0.01132557 -0.0054742876
0.005145425 0.07086636 0.12209527 -0.086103894 0.014257122 0.07901052 -0.20119391 0.008307083
0.008667531 0.05528904 -0.14114712 0.06593539 0.07967598 0.050763294 0.056998197 0.03811164
-0.023984544 0.10925349 -0.011518705 -0.039614446 0.09752722 -0.054575976 0.004578372 -0.016266419
0.0395784 0.003547431 -0.17965735 -0.12545002 -0.008495948 -0.053976886 0.016790409 -0.05607949

network_body._body_endoder.seq_layers.4.weight f4 [64, 64]
00000000: 1ecd 96be 618f b3bd c032 3d3d c2c8 9bbe
00000010: 187f 4abe 380f 183e 9e44 65bd 8bc8 1cbd
00000020: 259c 5fbb a9c8 34be e57d 103e 175d c5be
00000030: 7da6 07bd 288a 3b3d 2c45 a83e d65a cbbd
00000040: cd81 a0bd 06d4 dbbb 7d41 4bbe 1f7a 9e3e
00000050: cd60 2ebd 669b 87bc 3445 72be 5d07 d5bd
00000060: 1925 cdbe dbf7 5abb 3ced 3a3e f1ce 833e
00000070: 96c0 a5be ab38 d23d e797 cbbd 1b9c 70be
00000080: b8aa 263e c8ab 25be ce7a d5be 5d3a 4bbe
00000090: 9899 c23d 2524 943d 9b5c a43d f6fc 993d
000000a0: 1922 37be 88e0 c13d 3d89 e0be bca2 433e
000000b0: aba6 36bc d58c aabb 0ca9 b73e 9e06 12bf
000000c0: 92cb 0ebf efc8 bdbd 42b2 1fbe bf4b 70be
000000d0: b63e 483e 7d2a 313e 6051 e6be c2ce 7cbe
000000e0: f25d b23d 192e 073d 40c9 32be b55f ddbd
000000f0: cf39 da3e f8c7 953d f9ed 08be efce babe
00000100: 5ce4 373e 0914 8cbe 9a9d 083e 4c19 e5ba
00000110: b7f1 12be 0d2f 993c 961c bb3d f47d c3bd
00000120: a781 c9be f3cb eabd 4d0d 75be e6a3 2a3e
00000130: 00ed 583e 5cdf 2ebe ed82 873e c1a0 f33c
00000140: 7589 913d 406e 39be f930 23be bb9d 5a3d
00000150: 15a2 50be 25f1 ac3e 6460 8dbd 3fc7 8cbd
00000160: d6bc 86be d6d5 703c e6bf af3d d120 23be
00000170: d8e9 bcbe eeaa 68be 2564 2bbd 5884 a43d
00000180: e4ae 063e 677b b63e fb0c a6be 6b74 c5bc
00000190: 5630 f33d 31f4 273e e8d0 22be 9424 f2bd
000001a0: 3759 adbd 81f0 c8be dab5 64be d6e2 c0bc
000001b0: 2e53 90be 8f15 9ebe e741 c2be 6be2 b0bc
000001c0: d6b0 db3c a986 233d b123 8ebd db62 b2bd
000001d0: b832 bebe 3995 87be 0f33 bfbe ca64 adbe
000001e0: 54b3 01be f62f 6fbd 08bf 0ebd 314a c13e
000001f0: 5f26 eebd 7e24 913e a537 30be 97a6 5c3d
00000200: 9df6 26be 6c59 d5bd fc0c 493e 3853 9e3e
00000210: ae52 fd3d 44db d0bd 05e0 2dbe 7c4f 093e
00000220: d597 453e 6592 83bd 1a50 e4bc f463 a4be
00000230: 6df5 b7be 8305 42be 9efa 9bbd a33b 67be
00000240: 4dd8 20be e050 4cbe d2f1 8abe ea85 27bd
00000250: 7abd 0d3e 50dc 853e a3f1 483d 5977 a43e
00000260: 8dbf 9bbd 8353 413a 1fa1 41be 6280 0fbe
00000270: 416b 4d3e 3edc 95be 3f3c 693d 8f0f 1ebe
00000280: c134 70be 9afe 4fbc a86b 8b3c 042f cfbc
00000290: 64ac b33d 7b60 853d 4477 cb3c 452a 6abd
000002a0: 1f4f dabd 86fb 1abd 5a45 383e b796 143e
000002b0: 39fa 733e e90f 7ebe 59bf 82be e0e3 08be
000002c0: eb59 483e a31b 2ebe 90fa b3be 3a5e c7bc
000002d0: b276 eb3d bf78 3cbd 6ece 523d 9735 c23d
000002e0: ca29 23be d632 4dbe 1d20 83bd 3bb7 9f3e
000002f0: a46d 01bf 89d3 373e d009 b1be bda7 1bbc
00000300: 3b2b 3d3e ee38 ce3d 86e6 71be 2f59 14be
00000310: 6aeb dfbd c6bb 5ebe e7f3 96bd 0ed5 e33c
00000320: a774 05be 97c5 ba3e 11e5 b3be 8678 bcbe
00000330: 3feb 3abe b266 a7be b2fe 32bd 1549 59bd
00000340: a472 abbe 3804 963d 2f6c 99bd 6ce6 2abe
00000350: 3578 243d 4b03 91be 10b8 083d e232 6bbd
00000360: 091d 0d3e 9b23 333d 6bab 863d ed7a a7bd
00000370: b75b 1a3c 8539 9e3e 5e9b bfbd ffe3 233e
00000380: ae9e 003e f211 053e 1a30 513e e344 aabd
00000390: a64a ffbd 7611 73be fd1b 64be ef4f bfbe
000003a0: b847 e4be fda1 23bd 2474 483e feb4 02bc
000003b0: dffb 70be f43c 78bd 754e c23c fd89 923e
000003c0: 8411 70be 6a3a a43d cf18 2ebe db77 93bd
000003d0: e28f 673d d36a c33e d985 c63a ba0e 1b3f
000003e0: d941 023e ca9c e2be b70d 41be 7e66 0a3e
000003f0: 0a21 58be 6d91 a5be 7244 3fbd 35b2 94bd
-0.29453367 -0.08767582 0.046190977 -0.30426604 -0.19775045 0.14849555 -0.05597364 -0.03827719
-0.003412017 -0.17654671 0.14110525 -0.38547584 -0.03311776 0.045786053 0.32865274 -0.09929435
-0.078372575 -0.006708625 -0.198492 0.30952546 -0.042572785 -0.016553592 -0.23659211 -0.10401795
-0.40067366 -0.0033411894 0.1825456 0.2574382 -0.32373494 0.10264715 -0.099410824 -0.2349705
0.16276062 -0.1617881 -0.41695255 -0.19846483 0.09501952 0.072334565 0.080254756 0.075189516
-0.17884101 0.09466654 -0.43854704 0.19105047 -0.011148135 -0.005204777 0.3587116 -0.5704135
-0.55779374 -0.09266841 -0.15595344 -0.23466395 0.19555172 0.17301364 -0.4498396 -0.24688247
0.08709325 0.033002947 -0.17459583 -0.1080927 0.4262223 0.07313532 -0.1337203 -0.36486003
0.17958206 -0.27359036 0.1334137 -0.0017478853 -0.1435002 0.018699193 0.09136312 -0.09545508
-0.3935673 -0.114646815 -0.23930855 0.16664085 0.21184158 -0.17077392 0.26467076 0.02973974
0.07106296 -0.18108463 -0.1593665 0.05337308 -0.2037433 0.3377773 -0.06903151 -0.06873941
-0.26315945 0.01469942 0.085815236 -0.15930487 -0.3689716 -0.22721455 -0.041843552 0.08033055
0.13152653 0.35641024 -0.32431778 -0.024103364 0.11874454 0.16401745 -0.15900004 -0.11823383
-0.08464282 -0.3924599 -0.22334996 -0.023545664 -0.2818846 -0.30875823 -0.37940904 -0.02159234
0.02681772 0.039923344 -0.06940401 -0.087102614 -0.3714807 -0.26481035 -0.37343642 -0.33865958
-0.12666065 -0.05839535 -0.03485015 0.37751916 -0.116284125 0.28348154 -0.17208727 0.05386981
-0.16305013 -0.104174465 0.1963386 0.30922866 0.123692855 -0.101980716 -0.16979988 0.13409227
0.192962 -0.06424407 -0.027870227 -0.32107508 -0.35929433 -0.18947415 -0.07616161 -0.22581343
-0.15707512 -0.19952726 -0.2713762 -0.040899195 0.13841811 0.26144648 0.049058568 0.32122305
-0.07604895 0.000737481 -0.18909119 -0.14013818 0.20060445 -0.29269594 0.05694222 -0.15435623
-0.23457624 -0.012694979 0.017019108 -0.025290973 0.08773115 0.06512543 0.024837144 -0.057169218
-0.106596224 -0.037837528 0.17995206 0.14510618 0.23825921 -0.24810757 -0.25536612 -0.13368177
0.19565551 -0.1700273 -0.35152102 -0.024336923 0.11497249 -0.04601359 0.051466398 0.09482878
-0.1593391 -0.20038924 -0.064026095 0.3119448 -0.50557923 0.17951788 -0.345778 -0.009500441
0.18473522 0.10069452 -0.23623094 -0.14487146 -0.109335735 -0.21751317 -0.073707394 0.027811553
-0.1303278 0.36478874 -0.351357 -0.36810702 -0.18253802 -0.32695538 -0.043699928 -0.053048212
-0.334859 0.073250234 -0.074913375 -0.16689461 0.0401537 -0.28322825 0.03337866 -0.057421573
0.13780607 0.043735128 0.06575664 -0.08177743 0.009421281 0.3090326 -0.09355806 0.16004942
0.12560531 0.12995127 0.20428506 -0.0831392 -0.1246541 -0.2373713 -0.22276302 -0.37365672
-0.44585967 -0.039949406 0.19575554 -0.007977722 -0.23533581 -0.060605004 0.023719052 0.28620902
-0.23444182 0.08018954 -0.17001651 -0.07200595 0.0565337 0.38167438 0.0015146091 0.60569346
0.12720431 -0.44260246 -0.18852888 0.1351566 -0.21106353 -0.32337514 -0.046696134 -0.07260553

network_body._body_endoder.seq_layers.4.bias f4 [64]
00000000: 7a07 963d f5c1 713c b3ee b6bc 6057 f0bb
00000010: a6a3 9a3d 568f 193e 317d d7bd bdf6 273e
00000020: 75bf d2bd 5988 f23d f068 5b3e df47 813c
00000030: 6343 483d ad43 9fbd f930 ba3d 20e9 7f3e
00000040: dd47 753c e093 483d 3a8d a6bd f05b 233e
00000050: 6dd7 a13d 0588 90bc 514d 0cbd 495e a1bd
00000060: c1e6 423d ca7e 9e3d dd25 083e ffb6 2abd
00000070: 59b6 7c3d e33c 0a3e 7ac4 8b3c 1fed cc3d
00000080: 422d 1bbe 8087 1a3e 748e 3f3e a3b1 523c
00000090: b8e9 f1bc 1b39 953d e41f cb3b cea7 48be
000000a0: c446 a3bc 3fd5 ac3d 5fb4 c6bc dd64 5ebd
000000b0: a818 68bd d833 17bc 7f34 ad3d 59cb 94bd
000000c0: baed 2d3d adf0 123e 55d7 b23d 5c17 e53c
000000d0: c438 f0bc 9e6e 393c 38c5 693e b84e cd3c
000000e0: 5256 cb3c b34f 4c3e 5dc8 acbc c59a 203a
000000f0: c471 edbd 3f8f 03bc 52a5 edbd faba 783e
0.07325645 0.014755716 -0.022330618 -0.0073346347 0.07550745 0.14996085 -0.10521925 0.16402717
-0.10290424 0.118424125 0.21426749 0.015781341 0.04889239 -0.0777658 0.09091372 0.24991274
0.014970747 0.04896915 -0.081324056 0.1595304 0.07902417 -0.017642984 -0.034253422 -0.078793116
0.047583345 0.07739027 0.13295694 -0.041678425 0.061697338 0.13499789 0.01706146 0.10006165
-0.15153983 0.15090752 0.18706685 0.012859735 -0.029530391 0.07286283 0.00619887 -0.19595262
-0.019931205 0.08439111 -0.02425593 -0.05429541 -0.05666414 -0.009228669 0.084572785 -0.07265348
0.04246304 0.14349623 0.087324776 0.02796524 -0.029323943 0.011317877 0.22829139 0.02506195
0.024821434 0.19952278 -0.021091634 0.0006126578 -0.11593965 -0.008029758 -0.11603798 0.24290076

action_model._continuous_distribution.log_sigma f4 [1, 44]
00000000: 806e 4a3f cb6a c13f ebbc a83f 7d8f 8c3f
00000010: aa7a 5a3f 1417 853f 5af8 6e3f 9bfe 913f
00000020: 926a 7e3f 4e96 4e3f ab1a a83f feff 7a3f
00000030: 4b3c 4b3f 2dd2 743f 271b c33f fe95 753f
00000040: 73e0 113f 8daf 4e3f 2a3a 213f c61d 643f
00000050: 5261 393f 64e3 8c3f 7c0e 8a3f 7ba7 aa3f
00000060: 5c90 e03e 6180 353f 210e 5a3f 1017 1e3f
00000070: baa8 f93e d7c0 a23f e5e3 863f 5a1a 7f3f
00000080: da77 973f ea08 d03e 7bf9 6a3f f794 383f
00000090: c065 843f 130a 613f de33 473f 8d29 143f
000000a0: a617 a53f c1a8 9b3f 4db4 0e3f 8209 843f
0.7907486 1.5110716 1.3182653 1.0981289 0.8534342 1.0397668 0.93347704 1.1405824
0.99381363 0.80698097 1.3133138 0.98046863 0.79388875 0.956332 1.5242661 0.95931995
0.5698311 0.8073662 0.62979376 0.8910793 0.72414124 1.1006894 1.078567 1.3332361
0.43860137 0.70899016 0.8517781 0.6175394 0.4876154 1.27151 1.0538298 0.99649584
1.1833451 0.406318 0.91786927 0.721023 1.0343552 0.87906 0.7781352 0.578759
1.2897842 1.2160875 0.5574387 1.0315402

action_model._continuous_distribution.mu.weight f4 [44, 64]
00000000: 6299 a53c 66b0 c8bc 8d13 a93d 04cd 1abd
00000010: 6a5b 9abd 737e a23b 47a6 c23d ce2a b53c
00000020: 310e e33d 80f1 debc 8e7d 98bd f508 84bd
00000030: ec3b 10be 13c3 6bbe d05a 7a3d cfff dfbd
00000040: d5f0 90be 4501 4d3e e0ad cc3c bde0 50be
00000050: 442c 363e 250b 803a 021e 1c3e c698 d13e
00000060: 3b49 f1bd 4adf 2abd d857 1e3d 3e86 1abc
00000070: f29d 10be 5dc4 4a3e 7ef4 783d c151 0abe
00000080: b24f bcbd f4e0 12be fac6 29bd af0a fabd
00000090: 1b75 c4bd c6b3 8c3e 6707 053e 7c06 fdbd
000000a0: cbbb 28be 5ece 42be 3994 303e 0f22 4f3e
000000b0: 209b ac3d 12b9 84bd 40ca 913c ca58 043e
000000c0: db12 723d 3885 a1bd 7b12 cf3d b141 4abe
000000d0: 24ee fdbc 0a62 04bd 6397 c93c afcc d0bd
000000e0: 1b66 28be 8de3 29bd e307 83bd 7738 40be
000000f0: d96a 49bc b7bf 4d3e 51a1 e8bd 5ff3 d7bd
00000100: ab4f bcbe 0267 7dbe 1d25 053c f1f1 983e
00000110: bb0e 73bd 1aac a33d 0889 493d 40b7 443e
00000120: 5c04 b63c 5919 613d 255d a4be 9828 013e
00000130: 33ff c03e c11b 633e bb1c 123e c26f a83e
00000140: 7e0c 573e 460f c2bd ba2c 913d efd7 d9be
00000150: a804 783e cba2 6a3d c402 3c3e daab 973d
00000160: 5671 ed3e 330a a7be 6d2c 41bd 9b6c 67ba
00000170: 823b 2cbe 0357 b9be a539 6d3d c417 25be
00000180: fa67 8bbd b635 64be 99f2 73be 17d5 46be
00000190: c1ff efbc e256 72bd 3c16 833e a585 f0bd
000001a0: 67fa a8bd 9b8b e03d 1276 dabc f225 463e
000001b0: 69c1 08bd 0401 b83d 0eae 313d 1186 95be
000001c0: 873c 8ebe bc3e cdbd 2b98 5dbe b06d 113e
000001d0: 73c4 9cbe 325b 61be 8d14 aabc abc0 0cbc
000001e0: 6efe 35be 05fd 16be e95a a2bd e359 ab3d
000001f0: 3363 36be 3b26 163e 65da c13d c083 3dbe
00000200: 699c a6bd c7e4 72be 57a6 b23d 4ca5 1cbe
00000210: 14ea 2a3e 4554 01bd aab1 2dbd 6e11 18bd
00000220: a7bb 22be b36e 16be 3239 4aba 3b0a 9abc
00000230: 46a1 39be 2700 27be 7fbf 2f3e b6c6 3dbd
00000240: d2ca ff3d cdd5 64bd 748e 443d 76e5 d5bd
00000250: e8cb bc3d 5e23 1e3e ef5e 253e 7467 40bc
00000260: 9d6e abbd b108 20be 84cb 453e 4ce7 103e
00000270: 51ec da3d 3dd0 47be 3616 123e 05a2 863d
00000280: cf8a e2bb 3d41 823d 9b9e 253e 8bba 653e
00000290: 1e1c 7fbe 75d2 293b 3c8a 793e 4ef9 863e
000002a0: c6fa 523d 982b 82bd b407 983e b1b4 4fbc
000002b0: 15ff 4bbd ad83 07be 1781 793d 3ccd 983e
000002c0: a1b2 eebd 722a 83be 7fcd 0e3e 9b67 283e
000002d0: 9db9 123d 8a12 c0bb aefa 8bbe b5b3 773e
000002e0: f6e3 a13e 89e7 90be 3e2d 4fbd 3dba 583e
000002f0: 1178 4dbe 0e48 923d 5507 8abd a6fe 13be
00000300: f6e6 bcbc 59a5 7e3d 3adb 413e e3ad b5ba
00000310: a0ed a6bd a204 19bd 8b9e f23e 3a86 803e
00000320: bbb1 493e 7169 7cbe edfc 3fbe 41f3 28bd
00000330: 7012 fb3c 0832 063e c15a 283e 4be2 2b3d
00000340: 5d29 b0be 2665 8fbd 9607 063f e9b1 a33d
00000350: 4795 09bd f6e1 31be a407 073e f083 973d
00000360: ee25 613e 6aa0 9cbd ac3c c43d 7382 5a3e
00000370: c098 ad3d fa74 b7bd 165d 4a3d 2e34 b23c
00000380: 7abb 97bd b248 18be f637 913e 4e8e 883b
00000390: 876a 18be d026 c73c 312b 933d 8f90 a83d
000003a0: 942f c13d deb6 cf3d 99fc bb3c d840 c7be
000003b0: 1d10 01bc 88d4 1c3e d4ba 693e 2500 b23d
000003c0: b789 073e 1907 8e3e 70b0 cb3c 6610 5bbe
000003d0: 978f 75bd d7c2 833e a103 593e a15d c33d
000003e0: 7acd 873d afda bbbe e0c4 47bd 7c76 21be
000003f0: 64c2 9c3e 05b0 1e3e f053 163e 5d20 35be
0.02021474 -0.024498176 0.08255682 -0.037793174 -0.07536967 0.0049589216 0.09504371 0.022115137
0.11086691 -0.027214766 -0.07445823 -0.06447021 -0.14085358 -0.23023634 0.06112176 -0.109374635
-0.2830874 0.20020016 0.024985254 -0.20398231 0.17790323 0.0009768946 0.15245822 0.4093687
-0.11781546 -0.04171685 0.038657993 -0.00943142 -0.14122751 0.19801469 0.06078004 -0.13507749
-0.09194888 -0.14343625 -0.041449524 -0.12209069 -0.095926486 0.27480906 0.12991105 -0.123547524
-0.16477887 -0.19024035 0.17244042 0.20227836 0.08428025 -0.06480612 0.017796636 0.12924495
0.059100013 -0.078867376 0.10110947 -0.19751622 -0.030997343 -0.03232006 0.02460832 -0.1019529
-0.164452 -0.041476775 -0.06397989 -0.1877154 -0.012293541 0.20092665 -0.11358894 -0.10544466
-0.36779532 -0.24746326 0.008126524 0.29872087 -0.05934022 0.0799181 0.04920295 0.1921053
0.022218876 0.054955814 -0.32102314 0.12613142 0.37694702 0.22178556 0.14268772 0.32897764
0.21000859 -0.094755694 0.07088609 -0.42547557 0.24220526 0.057284158 0.1836043 0.07405825
0.4637553 -0.3262497 -0.04716151 -0.0008828134 -0.16819575 -0.36199197 0.057916302 -0.16122347
-0.06806941 -0.22286114 -0.23823012 -0.19417225 -0.029296758 -0.05916489 0.256029 -0.11744241
-0.082508855 0.10964128 -0.026667628 0.19350412 -0.033387575 0.08984569 0.043378882 -0.29203847
-0.27780554 -0.10021731 -0.21640079 0.14201999 -0.3061863 -0.22007445 -0.020761753 -0.0085908575
-0.17772838 -0.14744957 -0.07927496 0.08366754 -0.17811279 0.14663021 0.094654836 -0.1850729
-0.081353016 -0.23720084 0.08723133 -0.15297431 0.16690856 -0.031574506 -0.04240576 -0.037125997
-0.15891896 -0.14690666 -0.0007714211 -0.018803706 -0.18127927 -0.16308652 0.17162894 -0.046332084
0.12489857 -0.05586796 0.047987416 -0.10444157 0.092185795 0.15443179 0.16149496 -0.011743415
-0.08370707 -0.15628316 0.19315916 0.14150733 0.10689605 -0.1951303 0.14266285 0.065738715
-0.00691352 0.063600995 0.16173784 0.22434442 -0.2491307 0.0025912796 0.24369138 0.2636208
0.051508687 -0.06355971 0.29693377 -0.0126773575 -0.049803812 -0.13233824 0.060914125 0.2984408
-0.116551645 -0.2561832 0.13945578 0.16445772 0.035821546 -0.005861585 -0.2733969 0.24189647
0.31619233 -0.28301647 -0.050580256 0.21164794 -0.20065333 0.071426496 -0.0673968 -0.1445261
-0.02305935 0.062169407 0.18931285 -0.0013861026 -0.08150792 -0.037357934 0.47386584 0.25102407
0.19696705 -0.24649598 -0.18748827 -0.04124761 0.03064844 0.13105023 0.1644087 0.041963857
-0.34406558 -0.070017144 0.52355325 0.07992918 -0.033589628 -0.17371354 0.13186508 0.07398212
0.21987125 -0.07647784 0.09581885 0.21338825 0.084764004 -0.089578584 0.04940518 0.021753397
-0.07408805 -0.14871481 0.28363007 0.0041673547 -0.14884387 0.0243105 0.071859725 0.08230697
0.09432903 0.10142301 0.022947596 -0.3891666 -0.007877377 0.15315449 0.22825176 0.08691434
0.13236128 0.2773979 0.024864405 -0.21392974 -0.05995139 0.25734589 0.2119279 0.09539343
0.066309884 -0.3669028 -0.04877174 -0.15767854 0.30617058 0.15496834 0.14680457 -0.17688127

action_model._continuous_distribution.mu.bias f4 [44]
00000000: d175 823c 6673 ebbd 3e64 aabc b29c a9bd
00000010: dce4 cdbc 78c0 df3a 730f 983d 933a ef3d
00000020: 6686 9f3c 7be0 9ebd f607 04bd 3ffe c7bd
00000030: 1aa3 b4bd fe6c 0fbd a86e 60bc 595d edbd
00000040: 7145 61bd 7406 63be 0afa 89be e87b 8dbe
00000050: 3172 d2bd 071a b2bc bc8c 07be 6303 73be
00000060: 2e56 68bd 2328 81be 89b7 a9be 61a8 54be
00000070: 9ba4 05be f218 6a3d 77e2 fbbd 87c1 62be
00000080: 0980 d0be 6c7b 03be 5db8 4cbe ef8d 15bd
00000090: 58ff 77bc 3b5a c0bd 592f 0ebe f797 aabc
000000a0: 934c d4bd 42d9 2cbe 86ae c1bd 322f 433e
0.01592532 -0.1149662 -0.020799752 -0.082818404 -0.025133543 0.001707091 0.07424822 0.11681094
0.019473266 -0.0775766 -0.032234155 -0.097652905 -0.08820172 -0.035016052 -0.0136982575 -0.1159007
-0.054997865 -0.2217043 -0.26948577 -0.27633595 -0.102756865 -0.021740926 -0.1323728 -0.2373176
-0.056722812 -0.25225934 -0.3314784 -0.20767356 -0.13051073 0.057152696 -0.12299054 -0.22144137
-0.40722683 -0.1284005 -0.19992204 -0.03651231 -0.015136562 -0.0939221 -0.13885249 -0.020824416
-0.10366168 -0.16879752 -0.09457116 0.19060972
