results/b090rereremaze2/Dynamic Table/Dynamic Table-699984.onnx (onnx, 74582 bytes, 9 tensors)

network_body._body_endoder.seq_layers.0.weight f4 [64, 94]
0.15747602 -0.19013399 -0.07159615 0.14599533 -0.04676444 -0.012934122 0.17770472 -0.14135113
-0.46977997 -0.43238494 0.016765099 0.08829549 0.2980206 0.015816575 -0.15553276 -0.16761337
-0.2525485 -0.14058061 0.09747874 0.17102234 0.2973055 0.16418725 -0.025105527 -0.100492224
-0.2154631 -0.06296542 0.046005473 0.26769572 0.06554782 -0.14360066 -0.19526978 -0.27450126
0.023598487 -0.026956057 0.07507409 -0.08450353 -0.14976713 0.30323273 0.093789496 -0.14827868
-0.01802943 0.12028446 -0.051100206 0.21324429 0.21197794 -0.012884232 -0.043587036 0.14729206
-0.024431733 -0.17088985 -0.15319416 -0.030752633 -0.19345677 -0.23359455 0.035462983 -0.22926818
-0.07786367 -0.2972892 -0.065754406 -0.15873112 -0.08825884 -0.13230151 -0.1004626 -0.22081116
0.09974711 -0.24552786 -0.12848505 -0.1205464 0.19746983 -0.2742527 0.07418443 -0.20570236
-0.29459834 0.13786186 -0.5149091 -0.30522224 0.12293835 -0.23214802 -0.0498195 0.15842281
-0.1329737 -0.32691967 -0.23896313 0.25987205 0.01501156 -0.020360796 -0.07225421 -0.14570732
0.068014815 0.06447676 -0.031276144 0.116305396 0.048372254 -0.052751727 0.042409904 0.116487995
-0.08101078 -0.17648631 0.19761103 -0.06968847 0.08547648 0.070849486 0.03507867 -0.09880225
-0.02499791 -0.33030382 -0.047778625 0.13211174 -0.04393411 -0.19301645 -0.24680127 0.12992066
0.03873204 0.06053672 -0.15144333 0.23346885 -0.14995635 0.09045685 0.25053456 -0.047185797
0.28370878 0.048865285 0.10384788 -0.12795882 -0.21537237 0.09998855 0.093974784 0.4037147
-0.30147642 0.03981808 -0.16783588 0.11461559 -0.16090988 0.03738921 0.15359473 -0.08450755
-0.0026593383 0.1148565 0.5636322 0.06750988 0.036691364 -0.31633118 0.20937407 -0.2729051
0.09796068 0.062150635 -0.029560672 -0.008115332 -0.0996401 -0.057565648 -0.014781807 0.047857378
0.023762167 -0.048799668 0.2097012 0.06540738 0.10897269 -0.04584598 0.0685092 -0.22837977
0.0784543 -0.02110117 0.111408606 0.0045011304 -0.06659112 -0.13399604 -0.13824318 0.0029366473
0.14404956 -0.088508286 0.032406036 -0.0142207425 0.12165641 -0.034774195 0.052030925 -0.08170925
-0.17680052 -0.24227835 -0.14036326 -0.10494459 -0.112371534 -0.04280916 -0.1020291 -0.054481566
-0.17282304 -0.025211334 0.15847011 0.039408125 -0.12866811 0.030763183 -0.22215042 -0.29127792
0.03697246 0.17352091 -0.10489326 0.02277303 -0.34979647 -0.4305825 -0.20032787 -0.09883988
-0.07190795 -0.05055457 -0.19731179 -0.108476035 -0.14182442 0.040632173 0.25735068 -0.027327027
0.08962715 0.060803935 -0.38160118 -0.23479894 0.020420458 0.3184509 0.23131195 0.42104712
-0.12599504 -0.17441675 -0.066297054 -0.20733447 0.15360291 0.65757865 -0.08617031 0.27258018
-0.31615937 -0.17487656 0.022666924 -0.08503021 0.36249992 0.14523844 -0.11606164 0.007636
0.026148213 0.119521774 -0.08619287 -0.1441837 0.10441904 0.1522652 0.20924789 -0.01444745
0.02449239 0.30769467 0.050497547 0.028661584 0.022855071 -0.35767484 -0.0688821 -0.26861706
-0.3812652 0.2031922 -0.12045101 0.023338733 0.30149245 -0.18728219 0.15112203 0.1670881
00000000: 6541 213e 7cb2 42be 01a1 92bd cd7f 153e
00000010: 128c 3fbd a4e9 53bc 3af8 353e 5abe 10be
00000020: 0087 f0be 8f61 ddbe f656 893c 44d4 b43d
00000030: 2896 983e c391 813c fb43 1fbe d7a2 2bbe
00000040: 094e 81be 5df4 0fbe efa2 c73d 7b20 2f3e
00000050: 6d38 983e b420 283e 1baa cdbc dece cdbd
00000060: 5ca2 5cbe 04f4 80bd 3c70 3c3d 6a0f 893e
00000070: ef3d 863d 0d0c 13be cdf4 47be 6e8b 8cbe
00000080: 9d51 c13c f3d2 dcbc 72c0 993d 3010 adbd
00000090: 8e5c 19be 5241 9b3e b514 c03d 5ed6 17be
000000a0: 75b2 93bc b357 f63d 734e 51bd b65c 5a3e
000000b0: bf10 593e 6318 53bc 5288 32bd bbd3 163e
000000c0: 0f25 c8bc c0fd 2ebe eede 1cbe f2ec fbbc
000000d0: 8819 46be 6933 6fbe a241 113d 47c5 6abe
000000e0: fd76 9fbd 4a36 98be 3faa 86bd 698a 22be
000000f0: 0dc1 b4bd 0c7a 07be 56bf cdbd 521c 62be
00000100: 3648 cc3d a86b 7bbe 9691 03be 08e1 f6bd
00000110: 8835 4a3e da6a 8cbe 02ee 973d a4a3 52be
00000120: 98d5 96be a92b 0d3e 15d1 03bf 1746 9cbe
00000130: 1ac7 fb3d 36b8 6dbe 880f 4cbd 9739 223e
00000140: 422a 08be 0462 a7be c0b2 74be f30d 853e
00000150: 0cf3 753c afcb a6bc 04fa 93bd 4d34 15be
00000160: 5a4b 8b3d 640c 843d 6a1b 00bd 8631 ee3d
00000170: fc21 463d 3212 58bd 02b6 2d3d 4291 ee3d
00000180: fbe8 a5bd d4b8 34be 8c5a 4a3e d4b8 8ebd
00000190: 4b0e af3d 8919 913d a7ae 0f3d d658 cabd
000001a0: 6bc8 ccbc 951d a9be 85b3 43bd 4d48 073e
000001b0: 41f4 33bd 1ba6 45be 79b9 7cbe ec09 053e
000001c0: 7da5 1e3d 5af5 773d f613 1bbe 7512 6f3e
000001d0: 288e 19be 7141 b93d 1146 803e e545 41bd
000001e0: 4742 913e f726 483d 33ae d43d a307 03be
000001f0: 938a 5cbe ccc6 cc3d da75 c03d b1b3 ce3e
00000200: 1e5b 9abe 4818 233d 2bdd 2bbe 94bb ea3d
00000210: 8fc5 24be 6e25 193d f047 1d3e 4b12 adbd
00000220: 4b48 2ebb e239 eb3d 334a 103f 9f42 8a3d
00000230: af49 163d 29f6 a1be 2866 563e 38ba 8bbe
00000240: 9c9f c83d aa91 7e3d 3929 f2bc 2bf6 04bc
00000250: 1c10 ccbd f5c9 6bbd 642f 72bc 1906 443d
00000260: e0a8 c23c 29e2 47bd e9bb 563e 4ef4 853d
00000270: 132d df3d ffc8 3bbd 8d4e 8c3d 63dc 69be
00000280: a6ac a03d 5cdc acbc 322a e43d 387e 933b
00000290: ed60 88bd 4236 09be 9f8f 0dbe c474 403b
000002a0: ba81 133e d543 b5bd 31bc 043d 1efe 68bc
000002b0: ff26 f93d 636f 0ebd 611e 553d 2e57 a7bd
000002c0: 320b 35be d117 78be 63bb 0fbe 30ed d6bd
000002d0: 0c23 e6bd a858 2fbd a2f4 d0bd 1028 5fbd
000002e0: 86f8 30be 0088 cebc fd45 223e 6a6a 213d
000002f0: 93c1 03be 1203 fc3c 667b 63be 6122 95be
00000300: 6f70 173d 77af 313e 47d2 d6bd 818e ba3c
00000310: 8618 b3be 4f75 dcbe c022 4dbe 906c cabd
00000320: 7a44 93bd 4f12 4fbd 1a0c 4abe af28 debd
00000330: 6c3a 11be ec6d 263d 78c3 833e eedc dfbc
00000340: 708e b73d 8c0d 793d 3b61 c3be 226f 70be
00000350: ce48 a73c ff0b a33e 0add 6c3e 7d93 d73e
00000360: d804 01be 4e9a 32be c0c6 87bd 7d4f 54be
00000370: 154a 1d3e 1357 283f 0f7a b0bd a18f 8b3e
00000380: a4df a1be d712 33be fcaf b93c 5224 aebd
00000390: 9799 b93e 63b9 143e bab1 edbd 6937 fa3b
000003a0: c734 d63c d5c7 f43d e385 b0bd e4a4 13be
000003b0: a6d9 d53d 69eb 1b3e 1445 563e ffb4 6cbc
000003c0: 44a4 c83c 288a 9d3e 84d6 4e3d b3cb ea3c
000003d0: 8f3a bb3c 2821 b7be 0f12 8dbd 2d88 89be
000003e0: 3135 c3be 9e11 503e 05af f6bd df30 bf3c
000003f0: 385d 9a3e e7c6 3fbe bcbf 1a3e 2519 2b3e

network_body._body_endoder.seq_layers.0.bias f4 [64]
-0.029447885 -0.037081502 0.04768532 -0.015252719 -0.0015969995 0.0059729735 0.058826692 0.07598827
-0.041064832 -0.02311766 -0.040729623 0.003345014 0.02387662 -0.01797674 -0.004933092 -0.005225598
-0.0566702 0.049705014 0.02788593 -0.07527561 -0.040291253 -0.0076991622 -0.0065592835 -0.05979559
-0.07502046 -0.030845733 -0.061550017 0.06928032 0.06754339 -0.03535688 -0.054494996 -0.009505974
0.016924053 0.003320244 -0.037070207 -0.04372807 -0.008800067 -0.0088621825 0.03829114 0.06122746
0.019545421 0.00824917 0.003902706 -0.029877065 0.021462198 0.021267496 -0.049804214 -0.044057276
-0.072586365 0.035131164 -0.0051917164 -0.02192543 -0.01939397 -0.042341262 0.03838175 -0.0202694
-0.07333082 -0.01009059 0.014627161 -0.02311719 0.0018878876 -0.07840666 -0.016278341 0.06803257
00000000: b13c f1bc c6e2 17bd af51 433d 8ae6 79bc
00000010: 6952 d1ba efb8 c33b 42f4 703d bd9f 9b3d
00000020: 9933 28bd 3f61 bdbc 1bd4 26bd 0638 5b3b
00000030: e798 c33c f543 93bc c6a5 a1bb 7e3b abbb
00000040: 031f 68bd 7c97 4b3d 0971 e43c 192a 9abd
00000050: 7108 25bd 4149 fcbb 42ef d6bb 38ec 74bd
00000060: 54a4 99bd 31b0 fcbc df1b 7cbd d7e2 8d3d
00000070: 3054 8a3d 60d2 10bd 2536 5fbd f2be 1bbc
00000080: 50a4 8a3c 7398 593b eed6 17bd 341c 33bd
00000090: 282e 10bc b032 11bc 2cd7 1c3d a5c9 7a3d
000000a0: b81d a03c 8727 073c 8bc4 7f3b bfc0 f4bc
000000b0: 7ed1 af3c 2c39 ae3c 81ff 4bbd 6775 34bd
000000c0: 29a8 94bd b2e5 0f3d 461f aabb f69c b3bc
000000d0: 1ae0 9ebc 086e 2dbd 2f36 1d3d 030c a6bc
000000e0: 782e 96bd 0153 25bc c3a6 6f3c 4360 bdbc
000000f0: ff72 f73a ac93 a0bd 285a 85bc a954 8b3d

network_body._body_endoder.seq_layers.2.weight f4 [64, 64]
0.037422944 -0.3027581 -0.11026009 0.09121131 -0.24841592 0.035540693 0.2080085 0.12984319
-0.29597238 0.039618436 0.047455046 0.034795035 -0.106975846 0.12512812 -0.041274365 -0.13532062
-0.1395957 -0.013904493 0.12939288 0.08104931 -0.011739839 -0.07177825 -0.41216594 0.080576494
-0.059544448 0.04775011 0.021774817 -0.1315697 -0.097824655 -0.022042003 -0.2550217 -0.32618043
0.06740956 0.40692508 0.10718436 -0.29820406 -0.23797162 0.018875968 -0.08356683 0.11560056
-0.039651014 0.0026869983 0.20089082 -0.24919389 0.04434532 0.1588578 0.47018707 0.14471349
-0.038252354 0.25194445 -0.12766914 0.17692329 0.08312528 -0.17707895 0.33031327 0.085877635
0.14890951 -0.2085786 0.16545084 0.029996503 -0.36461198 0.049518175 -0.46949342 -0.049583845
0.06227877 0.14355582 -0.25851047 -0.14185601 -0.09371544 -0.007026488 -0.14443809 -0.11400358
-0.19375835 0.039631773 0.06911804 0.34215248 -0.1083769 0.18274583 -0.13238376 0.0017919658
-0.031570897 0.08074721 -0.56871974 -0.10835558 -0.13957769 0.098903514 0.30877778 0.0865633
-0.043420397 0.16627072 -0.21944349 -0.03681429 0.03145203 0.1602404 -0.10620085 0.03923147
0.18183438 -0.02505251 -0.51396704 -0.018988697 -0.079022646 -0.13600087 -0.107463464 0.03781309
-0.21797004 -0.08464117 0.04303263 0.3701336 0.30488548 0.17783128 -0.44471553 -0.100107566
0.090386435 -0.16698432 -0.08403267 -0.10867297 0.3006861 0.4181278 0.198545 -0.352617
-0.2145595 0.06377324 0.049837973 0.13386057 0.25077745 0.25679025 0.41959506 -0.20517068
-0.018067813 0.0035264166 -0.47643092 -0.4787434 0.14005348 -0.11979585 -0.3580497 -0.123962834
0.08289654 0.28530943 -0.34951645 -0.21614839 -0.2773801 0.024968443 0.18467084 0.28553435
-0.24534476 0.06515022 -0.25337318 -0.4022886 0.051250417 0.2359747 0.15661938 0.20762499
-0.11232141 0.12538618 -0.22333027 -0.10658196 0.42389444 0.20932227 0.12876883 0.13574833
-0.23964867 -0.22295603 -0.04038504 -0.37967637 -0.03108112 -0.039369654 0.15443125 0.055289418
0.12810606 0.13958581 0.030126275 0.07065582 0.2734895 -0.24286598 -0.40723187 -0.09892736
0.29179874 -0.07336891 -0.62274826 -0.37726736 0.18893313 -0.014005327 -0.29869106 -0.17163317
0.024350688 0.0676626 0.23036987 -0.31495133 -0.16745204 0.13104817 0.18083078 -0.06490312
0.18089649 -0.0036290397 0.2904031 0.19417784 0.14864403 0.052661676 -0.06302615 -0.06133458
-0.11800982 -0.1363684 -0.03869645 0.26672727 0.28101188 -0.24860959 -0.20947939 0.035247494
-0.05260909 -0.23118569 -0.22026047 0.13960795 -0.37440905 0.2178313 -0.14575405 -0.3481473
-0.108593985 -0.10228322 0.24343973 0.018301424 -0.123162076 -0.2656945 0.02689295 -0.547202
0.13009304 0.40588608 0.05039442 0.11797908 0.071045965 -0.07569544 -0.00428326 0.07331883
-0.08641338 0.26030025 -0.0842143 -0.03959174 -0.06205158 0.18359111 -0.027801154 -0.4568083
-0.5029386 0.24722525 0.23892947 -0.19394676 0.327954 -0.26812923 -0.27431935 0.24664997
0.1627343 -0.059483577 -0.13487004 -0.2232795 0.43578428 -0.098078676 -0.43610045 0.014228268
00000000: cd48 193d 1c03 9bbe 0bd0 e1bd ffcc ba3d
00000010: be60 7ebe 1e93 113d 2e00 553e 9df5 043e
00000020: b189 97be f146 223d 3960 423d 3d85 0e3d
00000030: 2716 dbbd 9621 003e 4f0f 29bd 7d91 0abe
00000040: 2df2 0ebe accf 63bc 917f 043e 2efd a53d
00000050: 7458 40bc 7a00 93bd 6a07 d3be 4a05 a53d
00000060: e1e4 73bd 9f95 433d 1a61 b23c 35ba 06be
00000070: 4b58 c8bd 6e91 b4bc 3492 82be 1f01 a7be
00000080: 060e 8a3d 7c58 d03e 7983 db3d 34ae 98be
00000090: d5ae 73be c6a1 9a3c 1625 abbd fdbf ec3d
000000a0: 1a69 22bd 5a18 303b 53b6 4d3e af2c 7fbe
000000b0: 70a3 353d 9eab 223e 5cbc f03e c62f 143e
000000c0: 80ae 1cbd ddfe 803e b3bb 02be 612b 353e
000000d0: 963d aa3d 2f54 35be d21e a93e 9de0 af3d
000000e0: bc7b 183e a195 55be f26b 293e 3abb f53c
000000f0: 6cae babe 92d3 4a3d 7161 f0be 6e18 4bbd
00000100: 0618 7f3d 4c00 133e 7c5b 84be b442 11be
00000110: e1ed bfbd 743e e6bb 94e7 13be b57a e9bd
00000120: 9768 46be ed54 223d c28d 8d3d 9c2e af3e
00000130: b5f4 ddbd b921 3b3e 9c8f 07be 65e0 ea3a
00000140: 7c50 01bd cb5e a53d 9e97 11bf 88e9 ddbd
00000150: 74ed 0ebe ed8d ca3d 1f18 9e3e 1948 b13d
00000160: 96d9 31bd df42 2a3e cbb5 60be 95ca 16bd
00000170: d8d3 003d 0f16 243e d57f d9bd 2eb1 203d
00000180: cb32 3a3e ec3a cdbc 5893 03bf 2f8e 9bbc
00000190: a0d6 a1bd d043 0bbe ce15 dcbd e6e1 1a3d
000001a0: 8a33 5fbe 5a58 adbd fc42 303d 2782 bd3e
000001b0: f319 9c3e 6719 363e c1b1 e3be 3205 cdbd
000001c0: 861c b93d f0fd 2abe 5219 acbd ef8f debd
000001d0: 87f3 993e d914 d63e 614f 4b3e 378a b4be
000001e0: 7cb5 5bbe 8b9b 823d e722 4c3d bf12 093e
000001f0: e765 803e 037a 833e 2ad5 d63e 4318 52be
00000200: f302 94bc 741b 673b c1ee f3be db1d f5be
00000210: 2e6a 0f3e 8757 f5bd 4a52 b7be 3ae0 fdbd
00000220: a9c5 a93d 1414 923e d2f3 b2be 0156 5dbe
00000230: c404 8ebe 9f8a cc3c 5a1a 3d3e 8f31 923e
00000240: a83b 7bbe 7b6d 853d 21ba 81be c5f8 cdbe
00000250: f5eb 513d 5aa3 713e d560 203e a59b 543e
00000260: c408 e6bd 3c65 003e b1b0 64be a547 dabd
00000270: b108 d93e 9458 563e fadb 033e 9c01 0b3e
00000280: 7666 75be 964e 64be c96a 25bd f164 c2be
00000290: d59d febc 1342 21bd 3a23 1e3e 2877 623d
000002a0: 3c2e 033e 95ef 0e3e 61cb f63c 00b4 903d
000002b0: d106 8c3e dcb1 78be b280 d0be 6d9a cabd
000002c0: a566 953e 7042 96bd 6e6c 1fbf 3029 c1be
000002d0: b077 413e 9976 65bc 09ee 98be 9bc0 2fbe
000002e0: 187b c73c b092 8a3d 14e6 6b3e 4d41 a1be
000002f0: 8c78 2bbe 7e31 063e b42b 393e edeb 84bd
00000300: ee3c 393e 2fd5 6dbb b7af 943e 8ed6 463e
00000310: 2436 183e c5b3 573d db13 81bd f839 7bbd
00000320: 22af f1bd 28a4 0bbe 2b80 1ebd 7a90 883e
00000330: cae0 8f3e 8393 7ebe c481 56be ad5f 103d
00000340: a17c 57bd f1bb 6cbe f68b 61be 63f5 0e3e
00000350: 8bb2 bfbe 2b0f 5f3e 8d40 15be 5d40 b2be
00000360: 8666 debd dd79 d1bd 4448 793e deec 953c
00000370: 663c fcbd 1c09 88be 9b4e dc3c 6e15 0cbf
00000380: 1c37 053e 4dd0 cf3e 616a 4e3d 049f f13d
00000390: 8c80 913d 3606 9bbd 975a 8cbb 2f28 963d
000003a0: 80f9 b0bd 1346 853e 8c78 acbd f32a 22bd
000003b0: cc29 7ebd 4fff 3b3e 3fbf e3bc c7e2 e9be
000003c0: 96c0 00bf 9e28 7d3e eda9 743e fb99 46be
000003d0: 96e9 a73e 3c48 89be 9673 8cbe cf91 7c3e
000003e0: d2a3 263e 0da5 73bd 5f1b 0abe 62a3 64be
000003f0: 1e1f df3e 79dd c8bd 8f48 dfbe ae1d 693c

network_body._body_endoder.seq_layers.2.bias f4 [64]
0.04829707 0.1684176 0.029590083 0.016852997 -0.105973795 0.007485728 0.056729626 0.020555114
0.03903774 -0.110871606 0.0058007045 -0.10293827 0.049819674 0.075870164 0.06004871 0.09799158
0.008458673 -0.065948986 -0.030895503 -0.008120328 0.059635937 -0.0036331944 -0.08895135 -0.06506408
-0.0115905525 0.07631757 0.022648323 -0.122569636 -0.002110894 0.0032852704 0.0065478953 0.0069874446
0.020179993 0.08074308 0.11627114 -0.0835917 -0.013244046 0.0798279 -0.18255065 -0.0040915697
0.0018973001 0.050675157 -0.16180216 0.027321737 0.08439753 0.03639887 0.045533795 0.03605952
0.0019458574 0.1193712 0.014651112 -0.046337623 0.078547955 -0.099364296 -0.0028939496 -0.018360594
0.034774244 -0.0013644684 -0.19026457 -0.14992505 -0.00036851902 -0.07561404 0.021147482 -0.06551627
00000000: 26d3 453d aa75 2c3e e766 f23c 4c0f 8a3c
00000010: ca08 d9bd d64a f53b 535d 683d 3363 a83c
00000020: 0ae6 1f3d a710 e3bd d613 be3b 4dd1 d2bd
00000030: b70f 4c3d d161 9b3d a3f5 753d cfaf c83d
00000040: 3f96 0a3c 4310 87bd 9118 fdbc 200b 05bc
00000050: d044 743d e31a 6ebb 202c b6bd 5140 85bd
00000060: 4de6 3dbc 634c 9c3d fa88 b93c ca05 fbbd
00000070: ed56 0abb b14d 573b ba8f d63b eff6 e43b
00000080: 8350 a53c a15c a53d 901f ee3d 2032 abbd
00000090: 8efd 58bc cf7c a33d 8fee 3abe 9312 86bb
000000a0: d4ae f83a c190 4f3d 77af 25be d6d1 df3c
000000b0: 9dd8 ac3d fb16 153d a581 3a3d 26b3 133d
000000c0: 240c ff3a e378 f43d 380b 703c 85cc 3dbd
000000d0: c0dd a03d 827f cbbd 6ba8 3dbb f568 96bc
000000e0: 706f 0e3d f6d7 b2ba b7d4 42be f485 19be
000000f0: c935 c1b9 89db 9abd 7c3d ad3c 652d 86bd

network_body._body_endoder.seq_layers.4.weight f4 [64, 64]
-0.3459033 -0.060626466 0.00029681902 -0.30392873 -0.21845435 0.15431093 -0.12771124 -0.043727897
-0.033514425 -0.20130722 0.119830705 -0.28345233 -0.03232448 0.034223035 0.32980147 -0.112974234
-0.08470817 0.040227156 -0.22270232 0.30306333 -0.0013120624 -0.06320677 -0.30479786 -0.08021425
-0.39397162 -0.0084498655 0.20252575 0.21838525 -0.34830874 0.08474319 -0.15813534 -0.17985806
0.14762224 -0.14710274 -0.44500592 -0.23432115 0.033062894 0.073982574 0.120049916 0.061516125
-0.16711569 0.014854836 -0.3749113 0.2020321 -0.02371623 0.033143643 0.36736542 -0.5580578
-0.5400322 -0.064075425 -0.21290523 -0.23225367 0.17419308 0.12628129 -0.44151428 -0.22811523
0.08827124 0.008557921 -0.15467997 -0.13053326 0.36860844 0.16081522 -0.14645235 -0.39706162
0.16106625 -0.2554803 0.26030898 -0.03679576 -0.15569465 -0.003253593 0.057942487 -0.057203405
-0.4087999 -0.12975352 -0.24728523 0.21454237 0.2091657 -0.1901711 0.25551736 0.00949782
0.15281701 -0.15174316 -0.0635051 0.1112313 -0.16953115 0.35465097 -0.17453952 0.01796897
-0.266346 0.014276136 0.06194303 -0.14219265 -0.34099212 -0.2108991 -0.0122619225 -0.0017679034
0.089806885 0.36338738 -0.17295551 -0.03347603 0.15724988 0.15928923 -0.15327503 -0.066606686
-0.07115107 -0.2687825 -0.20517638 -0.024622679 -0.26493475 -0.26195404 -0.37250865 -0.018309338
0.11546613 0.09686743 -0.11786322 -0.075813934 -0.25586894 -0.1560649 -0.35813385 -0.30762362
-0.13936988 -0.019580748 -0.03781202 0.3741306 -0.10231596 0.23427066 -0.10766312 0.07733493
-0.21097603 -0.06567362 0.20939507 0.32121333 0.07040925 -0.12169251 -0.19212691 0.14015755
0.18008116 -0.06340584 -0.030989418 -0.33065742 -0.39988196 -0.2553792 -0.14021641 -0.21980329
-0.13627915 -0.25442266 -0.23724635 -0.01720846 0.15932114 0.23892587 0.050058648 0.3021893
-0.1279573 -0.08330249 -0.22639088 -0.18605162 0.16225114 -0.3764485 0.007844193 -0.09189773
-0.2433541 -0.044602733 0.024957407 -0.034086592 0.061701845 -0.012151573 0.07132541 0.0033489934
-0.24126925 -0.046800353 0.090999715 0.16635545 0.2769508 -0.2005461 -0.34003285 -0.14043067
0.17831561 -0.113484584 -0.3397225 -0.06884485 0.13316432 -0.0938443 0.077986605 0.06309339
-0.17657311 -0.18752414 -0.05172555 0.3504047 -0.44159588 0.15203452 -0.2942344 0.02473967
0.16361015 0.12343529 -0.20823511 -0.1606759 -0.11128726 -0.24817172 -0.09233892 0.021971347
-0.16798905 0.34005368 -0.4109948 -0.3385127 -0.18575503 -0.37843457 -0.019748498 -0.064208075
-0.32870162 0.013917587 -0.060462113 -0.21170728 0.056621037 -0.22454228 0.05356128 -0.0725077
0.1035375 0.080577366 0.12555364 -0.060803395 0.023924036 0.31335753 -0.13032366 0.118222974
0.1413402 0.10845305 0.21567929 -0.12197774 -0.15672664 -0.26975116 -0.20462547 -0.3786894
-0.4577423 0.035243656 0.2088659 0.02098617 -0.21979038 -0.06707872 0.050445165 0.30008408
-0.19367349 0.116297886 -0.13908516 -0.11845468 -0.018911812 0.39903337 -0.04684381 0.62990457
0.10019329 -0.43753126 -0.21683607 0.20112164 -0.18795417 -0.31705096 -0.024658533 -0.054793347
00000000: 3d1a b1be 7553 78bd 609e 9b39 8c9c 9bbe
00000010: 7fb2 5fbe af03 1e3e bcc6 02be 061c 33bd
00000020: 6c46 09bd 7b23 4ebe cd69 f53d aa20 91be
00000030: ad66 04bd 742d 0c3d bddb a83e 095f e7bd
00000040: 7a7b adbd 3bc5 243d 140c 64be 1e2b 9b3e
00000050: 82f9 abba 8d72 81bd 770e 9cbe 5e47 a4bd
00000060: a6b6 c9be 4e71 0abc e962 4f3e 62a0 5f3e
00000070: 8655 b2be d68d ad3d 3bee 21be b62c 38be
00000080: 492a 173e 1aa2 16be d1d7 e3be e2f1 6fbe
00000090: f56c 073d 2d84 973d bbdc f53d 55f8 7b3d
000000a0: 6020 2bbe b361 733c 60f4 bfbe 81e1 4e3e
000000b0: 8a48 c2bc a1c1 073d 5217 bc3e e0dc 0ebf
000000c0: 8d3f 0abf fa39 83bd d403 5abe e8d3 6dbe
000000d0: ac5f 323e e24f 013e 290e e2be 0a97 69be
000000e0: 8dc7 b43d 8636 0c3c 6d64 1ebe 83aa 05be
000000f0: 3fba bc3e bfac 243e 9bf7 15be a94b cbbe
00000100: 8dee 243e 50ce 82be 3847 853e 27b7 16bd
00000110: 6b6e 1fbe 3c3a 55bb 1a55 6d3d 1e4e 6abd
00000120: 384e d1be 1bde 04be 5738 7dbe ffb0 5b3e
00000130: 892f 563e 36bc 42be 2cd3 823e bf9c 1b3c
00000140: 107c 1c3e 8f62 1bbe f60e 82bd 3ccd e33d
00000150: 9399 2dbe d094 b53e 7dba 32be a933 933c
00000160: 815e 88be 74e6 693c fab7 7d3d f39a 11be
00000170: 8596 aebe eff5 57be 3be6 48bc ffb8 e7ba
00000180: acec b73d e90d ba3e 401b 31be 291e 09bd
00000190: 1d06 213e b71c 233e 21f4 1cbe 1669 88bd
000001a0: a7b7 91bd dc9d 89be c219 52be 80b5 c9bc
000001b0: 87a5 87be d71e 86be 74b9 bebe 77fd 95bc
000001c0: 8279 ec3d 6e62 c63d 4662 f1bd 5644 9bbd
000001d0: 4101 83be 7acf 1fbe 525d b7be d880 9dbe
000001e0: fab6 0ebe ce67 a0bc c7e0 1abd 0c8e bf3e
000001f0: 088b d1bd a6e4 6f3e 7b7e dcbd c761 9e3d
00000200: 1a0a 58be e47f 86bd a96b 563e 1376 a43e
00000210: ba32 903d ec39 f9bd ebbc 44be 7685 0f3e
00000220: 3267 383e ecda 81bd 85dd fdbc ee4b a9be
00000230: 54bd ccbe 10c1 82be e494 0fbe 1d14 61be
00000240: c38c 0bbe b043 82be b5f0 72be c2f8 8cbc
00000250: 1525 233e fca8 743e 4c0a 4d3d 8eb8 9a3e
00000260: 3d07 03be 7f9a aabd 03d3 67be 5184 3ebe
00000270: 2a25 263e dcbd c0be ee84 003c e134 bcbd
00000280: d131 79be 5bb1 36bd 7a73 cc3c 629e 0bbd
00000290: 13bb 7c3d 6417 47bc 0e13 923d c97a 5b3b
000002a0: 490f 77be bab1 3fbd 0f5e ba3d 1559 2a3e
000002b0: 7fcc 8d3e f55b 4dbe c918 aebe 0fcd 0fbe
000002c0: 5e98 363e 9b6a e8bd 1cf0 adbe 87fe 8cbd
000002d0: 3a5c 083e 7131 c0bd 71b7 9f3d 1b37 813d
000002e0: 95cf 34be 5406 40be 2cde 53bd 3f68 b33e
000002f0: db18 e2be f0ae 1b3e e4a5 96be d9aa ca3c
00000300: 6b89 273e a4cb fc3d 963b 55be 3988 24be
00000310: 93ea e3bd ba20 7ebe 301c bdbd 41fd b33c
00000320: 5205 2cbe 841b ae3e e96d d2be 8951 adbe
00000330: 9136 3ebe 2dc2 c1be 9ac7 a1bc 867f 83bd
00000340: 944b a8be 9706 643c 1fa7 77bd cbc9 58be
00000350: 76eb 673d 69ee 65be 1363 5b3d eb7e 94bd
00000360: 780b d43d bf05 a53d 2291 003e fb0c 79bd
00000370: 57fc c33c 6670 a03e 9173 05be e31e f23d
00000380: 7cbb 103e a21c de3d 08db 5c3e 77cf f9bd
00000390: f37c 20be d31c 8abe 5789 51be 94e3 c1be
000003a0: 335d eabe a75b 103d f1e0 553e 30eb ab3c
000003b0: bb10 61be 9160 89bd 979f 4e3d 9fa4 993e
000003c0: 5852 46be 962d ee3d 576c 0ebe 5e98 f2bd
000003d0: f2ec 9abc 1a4e cc3e 4bdf 3fbd 6d41 213f
000003e0: 2432 cd3d 1904 e0be 460a 5ebe d5f2 4d3e
000003f0: 0f77 40be 8154 a2be b100 cabc fd6e 60bd

network_body._body_endoder.seq_layers.4.bias f4 [64]
0.07309623 0.01809971 -0.035243783 0.002310212 0.07620484 0.1695226 -0.10002392 0.17976308
-0.10085869 0.12455952 0.20951661 0.023300504 0.06246099 -0.041635968 0.07937054 0.26367465
-0.020967504 0.10611283 -0.10719097 0.15727828 0.097037025 0.019504867 -0.044479664 -0.057608902
0.0018916879 0.08852737 0.14153199 -0.022144513 0.045507226 0.14928772 0.001736873 0.09714773
-0.17071153 0.17132923 0.18806921 -0.027099974 -0.011263461 0.071471564 0.026210193 -0.17085153
-0.028131109 0.11848727 0.015113443 -0.07987875 -0.046820745 -0.01621576 0.07435223 -0.037044957
0.035434604 0.1421429 0.10527667 0.00021287957 -0.05802666 -0.031683896 0.23941706 0.039128553
0.014112561 0.18898202 -0.012852695 -0.014521221 -0.122241 -0.0172727 -0.098713115 0.24402694
00000000: 7ab3 953d d845 943c c95b 10bd ed66 173b
00000010: 4811 9c3d 5597 2d3e 57d9 ccbd d013 383e
00000020: 008f cebd 1019 ff3d 868b 563e b3e0 be3c
00000030: 18d7 7f3d 7a8a 2abd 068d a23d 5d00 873e
00000040: 0bc4 abbc af51 d93d f086 dbbd 8f0d 213e
00000050: 59bb c63d acc8 9f3c 4f30 36bd 50f7 6bbd
00000060: 83f2 f73a d64d b53d c3ed 103e 6968 b5bc
00000070: c965 3a3d e1de 183e c9a7 e33a 64f5 c63d
00000080: 01cf 2ebe ee70 2f3e 3795 403e c400 debc
00000090: 618a 38bc af5f 923d c2b6 d63c b4f3 2ebe
000000a0: 3673 e6bc 74a9 f23d 609e 773c 7897 a3bd
000000b0: 1cc7 3fbd ead6 84bc fb45 983d 74bc 17bd
000000c0: e023 113d e98d 113e 4b9b d73d 6d38 5f39
000000d0: 5dad 6dbd f9c6 01bd bf29 753e 4345 203d
000000e0: 5f38 673c 8184 413e 1c94 52bc 6aea 6dbc
000000f0: 7d59 fabd 7a7f 8dbc 1a2a cabd 33e2 793e

action_model._continuous_distribution.log_sigma f4 [1, 44]
0.85087436 1.5669746 1.46029 1.1470566 0.94250166 1.1162136 1.0115436 1.2703398
1.1744847 0.87528086 1.4437488 1.0426568 0.84962326 0.9533906 1.6444286 0.9786909
0.6910054 0.9081393 0.75070167 0.94759184 0.7878002 1.2025136 1.1770183 1.365928
0.52812165 0.77452576 0.9944739 0.82032156 0.52793133 1.3843032 1.1815807 1.0049115
1.2652298 0.55236185 1.0189172 0.75685155 1.1816412 1.0387928 0.8746657 0.6756292
1.4140667 1.3294363 0.6101976 1.1986256
00000000: e7d2 593f a092 c83f c8ea ba3f c0d2 923f
00000010: ca47 713f 16e0 8e3f 437a 813f 7f9a a23f
00000020: 8455 963f 6812 603f c3cc b83f c775 853f
00000030: e980 593f 6811 743f a37c d23f 7d8b 7a3f
00000040: bbe5 303f d17b 683f fc2d 403f 6195 723f
00000050: 46ad 493f f7eb 993f 89a8 963f bbd6 ae3f
00000060: fb32 073f 5247 463f d795 7e3f 9800 523f
00000070: 8226 073f d930 b13f 093e 973f f1a0 803f
00000080: 0df3 a13f 9667 0d3f e16b 823f 06c1 413f
00000090: 0540 973f 2af7 843f 17ea 5f3f 09f6 2c3f
000000a0: 2300 b53f f82a aa3f e935 1c3f 906c 993f

action_model._continuous_distribution.mu.weight f4 [44, 64]
0.04559833 -0.0022141552 0.11631105 -0.085390195 -0.030865101 -0.023332125 0.07538699 0.0071172696
0.09182542 -0.07629944 -0.049222857 -0.08246416 -0.13548256 -0.2575082 0.033835996 -0.063641384
-0.289145 0.22154352 0.0039864345 -0.20292647 0.18562378 0.053263634 0.11671563 0.4368935
-0.084813505 -0.10068919 0.048173506 -0.0043235375 -0.11935665 0.20786901 0.05493798 -0.108747065
-0.0902072 -0.12291029 -0.021906013 -0.12102382 -0.14624976 0.2637588 0.07440148 -0.17419694
-0.18106437 -0.14897294 0.1349166 0.20463614 0.09023025 -0.05336357 0.023818383 0.17335826
0.11395637 -0.09211683 0.1561933 -0.1724578 -0.045718852 -0.078185745 0.04329048 -0.10150828
-0.14201489 -0.04091247 -0.07084778 -0.15788423 -0.066129416 0.20949928 -0.14868474 -0.10155296
-0.39197713 -0.22955248 -0.0066971695 0.35365483 -0.08903232 0.15146959 0.008027674 0.21644977
0.074333526 0.1370004 -0.3467365 0.14673823 0.46043667 0.3143644 0.14563787 0.3900381
0.21706386 -0.113062404 0.04611308 -0.4620552 0.31669214 0.11770408 0.15854563 0.058516897
0.5642365 -0.3661478 -0.10654392 0.057841137 -0.2339837 -0.40157098 0.06714257 -0.15639837
-0.19054528 -0.28561062 -0.26754448 -0.22597276 0.009597328 0.0023430714 0.22842577 -0.103934646
-0.12140728 0.1785915 -0.029745502 0.22141008 0.029873995 0.13488938 0.06356929 -0.30547303
-0.2917963 -0.027566446 -0.23298836 0.20010392 -0.25491062 -0.23943117 0.03740991 0.06547363
-0.21231966 -0.12076625 -0.0625014 0.13882521 -0.1706114 0.13291551 0.11566155 -0.13521461
-0.07974594 -0.23271683 0.15380706 -0.27986327 0.12879993 -0.009664526 -0.07364034 -0.020848004
-0.2671843 -0.1616686 -0.046457965 0.06862174 -0.19997483 -0.23498882 0.13828705 -0.05227483
0.11981724 -0.07628634 0.04842671 -0.1323323 0.10656753 0.14788422 0.11639372 0.018632311
-0.13609369 -0.1845446 0.20177409 0.22890656 0.09382609 -0.17209774 0.12692213 0.087153435
-0.048326258 0.040661417 0.107328504 0.22677456 -0.25393906 0.025946347 0.25050953 0.23820512
-0.010566224 -0.032434095 0.3116374 -0.01196615 -0.045110803 -0.08106801 0.06358416 0.23929027
-0.11462462 -0.2602956 0.10423316 0.199639 0.032072 -0.03163459 -0.28160232 0.27781817
0.3172682 -0.27794516 -0.074995995 0.29006866 -0.18437956 0.11751335 -0.083215594 -0.11773922
-0.08025368 0.023147766 0.1613022 -0.017709205 -0.063641556 -0.055106394 0.5272917 0.19066493
0.23328568 -0.24280211 -0.20983557 0.0025234588 0.011357599 0.10013304 0.21752496 0.030586977
-0.33958822 -0.089574665 0.5282951 0.07849184 -0.07874133 -0.1517839 0.11472739 0.06584042
0.19260024 -0.115523376 0.07672872 0.22262219 0.0856392 -0.11209686 0.053303428 0.029194737
-0.14013691 -0.22664638 0.27962714 0.026793249 -0.1227309 -0.058886632 0.06557505 0.15349293
0.06355422 0.07101631 0.036757175 -0.39875868 -0.02446797 0.15193251 0.17850916 0.07218549
0.17578474 0.21336307 -0.0195425 -0.18433456 -0.13108742 0.2576189 0.20496987 0.07326303
0.050072376 -0.39769354 -0.044908628 -0.11981335 0.25650552 0.17834198 0.11607805 -0.19600514
00000000: 51c5 3a3d 5c1b 11bb 7d34 ee3d 0ee1 aebd
00000010: cfd8 fcbc 0323 bfbc 7f64 9a3d fc37 e93b
00000020: f70e bc3d e142 9cbd e89d 49bd f8e2 a8bd
00000030: f1bb 0abe 1dd8 83be 9d97 0a3d 6a56 82bd
00000040: d00a 94be 4edc 623e a3a0 823b f5cb 4fbe
00000050: 2914 3e3e f82a 5a3d 9b08 ef3d 81b0 df3e
00000060: b4b2 adbd 2236 cebd 9551 453d 76ac 8dbb
00000070: 4271 f4bd 9ddb 543e a606 613d c8b6 debd
00000080: 8dbe b8bd 64b8 fbbd 3d74 b3bc 56db f7bd
00000090: 7fc2 15be 650b 873e ce5f 983d af60 32be
000000a0: f068 39be 5d8c 18be 9427 0a3e 238c 513e
000000b0: a3ca b83d c293 5abd c51e c33c d484 313e
000000c0: f561 e93d c0a7 bcbd 23f1 1f3e c798 30be
000000d0: b143 3bbd d91f a0bd 5c51 313d 93e3 cfbd
000000e0: 5a6c 11be d693 27bd a418 91bd 67ac 21be
000000f0: dc6e 87bd fb86 563e d040 18be 00fb cfbd
00000100: 3ab1 c8be ce0f 6bbe ee73 dbbb 3f12 b53e
00000110: 9456 b6bd d81a 1b3e 8186 033c 02a5 5d3e
00000120: 2d3c 983d d549 0c3e 7287 b1be 8c42 163e
00000130: 5bbe eb3e 5ff4 a03e 1822 153e 13b3 c73e
00000140: fd45 5e3e 438d e7bd 12e1 3c3d 8092 ecbe
00000150: 7925 a23e d60e f13d c959 223e 6aaf 6f3d
00000160: ce71 103f b977 bbbe b333 dabd d4ea 6c3d
00000170: 6c99 6fbe b69a cdbe 0b82 893d e526 20be
00000180: 4d1e 43be 8e3b 92be 97fb 88be 6765 67be
00000190: 1c3e 1d3c 378e 193b 72e8 693e b0db d4bd
000001a0: 61a4 f8bd b1e0 363e d7ac f3bc 53b9 623e
000001b0: 4fba f43c 7120 0a3e 9e30 823d f666 9cbe
000001c0: 5366 95be 07d3 e1bc 8094 6ebe 0be8 4c3e
000001d0: a583 82be 722d 75be 223b 193d 0a17 863d
000001e0: 536a 59be 4c54 f7bd bc00 80bd 3228 0e3e
000001f0: c1b4 2ebe 011b 083e f6df ec3d b375 0abe
00000200: d751 a3bd 524d 6ebe 997f 1d3e 3d4a 8fbe
00000210: 21e4 033e f657 1ebc bfd0 96bd 6fc9 aabc
00000220: 61cc 88be 748c 25be b54a 3ebd 8e89 8c3d
00000230: 34c6 4cbe e9a0 70be 1f9b 0d3e 221e 56bd
00000240: be62 f53d 033c 9cbd 165b 463d 1e82 07be
00000250: 1440 da3d f66e 173e d55f ee3d caa2 983c
00000260: 255c 0bbe 42f9 3cbe de9d 4e3e 7b66 6a3e
00000270: e527 c03d 643a 30be e0f7 013e 807d b23d
00000280: c1f1 45bd 968c 263d 0ccf db3d 9737 683e
00000290: 4d04 82be 6f8d d43c c942 803e 0bec 733e
000002a0: f51d 2dbc 9dd9 04bd f08e 9f3e ac0d 44bc
000002b0: 1bc6 38bd fc06 a6bd 6938 823d 8208 753e
000002c0: 50c0 eabd 7745 85be 3278 d53d 2b6e 4c3e
000002d0: ee5d 033d 4693 01bd 2e2e 90be 2f3e 8e3e
000002e0: fa70 a23e d44e 8ebe 8097 99bd e183 943e
000002f0: ffcd 3cbe d7aa f03d f06c aabd 4321 f1bd
00000300: 0b5c a4bd 62a0 bd3c 672c 253e e512 91bc
00000310: 8156 82bd 3eb7 61bd 97fc 063f ab3d 433e
00000320: 71e2 6e3e 1ea1 78be 23df 56be 9d60 253b
00000330: 3915 3a3c 8d12 cd3d ddbe 5e3e 8a91 fa3c
00000340: 82de adbe ec72 b7bd 593e 073f 54c0 a03d
00000350: 2243 a1bd 3d6d 1bbe 32f6 ea3d 58d7 863d
00000360: ff38 453e 8597 ecbd f223 9d3d 12f7 633e
00000370: 9b63 af3d 0a93 e5bd b254 5a3d cd29 ef3c
00000380: 0d80 0fbe fd15 68be 4a2b 8f3e 847d db3c
00000390: 575a fbbd 1c33 71bd 364c 863d 402d 1d3e
000003a0: b728 823d 0071 913d b18e 163d 192a ccbe
000003b0: 0d71 c8bc 3294 1b3e 1bcb 363e fcd5 933d
000003c0: ea00 343e d97b 5a3e 9817 a0bc 33c2 3cbe
000003d0: c83b 06be a0e6 833e 9fe3 513e ed0a 963d
000003e0: b118 4d3d 7d9e cbbe 1cf2 37bd b460 f5bd
000003f0: b154 833e 489f 363e 54ba ed3d 92b5 48be

action_model._continuous_distribution.mu.bias f4 [44]
0.02859665 -0.07887992 -0.018354509 -0.113983266 -0.05242213 -0.014886437 0.09436789 0.07657622
-0.04775157 -0.085416645 -0.033034142 -0.11278523 -0.086475596 -0.014799165 -0.014119006 -0.1060012
-0.052340135 -0.22691686 -0.29463246 -0.2893653 -0.10583897 -0.036784917 -0.1185652 -0.25104728
-0.046842042 -0.25293866 -0.3136014 -0.21882483 -0.13608615 0.13697822 -0.16196248 -0.23676473
-0.43459982 -0.123648375 -0.17749467 -0.04845806 -0.036586605 -0.08838654 -0.16514717 -0.003956757
-0.10872269 -0.17180406 -0.096680455 0.22322266
00000000: 8643 ea3c cc8b a1bd 325c 96bc 0f70 e9bd
00000010: 96b8 56bd 3ee6 73bc f443 c13d fed3 9c3d
00000020: 2697 43bd ecee aebd cf4e 07bd f1fb e6bd
00000030: 1e1a b1bd 3278 72bc 6753 67bc 2817 d9bd
00000040: 9c62 56bd e55c 68be 11da 96be b027 94be
00000050: 1ac2 d8bd c8ab 16bd 50d2 f2bd 4589 80be
00000060: 71dd 3fbd 2d81 81be 5d90 a0be 9e13 60be
00000070: 2b5a 0bbe 0544 0c3e 7ed9 25be 7472 72be
00000080: de83 debe 5c3b fdbd 2ac1 35be f57b 46bd
00000090: d6db 15bd 0104 b5bd 571c 29be afa7 81bb
000000a0: 00aa debd 67ed 2fbe 6700 c6bd 7b94 643e
