results/checkpoints/completed_b074_size8_Config01/Dynamic Table/Dynamic Table-1499993.onnx (onnx, 26818 bytes, 7 tensors)

network_body._body_endoder.seq_layers.0.weight f4 [40, 52]
-0.40273863 0.25462016 0.122257665 0.18161616 -0.045753416 -0.069358 0.024930263 -0.011029383
0.04005439 -0.3722848 -0.15811537 -0.08507688 -0.0032322207 -0.028288698 -0.06821424 -0.07952685
-0.14772294 0.121316895 0.061691288 0.01337541 -0.22704169 -0.18521973 0.03312595 0.2825567
-0.15207504 -0.03296816 -0.14806804 0.05857469 -0.09703077 -0.038492195 -0.02985925 0.04349388
-0.11058312 -0.06692481 0.13441578 0.14363319 0.05203465 0.063928984 -0.02970543 -0.24803199
0.15034562 0.10297713 -0.15280557 0.021043856 0.08693198 0.113132104 0.08282856 0.12456164
0.1294206 -0.005489982 -0.066313796 0.054759417 0.07791239 -0.008294659 0.0987944 0.11998581
0.02842079 -0.05666078 -0.13529192 0.12013303 0.32731616 0.14032651 -0.15948814 -0.033526022
-0.07877524 -0.066434346 -0.18042177 0.064836055 -0.0397092 0.1436238 -0.23670962 -0.10667809
0.06709855 -0.09941812 0.073170565 -0.02363891 0.10017001 0.10318856 -0.14643213 0.23817188
-0.12552868 -0.010914423 0.11029986 0.28253525 0.22998196 -0.17165142 0.068146534 0.11497643
-0.17855762 -0.29888275 0.10919829 0.2562561 -0.09945104 -0.0015025397 -0.19323055 0.20591328
-0.4389404 -0.023557704 -0.11803396 0.034134258 -0.023973638 0.04241527 0.15097888 0.16634728
0.09121945 -0.26345494 0.09900898 -0.102253884 -0.32557642 0.10656766 -0.07684046 -0.2530275
-0.0049450686 -0.17811112 -0.04166151 0.036350068 0.018174486 0.22332928 -0.10349152 0.05413459
-0.060920566 -0.06365435 -0.2992265 0.071555324 -0.022611612 -0.12596695 -0.105335675 0.17460172
-0.11096988 0.20364977 0.25263524 0.15778504 0.016639503 -0.041758705 -0.053038493 -0.04595871
0.07615916 -0.084289216 0.24359682 -0.36578274 -0.20689215 -0.013439927 0.37136206 0.048671275
0.02923511 -0.12264592 0.21150748 -0.09678786 -0.044318184 0.070233166 0.39458746 -0.06770164
0.2332969 -0.101148404 -0.10214452 -0.040807076 0.11939574 -0.044224348 -0.22691926 -0.41928896
-0.026181249 0.01694082 0.13677639 0.29044652 0.12935399 -0.10162078 -0.031673703 -0.005389624
0.22215982 0.047043078 -0.11672478 -0.1337364 0.013349541 -0.056587797 -0.05203531 -0.050064646
0.10939799 -0.02235808 -0.07398142 -0.10726462 -0.0945989 0.062261872 -0.26767078 -0.2152806
0.14935145 0.06990496 -0.16082643 -0.28640544 0.2022812 0.01771609 0.032011606 -0.12094176
-0.20517945 0.09982272 0.008974454 -0.250836 -0.07575448 -0.251443 -0.15346122 -0.365452
-0.11730389 -0.19397727 0.008487022 0.10148341 -0.31891948 0.031492583 0.07943478 0.17961673
-0.18204257 -0.08404225 0.052245047 0.1391056 -0.12015846 -0.10432096 0.37115782 0.00031961445
0.24104045 -0.14650123 0.07966441 -0.05960505 -0.18619756 -0.12535888 -0.07379539 0.15711989
0.1471261 0.015775464 0.12884037 0.13078478 -0.14980133 -0.022293502 0.083965376 0.15502532
0.2690658 0.017370246 -0.16896427 -0.19031511 0.042862143 0.16645055 -0.20219657 0.04468211
-0.082779296 -0.33598995 -0.3765934 0.18850519 0.13455775 -0.14040735 0.22679803 0.14587069
-0.0063512763 -0.06946837 0.09478135 0.116305515 -0.1207985 0.009690987 -0.06265231 0.047257647
00000000: c233 cebe 935d 823e 3a62 fa3d 96f9 393e
00000010: ef67 3bbd 910b 8ebd 8d3a cc3c 96b4 34bc
00000020: 1210 243d 1d9c bebe ffe8 21be ca3c aebd
00000030: aad3 53bb b3bd e7bc e8b3 8bbd f9de a2bd
00000040: af44 17be fe74 f83d 01b0 7c3d 8924 5b3c
00000050: 9e7d 68be 3eaa 3dbe 13af 073d 46ab 903e
00000060: 8fb9 1bbe 9f09 07bd 269f 17be 04ec 6f3d
00000070: 11b8 c6bd fea9 1dbd 639b f4bc a426 323d
00000080: 6779 e2bd e00f 89bd 4aa4 093e 9414 133e
00000090: 4922 553d 33ed 823d cd58 f3bc 19fc 7dbe
000000a0: 34f4 193e ace5 d23d 1079 1cbe 2a64 ac3c
000000b0: 6509 b23d ceb1 e73d 05a2 a93d 2c1a ff3d
000000c0: d586 043e 4fe5 b3bb 87cf 87bd 694b 603d
000000d0: 8890 9f3d 52e6 07bc b854 ca3d 1fbb f53d
000000e0: b7d2 e83c 2215 68bd f789 0abe 4e08 f63d
000000f0: fc95 a73e c1b1 0f3e dc50 23be 9552 09bd
00000100: ea54 a1bd bb0e 88bd 7cc0 38be c4c8 843d
00000110: 1da6 22bd 1e12 133e 0264 72be 0b7a dabd
00000120: f76a 893d ba9b cbbd 73da 953d 63a6 c1bc
00000130: ef25 cd3d 8654 d33d 4ef2 15be 54e3 733e
00000140: 978a 00be 68d2 32bc e5e4 e13d 76a8 903e
00000150: 6480 6b3e 64c5 2fbe 6990 8b3d c378 eb3d
00000160: cfd7 36be 2907 99be 5aa3 df3d 0034 833e
00000170: fdac cbbd def0 c4ba 3bde 45be eeda 523e
00000180: ccbc e0be 16fc c0bc cabb f1bd 5dd0 0b3d
00000190: 5d64 c4bc a2bb 2d3d 359a 1a3e f156 2a3e
000001a0: 43d1 ba3d 91e3 86be 38c5 ca3d 7c6a d1bd
000001b0: f4b1 a6be 2540 da3d 885e 9dbd d28c 81be
000001c0: 3e0a a2bb c362 36be 42a5 2abd cfe3 143d
000001d0: a9e2 943c 6eb0 643e 5df3 d3bd 3bbc 5d3d
000001e0: d887 79bd 365d 82bd 3734 99be 998b 923d
000001f0: fd3b b9bc 7bfd 00be 3bba d7bd cbca 323e
00000200: 2d44 e3bd 9189 503e 6859 813e 6792 213e
00000210: 914f 883c 2d0b 2bbd e43e 59bd 333f 3cbd
00000220: 55f9 9b3d d39f acbd 7271 793e e047 bbbe
00000230: 89db 53be 2433 5cbc 2b23 be3e 885b 473d
00000240: 787e ef3c c92d fbbd 6b95 583e b738 c6bd
00000250: fc86 35bd 68d6 8f3d 5e07 ca3e 28a7 8abd
00000260: 62e5 6e3e e526 cfbd 2531 d1bd 5225 27bd
00000270: c185 f43d 9724 35bd 865d 68be 0bad d6be
00000280: 0f7a d6bc 79c7 8a3c 1c0f 0c3e 68b5 943e
00000290: 5f75 043e 8e1e d0bd 49bc 01bd 719b b0bb
000002a0: dd7d 633e 3eb0 403d 670d efbd 32f2 08be
000002b0: 09b8 5a3c 9bc8 67bd fa22 55bd 9610 4dbd
000002c0: 0e0c e03d 4b28 b7bc 9283 97bd 8ead dbbd
000002d0: 11bd c1bd 4e06 7f3d 250c 89be 8572 5cbe
000002e0: 96ef 183e 552a 8f3d afaf 24be bca3 92be
000002f0: ce22 4f3e 5521 913c 9a1e 033d 50b0 f7bd
00000300: 901a 52be db6f cc3d 9709 133c 946d 80be
00000310: 2a25 9bbd 23bd 80be f024 1dbe 861c bbbe
00000320: 063d f0bd faa1 46be 260d 0b3c 89d6 cf3d
00000330: 6a49 a3be 5efe 003d b4ae a23d 73ed 373e
00000340: 5e69 3abe 581e acbd e7fe 553d b371 0e3e
00000350: a415 f6bd 3aa6 d5bd 6608 be3e ed91 a739
00000360: 4fd3 763e 6b04 16be 1827 a33d 6d24 74bd
00000370: 93aa 3ebe 145e 00be 0a22 97bd 09e4 203e
00000380: 39a8 163e 8c3b 813c bbee 033e 72ec 053e
00000390: 8565 19be dda0 b6bc 0af6 ab3d f5be 1e3e
000003a0: fec2 893e 0c4c 8e3c f804 2dbe f7e1 42be
000003b0: 3790 2f3d 0372 2a3e 9e0c 4fbe 9704 373d
000003c0: 3188 a9bd e006 acbe dad0 c0be 8107 413e
000003d0: 82c9 093e f2c6 0fbe be3d 683e 205f 153e
000003e0: 5e1e d0bb 6f45 8ebd b91c c23d 9631 ee3d
000003f0: 3465 f7bd f2c6 1e3c db4f 80bd 3c91 413d

network_body._body_endoder.seq_layers.0.bias f4 [40]
-0.005970591 0.07903312 -0.02794095 -0.019582637 -0.014995331 -0.0499628 0.03534036 -0.054956444
0.04770339 -0.02579068 0.027618002 0.12915047 0.0376411 0.028665137 -0.008055052 0.05206269
-0.03232884 -0.03297088 0.0031544112 -0.011151204 -0.00802677 0.004846217 0.0113869235 0.03582377
0.065991625 0.0015425413 -0.0012650979 0.039666552 0.029058767 -0.03148896 0.014712966 -0.008691927
-0.0052828128 0.015963972 -0.005374544 0.030651232 0.041303407 0.030361028 -0.0072167376 0.021801192
00000000: f3a4 c3bb 1edc a13d 6be4 e4bc c46b a0bc
00000010: faae 75bc cba5 4cbd 0ec1 103d 021a 61bd
00000020: a164 433d fa46 d3bc 263f e23c 0540 043e
00000030: 8e2d 1a3d 26d3 ea3c 56f9 03bc b03f 553d
00000040: 3f6b 04bd 790c 07bd 3dba 4e3b 8ab3 36bc
00000050: b782 03bc 04cd 9e3b 3890 3a3c f2bb 123d
00000060: 9e26 873d 192f ca3a a4d1 a5ba 6579 223d
00000070: a70c ee3c 91fa 00bd a70e 713c 9668 0ebc
00000080: 721b adbb e0c6 823c f11c b0bb 4b18 fb3c
00000090: c32d 293d b1b7 f83c 627a ecbb 6a98 b23c

network_body._body_endoder.seq_layers.2.weight f4 [40, 40]
0.014115808 -0.29729787 -0.08441983 0.23259394 -0.025756033 0.030962776 -0.046679195 0.032827377
-0.152058 0.030081803 -0.38075462 0.050299235 0.14132875 0.15986465 -0.352071 0.023859011
-0.0004440289 0.15667927 0.051920142 0.058515444 -0.32710412 0.0153510645 0.20739618 -0.056375287
0.032257643 -0.013974261 -0.27180976 0.02974778 0.19505392 0.36632138 0.11658803 0.001898408
-0.005599127 0.0071099717 0.055950012 0.12675032 -0.08397635 -0.005103823 -0.0635389 0.028186487
-0.2940142 -0.06127004 0.26539558 -0.07135841 0.22015266 -0.10571862 0.18842426 -0.192439
-0.09706716 -0.10078179 -0.35399634 0.1427605 -0.047329813 0.119791955 0.07198518 0.06586784
0.08496719 0.12889917 -0.14122353 -0.03879119 0.11093276 0.31202868 -0.22450061 0.16278832
-0.16008075 0.09347714 0.15687615 -0.3730853 0.22696295 0.22947784 -0.0594441 -0.08936572
-0.18855245 0.21984448 -0.28852978 0.023140164 0.15030962 -0.015619498 -0.045067634 0.090865634
-0.28881532 0.06649806 0.20297252 -0.0033260267 0.080333054 0.20038094 0.23392197 0.052455228
-0.37317792 0.24932824 0.2235347 0.28628522 0.13660578 -0.09664584 0.21036704 0.1964656
0.13178895 -0.15650226 0.148982 0.03930754 0.18688591 -0.24434794 -0.20651305 -0.039817758
-0.08585564 0.06544215 -0.28039342 0.0563799 -0.06905931 0.01685663 0.28941232 0.2391232
-0.09941881 -0.12788643 0.2219254 0.094023004 -0.051961195 -0.15713707 -0.1089201 -0.3315943
-0.36663073 0.056050986 -0.092761576 0.09230349 0.022730893 0.07737031 -0.10631994 0.22954682
-0.23445892 -0.01890135 -0.15734498 -0.09916101 -0.0577029 -0.089627855 0.1725606 0.23353365
0.18199079 -0.31130162 -0.15335742 -0.17950884 -0.09111572 0.046304073 0.2017247 0.025883878
0.08460501 0.2522278 0.1437802 0.030239992 0.20281722 -0.089881755 0.37787646 0.0517271
0.06126095 0.042949155 -0.33263457 0.21443053 -0.18491432 -0.13158982 0.28893587 0.08250639
0.01314973 -0.104860276 0.15324797 -0.028236505 0.048315857 0.005002281 0.17908067 0.102020554
-0.17478219 -0.112639114 0.15072055 0.17109318 0.19092758 0.16229868 0.286078 -0.06694542
0.020461636 -0.15794927 -0.4098808 -0.02052408 -0.10547236 0.15281853 -0.0029651332 0.16249661
-0.23828407 0.15537858 -0.2600615 0.16501752 -0.024873998 -0.035924405 -0.12086349 -0.5655866
0.1102302 0.04651188 0.112272866 0.063375 0.29756436 0.057689156 0.088246904 -0.022590358
0.17021841 -0.12914188 -0.23954155 -0.12928194 0.10824245 -0.21389313 -0.117538184 -0.18531215
-0.062827565 -0.038175985 0.0022387353 0.08200159 -0.08392152 0.015727269 0.07817568 -0.26652718
-0.30642727 -0.035863824 0.13242023 -0.07457402 0.14973925 0.41968763 0.16311176 0.018812986
0.15191509 -0.052321587 -0.0032772592 -0.23887818 0.25655416 0.27083588 -0.06388494 0.19423048
-0.2337637 0.20984997 -0.18477581 0.2430016 -0.06578834 -0.09427686 -0.18553342 -0.175257
0.1410425 -0.10943528 -0.08493446 0.0054767914 -0.17112173 0.12575732 -0.016672902 -0.08750181
0.35575947 -0.07804506 0.044107027 -0.26897085 -0.18241069 -0.04597962 0.20780158 0.056337222
00000000: fd45 673c 6d37 98be 4ee4 acbd 1b2d 6e3e
00000010: 51fe d2bc a6a5 fd3c af32 3fbd 0076 063d
00000020: 18b5 1bbe 1d6e f63c 45f2 c2be 9206 4e3d
00000030: 7cb8 103e 8fb3 233e a642 b4be f973 c33c
00000040: 8dcc e8b9 8870 203e 37aa 543d e4ad 6f3d
00000050: 317a a7be 0883 7b3c aa5f 543e c6e9 66bd
00000060: 9720 043d 4cf4 64bc a62a 8bbe 9eb1 f33c
00000070: 37bc 473e 7a8e bb3e b4c5 ee3d 01d4 f83a
00000080: e278 b7bb c4fa e83b d72b 653d d6ca 013e
00000090: cbfb abbd f83d a7bb af20 82bd 59e7 e63c
000000a0: 0789 96be 4bf6 7abd eee1 873e 5c24 92bd
000000b0: b36f 613e 0183 d8bd 4af2 403e bb0e 45be
000000c0: 26cb c6bd af66 cebd 023f b5be cf2f 123e
000000d0: e8dc 41bd 7c55 f53d f76c 933d b8e5 863d
000000e0: 4703 ae3d 25fe 033e e79c 10be 83e3 1ebd
000000f0: b730 e33d 39c2 9f3e 7de3 65be fbb1 263e
00000100: 35ec 23be f170 bf3d 24a4 203e 0905 bfbe
00000110: fa68 683e 3dfc 6a3e a87b 73bd 6005 b7bd
00000120: e513 41be e91e 613e 2dba 93be 7190 bd3c
00000130: c4ea 193e ece8 7fbc d798 38bd c317 ba3d
00000140: 9adf 93be 2330 883d 07d8 4f3e 78f9 59bb
00000150: a885 a43d a930 4d3e 3e89 6f3e 4bdb 563d
00000160: 2d11 bfbe e74f 7f3e 48e6 643e fa93 923e
00000170: 63e2 0b3e 41ee c5bd 756a 573e 472e 493e
00000180: aff3 063e 2142 20be bd8e 183e f100 213d
00000190: 055f 3f3e 5936 7abe 2878 53be f217 23bd
000001a0: 15d5 afbd 8906 863d ba8f 8fbe 9cee 663d
000001b0: f86e 8dbd ea16 8a3c da2d 943e b6dc 743e
000001c0: 179c cbbd a9f4 02be 6940 633e 228f c03d
000001d0: 43d5 54bd 8ae8 20be 8011 dfbd bac6 a9be
000001e0: 06b7 bbbe b895 653d c8f9 bdbd 9d09 bd3d
000001f0: 2336 ba3c 5374 9e3d 45be d9bd 520e 6b3e
00000200: 0016 70be 01d7 9abc 0b1f 21be ed14 cbbd
00000210: e059 6cbd cf8e b7bd bab3 303e 7223 6f3e
00000220: cb5b 3a3e ed62 9fbe ba09 1dbe 2ad1 37be
00000230: e19a babd 57a9 3d3d eb90 4e3e 6d0a d43c
00000240: 6445 ad3d 0124 813e 1e3b 133e dcb9 f73c
00000250: 51af 4f3e ed13 b8bd 0679 c13e ccdf 533d
00000260: c3ec 7a3d 74eb 2f3d 144f aabe ad93 5b3e
00000270: 2e5a 3dbe 7bbf 06be 67ef 933e 1cf9 a83d
00000280: f771 573c fcc0 d6bd 09ed 1c3e 3e50 e7bc
00000290: d9e6 453d 2dea a33b ec60 373e 27f0 d03d
000002a0: 1afa 32be 56af e6bd 7d56 1a3e 0d33 2f3e
000002b0: 8582 433e a031 263e d178 923e ae1a 89bd
000002c0: 299f a73c 74bd 21be e5db d1be 1e22 a8bc
000002d0: e501 d8bd 767c 1c3e ae52 42bb 8365 263e
000002e0: bd00 74be 901b 1f3e c826 85be 5afa 283e
000002f0: 8ec4 cbbc 7825 13bd 4787 f7bd 49ca 10bf
00000300: 5fc0 e13d 3e83 3e3d 51ef e53d c1ca 813d
00000310: 5b5a 983e 774b 6c3d cbba b43d 6a0f b9bc
00000320: bc4d 2e3e c53d 04be 614a 75be 7c62 04be
00000330: 38ae dd3d cd06 5bbe dcb7 f0bd 78c2 3dbe
00000340: bdab 80bd 6c5e 1cbd bfb7 123b 73f0 a73d
00000350: 0cdf abbd 79d6 803c 921a a03d 4076 88be
00000360: 09e4 9cbe f2e5 12bd 2b99 073e 44ba 98bd
00000370: 3f55 193e 4ce1 d63e c506 273e b11d 9a3c
00000380: a18f 1b3e 294f 56bd 49c7 56bb 7b9c 74be
00000390: 115b 833e 00ab 8a3e 1cd6 82bd 5be4 463e
000003a0: c05f 6fbe e9e2 563e df35 3dbe 69d5 783e
000003b0: 0abc 86bd 3a14 c1bd 79fc 3dbe 9276 33be
000003c0: 726d 103e 9b1f e0bd 1ef2 adbd a876 b33b
000003d0: 893a 2fbe 87c6 003e 9c95 88bc 2634 b3bd
000003e0: 1b26 b63e 17d6 9fbd 92a9 343d 8cb6 89be
000003f0: dec9 3abe 2055 3cbd f0c9 543e dcc1 663d

network_body._body_endoder.seq_layers.2.bias f4 [40]
-0.011686883 0.0149372155 0.028750392 0.012477051 0.03156749 0.042612765 0.018420523 0.038561217
-0.012708015 0.09399509 -0.027562266 -0.008831637 -0.022505194 0.056592178 -0.034551214 0.008916825
-0.032073352 -0.03290972 0.01445969 0.027065482 0.011017198 0.011257799 0.022698143 0.02566442
-0.049086586 0.054621566 -0.017686065 0.05686836 -0.0030822956 -0.0079898825 0.056712434 0.03778453
0.0030671423 -0.046041936 0.05120231 0.01613897 0.060452014 0.06617255 0.004055772 0.0761788
00000000: 577a 3fbc 39bb 743c f185 eb3c 8b6c 4c3c
00000010: ea4c 013d b98a 2e3d a3e6 963c 5ef2 1d3d
00000020: 4735 50bc 7f80 c03d 43ca e1bc 92b2 10bc
00000030: d05c b8bc 33cd 673d 9385 0dbd e017 123c
00000040: 595f 03bd 58cc 06bd 56e8 6c3c 6eb8 dd3c
00000050: 7a81 343c a272 383c 75f1 b93c 313e d23c
00000060: 040f 49bd ddba 5f3d 5ee2 90bc ccee 683d
00000070: 5700 4abb ffe7 02bc 4c4b 683d f4c3 1a3d
00000080: 1c02 493b 7896 3cbd 83b9 513d e035 843c
00000090: 889c 773d 7985 873d 48e6 843b a103 9c3d

action_model._continuous_distribution.log_sigma f4 [1, 44]
-0.123890646 0.05215767 0.0396057 0.1373526 -0.018682966 0.024965204 0.052238606 0.03581953
-0.074251644 0.1354643 0.004309905 0.06773656 0.08986671 -0.0016098188 0.078651614 0.05259012
0.10926472 -0.0022867583 0.08050134 0.034747604 -0.037331596 0.07472985 0.004085627 0.057196382
0.11954201 0.07714542 0.013211755 -0.07303039 -0.12703948 0.025462838 0.050011236 0.02311284
0.013767994 -0.10151518 0.024254486 0.056456678 0.05364293 0.14635505 0.001208462 0.11839766
-0.018739 0.10012129 0.112289585 0.05598856
00000000: 61ba fdbd 48a3 553d 9639 223d 29a6 0c3e
00000010: 050d 99bc d483 cc3c 26f8 553d 80b7 123d
00000020: 3f11 98bd 27b7 0a3e 1b3a 8d3b 77b9 8a3d
00000030: 0a0c b83d 8e00 d3ba 1914 a13d bd68 573d
00000040: 2ec6 df3d 70dd 15bb e3dd a43d 8153 0e3d
00000050: 04e9 18bd f70b 993d b9e0 853b c146 6a3d
00000060: 71d2 f43d 6bfe 9d3d 1e76 583c f590 95bd
00000070: a316 02be 7197 d03c 95d8 4c3d 2357 bd3c
00000080: 2793 613c 31e7 cfbd 58b1 c63c 1e3f 673d
00000090: b0b8 5b3d 19de 153e 4265 9e3a 797a f23d
000000a0: 8882 99bc 640c cd3d 15f8 e53d 4354 653d

action_model._continuous_distribution.mu.weight f4 [44, 40]
-0.08561366 0.06615496 -0.04157246 -0.010787669 -0.019943986 -0.0134039605 0.010870594 0.0482506
0.07217752 -0.055734705 0.13354172 0.153123 -0.08076914 0.04891412 -0.069700316 -0.076260805
0.040191498 -0.0410217 0.014963737 -0.00913049 0.013822818 0.14084761 -0.053682778 -0.06732572
-0.0016924549 0.003118973 -0.016207993 0.015744215 0.005041759 0.120048024 -0.023478452 0.05368292
-0.008743663 -0.01958835 -0.08334467 0.04172979 0.03127091 0.055701464 -0.03567367 -0.029702198
0.10241573 -0.020415379 0.039537955 -0.101286486 0.023297269 0.16837579 -0.024155866 0.06742453
0.12231693 -0.017118424 -0.09421999 0.04830383 -0.015424313 0.037665237 -0.086455025 -0.07367787
0.11422508 0.026850546 -0.023095071 -0.041346345 0.14402142 0.072751455 -0.023496468 -0.00709601
-0.004861864 -0.027853077 -0.013767326 0.011527183 -0.009380177 0.053465396 -0.053619903 0.050898794
-0.036318395 -0.026753936 0.078924105 -0.0037181354 -0.03642284 -0.03203832 0.122477524 0.0224348
0.026538983 0.01791763 -0.010782524 -0.043498162 -0.0023277774 0.05148636 -0.002419071 0.18464027
-0.018259063 0.057150375 -0.055708397 -0.06375062 -0.065363035 0.014911599 -0.08628752 -0.011234992
0.06087177 -0.041653883 0.0038429038 -0.021856956 0.113548644 0.17759946 0.025323573 -0.010656445
-0.0022606393 0.14392617 -0.06664412 -0.069392234 -0.09911589 0.0019876722 0.07298583 -0.013685325
-0.081035875 0.02842098 -0.011011686 -0.019298438 -0.045921717 -0.0029608374 0.076969616 0.065840624
-0.057894316 -0.084162235 -0.011200693 -0.001835947 -0.044412 0.04790852 -0.03119073 0.16481675
0.03878193 -0.03451462 -0.121695854 -0.00547976 -0.048998818 0.083803065 0.15870425 -0.020150574
-0.037843924 -0.025106633 -0.06311561 -0.15074869 0.022572514 -0.03706982 0.10120625 0.034439854
-0.040779486 -0.009640213 -0.036083646 -0.09140047 -0.02354821 -0.04693845 -0.037747566 0.14640395
0.026412098 -0.118824854 -0.06823656 -0.05124676 -0.061551474 -0.032888513 0.023046369 0.17904411
0.07629435 0.045302313 0.051321108 0.09404846 -0.0999591 0.10642154 -0.11420556 -0.0064357086
0.1499614 0.06528974 -0.09386915 -0.01644096 -0.11873898 0.052540597 -0.012766223 -0.09609271
-0.06053102 0.06789888 -0.0028457746 -0.035712454 -0.026936645 0.00862745 0.12772262 0.040435474
0.005241744 0.040956944 -0.08377067 -0.02532085 -0.029135698 0.11636411 -0.05163541 0.036142077
0.05196508 -0.060922198 0.12532529 0.0427916 -0.034919545 -0.12600677 0.11290739 -0.046649974
0.010033467 0.076654755 -0.080249004 0.07127432 -0.102326035 0.108719066 -0.100375056 0.055537466
-0.018628128 -0.018043939 -0.005576899 0.097046465 0.0260757 0.0880986 0.02010268 0.036040116
-0.03420717 0.05301815 0.07282196 0.049176037 0.060564384 0.061542615 0.105609804 -0.037961207
-0.01517285 -0.06258113 0.00053622 -0.032890536 0.13492201 0.076333284 -0.01992447 0.01690916
0.123020515 -0.020699112 -0.037985075 -0.029248763 -0.052251782 -0.0015131796 0.09690898 0.08774237
0.030567294 0.063658096 -0.084900275 0.026866063 -0.007700698 0.040189918 0.0008040699 -0.023601389
0.070416264 -0.03394254 -0.12015922 -0.06975718 -0.08342841 -0.09502259 0.035134394 0.03362922
00000000: 3756 afbd 407c 873d e247 2abd c3be 30bc
00000010: 9261 a3bc 499c 5bbc 931a 323c 6ca2 453d
00000020: cfd1 933d 134a 64bd 29bf 083e 47cc 1c3e
00000030: 4a6a a5bd 2c5a 483d 0abf 8ebd a02e 9cbd
00000040: d79f 243d 5f06 28bd 762a 753c 0d98 15bc
00000050: 1a79 623c 5b3a 103e 79e2 5bbd 11e2 89bd
00000060: 5dd5 ddba af67 4c3b a0c6 84bc 03fa 803c
00000070: 5735 a53b bddb f53d e255 c0bc 9fe2 5b3d
00000080: 9541 0fbc bf77 a0bc 9cb0 aabd dbec 2a3d
00000090: ed15 003d 3827 643d 8e1e 12bd 0652 f3bc
000000a0: 57bf d13d 273e a7bc 8df2 213d 4a6f cfbd
000000b0: ead9 be3c b46a 2c3e 86e2 c5bc df15 8a3d
000000c0: 4c81 fa3d f03b 8cbc 69f6 c0bd 3dda 453d
000000d0: 42b6 7cbc dd46 1a3d 550f b1bd 6ce4 96bd
000000e0: d7ee e93d adf5 db3c e031 bdbc c95a 29bd
000000f0: 5a7a 133e b7fe 943d aa7b c0bc a585 e8bb
00000100: 4550 9fbb 232c e4bc 5a90 61bc 83dc 3c3c
00000110: 50af 19bc 88fe 5a3d 8ba0 5bbd 417b 503d
00000120: 99c2 14bd 122b dbbc f6a2 a13d f6ab 73bb
00000130: 1e30 15bd 9d3a 03bd 7fd5 fa3d 30c9 b73c
00000140: 4868 d93c fec7 923c 2fa9 30bc 212b 32bd
00000150: a08d 18bb 5de3 523d 4789 1ebb 5712 3d3e
00000160: 0894 95bc 8316 6a3d 7d2e 64bd af8f 82bd
00000170: 0edd 85bd c84f 743c 83b7 b0bd f912 38bc
00000180: ad54 793d 439d 2abd 3ad9 7b3b 5c0d b3bc
00000190: 318c e83d a2dc 353e 6273 cf3c 5f98 2ebc
000001a0: 3c27 14bb 6261 133e b67c 88bd 841d 8ebd
000001b0: 46fd cabd 9b43 023b 9879 953d 6a38 60bc
000001c0: 23f6 a5bd 1dd3 e83c 5c6a 34bc c217 9ebc
000001d0: 6918 3cbd 9c0a 42bb 3fa2 9d3d 73d7 863d
000001e0: 9722 6dbd 405d acbd 1d83 37bc 29a4 f0ba
000001f0: 5be9 35bd b93b 443d b483 ffbc b9c5 283e
00000200: cdd9 1e3d 345f 0dbd ad3b f9bd 8f8f b3bb
00000210: fcb2 48bd f1a0 ab3d 5e83 223e d112 a5bc
00000220: 3b02 1bbd 6dac cdbc c242 81bd dd5d 1abe
00000230: fee9 b83c 86d6 17bd 3945 cf3d ce10 0d3d
00000240: 6408 27bd fcf1 1dbc 72cc 13bd 2b30 bbbd
00000250: 2de8 c0bc 8842 40bd 319d 1abd ebea 153e
00000260: 2f5e d83c 725a f3bd 9cbf 8bbd 1fe8 51bd
00000270: 661d 7cbd 1bb6 06bd bdcb bc3c 5757 373e
00000280: 3640 9c3d eb8e 393d 1536 523d 7b9c c03d
00000290: 5bb7 ccbd 89f3 d93d 9be4 e9bd a3e2 d2bb
000002a0: 7b8f 193e a1b6 853d 783e c0bd 31af 86bc
000002b0: 6c2d f3bd cf34 573d 6c29 51bc 41cc c4bd
000002c0: 60ef 77bd 910e 8b3d 2d80 3abb 3947 12bd
000002d0: 3daa dcbc 265a 0d3c b8c9 023e ab9f 253d
000002e0: f0c2 ab3b 78c2 273d f58f abbd ac6d cfbc
000002f0: fdad eebc 4e50 ee3d a77f 53bd b709 143d
00000300: 56d9 543d 8e89 79bd 4655 003e 3f46 2f3d
00000310: cc07 0fbd eb07 01be fd3b e73d 0b14 3fbd
00000320: 6963 243c 2bfd 9c3d 9759 a4bd 45f8 913d
00000330: 5090 d1bd 1aa8 de3d 7091 cdbd 417b 633d
00000340: 049a 98bc e2d0 93bc 6bbe b6bb 4cc0 c63d
00000350: b59c d53c 0a6d b43d 60ae a43c cd9e 133d
00000360: d11c 0cbd 8f29 593d ae23 953d d06c 493d
00000370: 5c12 783d 1c14 7c3d f449 d83d 367d 1bbd
00000380: 8c97 78bc 892a 80bd 1d91 0c3a 3ab8 06bd
00000390: ff28 0a3e a054 9c3d a438 a3bc 1485 8a3c
000003a0: 2ef2 fb3d 2f91 a9bc 3d96 1bbd 1a9b efbc
000003b0: f705 56bd e255 c6ba 3778 c63d 46b2 b33d
000003c0: 4368 fa3c 2d5f 823d 32e0 adbd 3816 dc3c
000003d0: 2356 fcbb 2f9e 243d 38c8 523a b357 c1bc
000003e0: 6736 903d 5507 0bbd 0a16 f6bd dadc 8ebd
000003f0: 84dc aabd 349b c2bd 15e9 0f3d cbbe 093d

action_model._continuous_distribution.mu.bias f4 [44]
-0.07696164 0.05880071 0.045070935 -0.0008520341 0.02596423 0.044812206 0.022083286 -0.06484447
0.01365608 -0.0017137431 -0.06119183 -0.080952 -0.007646369 0.0019041057 -0.047060426 0.046014674
-0.061820433 0.036923807 0.051899333 0.017136527 0.017718581 -0.02835585 0.009531447 -0.015878983
0.026297674 -0.020805342 -0.053160295 -0.028142573 -0.013297315 0.030627321 0.018881235 -0.046465065
-0.038128737 0.042865258 0.067725144 -0.04642296 -0.028404536 -0.036745347 0.048386965 -0.029310698
-0.06161533 0.013758251 -0.010603361 -0.023302745
00000000: 109e 9dbd 03d9 703d 4d9c 383d 0a5b 5fba
00000010: f0b2 d43c 018d 373d 02e8 b43c 2dcd 84bd
00000020: c0bd 5f3c ad9f e0ba 49a4 7abd 2aca a5bd
00000030: 648e fabb 2f93 f93a 6fc2 40bd e279 3c3d
00000040: 6c37 7dbd 6b3d 173d 6594 543d e761 8c3c
00000050: 8f26 913c 874a e8bc c929 1c3c a414 82bc
00000060: 386e d73c f76f aabc 9cbe 59bd 418b e6bc
00000070: fbdc 59bc 26e6 fa3c d2ac 9a3c 2752 3ebd
00000080: e12c 1cbd 7b93 2f3d 7bb3 8a3d 0026 3ebd
00000090: a1b0 e8bc 4a82 16bd 6931 463d fd1c f0bc
000000a0: 5b60 7cbd 4a6a 613c b8b9 2dbc 66e5 bebc
