results/b090/Dynamic Table/Dynamic Table-4499985.pt (torch, 406791 bytes, 48 tensors)

network_body._body_endoder.seq_layers.0.weight f4 [64, 94]
0.3169274 -0.081611626 -0.07645209 0.10712776 -0.0616605 -0.056667544 -0.14394486 -0.25486693
-0.2186463 -0.23732166 0.08362423 -0.027098503 0.13531195 -0.030660624 -0.122303784 0.054549336
-0.075782135 -0.008108498 -0.014096195 0.018383853 0.14252451 0.20515849 -0.097462855 -0.047346856
-0.12608114 -0.042204503 0.017210398 0.19719066 0.11215676 -0.28765243 -0.07695435 -0.05931241
-0.026731452 -0.11316724 0.008187493 -0.1786781 -0.12895922 0.19934584 0.05383539 -0.14371353
-0.10685688 0.06663296 -0.06626809 0.23110883 -0.05006674 -0.008816483 -0.019466914 -0.07105753
-0.027298858 -0.07035497 -0.08040677 -0.009037236 -0.1253158 -0.19061442 0.110648155 -0.022660304
-0.03490139 -0.12316955 -0.08260765 -0.049635127 -0.08105348 0.035142094 -0.13396104 -0.20133112
0.085361145 -0.18978925 -0.061392702 -0.04093493 0.16113025 -0.22724026 -0.029113045 0.08688883
-0.21830311 0.03351056 -0.24755362 -0.09538732 0.035979047 0.011878669 -0.0044271066 0.082983024
0.0009594495 -0.15782452 -0.2072291 0.17847304 0.0007031504 -0.053755946 -0.10132409 -0.03662366
0.058334462 0.039096825 -0.020643122 0.10662486 0.022992445 -0.042119775 0.00950708 0.007115911
-0.10450291 -0.13964011 0.13293195 0.0014708937 0.022091206 0.08658549 -0.0010757542 -0.16729508
-0.15293074 -0.3076774 -0.019750392 0.13419256 -0.04625814 -0.15407018 -0.18378435 0.058929883
0.21892518 0.02262804 -0.04201651 0.21413535 -0.03482189 0.11268936 0.16653487 0.00631203
0.19102284 0.23368168 0.1976763 0.024547327 -0.08246326 0.05450342 0.1607906 0.30007505
-0.06810134 0.054277327 -0.060322925 0.034215525 -0.14666589 0.06557668 0.15032656 -0.124324806
-0.06989073 0.17878516 0.39803293 0.06747318 -0.013885666 -0.22356421 0.2065728 -0.22568993
0.042788725 0.07094107 -0.029925117 -0.049269572 -0.03185701 -0.053097453 0.042467736 0.06137801
0.08658633 -0.011663095 0.22265121 0.028647386 0.123053595 -0.037055306 -0.0008815713 -0.16421124
0.078089714 0.06833889 0.052740943 -0.03665145 -0.13480118 -0.047751013 -0.07046119 -0.07280746
0.18474738 -0.08404055 -0.0057376535 0.046623513 0.17890526 -0.17777005 0.13200232 -0.06818905
-0.15698141 -0.22328694 -0.07753995 -0.13994902 -0.07514975 -0.0056731366 -0.10210896 -0.046025854
-0.15987338 -0.025291223 0.16692446 0.052363772 -0.13349116 -0.0020494568 0.042416424 -0.22827137
0.01863841 0.10076377 -0.09638673 -0.08139847 -0.22702557 -0.37120515 -0.15276578 -0.089836024
0.03272588 -0.09153363 -0.09775189 -0.11318444 -0.0042363047 0.04105747 0.0045536 -0.17182398
-0.029171107 -0.031879637 -0.1366121 -0.14575599 0.017384017 0.006278119 -0.015739584 0.08157049
-0.2576089 -0.21982805 -0.112832986 0.067727804 0.043748464 0.187987 -0.045254417 0.0122847175
-0.005543531 0.061580107 -0.05384407 -0.10856266 0.035955455 0.0029082177 -0.100539014 -0.06943504
0.06156422 0.058489203 -0.11541215 -0.058701202 0.04126182 0.018682528 0.014198479 -0.055616684
-0.0143432515 0.22390656 -0.040876918 -0.06010245 0.002188481 -0.3131309 -0.04541069 -0.26117817
-0.24540809 -0.084140666 -0.02182481 -0.017789684 0.07353216 -0.036798254 0.112333864 -0.0077423262
00000000: 4f44 a23e ff23 a7bd ea92 9cbd cd65 db3d
00000010: b88f 7cbd 3a1c 68bd 4866 13be eb7d 82be
00000020: d1e4 5fbe 7304 73be 2e43 ab3d aefd ddbc
00000030: 378f 0a3e fd2b fbbc 687a fabd 206f 5f3d
00000040: aa33 9bbd 81d9 04bc baf3 66bc bc99 963c
00000050: f2f1 113e 1115 523e 9b9a c7bd c7ee 41bd
00000060: 6a1b 01be a1de 2cbd d2fc 8c3c 59ec 493e
00000070: 72b2 e53d 2e47 93be 3e9a 9dbd 92f1 72bd
00000080: ebfb dabc 3ac4 e7bd d624 063c 64f7 36be
00000090: e30d 04be 5121 4c3e 7f82 5c3d a429 13be
000000a0: c8d7 dabd dd76 883d 90b7 87bd cba7 6c3e
000000b0: c812 4dbd 0373 10bc 1479 9fbc 9c86 91bd
000000c0: dba1 dfbc 4416 90bd 4eac a4bd ea10 14bc
000000d0: c952 00be 6d30 43be 809b e23d 1aa2 b9bc
000000e0: c3f4 0ebd 5140 fcbd 332e a9bd 344e 4bbd
000000f0: 5eff a5bd 28f1 0f3d 152d 09be bf29 4ebe
00000100: d3d1 ae3d 1d58 42be ea76 7bbd 63ab 27bd
00000110: 54ff 243e acb1 68be 7b7e eebc c5f2 b13d
00000120: da8a 5fbe 5e42 093d b27e 7dbe 6d5a c3bd
00000130: c45e 133d c09e 423c 4311 91bb 01f3 a93d
00000140: 9183 7b3a c09c 21be dd33 54be a3c1 363e
00000150: a053 383a 322f 5cbd 0183 cfbd b102 16bd
00000160: 1ef0 6e3d fe23 203d c41b a9bc 225e da3d
00000170: a75a bc3c c985 2cbd 95c3 1b3c 972c e93b
00000180: 9f05 d6bd d1fd 0ebe 501f 083e 01cb c03a
00000190: 9ef8 b43c bc53 b13d 5200 8dba 674f 2bbe
000001a0: e099 1cbe e487 9dbe 93cb a1bc c669 093e
000001b0: 2d79 3dbd 93c4 1dbe f731 3cbe 7660 713d
000001c0: ec2d 603e 705e b93c 8119 2cbd 4c46 5b3e
000001d0: 66a1 0ebd aec9 e63d 1e88 2a3e 25d5 ce3b
000001e0: 7e9b 433e 404a 6f3e a86b 4a3e 7a17 c93c
000001f0: 7fe2 a8bd fa3e 5f3d 4ba6 243e 70a3 993e
00000200: b778 8bbd e751 5e3d 2c15 77bd 9425 0c3d
00000210: 952f 16be 114d 863d 35ef 193e 019e febd
00000220: df22 8fbd 7513 373e f9ca cb3e 612f 8a3d
00000230: b480 63bc 04ee 64be d287 533e 431b 67be
00000240: 3b43 2f3d 8d49 913d 8525 f5bc e4ce 49bd
00000250: 7f7c 02bd b77c 59bd a6f2 2d3d 8267 7b3d
00000260: 2c54 b13d 9116 3fbc aefe 633e ecad ea3c
00000270: 8603 fc3d 4ec7 17bd 4019 67ba fe26 28be
00000280: 80ed 9f3d 43f5 8b3d e306 583d d51f 16bd
00000290: 5209 0abe 9196 43bd f54d 90bd 141c 95bd
000002a0: 6b2e 3d3e 741d acbd ed02 bcbb 4cf8 3e3d
000002b0: f132 373e 5a09 36be 9e2b 073e b3a6 8bbd
000002c0: bcbf 20be 55a5 64be 44cd 9ebd cc4e 0fbe
000002d0: 1de8 99bd b8e5 b9bb 811e d1bd 9b85 3cbd
000002e0: d9b5 23be 8a2f cfbc 3fee 2a3e 657b 563d
000002f0: e8b1 08be 2e50 06bb d8bc 2d3d f8bf 69be
00000300: 94af 983c 3c5d ce3d 6866 c5bd 3eb4 a6bd
00000310: 6479 68be 9a0e bebe a26e 1cbe f3fb b7bd
00000320: 930b 063d fc75 bbbd 2532 c8bd 3ecd e7bd
00000330: b3d0 8abb e12b 283d 5e36 953b a0f2 2fbe
00000340: 3ff8 eebc 3994 02bd 0be4 0bbe 0f41 15be
00000350: ed68 8e3c aeb8 cd3b 4df0 80bc 6e0e a73d
00000360: 50e5 83be 9b1a 61be fb14 e7bd e0b4 8a3d
00000370: 9731 333d aa7f 403e b25c 39bd d745 493c
00000380: 82a6 b5bb 6c3b 7c3d 998b 5cbd 1a56 debd
00000390: 0746 133d cc97 3e3b 66e7 cdbd f533 8ebd
000003a0: c32a 7c3d 6092 6f3d 355d ecbd ac70 70bd
000003b0: 2702 293d 1a0c 993c bda0 683c 52ce 63bd
000003c0: f5ff 6abc c347 653e 8e6e 27bd fd2d 76bd
000003d0: 9e6c 0f3b b152 a0be 8f00 3abd 25b9 85be
000003e0: 424c 7bbe f151 acbd f2c9 b2bc acbb 91bc
000003f0: 0798 963d c4b9 16bd 4c0f e63d 57b3 fdbb

network_body._body_endoder.seq_layers.0.bias f4 [64]
-0.027079927 -0.035432003 -0.013073261 -0.021568269 0.021778863 0.024532333 -0.013201745 0.019651378
-0.010237017 0.00016055627 -0.0006504644 0.0030699244 0.03592888 0.008462231 -0.022668734 -0.014793945
-0.057077408 0.02671266 0.019622242 -0.0071067093 -0.025763104 -0.016848309 -0.010375175 -0.04158945
-0.008024525 -0.010713716 0.0378704 -0.0068527637 -0.005774952 -0.054017846 -0.0052489 -0.007353411
0.0008133139 -0.008636685 0.0045304424 0.007886693 -0.004396261 -0.02753916 0.0095586 0.009468942
0.026248822 0.011757627 0.014389266 -0.02426563 0.010358848 0.018844234 -0.052792028 -0.026308611
-0.01867781 -0.0014502434 0.010332211 -0.017611926 -0.0028523018 -0.04682365 -0.020715022 -0.0073340153
0.0033861566 -0.003098693 -0.008886102 -0.024644718 -0.013512962 -0.027169185 0.009444988 0.02799078
00000000: b9d6 ddbc 2621 11bd 3b31 56bc f0af b0bc
00000010: 9669 b23c 08f8 c83c 224c 58bc edfb a03c
00000020: 29b9 27bc ff5a 2839 ed83 2aba c930 493b
00000030: 292a 133d 2ba5 0a3c c8b3 b9bc 4d62 72bc
00000040: 00ca 69bd 82d4 da3c d3be a03c 66df e8bb
00000050: 250d d3bc 7705 8abc a3fc 29bc b359 2abd
00000060: 4c79 03bc 9588 2fbc fe1d 1b3d 268d e0bb
00000070: cf3b bdbb d141 5dbd f7fe abbb e2f4 f0bb
00000080: 9234 553a e280 0dbc 1b74 943b 3037 013c
00000090: 830e 90bb ce99 e1bc ad9b 1c3c 9f23 1b3c
000000a0: c507 d73c 10a3 403c f5c0 6b3c b7c8 c6bc
000000b0: 28b8 293c 395f 9a3c 743c 58bd 2885 d7bc
000000c0: 3502 99bc 1816 beba 6f48 293c e346 90bc
000000d0: afed 3abb 28ca 3fbd 8db2 a9bc 2e52 f0bb
000000e0: 48ea 5d3b 7113 4bbb 0397 11bc b8e3 c9bc
000000f0: 7865 5dbc e991 debc 27bf 1a3c ec4c e53c

network_body._body_endoder.seq_layers.2.weight f4 [64, 64]
0.056976255 -0.07725184 -0.19573343 0.14732224 -0.085206494 0.028048083 0.2802069 0.04732606
-0.24720617 0.022370944 -0.037257407 -0.12014896 -0.061995983 0.030103052 0.048117235 -0.12923884
-0.1366375 -0.17235684 0.07709822 0.05049237 -0.07911658 0.0026723307 -0.16550891 -0.019922007
-0.0060655773 -0.040100433 -0.00652935 -0.19293316 0.013949959 -0.08272116 -0.10127415 -0.32679138
0.068257734 0.3622488 0.013327961 -0.036100227 -0.29530582 -0.030320097 -0.12843223 0.17403416
0.009320078 0.27613705 0.18509112 0.00074398186 0.19916807 0.17470202 0.1161015 0.11844314
0.052006792 0.33215874 -0.02453288 0.19633733 0.082179934 -0.13131578 0.12128218 0.11076153
0.09727195 -0.19386987 0.31979412 0.036980264 -0.2566596 0.05417718 -0.30002946 0.061034888
0.09242352 0.081364214 -0.08847365 -0.33699822 -0.18953748 -0.0004962429 -0.16493727 -0.03292594
-0.06321427 0.21425049 0.0024946283 0.23402289 -0.12880178 -0.03496493 0.026133947 0.09173871
-0.08204827 0.07634843 -0.4010518 0.050396245 0.012555042 0.019594556 0.13452817 -0.002021349
-0.080561124 0.05489018 -0.038650878 -0.15842877 -0.11068985 0.053701475 -0.2208434 0.16385967
0.042664412 -0.069146596 -0.4918997 -0.060527857 -0.043824144 -0.049530596 -0.15051748 -0.0049974234
-0.27248994 -0.008305395 -0.05154505 0.21453564 0.05573919 0.1358941 -0.28773555 -0.177038
0.22961996 -0.09701053 -0.082945704 -0.09813389 0.24532063 0.2484434 0.07151684 -0.20129196
-0.19071494 -0.09805645 0.10672996 0.18992016 -0.0069772922 0.24899207 0.3583579 -0.15996735
0.15990807 -0.060885224 -0.34805337 -0.22841652 0.10195993 -0.07482668 0.050721906 -0.09043116
-0.019740947 -0.094376154 -0.14092778 -0.019137617 -0.1762839 0.07541782 0.0458482 0.05457472
-0.21232063 -0.23011455 -0.3329757 -0.046556305 -0.039467704 0.17387795 -0.029962726 0.13212861
-0.027465582 -0.013704865 -0.17946613 -0.25348088 0.33475083 -0.015938584 -0.10442144 0.040596638
-0.29863608 -0.11910895 0.04588857 -0.3735697 0.0052929027 0.02823318 0.009398245 0.095615014
0.12310664 0.0034283467 -0.06357489 -0.08562017 0.1454064 -0.17812437 -0.30842742 -0.0013418415
0.19849451 -0.22112922 -0.13054015 -0.17416857 0.12185529 -0.21693349 -0.025678238 -0.08214275
0.17138663 -0.14891994 0.20804083 0.11760869 -0.08003079 -0.03783012 0.08122217 -0.2340119
0.18387905 -0.034447286 0.14190017 0.17062376 -0.0706854 0.068596244 0.047093496 0.0028984456
-0.0727188 -0.06828966 -0.15490796 0.07247231 0.30795416 -0.22384508 -0.2764521 0.04465624
-0.04550346 -0.016641522 0.12825695 0.17699316 -0.23520829 0.13856624 -0.051853362 -0.17695841
-0.053487036 -0.01855813 0.20844796 0.16903323 -0.12053325 -0.14598224 -0.14384153 -0.087286994
0.090104535 0.30071655 -0.101468585 -0.18213433 -0.059632275 -0.12685207 0.08299274 0.04074784
-0.028589027 0.21225584 -0.117473274 0.03331575 -0.11821809 0.09715332 0.05947767 -0.13359702
-0.4277883 0.056510832 0.10171122 0.0026796337 0.24399383 -0.17084765 -0.30857444 0.10306606
0.10794894 0.028319554 0.16174357 -0.04032107 0.22083072 -0.069904864 -0.27422 0.024359914
00000000: ef5f 693d 3636 9ebd 586e 48be a4db 163e
00000010: be80 aebd 18c5 e53c 4777 8f3e f8d8 413d
00000020: 9d23 7dbe 4543 b73c 399b 18bd a810 f6bd
00000030: 80ef 7dbd ad9a f63c 9416 453d 3057 04be
00000040: b3ea 0bbe 507e 30be ace5 9d3d 16d1 4e3d
00000050: e007 a2bd 4522 2f3b 2b7b 29be 7a33 a3bc
00000060: c0c1 c6bb 5a40 24bd 28f4 d5bb 4590 45be
00000070: 5e8e 643c b669 a9bd d268 cfbd 3351 a7be
00000080: b6ca 8b3d ad78 b93e 855d 5a3c d5dd 13bd
00000090: 5332 97be da61 f8bc bd83 03be 0336 323e
000000a0: 3eb3 183c d661 8d3e 8788 3d3e c707 433a
000000b0: b7f2 4b3e 16e5 323e a0c6 ed3d 5192 f23d
000000c0: 1305 553d b610 aa3e 2ef9 c8bc a70c 493e
000000d0: f44d a83d a577 06be cb62 f83d f1d6 e23d
000000e0: 8436 c73d d385 46be 0ebc a33e 9e78 173d
000000f0: e368 83be e4e8 5d3d 769d 99be b8ff 793d
00000100: 8b48 bd3d 48a2 a63d ac31 b5bd 088b acbe
00000110: 1d16 42be 4c16 02ba 51e5 28be 5add 06bd
00000120: 7c76 81bd 7b64 5b3e eb7c 233b b2a3 6f3e
00000130: 9de4 03be 6337 0fbd dc16 d63c 81e1 bb3d
00000140: ec08 a8bd 915c 9c3d a956 cdbe 4b6c 4e3d
00000150: aab3 4d3c c384 a03c c1c1 093e 9c78 04bb
00000160: 3bfd a4bd 86d4 603d 6250 1ebd 273b 22be
00000170: 5cb1 e2bd 14f6 5b3d c624 62be d4ca 273e
00000180: e1c0 2e3d bb9c 8dbd 47da fbbe 0fec 77bd
00000190: f280 33bd 98e0 4abd 4121 1abe 6dc1 a3bb
000001a0: cd83 8bbe 5a13 08bc e720 53bd 3baf 5b3e
000001b0: c74e 643d d327 0b3e 1352 93be 7349 35be
000001c0: 7f21 6b3e 75ad c6bd 70df a9bd 6cfa c8bd
000001d0: 5535 7b3e f267 7e3e 6c77 923d 7b1f 4ebe
000001e0: c74a 43be d2d1 c8bd 3d95 da3d 6e7a 423e
000001f0: c5a1 e4bb c7f7 7e3e b07a b73e 7bce 23be
00000200: f1be 233e c962 79bd 0d34 b2be 05e6 69be
00000210: 5ed0 d03d bb3e 99bd c6c1 4f3d f933 b9bd
00000220: c4b7 a1bc 4948 c1bd 5f4f 10be 7ec6 9cbc
00000230: c483 34be a874 9a3d 52cb 3b3d be89 5f3d
00000240: 946a 59be 26a3 6bbe ca7b aabe d3b1 3ebd
00000250: e3a8 21bd 100d 323e 6474 f5bc b94c 073e
00000260: 80ff e0bc 5f8a 60bc f8c5 37be 3fc8 81be
00000270: 7664 ab3e a291 82bc e8da d5bd a948 263d
00000280: d4e6 98be 65ef f3bd a7f5 3b3d 8744 bfbe
00000290: 1670 ad3b 4549 e73c 19fb 193c ced1 c33d
000002a0: 561f fc3d 1dae 603b 8d33 82bd a159 afbd
000002b0: 6ae5 143e 3c66 36be 33ea 9dbe bbe0 afba
000002c0: 2542 4b3e b36f 62be 51ac 05be 3f59 32be
000002d0: 448f f93d d023 5ebe 2b5b d2bc 753a a8bd
000002e0: fa7f 2f3e 787e 18be a808 553e d3dc f03d
000002f0: 2fe7 a3bd c2f3 1abd cf57 a63d d1a0 6fbe
00000300: ca4a 3c3e 9918 0dbd 474e 113e ffb7 2e3e
00000310: 82c3 90bd 307c 8c3d 1ce5 403d d9f3 3d3b
00000320: 98ed 94bd 73db 8bbd 31a0 1ebe 5d6c 943d
00000330: 2bac 9d3e a537 65be 218b 8dbe 76e9 363d
00000340: d661 3abd cd53 88bc ca55 033e b23d 353e
00000350: 71da 70be 4fe4 0d3e 3164 54bd 9634 35be
00000360: 3915 5bbd 3807 98bc 6273 553e 0c17 2d3e
00000370: 23da f6bd 5e7c 15be 324b 13be 86c3 b2bd
00000380: ba88 b83d 85f7 993e c3ce cfbd 6c81 3abe
00000390: f940 74bd 82e5 01be 19f8 a93d 35e7 263d
000003a0: 8933 eabc 9859 593e d495 f0bd 1976 083d
000003b0: 531c f2bd 52f8 c63d db9e 733d a8cd 08be
000003c0: 1107 dbbe e777 673d f94d d03d cb9c 2f3b
000003d0: 85d9 793e b0f2 2ebe 78fd 9dbe 4c14 d33d
000003e0: 5514 dd3d 69fe e73c 1ba0 253e b527 25bd
000003f0: 7321 623e 482a 8fbd 9066 8cbe 718e c73c

network_body._body_endoder.seq_layers.2.bias f4 [64]
0.031270765 0.038755767 -0.039019007 0.017453095 -0.0066823405 -0.018376036 0.04129686 -0.008914111
-0.017218197 -0.008112212 -0.022747574 -0.010831605 0.02843687 -0.00084693567 0.0137771135 0.036748108
-0.013560151 -0.047908615 0.008632985 -0.010623512 0.010224041 -0.018562283 -0.08080925 -0.0033791675
-0.017058017 0.039782103 0.00840898 -0.019128984 -0.03528881 0.045568403 0.021931428 0.04872662
0.02114471 -0.011637235 0.066965014 -0.018098742 0.028790819 0.027908497 -0.025989406 -0.001657735
-0.0030922003 0.0561421 -0.014635583 0.05539533 0.013168627 0.016050728 0.0052732774 0.024808282
0.008570124 0.035664894 0.055506088 -0.022704769 0.048433784 0.008467203 0.014332481 -0.00016039483
-0.0049653254 -0.020271897 -0.021215292 0.01024352 0.032209497 -0.011266283 -0.072841115 -0.021404311
00000000: c615 003d 5ebe 1e3d 65d2 1fbd cbf9 8e3c
00000010: 89f7 dabb 5789 96bc e526 293d 7e0c 12bc
00000020: 2d0d 8dbc 15e9 04bc 1f59 babc 0b77 31bc
00000030: 70f4 e83c e404 5eba 67b9 613c 2f85 163d
00000040: 652b 5ebc d33b 44bd 5d71 0d3c 3d0e 2ebc
00000050: bc82 273c ee0f 98bc 527f a5bd 0675 5dbb
00000060: 41bd 8bbc 8ff2 223d d2c5 093c 63b4 9cbc
00000070: 008b 10bd efa5 3a3d 8aa9 b33c 9095 473d
00000080: ac37 ad3c 1aaa 3ebc f424 893d d043 94bc
00000090: b9da eb3c 5ca0 e43c bce7 d4bc 5b48 d9ba
000000a0: 83a6 4abb 42f5 653d 16ca 6fbc 37e6 623d
000000b0: 3ac1 573c d17c 833c 75cb ac3b bd3a cb3c
000000c0: b569 0c3c 5a15 123d 5a5a 633d 5aff b9bc
000000d0: 8162 463d 06ba 0a3c c8d2 6a3c a92f 28b9
000000e0: 2bb4 a2bb 4011 a6bc b1cb adbc 70d4 273c
000000f0: 1bee 033d 3796 38bc b92d 95bd 1858 afbc

network_body._body_endoder.seq_layers.4.weight f4 [64, 64]
-0.2749911 0.113643125 0.23990196 -0.17588782 -0.10114736 0.20573506 -0.16562149 0.06438874
-0.15562856 -0.093894556 -0.002480573 -0.09760085 0.028606756 0.05509224 0.2819101 -0.036688607
0.018472234 0.10179143 0.08550122 0.35267857 -0.051288232 -0.11150985 0.04694225 -0.092108905
-0.116647415 -0.05710027 -0.05485785 0.25909317 -0.20181137 -0.051687952 -0.18493478 -0.0855616
-4.2935662e-05 -0.20508666 -0.31436965 -0.14905287 -0.062387947 -0.018086098 0.0133876605 -0.067340754
-0.14734611 0.023797682 -0.21290536 0.11691584 -0.043020718 0.038530808 0.49460718 -0.19061717
-0.37848923 0.053000204 0.0374665 -0.26094028 0.14862773 0.29495957 -0.055549316 0.035411097
0.15326737 0.041480545 -0.094255395 -0.036666036 0.30297822 0.098970994 -0.04089369 -0.16196889
0.12045589 -0.07434676 0.25067213 -0.12965426 -0.26623577 -0.082821056 0.22907566 -0.055396024
-0.038402762 0.0027203835 -0.22898278 0.055819765 0.07638163 -0.18738203 0.14687832 0.05065447
0.12216321 -0.04603376 -0.16424829 -0.02652851 -0.05237431 0.17447574 -0.06385476 -0.031604238
-0.12922075 0.16786905 0.010302477 -0.00306748 -0.17320248 -0.00067253737 0.14722343 0.15629877
0.033546023 0.23954909 -0.06935103 0.025932955 0.08048346 0.12464414 -0.14338616 -0.028115887
-0.03847862 -0.032610912 -0.11404973 -0.0021443425 -0.0911807 0.27516448 -0.37861955 0.030134004
-0.11013375 0.15042259 -0.069927484 0.008059225 -0.012697366 -0.23753905 -0.47784323 -0.0698063
-0.07021017 -0.0022525084 -0.03387851 0.33678487 0.1612226 0.10865107 -0.121999115 -0.057618257
-0.22747028 -0.039326455 0.12700541 -0.090486296 -0.008857182 0.016633376 -0.018447066 0.071812876
0.1577094 -0.24414624 0.0024694009 -0.075741164 -0.1211526 -0.18168637 0.012783776 -0.1615547
0.0014029915 -0.3018372 -0.08296686 -0.07905358 -0.081520274 0.23725802 0.057978306 0.06919016
-0.07616385 -0.117222235 -0.060666166 -0.048141055 0.08821249 -0.30667472 -0.053549632 -0.15491377
-0.1388794 0.058736842 0.031406328 -0.053281676 -0.019293807 -0.09446072 0.039728984 0.08601592
-0.0134395035 -0.008372056 0.10962503 0.2793117 0.08247213 -0.11487713 -0.027828543 -0.16391021
0.12760112 -0.12606038 0.038384546 -0.015588056 0.0511993 -0.22376674 0.018822988 0.08302359
-0.12622981 -0.08333748 0.22454588 0.07490448 -0.33356193 -0.013463399 -0.025704421 0.0081786625
0.16886829 0.07642097 -0.10212071 -0.03673426 -0.018533107 -0.28651345 -0.053588565 0.0918704
-0.053971585 0.30450705 -0.10248005 -0.13933313 -0.12931408 -0.2137742 -0.06372612 -0.07947039
-0.23601745 0.02672827 -0.061927572 -0.024430837 0.072229706 0.055442125 0.044782277 -0.02878979
0.18518083 -0.13727681 0.13094835 -0.12202153 0.05598218 0.17777665 -0.0066383663 0.23645613
0.28850147 0.15295608 0.13652784 0.00786703 -0.1515034 -0.055977304 -0.18561576 -0.34205958
-0.117872134 -0.0020637943 0.33644736 -0.023385735 0.057639387 -0.1744131 0.014566486 0.0619996
-0.14176698 0.017228752 -0.33718333 0.049977824 0.13574138 0.25514325 -0.013255365 0.40051392
0.042573716 -0.17000139 -0.120625794 0.22755581 -0.17701842 -0.25397065 0.09004645 -0.044796776
00000000: a2cb 8cbe babd e83d dca8 753e f01b 34be
00000010: 5926 cfbd 36ac 523e ae98 29be 3ede 833d
00000020: 185d 1fbe ca4b c0bd 1c91 22bb f4e2 c7bd
00000030: b758 ea3c 67a8 613d 8556 903e cb46 16bd
00000040: 1553 973c 0678 d03d 431b af3d 4992 b43e
00000050: 9c13 52bd 475f e4bd 8446 403d 98a3 bcbd
00000060: d7e4 eebd f9e1 69bd a0b2 60bd dca7 843e
00000070: a4a7 4ebe bfb6 53bd 8b5f 3dbe ec3a afbd
00000080: d115 34b8 3d02 52be 0ff5 a0be 51a1 18be
00000090: 818a 7fbd 4c29 94bc eb57 5b3c f3e9 89bd
000000a0: e6e1 16be 5bf3 c23c dd03 5abe 9271 ef3d
000000b0: 7e36 30bd 7bd2 1d3d 273d fd3e 2631 43be
000000c0: 57c9 c1be be16 593d 7976 193d f799 85be
000000d0: de31 183e f104 973e ae87 63bd 3a0b 113d
000000e0: 1ff2 1c3e 81e7 293d f908 c1bd 202f 16bd
000000f0: f61f 9b3e 4eb1 ca3d 2480 27bd 2cdb 25be
00000100: 94b1 f63d 1d43 98bd 1958 803e 16c4 04be
00000110: 0e50 88be 169e a9bd cf92 6a3e f1e6 62bd
00000120: 374c 1dbd 7648 323b 767a 6abe 44a3 643d
00000130: f96d 9c3d 13e1 3fbe 4567 163e 107b 4f3d
00000140: b430 fa3d e58d 3cbd b430 28be 5152 d9bc
00000150: 7286 56bd c5a9 323e 49c6 82bd 7273 01bd
00000160: 7252 04be dde5 2b3e b8cb 283c c607 49bb
00000170: fe5b 31be 384d 30ba bdc1 163e c90c 203e
00000180: 8e67 093d 5b4c 753e ea07 8ebd 5971 d43c
00000190: 83d4 a43d 6d45 ff3d d2d3 12be 4a53 e6bc
000001a0: c29b 1dbd 0593 05bd e892 e9bd 1988 0cbb
000001b0: f2bc babd 5ce2 8c3e 6cda c1be 96db f63c
000001c0: ce8d e1bd 6108 1a3e 2436 8fbd d70a 043c
000001d0: 9d08 50bc 703d 73be dea7 f4be 9bf6 8ebd
000001e0: 59ca 8fbd d29e 13bb 31c4 0abd 116f ac3e
000001f0: 8a17 253e 7484 de3d acda f9bd 1f01 6cbd
00000200: f8ed 68be c714 21bd b50d 023e e150 b9bd
00000210: b71d 11bc b842 883c 4d1e 97bc a112 933d
00000220: 937e 213e 7901 7abe acd5 213b 2f1e 9bbd
00000230: db1e f8bd fe0b 3abe 0b73 513c 986e 25be
00000240: 95e4 b73a 688a 9abe 87ea a9bd d8e6 a1bd
00000250: 1af4 a6bd c4f3 723e a97a 6d3d 92b3 8d3d
00000260: cbfb 9bbd 3612 f0bd 167d 78bd 8e2f 45bd
00000270: c0a8 b43d 7804 9dbe dc56 5bbd b7a1 1ebe
00000280: 6736 0ebe 0b96 703d eca3 003d e33d 5abd
00000290: 0c0e 9ebc 9f74 c1bd dcba 223d 1d29 b03d
000002a0: 5d31 5cbc f32a 09bc 1683 e03d f101 8f3e
000002b0: 26e7 a83d b344 ebbd aff8 e3bc 14d8 27be
000002c0: dea9 023e f915 01be 1d39 1d3d 0c65 7fbc
000002d0: 5bb6 513d 1c23 65be ab32 9a3c 4608 aa3d
000002e0: 6342 01be d7ac aabd 5bef 653e 8567 993d
000002f0: a1c8 aabe 9795 5cbc 1492 d2bc ccff 053c
00000300: cfeb 2c3e 9982 9c3d aa24 d1bd aa76 16bd
00000310: bed2 97bc e4b1 92be af7f 5bbd 8c26 bc3d
00000320: 4f11 5dbd 59e8 9b3e 0fe1 d1bd 58ad 0ebe
00000330: e96a 04be a0e7 5abe d782 82bd 5fc1 a2bd
00000340: 8fae 71be 3ff5 da3c c4a7 7dbd 2e23 c8bc
00000350: 2bed 933d 4817 633d 9f6d 373d 91d8 ebbc
00000360: 0ba0 3d3e 4b92 0cbe 5317 063e 6de6 f9bd
00000370: 924d 653d 150b 363e a786 d9bb 8e21 723e
00000380: 77b6 933e 85a0 1c3e f4cd 0b3e b7e4 003c
00000390: b523 1bbe 7548 65bd 0f12 3ebe 6f22 afbe
000003a0: f266 f1bd b940 07bb d442 ac3e 7193 bfbc
000003b0: 4717 6c3d 5999 32be 45a8 6e3c 4bf3 7d3d
000003c0: 5d2b 11be 5023 8d3c 4ba3 acbe 8cb5 4c3d
000003d0: caff 0a3e 23a2 823e 082d 59bc 2910 cd3e
000003e0: c761 2e3d d814 2ebe a80a f7bd 6404 693e
000003f0: 5144 35be 7108 82be 466a b83d d37c 37bd

network_body._body_endoder.seq_layers.4.bias f4 [64]
0.02237616 -0.08157487 0.013191438 0.05651176 -0.0005086966 0.041468818 -0.08130721 0.042166065
-0.023553178 0.028468458 0.0063151172 -0.008292304 0.06991658 -0.016410941 0.040246274 0.07715923
0.024437936 -0.04364707 -0.05950371 0.018730015 -0.016782168 0.0035046835 -0.03336828 -0.046634085
0.020850394 0.06804965 0.037389938 0.020245504 0.0066327667 0.08589484 -0.04080575 0.055832893
-0.042917177 0.04585326 0.059881497 -0.04584112 -0.045491558 0.048202276 -0.042323384 -0.06692508
0.04613814 0.050374832 -0.003398217 -0.07036207 0.027432667 -0.004624432 0.060866762 -0.048784908
0.015515945 0.10536533 0.027080985 -0.014677787 -0.06074756 0.018242728 0.10550493 0.015900942
0.04401349 0.069439754 -0.009555811 -0.040171843 -0.049432706 -0.0036044987 -0.036692336 0.025636911
00000000: 354e b73c ba10 a7bd e720 583c e078 673d
00000010: 0d5a 05ba 35db 293d 6584 a6bd 53b6 2c3d
00000020: 98f2 c0bc af36 e93c 0bef ce3b 72dc 07bc
00000030: 6d30 8f3d 3d70 86bc 47d9 243d a905 9e3d
00000040: 1132 c83c 45c7 32bd 2aba 73bd b06f 993c
00000050: c27a 89bc d5ae 653b 2dad 08bd 6203 3fbd
00000060: 72ce aa3c 9d5d 8b3d 3126 193d e6d9 a53c
00000070: ae57 d93b a2e9 af3d ee23 27bd 08b1 643d
00000080: ecc9 2fbd a1d0 3b3d 4d46 753d e6c3 3bbd
00000090: 5b55 3abd c06f 453d 495b 2dbd 0410 89bd
000000a0: 59fb 3c3d d755 4e3d 9fb4 5ebb fd19 90bd
000000b0: 79ba e03c 8c88 97bb 6d4f 793d afd2 47bd
000000c0: 9736 7e3c c7c9 d73d f1d8 dd3c 1a7b 70bc
000000d0: 6fd2 78bd c671 953c f812 d83d b142 823c
000000e0: 7d47 343d 6e36 8e3d fa8f 1cbc 3b8b 24bd
000000f0: f379 4abd 7439 6cbb b44a 16bd 8004 d23c

action_model._continuous_distribution.log_sigma f4 [1, 44]
0.11932869 0.12259439 0.19869788 0.23232998 0.05271034 0.27380845 0.16648123 0.25224406
0.08100177 0.04792498 0.26161203 0.15600464 0.24368507 0.052073777 0.31228054 0.24853079
0.07775814 0.22565298 0.12470329 0.15797685 0.265464 0.22444259 0.13208069 0.29564878
0.05426864 0.10486009 0.04068233 0.1663329 0.07585428 0.26425907 0.2740554 0.16428007
0.15691401 0.005748594 0.11505939 0.103052065 0.14151593 0.040332697 0.09381302 0.059893675
0.22316457 0.27047408 0.17434111 0.12431251
00000000: 9a62 f43d c412 fb3d 7577 4b3e e9e7 6d3e
00000010: cce6 573d 9f30 8c3e 0e7a 2a3e 2226 813e
00000020: 42e4 a53d fc4c 443d 03f2 853e aebf 1f3e
00000030: 9488 793e 504b 553d 3ce3 9f3e db7e 7e3e
00000040: a93f 9f3d 9311 673e 7064 ff3d afc4 213e
00000050: e6ea 873e 47d4 653e 2940 073e 475f 973e
00000060: cb48 5e3d e3c0 d63d 84a2 263d 2c53 2a3e
00000070: 7d59 9b3d f74c 873e fd50 8c3e 0939 283e
00000080: 11ae 203e b45e bc3b 42a4 eb3d f60c d33d
00000090: 8de9 103e e633 253d 0a21 c03d 1253 753d
000000a0: 4185 643e 947b 8a3e 7a86 323e 8f97 fe3d

action_model._continuous_distribution.mu.weight f4 [44, 64]
-0.035584 -0.047696203 -0.061020527 -0.047488816 -0.032579727 0.028071074 0.059375186 0.021060023
0.0054855975 -0.006670072 -0.04497682 -0.053866424 -0.036788713 0.056876812 -0.011186906 -0.028220499
-0.03898926 0.22339933 0.07687889 -0.03482188 0.018523993 -0.035663452 0.04925894 0.12724294
0.026925223 -0.04631355 0.037343815 0.048679877 0.026053054 0.0287133 0.09185814 -0.11936476
-0.0054872907 -0.1263863 0.034892723 0.03263935 -0.018805668 0.11775393 0.023195365 0.042117864
-0.15293188 -0.1496111 0.058641545 0.025910724 0.05415962 0.022299532 -0.04792825 0.039772347
-0.025149286 0.031124566 0.119586185 -0.05146182 -0.046835966 -0.0080333315 0.10622897 -0.0967069
0.070077874 -0.04265472 -0.015791468 -0.0955139 0.021690471 0.07858252 -0.0072244364 -0.13418607
-0.11947769 0.062106073 -0.043798707 0.06521528 -0.051949974 0.034614358 0.16840433 0.13328451
0.07560579 0.018265905 -0.066076964 0.018685794 0.03488842 0.10029717 0.0085125305 -0.05858039
0.095672354 0.05569234 -0.011944018 -0.11359976 0.07424525 -0.03622707 -0.021686444 -0.06682051
0.0459206 0.0032112247 -0.0021439428 -0.05183746 -0.046112917 -0.018930163 -0.008327556 0.01716903
-0.07630827 0.04552555 0.087910615 0.07640775 0.086068206 0.078997254 0.12838688 -0.035262868
-0.06483741 0.068973705 0.048585784 0.00069795764 0.077313066 -0.03099102 0.032822058 0.017674197
-0.054189898 -0.10141219 0.04797781 -0.09065686 0.01877062 -0.06881191 0.07977703 -0.03920418
-0.07586845 -0.046468183 0.10847242 -0.015162486 0.09213203 0.013691379 0.057382155 -0.15397167
-0.052937657 -0.05858461 -0.07676864 0.0019445034 0.014149678 -0.05471193 0.06209506 0.050620176
-0.02475037 -0.07680814 0.04320233 0.06744657 -0.07120925 0.05502198 0.024249999 0.00022773992
0.02699947 0.11062854 0.030155947 0.073169746 -0.007410283 0.026699731 -0.031282704 0.0010860038
-0.09263352 -0.02025396 0.116005085 0.010755132 -0.018191518 -0.032036085 0.08452921 0.031038018
-0.06082831 0.08598832 0.061465207 0.14333206 -0.06166247 -0.08906828 0.041080166 0.07526824
-0.09226567 -0.032256085 0.036691535 0.08787025 -0.017425999 -0.01063273 0.00828567 0.06345772
0.0017940822 -0.005895264 0.06710054 -0.029372303 0.008361149 -0.043180846 -0.021715106 0.0583713
0.08789904 -0.13601358 0.0098788235 -0.0028271815 0.012541826 0.09383524 0.0325837 -0.087369
-0.00047280718 -0.032394443 -0.017718714 -0.05653397 -0.07238621 0.019710753 0.060435604 0.14314619
0.13565272 -0.047333274 -0.010325709 -0.04149833 -0.019356305 0.025923394 -0.024094224 0.009063837
-0.13815594 0.06658381 0.0058551542 -0.0033740539 -0.05504789 -0.119346894 0.027771626 -0.06090939
0.10993882 -0.08282685 -0.0083511425 0.056570157 0.06950063 0.0015161776 0.015002822 -0.12061785
-0.025514822 -0.13158987 0.085451365 -0.057981946 -0.005115623 0.021854065 -0.044933468 -0.07540215
0.046214674 -0.039835136 0.027130447 -0.15945491 -0.044474352 0.16412246 0.04110049 -0.04922674
0.032148656 0.11876721 0.0132494625 -0.090189 -0.008165963 -0.047654767 0.1199773 0.017852345
-0.036293905 -0.110111006 -0.08989034 -0.06855957 0.09230333 -0.021591825 0.033061467 -0.045773394
00000000: 87c0 11bd 185d 43bd a9f0 79bd a283 42bd
00000010: 5272 05bd 4ff5 e53c 6533 733d 1286 ac3c
00000020: 87c0 b33b 9f90 dabb 9d39 38bd 0aa3 5cbd
00000030: c3af 16bd a9f7 683d 4949 37bc ad2e e7bc
00000040: 34b3 1fbd cbc2 643e ae72 9d3d 63a1 0ebd
00000050: a1bf 973c d713 12bd bec3 493d f94b 023e
00000060: 4992 dc3c 47b3 3dbd d4f5 183d 8d64 473d
00000070: 376d d53c 2838 eb3c 1f20 bc3d 8375 f4bd
00000080: bbce b3bb 696b 01be aceb 0e3d d7b0 053d
00000090: 580e 9abc f928 f13d 3504 be3c c883 2c3d
000000a0: 2d9a 1cbe a733 19be 1e32 703d ba42 d43c
000000b0: 7ad6 5d3d 82ad b63c 6a50 44bd 54e8 223d
000000c0: e005 cebc f2f8 fe3c 9ae9 f43d a1c9 52bd
000000d0: 12d7 3fbd 3c9e 03bc 938e d93d 440e c6bd
000000e0: fd84 8f3d b7b6 2ebd 1c5d 81bc cb9c c3bd
000000f0: 37b0 b13c dfef a03d f7ba ecbb 1368 09be
00000100: b8b0 f4bd f062 7e3d 4666 33bd 978f 853d
00000110: 7fc9 54bd c9c7 0d3d 2f72 2c3e bc7b 083e
00000120: 35d7 9a3d 61a2 953c 5c53 87bd f312 993c
00000130: 29e7 0e3d 9a68 cd3d 2478 0b3c fef1 6fbd
00000140: deef c33d a71d 643d d8b0 43bc fea6 e8bd
00000150: e50d 983d d662 14bd c5a7 b1bc 31d9 88bd
00000160: 3d17 3c3d 6973 523b 6481 0cbb 8453 54bd
00000170: e6e0 3cbd 6e13 9bbc 4d70 08bc 11a6 8c3c
00000180: 8347 9cbd 0079 3a3d 7b0a b43d ab7b 9c3d
00000190: 8744 b03d 50c9 a13d da77 033e cc6f 10bd
000001a0: 7ac9 84bd 1642 8d3d e301 473d 25f7 363a
000001b0: 5056 9e3d e1e0 fdbc 6c70 063d 7ac9 903c
000001c0: 3af6 5dbd 32b1 cfbd 6184 443d 4eaa b9bd
000001d0: d8c4 993c 42ed 8cbd 2462 a33d 9094 20bd
000001e0: eb60 9bbd 6c55 3ebd ca26 de3d 136c 78bc
000001f0: b8af bc3d ce51 603c 8d09 6b3d c0aa 1dbe
00000200: 28d5 58bd 6af6 6fbd e038 9dbd b5de fe3a
00000210: 0dd4 673c 9e19 60bd 6457 7e3d 1a57 4f3d
00000220: 4ac1 cabc 964d 9dbd edf4 303d 6d21 8a3d
00000230: 28d6 91bd ba5e 613d efa7 c63c 78cd 6e39
00000240: fe2d dd3c 3791 e23d 9b09 f73c 05da 953d
00000250: f6d1 f2bb 65b9 da3c 4b22 00bd 3e58 8e3a
00000260: a5b6 bdbd a2eb a5bc 1394 ed3d 4b36 303c
00000270: 6106 95bc 4538 03bd a71d ad3d 7143 fe3c
00000280: 1b27 79bd a51a b03d f1c2 7b3d a4c5 123e
00000290: c991 7cbd 6e69 b6bd ad43 283d 3c26 9a3d
000002a0: c9f5 bcbd f51e 04bd dd49 163d 51f5 b33d
000002b0: f8c0 8ebc e734 2ebc 9ec0 073c 1ff6 813d
000002c0: 6927 eb3a 0f2d c1bb 026c 893d 2f9e f0bc
000002d0: 33fd 083c 66de 30bd e1e3 b1bc bf16 6f3d
000002e0: 6904 b43d 2547 0bbe cada 213c 3c48 39bb
000002f0: 3b7c 4d3c b12c c03d 7c76 053d 85ee b2bd
00000300: 1be3 f7b9 09b0 04bd d626 91bc 2a90 67bd
00000310: 393f 94bd 7278 a13c 538b 773d ea94 123e
00000320: 8ce8 0a3e 89e0 41bd 2a2d 29bc 27fa 29bd
00000330: 1d91 9ebc 4c5d d43c 4061 c5bc 7d80 143c
00000340: c078 0dbe 185d 883d 98dc bf3b 3b1f 5dbb
00000350: e579 61bd 256c f4bd 5281 e33c 207c 79bd
00000360: 9b27 e13d 20a1 a9bd 3bd3 08bc 1cb6 673d
00000370: 5956 8e3d 7aba c63a 65ce 753c 7e06 f7bd
00000380: 7604 d1bc 7fbf 06be 2001 af3d 7a7e 6dbd
00000390: f5a0 a7bb 4c07 b33c 280c 38bd 716c 9abd
000003a0: 994b 3d3d 2b2a 23bd ac40 de3c 2648 23be
000003b0: bd2a 36bd b80f 283e fd58 283d faa1 49bd
000003c0: 4fae 033d 393c f33d 4614 593c 03b5 b8bd
000003d0: 88ca 05bc a531 43bd a9b6 f53d 153f 923c
000003e0: eba8 14bd e181 e1bd 6d18 b8bd f668 8cbd
000003f0: 8709 bd3d 57e1 b0bc 766b 073d e27c 3bbd

action_model._continuous_distribution.mu.bias f4 [44]
0.03287186 -0.0294022 -0.037648216 -0.019308267 0.05400384 0.02470327 0.0006327609 0.068495035
0.051282816 -0.010715488 0.059806224 -0.019629225 0.0149364015 0.048269328 -0.024692403 -0.015914816
-0.0118763605 0.013091461 -0.08084862 0.0015258366 -0.040829048 -0.014752944 -0.071982026 -0.087961696
-0.02749593 -0.095469154 -0.14264105 -0.060608037 -0.0484043 0.084481604 0.004496495 -0.07130736
-0.069584206 -0.0032277834 -0.054338884 0.014095976 0.0036122221 0.004608011 0.01466794 0.0059691337
-0.06256814 -0.0032084503 -0.12980878 0.048981298
00000000: a5a4 063d e2dc f0bc 0435 1abd 5f2c 9ebc
00000010: 2133 5d3d 835e ca3c dddf 253a 2047 8c3d
00000020: ee0d 523d 0490 2fbc 5ff7 743d 78cd a0bc
00000030: cfb7 743c 0fb6 453d b947 cabc ca5f 82bc
00000040: 1195 42bc 917d 563c f693 a5bd 95fe c73a
00000050: 5c3c 27bd 55b6 71bc 506b 93bd 4325 b4bd
00000060: 253f e1bc 5585 c3bd 7f10 12be 2240 78bd
00000070: 9643 46bd b104 ad3d 5557 933b 9809 92bd
00000080: 2a82 8ebd 3889 53bb 7392 5ebd cff2 663c
00000090: 08bb 6c3b ccfe 963b cd51 703c b998 c33b
000000a0: ba23 80bd dd44 52bb 98ec 04be 9da0 483d

exp_avg f4 [64, 94]
-2.5374954e-06 5.3903595e-06 -5.466354e-06 2.5694703e-06 -2.2709442e-06 -4.923853e-06 2.102057e-06 5.438754e-06
-3.85651e-06 -4.3001596e-06 -4.2261604e-06 -5.62836e-07 -2.4152184e-06 -3.6872968e-06 1.3803036e-06 -5.5688116e-07
3.5922977e-07 -2.2576753e-06 -8.97995e-07 -1.4432696e-06 -3.593072e-06 -2.798884e-06 8.1289606e-08 -3.4113544e-08
-5.054411e-07 -1.4852947e-06 -4.7688e-07 -1.8140404e-06 -2.07204e-06 -2.2987543e-07 6.307084e-07 6.760342e-06
-1.4394382e-06 2.4249196e-06 1.5421515e-06 2.7924066e-06 -2.2444547e-06 3.4735904e-06 -5.4905183e-07 8.7716967e-07
4.7393337e-06 -3.095252e-07 1.653296e-06 -7.439808e-07 3.699393e-06 -5.2715745e-06 4.587141e-06 2.223664e-06
-6.4718834e-06 1.0077e-06 -5.817733e-06 -9.330358e-06 -8.655988e-06 -1.0330619e-05 -6.640815e-06 -3.8673397e-06
-5.8947353e-06 -2.0031493e-06 -5.00731e-06 -3.5452658e-06 -4.1663775e-06 4.161091e-07 -1.4263761e-06 -1.2958834e-06
2.4629026e-07 -1.2565571e-06 -1.202221e-06 -9.692897e-07 -4.0977465e-08 -1.4348083e-06 2.5297692e-07 -1.2632439e-06
-9.223357e-07 -1.061587e-06 5.131995e-08 -5.3713114e-07 -2.4141508e-07 -7.6885203e-07 -8.187145e-07 -9.023787e-07
-1.07888475e-07 -2.7821542e-07 -1.1092051e-06 9.893826e-08 -6.954592e-07 -1.5549741e-06 5.447073e-07 -4.9239895e-07
-5.794917e-07 -4.3077557e-07 -5.7866293e-07 -5.794917e-07 -4.3077557e-07 -5.78663e-07 7.36755e-05 0.00018777678
6.1865317e-06 0.00019318676 6.4790285e-05 0.00014032579 0.0002442017 0.00013269267 -6.274283e-05 0.00015143462
0.00012380799 4.9370123e-05 0.00013117997 0.00012581164 -4.791342e-05 2.2890548e-05 6.590227e-05 0.00022539389
2.4749374e-05 0.00010635154 9.60121e-05 -3.0032303e-05 4.7166293e-05 9.582385e-05 3.463734e-05 7.4771895e-05
-2.5615177e-06 4.3294902e-05 3.361374e-08 -1.4346947e-05 0.00011644616 8.8497116e-05 6.7504916e-05 -1.2389331e-05
3.4917655e-06 6.907992e-05 3.777997e-05 0.000100318306 9.5810195e-05 0.0001329325 8.2447346e-05 1.1491974e-05
2.2827522e-05 4.249586e-05 -0.00063092733 0.0005460687 -0.00031415207 -0.0005431818 0.00050710293 -0.00013030486
0.00019831536 0.00045919578 0.0004820692 0.0004633869 0.0006118884 0.00040485524 0.000644404 0.00040675112
0.00043802778 0.0003282556 0.00034258654 2.146416e-05 5.6812474e-05 6.3777166e-05 4.565324e-06 7.371131e-05
6.695406e-05 3.3634617e-05 4.464201e-05 6.435928e-05 -1.5619251e-05 9.3895884e-05 8.498446e-05 4.9213315e-05
2.9063314e-05 5.6229946e-05 -4.3816424e-05 0.00012209306 8.95006e-05 3.3249784e-05 4.502685e-05 5.6493198e-05
5.675682e-05 2.1519814e-05 6.08372e-05 8.944552e-05 -1.1168884e-05 4.559104e-05 5.046934e-05 2.78073e-05
4.7581474e-05 5.046934e-05 2.78073e-05 4.7581474e-05 1.2313747e-07 -1.6100503e-06 -1.5561423e-06 -3.0814836e-06
-1.5758089e-07 -1.3030175e-06 -3.2984165e-06 -3.5436365e-06 -2.0109545e-07 -1.2478137e-06 -4.3265834e-07 -4.461398e-07
-2.5373613e-06 1.156331e-07 6.967252e-07 2.300934e-06 5.63576e-06 2.782035e-07 3.208692e-07 4.4216162e-07
9.995343e-07 2.3234265e-06 -7.552234e-09 1.2893135e-07 3.812888e-07 2.72638e-06 3.9476945e-06 1.04210415e-07
3.2249625e-09 -2.9150828e-08 2.8250035e-06 3.0836634e-06 -4.0920017e-07 2.3588047e-06 2.9737362e-06 2.0582177e-06
-2.2560613e-07 2.8199745e-06 6.598574e-07 1.3798232e-06 2.9592247e-06 4.597373e-06 1.604071e-07 3.8994474e-07
-3.5512717e-06 8.470094e-06 -8.055662e-06 -3.2783341e-06 5.871779e-06 -1.14000895e-05 9.274306e-06 6.669647e-06
6.3452694e-06 5.426751e-06 6.1717606e-06 5.4638695e-06 6.3031516e-06 5.323248e-06 4.5986894e-06 3.5645e-06
4.3490827e-06 -3.2420154e-08 9.3953196e-07 9.2633957e-07 5.760849e-08 8.4950346e-07 8.8128695e-07 -3.1535558e-07
00000000: d749 2ab6 d6de b436 a06b b7b6 2a6f 2c36
00000010: 8666 18b6 9337 a5b6 1011 0d36 8b7e b636
00000020: 2b67 81b6 174a 90b6 71ce 8db6 cc15 17b5
00000030: 2315 22b6 4773 77b6 df42 b935 957c 15b5
00000040: 2adc c034 9182 17b6 bf0d 71b5 5eb6 c1b5
00000050: 8220 71b6 76d4 3bb6 6f91 ae33 3d84 12b3
00000060: a6ad 07b5 565a c7b5 f202 00b5 f479 f3b5
00000070: 600d 0bb6 add3 76b4 f44d 2935 e5d6 e236
00000080: b832 c1b5 cdbb 2236 ecfb ce35 2e65 3b36
00000090: 709f 16b6 d41b 6936 8e62 13b5 a476 6b35
000000a0: 9106 9f36 d22c a6b4 d1e6 dd35 f9b5 47b5
000000b0: 1643 7836 7be2 b0b6 3eeb 9936 423a 1536
000000c0: 0e29 d9b6 4f40 8735 f235 c3b6 9589 1cb7
000000d0: 2f39 11b7 ac51 2db7 2bd4 deb6 32c4 81b6
000000e0: 64cb c5b6 d86d 06b6 7704 a8b6 34eb 6db6
000000f0: e9cc 8bb6 9965 df34 e971 bfb5 37ee adb5
00000100: e039 8434 f9a6 a8b5 005c a1b5 8a18 82b5
00000110: 33ff 2fb3 a393 c0b5 e2d0 8734 bb8c a9b5
00000120: 6d96 77b5 da7b 8eb5 e26a 5c33 5f2f 10b5
00000130: d69b 81b4 1c63 4eb5 a2c5 5bb5 fe3a 72b5
00000140: 51b0 e7b3 a35d 95b4 ffdf 94b5 e277 d433
00000150: 98af 3ab5 81b4 d0b5 0038 1235 662d 04b5
00000160: 5e8e 1bb5 5845 e7b4 6a55 1bb5 5e8e 1bb5
00000170: 5845 e7b4 6b55 1bb5 3c82 9a38 f2e5 4439
00000180: e795 cf36 2d92 4a39 05e0 8738 6b24 1339
00000190: 3308 8039 6b23 0b39 cd94 83b8 6cca 1e39
000001a0: 74d2 0139 c412 4f38 5b8d 0939 4eec 0339
000001b0: a5f6 48b8 1405 c037 0335 8a38 b657 6c39
000001c0: e09c cf37 0c09 df38 1b5a c938 e1ed fbb7
000001d0: 6cd4 4538 0af5 c838 9047 1138 dbce 9c38
000001e0: 8ae6 2bb6 8c97 3538 b35e 1033 abb3 70b7
000001f0: 8e34 f438 8797 b938 6d91 8d38 c5db 4fb7
00000200: 1354 6a36 00df 9038 ef75 1e38 fb61 d238
00000210: b5ed c838 cc63 0b39 95e7 ac38 a7cd 4037
00000220: bb7d bf37 953d 3238 d164 25ba 0d26 0f3a
00000230: c7b4 a4b9 5064 0eba 1aef 043a 72a2 08b9
00000240: e0f2 4f39 37c0 f039 3cbe fc39 bdf2 f239
00000250: 2367 203a c042 d439 38ed 283a 3641 d539
00000260: 18a7 e539 b919 ac39 309d b339 ef0d b437
00000270: ee49 6e38 1bc0 8538 d62f 9936 7595 9a38
00000280: b069 8c38 e512 0d38 fe3d 3b38 a0f8 8638
00000290: 1606 83b7 f8e9 c438 af39 b238 656a 4e38
000002a0: fecc f337 72d8 6b38 87c7 37b8 1b06 0039
000002b0: 45b2 bb38 af75 0b38 36db 3c38 1cf3 6c38
000002c0: 2c0e 6e38 7385 b437 722b 7f38 b394 bb38
000002d0: fe61 3bb7 0239 3f38 0baf 5338 b943 e937
000002e0: 3892 4738 0baf 5338 b943 e937 3892 4738
000002f0: c537 0434 e818 d8b5 a4dc d0b5 7ccb 4eb6
00000300: 8133 29b4 57e3 aeb5 5d5a 5db6 36cf 6db6
00000310: b2ec 57b4 8d7a a7b5 1c48 e8b4 fd84 efb4
00000320: 8947 2ab6 f851 f833 9706 3b35 bf69 1a36
00000330: cf1a bd36 ff5b 9534 ed43 ac34 3b62 ed34
00000340: bd27 8635 2aec 1b36 14bf 01b2 6170 0a34
00000350: efb3 cc34 daf6 3636 7076 8436 48ca df33
00000360: 249e 5d31 5967 fab2 3195 3d36 eff0 4e36
00000370: 0bb0 dbb4 f54b 1e36 6690 4736 e91f 0a36
00000380: 243e 72b4 cb3e 3d36 0e21 3135 5d32 b935
00000390: 1897 4636 2243 9a36 5e3c 2c34 9959 d134
000003a0: 6252 6eb6 c71a 0e37 ce26 07b7 5a01 5cb6
000003b0: 3306 c536 0343 3fb7 d798 1b37 d5cb df36
000003c0: 73e9 d436 7017 b636 0517 cf36 4856 b736
000003d0: a97f d336 5a9e b236 714e 9a36 a535 6f36
000003e0: 56ee 9136 563e 0bb3 2534 7c35 92a9 7835
000003f0: 346d 7733 6f09 6435 9491 6c35 244e a9b4

exp_avg_sq f4 [64, 94]
2.961708e-10 1.979014e-10 1.1628769e-10 2.1709297e-10 3.246325e-10 3.0895675e-10 3.7366904e-10 2.8177638e-10
3.5603404e-10 1.4770272e-09 1.7618133e-09 1.3720983e-09 2.324971e-09 2.5781945e-09 1.3009078e-09 3.5295742e-09
5.7233884e-09 5.528697e-09 5.6466813e-09 8.099232e-09 1.0038789e-08 6.148906e-09 1.634687e-10 1.239738e-09
4.580754e-09 2.5733358e-09 2.873967e-09 6.3499592e-09 2.265838e-09 1.2020447e-09 7.180485e-10 8.4506846e-10
1.1134259e-09 8.117387e-10 2.2534397e-09 4.6580223e-10 6.6181294e-10 8.5480834e-10 1.2615972e-09 3.3608816e-10
2.6667918e-10 4.71673e-10 6.198053e-10 2.358647e-09 7.879986e-08 4.8832717e-08 4.323227e-08 5.5657676e-08
2.5201615e-08 3.1159278e-08 6.484321e-09 1.7035857e-08 1.9744268e-08 4.4777715e-09 3.0866456e-08 2.9765324e-09
3.0433565e-08 3.0645682e-09 2.601357e-08 5.4212896e-09 2.2729367e-08 3.5884373e-10 2.5539612e-10 3.2862293e-10
3.4289246e-10 2.7309058e-10 3.8086947e-10 5.7351807e-10 3.426844e-11 8.637653e-11 3.1262933e-11 5.7365984e-10
5.9541855e-10 5.9985295e-10 1.7423023e-11 5.7417657e-11 4.5474752e-11 5.698503e-10 5.870687e-10 5.963356e-10
1.9453286e-11 5.911605e-11 1.5875028e-10 4.6203297e-10 5.018046e-10 5.6267e-10 5.3430805e-11 1.0457735e-10
2.395142e-10 3.8010617e-10 4.384517e-10 2.395142e-10 3.8010617e-10 4.3845164e-10 1.8960363e-07 1.9881264e-07
1.9747078e-07 1.7432869e-07 1.8231904e-07 2.548486e-07 2.9276694e-07 2.3808413e-07 2.4210354e-07 2.2097656e-07
1.6531529e-07 1.9264992e-07 2.617215e-07 2.696082e-07 1.4584526e-07 2.1996807e-07 1.9574412e-07 1.0279795e-07
1.0957058e-07 1.5963802e-07 2.1529699e-07 1.4623309e-07 1.5400865e-07 1.8017428e-07 1.8847535e-07 8.204136e-08
6.906656e-08 1.18790105e-07 1.343814e-07 1.10654824e-07 1.2435348e-07 1.1986091e-07 1.2344825e-07 1.3645918e-07
1.5779564e-07 1.5424148e-07 1.7434309e-07 2.1429624e-07 2.4236707e-07 2.359146e-07 1.758409e-07 1.0547969e-07
1.5870076e-07 1.437098e-07 3.1204247e-06 4.652056e-06 3.769969e-06 3.3508686e-06 3.904438e-06 2.9586615e-06
3.1195912e-06 3.7990533e-06 3.8431385e-06 3.836134e-06 4.0490213e-06 4.0803493e-06 4.2240367e-06 4.324667e-06
4.2850406e-06 4.310744e-06 4.3662826e-06 2.7803173e-08 5.969382e-08 7.32843e-08 2.7282882e-08 6.064305e-08
7.413453e-08 2.6798377e-08 6.3653474e-08 7.399939e-08 2.5116924e-08 6.4596556e-08 7.810599e-08 2.2816861e-08
6.8116854e-08 7.871049e-08 2.0188041e-08 6.941386e-08 8.1482334e-08 1.6433093e-08 7.507506e-08 8.3423195e-08
1.7410985e-08 7.3757434e-08 8.2658765e-08 1.613869e-08 7.5037704e-08 8.31547e-08 1.5188546e-08 7.556771e-08
8.4226095e-08 1.5188546e-08 7.556771e-08 8.422609e-08 1.239277e-09 1.5026563e-09 3.1512112e-11 8.2356844e-11
2.6396807e-09 2.101045e-09 1.6101112e-09 2.2486064e-09 2.6984935e-11 9.476282e-11 1.4921611e-09 1.324473e-09
1.8358681e-09 1.0417145e-09 8.592249e-12 3.845761e-11 1.9383595e-10 1.3073448e-09 8.407019e-10 5.423055e-10
8.513805e-10 3.759693e-10 6.659754e-12 2.2227394e-11 1.7046685e-10 3.339432e-10 3.327509e-10 1.3860872e-10
1.4061136e-10 1.7214005e-10 2.1214535e-11 1.2853713e-10 4.1403364e-10 2.374835e-10 1.4866361e-10 9.1812294e-11
1.6996946e-11 1.9153028e-10 8.445569e-10 3.2061356e-10 3.1041392e-10 1.6352733e-10 1.2123015e-10 4.2016549e-10
1.3792675e-08 1.6410132e-08 3.7041577e-08 1.0840396e-08 1.1884557e-08 1.9818382e-08 4.6026045e-09 1.476714e-08
1.4422124e-08 1.3458786e-08 1.28236435e-08 1.1410077e-08 6.141812e-09 2.4928744e-09 1.3747422e-09 9.412287e-10
1.0324773e-09 2.1004715e-12 2.838984e-10 2.8486005e-10 1.4257287e-11 2.7511457e-10 2.7820432e-10 4.0505793e-11
00000000: 56d2 a22f 4b98 592f 26b8 ff2e 3db2 6e2f
00000010: f677 b22f ccd9 a92f 3e6d cd2f 80e8 9a2f
00000020: 56bb c32f 4600 cb30 4b24 f230 6b94 bc30
00000030: 53c5 1f31 142c 3131 a0cb b230 ed8c 7231
00000040: 75a7 c431 eff6 bd31 bc04 c231 cd24 0b32
00000050: 1077 2c32 5946 d331 59bc 332f 6763 aa30
00000060: bd64 9d31 9ad6 3031 5d7f 4531 d52e da31
00000070: 0bb5 1b31 3035 a530 2c60 4530 684a 6830
00000080: 3107 9930 0821 5f30 eeda 1a31 eb09 0030
00000090: f2ea 3530 caf7 6a30 8164 ad30 34c4 b82f
000000a0: c29b 922f 09a7 0130 ec5e 2a30 c215 2231
000000b0: ae38 a933 24bc 5133 62ae 3933 430c 6f33
000000c0: f07a d832 fdd3 0533 b1cc de31 3f56 9232
000000d0: 1b9a a932 e5da 9931 0792 0433 b68b 4c31
000000e0: 0fb6 0233 7498 5231 7274 df32 2b46 ba31
000000f0: 683e c332 c446 c52f cf67 8c2f 91a9 b42f
00000100: d381 bc2f 1522 962f 9d62 d12f bfa5 1d30
00000110: d5b6 162e aaf1 bd2e ef7e 092e b9af 1d30
00000120: dbaa 2330 e6e2 2430 2941 992d 8986 7c2e
00000130: 0500 482e a6a3 1c30 4a5f 2130 63eb 2330
00000140: e81c ab2d 61ff 812e 3b8c 2e2f 5c01 fe2f
00000150: 5cef 0930 62aa 1a30 bdfd 6a2e d0f7 e52e
00000160: a0ac 832f 30f7 d02f 970a f12f a0ac 832f
00000170: 30f7 d02f 950a f12f d995 4b34 3479 5534
00000180: 5b08 5434 1b2f 3b34 7ac3 4334 20d2 8834
00000190: 952d 9d34 11a4 7f34 75fa 8134 9345 6d34
000001a0: 8581 3134 35db 4e34 bb82 8c34 abbe 9034
000001b0: a499 1c34 5d30 6c34 bc2d 5234 c5c1 dc33
000001c0: 104d eb33 f768 2b34 632c 6734 3f04 1d34
000001d0: 935d 2534 ee75 4134 b65f 4a34 b72e b033
000001e0: be51 9433 8d19 ff33 7a4a 1034 22a1 ed33
000001f0: 0686 0534 1eb3 0034 328d 0434 9d85 1234
00000200: 896e 2934 939d 2534 1033 3b34 4d19 6634
00000210: ad1e 8234 b64f 7d34 c7ce 3c34 1384 e233
00000220: 5567 2a34 a64e 1a34 7d68 5136 db18 9c36
00000230: 93ff 7c36 7cdf 6036 de02 8336 6b8d 4636
00000240: 2b5a 5136 3df3 7e36 4ff4 8036 24b8 8036
00000250: d4dc 8736 efe9 8836 33bc 8d36 9b1c 9136
00000260: 38c8 8f36 02a5 9036 1582 9236 d3d3 ee32
00000270: 0631 8033 7860 9d33 b15b ea32 df3a 8233
00000280: e433 9f33 4132 e632 deb1 8833 98e9 9e33
00000290: b3c0 d732 55b8 8a33 39bb a733 cffe c332
000002a0: a347 9233 8d07 a933 f969 ad32 ac10 9533
000002b0: 63fb ae33 c128 8d32 f338 a133 6326 b333
000002c0: 298f 9532 9464 9e33 2382 b133 5ba1 8a32
000002d0: 6a24 a133 c892 b233 f777 8232 ca47 a233
000002e0: c9df b433 f777 8232 ca47 a233 c8df b433
000002f0: 2f53 aa30 0586 ce30 7c97 0a2e c81a b52e
00000300: c165 3531 f961 1031 c04a dd30 e785 1a31
00000310: ac5c ed2d ba62 d02e c014 cd30 c008 b630
00000320: de51 fc30 122c 8f30 0d28 172d 6b23 292e
00000330: f81f 552f 1bae b330 2317 6730 5b11 1530
00000340: 9406 6a30 fab0 ce2f bb51 ea2c a483 c32d
00000350: 276e 3b2f 5496 b72f 87ee b62f e366 182f
00000360: 949a 1a2f 1e45 3d2f e39a ba2d fc53 0d2f
00000370: 0e9e e32f d58e 822f 1675 232f bae5 c92e
00000380: b881 952d fb96 522f 6926 6830 5942 b02f
00000390: e0a6 aa2f dacc 332f 414b 052f 09fd e62f
000003a0: d3f4 6c32 43f6 8c32 a517 1f33 913c 3a32
000003b0: d62c 4c32 153d aa32 f024 9e31 92b2 7d32
000003c0: 2cc5 7732 5e38 6732 fb4e 5c32 0d06 4432
000003d0: f307 d331 1c4f 2b31 71f1 bc30 8a5c 8130
000003e0: 11e7 8d30 bbce 132c 2613 9c2f 7d9a 9c2f
000003f0: 1dd1 7a2d ef3e 972f c7f1 982f 7825 322e

exp_avg f4 [64]
-1.0102669e-06 7.8276644e-05 9.0711177e-07 6.6608727e-06 -4.7718273e-05 1.0588779e-05 -2.2821863e-05 5.203957e-05
-1.266289e-05 -1.8479526e-05 2.5984576e-05 -3.4659854e-06 -9.847148e-05 -0.00012269623 3.0984866e-05 3.5940528e-07
-1.634338e-05 -2.4993435e-06 -3.367655e-05 2.7537364e-05 -6.415239e-07 -1.1733783e-05 0.00010708738 1.5597803e-05
1.9109488e-05 -6.5338754e-05 -3.783854e-05 5.798365e-06 -2.1282727e-07 -2.6400314e-06 1.9141216e-05 6.0776383e-05
4.3448026e-06 -0.000121178826 -0.000101121026 -3.4861536e-05 1.4062793e-05 -0.00012551769 -6.247306e-06 -7.234786e-05
2.928119e-05 -3.4674279e-06 6.642084e-05 6.209433e-05 1.2376773e-05 -1.4693943e-05 3.1152574e-06 -2.9003364e-05
-1.4127244e-06 -7.1362183e-06 -6.662448e-06 -0.0001569263 7.760744e-05 -7.0437964e-06 5.711548e-07 -1.7965007e-05
5.3403123e-06 3.5958856e-05 6.1156845e-07 -2.361276e-05 -3.4478755e-05 2.6492e-06 4.4668126e-05 2.021929e-06
00000000: 8298 87b5 7428 a438 3f80 7335 7680 df36
00000010: 1b25 48b8 76a6 3137 9471 bfb7 1045 5a38
00000020: b372 54b7 7b04 9bb7 74f9 d937 2d99 68b6
00000030: 7982 ceb8 05a8 00b9 bff5 0138 49f4 c034
00000040: 2419 89b7 65ba 27b6 ec3f 0db8 0a00 e737
00000050: 3035 2cb5 37dc 44b7 1994 e038 07d8 8237
00000060: 504d a037 7a06 89b8 d3b4 1eb8 938f c236
00000070: 8485 64b4 652b 31b6 7391 a037 25ea 7e38
00000080: 92c9 9136 6321 feb8 f010 d4b8 4a38 12b8
00000090: 3cef 6b37 669d 03b9 f39f d1b6 76b9 97b8
000000a0: e0a0 f537 f5b1 68b6 6b4b 8b38 a438 8238
000000b0: d6a5 4f37 0186 76b7 b70f 5136 404c f3b7
000000c0: d79c bdb5 a673 efb6 fe8d dfb6 958c 24b9
000000d0: 2dc1 a238 c059 ecb6 7651 1935 8fb3 96b7
000000e0: ef30 b336 87d2 1638 aa2a 2435 0414 c6b7
000000f0: 489d 10b8 e9c8 3136 095a 3b38 7ab0 0736

exp_avg_sq f4 [64]
6.099103e-10 9.372837e-08 2.8612807e-10 4.0656697e-10 3.6522557e-08 9.698179e-09 2.4231475e-08 1.98402e-08
3.6427984e-08 2.848798e-08 4.223463e-08 4.790154e-09 1.5894331e-07 9.1806555e-08 3.1753927e-08 6.349496e-12
1.25151995e-08 5.023454e-09 2.2637185e-08 8.119234e-09 4.217726e-10 8.371192e-08 5.984683e-08 3.1456025e-08
4.5822855e-08 3.7037253e-08 3.899852e-08 5.9742034e-09 6.288516e-11 6.647243e-09 1.0127e-08 2.4624525e-08
6.1846954e-08 1.8949305e-07 8.072742e-08 6.470832e-08 6.1313576e-09 1.3682151e-07 4.1243005e-09 5.3363635e-08
3.0470165e-08 5.5345017e-09 1.3979084e-07 8.631713e-08 6.3748855e-09 6.6641896e-08 2.2203071e-10 2.0422597e-08
4.187093e-11 4.682449e-09 2.9677734e-08 6.5784505e-08 7.63939e-08 4.597793e-09 3.212722e-11 5.419097e-08
5.9198415e-09 6.8258906e-08 4.7516536e-11 2.3026951e-08 1.2891842e-08 3.0905003e-08 4.331153e-08 1.3233076e-08
00000000: 9fa6 2730 b747 c933 f24c 9d2f 3783 df2f
00000010: fadc 1c33 0b9d 2632 9425 d032 106d aa32
00000020: fe74 1c33 bbb5 f432 7765 3533 a496 a431
00000030: 01aa 2a34 3027 c533 d061 0833 2d67 df2c
00000040: 6e02 5732 c59a ac31 b273 c232 c57c 0b32
00000050: 37df e72f 1dc5 b333 2585 8033 441a 0733
00000060: c3ce 4433 e412 1f33 547f 2733 a645 cd31
00000070: 3349 8a2e c565 e431 04fb 2d32 e785 d332
00000080: b9d0 8433 7477 4b34 5e5c ad33 c6f5 8a33
00000090: feab d231 36e9 1234 bbb5 8d31 f031 6533
000000a0: 4dde 0233 fe29 be31 6a19 1634 585d b933
000000b0: 160a db31 c51c 8f33 1720 742f c46d af32
000000c0: 7a26 382e 42e3 a031 07ee fe32 6a45 8d33
000000d0: fe0d a433 9dfa 9d31 094c 0d2e 9abf 6833
000000e0: 7a67 cb31 bb95 9233 ddfa 502e cdcc c532
000000f0: ec7a 5d32 69bc 0433 8805 3a33 af57 6332
