results/checkpoints/b075/Dynamic Table/Dynamic Table-4499945.onnx (onnx, 74838 bytes, 9 tensors)

network_body._body_endoder.seq_layers.0.weight f4 [64, 95]
00000000: 0c3a 40bd d010 53bd e5ca d13d 8428 963c
00000010: 71e9 e2bc 006d 58be a49c 87bd 4ac4 5ebe
00000020: d0a8 3e3e fbea 033d 1854 523e 6a09 c4bd
00000030: e1b2 5ebd f1a0 1e3d a046 8c3d f99b 3c3d
00000040: e45f 203e ff54 88bd 4d41 4bbd bd51 79be
00000050: 69c0 2dbd 28a1 53be 45f8 7ebe 2689 4f3e
00000060: 4ab0 b8bd dbbe 133d d6ee b33c b737 79bd
00000070: 318f 88bd 079d 79bd 19de 3f3c 5010 1e3d
00000080: f3a9 223d bc94 babc ca56 5e3e 9eb6 0d3e
00000090: f02c 29be 8a08 63bd 88f7 d9bd 3b09 78bd
000000a0: 1f0a 87be e4ec 74bc 16cf 7fbc 439b be3a
000000b0: cee2 383e a65c 1a3e b63a 173e 8386 323e
000000c0: 6665 3e3d 50be f7bd 5731 ea3d d2a3 303c
000000d0: 4f53 c7bd 6f54 98be 1de3 a73d 1fe2 04be
000000e0: fcda 4fbd 18a1 febd 85dc f13d 38c8 f03d
000000f0: d3e9 93bc b1a1 4fbe 1a78 0e3e 3160 17be
00000100: a555 e7bc e17b f13d 1522 9abc e4cb 03be
00000110: 4aa4 27bd 7d1d 4a3e b662 d33d 18a0 933d
00000120: 1bcb 9e3c 3db2 b1bd 85f8 073e dee5 163e
00000130: df71 5c3e 6d63 b33b 6abd 70bd 23b4 b8bd
00000140: cf9e 173d ffb9 bcbd bd0b d53c 21da 9c3d
00000150: 0262 6dbe cbc0 703c 7102 c73d 8e33 b03d
00000160: aee0 ce3d ab31 0a3e e042 04be 753f 38bd
00000170: 7820 14be 3987 02be 9089 da3d 1afe 34be
00000180: 57c1 aebc 4ff1 82bb dd10 ab3c e62f 27be
00000190: d17a 2e3d 356a 453e 856d 8a3e 4152 febd
000001a0: 643d 10bc 21d3 bebd 4f4b 8bbd 22f7 533d
000001b0: e9dd 0abe 559b c6bd a1df 31be 1409 a33d
000001c0: ff90 8f3d 923a babd 685a 5bbd bad5 34be
000001d0: 2c9b f1bd ffe1 9abd 60af 97bd 849b cf3d
000001e0: 4f98 2cbe 02be 833d d3be 75be 5c2d 893e
000001f0: 69d9 af3e a370 86be 0241 85bd f361 dfbd
00000200: 5134 8c3a b2ca a53c e30f 5a3b 2ee1 f6bd
00000210: 751d 3cbe 7243 03bd 5d40 c3bd 1dc6 c1bd
00000220: 0ee8 c2bd bf93 0e3e f6ae ebbc eeda ad3d
00000230: b26d 1abe a066 5d3d 09e3 b83d a68c 98bd
00000240: 28c4 8b3c 5c29 aabc b1c7 59be bfeb 08be
00000250: 216a 60be 8c94 8e3d 0d1d 25be b42b 3a3e
00000260: 8ffb 6abe 13b3 413c b6bb a3be cae1 f1bd
00000270: 6bff ac3d 0ded 66bd 6f20 5fbe 3f79 d1bd
00000280: dd08 cabd df5d 1c3d cfa7 b2be c412 34be
00000290: 45e7 7ebd 9928 00be 99ea dcbc f03e 77bd
000002a0: 9522 e2be 9827 0cbe 9ef5 573d 4878 c63d
000002b0: 9cb0 6b3d 2145 753d 78de fdbd 4790 34be
000002c0: f9ad 403e 0ceb 70bc 19df 52bc e6d9 d2bd
000002d0: 5831 48be 011c c83d 8b67 4abd 7a67 39be
000002e0: da4f 523e eb27 323d 7d38 683e bb08 853d
000002f0: 892a 6cbe 249b b4bd e602 b5bc 520c 1cbe
00000300: 9ce9 cebd 68c3 863d 88f5 bdbd d8bd 3d3e
00000310: 5f99 a5bd ef05 e0bd 2764 0dbe 06f0 683d
00000320: 1af7 32be a191 58be 249a 703d 4880 11be
00000330: 64eb 983d 2476 8e3c 9468 4a3c ba78 76bd
00000340: 0297 88be 0ba4 c63c 080f 52bb 8293 213e
00000350: d7e1 443d abf5 0f3e 6084 063d 6a0b 49bd
00000360: 6275 16be df42 d33c c897 8a3e 15e5 013e
00000370: 196a 42be 4ffc 90bd 40a9 13be 66d8 05be
00000380: 725f 0dbe a2b1 7dbd d9ab 5fbd baef 5fbd
00000390: 92bd 4ebd 1642 243e 7267 843d 384a d7bd
000003a0: a19f c4bc 4067 32be 3269 d9bd 43da 05bc
000003b0: a5bc 6cbd 7b70 e33d 5d31 ad3d 7ffc 2b3e
000003c0: 9df4 d1bd 07b5 dbbc 65a6 cebc 12b8 03be
000003d0: 5db7 a9be 007c e73d 7454 9cbe d607 49be
000003e0: 730f dfbd b0b8 95be 1311 1fbc 0419 3dbe
000003f0: 5297 f63d d6ed 4fbd 0403 923c 6a10 47be
-0.046930358 -0.051529706 0.10243777 0.018329866 -0.027699204 -0.2113533 -0.06621674 -0.21754566
0.18619084 0.032206517 0.20539892 -0.09572108 -0.05436981 0.038727704 0.06849408 0.046047185
0.1566158 -0.06656837 -0.049622823 -0.24347587 -0.042419825 -0.20666945 -0.24899395 0.20267162
-0.090179995 0.036070686 0.021964472 -0.06084415 -0.066679366 -0.06094077 0.011710667 0.038589776
0.039712857 -0.022776 0.21712795 0.13839194 -0.16521049 -0.055428065 -0.10642916 -0.060555678
-0.2637491 -0.014949057 -0.015613338 0.0014542121 0.18055269 0.15074405 0.1476849 0.17434125
0.04648342 -0.12096846 0.11435192 0.010781245 -0.09732687 -0.29751918 0.08197615 -0.12976883
-0.05074595 -0.1243307 0.11809639 0.11756939 -0.018055832 -0.20276524 0.13913003 -0.14782788
-0.02823908 0.11791206 -0.01881508 -0.12870747 -0.040928163 0.19737811 0.10321562 0.0720827
0.019383958 -0.086765744 0.13278396 0.14736125 0.21527813 0.005474499 -0.05877439 -0.09018733
0.037016686 -0.092151634 0.026006574 0.07658792 -0.23181918 0.014694403 0.097172625 0.08603583
0.10101448 0.1349551 -0.12916136 -0.044982392 -0.14465511 -0.12746896 0.10670769 -0.17675057
-0.021332426 -0.0039960514 0.020882064 -0.16326866 0.042597596 0.19278796 0.27036682 -0.124180324
-0.008803699 -0.093176134 -0.06801473 0.051749356 -0.13561215 -0.09697596 -0.17370464 0.07960716
0.07010078 -0.09093203 -0.053553015 -0.17659655 -0.11797175 -0.075626366 -0.07406497 0.10137084
-0.16854976 0.064327255 -0.23998575 0.2679242 0.34345558 -0.2625781 -0.0650654 -0.10907354
0.0010696744 0.020238254 0.003327363 -0.12054668 -0.18370612 -0.032046743 -0.09533761 -0.09461615
-0.09516917 0.13923548 -0.028769951 0.08489023 -0.15080908 0.05405295 0.090276785 -0.074487016
0.017061308 -0.020771675 -0.21267582 -0.1337118 -0.21915485 0.06961927 -0.16124363 0.18180734
-0.22947524 0.01182248 -0.3197915 -0.11810644 0.084471546 -0.056378413 -0.21789716 -0.10228204
-0.09864972 0.03817546 -0.34893653 -0.17585284 -0.062232275 -0.12515487 -0.026967334 -0.060362756
-0.4416701 -0.13686979 0.052724473 0.096909106 0.057541475 0.05988038 -0.12395948 -0.17633162
0.18816365 -0.014704477 -0.012870573 -0.10295467 -0.19550073 0.09770966 -0.049415153 -0.1810588
0.20538273 0.0434951 0.22677799 0.06495806 -0.23063101 -0.08818653 -0.022096109 -0.15239075
-0.10103151 0.065802395 -0.09275347 0.18529451 -0.08085894 -0.10938632 -0.13807736 0.05686953
-0.17477074 -0.21149303 0.05874075 -0.14209092 0.07466772 0.017390318 0.012354035 -0.060173728
-0.2667771 0.024248144 -0.0032052416 0.15778926 0.04806694 0.14058559 0.032841086 -0.04908315
-0.14693215 0.025788723 0.27068925 0.12685044 -0.18985786 -0.07079374 -0.14420033 -0.1307083
-0.13805941 -0.061936982 -0.054607246 -0.05467198 -0.050473757 0.16040835 0.06465043 -0.10512203
-0.024001898 -0.17422199 -0.106157675 -0.008169713 -0.057797093 0.11105438 0.08456681 0.16795538
-0.102517344 -0.026819719 -0.025225827 -0.12863186 -0.33147708 0.11302948 -0.30533183 -0.19631895
-0.108916186 -0.29242468 -0.009708661 -0.18466574 0.12040581 -0.050763927 0.017823704 -0.19439855

network_body._body_endoder.seq_layers.0.bias f4 [64]
00000000: 55fa 4f3d 7009 15bd 92e5 ebbc f098 b3bc
00000010: c165 0cbc 110a 52bd 3715 c73c 4ee4 f8bc
00000020: 129f 643c 90f6 3ebb cf98 b23b 6015 d6bc
00000030: 4114 7fbd 5546 053c 314f 893c 6b32 af3c
00000040: 5747 2dbc e46d ab3c aef4 19bd 2043 57bd
00000050: 3b75 af3b bca4 703b a838 3fbd 2a6a a6bc
00000060: 4188 083d 73bc d43c c222 6dbc 872c d2b9
00000070: be40 773c e33f d43c d5ad 873c b8d2 e73c
00000080: c70c 42bc ed91 82bc 82e6 2f3c 758e c7bd
00000090: 344e 0bbd 36fc 62bb edc1 1cbd 4dca e9bc
000000a0: 1ec4 56bc da46 1bbd a3b9 97bd 0163 cabc
000000b0: a19b bcbb 6ec8 b8bb a801 493c 2128 80bb
000000c0: 5b93 cd39 8a95 443d 04f2 be3c 07d3 03bd
000000d0: 7ae7 5abc 8836 933a 3ea9 b5bc 3585 91bd
000000e0: 91c4 8bbc bfb0 c1bc 629f 10bd f0bb 523c
000000f0: 7e79 aebc a03b 9bbd 018c b6bb 7856 3e3b
0.050775845 -0.036385953 -0.028795991 -0.021923512 -0.008569182 -0.05127913 0.024302108 -0.030382302
0.013953941 -0.0029138662 0.005450345 -0.02613324 -0.062275175 0.008134444 0.016761394 0.021386346
-0.010576091 0.020926423 -0.03758686 -0.05255425 0.005354551 0.0036719283 -0.04668489 -0.020314295
0.033333067 0.025968766 -0.014473619 -0.00040087497 0.015091119 0.02590937 0.016562382 0.02829872
-0.011843867 -0.015938723 0.01073611 -0.097439684 -0.034010127 -0.0034635193 -0.03827088 -0.028538847
-0.013108281 -0.037909366 -0.07408454 -0.024705412 -0.005755857 -0.0056391275 0.012268461 -0.0039110337
0.00039210435 0.047994174 0.023308761 -0.032183673 -0.013360852 0.0011231462 -0.022175428 -0.07105485
-0.017061504 -0.02364385 -0.03530825 0.012862191 -0.021298166 -0.07579732 -0.005570889 0.0029043239

network_body._body_endoder.seq_layers.2.weight f4 [64, 64]
00000000: ed5d 36be c595 8bbd 8a05 1a3e af93 8a3d
00000010: 0d40 0fbe c0b0 dcbc 2824 00bd 519f ed3d
00000020: be04 10bd 27b6 2d3d d725 98be bfb0 33be
00000030: 9b7c 833e 484d 4cbe b2c1 fe3d 6989 84be
00000040: 314c 23be 1cf2 913d 5dc7 223e 2420 b43d
00000050: b802 483e e0f7 59be 7df0 0d3d 5e83 3abe
00000060: 7006 ad3d d716 bbbe ea7b 903e ddc7 cabc
00000070: 80b3 1dbe 3d26 e9bd d7c1 273e 1f44 a2bd
00000080: 06f3 f6bc a49d aebb 88ee 64bc b926 3b3e
00000090: 0bac 4cbd b598 7cbe 871f 14be a5d5 453d
000000a0: db4d 67bd d1b4 88bd 7114 c83d 1c05 03be
000000b0: 5dde ecbc 04d5 3dbe d397 563e 095c 04be
000000c0: 553c 75be ab67 393e f819 c6bd 89cc 02be
000000d0: 8460 29be c608 ebbc 4e18 9a3c 6737 5fbe
000000e0: 7886 653e 9cfe 0ebe ccd8 83be a0b4 09be
000000f0: 7f6f 07be ac02 213b 4954 393e d4a0 5abe
00000100: 6cf0 b13c 9fdc b03c 5634 813c cda5 2b3d
00000110: 2b8e 91bd 8315 41be dbb4 973c 7f6e cd3d
00000120: 8e14 b5be f562 c6bc c719 fe3d 2a5f 273d
00000130: cea2 d8bd 2857 c2be 8c20 74bd bfc1 d9be
00000140: a348 2cbe 831a a1be 46f0 21be 3c58 d5b8
00000150: 360e b13d 6721 dbbe 7792 983e b0c0 703d
00000160: 8d30 fd3d 45f8 1d3d 038e 243d d2dc 8dbc
00000170: f9be 46bd f1c8 b13d 2dbe d5bc 9e63 963d
00000180: ecef 723d 563c b5bd 9f7d 2c3e 8b56 a63d
00000190: 8bfb 303e 295c 24be 558b aebd fefa c03d
000001a0: 11a5 8f3e 697c 7b3d a43e ab3d 58c5 c63c
000001b0: 8239 d63d c239 c6bc 5d4a 9ebe 576d aa3d
000001c0: 7445 e8bd 9453 97be fb7e cf3d 4057 66be
000001d0: 7448 38be a16c 293a cd8f 49be 76c9 0b3e
000001e0: 1e7a 2abb 1013 cdbd d7a4 aabe 7279 06be
000001f0: 6716 c6bb b43e e9bd bfde 56be 48bc c5bd
00000200: 60bd c33d 1155 993d 7b58 123e 46ac ecbd
00000210: bf03 8bbe c871 2b3e fc71 c6bd 4f3e fdbd
00000220: 2770 da3d a965 163e 352a f73c a5a2 a43d
00000230: af8b abbd dbff 62be 4c57 aabe 3b2e 7d3e
00000240: 6cb5 52bc 659b 4d3d 9862 2ebe 31d0 d93b
00000250: 92b8 91be 247e d23d a577 a9bc 955e 60bd
00000260: 21c7 e3bd b31a ad3d a0aa 4e3e 3b18 c8bc
00000270: 9bdf 683d 3f66 593e 98a0 a43b f72a 133e
00000280: b57a 6bbd 1558 c13e 614b 5fbc eab5 0c3d
00000290: ca1a d9bc c4ef f43b d308 033e 506b 103c
000002a0: be8d 41bd fe2d 973b be50 44bd 755d a0bd
000002b0: 70d0 9abd 90ed 2a3e 9cbd d0be d3dc 963d
000002c0: 8406 523e 5252 c73d e421 a6be 827a 443e
000002d0: 0ade c7bd 2f44 ed3d a891 0ebc 6be1 93bd
000002e0: 76d9 4a3e 660f b0bd 5e0f 8cbe 8f7c 123e
000002f0: c4a3 02be aed8 03be 6bca a1bc 5318 913e
00000300: 855c 46bd 93df 14be 0e71 d2bc 3d29 95bd
00000310: a0fd 1c3e 040c 41be 9c04 c1bd d087 0f3e
00000320: 57f0 14bd 04e5 30be 7290 0e3e 3cc0 423d
00000330: 46cc 963d 42e2 c5bd f6cf 433e d5b7 6dbe
00000340: 3d90 543e 7e4b 623e 3290 29bd b6f0 3c3e
00000350: 6b05 be3c b58b 72be 0cfc 8ebd 0c1a a4be
00000360: aa95 b6bd 347e 1b3e 23e7 08be 0963 f83c
00000370: b9e8 14be 81c0 39bd 2110 073e f983 9cbe
00000380: 77d0 96bc a4d8 9e3c d3dc 153e cfd2 583d
00000390: 3d57 58be 511d 6dbe d0c3 463d ed0d 123c
000003a0: b984 41be b9e2 0d3e 16ab d1bd 60aa 813d
000003b0: 007b 5c3d e510 fbbd 65a7 8c3c bb21 1abe
000003c0: cee6 9abd 5d26 76be 37d3 7a3e 9bf3 4a3d
000003d0: 291b f5bd 3517 42be 10d6 5abb 75e3 c1bd
000003e0: 9689 993e 407d 653e 65bd e1bb 8a9f 72be
000003f0: ff20 393d 82e6 713d daa2 473e e03c f3bc
-0.17809267 -0.06815676 0.15041175 0.0676645 -0.13989277 -0.02693975 -0.03128448 0.11602653
-0.035160773 0.042410042 -0.2971637 -0.17547892 0.25681004 -0.19951355 0.12439288 -0.25886086
-0.15947033 0.07126257 0.15896364 0.08795193 0.19532287 -0.21285963 0.034653176 -0.18214175
0.084484935 -0.36540863 0.2821954 -0.024753505 -0.15400505 -0.113842465 0.16382538 -0.07923149
-0.03014518 -0.005328851 -0.013972886 0.1827649 -0.04996876 -0.24667628 -0.14465152 0.04829945
-0.056470733 -0.06675113 0.09769524 -0.12794918 -0.028914625 -0.1853829 0.20956354 -0.12925734
-0.23948796 0.18105952 -0.09672922 -0.12773336 -0.16540724 -0.028690707 0.018810418 -0.21798478
0.22414577 -0.13964313 -0.2575134 -0.13447809 -0.13226126 0.0024568243 0.18098558 -0.21350414
0.021721087 0.021589575 0.015772026 0.041906167 -0.071071945 -0.18855862 0.018518856 0.10030841
-0.35367244 -0.024217108 0.124072604 0.04086224 -0.105779275 -0.3795712 -0.05960135 -0.4253063
-0.16824584 -0.3146554 -0.15814313 -0.000101730664 0.08645289 -0.4279892 0.29799244 0.05877751
0.12362776 0.038566846 0.040174495 -0.01731721 -0.04852197 0.08680905 -0.02609166 0.07343219
0.05931084 -0.08849399 0.16844796 0.081219755 0.17283456 -0.16050781 -0.08522669 0.09422873
0.28055623 0.061397944 0.08361557 0.024264023 0.104601875 -0.024197463 -0.3091611 0.08321636
-0.11341372 -0.29555953 0.101316415 -0.2249422 -0.17996389 0.00064630253 -0.19683762 0.1365107
-0.002601273 -0.100134015 -0.33328888 -0.13132265 -0.006045151 -0.11388913 -0.20983408 -0.096550524
0.09557605 0.07486928 0.14291565 -0.11556296 -0.27151296 0.16742623 -0.096897095 -0.123654
0.106659226 0.14687218 0.030171493 0.080388345 -0.08376252 -0.22167914 -0.33269727 0.24724667
-0.012860637 0.050197024 -0.17029798 0.006647133 -0.28461128 0.10277966 -0.020686934 -0.0547777
-0.11121965 0.08452358 0.20182276 -0.024425616 0.05685387 0.2123041 0.005024027 0.14371859
-0.05749007 0.37762514 -0.013628812 0.034353174 -0.026502032 0.0074748714 0.12796335 0.008814648
-0.047254317 0.004613637 -0.047928564 -0.078303255 -0.075592875 0.16692185 -0.4076966 0.073663376
0.20510298 0.09732498 -0.32447731 0.19187358 -0.097591475 0.115852706 -0.008701719 -0.072207294
0.19809517 -0.08596687 -0.27355474 0.14305328 -0.12757784 -0.12875625 -0.01974984 0.2833887
-0.048428077 -0.14538412 -0.025688674 -0.07283256 0.15331125 -0.1885224 -0.09424707 0.14016652
-0.03636202 -0.17274863 0.13922289 0.04754661 0.07363181 -0.09662296 0.191223 -0.23214658
0.20758148 0.2209911 -0.04139728 0.18451199 0.023195943 -0.23686107 -0.06981668 -0.32051122
-0.08915265 0.15184861 -0.13369422 0.030320661 -0.14541902 -0.0453496 0.13189746 -0.30569437
-0.01840995 0.019390412 0.14635019 0.052935418 -0.21127029 -0.23155715 0.048526585 0.008914453
-0.18898286 0.13856019 -0.1023771 0.063313246 0.05382824 -0.12259082 0.017169664 -0.1505193
-0.07563554 -0.24038072 0.24494635 0.049548727 -0.11968071 -0.18954165 -0.0033391751 -0.09467212
0.29987782 0.2241106 -0.0068890327 -0.23693672 0.045197483 0.05905772 0.19495717 -0.029692113

network_body._body_endoder.seq_layers.2.bias f4 [64]
00000000: 400e d9bd 7c28 98bc df0d 453d 7cd0 86bd
00000010: 4f13 0fbd 5ef4 273d 8bd6 813b caaa 81bc
00000020: f044 95bb cadf 983a de95 0dbd 8875 93bc
00000030: 2d94 713b 79ac e0bc ddff 93bd 91a0 663c
00000040: 3ad0 973a 488d 09bd 7fad 363c 153a 2bbd
00000050: ec4a 653c c8e4 8d3c 5e3e a13c b395 7c3c
00000060: 489b 89bc 704a 8a3b 6fc7 1ebd 0705 cb3c
00000070: 5917 0abd 57dc 113d 4cd4 03bd bb84 7aba
00000080: 8123 293c d646 1e3c 83a7 b7bc 279f b83c
00000090: b8f4 063d 79a3 e1bc 1f18 043d 0bf1 293d
000000a0: df8c f9bc 8d79 acbc 2dbf 203d 5a67 a6bc
000000b0: 7496 983c 7926 86bd 03b9 023c 85f7 553d
000000c0: afbc ec3c b7f0 56bd 2c85 78bc 39ad 03bc
000000d0: 9134 1bbd 7a9d debc f201 113c b5b5 ccbc
000000e0: 04ed f33c f460 38bd 40ba 80bd ba0c c33c
000000f0: ddcb 9ebc f90c 1cbd 78fc 0fbd f923 503d
-0.10598421 -0.018573992 0.04810893 -0.06582734 -0.034930523 0.04100453 0.003962343 -0.015828509
-0.004555337 0.0011663374 -0.034566753 -0.01800038 0.0036862001 -0.027425991 -0.072265364 0.014076368
0.0011582442 -0.033582002 0.011149763 -0.04180344 0.013994914 0.017321005 0.01968306 0.01541655
-0.016797677 0.0042202994 -0.038764413 0.02478267 -0.033713672 0.035610523 -0.032184884 -0.00095565215
0.010323406 0.009660443 -0.022418743 0.022536827 0.032948226 -0.02754377 0.032249566 0.041489642
-0.03046268 -0.021054054 0.03924482 -0.020312954 0.01862643 -0.06550307 0.007978681 0.052238006
0.028898565 -0.052475657 -0.015168469 -0.008036905 -0.037891928 -0.0271747 0.008850561 -0.024988988
0.029776104 -0.045014337 -0.06285524 0.02380978 -0.019384319 -0.03809831 -0.035152882 0.050815556

network_body._body_endoder.seq_layers.4.weight f4 [64, 64]
00000000: ca05 78bd afb8 48be 4a0d 73be 6c01 9f3d
00000010: af89 39bc d8a4 d8bd 62e3 303e 84a9 6b3d
00000020: bfaf 85be a168 9cbd a947 febd ce95 7cbe
00000030: fb49 af3d 22b7 3d3d 60a4 1d3d 8dcb 893d
00000040: 49cd 22be 0ea3 55be 0b06 4ebe d2b6 b6be
00000050: 4397 15be 0dc6 ab3e ffe0 733e 6f2f 69be
00000060: 9b82 af3e a342 52be 06e3 53bb d928 0d3e
00000070: b494 b3bb 4273 07be a7e6 b2be 107c fe3d
00000080: 7b50 be3d 69f9 6ebe 0011 48bd 5188 8d3c
00000090: dfc3 bebc b180 b23d a906 c6be 960e b03d
000000a0: 809e c0bd dc77 6d3e 7a9d ee3d a5f0 c63d
000000b0: e90b d03d 59ba 393e f81f 84be 135b 64be
000000c0: 048e 84be c9bd 6d3e f001 bdbc d386 11be
000000d0: 2edf 57be 9006 9d3d afbb 4fbd e408 79bc
000000e0: 247c 9fbd 3461 b6bd aacf 8bbe 2964 66be
000000f0: 0e5c b5bb 98c7 6fbd 0ec1 113e 3c40 17be
00000100: fc10 f13d e45f c23c f688 273e 56a4 aebd
00000110: 45cd b9bd d719 6d3d 3f14 67be 6c74 d4bd
00000120: b296 503d ba1e 2bbe 4ff2 8dbd 7d79 033e
00000130: 3abd 563e 947b fdbd 9696 8cbd 8a27 fbbd
00000140: 64fe 553e 2f00 39be 4a87 193e 81b1 c0bd
00000150: cf17 663d 457d 2bbd d5ff 813d 9915 a43c
00000160: 523e 8c3d 7145 6ebd 0017 20bd d15c 82be
00000170: 30c6 ba3d f71d 193d 6829 babd 5740 f23d
00000180: 5863 19be 7331 cfbd ed8b 33bd 2fe1 a9bd
00000190: 3e31 29be 4236 a6bd ab1b 44bd a8ac 373d
000001a0: 9823 d0bd ed81 283e c4e9 343e 993b 7dbe
000001b0: 8f6a 4cbe cb3f b93d 8d37 57bc b04f 893e
000001c0: 960c 9dbd c7df c23e 4cae 0e3e 1fc9 02bd
000001d0: b6d3 da3c 8c47 c9bd 732d 133e 04a3 84be
000001e0: 5cdd b63d 7f5e 313e 3120 043e 88c8 36be
000001f0: 305a 60be a10f 12be 5634 35be 6761 19be
00000200: 516b 133e 76ab 78be a99b fa3d 987c f23d
00000210: 0101 963e b79b 073e 8772 25bd e4ed 87bd
00000220: c89e 193e b316 aebe 3fd5 1ebd ddaf 52be
00000230: 0f0c eabd 7294 afbe fe29 ad3c 1319 243c
00000240: ad6e 103e a14f bbbd f5f7 253e 1b36 f63d
00000250: 940a 8abd a96b 25be f825 8dbd 7f9b 9c3d
00000260: a2e4 12bd 7284 953d ab05 823e 9878 e6bd
00000270: 35bb 53be 0fec b5be 1aa1 a6bb ad99 bc3d
00000280: 56e9 5dbe d5e1 543e dbaa aebd ad06 d1bd
00000290: ded1 503e 67e9 22be b284 643e 46ee 6639
000002a0: 7501 15be be29 d93d c5df 21bd 1a7e 173e
000002b0: c39b 5f3d fcff 803e 50cd a7be 3d01 82be
000002c0: 1fa3 fcbd 085e 993d 6f04 813e 0362 05be
000002d0: edbd 58bd dab7 88be 58be 8cbd d5dc b0bd
000002e0: 073f 1cbe ae79 913e 0fc5 843d 9b84 913d
000002f0: 499b 153e 64ee 23bd dc69 cf3d 2dd5 e33d
00000300: 5304 c8be ee7f a9b9 a003 303e d77f 8ebe
00000310: ea78 3a3e 8dad d63d e5e5 98bd 1f52 ed3e
00000320: b294 8b3d 7a83 a0bd 7525 e93d af9f af3e
00000330: 0d3f 8dbe 11a2 7dbd 7a97 fabc 9e3b a9be
00000340: 4484 c83b a6ea a23d bb9e f13d 9548 123e
00000350: ba4c 94bd de0b a43e 4ef9 5d3e 7c81 013e
00000360: 33f2 77bd b4b3 c5bb 8f62 eabd 6149 18be
00000370: bea7 1cbc 32c7 bd3e 910d 29be 9ebc 8b3d
00000380: 4a2b a3bd 2d76 e5bd f496 e43d 9c8c 85be
00000390: 3429 e6bd 5830 63be 1c11 b43d 7e05 353c
000003a0: 8711 8ebe 279b 7b3e ec42 f3bd 4783 733c
000003b0: 3328 cbbd 09ee 1ebc d262 bcbe 27f5 9abe
000003c0: 4397 503e f815 83bd 60da 343e d3ec 4abb
000003d0: 3263 be39 e73d d5be 9f8f 97be 2c82 623d
000003e0: 74a0 e33d d534 f83d 5219 9c3d 0aa4 df3c
000003f0: 8958 513c 10b2 23be 1611 8cbe 365e 033d
-0.060552396 -0.19601701 -0.23735538 0.07763943 -0.01132433 -0.105783165 0.1727424 0.05753471
-0.26110646 -0.07637144 -0.12416012 -0.24666521 0.085590325 0.046317227 0.03848684 0.06728277
-0.15898623 -0.20862982 -0.20119493 -0.35686356 -0.14608483 0.33549538 0.23816298 -0.22772
0.34279332 -0.20533232 -0.0032331361 0.13785113 -0.0054803733 -0.13227561 -0.349416 0.12426007
0.09292694 -0.2333733 -0.048844337 0.017276915 -0.023286758 0.08715952 -0.38676956 0.08596532
-0.094052315 0.23190254 0.1165113 0.09713868 0.10158522 0.18137492 -0.2580564 -0.22300367
-0.258896 0.23216929 -0.023072213 -0.14211588 -0.2108123 0.07667267 -0.0507161 -0.015199874
-0.0778735 -0.08905259 -0.27306873 -0.22499146 -0.0055346554 -0.058539957 0.14233801 -0.14770597
0.11770818 0.023727365 0.1636084 -0.08527438 -0.09072355 0.05788597 -0.22566317 -0.10373768
0.050924964 -0.1671094 -0.06930982 0.12839313 0.20970622 -0.12377086 -0.068646595 -0.12263401
0.20897824 -0.18066476 0.14993015 -0.09408856 0.05617505 -0.041867513 0.06347624 0.02002983
0.06847824 -0.058171693 -0.039084435 -0.25461438 0.091198325 0.037382092 -0.09089929 0.11828678
-0.14979303 -0.101168536 -0.043834615 -0.082949035 -0.1652269 -0.081158176 -0.04787795 0.044842392
-0.10163039 0.16455813 0.176673 -0.24729766 -0.19962524 0.09045371 -0.013135803 0.2681861
-0.07668416 0.38061354 0.13933676 -0.031930085 0.02671228 -0.098280996 0.14372806 -0.2590562
0.0892894 0.17321204 0.12902905 -0.17849934 -0.21909404 -0.14263774 -0.17695746 -0.14978562
0.14396407 -0.24284157 0.12236721 0.118401706 0.2929764 0.13242994 -0.040392425 -0.06637171
0.15001976 -0.34001693 -0.038777586 -0.20574899 -0.11428081 -0.34292942 0.021138187 0.010015744
0.1410472 -0.091460474 0.1620787 0.120220385 -0.06740299 -0.1615435 -0.068920076 0.07646846
-0.035862572 0.073006526 0.2539495 -0.1125347 -0.20676883 -0.3553166 -0.005085123 0.09208999
-0.21671042 0.20789273 -0.08528682 -0.102063514 0.20392558 -0.15909348 0.22316244 0.00022023273
-0.14551337 0.10603665 -0.039520044 0.14794198 0.054591905 0.251953 -0.32773829 -0.2539157
-0.123358004 0.07488638 0.25198695 -0.1302567 -0.052915502 -0.26702768 -0.06872243 -0.0863587
-0.15258418 0.28413147 0.064828984 0.071053706 0.14610018 -0.04002227 0.10127613 0.111246444
-0.390658 -0.00032329507 0.17188883 -0.2783191 0.18210188 0.10482321 -0.07465724 0.46351716
0.06815471 -0.07837577 0.113840975 0.34301516 -0.27587166 -0.061922137 -0.030589808 -0.33053297
0.006119283 0.07954912 0.117978536 0.142855 -0.07241197 0.32040304 0.21677133 0.1264705
-0.060533714 -0.006033385 -0.1144458 -0.14871742 -0.009561477 0.37066036 -0.16509081 0.06823085
-0.07967241 -0.11204181 0.111616045 -0.2608384 -0.112383276 -0.2218641 0.08792326 0.011048673
-0.27747747 0.24570905 -0.11877999 0.014862842 -0.09919777 -0.009700307 -0.36794144 -0.3026516
0.20370202 -0.064006746 0.17661428 -0.0030963912 0.0003631353 -0.4164879 -0.29601762 0.055299923
0.111145884 0.12119452 0.07622017 0.0272999 0.012777456 -0.15985894 -0.27356786 0.03207227

network_body._body_endoder.seq_layers.4.bias f4 [64]
00000000: 1d74 99bc c979 ffbc 3a02 473c 858b d8bc
00000010: fd1a 883c 3212 5e3b 6618 9d3c d316 eebc
00000020: f85d f2bd 1036 c53c 014e 153d 90d3 b7bc
00000030: cffb 1c3d 0ee5 45bb a547 a7bb 5f29 923d
00000040: cf2b 73bd 940f dd3c 3c59 9c3d bab6 14bd
00000050: b6f0 8b3d ba9f 533c d052 c43c 7210 bbbc
00000060: 1a73 a73b 3c23 843d bc16 8cbd 4bdb 873d
00000070: 1d1c 623d d74f 5d3d 63ed 0ebc 05bc b73d
00000080: f213 773c 6257 ba3d a783 ac3c fb19 6abd
00000090: ca71 c83a e680 12bc 1f20 9abc 3906 b3bc
000000a0: 568f dc3d ab88 a93d e758 d23c eded 733d
000000b0: fefc f63c aedc 5fbc 4771 413d d4ee 963c
000000c0: b5d4 973c 3999 b7bb 2859 18bd fe29 18bd
000000d0: c19a 09bd 47fd 2ebd 28dd 183d ef76 743b
000000e0: 61e0 183e 6082 c139 f5f2 68bd 269c 1b3d
000000f0: e2fe d53c 07b8 a73b 46d2 f63c 2fb8 d2bc
-0.018732125 -0.031186001 0.012146527 -0.026433716 0.016614432 0.0033885357 0.019176673 -0.029063618
-0.11834329 0.02407363 0.036451343 -0.022439748 0.03832608 -0.0030196342 -0.0051049762 0.07136797
-0.05936795 0.026984967 0.076342076 -0.036307074 0.06833021 0.0129165 0.02396527 -0.02283499
0.0051101567 0.06452033 -0.06840274 0.06633624 0.055202592 0.05403122 -0.00872359 0.08971409
0.015080439 0.09098698 0.02105887 -0.057153683 0.0015292701 -0.008941865 -0.018814145 -0.021853553
0.10769527 0.082780205 0.025677158 0.059553076 0.030149933 -0.013663454 0.04722717 0.018424429
0.018534044 -0.0056029824 -0.0371944 -0.037149422 -0.03359485 -0.042722013 0.037320286 0.0037302335
0.14929344 0.00036908966 -0.056872327 0.03799071 0.026122514 0.0051183733 0.030129563 -0.025722591

action_model._continuous_distribution.log_sigma f4 [1, 44]
00000000: edfc 34be a6c5 b83d 9655 dfbc 4b88 953c
00000010: dafe 95bd c9af 063b 7756 3b3e 1020 623d
00000020: 9eb3 473d fe7b b73e 18b1 073e 8a64 bf3d
00000030: 0519 1bbe c813 83bc 5c1f 3b3e 488d 3e3e
00000040: 7f3c 6b3e 1ca5 253e 53d8 d53d d3d3 72be
00000050: 6afe 63bd 64ce 973d d363 fb3d 0037 0a3d
00000060: e631 633d 755f 853d fd77 363d 578a 573c
00000070: c212 563d 932c 833e 1dae 3b3e a3b0 ebbc
00000080: 975f 5fbd 9004 c83c 4a3f 84bd 3990 8bbd
00000090: b795 81bc eb56 803e 25f2 303e 4ccd a1bd
000000a0: cfc1 c4bd df35 2f3d 7769 563e 109f 913d
-0.17674609 0.090220734 -0.02726249 0.018253466 -0.07324 0.0020551553 0.18294702 0.05520636
0.04875528 0.35836786 0.1325115 0.09345348 -0.15146263 -0.016000643 0.18273681 0.18608582
0.22972296 0.16176265 0.10441651 -0.23713617 -0.05566255 0.07412413 0.12274899 0.03374386
0.05546751 0.065123476 0.044548023 0.013155541 0.052263983 0.25619945 0.18328138 -0.02877075
-0.05453452 0.024416238 -0.06457384 -0.06814618 -0.01581846 0.25066313 0.17279871 -0.079004854
-0.096072786 0.042775985 0.20938669 0.07110417

action_model._continuous_distribution.mu.weight f4 [44, 64]
00000000: 552b 553d b014 25bd 5059 2bbc 2845 0e3e
00000010: c96d b4bd d8ba 4ebd 40bc 99bd 4a88 d43d
00000020: d940 643d c057 ef39 88fa 10bc bf2f f5bc
00000030: 27aa c3bc 41b8 1c3e 2a65 febc 18ea 95bd
00000040: 5f65 12bd 9863 f93a 6390 803d df5d 5abe
00000050: 7765 b03b affe a03c 1b19 36bc 3e8f e8bd
00000060: 3c7d b5ba 2bd9 ebbd 0e7b ac3d d59b 893d
00000070: 66a3 58bd 74b6 aabc aae2 9cbd e323 b1bd
00000080: 8512 813c 0df4 fcbb 70e2 acbd cce0 ee3b
00000090: 345c 19bd 03f3 723c 5d52 0cbd 097e da3c
000000a0: f55c 6a3d 531f e23d 1811 893d 1103 53bc
000000b0: 4087 6ebd c2d1 80bb 2bab e23c d209 d6bc
000000c0: 1b31 37bd bfba 3cbd 379c 113e f28a 503d
000000d0: f6a2 b93c 401a f43d e485 38be 85a5 813d
000000e0: 5fcb 36bb 2017 c43d 0d73 4ebd 437b 5dbd
000000f0: 0d84 10bd 4e82 4e3c e5ae 683d 432a d13d
00000100: 6e87 8cbd cecf 6cbd ab2c 5b3d 43b4 823e
00000110: efc7 e7bd 9b66 1d3e e651 cb3c c005 8bbd
00000120: a84a 073d f2e1 e53c 29d8 173e c126 f7bc
00000130: 7f0b 9ebc 5497 273e 4136 7ebd 3c21 15be
00000140: 0591 403c 1ca1 a63d f3ce 83bd 13aa 793d
00000150: 8c6c c4bd 1442 da3d b080 193e 7c49 013e
00000160: 8362 c23c 6cca 1ebb 91d2 eb3a da77 b33d
00000170: 3d3f f4bc a7f3 393e 9faf 163d 982b 9ebc
00000180: 9b45 623d 6f5c cbbc cab7 3f3d ef44 ebbc
00000190: 01a5 f83d 9956 09bd bb53 1abe 62db bcbc
000001a0: e205 88bc 3a23 123c 7945 31bd 2fd1 813d
000001b0: fac8 63bd 2275 94bd 5d35 87bd e6e3 17bd
000001c0: db53 113e fb73 8ebd cab8 eebd 94d3 333e
000001d0: 97b4 e1bd 8da4 b63d 1b9d 09be 7689 863e
000001e0: 338a bebc 7c19 97bd 8d48 21be 44d3 113d
000001f0: ca55 a33c 01ed 613d de5e 0d3e 55c3 ab3d
00000200: bc41 aebd 379e 43bc 3f29 fc3d f71e 39bd
00000210: 602c 663d e418 a13d e38f 813d 83d4 f93c
00000220: cc4d cebc c5be de3d b713 613d 7d36 583d
00000230: 8e02 3b3e d076 76bd faed 91bc 416f 913d
00000240: a97d d23d f882 0dbd fc04 b8bd 993f 083d
00000250: bb1a b6bc 8eec 5d3d c204 383e 167f 48bd
00000260: cf4e 81bc a66a 03bd 432f c33d 5d4f 0bbc
00000270: ad83 bf3b ee40 b23d c117 ec3c 15fc d3bd
00000280: 7cff 793c fb35 d53b d3ca fc3c 16aa 4dbd
00000290: a503 a13d 54ff cc3b 5908 b53d e7f6 c7bc
000002a0: 87a1 a23d 4e37 2dbd 5957 043d f819 423d
000002b0: e749 b83d 1c94 ac3c ecf2 843d 9a16 b9bc
000002c0: c901 343e 13ae dc3c 33ea a9bc df5e c73d
000002d0: 6861 263e 0f54 a23d 24f5 29be 646f f03d
000002e0: 839f 07be 87eb 673d 942c 5c3c e4bb 6e3d
000002f0: 0761 dc3d 81ca 973d 671a 3abd 55be adbd
00000300: 8c62 26be 9301 8fbd 1f7b 91bc 91ac 1e3d
00000310: 4488 9e3d 3fb3 35bd a15d 043e d12e 363e
00000320: 113b 75bc bb94 903d fcbe 49be 0e1f 073e
00000330: f414 613d 1222 babd b8d1 0b3e f55e 36bd
00000340: b2f5 713d a987 0abe bf32 be3d d882 bdbd
00000350: 8d6c 633d 15c4 403d be50 bdbd 8308 173d
00000360: bcac 2abc af51 853c 2a24 a83d 52f7 213e
00000370: 0f03 843d b0a9 6a3d f66e ca3d 3737 70bd
00000380: 453e 03be 3721 dcbc 1165 503e 74d1 953d
00000390: 212b e7bb 9b92 00be 05fd f13d 6e1b db3d
000003a0: 4824 733e 635f 25be 3954 e8bd 56f1 4c3d
000003b0: 3c74 843d 25fa 023e c94d bdbd ce68 9ebd
000003c0: a1a6 0d3d 1f36 f93d fa83 70bd 1e67 953d
000003d0: 6018 fabb 9677 cd3d e100 023d b083 02bd
000003e0: 7440 b8bd e27b 45bd fcc4 3d3d 4798 9a3c
000003f0: 4eb0 933d fd7e 993d 5031 0dbe 549a 3f3d
0.052043278 -0.040302932 -0.0104583055 0.13893569 -0.08810002 -0.050471157 -0.07506609 0.103775576
0.055725906 0.0004565101 -0.008848794 -0.029929994 -0.023884846 0.15304662 -0.031054098 -0.073200405
-0.035741206 0.0019026874 0.062775396 -0.21324871 0.0053831893 0.019652693 -0.011114384 -0.11355446
-0.0013846527 -0.11516031 0.08421908 0.06719176 -0.052890204 -0.020838954 -0.0766042 -0.08649423
0.015755901 -0.007719523 -0.08441627 0.0072899815 -0.037441447 0.014828446 -0.034258235 0.026671426
0.057217557 0.11041131 0.066927135 -0.012879149 -0.058234453 -0.003931255 0.02766951 -0.02612773
-0.044724565 -0.046076532 0.14219747 0.05091376 0.022660714 0.11919069 -0.18019825 0.063303985
-0.0027892215 0.09574723 -0.05040269 -0.05407263 -0.035282183 0.012604309 0.056807417 0.10213139
-0.06861769 -0.057815365 0.053509396 0.25528154 -0.11317431 0.15371172 0.024819326 -0.06788206
0.033030182 0.02806184 0.14828552 -0.030169846 -0.019292591 0.16366321 -0.06206346 -0.14563459
0.011753325 0.08136198 -0.06435957 0.06095321 -0.09591016 0.10657135 0.14990497 0.12625688
0.023728615 -0.002422954 0.0017991831 0.08763094 -0.02981531 0.18159352 0.03678858 -0.019307896
0.055242162 -0.02482435 0.046806134 -0.028719394 0.12140847 -0.03352985 -0.15071003 -0.023053829
-0.016604368 0.0089195315 -0.043279145 0.06338727 -0.055611588 -0.07248904 -0.06601975 -0.037082575
0.14192145 -0.06955715 -0.116563395 0.1756118 -0.11020773 0.08918104 -0.13438837 0.2627675
-0.023259258 -0.07377908 -0.15750332 0.03560187 0.019938368 0.055157665 0.1380572 0.08386866
-0.085086316 -0.011939577 0.123125546 -0.045195546 0.056194663 0.07866076 0.06326272 0.030496841
-0.02518358 0.1087623 0.054950442 0.05278634 0.18262693 -0.060171902 -0.017813671 0.07101298
0.10277874 -0.03454873 -0.08985326 0.033263776 -0.022229543 0.054180674 0.17970565 -0.048949324
-0.01578465 -0.03208413 0.09530499 -0.008502808 0.0058445544 0.087037906 0.02881992 -0.10350815
0.015258666 0.006506679 0.030858433 -0.050211035 0.07862023 0.0062560234 0.08839483 -0.024409724
0.07940965 -0.04228907 0.032309864 0.047388047 0.08998471 0.021066718 0.06491646 -0.022593785
0.17578806 0.026938474 -0.020741558 0.09734892 0.16248095 0.07926189 -0.1659742 0.11739996
-0.13244443 0.0566211 0.013438363 0.058284655 0.10760694 0.074116714 -0.045435335 -0.084835686
-0.1624853 -0.06982722 -0.017758904 0.03873879 0.07740834 -0.044360396 0.12926342 0.17791297
-0.014967696 0.07059618 -0.19701761 0.1319544 0.054951623 -0.0908853 0.1365422 -0.04452415
0.059072204 -0.13528313 0.09287023 -0.09253472 0.055523444 0.047062 -0.09243916 0.03687335
-0.01041716 0.016274301 0.08210023 0.15817001 0.06445896 0.057290733 0.09884445 -0.058646407
-0.12816723 -0.026871307 0.20351054 0.07315341 -0.007054702 -0.12555926 0.11815838 0.10698591
0.23744309 -0.16149668 -0.11344189 0.050034843 0.064674824 0.12790735 -0.09243352 -0.07734834
0.034582738 0.12168526 -0.058719613 0.07295059 -0.0076323003 0.10032575 0.03173912 -0.03186387
-0.089966685 -0.048213847 0.046330437 0.01887144 0.07211362 0.07494924 -0.13788342 0.04677804

action_model._continuous_distribution.mu.bias f4 [44]
00000000: e6ac abbc 337c 15bc 7ae3 f53d 70bd bd3c
00000010: 11bd 4cbd 5dde 4cbd 374c 6abd c320 8cbd
00000020: ce31 ce3d 5091 86bd b15a 89bc a646 69bd
00000030: aa74 5abd a316 86ba f337 923c 2c3c 143d
00000040: 1e08 45bd 31bc 59bd f316 363c 5cc0 163d
00000050: f442 ec3d 657e 973c 506d 613c ca30 d5bc
00000060: 3291 adbd 5b4d 8ebd 3f18 52be 859a 7a3c
00000070: 6073 8cbd f22a 413d 11cb 913d eb2c 6abb
00000080: 02e3 b6bd b931 7cbd 824c 123c 0f3a d1bd
00000090: b02b 2ebd 9fdb 62bd f848 463d 53db a03d
000000a0: 6474 2bbd 937b 32bd 6762 b83d 2437 b13c
-0.020956468 -0.00912385 0.12006278 0.02316162 -0.049984995 -0.05001675 -0.05720159 -0.06842186
0.10068093 -0.06570685 -0.016766878 -0.05695214 -0.053333916 -0.0010230135 0.017848944 0.036190197
-0.048103444 -0.05315799 0.01111387 0.036804542 0.11536208 0.018492887 0.013758972 -0.026024241
-0.084749594 -0.06948348 -0.20517062 0.015295629 -0.068579435 0.047160096 0.0711881 -0.003573234
-0.08930017 -0.061570857 0.008929374 -0.10216152 -0.042522132 -0.05538523 0.048409432 0.07854333
-0.041859046 -0.04357488 0.09003144 0.021632738
