results/074Config2/Dynamic Table/Dynamic Table-3999976.onnx (onnx, 63790 bytes, 9 tensors)

network_body._body_endoder.seq_layers.0.weight f4 [64, 52]
-0.31204894 -0.07204891 -0.03883031 0.17099048 0.28234023 0.073800415 -0.08947089 -0.13202518
-0.3653432 -0.12850682 -0.092717394 0.15479842 -0.19682047 -0.42723727 0.014699973 -0.20022552
0.13189872 -0.17522886 -0.04111943 -0.21825528 0.20930277 0.121441975 -0.06564259 -0.006025172
-0.07711533 -0.062198132 0.00054092146 -0.14118555 0.13435653 -0.19443363 -0.036936253 0.009231032
0.05293429 0.007237798 -0.16965663 -0.2136482 -0.23435989 -0.21896367 -0.109038495 -0.18626149
-0.48799103 -0.07473862 -0.2696924 -0.2546524 0.082811415 0.19345993 0.13318332 0.097581536
0.073278606 -0.024240116 -0.0479115 -0.04328981 0.11293421 -0.08913002 0.14838926 0.029009225
0.04201795 0.0288145 0.03593117 0.23771796 0.22686276 0.042698633 0.2751759 -0.12938178
0.018643556 -0.09009213 0.06222736 -0.12369622 -0.052202377 -0.17115672 0.08873656 -0.07472458
0.15733908 -0.19376531 -0.17356639 0.5488473 -0.065627724 -0.12825267 0.46038336 -0.3002925
0.08549046 -0.3035832 0.015543514 0.047583353 0.15458997 0.08454257 0.11482476 -0.15094095
0.10385578 -0.012209472 -0.091399625 0.121369645 0.04409602 -0.025665196 0.016008008 -0.039494257
0.0047024367 0.099800184 -0.05153937 0.05113059 0.20810288 -0.047934975 -0.21904673 -0.0032909384
0.059611578 -0.123184934 0.008074281 -0.018314332 0.26587364 -0.13723435 -0.060014665 -0.08870292
-0.16704577 -0.026070785 -0.2883959 -0.29014638 -0.025239633 -0.02184912 -0.18180718 -0.2328689
0.0783296 0.25460353 0.29229563 0.0065736566 -0.20823315 0.17770238 -0.20615432 0.0806014
-0.046357565 -0.19645485 -0.13290372 -0.30577746 -0.048710883 0.11362712 0.075262666 -0.020256247
-0.06727692 0.16002828 0.29228738 0.11176221 -0.22492224 -0.10058924 0.38977152 -0.29972595
0.1750856 0.022711558 -0.042268995 0.10611608 0.23214036 -0.03179092 -0.006260309 0.048359167
0.05617403 0.08320713 0.10155203 -0.14550221 0.23920293 0.18820523 0.37473243 0.18294446
0.07582043 -0.32434672 -0.17081758 0.33693025 0.24707155 -0.025034467 0.08489469 -0.03720792
0.077347696 0.04621647 -0.19519971 0.16926804 -0.016778678 -0.08377499 0.21215554 0.16982901
-0.02497324 0.031943537 0.110860206 0.008849695 -0.14553386 -0.5521508 -0.023173122 -0.07776271
0.10977197 0.16304313 -0.21143378 -0.33556482 0.08450168 -0.063712336 -0.13932112 -0.3597469
0.02651363 0.16149609 0.07583812 -0.13487309 0.111987375 0.069036 -0.19366309 -0.027624676
-0.37140253 -0.0016815603 0.03968537 0.36915794 -0.03650457 -0.02502508 -0.0388593 0.18921518
-0.31131932 -0.07510059 -0.20936733 -0.12679538 -0.21778266 0.089646526 -0.027970849 0.19183347
0.093312934 -0.018130776 0.13781796 0.051228743 -0.07720791 0.3441165 0.17653179 0.033421922
0.19824927 -0.009804225 0.004392697 -0.01352212 -0.079862826 -0.08180845 0.031658523 0.049863808
-0.1289261 -0.082232215 0.41909277 0.27545294 -0.15146005 0.4076534 0.056934673 -0.37909347
-0.030576413 -0.08121535 -0.098042466 -0.09250662 -0.053556357 0.39623502 -0.2676749 0.18792625
0.13850607 0.145056 0.25401342 0.2519754 -0.13060199 -0.014944476 0.03608909 -0.045150336
00000000: e1c4 9fbe 618e 93bd 880c 1fbd 2118 2f3e
00000010: e68e 903e ac24 973d 843c b7bd 9c31 07be
00000020: 440e bbbe 4b97 03be 9ee2 bdbd 7a83 1e3e
00000030: 4e8b 49be d8be dabe 28d8 703c eb07 4dbe
00000040: 7510 073e 326f 33be d96c 28bd 507e 5fbe
00000050: 7753 563e 92b6 f83d 9f6f 86bd ce6e c5bb
00000060: a4ee 9dbd 78c3 7ebd a0cc 0d3a f292 10be
00000070: c294 093e 9c19 47be 784a 17bd c13d 173c
00000080: a0d1 583d 0d2b ed3b 78ba 2dbe 98c6 5abe
00000090: 0afc 6fbe 0338 60be 934f dfbd 55bb 3ebe
000000a0: f6d9 f9be 9010 99bd 1f15 8abe cd61 82be
000000b0: 0899 a93d 5c1a 463e 3561 083e d4d8 c73d
000000c0: 1813 963d 3593 c6bc d93e 44bd a850 31bd
000000d0: 0d4a e73d cd89 b6bd 5bf3 173e c1a4 ed3c
000000e0: 041b 2c3d 630c ec3c 902c 133d 566c 733e
000000f0: b64e 683e c3e4 2e3d dbe3 8c3e a87c 04be
00000100: 5fba 983c 3982 b8bd 1ee2 7e3d 7254 fdbd
00000110: 29d2 55bd b543 2fbe 83bb b53d 3309 99bd
00000120: 7f1d 213e 6a6a 46be 63bb 31be 4281 0c3f
00000130: d467 86bd ab54 03be 5eb7 eb3e f0bf 99be
00000140: 9f15 af3d 426f 9bbe 39aa 7e3c c3e6 423d
00000150: d54c 1e3e a824 ad3d 3e29 eb3d 4490 1abe
00000160: 57b2 d43d 3d0a 48bc ba2f bbbd a690 f83d
00000170: 079e 343d d13f d2bc 3a23 833c bbc4 21bd
00000180: e616 9a3b 0a64 cc3d f21a 53bd 4f6e 513d
00000190: ec18 553e 7757 44bd c94d 60be c9ac 57bb
000001a0: 452b 743d 6248 fcbd fd49 043c f007 96bc
000001b0: 9720 883e 2987 0cbe f0d1 75bd e0a9 b5bd
000001c0: 0c0e 2bbe 6692 d5bc a1a8 93be 118e 94be
000001d0: 59c3 cebc edfc b2bc a92b 3abe 2f75 6ebe
000001e0: 456b a03d 655b 823e c6a7 953e d467 d73b
000001f0: 123b 55be 9df7 353e 1e1a 53be 5912 a53d
00000200: 6ee1 3dbd 762b 49be ea17 08be dd8e 9cbe
00000210: 1085 47bd 56b5 e83d 5023 9a3d 6ef0 a5bc
00000220: 7bc8 89bd 74de 233e b1a6 953e 96e3 e43d
00000230: 0452 66be bb01 cebd 2290 c73e ae75 99be
00000240: a449 333e 970d ba3c 4122 2dbd 6353 d93d
00000250: 34b6 6d3e 3237 02bd 4723 cdbb 4314 463d
00000260: bd16 663d 8068 aa3d 83fa cf3d 88fe 14be
00000270: 9df1 743e dfb8 403e eedc bf3e cb55 3b3e
00000280: be47 9b3d c610 a6be ceea 2ebe 1f82 ac3e
00000290: 5300 7d3e 1515 cdbc 44dd ad3d 5567 18bd
000002a0: 7868 9e3d 7b4d 3d3d 6fe2 47be 9a54 2d3e
000002b0: 7073 89bc 3992 abbd 4d3f 593e a8e7 2d3e
000002c0: ae94 ccbc 3ad7 023d ad0a e33d 50fe 103c
000002d0: d406 15be c159 0dbf 8fd5 bdbc 0e42 9fbd
000002e0: 20d0 e03d c7f4 263e 1982 58be 27cf abbe
000002f0: 380f ad3d 9d7b 82bd 32aa 0ebe bf30 b8be
00000300: 1d33 d93c 3b5f 253e 0451 9b3d 2c1c 0abe
00000310: a359 e53d bf62 8d3d 9e4f 46be 254d e2bc
00000320: 7928 bebe cd67 dcba 208d 223d 4502 bd3e
00000330: d185 15bd 6601 cdbc ee2a 1fbd a0c1 413e
00000340: 3f65 9fbe 57ce 99bd 6464 56be a6d6 01be
00000350: 6b02 5fbe 9998 b73d 1f23 e5bc fe6f 443e
00000360: da1a bf3d fe86 94bc 2720 0d3e 3bd5 513d
00000370: 2e1f 9ebd 0a30 b03e c0c4 343e 6de5 083d
00000380: db01 4b3e e6a1 20bc 9df0 8f3b e28b 5dbc
00000390: 1f8f a3bd 308b a7bd 5eac 013d fe3d 4c3d
000003a0: 3405 04be 5d69 a8bd 5493 d63e 2b08 8d3e
000003b0: 5818 1bbe f2b7 d03e 5534 693d 8a18 c2be
000003c0: 637b fabc 3c54 a6bd 7dca c8bd 1c74 bdbd
000003d0: e95d 5bbd 51df ca3e af0c 89be bd6f 403e
000003e0: 89d4 0d3e 8f89 143e 0c0e 823e eb02 813e
000003f0: 87bc 05be add9 74bc 27d2 133d 8fef 38bd

network_body._body_endoder.seq_layers.0.bias f4 [64]
-0.027313337 0.020695304 -0.04320807 0.07109749 0.059529964 -0.040741242 0.06936021 -0.020027472
0.033576775 0.043456048 -0.00673883 0.026225518 -0.0469789 0.044749193 0.018905705 0.023657477
-0.06230863 0.022227872 -0.0052022925 -0.0214873 -0.0069949697 -0.066115506 0.036232598 -0.0045487294
-0.042723954 0.03394054 -0.00665025 -0.02289487 -0.018046966 -0.034646355 -0.03760562 0.028589962
0.0187572 -0.0123942 -0.00229261 0.07045152 0.04845436 -0.0847037 0.038706258 -0.028281048
0.0037483254 -0.01263731 0.035277907 0.028011147 0.057275392 0.031414844 0.042027216 0.04957773
0.036229562 -0.044741474 0.0017311267 0.09195467 0.02869393 -0.046840932 -0.008151884 -0.050070737
0.054655563 -0.091854006 0.034393743 -0.022583453 -0.049810134 0.054317012 0.0049398616 0.023159815
00000000: 38c0 dfbc 3389 a93c f2fa 30bd 909b 913d
00000010: b1d5 733d 4ae0 26bd ba0c 8e3d a710 a4bc
00000020: cd87 093d f8fe 313d 67d1 dcbb e6d6 d63c
00000030: f26c 40bd ee4a 373d 23e0 9a3c 53cd c13c
00000040: 5637 7fbd 3a17 b63c fe77 aabb 2206 b0bc
00000050: 0f36 e5bb 9167 87bd a268 143d 820d 95bb
00000060: 50ff 2ebd 3c05 0b3d 57ea d9bb 068e bbbc
00000070: 3bd7 93bc 56e9 0dbd 5a08 1abd 7f35 ea3c
00000080: b3a8 993c 0b11 4bbc 9d3f 16bb e348 903d
00000090: 1478 463d 2279 adbd 748a 1e3d a8ad e7bc
000000a0: 77a6 753b b80c 4fbc 917f 103d a277 e53c
000000b0: 9a99 6a3d daac 003d bb24 2c3d 0512 4b3d
000000c0: 7365 143d d642 37bd f9e6 e23a bb52 bc3d
000000d0: 880f eb3c 47dc 3fbd 7b8f 05bc f916 4dbd
000000e0: 83de 5f3d f41d bcbd 74e0 0c3d ef00 b9bc
000000f0: b605 4cbd 847b 5e3d 90de a13b a7b9 bd3c

network_body._body_endoder.seq_layers.2.weight f4 [64, 64]
0.030595511 0.1954876 0.060796697 0.06865091 0.019874815 -0.002561974 -0.06686472 -0.18660872
0.07657708 0.06541086 -0.23737018 -0.36629203 0.24615666 0.29003102 -0.025116574 -0.034514163
-0.08868383 0.11321014 -0.43383393 -0.105639 -0.018534424 -0.057097018 -0.17000154 -0.096472226
0.0067745512 0.33331722 0.120026276 -0.050513722 0.25929874 0.15265541 -0.38147944 0.11218987
0.110931 0.048609704 0.10214892 -0.031512197 0.09178787 -0.08897722 -0.010653077 0.32371762
0.19007573 -0.09270949 0.019882737 -0.07107753 0.10780416 0.064336896 -0.1105032 -0.10035951
-0.16099454 -0.080502085 0.22457968 0.35505944 0.0024298127 -0.0002767689 0.20295353 0.061994694
-0.0077779084 0.012245633 -0.017461488 -0.059363212 -0.13054991 -0.06346671 0.09289806 -0.12497504
-0.06864109 -0.11213923 -0.015259355 0.1356435 -0.017812964 -0.12850006 0.22907598 -0.2949336
0.10080287 0.28232378 0.22478734 -0.074554324 0.19981226 0.060925476 -0.19949572 -0.16482857
0.005112728 -0.3588849 -0.113364264 -0.044681 0.070171595 -0.10635679 0.14220996 0.2851965
-0.018917648 -0.110141784 -0.20854744 0.1261113 -0.058007088 -0.13622475 0.12558657 0.0045760144
-0.35622618 -0.007168417 -0.22542591 -0.017388811 -0.07916565 -0.17989211 -0.123568006 -0.13737985
-0.13101907 0.20276675 -0.12049455 -0.22350076 -0.07735776 0.14413732 0.18674894 0.18722194
0.093445584 0.04874776 -0.33264235 0.29842073 -0.113383755 0.2130045 -0.078154065 -0.06915804
-0.15175621 -0.073082104 0.2317076 0.10937149 -0.06938282 0.034225482 0.2685725 0.03200188
-0.15554996 0.16564527 0.089757435 0.19083667 -0.08730819 -0.11388703 -0.10815427 -0.10308389
-0.016750326 -0.1308452 0.03329621 -0.24348263 -0.10869525 0.05015032 0.10262968 0.16576077
0.0058620665 0.05508616 0.10355057 0.058832258 -0.10213309 0.049296495 -0.044239752 -0.039767064
-0.42053643 -0.30510232 -0.20405364 0.086070724 -0.10618984 0.15325287 -0.040669944 0.01691228
-0.040632732 0.14934243 -0.07530077 -0.23607963 0.1427576 -0.19979177 0.37287128 0.009918594
-0.0021366738 0.33126867 -0.04904535 -0.058266617 0.28776905 -0.009504651 -0.111622415 -0.14353988
0.107257925 -0.30126116 -0.021494796 0.009714265 -0.09803404 0.056134596 0.1406662 -0.13643882
-0.08548083 0.02171251 -0.13731137 0.08774043 0.08023308 0.12723608 -0.07125431 -0.15762186
-0.19365272 0.18040843 -0.12843366 0.048011605 0.044010404 -0.0011359969 0.0913701 -0.051235426
-0.045258034 0.24600731 0.0066792076 0.11971531 -0.0151685625 -0.121229924 -0.037283927 -0.042703148
-0.038923778 -0.034797795 0.03422763 -0.027960122 -0.3737544 -0.29317585 0.1028591 0.11004595
-0.08902552 0.13459054 -0.096105695 0.047879454 0.13005014 -0.071789496 0.13805854 0.04020344
-0.0475724 -0.0411416 -0.26218906 0.073822245 -0.24519311 0.05473365 -0.04909684 0.42361948
0.05517673 -0.11478028 0.2978069 -0.14006129 -0.0025785107 -0.1153037 0.010546762 0.21154144
-0.06653587 0.015007157 0.21996425 0.3787229 0.06885213 0.17747483 0.17490368 0.1831022
0.060197175 -0.14664817 -0.18010391 0.12505382 -0.072651535 -0.16552098 0.1529224 0.20185372
00000000: 70a3 fa3c e72d 483e f505 793d d998 8c3d
00000010: 82d0 a23c cbe6 27bb 5ff0 88bd 5b16 3fbe
00000020: 72d4 9c3d 21f6 853d 2b11 73be a18a bbbe
00000030: 7e10 7c3e f27e 943e 46c1 cdbc b95e 0dbd
00000040: de9f b5bd b8da e73d 7b1f debe 4359 d8bd
00000050: 81d5 97bc 90de 69bd e214 2ebe 3b93 c5bd
00000060: 0efd dd3b 8ea8 aa3e 56d0 f53d 7ae7 4ebd
00000070: cec2 843e b351 1c3e 4651 c3be cdc3 e53d
00000080: cb2f e33d f81a 473d 7433 d13d ef12 01bd
00000090: 47fb bb3d b039 b6bd 3e8a 2ebc 51be a53e
000000a0: 36a3 423e 79de bdbd 1fe1 a23c 1991 91bd
000000b0: 6dc8 dc3d 10c3 833d 804f e2bd 4989 cdbd
000000c0: c1db 24be 47de a4bd 37f8 653e 5aca b53e
000000d0: 7e3d 1f3b 4b1b 91b9 0dd3 4f3e 26ee 7d3d
000000e0: d3dd febb e8a1 483c 650b 8fbc d726 73bd
000000f0: e0ae 05be d6fa 81bd 5741 be3d eaf2 ffbd
00000100: b393 8cbd 41a9 e5bd 6002 7abc 21e6 0a3e
00000110: 7eec 91bc 8595 03be e592 6a3e 8901 97be
00000120: bc71 ce3d be8c 903e a72e 663e f0af 98bd
00000130: 969b 4c3e fe8c 793d 9b48 4cbe d2c8 28be
00000140: ac88 a73b c3bf b7be 862b e8bd 6d03 37bd
00000150: 20b6 8f3d 97d1 d9bd 7d9f 113e 4705 923e
00000160: 2ff9 9abc 0492 e1bd 768d 55be 5223 013e
00000170: d798 6dbd 807e 0bbe c499 003e 64f2 953b
00000180: 4763 b6be 0ae5 eabb 0dd6 66be fb72 8ebc
00000190: 9a21 a2bd a335 38be 3911 fdbd 4ead 0cbe
000001a0: dd29 06be 16a2 4f3e d9c5 f6bd 62dd 64be
000001b0: bf6d 9ebd bc98 133e 1d3b 3f3e 1cb7 3f3e
000001c0: 6660 bf3d bbab 473d 1950 aabe 9aca 983e
000001d0: be35 e8bd da1d 5a3e 3d0f a0bd bba2 8dbd
000001e0: fb65 1bbe 12ac 95bd c244 6d3e 29fe df3d
000001f0: 9418 8ebd 0530 0c3d 5682 893e 6714 033d
00000200: 7d48 1fbe ea9e 293e bfd2 b73d b06a 433e
00000210: a3ce b2bd 9a3d e9bd fc7f ddbd a61d d3bd
00000220: fb37 89bc 49fc 05be 9b61 083d 8353 79be
00000230: 9d9b debd 6c6a 4d3d 822f d23d 31bd 293e
00000240: 9416 c03b 06a2 613d 5212 d43d 18fa 703d
00000250: 272b d1bd 1feb 493d be34 35bd cae2 22bd
00000260: 8d50 d7be 5f36 9cbe 70f3 50be d945 b03d
00000270: 0f7a d9bd 52ee 1c3e 8795 26bd 9f8b 8a3c
00000280: 826e 26bd 39ed 183e 4a37 9abd dcbe 71be
00000290: 0c2f 123e 3796 4cbe fce8 be3e 9981 223c
000002a0: 7007 0cbb 0c9c a93e c7e3 48bd faa8 6ebd
000002b0: 7756 933e 65b9 1bbc 4b9a e4bd 1efc 12be
000002c0: 0baa db3d e73e 9abe db15 b0bc 9528 1f3c
000002d0: 12c6 c8bd 64ed 653d cd0a 103e 9eb6 0bbe
000002e0: 9310 afbd 6fde b13c 5a9b 0cbe 41b1 b33d
000002f0: 3e51 a43d 2d4a 023e c8ed 91bd a067 21be
00000300: e64c 46be fdbc 383e 1d84 03be d1a7 443d
00000310: 4144 343d bbe5 94ba 3f20 bb3d 3ddc 51bd
00000320: 7d60 39bd 57e9 7b3e 41dd da3b 4d2d f53d
00000330: 9085 78bc 6547 f8bd 08b7 18bd 7fe9 2ebd
00000340: 8a6e 1fbd 2288 0ebd 4532 0c3d a00c e5bc
00000350: bd5c bfbe 251b 96be cba7 d23d c55f e13d
00000360: 0353 b6bd 1ad2 093e 10d3 c4bd 3f1d 443d
00000370: dd2b 053e 5f06 93bd 385f 0d3e 5dac 243d
00000380: 47db 42bd 1884 28bd a53d 86be 1e30 973d
00000390: e713 7bbe 6430 603d c519 49bd a7e4 d83e
000003a0: ff00 623d ec11 ebbd 257a 983e 3a6c 0fbe
000003b0: 3bfc 28bb 5924 ecbd 53cc 2c3c 529e 583e
000003c0: f543 88bd 94e0 753c 4f3e 613e f8e7 c13e
000003d0: 5802 8d3d f6bb 353e f319 333e 257f 3b3e
000003e0: 5091 763d f02a 16be 296d 38be 1c0e 003e
000003f0: 54ca 94bd 557e 29be b197 1c3e beb2 4e3e

network_body._body_endoder.seq_layers.2.bias f4 [64]
-0.026952066 0.024983726 0.038929865 -0.05672794 0.004733852 0.092602335 0.018374303 0.0013633767
-0.0653003 -0.020106759 0.018003892 0.039481964 -0.024931764 0.05570095 0.018839162 -0.028945904
0.06891936 0.016967503 0.007883685 -0.027656125 0.02073212 0.022479348 -0.023824636 -0.07282318
0.01785136 0.00591738 -0.015988993 -0.029349012 -0.019011296 0.049934246 0.0013171006 0.059935987
0.017939467 -0.043889794 0.01840295 0.022397595 0.041181173 -0.030382862 0.05820435 0.0030557236
-0.0036472743 -0.06613321 0.08436126 0.007877503 0.027485276 0.018892985 0.036586434 -0.027017025
-0.027799219 0.0008355909 -0.052195363 0.13790728 0.03233947 0.014575588 0.064656824 -0.036536675
0.017159091 -0.0011027434 0.02722601 0.0080296 -0.06435532 0.039853532 -0.032304052 -0.04652761
00000000: 94ca dcbc acaa cc3c ec74 1f3d 8e5b 68bd
00000010: 6e1e 9b3b 4ba6 bd3d b585 963c 55b3 b23a
00000020: 2abc 85bd eeb6 a4bc e67c 933c d7b7 213d
00000030: b33d ccbc ae26 643d 9654 9a3c f61f edbc
00000040: 9825 8d3d 6fff 8a3c 922a 013c 198f e2bc
00000050: 68d6 a93c 9c26 b83c e22b c3bc 5224 95bd
00000060: 043d 923c 95e6 c13b 59fb 82bc 576d f0bc
00000070: 94bd 9bbc da87 4c3d 90a2 ac3a 707f 753d
00000080: caf5 923c c9c5 33bd c9c1 963c 297b b73c
00000090: 97ad 283d 7be5 f8bc af67 6e3d 8942 483b
000000a0: 1c07 6fbb d970 87bd 99c5 ac3d a410 013c
000000b0: cd28 e13c 76c5 9a3c a8db 153d cf52 ddbc
000000c0: 30bb e3bc 8e0b 5b3a ceca 55bd 9137 0d3e
000000d0: 6476 043d 72ce 6e3c cc6a 843d 7ba7 15bd
000000e0: 3991 8c3c ee89 90ba 1509 df3c 958e 033c
000000f0: b9cc 83bd 753d 233d 4151 04bd bc93 3ebd

network_body._body_endoder.seq_layers.4.weight f4 [64, 64]
-0.08392696 0.06654421 0.24582058 -0.2280596 -0.19806592 -0.15702716 0.21306397 0.020812053
-0.21816248 -0.12734976 0.14485627 0.014672223 0.08438425 -0.09349628 -0.2689201 -0.026752288
0.14324634 -0.13262486 0.015025913 -0.031313702 0.15713139 -0.035143092 -0.04985987 0.060993385
-0.36990815 -0.109075315 0.21158007 0.059079133 -0.3505086 0.10157242 0.08559737 0.059392728
-0.21868853 -0.11854153 0.05810128 0.2203035 0.16561255 0.02374381 0.13150397 -0.019594016
-0.19735207 -0.25370675 0.043178037 -0.21556845 -0.19304754 -0.028369386 -0.011124023 0.18238068
-0.032234702 0.12051878 0.1180605 -0.15125589 0.107387945 -0.21854882 -0.030432217 0.04850206
0.23358202 -0.016472489 -0.1963161 0.21355864 -0.16458333 0.27779365 0.021653105 0.27757344
-0.20829569 0.044444792 0.3898241 -0.29300115 -0.17197488 -0.07842091 -0.09595681 -0.030505065
-0.20611256 0.052072376 0.0027987147 -0.13078085 -0.048351202 0.04502598 0.26979268 0.09917429
-0.08367279 0.15407737 -0.15901609 0.24996977 0.10129873 -0.056527194 -0.15280691 -0.22453769
0.16791603 0.16130169 -0.11937276 -0.14716366 -0.2849208 -0.041155778 -0.2402996 -0.061418876
0.0746191 -0.11306195 -0.4607716 -0.0486014 0.25433674 -0.1516973 0.054674845 0.17473057
0.1417714 -0.019945858 -0.18928306 -0.11634965 0.020378904 0.07935514 -0.1087069 0.1017272
-0.13836655 -0.039369658 -0.12822106 -0.21250683 -0.07432111 0.18625644 0.025340362 0.050775163
0.0037705314 -0.012851343 -0.14171366 -0.21092705 -0.012130249 0.11592708 -0.2021926 0.06523834
-0.04335376 0.11747362 -0.08201251 0.11947895 -0.14134653 -0.2615539 0.01671868 0.32923746
0.14589384 0.054595254 0.19933945 -0.11462789 -0.21467441 -0.050496303 0.08630661 -0.039610617
-0.20076494 0.16507892 0.19915435 0.019215604 -0.16941588 0.09095844 -0.039885104 0.009275167
0.08149529 -0.12877144 0.21505286 0.03517878 -0.21352468 -0.16176666 -0.05781045 0.18160035
-0.39294198 0.107449904 0.050257094 0.21978751 -0.106480576 0.01597199 0.20596327 -0.29522252
0.12118415 0.17197706 -0.039121233 -0.17006361 -0.171071 -0.050686754 0.08272434 0.08784142
-0.017284745 0.12747861 -0.11031614 -0.27592483 -0.20254494 -0.3145991 0.091612585 0.2611505
-0.15936711 0.0707449 -0.20924073 -0.09501566 0.04037169 -0.23373486 0.06338462 -0.002134633
-0.19232783 0.24893032 0.027569428 -0.1659235 -0.09147233 -0.003483116 0.26861873 -0.10985351
0.048253212 -0.06189336 -0.12336298 0.11414957 -0.037680957 0.057157576 -0.18907547 -0.029080454
-0.09662653 0.034562867 -0.055056326 -0.21303944 -0.12084257 -0.016311526 -0.17916088 -0.16395053
0.33829382 -0.03933369 -0.21699078 -0.0047034225 0.079533905 -0.45920178 0.008381463 0.15192989
0.35509506 -0.21393798 0.06770557 0.1358111 0.11048622 -0.11116554 0.21436045 0.10280307
0.13672477 -0.33806896 0.11550869 -0.32585266 -0.027410079 0.08805004 -0.35570753 -0.035256553
-0.15177833 0.1281228 -0.07224098 0.061718054 0.0071704066 -0.14880362 0.12342212 -0.17613736
0.14072876 0.10611728 -0.0625405 -0.11005766 -0.16285737 0.21149023 -0.31652123 0.018752242
00000000: e6e1 abbd 5548 883d 64b8 7b3e 7588 69be
00000010: cbd1 4abe bacb 20be 712d 5a3e 0a7e aa3c
00000020: fc65 5fbe fa67 02be 3455 143e c363 703c
00000030: a6d1 ac3d fa7a bfbd e5af 89be 9d27 dbbc
00000040: 2baf 123e d0ce 07be 3f2f 763c cc42 00bd
00000050: 0de7 203e 34f2 0fbd dd39 4cbd 33d4 793d
00000060: 9a64 bdbe e162 dfbd 72a8 583e f6fc 713d
00000070: dd75 b3be 3305 d03d ad4d af3d ca45 733d
00000080: e3ef 5fbe e7c5 f2bd 9cfb 6d3d 3e97 613e
00000090: 5696 293e 6182 c23c faa8 063e a183 a0bc
000000a0: a916 4abe dae5 81be 74db 303d fabd 5cbe
000000b0: 41ae 45be ea66 e8bc 8941 36bc 00c2 3a3e
000000c0: 8908 04bd 8dd2 f63d b4c9 f13d d3e2 1abe
000000d0: 36ee db3d 43cb 5fbe fc4c f9bc 19aa 463d
000000e0: 2030 6f3e 50f1 86bc 1607 49be 1eaf 5a3e
000000f0: 8888 28be f83a 8e3e da61 b13c 1b1e 8e3e
00000100: 774b 55be be0b 363d 0697 c73e 3f04 96be
00000110: 2f1a 30be 249b a0bd 0185 c4bd c2e5 f9bc
00000120: 2c0f 53be d849 553d a46a 373b 6aeb 05be
00000130: e90b 46bd 296d 383d 4422 8a3e e41b cb3d
00000140: a45c abbd 75c6 1d3e 1dd5 22be 13f8 7f3e
00000150: b575 cf3d 0f89 67bd 6a79 1cbe 35ed 65be
00000160: 2ef2 2b3e 452c 253e b579 f4bd 12b2 16be
00000170: 24e1 91be f692 28bd 1911 76be 5c92 7bbd
00000180: e6d1 983d 068d e7bd 41ea ebbe 4312 47bd
00000190: 6d38 823e 8956 1bbe bbf2 5f3d 92ec 323e
000001a0: 862c 113e 7f65 a3bc 6bd3 41be ba48 eebd
000001b0: a9f1 a63c f384 a23d b9a1 debd 5a56 d03d
000001c0: f6af 0dbe 1442 21bd 624c 03be 649b 59be
000001d0: ab35 98bd 02ba 3e3e 9796 cf3c 9ef9 4f3d
000001e0: 051b 773b 708e 52bc 631d 11be 43fd 57be
000001f0: f4bd 46bc 2d6b ed3d 940b 4fbe ae9b 853d
00000200: b693 31bd 0296 f03d 2df6 a7bd 61b1 f43d
00000210: 25bd 10be 65ea 85be 9df5 883c d091 a83e
00000220: 3265 153e 469f 5f3d a41f 4c3e 07c2 eabd
00000230: 9cd3 5bbe 36d5 4ebd 85c1 b03d be3e 22bd
00000240: 5395 4dbe 730a 293e 1eef 4b3e 0b6a 9d3c
00000250: 5b7b 2dbe 6b48 ba3d 905e 23bd dff6 173c
00000260: 01e7 a63d a9dc 03be d136 5c3e a017 103d
00000270: 37a6 5abe 29a6 25be a7ca 6cbd 71f5 393e
00000280: b12f c9be b20e dc3d 62da 4d3d fa0f 613e
00000290: 7d12 dabd b1d7 823c 09e8 523e 6827 97be
000002a0: 652f f83d c11a 303e 963d 20bd 2825 2ebe
000002b0: 3c2d 2fbe ea9c 4fbd 616b a93d 34e6 b33d
000002c0: bd98 8dbc c189 023e 6eed e1bd 0546 8dbe
000002d0: f167 4fbe 2213 a1be 619f bb3d 85b5 853e
000002e0: 2231 23be b4e2 903d 3443 56be 9297 c2bd
000002f0: c95c 253d 3158 6fbe cccf 813d 33e5 0bbb
00000300: 96f1 44be 97e7 7e3e 48d9 e13c dae7 29be
00000310: d855 bbbd fd44 64bb 6588 893e e1fa e0bd
00000320: 29a5 453d e483 7dbd bba5 fcbd 40c7 e93d
00000330: 5957 1abd 101e 6a3d 009d 41be 223a eebc
00000340: 21e4 c5bd cb91 0d3d be82 61bd 0327 5abe
00000350: 4f7c f7bd c09f 85bc f375 37be a6e2 27be
00000360: d934 ad3e 5d1c 21bd d532 5ebe 2b1f 9abb
00000370: ace2 a23d 7f1c ebbe 6752 093c 8293 1b3e
00000380: 05cf b53e 8f12 5bbe 38a9 8a3d 1112 0b3e
00000390: 9946 e23d c2aa e3bd 4e81 5b3e 6a8a d23d
000003a0: 9401 0c3e 6017 adbe d28f ec3d 29d6 a6be
000003b0: 1a8b e0bc 9453 b43d 4c1f b6be 2d69 10bd
000003c0: c76b 1bbe a032 033e 14f3 93bd 12cc 7c3d
000003d0: bbf5 ea3b fa5f 18be bdc4 fc3d 5a5d 34be
000003e0: 331b 103e 0454 d93d 3c15 80bd e965 e1bd
000003f0: 15c4 26be e590 583e 120f a2be 4d9e 993c

network_body._body_endoder.seq_layers.4.bias f4 [64]
0.083010614 0.011953352 0.06705945 0.08766794 -0.02554141 0.044639528 0.0419508 0.030976279
-0.12356004 0.1005167 -0.0019023959 -0.014368245 0.07819274 -0.029770676 -0.017971369 0.07350601
-0.10689111 0.04884214 0.0017282432 -0.01595185 0.02794435 0.032052588 0.082272954 0.0052786875
-0.017228808 -0.034054674 0.005930391 0.10050848 -0.01638475 -0.008600025 -0.012972901 -0.0081993705
-0.035603836 0.0125047825 0.03186599 0.08515218 0.10088758 0.08773601 -0.008793857 0.07246463
-0.055554044 0.012745507 0.05311356 0.06391848 0.021370135 0.0646559 0.014354673 0.10138869
-0.015926886 0.02478059 0.057222757 -0.19716881 0.05284321 0.043330833 0.07580799 -0.0110756885
-0.07359274 -0.016019043 0.053504687 0.08742021 0.039773747 0.08110353 0.083644085 0.059552718
00000000: 7801 aa3d fed7 433c 7756 893d 408b b33d
00000010: 383c d1bc f0d7 363d 9ad4 2b3d f7c1 fd3c
00000020: 0c0d fdbd b3db cd3d d059 f9ba ca68 6bbc
00000030: 8423 a03d a2e1 f3bc b138 93bc 528a 963d
00000040: bae9 dabd b20e 483d 3886 e23a 74ad 82bc
00000050: 8deb e43c 9349 033d b97e a83d d7f8 ac3b
00000060: 6e23 8dbc ea7c 0bbd ba53 c23b 64d7 cd3d
00000070: 5039 86bc 1fe7 0cbc 4a8c 54bc a756 06bc
00000080: 54d5 11bd dce0 4c3c ea85 023d 4464 ae3d
00000090: 269e ce3d f0ae b33d 1c14 10bc 5668 943d
000000a0: a38c 63bd 88d2 503c 9b8d 593d b1e7 823d
000000b0: 6c10 af3c 506a 843d dd2f 6b3c e0a4 cf3d
000000c0: 1a79 82bc aa00 cb3c 6962 6a3d 9fe6 49be
000000d0: 1f72 583d ac7b 313d 3841 9b3d ce76 35bc
000000e0: cab7 96bd 5e3a 83bc bb27 5b3d 5e09 b33d
000000f0: cce9 223d 9c19 a63d 974d ab3d 8ded 733d

action_model._continuous_distribution.log_sigma f4 [1, 44]
0.05770256 -0.049045403 0.29037338 0.041478053 0.20793577 0.3460248 0.11815646 0.31598324
0.046402287 0.1729132 0.2761886 0.17225815 0.07004065 0.18470669 0.015168059 0.06340398
0.13269722 0.17674734 0.009318328 0.116672695 -0.00067279674 -0.0308475 0.116826646 0.1276174
0.11291709 0.10691571 0.07995415 0.062660776 0.12044956 0.21232963 -0.041963656 0.27472946
0.1469365 0.075877406 0.035946526 0.090068005 0.11468483 0.17834179 0.066664204 0.30366752
0.011898357 0.24351193 0.27337646 0.120852195
00000000: 8559 6c3d d5e3 48bd d2ab 943e e4e4 293d
00000010: 1ded 543e 2a2a b13e 04fc f13d 8ec8 a13e
00000020: 5310 3e3d 2810 313e 9868 8d3e 7164 303e
00000030: 7971 8f3d c023 3d3e 7383 783c f2d9 813d
00000040: c8e1 073e 41fd 343e e7ab 183c 18f2 ee3d
00000050: a05e 30ba e5b3 fcbc cf42 ef3d 23ae 023e
00000060: 1341 e73d a0f6 da3d 00bf a33d 4b54 803d
00000070: 42ae f63d f06c 593e 15e2 2bbd 57a9 8c3e
00000080: 8676 163e 9d65 9b3d aa3c 133d 9375 b83d
00000090: e1df ea3d 3b9f 363e 3e87 883d 4f7a 9b3e
000000a0: 54f1 423c 315b 793e 00f8 8b3e 5b81 f73d

action_model._continuous_distribution.mu.weight f4 [44, 64]
-0.093344994 0.13509695 0.12826689 -0.004915201 0.11495042 0.11034973 -0.12404084 0.1593699
-0.09512738 0.15617146 -0.018246165 0.028442947 0.010183557 -0.12261573 -0.1339572 -0.03024327
0.062281422 -0.15915357 0.044885654 0.014112291 -0.043561313 -0.08733241 0.03823756 0.023072172
-0.04355952 0.08831842 0.107983254 -0.07231381 0.06836585 -0.042210117 0.084108055 0.033861008
-0.0790907 -0.07915174 0.14643386 -0.09797557 -0.1852639 0.02582093 0.09892603 -0.09380761
-0.063833214 0.028571973 -0.064094886 0.018883355 0.039277766 -0.06764084 0.016652377 -0.028377464
0.044265695 0.024822718 0.0038496417 0.08838833 0.03907402 0.03876688 -0.06921088 -0.019971067
-0.0053017377 0.0104066115 0.06089678 0.17355703 0.056375112 0.05592223 0.13471615 0.13767071
0.06663514 -0.10089954 -0.042394385 0.04612831 0.09545807 0.011970582 -0.08393527 0.065146275
0.13398919 0.119929604 0.14377575 0.075623654 -0.073508166 0.021829342 -0.021533603 0.043010555
-0.051902235 0.06581833 -0.18623877 0.082682244 -0.12385765 -0.0574603 0.12155052 -0.059384163
-0.042630758 0.043488596 0.049968142 -0.031778596 -0.14124414 -0.07298378 0.03306363 -0.00048876007
0.14178279 0.060997747 -0.15294755 -0.1049222 -0.065913655 0.035184335 -0.033245318 -0.052459005
0.02081155 -0.07172732 0.023588989 0.07664947 0.07140874 0.045435462 0.080027364 0.039300352
0.11126577 -0.062068246 -0.011214865 -0.1305932 -0.15690309 0.011982404 -0.021885734 -0.07439072
0.07386429 -0.0243531 0.006831797 0.018020254 0.0066714725 0.08747011 0.13826343 -0.06047268
0.041623786 -0.015247802 0.1888261 0.054690488 0.087883525 -0.09223013 -0.044347987 0.049852435
0.048139274 -0.101813614 0.005140688 0.029657668 0.1068352 0.0072325617 -0.03407273 -0.064612485
-0.07021878 0.16796854 0.11013035 0.046127114 0.022609558 -0.0086170435 0.14017737 0.018835627
-0.11053574 -0.05776205 -0.0848194 0.041108884 -0.06537688 0.02206918 0.014249028 -0.058981333
-0.14553766 -0.1307504 -0.0082608 -0.108048916 -0.116277225 0.05373815 -0.15189205 0.049279913
-0.12770623 -0.038922455 0.122515276 -0.2221991 -0.07404421 -0.1806489 0.11400459 -0.041926578
0.025270399 -0.047491726 0.17244613 0.09212422 -0.13448073 0.114184655 0.02257097 -0.0658169
-0.063583165 -0.0012952179 -0.026622925 0.043952625 -0.13730432 0.030095886 0.06653819 0.048999105
0.14419404 -0.1054933 0.0006395082 0.1521619 -0.13020946 -0.04247218 0.15960766 -0.048297178
0.07148318 0.102952704 0.012125004 -0.05879772 0.021818206 0.044132516 -0.095036454 0.040598262
-0.110488266 0.00987693 -0.08912883 -0.13629314 -0.0069839996 -0.081897095 0.082105696 -0.010795506
0.06806899 -0.10984025 -0.16866834 -0.18420535 -0.015312725 -0.0058874055 0.020864395 0.029877735
-0.13088936 0.020132937 -0.14568423 0.036988832 -0.04474605 0.12799479 0.04591265 -0.043943867
0.014771855 -0.019981083 0.02188607 0.031978816 -0.08266779 -0.012784731 -0.012049957 -0.008909472
0.03597868 0.047988992 0.04665848 -0.07918184 0.044490263 0.047940124 -0.087450124 0.0549268
0.024817824 -0.015511286 -0.028787825 0.008586973 -0.030020835 0.022993326 -0.115591176 0.07149238
00000000: a92b bfbd db56 0a3e 6558 033e b20f a1bb
00000010: 206b eb3d 0aff e13d 2009 febd dd31 233e
00000020: 25d2 c2bd 69eb 1f3e fb78 95bc 2f01 e93c
00000030: efd8 263c f51d fbbd 142c 09be bcc0 f7bc
00000040: ce1a 7f3d 27f9 22be 05da 373d 3d37 673c
00000050: 596d 32bd 56db b2bd fd9e 1c3d da01 bd3c
00000060: 786b 32bd 4ae0 b43d 5326 dd3d 4319 94bd
00000070: 6503 8c3d 84e4 2cbd d840 ac3d d7b1 0a3d
00000080: 4efa a1bd 4f1a a2bd c2f2 153e 6aa7 c8bd
00000090: d2b5 3dbe 6a86 d33c bb99 ca3d 341e c0bd
000000a0: fdba 82bd c50f ea3c 2e44 83bd 44b1 9a3c
000000b0: b9e1 203d 4887 8abd 916a 883c db77 e8bc
000000c0: f24f 353d 0359 cb3c 454a 7c3b f104 b53d
000000d0: 140c 203d 05ca 1e3d 6fbe 8dbd 5d9a a3bc
000000e0: 33ba adbb 7e80 2a3c e76e 793d efb8 313e
000000f0: 97e9 663d b50e 653d 08f3 093e 8df9 0c3e
00000100: 0178 883d 6ba4 cebd bca5 2dbd 0af1 3c3d
00000110: 857f c33d 4320 443c 41e6 abbd 696b 853d
00000120: 7634 093e a79d f53d f339 133e 93e0 9a3d
00000130: 738b 96bd 73d3 b23c 3d67 b0bc d62b 303d
00000140: 7097 54bd c3cb 863d 60b5 3ebe 4f55 a93d
00000150: 14a9 fdbd 7e5b 6bbd 7bef f83d cf3c 73bd
00000160: 979d 2ebd 1921 323d 65ab 4c3d 462a 02bd
00000170: 4ea2 10be 8578 95bd bb6d 073d 2220 00ba
00000180: 822f 113e c6d8 793d 489e 1cbe 73e1 d6bd
00000190: bdfd 86bd 731d 103d 3e2c 08bd 41df 56bd
000001a0: fc7c aa3c c6e5 92bd b23d c13c 66fa 9c3d
000001b0: bf3e 923d 891a 3a3d 63e5 a33d 68f9 203d
000001c0: 4fdf e33d 463b 7ebd 8ebe 37bc 39ba 05be
000001d0: 34ab 20be d851 443c b649 b3bc 295a 98bd
000001e0: 2946 973d 2780 c7bc 44dd df3b 369f 933c
000001f0: 5e9c da3b 8723 b33d ee94 0d3e 33b2 77bd
00000200: b47d 2a3d ebd1 79bc a15b 413e 2203 603d
00000210: 47fc b33d 27e3 bcbd 3ca6 35bd 1132 4c3d
00000220: b02d 453d a883 d0bd 3773 a83b a3f4 f23c
00000230: 6acc da3d 20ff ec3b d98f 0bbd 8d53 84bd
00000240: ddce 8fbd f2ff 2b3e 058c e13d c9ef 3c3d
00000250: ae37 b93c 802e 0dbc a88a 0f3e 2c4d 9a3c
00000260: 9060 e2bd e697 6cbd cbb5 adbd ca61 283d
00000270: 50e4 85bd 6dca b43c c174 693c 6996 71bd
00000280: d307 15be 6fe3 05be 4e58 07bc c048 ddbd
00000290: c122 eebd 891c 5c3d 9789 1bbe bcd9 493d
000002a0: 6cc5 02be 276d 1fbd 4ae9 fa3d 2988 63be
000002b0: 7ea4 97bd 06fc 38be 3d7b e93d 34bb 2bbd
000002c0: de03 cf3c af86 42bd b895 303e a0ab bc3d
000002d0: 51b5 09be a5d9 e93d c1e6 b83c 03cb 86bd
000002e0: e437 82bd 4dc4 a9ba 5218 dabc ab07 343d
000002f0: 8199 0cbe a68b f63c 2d45 883d 49b3 483d
00000300: 9aa7 133e df0c d8bd aba4 273a 54d0 1b3e
00000310: a155 05be 4ff7 2dbd 3170 233e 43d3 45bd
00000320: c665 923d ded8 d23d f4a7 463c e1d5 70bd
00000330: 18bc b23c 4cc4 343d 79a2 c2bd 5d4a 263d
00000340: ac47 e2bd d9d2 213c 2d89 b6bd 6e90 0bbe
00000350: 09da e4bb aab9 a7bd 0827 a83d a2df 30bc
00000360: c167 8b3d edf3 e0bd 65b7 2cbe 54a0 3cbe
00000370: 39e2 7abc 23eb c0bb cfeb aa3c 27c2 f43c
00000380: dc07 06be d4ed a43c 3f2e 15be 9a81 173d
00000390: a247 37bd 1111 033e e70e 3c3d 7cfe 33bd
000003a0: a705 723c 5eaf a3bc 6a4a b33c 38fc 023d
000003b0: bb4d a9bd 0c77 51bc 2f6d 45bc 09f9 11bc
000003c0: 615e 133d 1b90 443d f61c 3f3d 172a a2bd
000003d0: 6c3b 363d dd5c 443d 0d19 b3bd edfa 603d
000003e0: c04e cb3c 0d23 7ebc 72d4 ebbc 60b0 0c3c
000003f0: 41ee f5bc 805c bc3c 11bb ecbd 996a 923d

action_model._continuous_distribution.mu.bias f4 [44]
-0.014249786 0.03595309 -0.036245193 0.08243626 0.042693976 -0.014775384 -0.16123135 -0.005759254
0.107769035 0.07087368 0.06293219 0.004404495 0.012160064 -0.044071153 0.011885534 0.011715861
-0.0303958 -0.043723818 0.03545665 -0.011318504 -0.011456208 -0.056519434 -0.11229033 0.02247107
-0.079528175 -0.01411906 -0.12787257 -0.08614412 -0.04068517 0.033060916 0.04755404 -0.041780803
0.08312421 7.160418e-05 0.06518407 -0.023317121 -0.0041812006 -0.0024893787 0.005200497 -0.04803395
0.0383009 0.030471418 0.027481116 -0.024454726
00000000: ef77 69bc 8c43 133d d775 14bd 58d4 a83d
00000010: e1df 2e3d 7414 72bc d519 25be 20b8 bcbb
00000020: 03b6 dc3d 3826 913d 98e2 803d 9553 903b
00000030: 013b 473c f483 34bd 8bbb 423c e2f3 3f3c
00000040: 9d00 f9bc bf17 33bd fe3a 113d 3f71 39bc
00000050: d2b2 3bbc ec80 67bd 79f8 e5bd 4015 b83c
00000060: abdf a2bd a153 67bc 07f1 02be 546c b0bd
00000070: 7ea5 26bd e26a 073d 06c8 423d 5922 2bbd
00000080: 073d aa3d 342a 9638 3a7f 853d 8c03 bfbc
00000090: 7402 89bb d824 23bb ee68 aa3b 3fbf 44bd
000000a0: 68e1 1c3d 329f f93c 1420 e13c 4755 c8bc
