results/b081_3_3/Dynamic Table/Dynamic Table-7199981.onnx (onnx, 74838 bytes, 9 tensors)

network_body._body_endoder.seq_layers.0.weight f4 [64, 95]
0	0xbe5820e1	-0.21106292
1	0x3dc75425	0.09732846
2	0x3e555218	0.20832098
3	0x3df6e45b	0.12055274
4	0xbe8770f0	-0.26453352
5	0x3da47fea	0.0803221
6	0x3e9efebc	0.31053722
7	0x3dd9f48b	0.10642346
8	0x3c0486fb	0.0080888225
9	0x3e9d12ab	0.30678305
10	0xbddaa792	-0.10676493
11	0xbe8178ff	-0.25287625
12	0x3e9a5b9a	0.3014801
13	0xbd1a8637	-0.037725653
14	0x3d83a8a2	0.064286485
15	0x3e84561b	0.25846943
16	0xbccff484	-0.025385149
17	0xbe30bab8	-0.17258728
18	0x3e343d5b	0.1760153
19	0x3e704ab7	0.23466001
20	0xbde5376a	-0.1119221
21	0x3e048fac	0.12945431
22	0x3e94662a	0.28984195
23	0x3e338b46	0.17533597
24	0x3d8e9b18	0.069631755
25	0xbe6ef74d	-0.23336525
26	0x3dd11c8d	0.10210524
27	0xbe9c4df4	-0.30528224
28	0x3c912993	0.01772002
29	0x3de21b9c	0.11040422
30	0x3ebbe99b	0.36701664
31	0x3df7e8d0	0.12104952
32	0xbd246571	-0.040135805
33	0x3c42fdf0	0.011901364
34	0xbe8e64ed	-0.27811375
35	0x3ead634e	0.33864826
36	0x3dbbbd98	0.091670215
37	0x3e3c345b	0.18379347
38	0xbe86af90	-0.2630582
39	0xbdf57a71	-0.119862445
40	0xbe1dc4b8	-0.15407073
41	0xbd7b49f3	-0.06134982
42	0xbd8fbfa2	-0.07018973
43	0xbe860f59	-0.26183584
44	0xbe34feeb	-0.17675368
45	0xbd6aa7b0	-0.057288826
46	0xbe192bb4	-0.14958078
47	0xbe4016ae	-0.18758652
48	0x3a2e6d89	0.0006653895
49	0x3e37e656	0.1795896
50	0xbe02fd47	-0.1279193
51	0x3dd10436	0.10205881
52	0x3cbaa1ef	0.022782294
53	0xbd05fefc	-0.032713875
54	0xbcc2a5ae	-0.023760643
55	0xbdd7e148	-0.10541016
56	0xbd1f531a	-0.03889761
57	0xbe1cf1ba	-0.15326586
58	0x3e00450e	0.12526342
59	0x3de62bdd	0.11238835
60	0x3ca4aad8	0.020100996
61	0x3c6fa6f0	0.014627203
62	0xbe499405	-0.19685371
63	0x3e2db7a2	0.16964582
64	0xbc87667c	-0.01652836
65	0xbd04d4e6	-0.0324296
66	0x3e64037a	0.22266951
67	0xbdd6d004	-0.104888946
68	0xbe2fce80	-0.17168617
69	0x3d7fcaae	0.06244915
70	0x3d2aa019	0.041656587
71	0xbd29c58f	-0.041448172
72	0x3cc9a3e5	0.024614284
73	0xbd53853f	-0.051640745
74	0xbc8596ef	-0.016307322
75	0x3d2cecc9	0.042218003
76	0x3e4142bb	0.18873112
77	0x3d9f58d9	0.07780618
78	0xbde3197f	-0.11088847
79	0xbdec7eb1	-0.11547602
80	0xbea28ebd	-0.31749526
81	0x3d0ee399	0.034885023
82	0x3c8ea5de	0.017413076
83	0x3ec2b845	0.38031211
84	0xbd89c912	-0.06727804
85	0x3d98ff82	0.07470609
86	0xbe912aca	-0.28352958
87	0xbc42ee1d	-0.011897591
88	0xbd635261	-0.055498485
89	0xbd7fa5a5	-0.06241383
90	0xbb68bba9	-0.0035512245
91	0xbc00dbc1	-0.007864893
92	0xbdd3d676	-0.103436396
93	0x3d71aba9	0.0590016
94	0xbdc75afb	-0.0973415
95	0x3ec68c8f	0.38779113
96	0x3e266f81	0.16253473
97	0xbda333d9	-0.079688735
98	0x3e7e593d	0.24838729
99	0x3e0e9258	0.13923013
100	0xbd75bf01	-0.05999661
101	0x3e91c1a3	0.28468046
102	0x3dcb1065	0.099152364
103	0xbe82b174	-0.2552601
104	0x3e3a2249	0.18177141
105	0x3e492720	0.19643831
106	0x3de1a7f5	0.110183634
107	0x3d152dad	0.036420513
108	0x3e64e074	0.22351247
109	0xbcb03257	-0.021508379
110	0xbde230da	-0.11044474
111	0xbe96b992	-0.29438454
112	0xbdfcf17d	-0.12350748
113	0xbe33332c	-0.1749999
114	0xbe2e2eb9	-0.17010011
115	0xbdd97489	-0.106179304
116	0xbdb972fc	-0.09055135
117	0xbe2759d3	-0.16342859
118	0x3e4f9d15	0.20274766
119	0x3d7f8291	0.062380377
120	0xbe2272c3	-0.1586409
121	0xbdc64422	-0.09680964
122	0xbe0709c2	-0.13187316
123	0x3d47f5fa	0.048818566
124	0xbdd34845	-0.10316519
125	0xbda24727	-0.079237275
126	0xbead0103	-0.33789834
127	0xbf088e59	-0.53342205
128	0xbdbecabc	-0.09316012
129	0x3ec03198	0.37537837
130	0x3e7e439b	0.24830477
131	0xbeb10b91	-0.34579137
132	0xbc91227b	-0.017716637
133	0x3dc0b167	0.09408837
134	0xbca1f461	-0.01976985
135	0x3e9b5dba	0.30344945
136	0x3e6c44b9	0.2307309
137	0xbbc62781	-0.0060471897
138	0xbe2bef93	-0.16790609
139	0xbe06cbff	-0.13163756
140	0x3c0e43bc	0.008683141
141	0x3d69545f	0.05696523
142	0x3d902771	0.07038773
143	0xbd263c76	-0.040585004
144	0xbd464f5d	-0.04841553
145	0x3d8f3419	0.06992359
146	0xbcde917f	-0.027168987
147	0x3d1a0c24	0.037609234
148	0xbda7436d	-0.08167157
149	0x3d546532	0.05185432
150	0xbd0ac66f	-0.033880647
151	0x3e0ec283	0.13941388
152	0xbe3c8284	-0.18409163
153	0x3c59d6e6	0.013295865
154	0xbdeb5727	-0.11491232
155	0x3e076df4	0.13225538
156	0xbe229c0d	-0.15879841
157	0xbe082081	-0.1329365
158	0x3da2b284	0.079442054
159	0x3b80e3c9	0.003933404
160	0x3c0dcabd	0.008654294
161	0xbdcf121a	-0.101108745
162	0x3c9cb9b6	0.019131523
163	0xbe8e90da	-0.27844888
164	0x3e26fe10	0.16307855
165	0xbe3ba079	-0.18322934
166	0x3e8e78b8	0.27826476
167	0xbe02e576	-0.12782845
168	0xbdb97870	-0.09056175
169	0xbea60e08	-0.3243258
170	0x3e6b12ef	0.22956441
171	0x3c247f7a	0.010040158
172	0xbd85597e	-0.0651121
173	0xbd3e5392	-0.046466418
174	0xbda91222	-0.08255412
175	0xbe7bbad3	-0.24582987
176	0x3e5a16d5	0.21297772
177	0x3dc431d3	0.09579816
178	0x3ebd2ed3	0.36949787
179	0xbdfad059	-0.122467704
180	0xbd1f3666	-0.038870238
181	0xbdbc7fb0	-0.09204042
182	0xbd42980e	-0.047508292
183	0xbe879020	-0.26477146
184	0x3e0853e9	0.13313259
185	0xbe0fbf26	-0.14037761
186	0xbde4d6f9	-0.11173815
187	0xbd591e76	-0.053007565
188	0xbe12aa36	-0.14322743
189	0xbd1c6451	-0.038181607
190	0xbd82beb0	-0.06384027
191	0xbec2ce29	-0.38047913
192	0x3e9f389d	0.3109788
193	0x3d52c5d4	0.051458195
194	0xbcd437ff	-0.025905607
195	0x3d8e87a4	0.06959465
196	0xbdc63fbd	-0.09680126
197	0xbd7f94f9	-0.06239793
198	0x3d5700ef	0.052491125
199	0xbca457c0	-0.020061374
200	0xbe2d829c	-0.16944355
201	0xbc31e5aa	-0.010857979
202	0xbd9f9ffa	-0.07794185
203	0x3eb046ca	0.34429008
204	0xbd359621	-0.044332627
205	0x3e46ccd4	0.19414073
206	0x3e80b6ca	0.25139457
207	0x3d445035	0.047928054
208	0xbe00b5e6	-0.12569389
209	0x3de754cb	0.1129547
210	0x3df50814	0.119644314
211	0x3daa3451	0.0831076
212	0x3d81023c	0.06299254
213	0xbd23cd39	-0.039990637
214	0x3e70f941	0.23532583
215	0x3e2f3516	0.17110094
216	0x3cd348dd	0.02579158
217	0x3e1c7855	0.15280278
218	0xbdcbc020	-0.09948754
219	0xbbe6937f	-0.007036626
220	0xbe252771	-0.16128327
221	0x3ca2026a	0.019776542
222	0xbe06bea9	-0.13158669
223	0xbe03cd75	-0.12871344
224	0x3e418041	0.18896581
225	0x3c3c927e	0.011509536
226	0xbeb247ed	-0.348205
227	0xbe773617	-0.24141727
228	0xbe3cd282	-0.18439677
229	0xbc49e6be	-0.01232308
230	0xbea5fbb8	-0.3241861
231	0x3cb9ab5c	0.022664718
232	0x3e132876	0.14370903
233	0xbde6302f	-0.11239659
234	0xbe98bee2	-0.29833132
235	0xbdb6ad43	-0.08919766
236	0x3b89ef73	0.004209453
237	0x3dc774d3	0.09739079
238	0x3ace5b2c	0.0015743724
239	0x3dec1e48	0.11529213
240	0x3c403a27	0.011732615
241	0x3df06473	0.11737909
242	0xbd82eee0	-0.06393218
243	0x3d24bc3f	0.040218588
244	0xbba40cb3	-0.0050063967
245	0x3e4b35ac	0.19844693
246	0xbd962387	-0.07330995
247	0x3d4ee9d8	0.05051598
248	0xbc4b8adf	-0.012423246
249	0xbd396380	-0.045260906
250	0xbe3896c7	-0.18026267
251	0x3dded9ff	0.10881423
252	0x3e138158	0.1440481
253	0x3c6a829e	0.014313368
254	0x3d2411c1	0.040055994
255	0xbe6338eb	-0.22189681

network_body._body_endoder.seq_layers.0.bias f4 [64]
0	0xbc7efa03	-0.015562537
1	0xbcde1a93	-0.027112281
2	0x3c239777	0.0099848425
3	0xbd8ff388	-0.07028872
4	0x3d72676e	0.05918067
5	0xbaecb03a	-0.0018057891
6	0x3ccf9ea3	0.025344199
7	0x3cc18de6	0.023627233
8	0x3d3f3902	0.046685226
9	0x3ce794ca	0.02826919
10	0xbc87820e	-0.016541507
11	0xbd41f660	-0.047354102
12	0x3a9eb879	0.001210942
13	0x3c665092	0.014057295
14	0xbb8dba8f	-0.004325218
15	0x3cc17623	0.023615902
16	0x3bac79ab	0.0052635274
17	0x3cf84d6b	0.030310353
18	0xbcab34a1	-0.020899119
19	0xbd2b5fab	-0.041839283
20	0xbc2b54aa	-0.010457197
21	0x3ca96791	0.020679267
22	0xbd6edd1f	-0.058316346
23	0xbd3ad289	-0.04561094
24	0xba4133be	-0.0007370076
25	0x39b22758	0.0003398012
26	0xbcf408da	-0.029789377
27	0x3cc7dc00	0.024396896
28	0x3d3b344f	0.045704182
29	0x3c3675d4	0.011136491
30	0x3d22cfcb	0.039748948
31	0x3b75993f	0.0037475375
32	0x3cbf9ac1	0.023389222
33	0x3b22fcb6	0.0024869866
34	0xbc88dc43	-0.016706591
35	0xbd0a0876	-0.033699475
36	0xbccb2573	-0.02479813
37	0xbc5c9e79	-0.013465517
38	0x3d5aa316	0.053378187
39	0x3d21b87d	0.039482582
40	0x3d082bc0	0.03324485
41	0x3c7d8770	0.015474185
42	0x3cd3544a	0.025797028
43	0xbcbd1c6e	-0.023084845
44	0xbb6e358d	-0.0036347837
45	0x3ce759cb	0.028241059
46	0x3b6e541b	0.0036366049
47	0x3cae12ff	0.021249292
48	0xbc4ea2db	-0.01261207
49	0x3d0d2c26	0.03446593
50	0xbd262a11	-0.04056746
51	0xbb1e0532	-0.0024111983
52	0x3b9a29ad	0.004704675
53	0xbcd977fa	-0.026546467
54	0xbc91916d	-0.01776954
55	0x3d242e87	0.040083434
56	0x3d6ba882	0.05753375
57	0x3cd8c0d2	0.026459131
58	0x3b23c4a4	0.0024989033
59	0xbc8524f0	-0.016252965
60	0x3c528f6e	0.012851579
61	0x3c499d3a	0.012305552
62	0x3cc28616	0.023745578
63	0x3d015cf9	0.031582806

network_body._body_endoder.seq_layers.2.weight f4 [64, 64]
0	0x3e486e43	0.19573312
1	0xbd9aa055	-0.07550112
2	0x3dadfa09	0.08494956
3	0xbdf89836	-0.12138407
4	0xbe753d9b	-0.23949282
5	0xbe490401	-0.19630434
6	0xbe3becb6	-0.18352017
7	0x3e521c90	0.20518708
8	0x3e396f8c	0.18108958
9	0x3e42270f	0.18960212
10	0xbec7506a	-0.3892854
11	0x3d40eeb5	0.04710265
12	0xbd7a9cdd	-0.061184753
13	0x3cda27a1	0.026630225
14	0x3e8123d4	0.25222647
15	0xbe1dcbc3	-0.1540976
16	0xbe270a83	-0.16312604
17	0x3b9b7334	0.004743958
18	0x3d423423	0.047413003
19	0x3d9f4001	0.0777588
20	0xbc95cf15	-0.018287221
21	0xbe76b51e	-0.24092528
22	0xbb0e6ffa	-0.0021734224
23	0xbe119dd0	-0.14220357
24	0x3d434d67	0.04768124
25	0x3dac5118	0.08413905
26	0x3ec362c1	0.3816128
27	0xbdfd470b	-0.12367066
28	0x3dc96c45	0.09835104
29	0x3e1649b0	0.14676547
30	0xbe6297bf	-0.22128199
31	0xbe9bcf68	-0.30431676
32	0xbd15833f	-0.03650212
33	0x3de6d89a	0.11271782
34	0xbeba4cb1	-0.36386636
35	0xbccadd10	-0.024763614
36	0x3e89b047	0.268923
37	0xbe01d42f	-0.12678598
38	0xbcada3aa	-0.021196205
39	0xbe492150	-0.19641614
40	0x3da86abe	0.082234845
41	0xbec70508	-0.38871026
42	0xbd614cee	-0.055005006
43	0xbe19ca51	-0.15018584
44	0xbe3fbf0a	-0.1872522
45	0x3e113067	0.1417862
46	0xbdd16ce2	-0.10225846
47	0x3e3527e0	0.17690992
48	0x3c1fcdb5	0.009753634
49	0xbee5d53d	-0.4488925
50	0xbe646b42	-0.2230654
51	0x3ddc1b1a	0.10747357
52	0x3e859aa9	0.2609456
53	0xbd2a1fab	-0.041534107
54	0x3d7719f1	0.060327474
55	0xbea761ee	-0.32691902
56	0xbe90e7d9	-0.28301886
57	0x3e111ca3	0.1417108
58	0xbda6a132	-0.08136214
59	0x3d95496a	0.07289393
60	0x3dedc11a	0.11609097
61	0x3e882d13	0.2659689
62	0xbe2d2f75	-0.16912635
63	0xbe223210	-0.1583941
64	0xbe189ac9	-0.14902796
65	0xbeb499b3	-0.35273513
66	0xbe1e1bcd	-0.15440293
67	0xbe048744	-0.12942225
68	0x3e047ed2	0.12939003
69	0x3d28ce9c	0.041212663
70	0xbd8e0809	-0.06935126
71	0x3db44d19	0.08803768
72	0xbc3a58b2	-0.011373686
73	0xbc76b360	-0.015057415
74	0xbc8e647c	-0.017381899
75	0xbe32d400	-0.17463684
76	0xbde84f2f	-0.11343228
77	0xbe56dd7b	-0.20982926
78	0xbd5e71fd	-0.054307926
79	0x3d6cb8f1	0.05779356
80	0xbd2c82fd	-0.042117108
81	0xbda3e924	-0.080034524
82	0x3d51f220	0.0512563
83	0x3e4aa692	0.19790104
84	0x3dfa8506	0.122324035
85	0xbcf838f4	-0.030300595
86	0xbe199904	-0.14999777
87	0xbe5f210b	-0.21789949
88	0x3db7d016	0.08975236
89	0x3e1c06bc	0.15236944
90	0xbe318b57	-0.1733831
91	0x3d8dec45	0.069298305
92	0x3e1159fe	0.14194486
93	0x3e5e2eaa	0.21697488
94	0xbe248766	-0.16067275
95	0x3d3a7f68	0.04553166
96	0xbe99a6ee	-0.3001017
97	0xbcec85e4	-0.028872438
98	0x3e4ba348	0.19886506
99	0xbd86603e	-0.065613255
100	0x3d240e70	0.04005283
101	0xbde83cae	-0.11339699
102	0x3dabd3eb	0.083900295
103	0x3dd783df	0.10523199
104	0xbe65acf0	-0.22429252
105	0xbd735292	-0.059404917
106	0xbd0e0bfa	-0.03467939
107	0x3d9c35cd	0.07627449
108	0x3c283c45	0.010268276
109	0xbd9c0477	-0.07618039
110	0xbe2362af	-0.15955614
111	0x3e8318b9	0.256048
112	0xbdde0797	-0.108412914
113	0xbeb19089	-0.34680584
114	0xbc3c9f23	-0.0115125505
115	0xbe08fa3b	-0.13376705
116	0x3e956d58	0.29184985
117	0x3e1d9bff	0.15391539
118	0x3d2b6d04	0.041852012
119	0x3d9a24ac	0.07526526
120	0xbcf02415	-0.02931408
121	0x3c9c3782	0.019069437
122	0xbe0c85ae	-0.1372287
123	0x3e76044b	0.24025075
124	0x3e86d78d	0.26336327
125	0x3e94e02d	0.29077283
126	0x3e1ab332	0.1510742
127	0x3da46b52	0.08028282
128	0xbcfdae30	-0.030966848
129	0xbe5ec882	-0.21756175
130	0xbdcc8149	-0.09985597
131	0x3e2e4c0b	0.17021196
132	0x3e64be90	0.22338319
133	0xbd67f718	-0.05663213
134	0x3e87060e	0.26371807
135	0x3e6d0ebb	0.2315015
136	0x3e88d605	0.26725784
137	0xbdbbcccf	-0.091699235
138	0x3de277bf	0.11057996
139	0xbd7c96ea	-0.06166736
140	0xbd43a2c1	-0.047762636
141	0xbc9c6654	-0.019091763
142	0xbe71d616	-0.23616824
143	0x3e9157df	0.28387353
144	0x3d9872e8	0.07443792
145	0x3ba8e46f	0.0051541845
146	0x3c953ced	0.018217528
147	0xbb4815df	-0.0030530614
148	0xbe36db0d	-0.17856999
149	0x3d8b3e8d	0.0679904
150	0xbded0678	-0.115734994
151	0xbe9c1609	-0.3048556
152	0xbe0a78ce	-0.13522646
153	0xbeb14ea6	-0.34630316
154	0x3e6c3096	0.23065409
155	0x3e3eeb17	0.18644367
156	0xbe1f767f	-0.15572546
157	0xbe280ec6	-0.16411886
158	0x3e77fe38	0.2421807
159	0x3ca243b0	0.019807667
160	0xbe2736c2	-0.16329482
161	0xbea41bd7	-0.3205249
162	0xbcc8de1a	-0.024519969
163	0xbe5c41b3	-0.21509437
164	0xbe0d0bd4	-0.13774043
165	0xbe2c84ea	-0.16847578
166	0xbd9ba773	-0.07600298
167	0xbea88123	-0.32911023
168	0x3dec0ae2	0.11525513
169	0xbd607f3f	-0.05480885
170	0x3db762cc	0.08954391
171	0xbde482e7	-0.1115778
172	0xbe470250	-0.19434476
173	0x3ec2889e	0.37994856
174	0x3d79dbbc	0.06100057
175	0xbcde54aa	-0.02713998
176	0xbeb4ca2b	-0.35310492
177	0x3e95a24f	0.29225394
178	0xbe6f80d0	-0.23388982
179	0x3e172dc2	0.14763549
180	0x3b992cbc	0.004674522
181	0xbde50506	-0.11182599
182	0xbd56a748	-0.052405626
183	0xbe09f89d	-0.13473745
184	0xbdc5651d	-0.096384265
185	0xbe52b255	-0.20575841
186	0xbe8b3253	-0.27186832
187	0x3e39e982	0.18155482
188	0x3e4530f7	0.1925696
189	0x3dfe2230	0.124088645
190	0xbd1f8527	-0.038945343
191	0xbefa9678	-0.48942924
192	0x3bc7dc55	0.0060992637
193	0x3e3180e9	0.17334332
194	0xbdda97a6	-0.10673456
195	0xbc71a6fe	-0.014749287
196	0xbe18048c	-0.14845484
197	0xbe878dd7	-0.26475403
198	0x3e542979	0.20718946
199	0xbeb4e5eb	-0.35331663
200	0xbd8542b6	-0.06506865
201	0x3e76c6d4	0.24099284
202	0xbe14182e	-0.14462349
203	0x3dde37ac	0.10850462
204	0xbd863b03	-0.06554224
205	0xbdc48a07	-0.09596639
206	0xbd16aacc	-0.03678398
207	0x3d4d1ab4	0.050074294
208	0xbe17b28f	-0.14814208
209	0xbd07c11b	-0.033143144
210	0xbdead18d	-0.1146575
211	0xbde6f2e9	-0.112768
212	0xbd930d98	-0.07180327
213	0xbe951ba3	-0.29122648
214	0x3dd02be2	0.1016462
215	0xbdf8d645	-0.12150244
216	0x3dbe7686	0.0929995
217	0x3e14f96a	0.14548269
218	0xbe3a052d	-0.18166037
219	0xbd883f3c	-0.06652686
220	0xbd524682	-0.051336773
221	0x3eaf9771	0.34295228
222	0x3e6dd8e0	0.23227262
223	0x3f0046a8	0.5010781
224	0xbd9ccbe2	-0.07656075
225	0x3eb359df	0.35029504
226	0x3e2956a4	0.16536957
227	0xbef2fa17	-0.47456428
228	0xbd873255	-0.06601397
229	0x3cade181	0.021225693
230	0xbe6b7954	-0.22995502
231	0x3e3d9886	0.18515214
232	0x3e103fca	0.14086834
233	0xbe06f7ee	-0.13180515
234	0xbe7b5862	-0.24545434
235	0x3db73d6c	0.08947262
236	0x3e7106e8	0.23537791
237	0xbe40674e	-0.18789408
238	0x3d599aa0	0.053125978
239	0xbdce2b7d	-0.100668885
240	0xbd9d7cbd	-0.076898076
241	0x3e46c1b5	0.19409831
242	0x3d3c2162	0.045930274
243	0x3d18abe0	0.037273288
244	0x3dd55941	0.104174145
245	0x3dea3651	0.11436141
246	0x3dbd7e87	0.09252649
247	0xbde8d50d	-0.11368761
248	0x3d0894d2	0.03334505
249	0x3e273260	0.1632781
250	0xbd97c9d0	-0.074115396
251	0x3e505d08	0.20347989
252	0x3dfba127	0.12286597
253	0xbb09f340	-0.002104953
254	0xbe242298	-0.16028821
255	0xbe80c54b	-0.25150523

network_body._body_endoder.seq_layers.2.bias f4 [64]
0	0x3db33308	0.08749968
1	0x3dc5c9e8	0.09657651
2	0x3d8f8fef	0.07009875
3	0x3c5ac03a	0.013351494
4	0xbb8f0fe7	-0.0043659094
5	0x3d7b5af5	0.06136604
6	0x3da43861	0.08018566
7	0xbce30150	-0.027710587
8	0x3d8b56ea	0.06803687
9	0xbcc32062	-0.023819152
10	0xbc9e2a69	-0.019307332
11	0x3c021d59	0.007941567
12	0x3d53e536	0.051732264
13	0xbc0b9e24	-0.00852159
14	0x3cc2655c	0.023729973
15	0x3d512853	0.051063847
16	0x3be58e4d	0.007005489
17	0x3bab71e7	0.005232084
18	0x3d5e8f61	0.054335956
19	0x3d4a238a	0.0493503
20	0xbc8f8258	-0.017518207
21	0x3d8067c6	0.06269793
22	0x3d583170	0.052781522
23	0x3cdc3a79	0.02688335
24	0xbd59d35e	-0.05318009
25	0x3d09f323	0.03367914
26	0xbcc3d4a0	-0.023905098
27	0x3c9f0ba3	0.019414729
28	0xbd8145bd	-0.0631213
29	0xbcbb0905	-0.02283145
30	0x3cd0ce9c	0.025489144
31	0xbc1502fb	-0.009094949
32	0x3d928a31	0.07155264
33	0x3c631ade	0.013861386
34	0x3ba4370d	0.0050114454
35	0xbd3fc1f5	-0.04681583
36	0x3c813ec2	0.015776996
37	0x3d0dc5cd	0.034612466
38	0xbd931f6e	-0.07183729
39	0xbcc2ce7a	-0.023780096
40	0x3ce367bb	0.027759423
41	0x3bb78ded	0.0056016357
42	0xbc2fccb7	-0.01072996
43	0x3c0a71c9	0.00844998
44	0x3d0ef2e8	0.034899622
45	0xbda69ddb	-0.08135577
46	0x3c45380c	0.012037288
47	0x3c1f0587	0.009705908
48	0xbd22f22f	-0.039781746
49	0x3d2d87d7	0.042365875
50	0xbcbee813	-0.023304021
51	0xbda847d7	-0.08216827
52	0x3dffc7c2	0.12489273
53	0x3c43869f	0.011933952
54	0xbab2820b	-0.0013619078
55	0xbd3b992a	-0.045800366
56	0x3c98ac05	0.018636713
57	0x3bb03aed	0.0053781183
58	0x3d1d41a6	0.038392685
59	0x3c9667b7	0.018360002
60	0x3d6b984b	0.057518285
61	0x3dd266a3	0.10273483
62	0x3da9abda	0.08284731
63	0xbb42b3c2	-0.0029709195

network_body._body_endoder.seq_layers.4.weight f4 [64, 64]
0	0xbc43d820	-0.011953384
1	0x3e0ea345	0.1392947
2	0xbe4aa670	-0.19790053
3	0x3e65d632	0.2244499
4	0x3dd9ae16	0.106289074
5	0x3e063fb1	0.13110234
6	0xbe8d0d3a	-0.27549154
7	0xbd60d050	-0.054886162
8	0xbc4dd2d3	-0.012562471
9	0xbbaf2bf6	-0.0053458167
10	0x3e5a4ef2	0.21319178
11	0x3d99ec26	0.07515745
12	0xbde273ba	-0.11057229
13	0xbedddb9b	-0.43331608
14	0x3e2882d5	0.16456158
15	0x3dd3391a	0.10313626
16	0x3cdb3be6	0.02676196
17	0x3b0910f7	0.0020914653
18	0xbeb67bea	-0.35641414
19	0xbe3da654	-0.1852048
20	0xbd46b34f	-0.048510846
21	0xbeef715f	-0.46766183
22	0xbd9a085e	-0.07521127
23	0xbe2af268	-0.16694033
24	0x3d06f328	0.032946736
25	0xbd16e6de	-0.036841266
26	0xbe3c70a8	-0.1840235
27	0x3dbf775c	0.09348938
28	0xbe21240e	-0.1573641
29	0x3d94fc9f	0.07274746
30	0x3e2480d4	0.16064769
31	0x3e0e383b	0.13888638
32	0xbec6be7c	-0.38817203
33	0x3d6ec2bb	0.05829118
34	0xbd8b23a3	-0.067939065
35	0x3d2b93b6	0.041888915
36	0xbeb952ea	-0.3619607
37	0xbda27c52	-0.079338685
38	0x3d37d528	0.044881016
39	0x3e8b78ff	0.2724075
40	0x3e1963fb	0.14979546
41	0x3dee0602	0.1162224
42	0x3e25a825	0.16177423
43	0xbde75667	-0.11295777
44	0xbed53dd1	-0.41648725
45	0x3e75defa	0.2401084
46	0xbdf761df	-0.12079214
47	0xbcc3e3f5	-0.02391241
48	0x3d8944f6	0.067026064
49	0x3e0b3835	0.1359566
50	0x3ce0158a	0.02735402
51	0xbdf77b6a	-0.12084086
52	0xbdc6815f	-0.09692644
53	0xbe6176a3	-0.22017913
54	0x3df9b706	0.12193112
55	0xbe19d82b	-0.15023868
56	0x3e94957d	0.290203
57	0xbede1f9c	-0.4338349
58	0xbf040f68	-0.5158601
59	0xbe96cce2	-0.29453188
60	0x3d71d8cf	0.059044655
61	0x3eba3784	0.3637048
62	0x3d5a9d91	0.053372923
63	0x3e44aabb	0.19205754
64	0xbb397967	-0.0028301121
65	0xbdecda72	-0.11565103
66	0xbd09980f	-0.03359228
67	0xbd944522	-0.072397485
68	0x3eaca414	0.33718932
69	0xbe5a6539	-0.21327676
70	0xbda64f46	-0.08120589
71	0x3dc0c3d5	0.09412352
72	0xbe5c7a1d	-0.21530958
73	0x3e035c90	0.12828279
74	0xbe732002	-0.23742679
75	0x3e1a6367	0.15076981
76	0x3cec87fd	0.028873438
77	0xbe59b9db	-0.21262304
78	0x3ea4e88f	0.32208678
79	0x3da3109d	0.07962153
80	0x3d76b593	0.060231756
81	0x3e950e02	0.2911225
82	0xbe8ad58e	-0.27116054
83	0xbe370a85	-0.17875107
84	0xbe8a171a	-0.2697075
85	0x3de6fc8d	0.11278639
86	0x3cc95443	0.024576312
87	0x3c98521d	0.018593842
88	0x3d94c4d5	0.07264105
89	0x3e0b2677	0.13588892
90	0xbdeb6fc6	-0.114959285
91	0xbe95f0a1	-0.29285148
92	0xbda423bc	-0.08014628
93	0xbdc3bbbc	-0.09557292
94	0x3e29d063	0.165834
95	0xbd3aa90d	-0.045571376
96	0xbc8be667	-0.017077638
97	0xbdb56dc8	-0.0885883
98	0x3d06efdf	0.032943603
99	0x3e8e6188	0.27808785
100	0x3d84a2be	0.06476353
101	0xbca9cad3	-0.020726597
102	0x3ce60f2f	0.028083412
103	0x3ddc1d8f	0.10747825
104	0xbe307608	-0.17232525
105	0x3ce0bb0d	0.027432943
106	0xbc86fbd4	-0.016477503
107	0xbd29c58b	-0.041448157
108	0xbda1c1d3	-0.07898297
109	0x3e4579ff	0.19284819
110	0x3d428251	0.04748756
111	0xb95d3c2b	-0.00021098617
112	0x3dfcb09e	0.123383746
113	0x3e0b38eb	0.13595931
114	0xbe26fda0	-0.16307688
115	0x3d378900	0.044808388
116	0x3ec89690	0.3917737
117	0x3e43f341	0.19135763
118	0x3dec689f	0.115433924
119	0x3d9cf9a6	0.07664804
120	0x3dd9af55	0.10629145
121	0xbdfcb493	-0.12339129
122	0xbd86253b	-0.0655007
123	0xbe4234ea	-0.18965498
124	0x3e6d6264	0.23182064
125	0x3d80e568	0.06293756
126	0xbd22eabd	-0.039774645
127	0x3de99b09	0.11406524
128	0x3e01b885	0.12668045
129	0x3e8e5c7a	0.2780493
130	0xbc3558f8	-0.011068575
131	0xbd100244	-0.03515841
132	0xbed4fe47	-0.41600248
133	0x3e107151	0.14105727
134	0x3e14c91b	0.1452984
135	0xbefb4d7f	-0.49082562
136	0x3e822f91	0.25426915
137	0xbea9b75d	-0.33147708
138	0xbd893fa6	-0.06701593
139	0xbd534e86	-0.051588558
140	0xbdba067e	-0.090832695
141	0xbd71368b	-0.058889907
142	0x3e589f5f	0.21154545
143	0x3ee9bbae	0.45651
144	0xbe60c688	-0.21950734
145	0xbed50efe	-0.41613
146	0xbc0750d1	-0.008259014
147	0x3db73b9f	0.08946919
148	0x3e33a672	0.17543963
149	0xbe183c86	-0.14866838
150	0xbcbc507f	-0.022987602
151	0xbdca5063	-0.09878614
152	0xbdaf16c3	-0.08549263
153	0xbddc2f71	-0.10751236
154	0x3eb8fbe7	0.36129686
155	0x3e1c1c05	0.15245064
156	0x3d8fb591	0.07017053
157	0xbdae0b55	-0.08498255
158	0x3cd71118	0.026253268
159	0x3e2b90fd	0.16754527
160	0x3dfba928	0.12288123
161	0xbe8033b5	-0.2503945
162	0x3dcbe5e4	0.099559575
163	0xbe263c16	-0.16233858
164	0xbd82bf9f	-0.06384205
165	0xbe3e9767	-0.18612443
166	0xbec0de63	-0.37669668
167	0xbec6203d	-0.3869647
168	0xbea180d3	-0.31543598
169	0xbe152832	-0.14566115
170	0xbed2f2de	-0.41200918
171	0xbf0a18d9	-0.53944165
172	0xbd4a0c31	-0.049328033
173	0x3e01dd6d	0.12682123
174	0x3d9c4a57	0.07631367
175	0xbce7d61f	-0.028300343
176	0xbe9d4ac8	-0.30721116
177	0xbdfc1998	-0.12309569
178	0xbd42b097	-0.04753169
179	0xbdb6e07c	-0.08929536
180	0xbe7444c1	-0.23854353
181	0xbce7cabf	-0.028294919
182	0xbe0ca6d6	-0.13735518
183	0xbdcd3552	-0.10019936
184	0x3d6d875b	0.057990413
185	0xbdcc6e2e	-0.099819526
186	0xbdd7922a	-0.105259255
187	0xbddaed63	-0.10689809
188	0x3b82e8aa	0.003995021
189	0xbdf81855	-0.12114016
190	0xbddd19d4	-0.10795942
191	0xbe1432e7	-0.14472543
192	0xbe49625c	-0.19666427
193	0xbe8bd9c0	-0.27314568
194	0x3e85c385	0.26125732
195	0x3e06751f	0.13130616
196	0xbd5b0496	-0.05347117
197	0x3e052bc5	0.13004978
198	0x3d2cef5f	0.04222047
199	0xbdef3ed2	-0.11681904
200	0x3e948297	0.29005882
201	0xbdbfe613	-0.09370055
202	0xbe805cd2	-0.25070816
203	0x3ea22f46	0.31676692
204	0xbdff93c2	-0.124793544
205	0xbdfebfbb	-0.124389134
206	0xbe19c6e5	-0.15017278
207	0x3e5b0a79	0.21390714
208	0xbe6b0588	-0.22951329
209	0xbce86504	-0.02836848
210	0x3e3839ff	0.17990874
211	0xbedfc41e	-0.43704313
212	0x3e7ba362	0.24574044
213	0x3e7ab516	0.24483141
214	0xbdcfcdd1	-0.10146678
215	0x3e6aa4e8	0.22914469
216	0x3e11a0a9	0.14221443
217	0x3e1d7616	0.15377077
218	0xbec75c96	-0.38937825
219	0xbe71239b	-0.23548739
220	0x3ca69b3b	0.020337692
221	0xbe868c56	-0.26278943
222	0xbdedbddb	-0.11608478
223	0x3e0c1e15	0.1368335
224	0x3d90e3c4	0.07074693
225	0xbc7a1ae7	-0.015265203
226	0xbdf49473	-0.11942377
227	0x3e22b864	0.15890652
228	0x3e434880	0.19070625
229	0xbea0a8e0	-0.3137884
230	0xbb808f5b	-0.0039233393
231	0xbe5e0171	-0.21680237
232	0x3e705b95	0.23472436
233	0xbe08dc7d	-0.1336536
234	0xbde57fdb	-0.11206027
235	0xbc08a355	-0.008339723
236	0x3c89d5c9	0.016825574
237	0xbe3df34b	-0.1854984
238	0x3e695b79	0.227888
239	0xbdb695bb	-0.089152776
240	0xbe2b7c10	-0.16746545
241	0xbdbff07c	-0.09372041
242	0xbea8ee11	-0.3299413
243	0x3d958b1a	0.07301922
244	0xbe560447	-0.20900069
245	0xbe5f3b2a	-0.21799913
246	0xbe8dc932	-0.27692562
247	0x3e73f488	0.2382375
248	0xbd92165d	-0.07133172
249	0x3e001a4f	0.12510036
250	0xbe1d0f4b	-0.15337865
251	0xbeb9aa4f	-0.36262748
252	0x3ea97999	0.33100584
253	0xbe0dc319	-0.13843955
254	0x3e4c2a33	0.19937973
255	0x3dc5bb41	0.096548565

network_body._body_endoder.seq_layers.4.bias f4 [64]
0	0xbb1843aa	-0.002323369
1	0x3d8db378	0.069189966
2	0x3d92b7fc	0.071639985
3	0x3e37e19f	0.17957161
4	0xbd661567	-0.056172755
5	0xbdf4ff88	-0.11962801
6	0x3d84089e	0.06446956
7	0x3ddc838e	0.107672796
8	0xbd7f4a37	-0.062326636
9	0x3cc19dde	0.023634847
10	0x3d6cf2ab	0.057848614
11	0x3dbd64ed	0.09247766
12	0x3d741193	0.059587073
13	0xbd91bced	-0.07116113
14	0x3d961e82	0.07330038
15	0x3b82ad5b	0.0039879507
16	0x3d164376	0.03668543
17	0x3df5214c	0.119692415
18	0x3cd0e208	0.025498405
19	0xbd73e2f8	-0.059542626
20	0x3dd5afd3	0.104339264
21	0x3d75bbeb	0.059993666
22	0x3d584c34	0.052807048
23	0x3dd197fd	0.102340676
24	0x3d15d7fb	0.03658293
25	0xbc152b5a	-0.009104574
26	0x3db7fc94	0.08983722
27	0x3dc8d889	0.09806926
28	0x3e0898b7	0.13339506
29	0x3d0cc3ff	0.034366604
30	0x3ca4ee60	0.020133197
31	0x3d227e54	0.039671257
32	0x3d1c426d	0.038149286
33	0xbcceeef7	-0.025260432
34	0xbce453cc	-0.027871989
35	0x3db4b4ac	0.08823523
36	0x3d0cdb43	0.03438879
37	0xbd7147b6	-0.05890628
38	0xbbc936fb	-0.0061405874
39	0x3d7ff8fd	0.062493313
40	0xbd04f8cf	-0.032463845
41	0x3d8cf081	0.0688181
42	0x3d475161	0.048661593
43	0xbcd5d6a0	-0.026103318
44	0xbdaba535	-0.0838112
45	0xbc2c41d0	-0.010513738
46	0xbd827ce4	-0.06371477
47	0xbcde8092	-0.027160916
48	0x3cc68c97	0.02423696
49	0x3db0a594	0.086253315
50	0x3d4d5e31	0.050138656
51	0xbd8311ff	-0.06399917
52	0x3d38ba88	0.045099765
53	0x3b5459e4	0.0032402212
54	0x3e2bb933	0.16769867
55	0x3dd9dcd6	0.10637824
56	0x3deb29e9	0.11482603
57	0x3d3678fc	0.044548973
58	0x3d3394a3	0.043842923
59	0x3ce96df2	0.028494809
60	0xbd6a5b5e	-0.05721604
61	0xbd561c2b	-0.052272957
62	0x3db9059b	0.09034272
63	0x3db5eeda	0.08883448

action_model._continuous_distribution.log_sigma f4 [1, 44]
0	0x3f42fb8f	0.761651
1	0x3f51d729	0.81968933
2	0x3f4fb0cf	0.81129164
3	0x3f0ffaae	0.5624188
4	0x3f2f970d	0.6858986
5	0x3f52c84f	0.82336897
6	0x3f5e723e	0.8689307
7	0x3f30e834	0.69104314
8	0x3f0eedc1	0.55831534
9	0x3edf74ff	0.43643948
10	0x3f26431f	0.6494617
11	0x3f1016e6	0.5628494
12	0x3f6bf610	0.92172337
13	0x3ef8ea4e	0.4861626
14	0x3f8064d1	1.0030767
15	0x3f1812ae	0.594035
16	0x3f4246fc	0.75889564
17	0x3ee62541	0.44950297
18	0x3e719cdd	0.23594995
19	0x3ea474bf	0.3212032
20	0x3ed01403	0.40640268
21	0x3ec919f8	0.39277625
22	0x3f021d8a	0.50826323
23	0x3f0972a3	0.53690547
24	0x3ee4453a	0.44584066
25	0x3e91ce23	0.28477582
26	0x3e8f7d29	0.28025177
27	0x3f02ac66	0.5104431
28	0x3ef79786	0.4835779
29	0x3f5fab68	0.8737092
30	0x3f1913c4	0.59795785
31	0x3f4b706a	0.79468405
32	0x3f1867d0	0.59533405
33	0x3f0603f2	0.5234977
34	0x3e9e084e	0.3086571
35	0x3f7f0dc9	0.9963041
36	0x3f396dd3	0.72433203
37	0x3f0dabb3	0.5534012
38	0x3f1185cf	0.568448
39	0x3f2b8eee	0.6701497
40	0x3f151121	0.5822926
41	0x3f053472	0.5203315
42	0x3f8836d8	1.0641737
43	0x3f7ad88a	0.9798666

action_model._continuous_distribution.mu.weight f4 [44, 64]
0	0x3df64780	0.12025356
1	0x3e6d86e2	0.23195985
2	0x3c145d83	0.009055498
3	0xbe45a853	-0.19302492
4	0x3e37197c	0.17880815
5	0xbda33f7d	-0.07971094
6	0x3e55f2b7	0.2089337
7	0xbdb797eb	-0.08964523
8	0x3da7ccd5	0.081933655
9	0x3da1602b	0.07879671
10	0x3d87bb27	0.06627493
11	0x3d5ba621	0.05362523
12	0x3da33c11	0.07970441
13	0x3eb7adc3	0.35874757
14	0x3d1b13db	0.037860733
15	0xbdef9427	-0.1169818
16	0xbc96be91	-0.018401416
17	0x3de94630	0.1139034
18	0x3c4ab80c	0.012372982
19	0x3df9da39	0.12199826
20	0x3dee1f06	0.11627011
21	0xbdcc1c4b	-0.09966334
22	0xbd3f44f9	-0.046696637
23	0x3d19888b	0.037483733
24	0xbc3b2bca	-0.011424014
25	0x3dead752	0.1146685
26	0x3dbb2e8c	0.091397375
27	0x3e335a16	0.17514834
28	0xbe842cf0	-0.25815535
29	0x3c84d7e8	0.016216233
30	0xbe159535	-0.14607699
31	0x3e174627	0.14772855
32	0xbe359210	-0.177315
33	0x3d6c1ecb	0.057646554
34	0xbd600942	-0.05469633
35	0xbe2f26c1	-0.17104627
36	0xbd3ce6d6	-0.04611858
37	0x3e4c5dfc	0.19957727
38	0xbce1dc4a	-0.027570862
39	0xbd9db538	-0.0770058
40	0x3b76f7d2	0.0037684334
41	0xbe02a862	-0.12759545
42	0x3e252d4a	0.16130558
43	0x3e081ba5	0.13291796
44	0x3d41ee4b	0.047346395
45	0x3d476600	0.04868126
46	0xbd96ed0a	-0.0736943
47	0x3dca6662	0.09882809
48	0xbde6fe37	-0.112789564
49	0xbd92156a	-0.07132991
50	0x3cdc41b3	0.026886797
51	0xbdef1ff0	-0.116760135
52	0x3de25521	0.11051393
53	0x3dc6b603	0.09702685
54	0xbdb5e18d	-0.08880911
55	0xbdebdc1a	-0.115165904
56	0x3df8d388	0.121497214
57	0xbccdadfa	-0.025107373
58	0xbe3aacd2	-0.18229988
59	0x3d48568f	0.048910674
60	0x3d89b0ad	0.06723151
61	0x3e91957b	0.28434357
62	0xbe216236	-0.15760121
63	0x3c8037d1	0.015651615
64	0xbd324366	-0.043521307
65	0xbdcc5752	-0.099775925
66	0xbe0d93d0	-0.13825917
67	0xbd15d105	-0.03657629
68	0x3da0e8bc	0.078568906
69	0xbd97b7a7	-0.07408076
70	0xbd290caf	-0.04127186
71	0x3cb7c2ec	0.022431813
72	0x3d875b6e	0.06609236
73	0x3bf2e446	0.007412466
74	0x3e176b02	0.14786914
75	0xbbeb3ed5	-0.007179121
76	0x3c6c2e01	0.014415265
77	0x3e10753b	0.1410722
78	0xbe7f4201	-0.24927522
79	0xbc9c59f8	-0.01908587
80	0x3d7fc16d	0.062440325
81	0xbd138055	-0.03601106
82	0x3e2e8455	0.17042668
83	0xbdffc1fc	-0.124881715
84	0xbe05a7f0	-0.13052344
85	0x3e5fe718	0.21865499
86	0xbe10001e	-0.14062545
87	0x3d212e32	0.039350696
88	0x3d742d95	0.059613783
89	0x3d28c361	0.041201953
90	0xbd02effb	-0.031967144
91	0xbe0214a2	-0.12703183
92	0xbdea6755	-0.1144549
93	0xbea31f21	-0.31859687
94	0x3d4fa9d7	0.05069908
95	0xbc580147	-0.013183898
96	0x3de992e3	0.114049695
97	0xbe09ca92	-0.1345618
98	0xbdb21602	-0.08695604
99	0xbe246b71	-0.1605661
100	0x3cf3bc03	0.029752737
101	0x3e709dcf	0.23497699
102	0xbe8469ca	-0.2586196
103	0x3c65cada	0.014025414
104	0xbdaf4347	-0.08557754
105	0xbde91c52	-0.11382355
106	0x3dda41fb	0.10657116
107	0xbdac7e09	-0.08422477
108	0xbd65fc61	-0.05614889
109	0xbda2e45e	-0.07953714
110	0xbe0bd86f	-0.13656782
111	0xbbb66513	-0.005566248
112	0x3e02087c	0.12698549
113	0xbddcb50f	-0.10776722
114	0x3daf7b77	0.08568471
115	0x3ca2b41f	0.019861279
116	0xbdb02e6c	-0.08602604
117	0x3cdd7217	0.027031941
118	0xbd87e07d	-0.066346146
119	0xbd60caeb	-0.054881018
120	0xbe280d78	-0.16411388
121	0x3ce9bccb	0.028532406
122	0xbdb36f29	-0.087614365
123	0xbe2e031e	-0.16993377
124	0x3e83fae6	0.25777358
125	0x3d586af3	0.05283637
126	0xbde690f4	-0.11258116
127	0xbd412f19	-0.047164056
128	0x3e28eba6	0.16496143
129	0x3e4cf692	0.20015934
130	0x3e90909d	0.2823533
131	0x3db71e48	0.089413226
132	0x3d8a214c	0.06744632
133	0xbd57fffd	-0.052734364
134	0x3e03bfc9	0.12866129
135	0x3d124ae5	0.035715956
136	0xbde458ff	-0.11149787
137	0x3de543c2	0.111945644
138	0x3c17e14c	0.009270024
139	0x3bc6b2a0	0.006063774
140	0x3db20ddc	0.0869405
141	0x3d312289	0.043245826
142	0x3cc50d67	0.024054242
143	0xbe0054f6	-0.1253241
144	0x3e0cf928	0.1376692
145	0x3e72e049	0.2371837
146	0xbdacfc56	-0.08446567
147	0xbd0129e8	-0.031534106
148	0x3d82cd73	0.063868426
149	0x3e463c08	0.19358838
150	0x3d1f8aba	0.03895066
151	0xbc82782b	-0.015926441
152	0xbd866c8c	-0.065636724
153	0xbdfa83d7	-0.12232178
154	0x3dce635f	0.10077547
155	0x3e0da877	0.13833795
156	0xbe0771b1	-0.13226964
157	0x3db413e0	0.08792853
158	0xbd9a4fbb	-0.07534739
159	0x3e26bba4	0.16282517
160	0xbc259761	-0.010106892
161	0xbd172a25	-0.036905427
162	0x3e7d813d	0.24756332
163	0xbdef8c8a	-0.116967276
164	0x3da50a8a	0.08058651
165	0xbe88f274	-0.26747477
166	0x3e6c920b	0.23102586
167	0xbd773fcd	-0.06036358
168	0xbddeca76	-0.1087846
169	0x3c95b657	0.018275423
170	0x3d8b149e	0.06791042
171	0x3e5a7568	0.2133385
172	0x3d28a5bf	0.041173693
173	0xbd8dbee3	-0.069211744
174	0x3c6683cf	0.014069512
175	0xbe253136	-0.16132054
176	0xbdcd2ffe	-0.100189194
177	0xbd6dc2a4	-0.058046952
178	0x3de7e5ca	0.11323126
179	0xbd11855d	-0.035527576
180	0xbdc75f23	-0.09734943
181	0x3e05ff92	0.13085774
182	0xbabc4cdb	-0.0014366166
183	0x3cf753c9	0.030191319
184	0x3dcddcd9	0.10051889
185	0xbddd7dd4	-0.108150154
186	0xbe073da0	-0.13207102
187	0x3b74b314	0.0037338184
188	0x3dc21970	0.09477508
189	0x3e65a869	0.22427525
190	0x3dd101a3	0.1020539
191	0xbb3ef77d	-0.0029139214
192	0x3e3ca221	0.18421222
193	0x3da73950	0.08165228
194	0x3e992494	0.2991072
195	0xbddbe8bb	-0.10737749
196	0xbba161d8	-0.004924994
197	0x3d1c1a5a	0.03811107
198	0x3d9b06c2	0.07569648
199	0x3c53ad53	0.012919742
200	0xbe0898f7	-0.13339601
201	0x3d898641	0.0671506
202	0x3e8276e5	0.25481334
203	0x3d1584a0	0.036503434
204	0x3d8062ac	0.0626882
205	0x3a4b8efa	0.00077651406
206	0xbd0402cf	-0.03222924
207	0xbe09a390	-0.134413
208	0x3cde66cb	0.027148625
209	0xbc1aae69	-0.009440997
210	0x3deccb62	0.1156223
211	0x3d37e966	0.04490032
212	0xbe102942	-0.14078239
213	0x3e8defd1	0.27722028
214	0xbce80006	-0.028320324
215	0x3ed167d9	0.40899542
216	0x3dfaae80	0.122403145
217	0x3e3111c1	0.17291929
218	0x3de68fd6	0.11257903
219	0x3d206abf	0.0391643
220	0x3e589010	0.21148705
221	0xbda0f028	-0.07858306
222	0xbd8c9a6f	-0.06865393
223	0x3ca65321	0.02030331
224	0x3e1192d4	0.14216167
225	0xbdaf96ed	-0.08573709
226	0xbe52429e	-0.20533225
227	0xbd9bd7db	-0.076095305
228	0x3e2b9b38	0.1675843
229	0x3d3f7d29	0.04675022
230	0x3db6748a	0.08908947
231	0x3e33b93c	0.1755113
232	0x3c77011c	0.015075948
233	0xbe2d8a07	-0.16947185
234	0x3e0cfe2e	0.13768837
235	0xbd60afe8	-0.054855257
236	0xbdca1a86	-0.0986834
237	0x3969e993	0.00022307625
238	0xbe557636	-0.20845875
239	0x3d50b6c0	0.050955534
240	0xbdd5798b	-0.10423573
241	0xbe25abcb	-0.16178815
242	0xbdc7b6c1	-0.097516544
243	0x3d87a9b8	0.06624168
244	0x3d4cb87f	0.049980637
245	0xbe3a875e	-0.18215701
246	0xbcf8b5db	-0.030360153
247	0x3e1e2ec7	0.15447532
248	0x3e29521a	0.16535226
249	0xbcfd21e1	-0.030899944
250	0x3d2424c6	0.040074132
251	0xbda63972	-0.081164256
252	0x3e38a31e	0.18030974
253	0x3d0ac8c8	0.033882886
254	0x3dc8fbe1	0.09813667
255	0xbddb13be	-0.10697125

action_model._continuous_distribution.mu.bias f4 [44]
0	0x3bb20829	0.0054331017
1	0xbe0c8831	-0.13723828
2	0x3db825db	0.08991595
3	0x3df23d74	0.118281275
4	0xbc4300bc	-0.011902031
5	0x3d5124c2	0.051060446
6	0xbd82825a	-0.06372519
7	0x3da82e74	0.08211985
8	0x3cdec160	0.027191818
9	0x3da01717	0.07816904
10	0xba91f220	-0.0011134781
11	0xbca68d0c	-0.020330928
12	0xbda2903d	-0.079376675
13	0xbdcf51b6	-0.10123007
14	0x3c2d2432	0.010567712
15	0x3c6b7d48	0.014373131
16	0xbcb0cd71	-0.021582337
17	0xbdff7321	-0.12473131
18	0xbdb84805	-0.08998112
19	0x3bb1a1d3	0.0054209023
20	0xbe315205	-0.17316444
21	0xbcdcec6c	-0.026968203
22	0xbc095bbe	-0.008383689
23	0xbe3ed339	-0.18635263
24	0xbd8c3240	-0.06845522
25	0xbd89a650	-0.06721175
26	0xbe4d4cea	-0.20048872
27	0xbdaa9cdb	-0.08330699
28	0xbd1f8a40	-0.038950205
29	0xbd258907	-0.040413883
30	0x3c302b80	0.010752559
31	0xbdf0a80a	-0.11750801
32	0xbcc1516b	-0.023598393
33	0xbda6726a	-0.081272915
34	0x3d728075	0.059204537
35	0xbd9e4273	-0.07727518
36	0xbdb27a8d	-0.08714781
37	0xbda56798	-0.080763996
38	0x3b893cfd	0.0041881786
39	0xbc012d4a	-0.007884333
40	0xbc022710	-0.007943884
41	0x3d59e0bc	0.05319284
42	0x3c1bf283	0.0095182685
43	0xbd726e2d	-0.059187103
