results/b090remaze/Dynamic Table/Dynamic Table-4899996.pt (torch, 406791 bytes, 48 tensors)

network_body._body_endoder.seq_layers.0.weight f4 [64, 94]
0	0x3e6dca74	0.23221761
1	0xbe06c554	-0.13161212
2	0xbdc482f4	-0.0959529
3	0x3dce1a7e	0.10063647
4	0xbe0aa878	-0.13540828
5	0xbe388baa	-0.18022028
6	0xbe056b9c	-0.13029331
7	0xbea3fcaa	-0.32028705
8	0xbe861799	-0.2618988
9	0xbeb8eacf	-0.36116645
10	0x3d824144	0.06360105
11	0xbdc861e7	-0.097842984
12	0x3d4df618	0.05028352
13	0xbdc777c3	-0.097396396
14	0xbdfce408	-0.12348181
15	0xbc9382a8	-0.018006638
16	0xbd8f54ce	-0.06998597
17	0xbd783e13	-0.060606074
18	0xbcd38eba	-0.025824893
19	0xbd237eed	-0.039915968
20	0x3d8fc2ac	0.070195526
21	0x3e164dcc	0.14678115
22	0xbe3f3495	-0.18672402
23	0xbd8aef82	-0.06783964
24	0xbe0b0b0e	-0.13578436
25	0xbdc3e2bb	-0.0956473
26	0xbcea78f7	-0.028622134
27	0x3e2fb0b3	0.17157249
28	0x3d94ae15	0.07259766
29	0xbecac5ce	-0.39604038
30	0xbe457059	-0.19281138
31	0xbe24ec92	-0.1610587
32	0x3d146271	0.036226694
33	0xbe0eeaa6	-0.13956699
34	0x3b8c1e95	0.0042761066
35	0xbe112817	-0.1417545
36	0xbe8828be	-0.26593584
37	0x3dece133	0.11566391
38	0x3c7f2011	0.01557161
39	0xbe372291	-0.1788428
40	0xbde2f2f8	-0.11081499
41	0x3d314bb0	0.04328507
42	0xbe22110d	-0.15826817
43	0x3e09063b	0.13381283
44	0x3d0c8c6c	0.034313604
45	0xbd9f0bae	-0.077658996
46	0x3c48a48f	0.012246265
47	0x3ca7d938	0.02048932
48	0xbdc91f28	-0.09820396
49	0xbd0a5f4e	-0.033782296
50	0xbe04a228	-0.12952483
51	0xbdd9089f	-0.105973475
52	0xbe50e000	-0.20397949
53	0xbe96d5cc	-0.2945999
54	0x3d728766	0.059211157
55	0xbe370e57	-0.17876564
56	0xbe06507a	-0.13116637
57	0xbe6e8a80	-0.23295021
58	0xbe383b6d	-0.17991419
59	0xbe0bea2f	-0.13663553
60	0xbe1e31d6	-0.15448698
61	0xbd21d0c6	-0.039505742
62	0xbe45469f	-0.19265221
63	0xbe97fc5b	-0.2968472
64	0x3d59080a	0.052986182
65	0xbe74c0e7	-0.23901711
66	0xbe0eb65e	-0.13936755
67	0xbdd0c6b3	-0.10194149
68	0x3debb6b2	0.11509456
69	0xbea9881b	-0.33111653
70	0xbdd31353	-0.1030642
71	0x3d32ba80	0.04363489
72	0xbe8a247c	-0.2698096
73	0xbc881d6a	-0.016615588
74	0xbebc48eb	-0.36774382
75	0xbe7d23a9	-0.24720635
76	0x3cc1fc41	0.023679854
77	0xbd9d0190	-0.07666314
78	0xbdcbc85f	-0.09950327
79	0x3c12ee88	0.008968003
80	0x3c39d0ba	0.011341268
81	0xbe8625cf	-0.2620072
82	0xbe7079c1	-0.23483945
83	0x3da6a9d0	0.08137858
84	0xbdc2e396	-0.09516065
85	0xbdf6a329	-0.12042839
86	0xbdc978a4	-0.098374635
87	0xbdfabec6	-0.122434184
88	0x3c311867	0.010809041
89	0xbaf71a65	-0.0018852471
90	0xbdbf5ddc	-0.09344074
91	0x3d721232	0.059099384
92	0xbc935eb9	-0.017989503
93	0xbdeb59dd	-0.114917494
94	0x3d9434ec	0.072366565
95	0x3dac7c21	0.08422113
96	0xbddf7234	-0.109104544
97	0xbe91fcf9	-0.28513315
98	0x3e21d191	0.158026
99	0xbc37c01b	-0.011215235
100	0x3cd69a16	0.02619652
101	0x3d67c768	0.056586653
102	0xbd712a69	-0.058878336
103	0xbe9736af	-0.29533908
104	0xbdcdf34d	-0.100561716
105	0xbeb96568	-0.3621018
106	0xbc2eb403	-0.010663035
107	0x3dca15a8	0.09867412
108	0x3d087466	0.03331413
109	0xbe48675f	-0.19570683
110	0xbe793c05	-0.24339302
111	0x3ca3fa78	0.020016894
112	0x3e43d82c	0.19125432
113	0x3d9fbc0f	0.07799541
114	0xbe01834f	-0.12647747
115	0x3e36c91a	0.17850152
116	0xbd5be552	-0.053685494
117	0x3e0764f4	0.13222104
118	0x3e0fb27e	0.14032933
119	0xbd6d4c79	-0.057934258
120	0x3e7f42b7	0.24927793
121	0x3e3815a2	0.17977002
122	0x3de8877f	0.11353969
123	0xbc6b1864	-0.014349077
124	0xbe2bbeca	-0.16771999
125	0x3dc9e1c7	0.09857517
126	0x3dd300df	0.103029005
127	0x3ec85eea	0.39134914
128	0xbe061a61	-0.13096
129	0x3dbcafc2	0.09213211
130	0xbd6f7ece	-0.05847054
131	0x3db1d296	0.08682744
132	0xbe4e4fc9	-0.20147623
133	0x3d36e944	0.044656053
134	0x3d41b70b	0.047293704
135	0xbe3d1f51	-0.18468978
136	0xbca045a7	-0.019564463
137	0x3dcc7f7a	0.09985252
138	0x3f074273	0.5283577
139	0x3d884864	0.066544324
140	0x3c8c078b	0.01709344
141	0xbe63ed68	-0.22258532
142	0x3e4ae675	0.19814475
143	0xbe77f50d	-0.24214573
144	0x3daebab5	0.08531705
145	0x3d864dc7	0.065578036
146	0xbd42b18c	-0.047532603
147	0xbd5e2638	-0.054235667
148	0xbd8c4d62	-0.06850697
149	0xbd6c3b2b	-0.057673614
150	0x3c400968	0.011720993
151	0x3d3172ba	0.043322302
152	0x3da7510a	0.08169754
153	0xbd069837	-0.032860007
154	0x3e4f2308	0.20228207
155	0xbbaa503b	-0.0051975525
156	0x3e094090	0.13403535
157	0xbd2dbede	-0.042418353
158	0x3d1bdc29	0.038051758
159	0xbe63b9d9	-0.22238864
160	0x3d77bc90	0.06048256
161	0x3d1af869	0.03783456
162	0x3d68e811	0.05686194
163	0xbd2a76f3	-0.041617345
164	0xbe22d5e7	-0.1590191
165	0xbd76a8fb	-0.060219746
166	0xbddb5c7a	-0.10710998
167	0xbe15d9a2	-0.14633802
168	0x3e592382	0.21204951
169	0xbdb57c25	-0.08861569
170	0xbd8d4034	-0.068970114
171	0x3da17f8f	0.07885658
172	0x3e17b713	0.14815931
173	0xbe3b28cd	-0.18277283
174	0x3dfdcd52	0.12392677
175	0xbdb0a08b	-0.08624371
176	0xbe7ad9dc	-0.2449717
177	0xbe3aee12	-0.18254879
178	0xbda8d0ae	-0.082429275
179	0xbe3bc30b	-0.18336122
180	0xbd7d4006	-0.061828636
181	0xbcdc1dcd	-0.026869679
182	0xbd8c93a7	-0.068641
183	0xbdbb88e6	-0.09156971
184	0xbe389134	-0.1802414
185	0x3c05f5e4	0.008176301
186	0x3df896d0	0.1213814
187	0x3d030e64	0.031996146
188	0xbe73e524	-0.23817879
189	0xbcd57322	-0.026055876
190	0xbd3df778	-0.046378583
191	0xbe3c0e8f	-0.18364929
192	0x3db865eb	0.09003814
193	0x3e58e65f	0.2118163
194	0xbdcb79bd	-0.09935329
195	0xbd79d29c	-0.06099187
196	0xbecfc255	-0.4057795
197	0xbed51e27	-0.41624567
198	0xbe3e97a1	-0.1861253
199	0xbc5a7cdc	-0.013335433
200	0x3c9da063	0.019241517
201	0x3c64fbee	0.01397608
202	0x3bb40f24	0.005494969
203	0xbe7ec954	-0.24881488
204	0x3c6480c3	0.013946715
205	0x3d89852d	0.067148544
206	0x3dcdea1e	0.1005442
207	0xbd3e249b	-0.04642163
208	0x3e1b5011	0.15167262
209	0xbdc6b914	-0.097032696
210	0xbeb46691	-0.35234502
211	0xbeb28b11	-0.34871724
212	0xbd2b5439	-0.041828368
213	0x3dda7a76	0.10667889
214	0x3e2411d1	0.16022421
215	0x3ec8f611	0.39250234
216	0xbe3ca8e3	-0.184238
217	0xbe2b973a	-0.16756907
218	0xbe9de9c9	-0.30842426
219	0xbdb54b33	-0.08852234
220	0x3e63a228	0.22229826
221	0x3f047d37	0.5175356
222	0xbcf3e52f	-0.02977237
223	0x3e083e48	0.13305008
224	0xbea4132a	-0.3204587
225	0x3c7504a5	0.014954721
226	0x3aace484	0.0013190662
227	0xbdf11820	-0.117721796
228	0x3e46df68	0.1942116
229	0xbdba9534	-0.091104895
230	0xbe4c821e	-0.19971511
231	0xbd3c9c37	-0.046047416
232	0x3d1d1b60	0.038356185
233	0x3d8b988a	0.06816204
234	0xbd142597	-0.03616866
235	0xbdf23e6d	-0.11828313
236	0x3d20f70e	0.03929811
237	0x3dc6f7b1	0.09715212
238	0x3d8bac24	0.068199426
239	0xbd8c5dc8	-0.06853825
240	0xbc7c3853	-0.015394288
241	0x3e73b9bf	0.23801325
242	0xbc8f04ec	-0.017458402
243	0xbc7ee9aa	-0.01555864
244	0x39b4bac1	0.00034471418
245	0xbe893284	-0.26796353
246	0xbcbd084c	-0.023075245
247	0xbe546816	-0.2074283
248	0xbe94da29	-0.29072693
249	0x3d7c4d8a	0.061597385
250	0xbdd5a1c4	-0.10431245
251	0xbcfbc92e	-0.030735578
252	0x3da1d2a4	0.07901505
253	0xbd984c09	-0.074363776
254	0x3de3d626	0.1112483
255	0x3d8c4a6c	0.06850132

network_body._body_endoder.seq_layers.0.bias f4 [64]
0	0xbdc69c28	-0.09697753
1	0xbd3c26d0	-0.045935452
2	0xbc840801	-0.016117098
3	0xbd001b5e	-0.0312761
4	0xbc429a8c	-0.011877667
5	0x3c5d8bec	0.0135221295
6	0x3c0d6b1c	0.008631494
7	0x3d7bddbc	0.06149076
8	0xbd303486	-0.04301884
9	0xbb88a8dd	-0.0041705207
10	0xbc760618	-0.015016101
11	0x3caafb10	0.020871669
12	0x3d1d207a	0.03836105
13	0xbd482408	-0.048862487
14	0xbba26522	-0.0049559036
15	0x3d0a74a7	0.033802655
16	0xbd9970f6	-0.07492249
17	0x3d58bb72	0.052913137
18	0x3c45c5a5	0.012071048
19	0xbc7fe47b	-0.015618439
20	0xbcf4fa27	-0.029904438
21	0xbc805abc	-0.015668266
22	0x3b7fd1bb	0.0039034921
23	0xbd02ed2b	-0.031964462
24	0xbd7c0901	-0.061532024
25	0xbce13432	-0.027490709
26	0x3c376f03	0.011195901
27	0x3d2553ea	0.04036323
28	0x3d4fb288	0.05070737
29	0xbd15fcee	-0.036618166
30	0xbcac24ef	-0.021013705
31	0xbd988de7	-0.07448941
32	0xbc02d19b	-0.007984544
33	0xbb8ef408	-0.004362587
34	0xbba306ac	-0.0049751606
35	0xbcc7205d	-0.024307424
36	0xbbd68baf	-0.0065474133
37	0xbc77d295	-0.01512589
38	0x3d028eeb	0.03187458
39	0x3d03efef	0.03221124
40	0x3c46635d	0.012108651
41	0x3cf62181	0.030045273
42	0xba5235c2	-0.0008018875
43	0xbcf9a619	-0.03047471
44	0x3c2455cb	0.01003022
45	0x3bbfad9d	0.0058495537
46	0xbda2c1d1	-0.07947124
47	0xbd0df528	-0.034657627
48	0xbd900479	-0.07032103
49	0x3bdf66ab	0.006817659
50	0x3c41b351	0.0118225375
51	0xbccf9f3e	-0.025344487
52	0xbc807b1a	-0.0156837
53	0xbcb162f8	-0.021653637
54	0x3cf7d505	0.030252943
55	0xbc299623	-0.010350737
56	0xbce720d6	-0.0282139
57	0x3c249bdf	0.010046928
58	0xbd67254f	-0.056432065
59	0xbcd7a568	-0.026323989
60	0xbd1b0630	-0.037847698
61	0xbda5a10b	-0.08087357
62	0xbb2b6850	-0.0026154704
63	0x3d2b6f99	0.041854475

network_body._body_endoder.seq_layers.2.weight f4 [64, 64]
0	0x3ceb8ccc	0.02875366
1	0xbdca9640	-0.09891939
2	0xbde08edc	-0.10964748
3	0x3e2941fc	0.16529077
4	0xbe3692da	-0.17829457
5	0x3dbc428f	0.091923825
6	0x3ebc0500	0.36722565
7	0x3c020807	0.007936484
8	0xbe85a8ca	-0.26105338
9	0x3cad25da	0.021136213
10	0x3d843256	0.06454913
11	0xbd9855cb	-0.07438239
12	0xbdf1c8a1	-0.11805845
13	0x3ce70805	0.028202066
14	0xbe077a98	-0.1323036
15	0xbddf938e	-0.10916816
16	0xbe4b0925	-0.19827707
17	0xbde6ab01	-0.11263085
18	0x3dc4f374	0.096167475
19	0x3d3e663f	0.04648423
20	0xbd5da04f	-0.05410796
21	0xbc26b4bc	-0.010174926
22	0xbe918f11	-0.28429464
23	0x3d680844	0.056648508
24	0xbc3f703c	-0.011684474
25	0xbb91bc3b	-0.0044474876
26	0xbb4d5f20	-0.0031337216
27	0xbe2373cc	-0.15962142
28	0xbbbc8482	-0.005753101
29	0xbd5c4193	-0.053773474
30	0xbe13b018	-0.14422643
31	0xbecaf118	-0.39637065
32	0x3d94e392	0.07269968
33	0x3ec321b3	0.38111648
34	0xbc8006bf	-0.015628217
35	0xbe02f3c7	-0.12788306
36	0xbe8f172b	-0.27947363
37	0x3c9a1f55	0.018813768
38	0xbbf31659	-0.0074184355
39	0x3e0f2e2b	0.13982455
40	0x3ba4aae0	0.0050252527
41	0x3e422d59	0.18962611
42	0x3e502751	0.20327498
43	0xbd87db51	-0.06633628
44	0x3e24b203	0.16083531
45	0x3e4fc8f3	0.202915
46	0x3e762cc5	0.24040516
47	0x3e062909	0.13101591
48	0x3dd510b9	0.1040358
49	0x3e9f15e1	0.3107138
50	0xbdfc2cf2	-0.1231326
51	0x3e439bcb	0.19102399
52	0x3d631bc9	0.05544642
53	0xbe2ff37b	-0.17182724
54	0x3e6a88ec	0.22903794
55	0x3d92194e	0.07133733
56	0x3dc4b06c	0.09603962
57	0xbe73236f	-0.23743986
58	0x3e867b38	0.26265883
59	0xbd8a4924	-0.06752232
60	0xbeaa4c22	-0.3326121
61	0x3cf561e2	0.0299539
62	0xbeb3e1cd	-0.3513321
63	0xbcb21acf	-0.021741299
64	0x3d1c0119	0.038086984
65	0x3df6e4e3	0.120553754
66	0xbe48fe74	-0.19628316
67	0xbe6dd6b8	-0.2322644
68	0xbe02f7a0	-0.12789774
69	0xbd584964	-0.052804366
70	0xbe701461	-0.23445274
71	0x3ce8b721	0.028407635
72	0xbd656889	-0.056007896
73	0x3e4aa9f4	0.19791394
74	0xbc555022	-0.013019593
75	0x3e4fe5ca	0.20302501
76	0xbd9da65f	-0.076977484
77	0x3d35aed5	0.044356186
78	0xbc7db8a9	-0.015485921
79	0xbdaf2ab5	-0.085530676
80	0xbd4c39fb	-0.049859982
81	0x3e2c7072	0.1683977
82	0xbf143464	-0.5789244
83	0x3c0a3e5d	0.00843772
84	0xbe67282d	-0.2257392
85	0x3ad308ee	0.0016100684
86	0x3e80b91e	0.25141233
87	0x3d5cb755	0.053885777
88	0xbc11d25c	-0.008900251
89	0x3dc4edf7	0.09615701
90	0xbc417f89	-0.011810192
91	0xbdf1ea6d	-0.11812291
92	0xbd49420c	-0.049135253
93	0x3e03bab7	0.12864195
94	0xbe32c3d2	-0.17457512
95	0x3e28241f	0.16420029
96	0x3df35b18	0.11882609
97	0xbd8b71c3	-0.06808808
98	0xbefc18f7	-0.49237797
99	0xbc6b3992	-0.014356988
100	0xbde2c32d	-0.11072383
101	0xbd9f037b	-0.07764336
102	0xbe335d26	-0.17516002
103	0x3cda3d79	0.02664064
104	0xbe83899b	-0.25690922
105	0xbd0525c7	-0.03250673
106	0x3b929e36	0.0044744266
107	0x3e92eea2	0.28697687
108	0x3daeba9b	0.08531686
109	0x3e09ff90	0.13476396
110	0xbea739bc	-0.32661235
111	0xbe46c854	-0.19412357
112	0x3e051dfb	0.12999718
113	0xbe8a4422	-0.27005106
114	0xbda8d059	-0.08242864
115	0xbd881bba	-0.066459134
116	0x3e813f1e	0.25243467
117	0x3e80271d	0.2502984
118	0x3e2bbf9b	0.1677231
119	0xbe610f1e	-0.21978423
120	0xbe334485	-0.17506607
121	0xbbd1677a	-0.006390509
122	0x3e1c6554	0.15273029
123	0x3e5c8fc5	0.21539219
124	0x3e32acb7	0.17448698
125	0x3e924462	0.28567797
126	0x3eb2ed0f	0.34946486
127	0xbe0eeac9	-0.13956751
128	0x3dddcb08	0.10829741
129	0xbd3b90b0	-0.04579228
130	0xbe4cd0a5	-0.20001467
131	0xbe905405	-0.28189102
132	0x3e64e088	0.22351277
133	0xbdbedfcd	-0.0932003
134	0xbd1b4a9c	-0.03791295
135	0xbe72fa84	-0.23728377
136	0xbd7cb197	-0.0616928
137	0xbcac6172	-0.02104256
138	0xbe31cf1f	-0.17364167
139	0xbe486031	-0.19567944
140	0xbe675710	-0.22591805
141	0x3d844606	0.064586684
142	0x3dd06a44	0.101765186
143	0x3d61328d	0.05497985
144	0xbe5e1a8d	-0.21689816
145	0xbe23a08f	-0.15979217
146	0xbec85d7b	-0.3913382
147	0xbe466c0d	-0.19377156
148	0x3d05ffa7	0.032714512
149	0x3de8dc4a	0.11370142
150	0x3dcf434b	0.10120257
151	0x3e58fb04	0.21189505
152	0xbcde4364	-0.027131744
153	0xbb62aba7	-0.0034587176
154	0xbe01e16f	-0.12683652
155	0xbe9d825b	-0.30763516
156	0x3e8e499f	0.27790543
157	0x3df9ae14	0.12191406
158	0x3da359a1	0.0797608
159	0x3d575e08	0.05257991
160	0xbe8beb81	-0.27328113
161	0xbddff37d	-0.109351136
162	0xbe0acdc0	-0.1355505
163	0xbec63ab8	-0.38716674
164	0xbd8c4fd5	-0.06851164
165	0xbd7fa12e	-0.062409572
166	0xbc82c77f	-0.015964268
167	0x3dd3d5e8	0.10343534
168	0x3d7cfab4	0.061762527
169	0x3d280e59	0.041029308
170	0x3c4e039b	0.012574102
171	0xbc9501d6	-0.018189352
172	0x3e87ebf2	0.265472
173	0xbe3b6ac8	-0.18302453
174	0xbe9db858	-0.30804706
175	0x3d0c8c71	0.034313623
176	0x3e780ca3	0.2422357
177	0xbe31923b	-0.17340939
178	0xbe90723c	-0.28212154
179	0xbeb729e8	-0.3577416
180	0x3e31da2f	0.17368387
181	0xbd281ba3	-0.04104198
182	0xbdccf731	-0.100080855
183	0xbe3050c2	-0.17218307
184	0x3e24091c	0.160191
185	0xbce32daf	-0.027731745
186	0x3ead795a	0.33881646
187	0x3db0a7d3	0.0862576
188	0xbe1b14cd	-0.15144654
189	0x3d26fd21	0.040768746
190	0x3d56307c	0.052292332
191	0xbe3d0ac8	-0.18461144
192	0x3e256011	0.16149928
193	0xbd0f4922	-0.034981854
194	0x3e8cdc61	0.27511886
195	0x3e81ad5a	0.2532757
196	0x3c9e9a27	0.019360615
197	0x3d2d1296	0.042254053
198	0x3df5073d	0.11964271
199	0xbd067177	-0.032823052
200	0xbd7e7b1f	-0.062129136
201	0xbe40fbc9	-0.18846048
202	0xbe078e94	-0.13237983
203	0x3e0f6e6f	0.14006971
204	0x3eabf24a	0.3358329
205	0xbe2a68ca	-0.16641536
206	0xbe018742	-0.12649253
207	0xbda1b04f	-0.07894956
208	0xbda56237	-0.080753736
209	0xbd531d78	-0.051541775
210	0xbd27f9d7	-0.04100975
211	0x3e48ace2	0.195972
212	0xbe5db7ea	-0.21652189
213	0x3e6b5491	0.22981478
214	0xbe7ba610	-0.24575067
215	0xbe861863	-0.2619048
216	0xbd809a1f	-0.06279396
217	0xbda3fb13	-0.08006873
218	0x3e2f3b6c	0.17112511
219	0x3de6eb04	0.112752944
220	0xbe4b6409	-0.19862379
221	0xbe17086a	-0.14749303
222	0xbd953508	-0.072855055
223	0xbe6e864b	-0.23293416
224	0x3dadce4a	0.08486612
225	0x3e9d5e12	0.30735832
226	0x3cd46b69	0.025930123
227	0xbdd0b080	-0.10189915
228	0x3d9210b2	0.07132091
229	0xbd80056d	-0.06251035
230	0x3cc54e1c	0.024085097
231	0x3db3fb4c	0.087881655
232	0xbccb3035	-0.02480326
233	0x3e4efe67	0.20214234
234	0xbe231241	-0.15924932
235	0xbd85965d	-0.0652282
236	0xbe9807b9	-0.29693392
237	0x3e3225c1	0.17397214
238	0xbd95838f	-0.073004834
239	0xbe3604f4	-0.17775327
240	0xbef17450	-0.47159052
241	0x3dcd916b	0.10037502
242	0x3e4dd8a0	0.20102167
243	0x3c57e5a6	0.013177311
244	0x3e47cf8a	0.19512764
245	0xbe91121b	-0.28334126
246	0xbeb1b75f	-0.34710214
247	0x3e4d6a6b	0.20060126
248	0x3e36005f	0.17773579
249	0xbd985cd9	-0.07439584
250	0x3d7572be	0.05992388
251	0xbd731a3f	-0.059351202
252	0x3eb6f638	0.35734725
253	0xbdd3fa58	-0.10350484
254	0xbee2f628	-0.44328427
255	0xbd828454	-0.06372896

network_body._body_endoder.seq_layers.2.bias f4 [64]
0	0x3d526773	0.051368188
1	0x3dd7007a	0.10498138
2	0x3b84c4bf	0.0040517743
3	0x3a93c183	0.0011272881
4	0xbd2c8ad5	-0.042124588
5	0x3b955bbf	0.004558056
6	0x3d487455	0.048939068
7	0x3bc654a0	0.0060525686
8	0x3b39011e	0.0028229426
9	0xbd1015ec	-0.035177156
10	0x3c183f71	0.009292469
11	0xbd84abe7	-0.064781
12	0x3d2a08a2	0.04151214
13	0x3d157614	0.03648956
14	0x3ce7e26f	0.028306214
15	0x3d996d08	0.07491499
16	0x3cc9467d	0.024569744
17	0xbdc6d05f	-0.097077124
18	0x3bb44d0c	0.0055023488
19	0x3c017e81	0.007903696
20	0x3d335bc4	0.043788686
21	0xbd0859b3	-0.03328867
22	0xbc92e3bd	-0.01793086
23	0xbd1a9d09	-0.037747417
24	0xbd2394cd	-0.03993683
25	0x3cdc0621	0.026858391
26	0x3c5bfe50	0.013427332
27	0xbd7a71e5	-0.061143775
28	0xbdbe1151	-0.092806466
29	0x3d8de111	0.06927694
30	0x3d165202	0.036699302
31	0xbc2a5838	-0.01039701
32	0x3d384c8d	0.04499488
33	0x3c9ade5a	0.018904854
34	0x3d82840d	0.06372843
35	0xbda4ed45	-0.08053068
36	0x3d2ad0e1	0.04170311
37	0x3d6d8333	0.05798645
38	0xbd068d43	-0.03284956
39	0xbd95e37a	-0.07318778
40	0x3d12466f	0.035711702
41	0x3d9ddabc	0.07707736
42	0xbcc71425	-0.024301598
43	0x3d2020eb	0.039093893
44	0x3d54a0b9	0.05191109
45	0x3d4d0d0f	0.05006128
46	0x3d72946d	0.05922358
47	0x3d5d1345	0.053973455
48	0x39ea069f	0.0004463689
49	0x3da25823	0.07926967
50	0x3d3c642e	0.045993976
51	0xbd5a77fa	-0.053337075
52	0x3da1f8bd	0.07908771
53	0xbc97ebe5	-0.0185451
54	0xbd02ddaa	-0.031949677
55	0x3cadaa89	0.021199482
56	0xbbce2e93	-0.006292173
57	0x3b1b9895	0.002374207
58	0xbd98aae0	-0.07454467
59	0xbd512117	-0.051056948
60	0x3cf031a8	0.029320553
61	0xbc97bb28	-0.01852186
62	0xbd4c907e	-0.049942486
63	0x3b9d06a1	0.00479205

network_body._body_endoder.seq_layers.4.weight f4 [64, 64]
0	0xbe9a6093	-0.30151805
1	0xba9b9214	-0.0011869096
2	0x3e98c2a1	0.2983599
3	0xbeb0ecf6	-0.34555787
4	0xbdfbe911	-0.12300313
5	0x3e5ce68a	0.21572319
6	0xbcf15cb9	-0.029463159
7	0xbc1219a0	-0.008917242
8	0xbdd3c6a6	-0.103406236
9	0xbe75145b	-0.23933546
10	0x3d859d08	0.06524092
11	0xbeb2c571	-0.3491626
12	0xbd3152b4	-0.043291762
13	0x3d1f69b1	0.038919155
14	0x3e88aecb	0.26695856
15	0x3cbb9c34	0.022901632
16	0xbd296044	-0.04135157
17	0x3ca5a1c5	0.02021874
18	0xbd0f6050	-0.03500396
19	0x3e9f0ffb	0.3106688
20	0x3c9a79d5	0.018856922
21	0xbdf8b286	-0.12143426
22	0xbd1d039e	-0.038333528
23	0xbd78286d	-0.060585428
24	0xbe8b07d4	-0.2715441
25	0x3b34fded	0.0027617172
26	0xbd4b64c1	-0.049656633
27	0x3e81a4c2	0.25321013
28	0xbe334ba4	-0.17509323
29	0xbdd0ae02	-0.10189439
30	0xbe1fcf50	-0.15606427
31	0xbdc23a5e	-0.09483789
32	0x3e082962	0.13297036
33	0xbe78a28c	-0.24280757
34	0xbec0ef48	-0.37682557
35	0xbe78bc97	-0.24290691
36	0x3d33be05	0.04388239
37	0xbab65a47	-0.0013912403
38	0xbd8d8ead	-0.06911979
39	0xbd82a8ad	-0.063798286
40	0xbdf99801	-0.121871956
41	0x3e1975a8	0.14986289
42	0xbec66932	-0.38752133
43	0x3e46b171	0.19403626
44	0xbc71f528	-0.014767922
45	0xbe2d51cf	-0.16925739
46	0x3f0af738	0.54283476
47	0xbead16c6	-0.33806437
48	0xbebc8b21	-0.36824897
49	0x3d4a1eb3	0.049345683
50	0x3d2eaec2	0.04264713
51	0xbeb489ec	-0.35261476
52	0x3e819edc	0.25316513
53	0x3ebc74a2	0.36807734
54	0xbdcc1613	-0.09965148
55	0x3d485fe7	0.048919585
56	0x3d6dc403	0.05804826
57	0xbd5f4dc6	-0.05451753
58	0xbe46e1be	-0.19422051
59	0xbde3ba2f	-0.11119496
60	0x3ede259e	0.43388075
61	0xbc0304be	-0.007996736
62	0xbe027c5e	-0.12742755
63	0xbe9711c1	-0.29505733
64	0x3e0874a9	0.13325752
65	0xbe874e41	-0.2642689
66	0x3e5caf67	0.21551286
67	0xbd5f595d	-0.054528583
68	0xbe96d41e	-0.29458708
69	0xbdb960e6	-0.09051685
70	0x3e01b6ec	0.12667435
71	0xbd9774cf	-0.07395326
72	0xbe81e706	-0.2537157
73	0xbd0f3884	-0.034966007
74	0xbe844b20	-0.25838566
75	0x3d82326f	0.06357276
76	0x3e11313e	0.1417894
77	0xbe3e68da	-0.18594685
78	0x3e268b88	0.16264164
79	0x3c07ddd3	0.008292633
80	0x3ccc3abe	0.024930354
81	0xbdcb92a2	-0.09940077
82	0xbe5d4262	-0.21607354
83	0x3d8f9719	0.070112415
84	0xbd4e2402	-0.05032731
85	0x3ecb978d	0.39764062
86	0xbe05e527	-0.13075696
87	0xbd65fe9d	-0.05615102
88	0xbe7c3ddc	-0.24632972
89	0x3e47c887	0.19510089
90	0x3aec1224	0.0018010777
91	0xbdba6968	-0.09102136
92	0xbea9e830	-0.33184958
93	0xbd1808f6	-0.03711792
94	0x3da1daba	0.07903047
95	0x3dfbc0f8	0.12292665
96	0x3c7b680e	0.015344633
97	0x3eaca40e	0.33718914
98	0xbe76f4b8	-0.2411679
99	0xbd776c7b	-0.06040619
100	0x3d6255b7	0.055257525
101	0x3e07d315	0.13264115
102	0xbdd7e20f	-0.10541164
103	0xbd9e0229	-0.07715256
104	0xbdb07b09	-0.08617217
105	0xbe227086	-0.15863237
106	0xbe52aa3d	-0.20572753
107	0xbd91cdc7	-0.07119327
108	0xbe36ca9a	-0.17850724
109	0x3db62769	0.08894236
110	0xbf01d8df	-0.50721544
111	0x3d69809a	0.05700741
112	0xbd9a859f	-0.075450175
113	0x3d653e7d	0.055967797
114	0xbdb4ecf5	-0.088342585
115	0xbd826f3d	-0.06368873
116	0xbdf2ea3d	-0.11861084
117	0xbe73f72e	-0.2382476
118	0xbe92a31f	-0.28640077
119	0xbe5d741b	-0.21626322
120	0xbe4399ff	-0.19101714
121	0xbd5850dc	-0.05281149
122	0xbd501fff	-0.050811764
123	0x3e9f00a7	0.31055185
124	0x3d917234	0.07101861
125	0x3dffecaf	0.12496316
126	0xbe97e525	-0.2966701
127	0xbcf77d14	-0.03021101
128	0xbdb39427	-0.08768492
129	0xbcf397c2	-0.02973545
130	0x3e6bbfdd	0.23022409
131	0x3e17d453	0.14827089
132	0x3e0e35c8	0.13887703
133	0xbce07255	-0.027398268
134	0xbccfca31	-0.025364967
135	0x3c1a99df	0.0094361
136	0x3e4ca092	0.19983128
137	0xbe5ae681	-0.21376993
138	0xbd7f6978	-0.062356442
139	0xbe1ac675	-0.15114768
140	0xbe646231	-0.22303082
141	0xbe5b185c	-0.21396011
142	0xbd9c96c8	-0.07645947
143	0xbdb3c2e9	-0.087774105
144	0xbdedaae2	-0.11604859
145	0xbe58f224	-0.2118612
146	0xbe38c1dd	-0.18042703
147	0xbcc7bf3e	-0.024383184
148	0x3ddf0a67	0.10890656
149	0x3ea7cb8c	0.3277248
150	0x3df33d2a	0.118769005
151	0x3e114e39	0.14189996
152	0xbdb4ceec	-0.0882853
153	0x3d9c028f	0.076176755
154	0xbe1cfc46	-0.1533061
155	0xbddb3729	-0.1070388
156	0x3e63f26c	0.22260445
157	0xbe9fa921	-0.31183723
158	0xbcd13e19	-0.025542306
159	0xbd360e27	-0.04444709
160	0xbe2ee661	-0.1708007
161	0xbd2968d1	-0.041359726
162	0x3d88686c	0.06660542
163	0xbd35131c	-0.044207677
164	0xbdc099e2	-0.09404351
165	0xbdefb26d	-0.11703954
166	0xba213ade	-0.00061504345
167	0x3d86dac7	0.06584697
168	0x3d0f170c	0.03493409
169	0x3bb8fa92	0.0056451047
170	0x3e57d5b2	0.21077612
171	0x3e519e8f	0.20470642
172	0x3dcc46a4	0.09974411
173	0xbe00ee06	-0.12590799
174	0xbd905523	-0.070474885
175	0xbdacfea9	-0.0844701
176	0x3e4062ea	0.18787733
177	0xbe41df1a	-0.18932763
178	0xbe21be59	-0.15795268
179	0xbccb90cf	-0.024849324
180	0x3dda1be0	0.10649848
181	0xbd15e41f	-0.036594506
182	0x3cb0a341	0.02156222
183	0x3e140fde	0.14459178
184	0xbe3b2601	-0.18276216
185	0xbe4461a2	-0.19177869
186	0x3dff1825	0.12455777
187	0x3eba41d7	0.36378357
188	0xbea29c0f	-0.31759688
189	0x3e0730c0	0.1320219
190	0xbe246754	-0.16055042
191	0x3d2c7061	0.04209936
192	0x3e0a0d2a	0.13481584
193	0x3e04ead7	0.1298021
194	0xbdfbf45c	-0.12302467
195	0xbe70a94a	-0.23502079
196	0x3d20d360	0.039264083
197	0xbe50bc0a	-0.20384231
198	0xbd9b82f2	-0.07593335
199	0x3d9de5c4	0.0770984
200	0xbd6e4dd4	-0.05817969
201	0x3e91e85e	0.28497595
202	0xbe5a024e	-0.21289942
203	0xbea1654f	-0.31522605
204	0xbe5cab42	-0.21549705
205	0xbebae840	-0.36505318
206	0xbd56ff22	-0.052489407
207	0xbd989593	-0.07450404
208	0xbe3173dd	-0.17329355
209	0xbc267afa	-0.010161156
210	0xbc266dc3	-0.010158005
211	0xbe0b4b10	-0.13602853
212	0x3e4e7dc6	0.20165166
213	0xbe07bed1	-0.13256384
214	0x3d926d1e	0.07149719
215	0x3d0faaf4	0.035075143
216	0x3da84d22	0.08217837
217	0x3d0c5ad3	0.034266304
218	0x3daeb716	0.085310146
219	0xbdb87894	-0.090073735
220	0x3e29e79e	0.16592261
221	0x3e7d12dc	0.24714226
222	0xbca92c58	-0.020651028
223	0x3e837f6a	0.25683147
224	0x3e32c979	0.17459668
225	0x3e26624a	0.16248432
226	0x3e394d6f	0.18095945
227	0xbca1241d	-0.01967054
228	0xbd862afd	-0.06551168
229	0xbe315e39	-0.173211
230	0xbe5a1746	-0.2129794
231	0xbe85dbbf	-0.26144215
232	0xbeafd1a6	-0.34339637
233	0xbd183a5a	-0.037165023
234	0x3ea82616	0.32841557
235	0xb9eb7af9	-0.00044914315
236	0xbdb3440f	-0.087532155
237	0xbe03dd00	-0.12877274
238	0x3de90db7	0.11379569
239	0x3e1689df	0.14701031
240	0xbde8c477	-0.11365598
241	0x3e05ad42	0.13054374
242	0xbeab777f	-0.33489606
243	0xbdc7818d	-0.09741507
244	0x3d91c34e	0.071173295
245	0x3ee9e0df	0.45679376
246	0x3c43a141	0.011940301
247	0x3ef8a5ba	0.4856394
248	0x3d2f020a	0.042726554
249	0xbe7031a7	-0.23456441
250	0xbcfcf342	-0.030877713
251	0x3e812e19	0.25230482
252	0xbe3adbf2	-0.18247965
253	0xbe5eaad6	-0.21744856
254	0x3dbc888f	0.09205734
255	0xbdc29ce2	-0.09502579

network_body._body_endoder.seq_layers.4.bias f4 [64]
0	0x3d65a763	0.056067836
1	0xbdbc1b36	-0.091848776
2	0xbcfbb470	-0.030725688
3	0x3cf2de3a	0.029646982
4	0x3c9c641b	0.019090703
5	0x3dc25ae8	0.09489995
6	0xbd78e6cc	-0.06076698
7	0x3da1053b	0.07862326
8	0xbcd42777	-0.025897725
9	0x3dc42d14	0.095789105
10	0x3d9dc943	0.07704403
11	0xbd502e90	-0.050825655
12	0x3d067e7e	0.032835476
13	0xbca9e079	-0.02073692
14	0x3d818f75	0.063261904
15	0x3e11979b	0.14217989
16	0x3d0768a7	0.03305879
17	0x3a99f3e7	0.0011745662
18	0xbdc2dc5b	-0.09514686
19	0x3d778133	0.06042595
20	0x3cd239d3	0.025662338
21	0x3c8f4ec3	0.017493611
22	0xbdae00c0	-0.08496237
23	0xbd45a1cc	-0.048250005
24	0x3d586d7b	0.052838784
25	0x3da7f59a	0.08201142
26	0x3da236b5	0.07920591
27	0x3b0b6de4	0.0021275217
28	0xbcadfd6e	-0.021239009
29	0x3d9b8f59	0.07595701
30	0xbc802c86	-0.01564623
31	0x3decd3c5	0.11563829
32	0xbe14563d	-0.14486022
33	0x3e08eb6d	0.13371058
34	0x3dc9088e	0.09816085
35	0xbcbdf836	-0.023189645
36	0xbd84b01a	-0.06478901
37	0x3d8ec3ec	0.06970963
38	0x3d89fb7e	0.067374215
39	0xbe2e2464	-0.1700607
40	0xbc4bbe99	-0.012435579
41	0x3d97eb1a	0.07417889
42	0x3bf71d8f	0.0075413655
43	0x3cc017c2	0.023448829
44	0x3d60b516	0.054860197
45	0xbb652248	-0.003496306
46	0x3d863972	0.065539256
47	0xbce11114	-0.027473964
48	0x3d2110e7	0.03932276
49	0x3d95d26d	0.07315526
50	0x3daa3d03	0.08312418
51	0x3c5976a9	0.01327292
52	0xbcaea980	-0.021321058
53	0x3db8ab36	0.09017031
54	0x3e087295	0.1332496
55	0xbca63cca	-0.020292658
56	0x3c90f07e	0.0176928
57	0x3dee4233	0.1163372
58	0xbd4e0abb	-0.050303202
59	0xbd3d6d85	-0.046247024
60	0xbd9d0cdc	-0.07668468
61	0xbca2f128	-0.019890383
62	0xbdcc5486	-0.09977059
63	0x3dec00bc	0.115235776

action_model._continuous_distribution.log_sigma f4 [1, 44]
0	0x3eed55d3	0.4635454
1	0x3f655eb5	0.89597636
2	0x3f40acc6	0.7526363
3	0x3f25923f	0.6467628
4	0x3edf8f38	0.43663955
5	0x3f39e334	0.7261231
6	0x3f199942	0.5999948
7	0x3f30b56e	0.6902684
8	0x3ec876e0	0.39153194
9	0x3edc2d31	0.43003228
10	0x3f49d58c	0.7884147
11	0x3f1917d0	0.5980196
12	0x3eff3ad7	0.4984958
13	0x3ecefb84	0.40426266
14	0x3f3e75e2	0.74398625
15	0x3f01ee7d	0.5075453
16	0x3e61daaa	0.2205607
17	0x3eaf123d	0.34193602
18	0x3e820a8f	0.2539868
19	0x3edffa02	0.43745428
20	0x3ebb4b6b	0.36580977
21	0x3f0e502d	0.5559109
22	0x3ef1c078	0.47217155
23	0x3f670112	0.9023601
24	0x3ead9190	0.33900118
25	0x3e890652	0.26762635
26	0x3ee2e822	0.44317728
27	0x3ecd61c4	0.40113652
28	0x3dc48e5f	0.09597468
29	0x3f3d938d	0.7405327
30	0x3f1636d6	0.58677423
31	0x3f17d7e0	0.59313774
32	0x3f1bb5e6	0.6082443
33	0x3e5c0812	0.21487454
34	0x3f1503be	0.58208835
35	0x3ed3bc86	0.4135477
36	0x3f19797a	0.59950984
37	0x3ec5a116	0.3859946
38	0x3e9d6502	0.30741125
39	0x3ec77d2e	0.38962692
40	0x3f254c88	0.645699
41	0x3f1399ed	0.5765675
42	0x3e6e26af	0.23256944
43	0x3eea0148	0.45704103

action_model._continuous_distribution.mu.weight f4 [44, 64]
0	0xbd391a34	-0.045191005
1	0xbc71bdb9	-0.014754706
2	0xbdc23440	-0.09482622
3	0xbd8e1ef3	-0.06939497
4	0xbd7ab9e1	-0.061212424
5	0x3ce64f0a	0.02811386
6	0x3ce71c6f	0.0282118
7	0x3deab6e9	0.114606686
8	0x3e0eacc5	0.13933094
9	0x3ce0df4c	0.027450226
10	0xbd80b7f6	-0.06285088
11	0xbcea0161	-0.02856511
12	0xbdb2db2d	-0.08733211
13	0xbe04ddd1	-0.12975241
14	0x3d75bb28	0.05999294
15	0xbdfdc259	-0.123905845
16	0xbe725f73	-0.23669223
17	0x3e70f8fa	0.23532477
18	0xbd16992a	-0.036767162
19	0xbdfd1c7d	-0.12358949
20	0x3dda099d	0.10646365
21	0xbd13d52d	-0.036091972
22	0x3de2b4fd	0.11069677
23	0x3e79205a	0.24328747
24	0xbd680b67	-0.0566515
25	0xbd9295c2	-0.0715747
26	0x3dba37d9	0.09092683
27	0x3c3cb1ed	0.01151703
28	0xbe006df5	-0.12541945
29	0x3de4601d	0.11151145
30	0xbaca0bc8	-0.0015414888
31	0xbde9a012	-0.11407484
32	0xbd1d68e0	-0.038430095
33	0xbdda4dd2	-0.10659374
34	0xbd095854	-0.033531502
35	0xbd9b5acf	-0.0758568
36	0x3c8c26ce	0.017108347
37	0x3e4f208d	0.20227261
38	0x3d6154b9	0.05501244
39	0xbd8293a5	-0.06375817
40	0xbdd3bc4d	-0.1033865
41	0xbda237f9	-0.07920832
42	0x3e3f2ec8	0.1867019
43	0x3e1063ee	0.1410062
44	0x3dab6942	0.08369686
45	0x3d3a0d55	0.04542287
46	0xbde08753	-0.10963311
47	0x3d0e526b	0.03474657
48	0x3d40f13f	0.04710507
49	0xbbdd531d	-0.0067542926
50	0x3dc9d557	0.098551445
51	0xbdac2d6a	-0.084070995
52	0xbd3a695f	-0.045510646
53	0xbd169e0f	-0.03677183
54	0x3ddf2abe	0.10896824
55	0x3d1321ab	0.03592078
56	0xbcd08017	-0.025451703
57	0xbd06550e	-0.03279596
58	0x3c6f975b	0.014623488
59	0xbddb4758	-0.10706967
60	0xbd1f2efd	-0.03886317
61	0x3d7d8599	0.061894987
62	0xbe0bf6bc	-0.1366834
63	0xbdfb3dc4	-0.1226764
64	0xbe1e7d43	-0.15477471
65	0x3d9188c5	0.07106165
66	0x3cfd81c6	0.03094567
67	0x3de88c8b	0.113549314
68	0x3b0df6f9	0.00216621
69	0x3d687d83	0.056760322
70	0x3cc11bbf	0.0235728
71	0x3dfbcf2f	0.122953765
72	0x3da87cd2	0.082269326
73	0x3cf66d03	0.030081278
74	0xbdeb9989	-0.11503894
75	0x3d8c61ff	0.06854629
76	0x3ce3b3c1	0.027795674
77	0x3e0b0e19	0.13579597
78	0x3e022e8a	0.12713066
79	0x3d9a66d1	0.07539142
80	0x3e3406c0	0.175807
81	0x3c319d6d	0.010840756
82	0x3e13ebdf	0.14445446
83	0xbe43aa74	-0.19107991
84	0x3d00a2fc	0.031405434
85	0xbd878086	-0.06616311
86	0xbdd1732a	-0.10227044
87	0x3d8158d8	0.06315774
88	0x3e83844c	0.25686872
89	0xbd703901	-0.058648113
90	0xbcb36284	-0.021897562
91	0x3d05da1f	0.03267872
92	0x3cc87a4c	0.024472378
93	0xbdcfe152	-0.10150398
94	0x3db8c11e	0.09021209
95	0xbd262cb4	-0.040569976
96	0xbdda1ee5	-0.10650424
97	0x3ccff51c	0.025385432
98	0xbd2f5957	-0.04280981
99	0xbcb7f399	-0.022455024
100	0x3deb3456	0.11484592
101	0xbd55647a	-0.052097775
102	0x3dfb7409	0.12277991
103	0xbd24762a	-0.040151753
104	0x3cb3c879	0.021946179
105	0x3b5bf15d	0.0033560612
106	0xbda4374e	-0.08018361
107	0x3e867be7	0.26266405
108	0x3da61479	0.081093736
109	0x3d61b26a	0.05510179
110	0x3d51e37f	0.051242348
111	0xbd70d98c	-0.05880122
112	0xbdd2aeaa	-0.10287221
113	0xbd61b84d	-0.055107404
114	0xbc23d272	-0.009998905
115	0x3d9837a9	0.07432491
116	0xbde5bb8d	-0.11217413
117	0xbdb17f41	-0.0866685
118	0x3cfdb5e0	0.030970514
119	0xbd09576d	-0.03353064
120	0xbdcd5300	-0.100255966
121	0xbd09949d	-0.033588994
122	0x3e05c4f6	0.13063416
123	0x3c048a12	0.008089559
124	0x3c74f357	0.014950595
125	0x3de3a0e1	0.111146696
126	0x3e1124f7	0.14174257
127	0xbe5016f4	-0.20321256
128	0xbc7fbe85	-0.015609388
129	0xbe4070cc	-0.18793029
130	0x3ccf994d	0.025341654
131	0xbcc88c20	-0.02448088
132	0x3e184a47	0.14872085
133	0xbae238f8	-0.001725941
134	0xbd61bd3d	-0.055112112
135	0x3b68437f	0.0035440621
136	0xbd8b8982	-0.06813337
137	0xbd3bb2a1	-0.04582465
138	0x3dee0959	0.11622877
139	0xbd61f4d2	-0.05516512
140	0xbdcf25bd	-0.1011462
141	0x3d5e5bef	0.054286893
142	0x3dafc5ec	0.085826725
143	0xbd2297cb	-0.039695542
144	0x3dc38ada	0.09547968
145	0x3d0281ba	0.031862
146	0x3dc3ce6b	0.095608555
147	0x3c99388f	0.018703727
148	0x3d807b2d	0.06273494
149	0x3c686a33	0.014185476
150	0x3c0369c9	0.008020827
151	0x3cd7e753	0.026355421
152	0xbdf637be	-0.12022351
153	0x3d9c4631	0.076305754
154	0x3de8f81a	0.113754466
155	0x3d599c03	0.0531273
156	0x3e439e33	0.19103317
157	0xbcc4a6e6	-0.024005365
158	0x3e1bc552	0.1521199
159	0xbc48cd98	-0.012256049
160	0xbd78c2a4	-0.0607325
161	0xbd8a0fd8	-0.06741303
162	0x3e0c3074	0.13690358
163	0x3e32cbb3	0.17460518
164	0xbdd56c73	-0.10421076
165	0xbc3b9a91	-0.011450426
166	0x3e2095de	0.1568217
167	0x3d745a95	0.0596567
168	0xbe0aff75	-0.13574012
169	0xbdaf6bea	-0.08565505
170	0x3e1f9605	0.15584572
171	0x3da821d7	0.082095794
172	0x3cd3df97	0.025863452
173	0x3b92679f	0.004467919
174	0x3d0552ed	0.032549787
175	0x3e3a9b75	0.18223365
176	0xbbd120bd	-0.0063820765
177	0xbe81c857	-0.2534816
178	0x3dc20c62	0.09475018
179	0x3c9b8a0a	0.01898672
180	0xbc4b8077	-0.012420765
181	0xbdd7ff7d	-0.105467774
182	0xbdde27de	-0.10847448
183	0x3e0d5bd7	0.13804565
184	0x3e3776cb	0.1791641
185	0xbdd68b81	-0.10475827
186	0x3d5852cc	0.052813336
187	0x3c559e1e	0.013038186
188	0xbd6062e4	-0.05478181
189	0x3a7d00d6	0.00096513086
190	0xbe1f3ba1	-0.1555009
191	0xbe0c700c	-0.13714617
192	0xbd0e77c4	-0.034782186
193	0x3ccdcb77	0.025121434
194	0x3b802903	0.003911139
195	0xbd28091b	-0.04102431
196	0xbdd13171	-0.10214508
197	0xb9efe50e	-0.0004575629
198	0x3e93433b	0.2876223
199	0x3e8e0902	0.27741247
200	0x3e4debb0	0.20109439
201	0xbdff9614	-0.12479797
202	0xbd9688b2	-0.07350291
203	0x3dbaaa6c	0.09114537
204	0x3d168c6a	0.036755003
205	0x3d11679d	0.035499204
206	0x3d5e53a9	0.054279003
207	0xbd3b089b	-0.045662504
208	0xbe681c6e	-0.22667095
209	0x3d89e75e	0.06733583
210	0x3e858a40	0.2608204
211	0xbd6ee77a	-0.058326222
212	0xbd456734	-0.048194125
213	0xbe1fdc38	-0.1561135
214	0x3d9499ec	0.07255921
215	0xbd8c7607	-0.068584494
216	0x3e31e50a	0.17372528
217	0xbcea3bc7	-0.028592957
218	0x3d6763fd	0.05649184
219	0x3de9cde4	0.11416224
220	0x3deef4d1	0.11667789
221	0xbce34322	-0.027741972
222	0x3dff8d3d	0.12478111
223	0xbda9fd8d	-0.08300314
224	0x3d639d24	0.055569783
225	0xbdba5343	-0.09097912
226	0x3e23c2f4	0.15992337
227	0xbc94fe7d	-0.018187756
228	0x3dd814c2	0.10550834
229	0x3d8ab6b0	0.06773126
230	0x3defed46	0.11715178
231	0xbda9f41e	-0.08298515
232	0xbd03b1e7	-0.032152083
233	0xbd22cb44	-0.03974463
234	0xbd8aa597	-0.06769865
235	0xbe4df4e2	-0.20112947
236	0x3da4e2bd	0.080510594
237	0x3e35447f	0.1770191
238	0x3d4d0728	0.050055653
239	0x3d6beb88	0.057597667
240	0x3da74ee2	0.081693426
241	0x3e3d29a6	0.18472919
242	0x3cd8de35	0.026473144
243	0xbd25c710	-0.040473044
244	0x3d2d7919	0.042351816
245	0x3e55a972	0.2086542
246	0x3e7919e6	0.24326286
247	0x3e4c5266	0.19953308
248	0x3ce7c1c4	0.028290637
249	0xbe82f0af	-0.25574252
250	0xbcf71782	-0.030162577
251	0xbdc49ecb	-0.096006
252	0x3e106c92	0.14103916
253	0x3d1d4f7d	0.038405884
254	0x3e24422f	0.16040872
255	0xbdce555d	-0.100748755

action_model._continuous_distribution.mu.bias f4 [44]
0	0x3c674821	0.014116318
1	0xbcee44ff	-0.029085634
2	0x3c001ada	0.007818902
3	0xbd98c22e	-0.07458912
4	0x3b0ed6d8	0.0021795537
5	0x3d989915	0.07451073
6	0x3d38e684	0.04514171
7	0x3db78973	0.08961763
8	0xbc6c4e81	-0.014423014
9	0xbcac7c14	-0.021055259
10	0x3d2f1003	0.04273988
11	0xbd2b5d8d	-0.041837264
12	0xbd8304fe	-0.063974366
13	0x3d453c07	0.04815295
14	0xbdaaa93c	-0.0833306
15	0xbba9e7d2	-0.005185106
16	0x3c2229d9	0.009897673
17	0xbd02b762	-0.03191317
18	0xbe38c5e1	-0.18044235
19	0xbc19ce3b	-0.009387548
20	0xbd5e3291	-0.054247443
21	0xbccaf9b3	-0.024777269
22	0xbe088ea8	-0.13335669
23	0xbd9f8bfc	-0.07790372
24	0xbda76792	-0.08174051
25	0xbdd14da5	-0.10219888
26	0xbe787ab6	-0.2426556
27	0xbe0f0d38	-0.13969886
28	0xbd7a2bb1	-0.061076824
29	0x3df8f05a	0.121552184
30	0xbc2bf66f	-0.010495766
31	0xbe1101de	-0.14160869
32	0xbdfcff26	-0.12353353
33	0xbd89b4ae	-0.06723915
34	0xbdf3b1c3	-0.1189914
35	0xbd34d76a	-0.044150747
36	0x3c974ef0	0.018470258
37	0xbc1852e9	-0.009297111
38	0xbc97dcf5	-0.018537978
39	0x3cc1c3d0	0.023652941
40	0xbd8a261d	-0.06745551
41	0xbc3647ed	-0.011125547
42	0xbe201322	-0.15632299
43	0x3d6aee89	0.05735639

exp_avg f4 [64, 94]
0	0xb12e4a91	-2.5362719e-09
1	0x3158fb93	3.157514e-09
2	0x325dc002	1.2907551e-08
3	0x32ccb15e	2.3829383e-08
4	0xb1ce711e	-6.008249e-09
5	0x2f9a4f13	2.8068622e-10
6	0xb1e4adff	-6.6554544e-09
7	0xb1d63633	-6.2343815e-09
8	0x301a8667	5.621587e-10
9	0x31a7a5fe	4.879211e-09
10	0x321cb143	9.1207e-09
11	0x32088079	7.945453e-09
12	0xb2abf876	-2.0020007e-08
13	0xb1c12297	-5.6209717e-09
14	0x324f408f	1.2063665e-08
15	0x329c0d2d	1.8166782e-08
16	0x32936ca3	1.7162455e-08
17	0x328a7c5d	1.6121868e-08
18	0x320c4b0b	8.166135e-09
19	0x3185d07f	3.8945127e-09
20	0x326248ca	1.3171482e-08
21	0x328c0295	1.629932e-08
22	0x31e46a92	6.647789e-09
23	0x2f2b1c30	1.5562374e-10
24	0x3205b7c3	7.7834015e-09
25	0x31bdd605	5.524955e-09
26	0xb2ba7c00	-2.1709639e-08
27	0xb2736812	-1.41681245e-08
28	0xb2874481	-1.574722e-08
29	0x31e28a1e	6.593168e-09
30	0x313eb38c	2.77507e-09
31	0x31160f9e	2.183675e-09
32	0x30c4f72d	1.4331129e-09
33	0xb0a6c10c	-1.2132957e-09
34	0xb2979517	-1.7646512e-08
35	0x316f3fca	3.4815337e-09
36	0x324f1432	1.2053578e-08
37	0xb2442fcc	-1.1419569e-08
38	0x31857759	3.8843777e-09
39	0x3025de0c	6.03422e-10
40	0x3158f95b	3.157388e-09
41	0x326344fa	1.32288225e-08
42	0xb1caa1c7	-5.8973657e-09
43	0xb0d004eb	-1.513539e-09
44	0xb2e5afd4	-2.6739066e-08
45	0x32eaf275	2.7351442e-08
46	0x32deb956	2.5928482e-08
47	0xb29cde85	-1.826198e-08
48	0x333c1da5	4.3799123e-08
49	0x32ac70ff	2.007482e-08
50	0x32864f88	1.563582e-08
51	0x33bb4649	8.720651e-08
52	0x334c1718	4.7518455e-08
53	0x32c2310d	2.2606878e-08
54	0x33237ab1	3.8062982e-08
55	0x32458169	1.1496334e-08
56	0x336a6913	5.4577935e-08
57	0xb0980a8a	-1.1062451e-09
58	0x335901c3	5.0525852e-08
59	0x324c189f	1.1879961e-08
60	0x32a3b93d	1.9059934e-08
61	0xb195820e	-4.3512562e-09
62	0x323df2dc	1.1056468e-08
63	0x32501532	1.2112013e-08
64	0x30ce28f7	1.5000116e-09
65	0x31b2d96a	5.205199e-09
66	0x31e2c44b	6.5997816e-09
67	0x318ce7ef	4.100904e-09
68	0x3132f776	2.6043074e-09
69	0x3157c4c7	3.1398473e-09
70	0x3206237e	7.8078966e-09
71	0xb0978d50	-1.1026859e-09
72	0x31b5a4c4	5.286525e-09
73	0x319cfd84	4.569019e-09
74	0x3112cc4a	2.1361921e-09
75	0x30db7348	1.5967112e-09
76	0x3149159c	2.9261633e-09
77	0x3181d8db	3.7790477e-09
78	0x32023a60	7.580269e-09
79	0x321684e5	8.761366e-09
80	0xb10d4c46	-2.0561557e-09
81	0xaf28ef2b	-1.536448e-10
82	0x3111c2d4	2.1211024e-09
83	0x319d823d	4.5841078e-09
84	0x31f11e67	7.0174795e-09
85	0x31b207e3	5.1813784e-09
86	0x30d16f23	1.5238338e-09
87	0x30e2c604	1.6499944e-09
88	0x31d80768	6.2872694e-09
89	0x2fe5c414	4.179418e-10
90	0x3135ea3e	2.6472118e-09
91	0x31d80768	6.2872694e-09
92	0x2fe5c414	4.179418e-10
93	0x3135ea3b	2.6472111e-09
94	0x37098d05	8.19867e-06
95	0xb85fad71	-5.3328873e-05
96	0x38c45017	9.360926e-05
97	0x38a5f8b9	7.914141e-05
98	0x37809024	1.532591e-05
99	0xb89acd19	-7.381495e-05
100	0x3823af1c	3.902531e-05
101	0xb88e4573	-6.7840236e-05
102	0x39332f5b	0.00017088412
103	0xb8b37308	-8.5568114e-05
104	0xb745b827	-1.1784991e-05
105	0x36906eeb	4.304447e-06
106	0x38b6b470	8.7120454e-05
107	0xb8319607	-4.2339812e-05
108	0x389345e6	7.022526e-05
109	0x38c751ec	9.5043186e-05
110	0xb70c4703	-8.361184e-06
111	0xb8372c57	-4.3671895e-05
112	0x38bfcb51	9.14546e-05
113	0xb7870f25	-1.6100306e-05
114	0x37692a88	1.3897785e-05
115	0x38a6dfc5	7.957177e-05
116	0x38b6b481	8.712058e-05
117	0xb8996c46	-7.315776e-05
118	0xb615d3f1	-2.2326096e-06
119	0x36d3f238	6.316488e-06
120	0x38871883	6.441867e-05
121	0xb8363bd3	-4.3447897e-05
122	0xb6428fb0	-2.899189e-06
123	0x396b401e	0.00022435232
124	0x389f984c	7.610078e-05
125	0xb886a1a7	-6.419728e-05
126	0xb678d94b	-3.708136e-06
127	0x393828ec	0.00017562852
128	0x392a320d	0.00016231109
129	0x38e56325	0.00010938038
130	0x3645bc93	2.9465052e-06
131	0xb8bec040	-9.095715e-05
132	0x37a9452d	2.0178582e-05
133	0xb82c8ddd	-4.1140116e-05
134	0x3792c464	1.7496008e-05
135	0xb7c7b86e	-2.380853e-05
136	0x384de8fe	4.90928e-05
137	0x38077a5e	3.230047e-05
138	0xb99663ce	-0.0002868459
139	0x391a51b5	0.00014717023
140	0xb9a252ac	-0.00030960643
141	0xb9a72ee8	-0.0003188767
142	0x38703df9	5.7278176e-05
143	0xba1981c0	-0.0005855821
144	0x38e6b874	0.00011001612
145	0x389236f6	6.97206e-05
146	0x39217c7b	0.00015400529
147	0xb8c15418	-9.218621e-05
148	0x392630ac	0.00015849125
149	0x3814fd8d	3.5522087e-05
150	0x39138e55	0.00014072035
151	0xb7a7768a	-1.996315e-05
152	0x39165f68	0.00014340656
153	0x392a6e92	0.00016253654
154	0x38fdbcb3	0.00012099128
155	0xb71c4b5f	-9.315873e-06
156	0x37a2a5e8	1.9389161e-05
157	0x372275de	9.683396e-06
158	0xb82da751	-4.140224e-05
159	0x3857e76a	5.1475516e-05
160	0x37b36dcd	2.1389593e-05
161	0x38096c31	3.2764106e-05
162	0xb7be582e	-2.2690827e-05
163	0xb756cf1f	-1.2803618e-05
164	0xb7f68c3a	-2.9390783e-05
165	0x3825863d	3.9464085e-05
166	0x37b8a7b9	2.2012611e-05
167	0x381fafb7	3.80722e-05
168	0xb7eadf33	-2.7998909e-05
169	0x36a58bb7	4.933648e-06
170	0xb6c9ae22	-6.0105385e-06
171	0x3786ebc1	1.6083826e-05
172	0x37a3f383	1.9544508e-05
173	0x37a52241	1.9685483e-05
174	0xb7214406	-9.612186e-06
175	0xb63a1263	-2.7726862e-06
176	0xb7e09e1b	-2.6776504e-05
177	0x381a8f2d	3.6849804e-05
178	0x37a714ba	1.9917603e-05
179	0x375ab39c	1.3035631e-05
180	0xb646cc94	-2.962338e-06
181	0x37bd5e74	2.2574539e-05
182	0xb71a2ba3	-9.189275e-06
183	0x37a1960a	1.9262563e-05
184	0x378cf706	1.680433e-05
185	0xb71a2ba3	-9.189275e-06
186	0x37a1960a	1.9262563e-05
187	0x378cf707	1.6804332e-05
188	0xb53dcf0d	-7.0709285e-07
189	0x3714d8c9	8.871962e-06
190	0xb6c69e94	-5.9193208e-06
191	0xb689e52a	-4.1095964e-06
192	0x376ed632	1.4235777e-05
193	0x37eb8868	2.8077702e-05
194	0x381bb9fa	3.7128084e-05
195	0x35a82342	1.2527237e-06
196	0xb63aac24	-2.7816359e-06
197	0x378b7f0c	1.6629252e-05
198	0x357edcee	9.494387e-07
199	0x382fb636	4.189295e-05
200	0x37aaaf96	2.0347343e-05
201	0x3811aa89	3.4729517e-05
202	0xb6dc35d8	-6.562779e-06
203	0xb63e9662	-2.839974e-06
204	0x36835ff0	3.915273e-06
205	0xb570b5fa	-8.967178e-07
206	0x35f1f62a	1.8027542e-06
207	0x37c2df7a	2.3230667e-05
208	0x37fcdfe1	3.0144993e-05
209	0xb6f7d89d	-7.3863907e-06
210	0x35b9c4f4	1.3840895e-06
211	0x349bdfb5	2.9033768e-07
212	0xb6646e0b	-3.40387e-06
213	0xb7a2b2a9	-1.93951e-05
214	0x371ae9db	9.233564e-06
215	0x37f361f0	2.9013463e-05
216	0x382eaa3c	4.1643376e-05
217	0x373db263	1.1306812e-05
218	0x3669bd31	3.482983e-06
219	0x364815ff	2.9815126e-06
220	0xb6445319	-2.9254645e-06
221	0x37242297	9.783215e-06
222	0x371cea6a	9.352903e-06
223	0x378c802e	1.6748989e-05
224	0x3508da1e	5.098135e-07
225	0x3566dc90	8.600264e-07
226	0x37ac4895	2.0537796e-05
227	0xb71880cf	-9.089897e-06
228	0xb612ea3c	-2.1892038e-06
229	0x3685ac81	3.983791e-06
230	0xb5d2480f	-1.5667191e-06
231	0xb7475584	-1.1881235e-05
232	0xb887871c	-6.462468e-05
233	0x378bcda9	1.666586e-05
234	0x382e454a	4.1549363e-05
235	0xb7c0c958	-2.2981942e-05
236	0x35ab6fc9	1.2773027e-06
237	0x36a4f192	4.9157034e-06
238	0xb6f7e1f8	-7.38748e-06
239	0xb2b9c37b	-2.1625729e-08
240	0xb74d9580	-1.225376e-05
241	0x3807781d	3.2298372e-05
242	0xb76a6749	-1.3971535e-05
243	0x387d6171	6.041065e-05
244	0xb8215da2	-3.8472594e-05
245	0x3882043b	6.199671e-05
246	0xb8766074	-5.87408e-05
247	0x37de0007	2.6464475e-05
248	0x36711d34	3.5928797e-06
249	0xb603b64c	-1.9626632e-06
250	0x36123bea	2.179057e-06
251	0xb14e0906	-2.9982075e-09
252	0xb687fe7f	-4.0529408e-06
253	0x368f414a	4.2693327e-06
254	0xb5e46d5d	-1.7019153e-06
255	0xb6abac58	-5.1162606e-06

exp_avg_sq f4 [64, 94]
0	0x29002f03	2.8462486e-14
1	0x299ccfb8	6.963825e-14
2	0x29035f80	2.9170676e-14
3	0x295cd5cc	4.9035252e-14
4	0x2936704c	4.050952e-14
5	0x29d0dedc	9.2757155e-14
6	0x2a10054f	1.2791611e-13
7	0x2a116dca	1.2916678e-13
8	0x295a3531	4.845186e-14
9	0x2912da14	3.2607665e-14
10	0x29ba9642	8.286125e-14
11	0x29dbd426	9.7623556e-14
12	0x2a330132	1.5898808e-13
13	0x2a47fd68	1.7762669e-13
14	0x29915436	6.453902e-14
15	0x2a23ab86	1.4536817e-13
16	0x2a3a73ff	1.6560363e-13
17	0x2a55bcb4	1.898367e-13
18	0x2a602344	1.9907432e-13
19	0x2a77f02d	2.2021335e-13
20	0x2ab5e317	3.2309634e-13
21	0x2abb701c	3.3295664e-13
22	0x2936232f	4.0442635e-14
23	0x29d23452	9.3349495e-14
24	0x2a356426	1.6110775e-13
25	0x2991f74f	6.482195e-14
26	0x299467dc	6.590537e-14
27	0x2a468048	1.7630439e-13
28	0x29f7637e	1.09862626e-13
29	0x2972ecbd	5.3940132e-14
30	0x29125584	3.2492685e-14
31	0x2a0fab1d	1.2760318e-13
32	0x29e32935	1.00879733e-13
33	0x29b3aa6f	7.9787624e-14
34	0x294abe0b	4.5017846e-14
35	0x299fba85	7.0933744e-14
36	0x29d69b40	9.530441e-14
37	0x29dfb30a	9.934248e-14
38	0x2a2f4055	1.5565442e-13
39	0x2a4fd649	1.8459638e-13
40	0x2a15e623	1.3313703e-13
41	0x2a10c257	1.2857194e-13
42	0x2a162d0d	1.3338306e-13
43	0x2aab02ab	3.0377553e-13
44	0x2c2aa9bf	2.425268e-12
45	0x2c802b89	3.642812e-12
46	0x2bd66381	1.5233232e-12
47	0x2bf7db82	1.7611331e-12
48	0x2c4ff147	2.9550405e-12
49	0x2bcddae8	1.4626885e-12
50	0x2b65e7b1	8.167868e-13
51	0x2b304a53	6.2630906e-13
52	0x2b393f97	6.581345e-13
53	0x2a4c3c70	1.8139808e-13
54	0x2c1e3a55	2.2485531e-12
55	0x2a0d6e8c	1.256167e-13
56	0x2b837cee	9.342785e-13
57	0x2a082711	1.209278e-13
58	0x2b522fc7	7.467329e-13
59	0x2a785d5d	2.2059217e-13
60	0x2ad307f0	3.7486637e-13
61	0x298e66e8	6.323918e-14
62	0x282d309d	9.6139705e-15
63	0x2859a470	1.20815765e-14
64	0x298f0a88	6.3523026e-14
65	0x281a8680	8.577882e-15
66	0x2864b3b8	1.2695513e-14
67	0x299ec554	7.0508405e-14
68	0x26cd56bd	1.4248243e-15
69	0x277c2450	3.499171e-15
70	0x291947e1	3.403517e-14
71	0x292fa062	3.8996916e-14
72	0x294357d5	4.337488e-14
73	0x29a0d5f8	7.142545e-14
74	0x2663858a	7.8937425e-16
75	0x272e9b6d	2.4231607e-15
76	0x298ddd8b	6.3000894e-14
77	0x280f1479	7.942534e-15
78	0x28a254d6	1.8022405e-14
79	0x29a06f96	7.1247844e-14
80	0x268fdc3d	9.982314e-16
81	0x272816ed	2.3327112e-15
82	0x298c6ae1	6.2357895e-14
83	0x2849d77a	1.12044654e-14
84	0x2881bea1	1.4404549e-14
85	0x29a01a0b	7.109945e-14
86	0x26b24f45	1.2372717e-15
87	0x27994fd5	4.2552585e-15
88	0x299b8565	6.906523e-14
89	0x27718baf	3.3521191e-15
90	0x28024430	7.2312355e-15
91	0x299b8565	6.906523e-14
92	0x27718baf	3.3521191e-15
93	0x28024431	7.231236e-15
94	0x341ead94	1.4778044e-07
95	0x347f67b5	2.3786454e-07
96	0x347acdf5	2.3357991e-07
97	0x345ecc4f	2.0749688e-07
98	0x34177e31	1.4108879e-07
99	0x34cdc8f1	3.833043e-07
100	0x34b9feee	3.464442e-07
101	0x34f66f1a	4.5901908e-07
102	0x344b4128	1.8929552e-07
103	0x343b6c68	1.745517e-07
104	0x34087a7d	1.2710548e-07
105	0x3441c564	1.8046336e-07
106	0x34c3923e	3.6427986e-07
107	0x35022036	4.8475647e-07
108	0x33dd689b	1.0310142e-07
109	0x3430f86c	1.6481653e-07
110	0x34387123	1.7177494e-07
111	0x33e3ae58	1.0602224e-07
112	0x338c2df2	6.5276154e-08
113	0x34369729	1.7005063e-07
114	0x34e1dc87	4.206997e-07
115	0x34d400b5	3.9488592e-07
116	0x34346b50	1.6802846e-07
117	0x3458dacd	2.0196167e-07
118	0x33ff2fc3	1.18830506e-07
119	0x33d9b21a	1.01372464e-07
120	0x334f0622	4.820152e-08
121	0x33d94e68	1.0119112e-07
122	0x346c29be	2.1994398e-07
123	0x349a2228	2.8709587e-07
124	0x341a2fc5	1.4359746e-07
125	0x34175d5b	1.4096933e-07
126	0x3425fa49	1.5457876e-07
127	0x343736fd	1.7063208e-07
128	0x345d72d5	2.0624005e-07
129	0x34c5b6f9	3.682724e-07
130	0x343574d7	1.6899445e-07
131	0x345c7327	2.0530989e-07
132	0x349c6bc8	2.9135686e-07
133	0x349866d2	2.8387018e-07
134	0x348aaa39	2.5828356e-07
135	0x34b636c9	3.3940003e-07
136	0x346ae5b6	2.1876517e-07
137	0x347a5c93	2.3316743e-07
138	0x36577549	3.2105766e-06
139	0x36b6782d	5.438013e-06
140	0x367c72cb	3.7617745e-06
141	0x36380c2f	2.7425228e-06
142	0x368e5d57	4.242796e-06
143	0x3659f751	3.2479477e-06
144	0x363a8f2a	2.7799492e-06
145	0x3683c0f3	3.9265665e-06
146	0x36781957	3.696963e-06
147	0x3683fe11	3.9336815e-06
148	0x3675b24b	3.6611625e-06
149	0x368985bf	4.0984883e-06
150	0x36777140	3.6871788e-06
151	0x368a2943	4.117524e-06
152	0x367f4451	3.8037726e-06
153	0x367fa194	3.8092012e-06
154	0x3684de75	3.959804e-06
155	0x330dd29b	3.3020665e-08
156	0x33784027	5.7800346e-08
157	0x33a2a8a6	7.57439e-08
158	0x3321a185	3.7632635e-08
159	0x3358a735	5.0443493e-08
160	0x339925c9	7.131491e-08
161	0x330a6d93	3.2230286e-08
162	0x33809bc9	5.9888016e-08
163	0x33a2f41c	7.588116e-08
164	0x33268f33	3.8780126e-08
165	0x334ec47a	4.8141807e-08
166	0x3397aa1b	7.0624274e-08
167	0x32e335e7	2.645079e-08
168	0x3389ddcc	6.419904e-08
169	0x33a9c7e0	7.906033e-08
170	0x332bbc7f	3.9985476e-08
171	0x3352e79e	4.910509e-08
172	0x3398bdfd	7.11261e-08
173	0x32dad31b	2.547454e-08
174	0x338e4618	6.62514e-08
175	0x33aa9195	7.942723e-08
176	0x33127db9	3.4107618e-08
177	0x3368d282	5.4208165e-08
178	0x339d9278	7.337525e-08
179	0x3304d967	3.093137e-08
180	0x337499fe	5.6950732e-08
181	0x339dcc03	7.347992e-08
182	0x33001ca0	2.9828357e-08
183	0x337b0de7	5.8453136e-08
184	0x33a4092d	7.638514e-08
185	0x33001ca0	2.9828357e-08
186	0x337b0de7	5.8453136e-08
187	0x33a4092e	7.638515e-08
188	0x31d7d4c8	6.281514e-09
189	0x3260fc11	1.3095829e-08
190	0x30fa3cac	1.8207138e-09
191	0x31ac9a4b	5.0234e-09
192	0x32bdba70	2.2087278e-08
193	0x32adcdcc	2.0233436e-08
194	0x32bf8855	2.2297323e-08
195	0x32b7f9fc	2.1417684e-08
196	0x3091faf6	1.0621466e-09
197	0x31228462	2.3649354e-09
198	0x32a6f59a	1.943663e-08
199	0x3274c7b8	1.424808e-08
200	0x32ba6d46	2.1702942e-08
201	0x329cf87c	1.8273788e-08
202	0x30cb4184	1.4788815e-09
203	0x311be5c3	2.2686073e-09
204	0x31b170bf	5.1641957e-09
205	0x329214b5	1.7006053e-08
206	0x3272f262	1.4141365e-08
207	0x32848d40	1.5431056e-08
208	0x32c03037	2.2373667e-08
209	0x3291a287	1.695413e-08
210	0x3041d3ef	7.0514167e-10
211	0x310961b4	1.9991662e-09
212	0x31b1c465	5.1737055e-09
213	0x3232fb61	1.0418121e-08
214	0x32862db3	1.5620435e-08
215	0x3297d830	1.7677024e-08
216	0x328ff933	1.6760714e-08
217	0x327f4516	1.4858662e-08
218	0x30f183cb	1.7572516e-09
219	0x31bc1fef	5.4751506e-09
220	0x32913bb9	1.690738e-08
221	0x32bcab03	2.1963848e-08
222	0x328893d3	1.5899706e-08
223	0x32a2218d	1.887454e-08
224	0x313cf2b8	2.749557e-09
225	0x3216077c	8.732851e-09
226	0x32efd37a	2.791943e-08
227	0x32ec79f6	2.7529477e-08
228	0x3292c362	1.7085487e-08
229	0x32766315	1.4341613e-08
230	0x322cc66f	1.0056836e-08
231	0x32a5eb75	1.9315602e-08
232	0x34501f15	1.9382817e-07
233	0x34a19efe	3.010427e-07
234	0x34995b80	2.8565046e-07
235	0x343ad590	1.7400293e-07
236	0x343e33b0	1.7713933e-07
237	0x344cdb13	1.9078679e-07
238	0x33f35ff6	1.13330245e-07
239	0x342645e9	1.5485388e-07
240	0x342da2a6	1.6171052e-07
241	0x34291363	1.5746404e-07
242	0x3435966a	1.6911659e-07
243	0x34147fff	1.3830139e-07
244	0x33ebde39	1.0983462e-07
245	0x338f0989	6.660691e-08
246	0x33946b29	6.9112794e-08
247	0x3326cf39	3.8838355e-08
248	0x33084607	3.1728657e-08
249	0x311e7319	2.3057452e-09
250	0x310e5dd9	2.0717066e-09
251	0x314d466d	2.9871459e-09
252	0x311364bb	2.1448574e-09
253	0x3116fa6f	2.1970228e-09
254	0x31565d4e	3.1194136e-09
255	0x31212dfa	2.3454718e-09
