results/073/Dynamic Table/Dynamic Table-2999984.onnx (onnx, 123022 bytes, 7 tensors)

network_body._body_endoder.seq_layers.0.weight f4 [128, 57]
0.08689625 0.34802434 0.054044284 -0.1011182 0.15888812 0.09921613 0.04132653 -0.056563053
-0.18178822 0.1145464 0.11397126 0.03614444 -0.26009223 0.06128997 -0.08891245 -0.34226713
-0.1127827 0.16747172 -0.043680638 0.057584643 0.014569999 -0.048124064 0.3884936 0.30921325
0.25972173 -0.10880277 -0.0609088 0.14567335 0.1339814 0.08624918 0.28126508 -0.15889631
0.049405184 0.07203664 0.20165959 -0.09054976 -0.05165865 -0.17814761 0.22483473 -0.1027354
-0.14571823 0.060391508 -0.026952956 0.13967584 0.12675025 0.15257977 -0.16532259 0.050670043
-0.08115283 0.05843916 -0.068896525 -0.13480914 0.04047717 0.033745382 -0.119526096 -0.010223444
0.18341018 0.008062556 -0.015050221 -0.25592798 -0.06116311 -0.13032378 -0.043944973 0.10633148
-0.22041905 -0.12973902 0.13150983 0.17412338 0.19452798 0.0798635 0.13642564 0.035468478
-0.059122924 0.026753431 0.2839308 0.13146484 -0.14816509 0.12975426 -0.044341702 -0.11845428
-0.007817476 0.045203194 -0.01592397 0.13041721 -0.07298694 0.21848902 0.072434425 0.16119914
0.1937318 -0.28515804 0.046874773 0.014506119 0.14717193 -0.20097066 0.020384002 -0.17780559
-0.15343817 -0.026421478 -0.14256245 -0.23955531 -0.33651862 0.14017923 0.0374426 -0.07540829
-0.0027033421 0.040431134 -0.18875378 0.0071483282 -0.11402426 0.10872637 0.03139847 -0.11527728
0.20483479 0.17688444 0.20739701 0.101133615 0.0116848545 -0.15330747 0.052284278 0.08442875
-0.05821604 -0.18331698 -0.15053335 0.16987427 0.10608332 -0.048378967 0.14630318 -0.37664822
0.11110182 -0.13647597 -0.32799375 0.026892433 0.04703609 0.07968659 -0.119826786 -0.23339188
0.036366325 -0.0009376878 -0.061652407 0.048140887 0.08722603 -0.011760512 -0.063696 -0.09446872
-0.06567522 0.27185965 -0.014993516 0.2470442 -0.0050432757 0.250924 -0.34828725 -0.14536586
-0.2006755 0.20633173 0.19305319 0.017844988 -0.14875886 0.10396971 0.14084418 -0.119207986
0.095163256 -0.11608914 -0.10437792 0.10345813 0.032378796 0.19066814 -0.058207817 -0.112096764
-0.060919467 0.1955188 -0.03126018 0.2825308 0.15903668 0.36440176 -0.45853248 0.040938515
0.26443374 -0.102535285 -0.027282305 -0.07495852 -0.05528737 0.055333298 0.13135485 0.25259063
-0.13526449 0.22566679 -0.03002541 0.030068705 0.035739228 -0.12046582 -0.12712303 -0.02092097
-0.08113242 -0.02623319 0.15203689 -0.022662597 -0.09950655 0.08110401 0.08430566 0.109765515
0.14163427 -0.11505782 0.12153042 -0.009365521 0.06782893 -0.06353679 0.20012915 0.13761514
-0.027422862 0.15441965 -0.039302085 0.1006652 -0.026624743 0.061430782 0.14943655 -0.08327943
-0.031016577 -0.016719816 -0.4528324 0.24273942 0.1484176 -0.017148664 -0.07169168 0.16599546
0.047365107 -0.31106833 -0.14009686 0.023352534 -0.26270616 0.049471397 -0.04969711 0.05805452
-0.06378981 -0.11151733 0.01561927 0.025721693 -0.12689334 -0.026094148 0.13139191 -0.055329088
-0.050748203 -0.18338402 -0.20110181 0.05821799 -0.1662944 0.05824199 0.020438194 -0.22493668
-0.0009015226 -0.0067241695 0.047157023 -0.22408096 0.06710904 0.03669535 -0.07561725 -0.026288746
00000000: a9f6 b13d 3f30 b23e 8a5d 5d3d 0f17 cfbd
00000010: 91b3 223e d431 cb3d 0246 293d a9ae 67bd
00000020: b126 3abe 4e97 ea3d c469 e93d 310c 143d
00000030: cf2a 85be 310b 7b3d bb17 b6bd a33d afbe
00000040: 9efa e6bd b57d 2b3e 78ea 32bd e0dd 6b3d
00000050: 01b7 6e3c bd1d 45bd a2e8 c63e 3351 9e3e
00000060: 3ffa 843e fdd3 debd 827b 79bd 652b 153e
00000070: 6c32 093e 69a3 b03d fa01 903e b7b5 22be
00000080: 175d 4a3d f287 933d da7f 4e3e 2772 b9bd
00000090: 0598 53bd 546c 36be 133b 663e f066 d2bd
000000a0: 2937 15be 165d 773d 72cc dcbc 2f07 0f3e
000000b0: d1ca 013e df3d 1c3e 534a 29be 648b 4f3d
000000c0: 7433 a6bd e75d 6f3d 9f19 8dbd 680b 0abe
000000d0: 64cb 253d 9938 0a3d 19ca f4bd 3b80 27bc
000000e0: e1cf 3b3e d018 043c 3495 76bc fe08 83be
000000f0: 2b86 7abd 9973 05be a5ff 33bd 52c4 d93d
00000100: 88b5 61be 4eda 04be 83aa 063e 664d 323e
00000110: 5832 473e 7a8f a33d 2ab3 0b3e 6547 113d
00000120: e12a 72bd 032a db3c 615f 913e b89e 063e
00000130: 97b8 17be 4dde 043e a59f 35bd 2898 f2bd
00000140: df14 00bc fc26 393d fc72 82bc 178c 053e
00000150: 2d7a 95bd 96bb 5f3e 8058 943d 6311 253e
00000160: a161 463e 3c00 92be c3ff 3f3d 13ab 6d3c
00000170: 3db4 163e 41cb 4dbe 5afc a63c ab12 36be
00000180: e51e 1dbe db71 d8bc e4fb 11be fd4d 75be
00000190: 2b4c acbe 258b 0f3e 695d 193d a96f 9abd
000001a0: 8e2a 31bb 1e9b 253d ac48 41be 863c ea3b
000001b0: 8d85 e9bd eeab de3d af9b 003d 7f16 ecbd
000001c0: 36c0 513e 3221 353e e25f 543e 241f cf3d
000001d0: d571 3f3c a2fc 1cbe 0a28 563d fbe8 ac3d
000001e0: f173 6ebd 72b7 3bbe 6a25 1abe 85f3 2d3e
000001f0: 3642 d93d 0629 46bd 80d0 153e 09d8 c0be
00000200: 5a89 e33d 5bc0 0bbe ccee a7be 854d dc3c
00000210: eaa8 403d b932 a33d bf67 f5bd 48fe 6ebe
00000220: dbf4 143d 2acf 75ba 3c87 7cbd 612f 453d
00000230: 90a3 b23d 2aaf 40bc 0c73 82bd d178 c1bd
00000240: bb80 86bd 3031 8b3e 5da7 75bc 28f9 7c3e
00000250: 1042 a5bb 1c79 803e b552 b2be cada 14be
00000260: e17d 4dbe a048 533e bcaf 453e a72f 923c
00000270: 3e54 18be 12ee d43d 7539 103e 5123 f4bd
00000280: f4e4 c23d 25c0 edbd 17c4 d5bd dbe1 d33d
00000290: a19f 043d 823e 433e 526b 6ebd fd92 e5bd
000002a0: b186 79bd 1536 483e ad0a 00bd e1a7 903e
000002b0: 83da 223e de92 ba3e c5c4 eabe 25af 273d
000002c0: dc63 873e 05fe d1bd 247f dfbc da83 99bd
000002d0: 0275 62bd 2ba5 623d e381 063e 8f53 813e
000002e0: c682 0abe 3215 673e d9f7 f5bc a552 f63c
000002f0: 4c63 123d c9b6 f6bd 8a2c 02be 7462 abbc
00000300: c128 a6bd fde6 d6bc 8faf 1b3e e9a6 b9bc
00000310: 17ca cbbd dc19 a63d 72a8 ac3d becc e03d
00000320: 9308 113e 6fa3 ebbd f1e4 f83d d871 19bc
00000330: e5e9 8a3d 941f 82bd a8ee 4c3e fcea 0c3e
00000340: e9a5 e0bc 2f20 1e3e 39fb 20bd 8e29 ce3d
00000350: 221c dabc d89e 7b3d e505 193e 688e aabd
00000360: 7a16 febc fff7 88bc a6d9 e7be af90 783e
00000370: c9fa 173e 5b7b 8cbc 16d3 92bd b7fa 293e
00000380: ea01 423d 5944 9fbe 8d75 0fbe d04d bf3c
00000390: 6c81 86be 85a2 4a3d 328f 4bbd 94ca 6d3d
000003a0: 3ba4 82bd 3363 e4bd f7e7 7f3c 4db6 d23c
000003b0: 54f0 01be 65c3 d5bc 9a8b 063e c1a0 62bd
000003c0: 59dd 4fbd 05c9 3bbe a2ed 4dbe fd75 6e3d
000003d0: 1449 2abe 278f 6e3d 006e a73c cd55 66be
000003e0: 2854 6cba 6c56 dcbb b927 413d 7b75 65be
000003f0: 7770 893d dd4d 163d 37dd 9abd 7f5b d7bc

network_body._body_endoder.seq_layers.0.bias f4 [128]
0.0119324885 0.0071982485 0.040960405 -0.009018426 -0.005038578 0.0062138555 0.0707186 0.024379572
-0.011279978 0.0068461024 0.003035748 -0.016557166 0.026078502 0.010766307 -0.020999251 -0.01549917
-0.011059237 -0.018217724 -0.017680546 -0.0066428795 -0.010474168 -0.0010366382 -0.0027029773 0.024193062
-0.0064742663 -0.021058707 0.016702397 0.017407743 -0.008677963 -0.017657524 -0.01631445 -0.01830798
-0.0026356822 0.01866816 0.039788138 0.02080247 0.039271668 -0.011909043 0.040457293 -0.018060828
0.027930863 -0.0019772274 -0.0006875151 0.023463383 0.015003787 0.014824722 0.0066991244 -0.022435017
0.05162149 -0.015601962 -0.0007552956 -0.0059532668 0.010344461 0.009052817 -0.023342116 -0.0053296243
-0.029533839 -0.0050039007 0.00791987 0.015553895 -0.029561555 0.00022609186 0.01319305 0.027932227
-0.00839592 -0.021012167 0.007865926 0.006289655 0.043583278 -0.008986489 0.025662111 -0.027566768
0.024054406 0.038723476 0.019862896 0.046603944 -0.013191669 0.0058910465 -0.023334231 0.00978194
-0.011523826 -0.027790992 -0.0050854026 0.0197395 -0.0017676358 0.024285316 -0.0014216945 0.021501085
-0.006485343 -0.016842378 0.015275411 -0.004958059 -0.0049653584 0.0258642 -0.007794512 0.015949942
-0.025806233 -0.003943302 -0.01552345 0.00014186601 -0.014446829 0.015229711 -0.0037341313 -0.030349422
0.020016659 -0.0024446067 0.016616164 -0.018029023 -0.0019251452 0.003924343 0.02111208 -0.027374418
0.009894148 0.016151244 0.023620453 -0.03282233 0.014075292 0.0024620057 -0.001981375 0.03182194
-0.028463632 -0.024691124 1.8254863e-05 -0.013850316 -0.0057133795 -0.016435303 -0.0017921975 0.0055628354
00000000: 7c80 433c 49df eb3b 19c6 273d 05c2 13bc
00000010: a81a a5bb 999d cb3b ead4 903d abb7 c73c
00000020: a8cf 38bc 4555 e03b 66f3 463b e5a2 87bc
00000030: 95a2 d53c 2a65 303c 9f06 acbc 3bf0 7dbc
00000040: cd31 35bc 563d 95bc cbd6 90bc 83ac d9bb
00000050: d89b 2bbc cedf 87ba 6f24 31bb 8730 c63c
00000060: 1526 d4bb 4f83 acbc 77d3 883c af9a 8e3c
00000070: 042e 0ebc 83a6 90bc e2a5 85bc 9efa 95bc
00000080: 69bb 2cbb f8ed 983c e3f8 223d f169 aa3c
00000090: 54db 203d 261e 43bc 8cb6 253d 4df4 93bc
000000a0: 44cf e43c 5f94 01bb 5b3a 34ba 4836 c03c
000000b0: 72d2 753c 64e3 723c 5484 db3b a4c9 b7bc
000000c0: 0e71 533d 5f9f 7fbc 08ff 45ba 9f13 c3bb
000000d0: d07b 293c 4452 143c f737 bfbc 21a4 aebb
000000e0: f3f0 f1bc c3f7 a3bb 58c2 013c c4d5 7e3c
000000f0: 132b f2bc 1213 6d39 aa27 583c 20d2 e43c
00000100: 0a8f 09bc b521 acbc 16e0 003c 7319 ce3b
00000110: 6184 323d 113c 13bc 5939 d23c b4d3 e1bc
00000120: bf0d c53c 829c 1e3d 83b7 a23c c7e3 3e3d
00000130: df21 58bc ae09 c13b 6e27 bfbc 6e44 203c
00000140: 6ece 3cbc efa9 e3bc 73a3 a6bb bbb4 a13c
00000150: 04b0 e7ba 00f2 c63c 2758 baba 0b23 b03c
00000160: 0083 d4bb 07f9 89bc b845 7a3c 3777 a2bb
00000170: 72b4 a2bb 29e1 d33c 1b69 ffbb 74a9 823c
00000180: 9867 d3bc d136 81bb 1256 7ebc dec1 1439
00000190: 65b2 6cbc 0a86 793c 54b8 74bb 5a9f f8bc
000001a0: faf9 a33c b235 20bb 9f1e 883c 9ab1 93bc
000001b0: 2755 fcba c697 803b 3ef3 ac3c 5140 e0bc
000001c0: 111b 223c 9d4f 843c ae7f c13c b570 06bd
000001d0: 0e9c 663c 9a59 213b f5d9 01bb b957 023d
000001e0: 902c e9bc 0a45 cabc 0522 9937 70ec 62bc
000001f0: 4d37 bbbb 54a3 86bc 2be8 eaba 7248 b63b

network_body._body_endoder.seq_layers.2.weight f4 [128, 128]
0.038082194 0.0313913 0.007004695 0.17883305 0.09918306 0.17105329 -0.0070472965 -0.052396845
-0.026248027 0.033751212 -0.15136456 0.052156724 0.04501621 -0.107733935 -0.062313806 -0.09644994
-0.057516858 -0.05598924 0.020728588 -0.13130656 -0.0524246 0.034378562 0.017611504 0.03898565
-0.055629376 -0.008376902 -0.051681653 0.05543488 0.01803379 -0.07848853 0.17231968 0.031042852
0.08117047 0.018349707 0.07616849 -0.05020338 -0.07787017 0.18417287 -0.01594441 0.1636003
-0.07037902 0.08596231 -0.04853106 0.12854646 -0.0016687524 -0.09125005 0.070514426 -0.09911188
0.032782488 0.058175307 0.009796557 -0.053769283 -0.18489203 0.008090458 0.10936606 0.062234838
-0.026355524 -0.18206254 -0.030590221 -0.0736007 0.021984475 0.033052906 -0.05973256 -0.12383509
0.108404405 0.0495001 -0.1165565 -0.21646199 -0.069349796 0.136908 -0.1330774 -0.122307226
0.08401889 0.17454198 -0.19398 0.054032948 -0.011977668 -0.037648488 -0.058638155 -0.05313475
-0.004889046 -0.010512255 -0.13165897 -0.069740705 -0.05901389 0.00012130805 0.14832616 -0.044048227
-0.18843149 -0.053416677 0.15840943 0.1015631 -0.022002311 0.064416535 -0.006229543 0.02123971
-0.070129775 0.09798409 -0.03848574 0.02741965 -0.10413981 0.0059828637 0.05128804 0.010539592
0.020807456 0.10147313 -0.11501148 -0.13174367 -0.11717657 0.0148425205 -0.06232672 0.0053359624
0.011304595 -0.0237063 0.0002023411 0.09125194 0.036397833 -0.08213552 0.13031311 0.088045985
-0.08489466 -0.03607937 0.11989747 0.007193418 -0.04738976 -0.19943212 -0.102388084 0.028459009
0.20425543 0.07942627 -0.09774358 -0.020079896 0.13342732 0.138396 0.049710833 -0.07148604
-0.08905632 0.06609061 -0.06398258 -0.09721067 0.041520312 -0.012776567 0.071667984 0.1778826
-0.077091105 -0.00038783066 -0.023605788 -0.13371623 0.044240445 0.00917759 -0.009312494 0.12824814
-0.05661879 -0.038709067 0.14846446 -0.05458121 0.0956261 0.1337784 -0.20425297 -0.14040892
0.1327564 0.10209174 0.00036211227 0.01198094 -0.012236535 -0.06531561 0.008271674 0.051575776
0.06278077 -0.06339428 0.06179237 -0.13379341 0.09945035 -0.11372611 -0.0960415 -0.013219626
0.16385317 -0.06621737 -0.11572795 -0.11960675 -0.035051305 0.09433237 -0.06395455 -0.007877132
-0.095525876 -0.031178346 -0.08224716 0.043766774 0.04675527 -0.026844291 -0.07825893 -0.021579036
0.0745793 -0.06827739 0.14265808 -0.023150364 0.012156248 0.04186925 -0.12195749 -0.026405524
0.14156981 -0.1423283 0.027276656 -0.052850503 0.05523431 0.19501929 -0.014387254 -0.013259445
-0.09533278 -0.10607986 -0.06742478 0.1465231 0.06736903 0.12917815 0.06933813 -0.07200591
0.19295982 0.01461191 0.023577608 -0.04932366 0.029813487 0.022330113 -0.038181543 -0.044905674
0.117805615 -0.17932606 0.045236457 -0.049204573 0.072328866 -0.12944034 0.06798628 -0.072179265
-0.20451131 -0.08104827 0.009721517 0.0273149 -0.015350523 -0.15865271 -0.023487445 -0.081501774
-0.03281851 0.027710855 -0.16454138 -0.08418708 -0.07632909 -0.17040966 0.12875272 -0.12591845
0.034792785 0.009453193 -0.14886504 -0.026134731 -0.054726724 -0.033121206 -0.04875331 0.03325749
00000000: 13fc 1b3d 2a94 003d a487 e53b 0320 373e
00000010: 7d20 cb3d 9828 2f3e 02ed e6bb 139e 56bd
00000020: 1a06 d7bc b63e 0a3d 50ff 1abe 4aa2 553d
00000030: eb62 383d 9ca3 dcbd c33c 7fbd 8c87 c5bd
00000040: cc96 6bbd f954 65bd 00cf a93c 3a75 06be
00000050: 2dbb 56bd 89d0 0c3d 0046 903c 6baf 1f3d
00000060: a1db 63bd 463f 09bc 24b0 53bd af0f 633d
00000070: 99bb 933c 98be a0bd 9274 303e 944d fe3c
00000080: b43c a63d 2052 963c 3afe 9b3d 0fa2 4dbd
00000090: 657a 9fbd d097 3c3e da9d 82bc d686 273e
000000a0: e022 90bd 020d b03d 81c8 46bd afa1 033e
000000b0: 0aba daba 4ee1 babd de69 903d 2bfb cabd
000000c0: ee46 063d 3b49 6e3d bd81 203c 2e3d 5cbd
000000d0: 5654 3dbe d78d 043c 50fb df3d f5e9 7e3d
000000e0: 8ae7 d7bc 9a6e 3abe 5898 fabc f7bb 96bd
000000f0: c918 b43c 7c62 073d 21aa 74bd 409d fdbd
00000100: 2103 de3d 9ec0 4a3d 2db5 eebd 36a8 5dbe
00000110: 4407 8ebd 9c31 0c3e 7145 08be 367c fabd
00000120: 1912 ac3d 22bb 323e b1a2 46be a751 5d3d
00000130: fb3d 44bc 4d35 1abd 902e 70bd d3a3 59bd
00000140: 4a34 a0bb 983b 2cbc 9cd1 06be 37d4 8ebd
00000150: 8cb8 71bd c366 fe38 d0e2 173e ea6b 34bd
00000160: 2ff4 40be 72cb 5abd 1536 223e 5100 d03d
00000170: 313e b4bc d1ec 833d 3221 ccbb e6fe ad3c
00000180: 33a0 8fbd e2ab c83d 39a3 1dbd 2d9f e03c
00000190: 4147 d5bd e60b c43b 6813 523d 41ae 2c3c
000001a0: 6674 aa3c 25d1 cf3d 248b ebbd d0e7 06be
000001b0: 45fa efbd 0b2e 733c 4e4a 7fbd 4cd9 ae3b
000001c0: e836 393c b733 c2bc 872b 5439 4ce2 ba3d
000001d0: e515 153d ab36 a8bd cd70 053e 7451 b43d
000001e0: 40dd adbd f6c7 13bd ce8c f53d c4b6 eb3b
000001f0: c41b 42bd ef37 4cbe d8b0 d1bd de22 e93c
00000200: 5628 513e 3eaa a23d c92d c8bd 987e a4bc
00000210: 2ca1 083e aeb7 0d3e 969d 4b3d 4667 92bd
00000220: 2963 b6bd 845a 873d 4d09 83bd 6316 c7bd
00000230: 3411 2a3d ce54 51bc aac6 923d db26 363e
00000240: f1e1 9dbd c055 cbb9 ed60 c1bc e8ec 08be
00000250: 7835 353d 9a5d 163c 6e93 18bc 7b53 033e
00000260: 1be9 67bd 668d 1ebd 1107 183e 8c90 5fbd
00000270: 9ed7 c33d 34fd 083e b127 51be 5bc7 0fbe
00000280: 4bf1 073e 7915 d13d e3d9 bd39 b44b 443c
00000290: bf7b 48bc 31c4 85bd ea85 073c 1f41 533d
000002a0: 3493 803d dcd4 81bd ff19 7d3d 2401 09be
000002b0: a0ac cb3d 3ce9 e8bd 68b1 c4bd 2197 58bc
000002c0: 20c9 273e f99c 87bd c702 edbd 62f4 f4bd
000002d0: f591 0fbd 5431 c13d 9afa 82bd 160f 01bc
000002e0: 12a3 c3bd bb69 ffbc 3371 a8bd ca44 333d
000002f0: 7482 3f3d 8fe8 dbbc 3846 a0bd 85c6 b0bc
00000300: 08bd 983d 04d5 8bbd f614 123e d5a5 bdbc
00000310: 002b 473c 177f 2b3d d9c4 f9bd 6650 d8bc
00000320: adf7 103e 83be 11be 4b73 df3c c579 58bd
00000330: 5f3d 623d 23b3 473e 84b8 6bbc 253e 59bc
00000340: d53d c3bd 6640 d9bd 0116 8abd 270a 163e
00000350: c6f8 893d 4747 043e 2601 8e3d d677 93bd
00000360: 4297 453e cb66 6f3c d425 c13c 9b07 4abd
00000370: 6a3b f43c a4ed b63c 4064 1cbd 03ef 37bd
00000380: 1244 f13d 40a1 37be dd49 393d bc8a 49bd
00000390: 2821 943d 028c 04be 643c 8b3d b9d2 93bd
000003a0: 6a6b 51be a3fc a5bd ff46 1f3c 7fc3 df3c
000003b0: c380 7bbc db75 22be be68 c0bc 67ea a6bd
000003c0: b46c 06bd e001 e33c 897d 28be 476a acbd
000003d0: 6d52 9cbd df7f 2ebe c1d7 033e c4f0 00be
000003e0: e182 0e3d 91e1 1a3c 1470 18be 8118 d6bc
000003f0: 2129 60bd 1aaa 07bd 8db1 47bd 0139 083d

network_body._body_endoder.seq_layers.2.bias f4 [128]
-0.0053111305 -0.010080141 -0.005848153 -0.027135886 -0.007867155 -0.0006455796 0.017629668 -0.0096431505
0.021834338 0.014554352 -0.0045117107 0.011128005 -0.00974146 -0.0099958135 -0.008261825 -0.0077130464
-0.015807405 -0.017845826 0.017596666 -0.010949727 0.006389477 0.0018101161 0.003274114 0.017806409
-0.00062361895 0.002514859 -0.0026495042 -0.014282701 0.0045313807 -0.017328031 0.014265375 0.005409118
0.0037577269 0.022349788 0.0040819324 0.003482861 0.0024711168 -0.00284728 -0.006080242 0.007415736
-0.021870105 0.0025569848 -0.013575015 -0.013440513 -0.002663049 -0.011559989 -0.0006467047 0.008628776
-0.013984178 -0.0098637855 -0.0031972183 0.0037835708 0.0143532 -0.023720656 -0.0102021955 -0.005583084
0.0024169416 0.009687476 0.009259779 -0.017129797 -0.021881942 0.020509478 -0.014244258 0.007115208
0.0024181628 -0.0127127785 -0.0069682403 -0.002268719 -0.01507682 0.015479308 -0.0014698752 -0.017059453
-0.016589131 -0.006841769 -0.014044044 0.014475694 0.008040942 -0.008906065 0.00082446326 0.004789099
0.0043066586 -0.015013535 -0.012531815 -0.013184517 -0.0066261454 0.005557493 0.00786721 -0.004313975
-0.0066920724 0.008053918 -0.010553508 0.0048242267 0.011484742 -0.02297322 0.0034536542 -0.007763578
0.011606272 0.026161449 0.005264378 -0.027868884 -0.0021684747 0.008467278 0.003425571 -0.012413574
0.03760793 0.0074145193 0.0077888705 0.0027679743 -0.003873166 -0.010462348 0.0074376334 0.023083009
-0.011848507 0.018110076 -0.008905502 0.002082411 -0.022660598 0.01254652 0.0023793993 -0.0139858695
0.032994296 0.0028517148 0.0165366 -0.009827723 0.015083496 -0.003214709 -0.0017512483 -0.0041885828
00000000: fe08 aebb 2d27 25bc dda1 bfbb 144c debc
00000010: 3de5 00bc 1d3c 29ba 186c 903c 4efe 1dbc
00000020: eddd b23c 6075 6e3c f9d6 93bb 3c52 363c
00000030: a59a 1fbc 7bc5 23bc 9b5c 07bc b9bd fcbb
00000040: 887e 81bc 6931 92bc e226 903c 7c66 33bc
00000050: d15e d13b 6b41 ed3a 8592 563b bfde 913c
00000060: 5c7a 23ba 55d0 243b 4ea3 2dbb fd01 6abc
00000070: fa7b 943b 84f3 8dbc 52b9 693c f83e b13b
00000080: 3244 763b e716 b73c bbc1 853b b640 643b
00000090: 76f2 213b 6e99 3abb c43c c7bb b4ff f23b
000000a0: ef28 b3bc 1693 273b bd69 5ebc 9935 5cbc
000000b0: 8c86 2ebb 1c66 3dbc 9e87 29ba b65f 0d3c
000000c0: e51d 65bc b79b 21bc 6c88 51bb c9f5 773b
000000d0: af29 6b3c d251 c2bc 1c27 27bc 4ef2 b6bb
000000e0: 8d65 1e3b 38b8 1e3c 54b6 173c ca53 8cbc
000000f0: c241 b3bc 7e03 a83c c060 69bc b126 e93b
00000100: 0a7a 1e3b 4249 50bc d655 e4bb caae 14bb
00000110: c404 77bc ec9c 7d3c d4a8 c0ba 44c0 8bbc
00000120: eee5 87bc eb30 e0bb fd18 66bc 762b 6d3c
00000130: 28be 033c beea 11bc cb20 583a e0ed 9c3b
00000140: df1e 8d3b 54fb 75bc 3e52 4dbc df03 58bc
00000150: 2320 d9bb a11b b63b 78e5 003c 3f5c 8dbb
00000160: 2c49 dbbb 95f4 033c 9fe8 2cbc 8c14 9e3b
00000170: 802a 3c3c 5632 bcbc b456 623b 9d65 febb
00000180: 3c28 3e3c 8950 d63c ce80 ac3b 494d e4bc
00000190: f81c 0ebb 57ba 0a3c 8b7f 603b 4e62 4bbc
000001a0: c60a 1a3d 7ff5 f23b c839 ff3b e766 353b
000001b0: f1d4 7dbb 456a 2bbc 64b7 f33b 9418 bd3c
000001c0: 3e20 42bc 955b 943c 62e8 11bc 0f79 083b
000001d0: b8a2 b9bc eb8f 4d3c b2ef 1b3b fd24 65bc
000001e0: 0725 073d d6e3 3a3b c477 873c 7504 21bc
000001f0: c520 773c dead 52bb 248a e5ba 6140 89bb

action_model._continuous_distribution.log_sigma f4 [1, 44]
0.049301777 0.0068601603 -0.025683211 0.0020284276 0.02289106 -0.03410942 0.030860016 0.010586873
-0.017896185 0.04599439 0.04190563 -0.043454144 0.0074907285 0.008436859 -0.036660194 0.0070600123
-0.0017289884 -0.003594383 -0.057233375 -0.120448805 -0.012188359 -0.010195203 0.016448237 0.013562191
-0.0508971 0.028754488 -0.044632927 -0.054204166 -0.103749886 -0.055116493 0.024954718 0.028902516
-0.09200675 0.064992964 -0.04088873 -0.027567107 0.044575587 0.05713884 -0.010692419 -0.012297943
0.016822131 -0.010170596 0.052174866 -0.04334243
00000000: a9f0 493d 32cb e03b 9965 d2bc 5eef 043b
00000010: 0886 bb3c 52b6 0bbd 25ce fc3c 9074 2d3c
00000020: 059b 92bc 9d64 3c3d 3da5 2b3d f9fc 31bd
00000030: c974 f53b c03a 0a3c 0029 16bd ad57 e73b
00000040: 399f e2ba bd8f 6bbb 8b6d 6abd ddad f6bd
00000050: afb1 47bc c809 27bc 74be 863c f433 5e3c
00000060: 7a79 50bd 888e eb3c 04d1 36bd 3005 5ebd
00000070: d27a d4bd d5c1 61bd d66d cc3c f8c4 ec3c
00000080: 096e bcbd 081b 853d f17a 27bd 6ad4 e1bc
00000090: e494 363d 6b0a 6a3d 412f 2fbc 507d 49bc
000000a0: 91ce 893c 92a2 26bc 50b5 553d d587 31bd

action_model._continuous_distribution.mu.weight f4 [44, 128]
-0.05471703 -0.017377108 -0.023133054 0.0112669105 -0.04765778 0.026189556 -0.011549812 0.0090131005
-0.011953025 -0.08193116 -0.011701565 0.030927403 -0.012831989 0.052827418 0.028491898 -0.0146345645
-0.0070769773 0.009591801 -0.05899291 0.029760083 0.027867777 0.052692614 0.02713462 -0.0054257223
0.0024702789 -0.013766221 0.04254348 -0.0044924407 0.010875552 -0.038120378 0.00531782 -0.02134302
0.06324803 0.02523245 0.035265587 -0.0044822427 0.03957833 0.035626687 0.015534557 -0.023173757
0.014471235 0.01956621 0.0076455195 -0.017599091 -0.038576614 -0.007462508 0.0031026842 0.03294569
0.028666077 -0.025295956 -0.0027017277 -0.027006092 0.022044009 0.004492898 -0.02593165 0.027884575
-0.0062536458 0.004874639 -0.071041666 -0.014338314 -0.019847859 -0.02292071 0.042270113 -0.0013315582
0.033605177 0.04824181 -0.023586564 0.026923006 -0.039341055 0.00089075085 0.0668103 0.070001714
-0.04670678 0.043089904 -0.036879003 -0.016972318 -0.037208635 -0.022147117 0.018593293 0.002371216
0.021232555 -0.0009294232 0.0016216957 0.010245415 0.016782774 -0.008113631 0.014193405 -0.017217975
-0.04282989 -0.053244043 0.00015603303 0.049674034 0.0021382002 -0.016466621 0.018695286 -0.02043131
0.0062769 -0.015056426 -0.042163093 -0.08185875 0.030513115 0.096326455 -0.054131594 -0.008567775
0.0017122148 -0.009210376 -0.030311044 0.023605023 -0.0037510768 0.010491785 -0.028451635 -0.044922765
0.008647021 0.037651516 -0.019619314 -0.015295886 -0.019551411 0.035644785 -0.026797388 -0.0058084824
0.11237679 -0.011297064 0.117059775 -0.03301439 0.026890827 0.026474627 -0.008411027 -0.038171217
0.05095748 -0.032194715 -0.030101594 0.007855956 0.01898796 -0.034761984 -0.05560408 -0.0044380296
-0.064210735 0.0056431917 -0.09075227 -0.00048621075 0.022968484 -0.008661461 0.0041557653 -0.0047260756
0.00063972577 -0.016831862 -0.026257068 0.044914424 -0.012185811 -0.036450133 -0.010803308 0.019142225
-0.021853553 -0.022298371 0.050987728 0.0042728097 0.0036010619 0.037546374 0.025944471 -0.012264911
0.056549415 -0.010109591 -0.003632139 -0.039630305 0.037195366 0.010455422 0.0036013243 -0.0009862537
-0.010672838 0.018692832 -0.0011751438 0.008285353 0.013959062 0.04285093 -0.05053328 -0.0023494177
0.026950115 0.013588196 -0.033911303 0.012413386 0.025812265 0.018943582 0.02280744 0.07436102
-0.014608416 -0.010172678 -0.0098758405 -0.030243967 -0.009434149 0.0026395721 0.03391974 0.029565064
0.062128194 -0.020871276 0.01956741 0.010341757 -0.017578699 -0.016701963 -0.0132986875 0.0090027675
0.022266958 0.022651153 -0.045446184 -0.012326523 -0.030741347 0.02165882 0.04985908 0.0402703
-0.023926705 -0.0024746363 0.030583328 -0.02082546 0.016900033 -0.014044352 0.012617182 -0.019830218
-0.021401081 -0.030811785 0.06535675 -0.01788656 0.00938797 -0.0042069545 0.06285429 0.0045715435
-0.0060099796 -0.07042725 -6.1428225e-05 0.008313986 -0.009589528 0.012057704 -0.0014576041 0.0017112351
-0.045505516 0.03806898 0.03614283 -0.0012787004 0.017582 -0.020486653 -0.008332597 0.025012083
0.008656242 -0.04773417 -0.018980185 0.03307224 0.0425482 0.004537135 0.007962509 0.057368156
-0.0210033 -0.017393695 -0.057820205 0.0035567496 0.03089143 -0.0072513246 -0.019685365 0.02233021
00000000: f71e 60bd 705a 8ebc 8881 bdbc d998 383c
00000010: ce34 43bd 7b8b d63c 6c3b 3dbc afab 133c
00000020: 9fd6 43bc 86cb a7bd ecb7 3fbc 775b fd3c
00000030: 433d 52bc 9061 583d d767 e93c d0c5 6fbc
00000040: fde5 e7bb ee26 1d3c 8da2 71bd 6bcb f33c
00000050: f74a e43c 36d4 573d 6c49 de3c 42ca b1bb
00000060: 67e4 213b b78b 61bc 1242 2e3d 5335 93bb
00000070: 5f2f 323c 1d24 1cbd 1b41 ae3b 8fd7 aebc
00000080: 2f88 813d 48b4 ce3c a672 103d c7df 92bb
00000090: e31c 223d 4aed 113d a884 7e3c e4d6 bdbc
000000a0: c218 6d3c 5149 a03c 4487 fa3b f82b 90bc
000000b0: 8302 1ebd 0e88 f4bb 6756 4b3b 0ff2 063d
000000c0: 1fd5 ea3c 7739 cfbc 780f 31bb e13b ddbc
000000d0: a395 b43c 2939 933b 9d6e d4bc 316e e43c
000000e0: 62eb ccbb 70bb 9f3b 4b7e 91bd 3feb 6abc
000000f0: fa97 a2bc 36c4 bbbc 6d23 2d3d ae87 aeba
00000100: 95a5 093d 3499 453d 9c38 c1bc a38d dc3c
00000110: 1624 21bd 4781 693a d7d3 883d 0f5d 8f3d
00000120: 9c4f 3fbd 0a7f 303d 700e 17bd 8809 8bbc
00000130: 1568 18bd df6d b5bc f650 983c 6766 1b3b
00000140: e5ef ad3c 89a4 73ba 148f d43a 63dc 273c
00000150: 077c 893c 09ef 04bc 758b 683c b60c 8dbc
00000160: 656e 2fbd 6d16 5abd cc9c 2339 0077 4b3d
00000170: 0c21 0c3b 02e5 86bc db26 993c 905f a7bc
00000180: 74ae cd3b 3aaf 76bc 35b3 2cbd 8fa5 a7bd
00000190: a4f6 f93c ce46 c53d 17b9 5dbd da5f 0cbc
000001a0: 656c e03a 1ee7 16bc de4e f8bc 525f c13c
000001b0: a0d4 75bb bce5 2b3c 6713 e9bc ef00 38bd
000001c0: 3cac 0d3c 7a38 1a3d afb8 a0bc 999b 7abc
000001d0: 482a a0bc 4400 123d 3286 dbbc 1555 bebb
000001e0: cd25 e63d 5217 39bc 09bd ef3d 193a 07bd
000001f0: 274a dc3c 51e1 d83c 67ce 09bc 6c59 1cbd
00000200: cab8 503d 9bde 03bd 9e97 f6bc 45b6 003c
00000210: a38c 9b3c 9562 0ebd 1bc1 63bd e46c 91bb
00000220: eb80 83bd 86ea b83b 53dc b9bd 1aea feb9
00000230: 6728 bc3c cde8 0dbc 162d 883b 32dd 9abb
00000240: 45b3 273a f9e2 89bc 1019 d7bc 30f8 373d
00000250: ffa6 47bc bc4c 15bd 5c00 31bc 28d0 9c3c
00000260: 3906 b3bc 13ab b6bc 82d8 503d ed02 8c3b
00000270: cbff 6b3b 3aca 193d 8089 d43c c4f2 48bc
00000280: 5ca0 673d b3a2 25bc 2e09 6ebb 6353 22bd
00000290: 2b5a 183d 384d 2b3c 3204 6c3b 2f45 81ba
000002a0: 21dd 2ebc b621 993c 4807 9aba 4abf 073c
000002b0: 8db4 643c 7584 2f3d fcfb 4ebd b0f8 19bb
000002c0: 7dc6 dc3c 06a1 5e3c 94e6 0abd 8461 4b3c
000002d0: 3e74 d33c 922f 9b3c abd6 ba3c 974a 983d
000002e0: 2358 6fbc 4eab 26bc 47ce 21bc 32c2 f7bc
000002f0: b091 1abc acfc 2c3b 6def 0a3d 6f32 f23c
00000300: 227a 7e3d 3dfa aabc d54b a03c 7970 293c
00000310: 3401 90bc 8ed2 88bc bde2 59bc 5880 133c
00000320: 3269 b63c e98e b93c c725 3abd 2ff5 49bc
00000330: 47d5 fbbc d66d b13c 0939 4c3d 78f2 243d
00000340: f001 c4bc 822d 22bb e389 fa3c 289a aabc
00000350: f071 8a3c 481a 66bc 4cb8 4e3c fb72 a2bc
00000360: 5251 afbc ff68 fcbc c2d9 853d d686 92bc
00000370: 00d0 193c 7eda 89bb c0b9 803d e3cc 953b
00000380: 5def c4bb 293c 90bd 07d3 80b8 6237 083c
00000390: 651d 1dbc ad8d 453c 140d bfba 864b e03a
000003a0: fe63 3abd 38ee 1b3d 810a 143d 119a a7ba
000003b0: 2008 903c a0d3 a7bc 7285 08bc 24e6 cc3c
000003c0: e9d2 0d3c e884 43bd 557c 9bbc c276 073d
000003d0: 0547 2e3d 3fac 943b 2f75 023c dffa 6a3d
000003e0: 1d0f acbc 397d 8ebc e1d4 6cbd 5b18 693b
000003f0: 0610 fd3c 859c edbb 3443 a1bc d8ed b63c

action_model._continuous_distribution.mu.bias f4 [44]
-0.0010850539 -0.007766528 -0.003060646 0.0039840164 -0.00872681 0.0028633613 0.011244515 0.010533044
-0.0010896041 -0.004286362 -0.021891842 -0.0066481507 -0.016436778 -0.014649977 -0.009402654 0.014423385
0.0116510065 -0.010284662 -0.022769954 0.0117070405 -0.00939013 -0.00863734 -0.037516408 -0.011369075
0.0010198617 -0.010873434 -0.016125629 -0.0029958545 0.014632319 0.0001473766 -0.02080402 -0.0153781
-0.004117856 -0.017878195 -0.018209143 0.0013686351 -0.006167956 -0.013099056 0.003732578 -0.0012391179
0.0014246935 -0.011119163 -0.0065929713 0.010369496
00000000: 5e38 8eba 5c7e febb 1e95 48bb 5a8c 823b
00000010: e5fa 0ebc 3ba7 3b3b ea3a 383c ca92 2c3c
00000020: 0cd1 8eba 9c74 8cbb 8556 b3bc bbd8 d9bb
00000030: 6ca6 86bc 7506 70bc 970d 1abc 1050 6c3c
00000040: dde3 3e3c 0081 28bc 0e88 babc e3ce 3f3c
00000050: 0fd9 19bc a183 0dbc ceaa 19bd 5b45 3abc
00000060: e1ac 853a 7d26 32bc e519 84bc 1956 44bb
00000070: 65bc 6f3c 1b89 1a39 316d aabc 6df4 7bbc
00000080: 14ef 86bb 4b75 92bc 572b 95bc c663 b33a
00000090: 911c cabb 6c9d 56bc 449e 743b e669 a2ba
000000a0: c8bc ba3a 262d 36bc da09 d8bb d2e4 293c
