results/073/Dynamic Table/Dynamic Table-1499999.onnx (onnx, 123022 bytes, 7 tensors)

network_body._body_endoder.seq_layers.0.weight f4 [128, 57]
000000 be 30 9e 3d c6 73 aa 3e ee 7c 7e 3d 56 f3 d5 bd
       0.077241406 0.33291453 0.06213086 -0.10446803
000010 23 6a 1d 3e 20 f4 9b 3d aa c3 56 3d 02 07 cb bd
       0.15372519 0.076149225 0.052432694 -0.09913446
000020 f6 63 47 be a1 c8 fa 3d d1 b9 ab 3d 57 e6 61 bc
       -0.19471726 0.12245298 0.08385051 -0.013787827
000030 49 1c 8b be 72 f5 84 3d 5b a3 8d bd 18 e0 a8 be
       -0.27170017 0.064921275 -0.06915923 -0.3298347
000040 91 cd e8 bd 8f a7 26 3e 9d f4 8c bd 96 6e 7f 3d
       -0.11367334 0.16274856 -0.06882594 0.062361322
000050 f8 b9 6e 3b db 5f 02 bd 88 5a b8 3e 0f 95 90 3e
       0.0036426764 -0.031829696 0.3600657 0.28238723
000060 cf 2f 84 3e 2d 87 d8 bd c0 f9 2b bd 14 2f 0d 3e
       0.25817725 -0.10572658 -0.041986227 0.1378749
000070 ae 1e 0e 3e d1 fd 90 3d f2 8f 89 3e f5 91 1f be
       0.13878891 0.07079662 0.26867634 -0.15583022
000080 bb 39 33 3d 06 26 61 3d ff 27 1e 3e 92 3b a7 bd
       0.043756228 0.054967903 0.15444945 -0.08165659
000090 58 5a 2d 3b ae c4 36 be c5 a6 44 3e d5 db f9 bd
       0.0026451554 -0.17848465 0.19204243 -0.12200133
0000a0 c9 c9 13 be 25 e0 56 3d d2 90 0c bd 80 1d 07 3e
       -0.14432444 0.052459855 -0.0343178 0.13194847
0000b0 c1 f4 ea 3d a8 b3 0c 3e f0 96 24 be 88 04 55 3d
       0.11472464 0.13740408 -0.16073203 0.052006274
0000c0 8d f4 b3 bd 47 42 20 3d b5 c7 9c bd 02 ec 10 be
       -0.08786879 0.039125707 -0.076552786 -0.1415253
0000d0 90 4d 41 3d b7 6c dd 3c f3 08 e7 bd 60 c4 8a bc
       0.04719311 0.027029378 -0.11281004 -0.016939342
0000e0 05 88 30 3e 3f 32 77 3c ec a4 6f bb 1a 35 5f be
       0.17239387 0.015087663 -0.0036566807 -0.217976
0000f0 c8 c0 42 bd cc 22 05 be 72 36 14 bd 5e ea f2 3d
       -0.04754713 -0.13001555 -0.036184736 0.11861108
000100 34 2b 6d be 60 af 01 be 1f e7 17 3e 79 19 2e 3e
       -0.23161012 -0.12664557 0.1483426 0.17001905
000110 8e 03 44 3e 07 35 a9 3d 20 c3 de 3d 8c 55 bb 3c
       0.19141981 0.08262067 0.10877061 0.02286794
000120 2a 4d 38 bd ce e9 1f 3d 4c 43 96 3e 31 50 04 3e
       -0.044995464 0.039041333 0.29348218 0.12921216
000130 e6 ab 0a be 9e 8f 03 3e 81 b0 10 bd b2 a5 90 bd
       -0.13542137 0.12847754 -0.035324577 -0.07062854
000140 34 22 3a bb cd 10 7f 3d 12 b8 ad 3a 05 d2 05 3e
       -0.0028401734 0.06227188 0.001325371 0.13068397
000150 1b fe 89 bd c6 8b 80 3e 1b f9 6a 3d 05 fb 3d 3e
       -0.0673792 0.2510664 0.05736647 0.18552788
000160 90 25 46 3e cf d9 92 be 08 93 48 3d 9a 9a 62 3b
       0.19350266 -0.286818 0.048968345 0.0034577013
000170 7d 3d 10 3e e6 bb 25 be b0 f7 ad 3c c1 bc 21 be
       0.14085956 -0.16184959 0.02123627 -0.1579466
000180 1b 8b 1c be 14 f3 bc bc 9e 78 42 be cb cc 71 be
       -0.1528744 -0.023065127 -0.18991324 -0.23613279
000190 34 c2 91 be fa e7 0d 3e 3b cd 30 3d 4a 56 93 bd
       -0.28468478 0.13858023 0.043164473 -0.07194193
0001a0 c9 7e fa 3b 4e ee 4c 3d 48 fa 41 be ec da 0c 3c
       0.0076445085 0.050031953 -0.18943131 0.008597117
0001b0 e9 db d5 bd 4a 02 cb 3d ef ee 27 3d 1d c0 ff bd
       -0.10442335 0.09912546 0.04099935 -0.124878146
0001c0 05 95 5b 3e 59 33 38 3e 35 7d 39 3e f0 06 89 3d
       0.21443565 0.17988338 0.18114169 0.06690776
0001d0 ce eb ab 3a 9b b1 34 be 8b 4f 2d 3d 59 15 86 3d
       0.001311654 -0.17645876 0.042312186 0.065470405
0001e0 3f 4e 6c bd 98 2f 25 be 07 26 16 be a6 a1 0a 3e
       -0.05769181 -0.16131437 -0.14662944 0.13538226
0001f0 93 39 8f 3d 2a 05 76 bd 56 a7 fe 3d 40 3a b1 be
       0.06993403 -0.06006352 0.124342605 -0.34614754
000200 d3 33 09 3e a3 93 04 be ab aa ab be 44 d4 03 3d
       0.13398676 -0.12946944 -0.33528647 0.032184854
000210 81 0a 28 3d 97 5b 2d 3d 08 30 07 be 0a 18 5f be
       0.041025642 0.042323675 -0.13201916 -0.21786514
000220 cf 5d 7f 3d ed 7a 27 3c 1d 84 8f bd d6 b8 45 3d
       0.062345322 0.010222179 -0.070076205 0.048271976
000230 96 0f 88 3d 0f b5 e9 bc d4 62 4e bd a2 0c b7 bd
       0.06643598 -0.028528718 -0.05038722 -0.089379564
000240 d2 ff 9f bd 0b b3 6e 3e c1 f1 10 bd 01 3a 52 3e
       -0.07812466 0.23310487 -0.035386804 0.20529939
000250 8c db 4a bc 15 d4 73 3e ad 84 a3 be 70 ab 14 be
       -0.012381446 0.23811372 -0.3193716 -0.14518523
000260 bb f5 40 be 15 cb 41 3e ce a8 52 3e 1f 4d 3c 39
       -0.18843739 0.18925126 0.20572206 0.00017957807
000270 d7 b1 f8 bd c2 fa e7 3d f2 8f f9 3d ed 82 11 be
       -0.12143295 0.11327125 0.121856585 -0.142101
000280 fb 3e c7 3d f4 8a 0c be 3f c9 f6 bd 29 f8 ec 3d
       0.097288094 -0.13724881 -0.120501034 0.1157077
000290 c1 63 d4 3c f5 bb 32 3e e5 60 2c bd 10 4c 03 be
       0.025926473 0.17454512 -0.042084593 -0.12821984
0002a0 44 7c 37 bd 7e b3 37 3e ab 9c d3 bc 0f 28 80 3e
       -0.044796243 0.17939565 -0.025831541 0.25030562
0002b0 47 09 1a 3e 54 2d ad 3e 74 bf e9 be 98 b7 91 3d
       0.15042602 0.33823645 -0.4565388 0.07115096
0002c0 02 fe 83 3e c6 ad c3 bd 00 a3 53 bc c7 94 9a bd
       0.2577973 -0.09554629 -0.01291728 -0.07547908
0002d0 f1 b7 a6 bd 32 12 36 3d 63 98 2d 3e c9 8f 81 3e
       -0.08140553 0.044450946 0.16952662 0.25305012
0002e0 15 b6 e9 bd 58 a1 56 3e ae ab 2f bd fc a8 af 3c
       -0.114116825 0.20959985 -0.042888336 0.021442883
0002f0 54 48 cd 3c f9 b5 ce bd d6 d6 ef bd 21 04 cd bc
       0.025058903 -0.10093302 -0.117108986 -0.025026383
000300 28 dd a5 bd 7b ac 9a bc 06 52 1c 3e bd b1 b1 bc
       -0.08098823 -0.018881073 0.15265664 -0.021691198
000310 56 fb 08 be c2 3b 9c 3d 63 2d cb 3d 7b ad c4 3d
       -0.13377127 0.076285854 0.09920766 0.09603401
000320 82 4c 28 3e 7e 90 d8 bd 0e 0c 02 3e cd ab 46 3c
       0.16435435 -0.10574435 0.12699911 0.012125921
000330 0a 9f 5b 3d cd 98 92 bd 03 0a 52 3e 76 81 fd 3d
       0.05361847 -0.07158051 0.20511632 0.12378208
000340 c6 b0 81 bd 74 04 02 3e 42 e9 2f bd 66 10 9f 3d
       -0.06332545 0.12697011 -0.04294706 0.077668
000350 a9 f9 da bc 65 89 04 3d a4 89 27 3e 08 e3 c3 bd
       -0.026730375 0.032357592 0.163611 -0.09564787
000360 5d c1 0d bd 08 ad b1 bc 96 d5 e1 be 4d fa 75 3e
       -0.034608234 -0.021688953 -0.44108266 0.24021263
000370 de 63 12 3e 7b 0f a7 bc b6 ff 97 bd 19 91 2c 3e
       0.14295909 -0.020393124 -0.0742182 0.16852225
000380 85 a8 37 3d 36 f9 9d be eb 0b 12 be f2 1a fa 3c
       0.044838447 -0.30854195 -0.14262359 0.030530427
000390 30 e5 80 be 13 f9 33 3d 6b 86 5a bd 03 dc 39 3d
       -0.25174856 0.043938708 -0.053350847 0.045375835
0003a0 0e 0d bb bd e1 82 9d bd 04 e9 84 3c 08 1a 33 3c
       -0.09133349 -0.07690979 0.016224392 0.010931499
0003b0 22 e6 06 be 93 40 83 bc a4 fc 32 3e 33 25 20 bd
       -0.13173726 -0.016022002 0.17479187 -0.039097976
0003c0 40 3a 8a bd 63 ec 3d be 73 49 58 be 80 12 ff 3c
       -0.067493916 -0.18547206 -0.21121769 0.031136751
0003d0 2d f4 4b be f8 6d 52 3d fa 56 1c 3c 8b 0f 71 be
       -0.19917364 0.051374406 0.009542221 -0.23541085
0003e0 72 5a 55 ba 7f 5e 3d bc ca 1f 43 3b 2a f4 82 be
       -0.00081387826 -0.011558174 0.0029773586 -0.25576907
0003f0 04 d7 9d 3d 90 51 3a 3c 91 ee 90 bd 8c 66 43 bd
       0.077070266 0.011371985 -0.07076753 -0.04770522

network_body._body_endoder.seq_layers.0.bias f4 [128]
000000 8a f6 aa 3b 60 9c 89 3c c8 7a cb 3c c7 26 3d bc
       0.005217378 0.016798198 0.02483882 -0.01154489
000010 47 99 b3 bb d6 4a 3c 3b 98 74 0e 3d 49 35 94 3c
       -0.0054809186 0.002873113 0.03477916 0.018091815
000020 f1 c9 b7 bb d1 86 16 3b 63 ba 9c 39 06 be 68 3b
       -0.00560879 0.002296854 0.00029893508 0.0035513653
000030 54 b0 84 3c ca 50 3d 3c a0 ca b8 bc 04 60 53 bc
       0.016197361 0.011554906 -0.022557557 -0.01290131
000040 0f 65 29 bc 8b 93 74 bc 4e 9e 16 bd 38 c1 92 ba
       -0.010339036 -0.014927755 -0.036772065 -0.00111965
000050 f4 f6 80 ba f7 31 d2 bb b0 19 30 bc d3 9f 37 3d
       -0.0009839223 -0.0064146477 -0.010748312 0.044830155
000060 e0 9d 58 bb 2f 0f 8e bc cf 7d 9b 3b 57 7a c7 3c
       -0.0033053085 -0.017341224 0.004745222 0.024350328
000070 9f f8 ea bb 4b ab a8 bc 1f 93 81 bc 8e d9 73 bc
       -0.007170751 -0.020589491 -0.015817223 -0.014883412
000080 13 da 2d bc 73 7c 9b 3c 8d 53 82 3c 4d de 98 3c
       -0.010611075 0.01898024 0.01590898 0.018660689
000090 62 f9 17 3d 2b 8f 14 bc b4 d6 d0 bb 36 55 b0 bb
       0.037103064 -0.009067337 -0.006373251 -0.0053812517
0000a0 91 c2 ab 3c c5 68 e9 3b 50 33 7b bc c6 33 f0 3c
       0.0209668 0.007123085 -0.015332058 0.029321562
0000b0 45 45 84 3c 2c 7f 80 3c 4a 80 de 3b 49 30 6c bc
       0.016146312 0.01568564 0.0067901956 -0.014415809
0000c0 67 a3 40 3d 2d 64 58 bc 76 bc 77 bb 6c 5c fa 3b
       0.047030833 -0.0132074775 -0.003780154 0.007640412
0000d0 c4 8a ac ba 8b 12 7a bb aa 77 64 bc 5d 39 7b 39
       -0.0013163914 -0.0038158025 -0.013944546 0.00023958595
0000e0 ac f0 c4 bc 9c fe 04 3c f3 0e 68 3c 63 34 6e 3c
       -0.024040543 0.008117344 0.01416372 0.014538857
0000f0 34 69 d4 bc bd f1 d9 b9 01 1a a0 3b a6 b4 dc 3b
       -0.025929071 -0.00041569574 0.0048859124 0.006735402
000100 29 8f 60 bc 30 77 9d bc 4e cb b6 3c 8e 1e b3 3b
       -0.013706007 -0.019221872 0.02231374 0.005466289
000110 59 53 16 3d fc a1 20 bc 4d 83 a0 3c 80 9c cd bc
       0.03670058 -0.009804245 0.01959386 -0.02509904
000120 9b 90 90 3c ec a6 ed 3c ef 05 09 3c b2 4a 61 3d
       0.017647078 0.029010259 0.008363231 0.055002876
000130 5c d0 81 bc 7b 2d 17 3a 73 a9 4a bc 5b ba 2d 3c
       -0.015846424 0.000576697 -0.012369501 0.010603513
000140 d2 f1 3b bc 3a 0e 6b bc 62 fe 58 bb 4d 4a 57 3c
       -0.011471229 -0.014346654 -0.0033110608 0.013140273
000150 89 48 d7 3b 5b 24 2b 3c 98 f0 c7 bb 27 2c 9e 3c
       0.006569926 0.01044568 -0.006101679 0.019308163
000160 0f 78 2b bc 8a 43 84 bc 41 b1 30 3b b5 4a 5b bb
       -0.010465636 -0.016145486 0.002696112 -0.0033461277
000170 fe 57 68 b9 59 72 93 3c 73 35 19 bc d7 e1 a7 3b
       -0.00022158024 0.017998861 -0.009351122 0.0051233578
000180 59 24 9c bc b8 b6 83 bc 67 4f 4e bb 1a 70 78 38
       -0.0190603 -0.016078338 -0.0031480433 5.923221e-05
000190 44 b3 45 bc 9f 00 93 3c 5a 0d 96 ba ee 13 bb bc
       -0.012066666 0.017944632 -0.0011448071 -0.022836652
0001a0 55 f8 8b 3c 1a 7d d3 bb 77 28 6a 3c b2 67 2d bc
       0.017086187 -0.0064541223 0.014291874 -0.010583805
0001b0 d2 1d b7 bb 62 84 fa 3a 77 2b 8f 3c 10 58 ab bc
       -0.0055882717 0.001911294 0.01747678 -0.020916015
0001c0 bb 4f f6 3a c0 30 7c 3b 04 c6 97 3c 37 22 a0 bc
       0.0018792072 0.0038481206 0.018527038 -0.019547565
0001d0 fa 5f 80 3a c5 5d 02 3b 2c b2 a0 bb 87 09 fe bb
       0.0009794228 0.0019892317 -0.0049040522 -0.0077526006
0001e0 e2 ae 8f bc 74 4f 3c bc 3c 23 4a 3c 4f 28 18 ba
       -0.017539445 -0.0114935525 0.012337502 -0.00058043463
0001f0 9d 05 a5 3b 83 1a 5c bc 22 97 4a bb bc d1 61 3a
       0.0050360695 -0.013434055 -0.0030912836 0.00086143217

network_body._body_endoder.seq_layers.2.weight f4 [128, 128]
000000 6b da 6c 3c e8 c9 f0 3c 2f 02 50 bc de f4 2d 3e
       0.014456372 0.029393151 -0.012695833 0.1698794
000010 dd be f0 3d cd 8c 18 3e 99 44 06 bd e5 c3 8c bc
       0.11755154 0.14897461 -0.032780264 -0.017183254
000020 39 52 39 bd b0 c7 1f 3d 96 34 10 be 22 f3 3e 3d
       -0.04524443 0.039008796 -0.1408256 0.04661859
000030 84 5e a0 3d b8 e3 73 bd eb b0 93 bd 06 a7 c7 bd
       0.078305274 -0.05954334 -0.07211479 -0.09748654
000040 24 3e 8d bd e0 69 8e bd 42 fd 5b 3d 1c 25 0d be
       -0.06896618 -0.06953788 0.053708322 -0.13783687
000050 ea de 65 bd af 0c a6 3c ca 6d 0e 3c 4d 70 d5 3c
       -0.05612079 0.02026972 0.008693168 0.026054526
000060 12 08 7a bd a8 73 d3 bc 37 84 5f bd 20 7e 1c 3d
       -0.061042853 -0.025811985 -0.05456945 0.03820622
000070 fa b2 e7 3b 89 63 a0 bd 92 50 2a 3e 32 67 8e 3c
       0.007070896 -0.07831485 0.16632298 0.017383192
000080 95 38 a0 3d 74 6e 4f 3c cd b8 a5 3d f2 f9 5f bd
       0.07823292 0.012660611 0.080918886 -0.054681726
000090 ec 81 96 bd 3c 10 35 3e 0b 7c 35 3b 83 92 12 3e
       -0.073489994 0.17681974 0.0027692344 0.14313702
0000a0 4d ce b8 bd 53 32 91 3d 3e 9a 51 bd 39 a3 e4 3d
       -0.09023724 0.07089677 -0.051172487 0.11163945
0000b0 2c e0 30 bc 49 2a ce bd 00 2f 58 3d 00 5c a6 bd
       -0.010795634 -0.10066659 0.052779198 -0.08123016
0000c0 fe 52 f0 3c 88 75 44 3d 75 ef d6 3b 15 8e e8 bc
       0.029336449 0.04796365 0.006559307 -0.028388062
0000d0 0c c0 32 be b3 5d 81 3d 42 6e ba 3d 18 20 13 3d
       -0.17456073 0.063167 0.09103061 0.03591928
0000e0 54 8f ce bc 18 1a 48 be 9f 60 e0 bc a4 76 a5 bd
       -0.025214829 -0.19541204 -0.027389823 -0.080792695
0000f0 6e 43 4b 3c e0 0d 07 3d b5 93 6f bd 1b b1 01 be
       0.012406213 0.032972217 -0.058490474 -0.12665217
000100 4e 13 ff 3d 83 69 8b 3d 52 55 f0 bd f0 9e 51 be
       0.12454854 0.06807234 -0.117350236 -0.20470786
000110 c2 de f8 bc bd 46 fa 3d 34 8b e4 bd 0d 8b f1 bd
       -0.030379657 0.122205235 -0.111593634 -0.117941
000120 1d 7d 91 3d db 18 4d 3e c0 91 40 be f1 21 13 3d
       0.071039416 0.20029013 -0.18805599 0.03592104
000130 2a 5f c7 bc 66 dd 9d bc b8 1d 84 bd f9 2e 71 bd
       -0.02433737 -0.01927061 -0.06450981 -0.058882687
000140 1e 51 ca bb 7c 06 a8 bb fb 0b c4 bd f3 63 b8 bd
       -0.0061742207 -0.005127726 -0.095725976 -0.09003439
000150 66 2c 4d bd 17 f8 76 bc 68 3c 14 3e a8 f3 9e bc
       -0.05009117 -0.015073798 0.14476168 -0.019403294
000160 51 50 1d be 11 12 73 bd 7d 7b f1 3d d2 51 d0 3d
       -0.1536267 -0.0593434 0.11791132 0.10171856
000170 35 4b 0d bd 01 95 40 3d 10 f3 86 bc ff ea c7 3c
       -0.03449555 0.0470171 -0.016473323 0.024404047
000180 e6 c0 91 bd d5 4f bc 3d db 16 0c bd b1 0d 79 bc
       -0.071168706 0.09194914 -0.034201484 -0.015201018
000190 5f fc e9 bd 7c 58 2e bc 45 92 45 3d d7 bf da 3a
       -0.11425089 -0.0106412135 0.048235197 0.0016689253
0001a0 a3 60 58 3d 0c 9c be 3d a7 2c 09 be 4b 0e 1a be
       0.052826535 0.09307107 -0.1339594 -0.15044515
0001b0 11 98 bd bd 63 2d 9e 3c 94 f2 80 bd 15 0c c2 3b
       -0.0925752 0.019308751 -0.06296268 0.0059218504
0001c0 0e 7e 28 bb e8 33 db bb ea 79 96 bc ea f0 ab 3d
       -0.00257099 -0.0066895373 -0.01836868 0.0839556
0001d0 ba de ce 3c 8e 07 ce bd 0b d7 05 3e eb 4d 66 3d
       0.025252689 -0.10060035 0.13070314 0.056226652
0001e0 be cd cb bd 65 a6 bf bb f3 63 04 3e 09 34 eb bc
       -0.099513516 -0.005848693 0.12928753 -0.028711336
0001f0 af e7 6f bd 5c d1 3b be 16 0f b0 bd b5 41 1f 3d
       -0.05857056 -0.18341583 -0.085966274 0.038881022
000200 f1 52 2d 3e e2 f1 81 3d 42 e8 7f bd 51 ff d8 3b
       0.16926171 0.063449636 -0.062477358 0.006622233
000210 de 5f 0c 3e 46 6c fd 3d 07 02 4d 3d f1 a5 26 bd
       0.13708445 0.12374167 0.05005076 -0.040685598
000220 23 f1 d9 bd 2d 3f 8a 3d 4d 28 75 bd 7b 2d d9 bd
       -0.10641696 0.06750331 -0.059852887 -0.10604378
000230 49 74 0f 3d e3 d4 6e 3b f8 b0 bc 3d 38 aa 3a 3e
       0.035023008 0.0036442808 0.092134416 0.18228996
000240 24 f1 b1 bd a9 8c c3 3c 43 f0 d7 bc c7 29 0e be
       -0.08688572 0.023870783 -0.026359683 -0.13883124
000250 9e a2 a2 3d f1 ca f5 3c 65 bc 7d bb 64 ca 13 3e
       0.07941173 0.030003997 -0.0038717028 0.14432675
000260 aa 2d 59 bd ca 67 94 bc e1 00 32 3e 26 1a bf bc
       -0.053022064 -0.018115897 0.17383148 -0.023327898
000270 1f 9f c3 3d 68 8b 29 3e da be 37 be 47 70 0b be
       0.09551834 0.16557086 -0.17943898 -0.13617049
000280 57 da 0e 3e 88 61 c7 3d 13 1d 0e bc 69 da 32 3d
       0.13950478 0.097353995 -0.008673924 0.043665323
000290 7d 5c c3 3c 84 9c 9d bd 62 d7 69 3c d8 6d 31 3d
       0.023847813 -0.076958686 0.014272543 0.043317646
0002a0 69 21 7d 3d 75 9e 8c bd 68 ab 92 3d 6c 7c df bd
       0.06179944 -0.06866161 0.071615994 -0.109124035
0002b0 ed 9b 0c 3e d0 ef fd bd ec 3e 8e bd cf 20 2a bd
       0.13731356 -0.12399256 -0.06945595 -0.041535195
0002c0 0a ba 30 3e 46 76 1d bd d9 33 b2 bd 9a 1d ed bd
       0.17258468 -0.038442872 -0.087012954 -0.11577912
0002d0 92 30 65 bc 5b 36 e4 3d bc 49 44 bd d7 df c2 bc
       -0.013988631 0.1114318 -0.04792188 -0.023788376
0002e0 10 33 a2 bd 03 7f 38 ba 9b 81 53 bd 78 33 68 3d
       -0.07919896 -0.0007037969 -0.051637273 0.05668971
0002f0 b8 68 4b 3d cf e7 48 bc 1e e8 a3 bd af 5a 35 bc
       0.049660414 -0.012262299 -0.08003257 -0.011068984
000300 64 41 05 3e ab f9 63 bd 5c 23 03 3e 3a c6 fc bc
       0.13013226 -0.055658024 0.12806457 -0.03085624
000310 e8 17 af 3b 21 12 2c 3d 86 e9 ac bd f9 46 da bc
       0.005343426 0.042009477 -0.084429786 -0.02664517
000320 de 63 21 3e e8 5e 18 be 05 43 51 3d 88 42 a0 bd
       0.15760753 -0.14879954 0.051089305 -0.0782519
000330 54 a5 a2 3d 65 e8 3a 3e 71 38 9a bb 55 bd a9 bc
       0.0794169 0.18252714 -0.0047064354 -0.020720163
000340 f3 91 ad bd 33 30 e3 bd 2d 8d b8 bd 3a 71 23 3e
       -0.08475103 -0.11093178 -0.09011302 0.15961161
000350 d1 66 d5 3d 51 eb 12 3e f2 7b b5 3d 55 b6 aa bd
       0.10420001 0.14347579 0.08861531 -0.08335558
000360 ae fe 43 3e ce 1c 31 3c e0 3d 12 3d e0 f0 43 bd
       0.19140121 0.01081009 0.03570354 -0.04783714
000370 be b3 1e 3d 89 d2 09 3d fe c0 33 bd b4 55 d5 3b
       0.038745634 0.033648048 -0.043885224 0.0065104607
000380 6c dd e7 3d 22 54 18 be 16 a0 4b 3d 7a 09 96 bc
       0.1132153 -0.14875844 0.049713217 -0.018315066
000390 c4 73 b3 3d 0e 75 04 be 85 45 62 3d dc 3d 44 bd
       0.08762315 -0.12935278 0.05524208 -0.047910556
0003a0 de 6d 28 be a5 c0 88 bd d3 fc a2 3c a0 43 0a 3d
       -0.16448161 -0.06677369 0.019895947 0.0337559
0003b0 bc fa b3 3b 55 08 0e be 60 d3 8c bb 10 ae 96 bd
       0.0054925364 -0.13870366 -0.004297659 -0.073574185
0003c0 b6 0a b0 bc 46 28 4e 3d 58 9b 19 be 05 24 9d bd
       -0.021489482 0.050331376 -0.15000665 -0.07672886
0003d0 f1 6e 1a bd 5a b8 25 be 6f 27 e4 3d b0 23 06 be
       -0.03770346 -0.16183606 0.11140334 -0.13099551
0003e0 5e 5e 02 3d 32 ff 8d 3c ec 61 01 be 64 78 1c bd
       0.031828277 0.0173336 -0.1263501 -0.03820075
0003f0 71 3b 29 bd b7 ec 13 bd 79 d9 c0 bc c3 ac 05 3d
       -0.041316453 -0.03611442 -0.023541199 0.03263546

network_body._body_endoder.seq_layers.2.bias f4 [128]
000000 92 66 64 bc 02 7b 86 bb 29 74 af bc da ef c9 bc
       -0.01394047 -0.004104019 -0.021417694 -0.024650503
000010 3d 6a 32 bc 5e 3f 95 b9 0a 5a 89 3c c1 00 bb bb
       -0.010889587 -0.00028466707 0.016766567 -0.005706877
000020 7a 96 4c 3c 39 5d 1b 3c 71 ed fb 3a 6c b7 aa 3b
       0.012487048 0.009482675 0.0019220543 0.005209854
000030 2a 7a 24 bc bd 22 96 bb de e8 ab bb 49 53 ec bb
       -0.010038892 -0.004581778 -0.005246266 -0.007212077
000040 5c 04 33 bc 0d 73 83 bc b4 96 db 3c 55 96 42 bb
       -0.010926332 -0.016046071 0.02680526 -0.0029691656
000050 c6 cf 91 38 f6 54 fc 3b fd 8a 0a 3c dd 98 47 3c
       6.9528396e-05 0.007700558 0.008455989 0.012182442
000060 96 59 c0 bb 54 ac be bb 9f 76 5f bc 7d 0d c5 bc
       -0.0058700545 -0.005818883 -0.013639121 -0.024054283
000070 07 b5 93 3a 19 2b 81 bc 16 02 42 3c b4 35 57 3c
       0.001126916 -0.01576762 0.011841318 0.013135362
000080 1f 97 48 3b 8c c9 63 3c db 9b 5b 3c 84 eb 7d 39
       0.0030607653 0.013903033 0.013403858 0.00024215697
000090 b9 3e 79 bb af 76 d5 ba 15 f0 da ba 01 a4 5a ba
       -0.003803177 -0.0016285981 -0.001670363 -0.00083404785
0000a0 e5 26 09 bc 6d e9 82 3b 0d 87 73 bc 86 30 06 bc
       -0.00837109 0.0039951117 -0.014863742 -0.00819028
0000b0 5f 0b ef b9 05 a6 1e bc d9 07 e2 bb 58 01 8b 3c
       -0.00045594104 -0.009683137 -0.006897908 0.016968414
0000c0 84 67 89 bc 5c b0 17 bc 16 2d 92 bb da 0a 3c 3c
       -0.016772993 -0.009258356 -0.004460941 0.011477197
0000d0 0c 00 9f 3c 00 d5 20 bc df 7d e8 bb b4 9f 3f bb
       0.019409202 -0.009816408 -0.007095083 -0.0029239478
0000e0 ef 07 9e bb 44 04 3d bb 7d b5 2b 3c ef 94 3c bc
       -0.004822723 -0.0028841654 0.010480282 -0.011510118
0000f0 dc 4d 9f bc cd 91 54 3c 9f 74 38 bc 85 8b 85 3b
       -0.019446306 0.012974215 -0.011258273 0.00407547
000100 e7 82 e6 bb a5 ab b9 bb bf d9 93 3a 80 1a 3c ba
       -0.0070346477 -0.0056662136 0.0011280103 -0.00071755797
000110 73 01 4d bc 4d bc 07 3c de c7 91 3b 3a f1 9d bb
       -0.012512553 0.0082846405 0.004448875 -0.004820016
000120 af 44 85 bc 60 b8 0a bb 60 6b 1b bc 9a 45 02 3c
       -0.016268102 -0.0021167025 -0.009486049 0.007951165
000130 64 4a 32 3b 5c 97 46 bb 6d ab b6 ba 79 9b bb bb
       0.0027204985 -0.003030262 -0.0013936587 -0.005725321
000140 62 57 00 bb 73 87 7b ba da 91 a7 bb 04 b4 47 bc
       -0.0019583334 -0.00095950736 -0.0051138224 -0.012188915
000150 78 fc 10 3b 5f c5 39 3c 4b ed ee 3b 40 89 30 ba
       0.002212314 0.011338561 0.007291471 -0.0006734319
000160 b1 48 45 bb 95 65 dc 3a 8f 99 43 bb cb 67 cf ba
       -0.0030103142 0.0016814942 -0.0029846167 -0.0015823779
000170 c8 18 d6 3b 24 4c 9f bc 48 ee f6 3b e7 cc 06 bc
       0.006533716 -0.019445486 0.0075357296 -0.008227563
000180 be 23 1a 3c e7 95 d9 3c 2a af 9b b8 a4 8e d8 bb
       0.009407936 0.026560737 -7.423603e-05 -0.006608801
000190 fc 50 a7 bc e5 38 2d 3c a4 43 b6 bb dd 3b 8f bb
       -0.020424359 0.010572647 -0.0055622626 -0.00437115
0001a0 2f b1 09 3d ca 75 c1 bb 7e a5 26 bb 74 33 d5 3a
       0.03361624 -0.005903934 -0.002542823 0.0016265945
0001b0 12 89 f9 bb 8a b2 76 bc ad aa 1a 3c 28 7b 5a 3c
       -0.007615217 -0.0150572155 0.009440106 0.013335027
0001c0 ef f9 4a bc 22 b9 9b 3c db b9 95 bc ea 44 85 bc
       -0.01238869 0.019009177 -0.0182771 -0.016268212
0001d0 d7 8e 47 bc a4 d4 9d 3b 36 04 95 bb 86 0c b2 bb
       -0.012180052 0.0048166085 -0.004547621 -0.005433622
0001e0 a6 35 c6 3c 61 69 26 3b ba c6 1d 3c 90 79 e2 bb
       0.024195503 0.00253924 0.0096299 -0.006911464
0001f0 0f 00 55 3c a0 4f 96 bb fa f1 37 bb 5b b7 29 bc
       0.013000502 -0.0045871288 -0.0028067813 -0.010358657

action_model._continuous_distribution.log_sigma f4 [1, 44]
000000 3f c9 fb 3c 53 13 47 bc 3a 08 35 bd 65 8f 3b 3b
       0.03073561 -0.012150603 -0.0441973 0.0028619405
000010 0a 1a 61 b9 c2 27 25 bd c8 03 bf 3c 88 16 67 3b
       -0.00021467372 -0.04032112 0.023317233 0.0035261232
000020 8d 33 0b bc c6 ac 9e 3b 68 73 e1 bb bb 2a 19 bd
       -0.008496177 0.0048423735 -0.0068802126 -0.037394267
000030 b7 32 da 3c e5 34 aa 3a 61 1f 28 bd 5f 6a e8 bb
       0.02663551 0.0012985735 -0.04104555 -0.0070927585
000040 bd 95 f8 3b 77 6f 6f 3c 77 2c 2a bd 9e 78 c2 bd
       0.0075862096 0.014613978 -0.04154631 -0.09495662
000050 5e e3 1d bb 89 16 4d bc 2d 8d 61 bc 44 f0 ed bc
       -0.002409182 -0.01251758 -0.013766569 -0.029045232
000060 89 3d 0a bd ef 17 eb 3c cd 64 a0 bc 70 67 5c bd
       -0.03375009 0.028697936 -0.019579316 -0.053809583
000070 dc 68 4c bd 00 78 fe bc 88 12 c5 3c 0d 4a a8 3c
       -0.04990469 -0.03106308 0.024056688 0.020543123
000080 2b 5d 5e bd fb 5c 81 3d 65 d3 3a bd 54 3c 25 3c
       -0.05428807 0.06316563 -0.045611758 0.010085184
000090 a4 5d 33 bb 5f c2 6b 3c 8e d4 ce bc 59 7a f5 bc
       -0.0027369047 0.014389603 -0.025247838 -0.029965566
0000a0 ee 55 01 3d ab 4f ed 3c e4 53 14 3c 36 b4 b1 bc
       0.03157609 0.028968653 0.009053204 -0.021692377

action_model._continuous_distribution.mu.weight f4 [44, 128]
000000 11 16 e1 bc d9 ec 6d bc 65 8c 8d ba 5b 62 83 3c
       -0.027476342 -0.014521801 -0.0010799287 0.01603811
000010 ef 3c 24 bb ed 83 a1 3c 56 69 1e bc b1 ed 17 3c
       -0.0025060733 0.019716227 -0.009668669 0.009272979
000020 e0 38 e3 3b 01 64 a0 bd 07 48 83 bc b4 71 1f 3d
       0.0069342703 -0.07831574 -0.016025556 0.038926795
000030 a6 68 65 bc 57 85 3e 3d 12 7f 45 3d 4f 57 98 3a
       -0.014002001 0.04651388 0.048216887 0.00116227
000040 5d 52 14 bc 53 07 9b 3c de 24 80 bd 2a 0e d4 3c
       -0.00905284 0.01892439 -0.06257032 0.02588566
000050 b0 a9 64 3d a8 a0 88 3d ed 96 fa 3c 23 d0 3f 3c
       0.05582589 0.06671268 0.030589545 0.0117073385
000060 99 e4 a5 bb 83 d8 2c bc 78 19 8f 3c f6 25 99 3c
       -0.0050626514 -0.010549667 0.0174682 0.018694859
000070 08 fd 96 3c 52 87 17 bd 2b 27 5b 3c 21 0c 37 bb
       0.018431202 -0.036994286 0.013376038 -0.0027930813
000080 3e a6 86 3d 78 99 dc 3b 30 66 2c 3d 24 a5 8c 3c
       0.06574677 0.006732162 0.04208964 0.017168589
000090 2e 30 08 3d 49 2d 44 3c 86 6f 2d 3b f2 93 20 bc
       0.033249073 0.011973687 0.0026464178 -0.009800898
0000a0 dd 53 93 3c 44 cb 76 3c 34 bf ed 3b d9 af 5b 3b
       0.017984325 0.015063111 0.007255459 0.0033521561
0000b0 e9 41 49 bd da 2b 23 3c 2a 47 43 bb e3 86 71 3c
       -0.049135122 0.0099591855 -0.0029797056 0.014741632
0000c0 60 bc 49 3c 40 40 73 bc ef ee 34 39 b0 4a 1c bd
       0.0123129785 -0.014846861 0.00017255147 -0.038157165
0000d0 5f 3f c2 3c 39 d3 13 3c 8f 3a dc bc 32 9c d2 3c
       0.023711858 0.009022527 -0.026883392 0.025709245
0000e0 d9 9a f3 bb ee 4c 5d bb 70 a2 5f bd ca 39 34 3a
       -0.0074342308 -0.0033767777 -0.05459827 0.00068750663
0000f0 b7 da 49 bc 1b 1d 50 3a c1 a4 58 3d 22 2c 99 bc
       -0.012320212 0.00079389074 0.052891497 -0.018697802
000100 f8 76 8e 3c 16 70 c0 3c 14 d1 0c bd db 67 a9 3c
       0.017390713 0.023490947 -0.03437908 0.020679405
000110 07 8b 1c bd 3f 11 af 3c 56 13 88 3d 42 d5 4b 3d
       -0.038218524 0.021370528 0.06644313 0.049763925
000120 79 b0 e7 bc 8a 18 c3 3c 19 f9 a5 bc 3e 4d 76 bb
       -0.02828239 0.023815412 -0.02026038 -0.003758266
000130 87 c6 ef bc b7 cd 15 bd 0c f7 16 3c ab 52 1b 3c
       -0.02926947 -0.036573138 0.009214174 0.009480159
000140 9a f3 a0 3b 0e 28 7a bc 8d 55 4a 3b ca a5 02 bc
       0.004911852 -0.015268339 0.0030873746 -0.0079740975
000150 c1 7c 90 3c 9c ca ca bc e1 18 88 3c cc 85 8f 3b
       0.017637612 -0.024754815 0.016613426 0.0043799635
000160 b4 1f c7 bc 0f 78 3f bd e1 b8 02 3c 93 84 0d 3d
       -0.02430711 -0.046745356 0.007978649 0.03455026
000170 fc 14 3f bb 64 3e c0 bb 67 73 ab 3c 2b 1d 35 bc
       -0.0029156795 -0.0058668125 0.020929052 -0.0110543175
000180 f7 8a 81 3c 7f ea d5 3b b0 7f 98 bc 01 99 a8 bd
       0.015813334 0.0065281983 -0.018615574 -0.08232308
000190 44 6c 3e 3b 42 ae 9f 3d 63 25 e6 bc 81 57 11 bd
       0.002905623 0.07796909 -0.028094 -0.03548384
0001a0 9e b7 56 bc 51 f7 ba bb 1d 1c 80 bc b5 47 7b 3c
       -0.013105301 -0.005705752 -0.015638405 0.0153369205
0001b0 cf 43 c6 bb e5 34 62 3c 21 da 1b 3c c9 67 11 bd
       -0.006050564 0.013806556 0.009512455 -0.035499368
0001c0 2a f9 ae 3c b5 9f f1 3c 5f 92 c1 bc 7d a3 6e 3b
       0.021359045 0.0294951 -0.023629365 0.0036413365
0001d0 23 ad a4 bb 8e 7b b0 3c 93 fc 1c bd fa eb 9b bc
       -0.0050255223 0.02154329 -0.03832681 -0.01903342
0001e0 66 57 ae 3d 8c 0c 4a 3c a2 e7 c9 3d ba 31 d5 bc
       0.08512764 0.012332093 0.098586336 -0.026024688
0001f0 ac f7 a7 bc 88 7e 00 3d 78 67 75 3b 13 20 31 bd
       -0.020503841 0.03137067 0.0037445705 -0.04324348
000200 e0 13 98 3c 71 ee a1 bc 2f cd a1 bc 29 38 a6 3c
       0.018564165 -0.019767018 -0.01975116 0.020290451
000210 2d 22 4a 3c da e8 9e bc 0a 21 03 bd 97 20 9d bb
       0.01233725 -0.019398142 -0.03201393 -0.004795145
000220 59 23 7a bd 60 6a 83 3c d1 dc 32 bd 6a d8 2f 3b
       -0.061068866 0.016041934 -0.04366762 0.0026831874
000230 ea b3 1f 3c 73 f6 5e 3a 02 3d 14 3c 13 23 34 bc
       0.009747485 0.0008505352 0.0090477485 -0.0109946905
000240 7c 76 d8 bb a7 8a a5 bc bb 8f 34 bd dd bd 01 3d
       -0.0066059213 -0.020207716 -0.044082385 0.03167521
000250 67 99 4f 3b a6 77 c6 bc 8f 51 b2 bb 05 55 b4 3c
       0.0031677128 -0.024226975 -0.0054418514 0.022013197
000260 84 c3 d1 bb d9 5c 96 bc e6 2c 24 3d 6e c3 70 bc
       -0.006401481 -0.01835482 0.04008188 -0.014695032
000270 66 b9 8f 3c f9 28 31 3d 4e ad f5 3c 59 17 dd bc
       0.01754446 0.043251965 0.029989865 -0.026988672
000280 24 8f 4d 3d 1d 59 3e bc 5c 3f 4c bc 53 6b 14 bd
       0.050185338 -0.011617926 -0.012466278 -0.036235165
000290 2f 78 80 3c 96 b1 a9 3c ca 34 43 3c 2f 9a bc bc
       0.015682308 0.020714562 0.011914441 -0.02302274
0002a0 2b b0 ad ba 2d f9 a7 ba 88 0e 05 bc 72 be a0 3c
       -0.0013251355 -0.0012815349 -0.00812114 0.019622061
0002b0 9e 24 33 3c a9 66 19 3d 1d dd 1f bd fe 08 93 3a
       0.010934023 0.03745142 -0.03902923 0.001121789
0002c0 21 72 6f 3c 0f 6c e0 3b d9 fb ae bc 35 e7 83 3c
       0.014614613 0.006848819 -0.021360325 0.016101459
0002d0 e1 8c 29 3d 10 25 bc 3c fc 1e 66 3c b0 5e 76 3d
       0.04139412 0.022966892 0.014045473 0.060148895
0002e0 e0 84 7d bb eb d7 30 3b ca e5 3c bb 49 6f fb bc
       -0.0038683936 0.0026984166 -0.0028823488 -0.030692713
0002f0 9c 2a 4f bc 98 49 b3 bb ef 7d 97 3c 5b 44 e0 3c
       -0.012644436 -0.0054714195 0.018492667 0.027376344
000300 b8 fb 32 3d e4 45 a5 bc 7e 62 05 3d 6f 5b 56 3c
       0.04369709 -0.020174928 0.032564633 0.013083323
000310 da 1a 73 3c 7c ed f7 bb 70 e1 b5 bc 7d 00 7b 3c
       0.014837945 -0.007566152 -0.022202224 0.015319941
000320 3d 5c d3 3c dc 9f 69 3b 8d 97 4c bd be 44 25 bc
       0.025800819 0.0035648262 -0.049949218 -0.01008719
000330 26 52 74 bc 59 5b ae 3c 5b 79 e7 3c 99 c1 23 3d
       -0.014912164 0.021283792 0.028256109 0.03997955
000340 07 a1 8a 39 b7 28 95 bc 1e 7a f0 3c 5d 96 db ba
       0.00026441386 -0.01820789 0.029355105 -0.0016753186
000350 e4 7f b4 3c dc bc 92 bc 2e de c6 3c a9 64 b4 bc
       0.02203364 -0.01791232 0.024275865 -0.022020655
000360 77 9d 8a bc fd 96 f1 bc 18 b4 2b 3d b3 55 8a bc
       -0.016920788 -0.029490942 0.041919798 -0.016886568
000370 56 1d 2f 3c 69 63 91 39 4b 2a 1c 3d 3c e9 7d bc
       0.010688147 0.00027730622 0.03812627 -0.015497502
000380 83 f0 82 3b 0a f6 7f bd ab dd 2e bc a9 5d eb bb
       0.0039959564 -0.0624905 -0.010672967 -0.007182796
000390 5f 7f 2f bc 72 c2 c0 3c cb 8c 97 3c 7b 91 69 bc
       -0.01071152 0.023530219 0.018499753 -0.014255877
0003a0 3e 3c 4a bd 6a 2b 58 3b 4f db f2 3c a9 8c e8 3b
       -0.049373858 0.0032984861 0.02964559 0.007096846
0003b0 64 f3 c0 3c ec ff 15 bd bd 7d 2d bb fa 44 1c 3d
       0.023553558 -0.03662102 -0.002647265 0.03815172
0003c0 3e 79 81 bb 6d 17 20 bd 4a f1 27 bc 04 23 e3 3c
       -0.003951221 -0.03908484 -0.010250399 0.027726658
0003d0 77 8a 23 3d 6d c2 6e bb 73 b7 29 3c a0 28 56 3d
       0.039926972 -0.0036431805 0.010358679 0.052284837
0003e0 0f 00 ab bc b4 07 36 bc f8 3f 38 bd 0f 39 10 3c
       -0.020874051 -0.011110235 -0.04498288 0.008802666
0003f0 b7 01 1d bc 5e 2f 7e 3b 1d c6 ac bc 73 49 05 3d
       -0.009582928 0.0038785557 -0.021090562 0.03254075

action_model._continuous_distribution.mu.bias f4 [44]
000000 5b ff e1 38 86 ee ae ba 62 30 86 bb 67 47 d2 3b
       0.000107764 -0.0013346232 -0.004095123 0.006417203
000010 a7 c0 fa bb 4b c2 37 3c 65 0b 60 3c 7c 0e 69 3c
       -0.0076523605 0.011215757 0.013674592 0.014224645
000020 c6 99 06 39 30 30 3f 3a 8a 02 24 bc aa 52 77 bb
       0.00012836521 0.0007293252 -0.010010371 -0.003773848
000030 18 83 62 bb 92 26 5b bc 05 ad 07 bb 68 54 e6 3b
       -0.0034563001 -0.013375895 -0.0020702493 0.007029105
000040 77 93 25 3c 1a 26 75 bc 98 d1 63 bc 96 9e 2e bb
       0.010105959 -0.014962697 -0.0139049515 -0.0026644818
000050 31 01 8f 3b 0f 82 c0 bb 7e cf cb bc 15 c1 c6 bb
       0.0043641557 -0.005874879 -0.024879213 -0.0060654976
000060 dd b4 83 3b ff 53 39 bc d1 f4 f2 bb 39 f4 ca bb
       0.0040193633 -0.01131153 -0.0074144383 -0.0061936644
000070 1e cf 50 3c 46 b1 e8 bb 96 71 6c bc a4 cd fe 3a
       0.012744693 -0.0071012108 -0.014431378 0.0019439948
000080 5d 12 3d bb 9d 76 3c bc 31 88 33 bc 21 a4 34 37
       -0.0028850057 -0.011502889 -0.0109577635 1.076705e-05
000090 64 8c a3 ba 8c 8c 08 bc 7f 54 25 3b 3a b7 fe ba
       -0.0012477753 -0.00833429 0.0025227366 -0.0019433268
0000a0 20 95 9c 3b de 5a 6d bc 32 b9 f5 bb 5d 32 82 3b
       0.0047785193 -0.014486996 -0.0074988836 0.003973289
