results/b080reward/Dynamic Table/Dynamic Table-699962.pt (torch, 341944 bytes, 48 tensors)

network_body._body_endoder.seq_layers.0.weight f4 [64, 52]
00000000: a843 253c a5c4 6fbe 9fba 9fbe a886 7ebe
00000010: d679 4dbe 66ed 7bbe 04d1 103e f2d8 52be
00000020: ef46 4cbb 4109 52be 181d 113c 2a49 cf3c
00000030: 65ad 30be 8fb5 82be 03c3 903c 7e76 31bd
00000040: 0a67 9dbe c6a8 27bd 3520 023d ff39 4fbd
00000050: cc70 d53c 2b0d e03c 69da 323c a56c 56be
00000060: 57e3 7dbd 9365 7c3e b0d1 18be 182a 4dbd
00000070: 7698 90be e033 453e b278 b93d 42a5 b43d
00000080: 5de9 be3d 662b 06be 2c81 96bd cee1 3dbe
00000090: 66fb 853d d467 f4bd 3767 76be 7846 6abe
000000a0: 7335 e03e 12c0 8c3d 4e14 2bbc 52c5 a8bd
000000b0: d03d 283d f010 483d e906 663e f6b8 c2bd
000000c0: babb 16bd 0d4c 953c 6fc4 fc3c f2a1 a93d
000000d0: b394 14be b83b 4f3d ac2c 463e f769 29be
000000e0: c9db 8abe be88 bbbd 7b7b 54be 3719 ef3a
000000f0: a7aa 0dbe 6b86 9d3c ffe6 eebb b4bb 28be
00000100: 7702 93bd 3a24 e4bd 744d 233e 9fbb d2bd
00000110: f48b d8bd 9494 283d 684d a1be 6092 3dbe
00000120: 3841 05ba ef3a 603d e98f 943e 600e 29be
00000130: ee62 4fbe 9806 70bd 64ad 883b 382f efbc
00000140: 8acd 2b3d fbfe 83be d8f9 9cbc 5e75 90be
00000150: 4e8b 1a3e 7b2a 3f3e 1ede 83bd 147e c0bd
00000160: 5dc8 8dbd 2231 ac3d da9a 0fbe de94 693d
00000170: 3344 8b3e d7d1 bc3d 18f7 59be e865 f4bd
00000180: 8320 613e 6591 6abd be41 323e 9eeb 85bb
00000190: 20a1 953e c175 c63d eb74 b4bd c4b3 393e
000001a0: 6237 88be 9fc5 95bd 8331 713e 708e 5f3d
000001b0: 1426 303d 1cbb dfbd 4a11 abbe 23ae 13be
000001c0: 4a77 c53d d782 0fbd 084e 23bd 29a9 cc3c
000001d0: 18a5 493d 108c 343e 5b9b 683e 9a37 e8bd
000001e0: 1b04 1dbe dcff 90be 8701 50be a07a 153e
000001f0: fa54 aabe 5987 9fbd 8ad7 9fbc 11f1 1bbe
00000200: 88a2 d83d 1499 b0be d2a7 523e 0535 0abe
00000210: 83b0 3dbe 6fc8 fdbd a8a1 0f3e 76b2 6d3c
00000220: 74ff a13e be30 2abd 7bb3 3abe 6dfb 05bd
00000230: 796a b3bd a4f2 2dbe d5d2 8dbe d0ce 8cbd
00000240: aa97 03bc 2c85 053e 81f2 fe3d 8330 283d
00000250: 20ba 3fbe 768f a23e 1bfa e63d 6fb4 9a3d
00000260: 0427 76bd c306 6ebe c05a 973d 3693 553d
00000270: ff25 893d 852c 70bd 34ed 47be 5c78 51be
00000280: 0fbb 1f3e 7399 653e dfdc 2fbe d8fd 28be
00000290: aa51 0fbe 5f2a 3a3e 3e00 fc3d 8585 32bd
000002a0: 20a3 c43d a45e b1bd d9ca 9fbe b910 46bd
000002b0: 5eaf 7b3e f401 483e be6b f8bd de93 6c3e
000002c0: 6416 cb3c e044 d4be d10e 6e3e c8ab c5bd
000002d0: 646a 863b 99d7 423e 4c9f 70bd c7b6 a5bc
000002e0: 2d12 003e 3277 8fbe 8392 d43d d09c c7bc
000002f0: 2d80 72bd 5298 943d 8615 663d b326 afbd
00000300: e405 55be 85e8 34bd f6a7 b43e a0a6 a9bd
00000310: 628d c03d ea2d 533d dcd3 113e 28e2 3a3d
00000320: 19fe 393e 1ae3 87bd 22ab 473e 1882 24bc
00000330: cf77 073c 55c5 a2bd a376 443e 03ee 6ebe
00000340: 5e6c 43be 4bb5 a6be 0c48 353d 0ddb a33d
00000350: 627c 183e b339 39bd 62db d5bd ad31 60be
00000360: 30df 6f3d bda1 bdbe 5a14 35be 49d9 b1bd
00000370: a16f dabd bc51 12be 0116 57bd 0e70 cd3c
00000380: e60e 303d 9fca a0bb a2b2 853e edbf 13be
00000390: ad1e 75bd 263e bebe b7d1 ddbd dd0a f4bd
000003a0: 6c66 ccbd 8ba1 8b3d 7558 03be ad72 94be
000003b0: 4dfb 37bd 7fca 5cbd c006 063d d2b2 11bc
000003c0: 8a66 df3d 919e dcbc ebfd 0bbe 0aa7 abbd
000003d0: 0bf6 da3d 5368 10be a80c 29be d22b 16be
000003e0: b573 cdbd 861a e8bd ef52 25be 4e13 6e3e
000003f0: 40b0 9dbe ee54 25be 913c 57be 6129 19be
0.010086931 -0.23414858 -0.31197068 -0.24856055 -0.20066008 -0.24602279 0.14142233 -0.2059057
-0.003117021 -0.20511343 0.008857034 0.025303442 -0.17253645 -0.25529143 0.017671114 -0.043325894
-0.30742675 -0.04093244 0.031768996 -0.05059242 0.026054762 0.027350029 0.010916331 -0.20939882
-0.061984386 0.24648122 -0.1492374 -0.05008897 -0.28241318 0.1925807 0.09056224 0.08820583
0.09321854 -0.13102493 -0.07348856 -0.18543169 0.06542091 -0.11933866 -0.24062811 -0.22878444
0.4379078 0.06872572 -0.010441853 -0.08240761 0.041074574 0.048844278 0.22463574 -0.09507935
-0.036800124 0.01822474 0.030855386 0.08282842 -0.14509849 0.05059406 0.19352978 -0.16544329
-0.27120808 -0.09156941 -0.20750229 0.0018241768 -0.1383463 0.019229135 -0.0072907205 -0.16477853
-0.071782045 -0.11139722 0.15947515 -0.10289692 -0.10573569 0.04115732 -0.3150437 -0.18512869
-0.0005083266 0.054743703 0.29016045 -0.1650939 -0.20252582 -0.05860004 0.0041710604 -0.02919732
0.041944064 -0.25780472 -0.019162104 -0.28214544 0.15092203 0.18668549 -0.0643885 -0.093990475
-0.06922982 0.08407809 -0.14023915 0.057026736 0.2720047 0.09219711 -0.21285665 -0.119334996
0.21985058 -0.057267565 0.17407891 -0.0040869256 0.2922449 0.096904285 -0.08811363 0.18134981
-0.26604754 -0.07313084 0.23554043 0.0545792 0.043005064 -0.1092436 -0.33411628 -0.14421897
0.09641893 -0.035036888 -0.03986934 0.024983006 0.04922971 0.17631555 0.22715513 -0.1133873
-0.15333597 -0.28320205 -0.20313083 0.14597559 -0.33267957 -0.077894874 -0.019511957 -0.15228678
0.105778754 -0.3449179 0.20571831 -0.13496788 -0.18524365 -0.12391745 0.1402651 0.01450788
0.31640208 -0.04155039 -0.18232529 -0.03271048 -0.087605424 -0.16987091 -0.27699915 -0.06875384
-0.008031765 0.13039082 0.12448598 0.04106189 -0.18723345 0.31750077 0.112781726 0.07553946
-0.060095802 -0.23244767 0.07390356 0.052142344 0.066967 -0.058636207 -0.1952408 -0.2045607
0.15598701 0.22421817 -0.171741 -0.16503084 -0.13995996 0.18180226 0.12304734 -0.043584365
0.09601426 -0.086606294 -0.31209448 -0.04835579 0.24578616 0.19531995 -0.12129925 0.23103282
0.02479095 -0.41458797 0.2324784 -0.09651905 0.004102038 0.19027556 -0.058745667 -0.020228757
0.12506934 -0.28020626 0.103795074 -0.024366766 -0.05920427 0.07255615 0.05617287 -0.08552303
-0.20803028 -0.04416706 0.35284394 -0.08283734 0.09401967 0.05155746 0.14240974 0.045625836
0.18163337 -0.06635113 0.19498876 -0.010040782 0.008268311 -0.07947794 0.19185881 -0.23332982
-0.19084308 -0.3256019 0.044258162 0.08000765 0.14891198 -0.045221042 -0.104422346 -0.2189395
0.058562458 -0.3703746 -0.17683545 -0.08684022 -0.10665823 -0.14288992 -0.05251122 0.025077846
0.04298296 -0.004906967 0.2611285 -0.14428683 -0.059843708 -0.3715679 -0.108310156 -0.119161345
-0.09980473 0.06817921 -0.12826712 -0.2899374 -0.044917393 -0.053904053 0.03272128 -0.008892732
0.1090823 -0.02693108 -0.13671081 -0.083814695 0.1069146 -0.14102297 -0.16508734 -0.14665154
-0.10031835 -0.11333184 -0.16144918 0.23249552 -0.3079853 -0.1614568 -0.21019198 -0.14957191

network_body._body_endoder.seq_layers.0.bias f4 [64]
00000000: 43d2 3e3d b26f 383c b238 a0bc fac1 afbc
00000010: f36a 303d 4ba7 023c 99ba 1abc 0228 08bc
00000020: 05b3 88bc 775a 18bd 3698 51bd 6b96 0e3c
00000030: 95da 2c3c 9140 6c3b 5ef1 0cbd 0d08 a63b
00000040: 8ef2 1ebc b94e b43c 4017 993d 0bde bcbb
00000050: ffa6 c6bc 4dbc fd3b 5a0c bebb 5453 32ba
00000060: 6fb0 2e3a 4f35 863d d59d 52bc 9883 5bbc
00000070: 971e 51bd bbf5 223b 2086 00bd bf60 88bc
00000080: b097 a4bc 0cbc 88bc 879d 24bd cb43 0dbc
00000090: e261 c83a 1b8d 9abc 2906 723c 9fed 84bc
000000a0: fbe4 4fbc 70ef 89bd acfd f6b8 0dea 20bd
000000b0: 70d0 15bd 1977 963b c1e9 87bc 3d0d dbbc
000000c0: 037a 433c 415f 3e3d 0b55 2bbc 7450 053d
000000d0: f4f3 dd3c de9b 843b 4088 c3bb 2bc8 2cbc
000000e0: b97d c83c da2c 85bc 385b a93c 55a1 34bd
000000f0: 6475 073d 73c9 f63b aa0d 463d 0dea a6bc
0.04658724 0.011257099 -0.019558284 -0.0214548 0.043070745 0.007974456 -0.009443902 -0.00831032
-0.016686926 -0.03719565 -0.05117055 0.008702855 0.010550161 0.0036049227 -0.034409873 0.0050668777
-0.009701384 0.022010194 0.07475138 -0.0057637743 -0.024249552 0.0077433945 -0.0057998123 -0.0006802578
0.0006663864 0.065531366 -0.012855013 -0.013398074 -0.051054563 0.0024865705 -0.03137791 -0.016647695
-0.020091861 -0.01669123 -0.040189292 -0.00862212 0.001528796 -0.018866112 0.0147719765 -0.016226588
-0.012688871 -0.06735122 -0.00011777444 -0.03928571 -0.036575735 0.0045918343 -0.016590955 -0.026739711
0.011930945 0.04647756 -0.010457288 0.03254743 0.027093865 0.004046901 -0.00596717 -0.010545771
0.024474012 -0.016256738 0.02067338 -0.04409917 0.033070937 0.007531339 0.048352875 -0.020375276

network_body._body_endoder.seq_layers.2.weight f4 [64, 64]
00000000: 084f bb3d dcd8 d6bd 304f 683d eab1 43bd
00000010: 3970 4d3d 37be da3d bd3e cbbd e0d9 54bd
00000020: 0475 05be 29dc 1dbe d3dc a1be 1d26 fb3c
00000030: 26f6 ad3d c974 643e af43 8a3d db2b e7bd
00000040: ba12 66be 85b7 193e 2caa ecbd 2b49 a83c
00000050: 4dcd 25be c057 e3bc aab2 b3bd 7281 a0bd
00000060: 96b4 3c3e 96c9 da3d e516 15bd fe70 3b3e
00000070: 6ad8 873d 368a 82bd 68c4 e63d 119c d3bd
00000080: 9440 55be c829 acbd be3c 0bbe 5ae8 e03d
00000090: cda6 9ebe c049 68bc bc52 383e 7040 323e
000000a0: aa9a 083d ed16 28bc ddaa 9a3e 007f 213e
000000b0: 8e74 4b3d 6cbf 9f3e e3b6 64bc 38da 32bd
000000c0: 5be9 1b3e 2537 1f3e 3763 933e b81c 423d
000000d0: 17f7 2f3d 2ddd 2abe a8d9 f63d 507b e93d
000000e0: 37f5 983d f012 f73d 383f bcbd f3de 4d3e
000000f0: a60b c03b 8363 443e 216b 8fbd 4ac5 d7bc
00000100: bf79 8f3d c3cf 3ebe c9be c13d 7577 523e
00000110: 42f1 833e d1a6 ad3c d9af 633e 3ffb 1fbe
00000120: 3417 b3bc b1e4 0dbe 195f 13bd ab65 9abd
00000130: c1d8 153e 8ada 053e 6931 95be 0def 9cbc
00000140: 500d 373d 9557 2e3e f7a9 0fbe 3a9a ad3d
00000150: 42c0 0c3e f2f9 91bc 9020 5dbc 2eab abbd
00000160: a405 6d3e 43bc 12be b137 dfbd 933b 113d
00000170: d15d d4bd 32bf 31be 3852 e9bc 48d2 67ba
00000180: 9884 093d a3b4 473e 83c8 e83d 9d45 e7bd
00000190: 7ef6 30be 0524 08be a7e2 8dbc 803e a0bc
000001a0: f648 17be 95ac 5c3d 5f64 8ebe 28b5 43bd
000001b0: 86d2 0c3d 3ed3 823d c88c 89bd 8333 273e
000001c0: 4b57 173e cb0b 663e 2cfe 733d df78 4cbe
000001d0: a8b2 18bc 1d31 49bd 409a 4cbe d52e f6bd
000001e0: 7994 54bd d84c a9bd 672c ec3d 7583 efbd
000001f0: 56fd 663d ade1 aabd 1bc6 de3e 072c d53b
00000200: c882 e3bd 6a8e d43b a577 a0bd f96e 183e
00000210: bcce 24be 5d43 213e 33e6 233e 31fd b0bc
00000220: 830b 0a3e d6f7 3ebe 65a9 83bb 36b2 8dbd
00000230: 9968 debd d14c 3bbd 8e38 11be 3cd8 bcbd
00000240: 4810 0a3e ccfd d13d 5367 2d3e eb96 f5bd
00000250: 38c7 7f3d df9d 36be b6cd a13d 89ca d53b
00000260: ebbb babd dd34 10be 3b9b cbbd 0ee8 673d
00000270: b2cf 463e 08c8 2fbe 960d a83d 3917 36be
00000280: 6316 0ebd c0b8 24bd d756 363e de26 f7bd
00000290: 8463 fc3d 310e 3abe 43b5 1b3e d7a4 83be
000002a0: 44a6 b43d 0794 11bd deef 1e3e 8c84 003e
000002b0: e3c1 cfbc 5c1e f73c db82 193e 0aeb 343e
000002c0: 8c79 c5bd 4235 6ebe 3649 163d a507 d2be
000002d0: ae22 683e 6ca1 26be c52e 063e 23cf 65bc
000002e0: 1054 05be 019d a03d 99b3 17be 30d5 74be
000002f0: cb2f 543e b807 45be 51fe 80be a7b7 17bd
00000300: 2b59 433c 6ad5 8aba faeb d63c 3fd2 acbd
00000310: cb18 f1bd cb2b a73c 59fd 3dbe 171b 0cbe
00000320: e24c 963d 391f 9bbc 8c3b 423c 14bb 3cbd
00000330: 75b1 5d3e 7e28 b63e b069 6cbd 0b3e 0bbe
00000340: a743 4eba 374f 9d3d d146 c2ba 51b4 99bd
00000350: bb7e ff3c 363e e1bd bcbc aa3d 3de2 d33d
00000360: 0544 873c 1c2a 023e 0169 663e 26ba 9c3a
00000370: 93ab 6c3d 77f2 13be 437e c53d a6d6 443e
00000380: afcb 68bd edd3 363c 532e da3d 8a11 fd3d
00000390: 5b56 063d 0752 743a 2b04 3d3e adf4 4bbd
000003a0: 3590 633c 5800 89be c8c8 37be 2a08 b8bd
000003b0: c51e 923d bdcd 92bd 67fa 653e 8fa5 023e
000003c0: 3a9c cdbc f2fa bebd 3c33 00be 1115 e0bc
000003d0: 8e32 fcbd 33a4 613e f140 4c3e 4a68 8bbc
000003e0: ae9e 2cbe c721 e5bd eca8 34bd cc66 e73d
000003f0: 857c 77be 7745 66be 5889 003e 1b0c 073e
0.091459334 -0.104905814 0.056716144 -0.047777094 0.050155852 0.10680812 -0.09924076 -0.051965594
-0.13032919 -0.15416016 -0.31613788 0.030657822 0.08494215 0.22310175 0.06751191 -0.11287662
-0.22468081 0.15011413 -0.11555895 0.020542702 -0.16191597 -0.027751803 -0.08774312 -0.0783719
0.18428263 0.10682981 -0.036398787 0.18304822 0.066330746 -0.06374018 0.1126793 -0.10332502
-0.20825416 -0.08406407 -0.1359739 0.109818175 -0.30986634 -0.01417774 0.1800031 0.17407393
0.033350624 -0.010259372 0.30208483 0.15771103 0.049671702 0.3120073 -0.013959619 -0.04366514
0.15225737 0.1554838 0.28786632 0.04739067 0.042960253 -0.16685934 0.120532334 0.11400473
0.07468646 0.12064159 -0.091917455 0.2010458 0.0058607636 0.19178586 -0.07002855 -0.026339192
0.07005643 -0.18633942 0.094602175 0.20553382 0.25770003 0.021197708 0.2223505 -0.15623187
-0.02186165 -0.1385677 -0.035979364 -0.07538923 0.14633466 0.13071647 -0.2913926 -0.019156957
0.04469043 0.17025597 -0.1402968 0.08476682 0.13745216 -0.017819379 -0.013496533 -0.08382259
0.23146683 -0.14329629 -0.10899294 0.035457205 -0.103694566 -0.17358091 -0.028481588 -0.0008843285
0.033573717 0.19502501 0.113663696 -0.112925746 -0.1728153 -0.1329499 -0.01731999 -0.019561052
-0.14773926 0.053875525 -0.27810952 -0.047780186 0.03438046 0.063879475 -0.06716305 0.16328244
0.14779393 0.22465436 0.05956857 -0.19967984 -0.009319939 -0.049119104 -0.19980717 -0.12020651
-0.051899407 -0.0826661 0.115319066 -0.11694995 0.056393944 -0.083438255 0.43510517 0.0065054926
-0.11108929 0.0064867036 -0.078353204 0.14886083 -0.16094488 0.15748353 0.16005783 -0.021605106
0.13480954 -0.1864923 -0.004017996 -0.06918757 -0.10859794 -0.045727555 -0.1418173 -0.09220931
0.13482773 0.10253486 0.16933946 -0.11991676 0.06244585 -0.1783366 0.079005644 0.006524388
-0.09117874 -0.14082666 -0.09941717 0.05661779 0.19415167 -0.1716615 0.08205716 -0.17782296
-0.03468932 -0.040215254 0.17806564 -0.1206796 0.123236686 -0.18169476 0.15205865 -0.257117
0.08820775 -0.03554156 0.1552119 0.12550563 -0.025361007 0.030165844 0.14991324 0.17667785
-0.09642324 -0.23262504 0.036690913 -0.41021457 0.22669479 -0.16272515 0.13103779 -0.014026436
-0.13020349 0.07842446 -0.14814605 -0.2390945 0.20721357 -0.19241226 -0.25194028 -0.03704038
0.011923115 -0.0010592167 0.02623557 -0.08438539 -0.11772307 0.020406624 -0.18553676 -0.13682209
0.07338883 -0.018935787 0.011855017 -0.04607685 0.21649726 0.35577768 -0.05771798 -0.13597886
-0.00078683574 0.07681125 -0.001482213 -0.07505096 0.03118836 -0.10998194 0.083367795 0.10345886
0.016511926 0.12711376 0.22500993 0.0011957332 0.057780813 -0.14447962 0.09643223 0.19222507
-0.056834873 0.0111589255 0.10653367 0.12356861 0.0327972 0.00093200844 0.18458621 -0.049793888
0.013889362 -0.26758075 -0.17947686 -0.08985932 0.07134775 -0.07168148 0.22458802 0.12758468
-0.025098909 -0.09325208 -0.12519544 -0.027353795 -0.1231433 0.22035293 0.19946648 -0.017017502
-0.16857406 -0.11188083 -0.04410641 0.11298904 -0.24168594 -0.22487436 0.12552392 0.13188212

network_body._body_endoder.seq_layers.2.bias f4 [64]
00000000: 745f 57bc b346 a9bc c800 213d c630 25bd
00000010: 1415 07bd 2648 fe3b fe66 2f3a 9eee 8abc
00000020: bed3 a8bc 7b6c 483c 7be1 613c 40e9 7c3b
00000030: 6aff 2abc 3acc 83bc 9ab8 fe3b e58d 29bc
00000040: 3354 07bb 55a6 463c 021a e1ba 3b79 a6bc
00000050: 3294 16bd fd50 3b3b e433 3ebc a25c ec3c
00000060: c239 93ba 5d62 8a3b 70b8 9ebc b224 3abd
00000070: 7f6b 143c afb4 633c 04f6 13bd 6aef a43c
00000080: 2c06 1abb fc66 ee3c 4826 283c 15ff c1bc
00000090: b8c7 fb3c 9b56 c83b 3f5e 2cbb 0784 5e3a
000000a0: 1476 edbb 8011 82ba 1780 0fbc 84a3 683b
000000b0: acb6 76bc 3ed6 ce3c 8724 a1bb c643 4e3c
000000c0: 7d42 c4bb ee23 f03b 5e84 a33c bd5b 2c3c
000000d0: a4b4 e23b af11 71bc baa0 3dbc 4e06 4abc
000000e0: a708 87bd bde6 52bc a804 913a a0a3 f2ba
000000f0: 0dc8 50bc 29cf 633a 1deb d1ba f1bd 003c
-0.013145316 -0.020663595 0.039307386 -0.040329717 -0.032979086 0.0077600656 0.0006691067 -0.016959485
-0.020608779 0.012232895 0.013786669 0.0038591176 -0.010436872 -0.016088594 0.007773471 -0.010348772
-0.0020649552 0.012124618 -0.0017173889 -0.020321479 -0.036762424 0.0028582208 -0.011609051 0.028852765
-0.0011232423 0.0042231516 -0.019375056 -0.04544515 0.009058832 0.013898059 -0.03612329 0.020133693
-0.0023502214 0.029101841 0.010263033 -0.023681203 0.030734882 0.00611384 -0.0026301292 0.00084883015
-0.007246742 -0.0009923428 -0.008758566 0.0035497854 -0.015058201 0.025248643 -0.0049176845 0.012589401
-0.0059893713 0.007328502 0.019960579 0.010519919 0.0069185067 -0.014713689 -0.011573965 -0.012330605
-0.06593447 -0.012872395 0.001106401 -0.0018511899 -0.012743008 0.0008690232 -0.0016015504 0.007857786

network_body._body_endoder.seq_layers.4.weight f4 [64, 64]
00000000: 24de b53d 5b78 f63d 7d8f afbd 84c0 5c3d
00000010: 574d 94bd 42eb 5a3e 8f46 f53c ace9 79bc
00000020: 73a6 303d a497 c9bd 2f00 f93d 8798 b1bc
00000030: 1acd e3bd 6fb9 26bd 94fc 9f3d 84e2 0abc
00000040: 894c b73d 4b5e babd f251 44be 0af9 893e
00000050: 6a99 c03d 9dc9 c43c 4c36 abbd 1185 0bbe
00000060: eff6 78bd 9aed 9cbd 87e6 c13d a3e4 1a3d
00000070: f106 d03c f99f 33be 2951 cf3d 50cb 72bd
00000080: 8c1a 5c3d 01bc eebd 27ee a23d 9905 90bd
00000090: 8c1b 063c 6047 e23d c335 b4bd e555 19bd
000000a0: 16bc cc3c 1559 063e f2e1 c2bd acf9 14be
000000b0: c286 ddbd eeff 043d a1c1 a2bd 85bc 8cbe
000000c0: 3f29 23be d1cd 2e3d d416 653d a7cb 62bb
000000d0: 3f57 20be 73c9 943e d545 1f3d 1162 b7bc
000000e0: 176e 953c a0bb 13be 7c04 31bd f1e9 9b3d
000000f0: e027 ef3d 43d7 843c 9cf1 31be 1c8d 4c3e
00000100: 1185 ccbd 7b54 693d 4054 4cbd f188 dcbd
00000110: 4346 51bb dacf a53d 193f 1dbd 5569 94bd
00000120: ac96 22bd 6814 f83c 3f4b 673d 1ce0 56bd
00000130: d20a 913d d98b 193e d42e 573e 3c53 aabd
00000140: f478 873d c16a 933d 5c3f 6e3d bf7c c13c
00000150: fee9 d13c 398f a1bd 312e 2dbe b57b 6d3d
00000160: bb03 7f3e e757 5ebe 581d 59be 47e0 e9bc
00000170: 6ccc ed3d f0ae 09be eafd eabd 897e 89be
00000180: 0ea2 f83d 0fe6 9cbd ba2c 0f3e eb78 bf3d
00000190: 9259 b83b e7ea fe3c 48ed d8bd e5aa fe3d
000001a0: 72a5 a0be 7ed6 70bd ef29 283d be2a a23d
000001b0: 6e2c 4ebe 8051 53be 84df d6bc 06a9 54bd
000001c0: e685 0a3d 50c8 0dbe 286c 8a3e 795c 97bd
000001d0: 012e 3fbe 8eff ff3d 38e7 2a3e 4157 383c
000001e0: 363f 47be db99 37be 3451 02be 007c 9dbd
000001f0: 914a 16be f896 493e 859b 713e ec59 46be
00000200: 65e5 72be b8b0 4e3e 511e 5bbe c3d1 0b3d
00000210: bdb5 3a3e 9e61 f2bc 41d0 083e c9a6 10be
00000220: 449d 84bd 0684 85bc 5208 64be ee16 0bbe
00000230: 6d01 ba3e 7938 0ebe f3bf 95be 75f1 b7bd
00000240: aa97 1abb ae8d 3b3d cbc5 393e 70b6 9ebd
00000250: 8c61 cb3d 6510 e43d 0d07 02bd 3ba3 f0bd
00000260: ca69 84b8 035e 8d3d d190 193e 04d9 41bd
00000270: 08f6 61bd 5b31 78bd 4ecb 013e cc8c 493e
00000280: e3ce 5c3e d746 9a3d b889 e83d b4ed 71bd
00000290: 60ec f43d 9536 a6bd bf5e b73d 21d0 c33d
000002a0: f092 dd3d f3b6 413a 5734 383d d2e8 f23d
000002b0: 6f43 073e cb22 6dbe c3f8 20be 2545 87be
000002c0: a05c 373e 431c d5bc b073 893d 690b 133e
000002d0: bd85 1ebe 1d98 79be d55e 183d ce29 16be
000002e0: 5112 73be 777d 053d 3c51 1d3e a940 0cbf
000002f0: 23e8 8f3d 001a 28bc b342 313e 0c1a 533c
00000300: 1e7a 0bbc 7df6 583b 4db6 cabc 09e0 423e
00000310: 1440 bf3d 4e8f 4dbd edfc 993d 57f3 1f3e
00000320: 8923 603e c14a 76be 5d9f c43d 9db6 8c3d
00000330: 5d70 233e 424a da3d 7d4b 433e c384 fcbd
00000340: 59fa 0b3e 86c7 bc3d c2c6 2bbe fb6b 063d
00000350: 9e02 71bd ef96 003e cb7e 69bd f3f2 eb3d
00000360: 79f0 66be 7631 d33d 4723 c6bd f1a6 193d
00000370: 3b0f 80bd c2c4 203d 6e25 03be 48fd 81be
00000380: a352 1a3e 1fcc 053e 2f57 b5bd ac94 15be
00000390: 2486 86b9 b2ef 8b3d acec 51bd c081 0ebe
000003a0: 430a 18be 0c6f d9be 460e d9bd 4fb7 85be
000003b0: 970f 8d3d 74b8 853e 08a5 d03c 1bc3 ecbd
000003c0: 7466 08bd 494b 033e 2dce 1a3d 37a9 d63d
000003d0: 4216 adbc e070 0b3d c81a a83d 9ae2 6c3d
000003e0: 8d8e a93a e3d8 b43d d711 87be 7e48 51bd
000003f0: 5fe6 803e 0817 31be 5619 0cbe 25e8 ff3d
0.088802606 0.12034675 -0.0857229 0.053894535 -0.07241314 0.21378806 0.029940872 -0.015253466
0.04312749 -0.09843376 0.12158238 -0.021679176 -0.111231044 -0.040704187 0.07811847 -0.008476857
0.08950145 -0.09100016 -0.19171885 0.26947814 0.094042614 0.024021918 -0.08359966 -0.1362498
-0.06078237 -0.076625064 0.09467798 0.0378157 0.025393935 -0.17541493 0.10122902 -0.059275925
0.053736255 -0.11656953 0.0795558 -0.07032318 0.008185279 0.1104877 -0.08799317 -0.03743543
0.02499203 0.1311992 -0.09515752 -0.14548367 -0.10816719 0.032470636 -0.07947088 -0.2748758
-0.15933703 0.04267675 0.055929974 -0.003460625 -0.15658282 0.29059944 0.038884956 -0.022385629
0.018240971 -0.14427042 -0.043217167 0.0761298 0.116775274 0.016215926 -0.17377323 0.19975704
-0.09986318 0.056965332 -0.049885035 -0.10768307 -0.0031932748 0.08096285 -0.038390253 -0.07246653
-0.039694473 0.030283168 0.056468245 -0.05245982 0.07082142 0.14994754 0.21013957 -0.08316657
0.06614867 0.07198096 0.058165893 0.023619054 0.025624271 -0.07888646 -0.16912152 0.057979304
0.24903767 -0.2171322 -0.212026 -0.028549327 0.11611256 -0.1344564 -0.114742115 -0.2685435
0.121402845 -0.07661068 0.13981906 0.09349235 0.005625912 0.03111787 -0.10592133 0.12434939
-0.31376225 -0.058798306 0.041055616 0.07918309 -0.20134136 -0.20636559 -0.026229627 -0.051919006
0.0338191 -0.13845944 0.27035642 -0.07390685 -0.18669893 0.12499915 0.16689765 0.011251272
-0.19457707 -0.17929785 -0.12726289 -0.07689667 -0.14676882 0.19686496 0.23594482 -0.1937024
-0.2372032 0.201846 -0.21398284 0.03413559 0.1823339 -0.029587563 0.13360693 -0.14126123
-0.064753085 -0.016298305 -0.22268799 -0.13582966 0.36329213 -0.1388873 -0.29248008 -0.08981601
-0.0023588934 0.045789413 0.18141858 -0.07749641 0.09930715 0.111359395 -0.031745005 -0.11749884
-6.313955e-05 0.06902697 0.1499665 -0.047326103 -0.055166274 -0.060593944 0.12675211 0.19682616
0.21563296 0.07533043 0.11354393 -0.059064582 0.119591475 -0.081158794 0.08953618 0.09561182
0.10819042 0.0007389627 0.04497179 0.11860813 0.13209318 -0.23157804 -0.15719895 -0.2641994
0.17906427 -0.026014453 0.06711519 0.14359821 -0.15480705 -0.24374433 0.037199814 -0.14664385
-0.23737456 0.032590356 0.1536302 -0.54786164 0.070266984 -0.010260105 0.173106 0.012884628
-0.008513002 0.0033105903 -0.02474513 0.19030775 0.09338394 -0.050185494 0.07518945 0.1562017
0.21888556 -0.24051954 0.09600709 0.06870768 0.15960832 0.10658695 0.19071765 -0.1233001
0.13669719 0.092177436 -0.16775039 0.032817822 -0.058840387 0.12557577 -0.057005685 0.11520948
-0.2255267 0.10312168 -0.09674697 0.037512723 -0.06252905 0.039250143 -0.12807247 -0.2538855
0.15070586 0.13066147 -0.088545196 -0.14607495 -0.00025658414 0.06832828 -0.0512511 -0.13916683
-0.14847665 -0.42467535 -0.105984256 -0.26116416 0.06887739 0.2611729 0.025469318 -0.11560651
-0.033300832 0.12821688 0.03779428 0.10481494 -0.021128777 0.034043193 0.08208233 0.05783329
0.001293616 0.0883043 -0.26380798 -0.051094525 0.2517576 -0.17293942 -0.1368154 0.1249545

network_body._body_endoder.seq_layers.4.bias f4 [64]
00000000: ef33 0fbc 1413 2a3b 6e08 c3bc 7a03 883c
00000010: 0d01 80bd b281 35bc fb53 8bbc f91b a8bc
00000020: cffe 9cbc 5e5a 003b d801 a8bc 560f bbbd
00000030: 93f4 72bc a633 ccbb 97d2 01bc 9bfd a5bc
00000040: 54bc a93b a8e2 2bbc dbf9 9d3c fc04 733c
00000050: 1ddf a9bc e071 46ba 9811 a83b 6ee2 0d3c
00000060: 36d0 4abb 9bae c7bb 5f1c d33b 0ae6 55ba
00000070: 793e b23c 29f7 283d d01e ba3c 29ee 80bb
00000080: 17be 4a3c 6e81 9bbc cd48 573c 8fd1 2e3c
00000090: 4b2a 583b d6ba 233d a244 96bb ad9c 15bc
000000a0: fe72 54bc 0a79 59bd 8f3c ee3c 634c b6bc
000000b0: 346e 25bc 044d cf3c 1548 a83c bf6f 633d
000000c0: 11ad 473c 7d3e b6bb bbb8 c53c ce20 033d
000000d0: 9e91 d7bc f488 fa3b f99a 8ebc f096 01bd
000000e0: ef77 f7bc 7795 84bc b091 313c 53a9 c6bb
000000f0: 2cd1 213c 79b7 0f3d 2499 333d 6099 003b
-0.008740409 0.0025951313 -0.02380773 0.01660322 -0.062502004 -0.011078285 -0.017007818 -0.02052115
-0.019164471 0.0019585113 -0.020508692 -0.091337845 -0.014828819 -0.006231743 -0.007923744 -0.02026253
0.005179921 -0.010491051 0.01928418 0.014832731 -0.020736272 -0.0007570069 0.0051290505 0.008659942
-0.0030946857 -0.0060938126 0.006442591 -0.00081595837 0.021758305 0.041251335 0.02271977 -0.003934641
0.0123744225 -0.018982615 0.013139916 0.01067008 0.0032984193 0.039973103 -0.0045858184 -0.009131593
-0.012966869 -0.053093947 0.029081611 -0.02225322 -0.010097075 0.025305279 0.020542184 0.05552649
0.012187258 -0.0055616484 0.024135938 0.032013707 -0.026314553 0.0076457206 -0.017407881 -0.031638086
-0.030208556 -0.016184552 0.010837957 -0.0060626655 0.009876531 0.035087083 0.04384722 0.0019622669

action_model._continuous_distribution.log_sigma f4 [1, 44]
00000000: d082 72bd 1482 30bd 595c fb3c 0317 f33c
00000010: 32af 0ebd 94a5 07be 72f6 6fbd f259 cb3d
00000020: 6833 d9bc 131e 73bd 1f07 a0bd f03a 4cbd
00000030: fe61 c7bc 6819 3ebc 7f55 19be b495 f8bc
00000040: 4e1d d1bc d6fd afbd 937b 92bd afef 44be
00000050: 8583 283d 6de2 e7bc ac97 063b 5350 7ebd
00000060: 2736 f6bc 9c83 cabd fd87 9fbd 8feb 05bd
00000070: 231b 46bc 2b50 eebc 9081 7cbc 4196 57bd
00000080: 15d4 553c e53f a6bc dbdd 54bc 0dbb 23be
00000090: 1b4a d8bc cf5d 9ebd 5b77 483c 2f57 dfbd
000000a0: fb36 06bd 4327 1cbd 703b 1abd 9e45 f0bc
-0.059206784 -0.043092802 0.030683683 0.029674059 -0.034835048 -0.13246757 -0.058584638 0.09929265
-0.02651377 -0.059354853 -0.07813858 -0.049860895 -0.024338719 -0.011602737 -0.1497402 -0.030344822
-0.025526669 -0.08593337 -0.07152476 -0.19232057 0.04114105 -0.02830621 0.002053718 -0.062088322
-0.030055119 -0.09888384 -0.077896096 -0.03269535 -0.012091431 -0.029090961 -0.0154117495 -0.052633528
0.013051053 -0.02029414 -0.012992348 -0.15989323 -0.026402524 -0.07732736 0.012235488 -0.10905301
-0.032767277 -0.03812338 -0.03765434 -0.029330071

action_model._continuous_distribution.mu.weight f4 [44, 64]
00000000: 23f3 ce36 4545 f4bb dcf8 25bc 5bd5 4dbd
00000010: 1391 15bb f9c5 af3b 0b5d 69bc e752 a43c
00000020: f0ce d93c ee8d 773d 26bb 943d 1149 baba
00000030: 0046 3e3d a3eb 7f3d 627d 33bd 4c9d 9e3d
00000040: 44ee 3dbd 26f1 0b3d 0851 8fbd ea21 bf3b
00000050: c42d 183b 7381 0b3d 8ad4 e5bc 67e1 5c3d
00000060: 412b c0bd 5bea 31bc 4b80 953d b8f7 1c3c
00000070: 402a 153d f593 7ebc 5021 37bd 37b0 fdbc
00000080: d204 68bd 8a08 77bd f0e4 89bc 757d 923c
00000090: c879 763c ac27 91bd 098f 983d b277 6d3d
000000a0: 774b eb3c 1466 d8ba cc78 1cbc 1de0 90bb
000000b0: c6d6 0dbd 85b2 4a3d 19fc 043d be2a 983d
000000c0: bc96 023c 9403 153d 1b99 b0bc 4112 413d
000000d0: 42ea 523d 8911 e8bb fdcb ff3c 0e13 10bd
000000e0: 7bb9 2e3d 11d9 733c 983d 39bc 1941 193d
000000f0: 975b b93c 5d66 6cbc aa8f e1bc 19da f5bc
00000100: ba1f a83c 018f cb3c a572 eebb 2b8c d33c
00000110: af2f 453d d647 d9bc 7251 84bd 7e6c 51bc
00000120: d733 203c a00d 70bd 4ddf f63b 3401 b43d
00000130: fb35 5dbc 39cf 6f3c 69f1 54bc 7418 a6bc
00000140: f354 073d 658b 43bd d331 8d3d dca0 6bbd
00000150: 918e 7a3c 20fd 133d c87e 673c 9ce1 4ebd
00000160: 0658 7fbc 9a92 9ebd 35bf f63a fb9b 423d
00000170: 2c3a 22bc ceda febc 01e4 c43b 3309 92bd
00000180: 0407 bd3d dbd6 303d 52f1 4abd f8ed 8cbd
00000190: cef2 99bd 6432 4f3c ce13 24bd 1009 65bd
000001a0: 385b dc3c 3f1e 363d 9ccf 91bd d1bb 53bd
000001b0: 3cc8 46bb c07b 683d 2428 c43d babc 7d3b
000001c0: 5908 82bc 393d 6fbd 2dff 823d 3e59 d03b
000001d0: 292b 71bc 1ab4 f43a 2d94 dfba 2ed2 503c
000001e0: 27ed 87bc 1312 a23d 2e15 eb3d 465c 453a
000001f0: e8a8 d8bb 1b98 20bd 65ef 0e3d 35bb 28bd
00000200: cdb1 76bc c0b3 413d 16f8 01bc ca6d 543c
00000210: c3fe 493d 7386 2fbc 25b0 373d dffe c5bc
00000220: 541a c73b e9fd c5bd fe00 83bd b903 c73c
00000230: ce3f ffbd 4b07 c4bd 5aea 943b d4f8 e0bd
00000240: 6c02 c73b 4caa b3bc 2015 6a3c 192a a63c
00000250: 5475 1bbd cbae efbd 4bd0 80bc ae4c 153c
00000260: fb2b 50bd f06c d03c 0ded e23c 2fb0 ec3c
00000270: 06e7 0e3d f5f9 043d 6807 b1bc eb38 943b
00000280: b91a 993c 574c a43c 002c a13a 2f42 d83c
00000290: 3518 6abd 100e 7035 fbf0 13bd 55d5 62bd
000002a0: 88b4 fe3d 2867 07bd ed01 1d3d c05e 1dbc
000002b0: 56a0 9ebd e0e1 76bd 0a8c 5c3d 0085 6a3d
000002c0: bfc9 363d c1ce ba3d a87e 90bd d293 c9bd
000002d0: 7cf9 94bc f17e 45bc 4898 173d d44a 493c
000002e0: ac9e 02bb 9148 87bd ead9 1fbd b84b 0c3d
000002f0: 4d9f 96bd c48c 06bd 4970 05bd daf4 543d
00000300: d829 1c3d 3d0a bc3d 11b0 2abd 5aa3 e8bd
00000310: c7a5 bdbc 5a79 bdbd c843 dbbc 833e 41bd
00000320: 8bf2 a73d b6f3 503d 0ae2 c73b b66a 60ba
00000330: fb4d 48bd aaf0 e43c 443c 96bd 2322 c3bc
00000340: ded4 9dbd cdc7 d0bc 7ca7 b5bb a0e1 853c
00000350: fc14 903c 0f48 543d 8f54 3d3d 085c 643c
00000360: eac8 573d 7b89 eebc 98e8 013d 0bc6 8fbd
00000370: 6789 073d 538f bf3c da00 3d3d d006 7ebd
00000380: a134 8b3d 733c da3c ada2 a03d 8d61 9f3c
00000390: 8960 cb3c 7b2f 9abd d167 acbc b19e b6bc
000003a0: e3f4 213b 0aa1 5abd 224b e1ba 138f f93c
000003b0: 9a19 3abd 3e17 efbc 6a7c 543d b120 7c3d
000003c0: 1da3 06bc 4eec 8d3d e10b bfbd 56c1 5b3d
000003d0: c712 443d 42d5 963d c40d 27bc e076 07bb
000003e0: f7f7 f5bc 5233 35bd d5c9 07bd c34c e0bc
000003f0: eb04 913a a8e6 9e3c d015 0c3c 8f58 403d
6.1675833e-06 -0.0074545466 -0.0101301335 -0.0502523 -0.0022822067 0.0053641764 -0.014243375 0.020059062
0.026587933 0.06043809 0.07262258 -0.0014212449 0.046453476 0.06248058 -0.043820746 0.07744846
-0.046369806 0.034165524 -0.06997877 0.0058329003 0.0023220638 0.034059 -0.028055448 0.053925898
-0.0938325 -0.010859097 0.072998606 0.009580545 0.036417246 -0.015538205 -0.044709504 -0.030967815
-0.056645222 -0.060310878 -0.016832799 0.017882088 0.015043683 -0.07087645 0.07449157 0.05797548
0.028722508 -0.0016509914 -0.009550285 -0.0044212476 -0.034628652 0.049486656 0.03246698 0.074300274
0.007970508 0.036380365 -0.021557381 0.04713655 0.051492937 -0.0070821685 0.031225199 -0.035174422
0.042657357 0.014883296 -0.011306189 0.037415598 0.022626681 -0.014428702 -0.027534325 -0.030011224
0.02052294 0.024848463 -0.0072768503 0.025823673 0.048141178 -0.026523512 -0.06460847 -0.012782214
0.009777985 -0.058606744 0.0075339437 0.08789292 -0.0135016395 0.014636808 -0.01299701 -0.020275332
0.03304 -0.04774036 0.06894269 -0.057526454 0.01529278 0.03613007 0.014129348 -0.050508127
-0.015584951 -0.07742806 0.0018825295 0.047512036 -0.009901565 -0.031110194 0.0060086255 -0.07130661
0.09229854 0.043173652 -0.049546547 -0.068813264 -0.075170144 0.012646291 -0.04005795 -0.055916846
0.026898965 0.04446244 -0.071196765 -0.051692788 -0.0030331751 0.056758642 0.09577969 0.0038717226
-0.015873121 -0.058407996 0.06396327 0.0063582947 -0.014719763 0.0018669397 -0.001705771 0.012745423
-0.016592575 0.07913604 0.11478649 0.00075287034 -0.006611932 -0.03920756 0.034896273 -0.04119416
-0.015057039 0.047290564 -0.007932683 0.012965629 0.049315225 -0.010713208 0.04484572 -0.024169384
0.0060761366 -0.0966757 -0.063966736 0.024293767 -0.12463342 -0.095717035 0.0045445384 -0.1098496
0.0060732868 -0.02193179 0.014287263 0.020283746 -0.03795369 -0.11703261 -0.015724322 0.00911252
-0.050823193 0.02544257 0.027700925 0.028892605 0.03488829 0.03246494 -0.021609977 0.0045233867
0.0186895 0.020055933 0.0012296438 0.026398746 -0.057151992 8.942743e-07 -0.03611849 -0.05537923
0.12436777 -0.03305736 0.038331915 -0.00960511 -0.077454254 -0.060274005 0.05384449 0.057255745
0.044625994 0.091214664 -0.07055408 -0.098426476 -0.01818537 -0.012054191 0.03701046 0.012285907
-0.0019931002 -0.06605638 -0.03902618 0.0342519 -0.07354603 -0.03284909 -0.032577787 0.05199132
0.038125843 0.0918164 -0.041671816 -0.11359282 -0.023150338 -0.092516616 -0.026765719 -0.047178756
0.08200558 0.05101367 0.006099944 -0.0008560823 -0.048902493 0.027946789 -0.073357135 -0.023819989
-0.07706617 -0.025485897 -0.0055436473 0.016342938 0.017588131 0.051826533 0.04622322 0.013937958
0.05268184 -0.02911829 0.03171596 -0.070201956 0.03309002 0.023383772 0.04614339 -0.062018216
0.067971475 0.026640153 0.07843528 0.019455696 0.024826305 -0.075285874 -0.021045597 -0.022292467
0.0024712614 -0.053376235 -0.0017188529 0.03046373 -0.04543457 -0.029185887 0.051876463 0.061554614
-0.0082176 0.06929837 -0.093284376 0.053651176 0.04786947 0.073648944 -0.010196153 -0.002067022
-0.030025465 -0.044238396 -0.033151466 -0.027380353 0.0011064088 0.019397095 0.008550122 0.046959456

action_model._continuous_distribution.mu.bias f4 [44]
00000000: 8094 8fbc 1039 56bd bfa1 adbc 6b75 8c3c
00000010: 636e 55bc e508 fd3c 8699 6cbb f33c 12bd
00000020: bb8c 323c 6ea2 c9ba 61ac 12bc 0a6e 513c
00000030: 2782 6fbc 73e1 52bc dad5 e9ba 806c b2bc
00000040: ba32 f33b ec3b d1bc b2e5 1cbd 08ca 8bbc
00000050: 081d ccbc 7ba1 ddbc 2831 1abd 18be 273c
00000060: 5c91 00bd c353 a8bb 53b8 82bd d7b2 4a3c
00000070: 3d28 873c 80e2 08bd 51bd fa3c 2043 c33c
00000080: a813 58bc 1c50 9abc d5ad 433c c418 d63c
00000090: 7d1d e33c 0074 2f3c 0887 563c 3b82 8cbc
000000a0: 15be 0dbc 0359 d43c c636 20bb bf1b 47bc
-0.017526865 -0.052300513 -0.02119529 0.017145833 -0.0130268065 0.03088803 -0.003610225 -0.035702657
0.010897811 -0.0015383491 -0.008952231 0.012782583 -0.014618433 -0.012871134 -0.0017840222 -0.021780252
0.0074218186 -0.025541268 -0.038304992 -0.01706411 -0.024916187 -0.027054539 -0.037644535 0.010238193
-0.031388626 -0.0051369383 -0.06382813 0.01237174 0.01649868 -0.033419132 0.030607851 0.023835719
-0.01318828 -0.018837027 0.0119433 0.026134856 0.027724022 0.010708809 0.013093717 -0.017151942
-0.008651276 0.02592135 -0.002444671 -0.012152611

exp_avg f4 [64, 52]
00000000: 0f43 c636 fbbb 8ab7 0973 19b7 132c 58b7
00000010: 9c8f 9bb7 b37d b5b5 3157 01b7 e92e 9736
00000020: d42f dd36 5aeb 0838 8d28 a437 d872 b537
00000030: b1b6 0838 9b79 bb37 9501 07b6 d76c 93b7
00000040: 4bdb b235 cc02 b137 b2d5 c636 909f 1937
00000050: 9abd d3b6 d9ee 89b5 8919 92b7 e692 99b7
00000060: a497 01b8 49fe 18b8 702c 7537 e9d8 31b7
00000070: 6973 6ab7 2b5e a0b7 c4e7 4c37 a5d3 5fb7
00000080: 5d02 f237 8f7e ce37 59f4 8637 4425 1238
00000090: 1225 2e37 11c5 0338 80a2 0c37 51ad 0438
000000a0: 7a17 c137 94d6 c137 2b4a 0f37 b715 f837
000000b0: 648d 6eb8 0670 ca38 245c ea38 0f76 cfb7
000000c0: a235 cf38 153d 68b9 d763 bd39 441a bdb6
000000d0: 8191 69b6 b790 90b4 1b47 0436 ec0f dd36
000000e0: 5c1d 0fb6 f912 f635 7fe9 d635 a583 4237
000000f0: f650 30b6 aad4 e236 4e8d d136 c3e8 0cb6
00000100: eb01 f836 38b7 0e37 179a 7ab7 7471 8bb6
00000110: cb54 18b7 007f 9c36 4be8 4335 a25c af36
00000120: 0fe0 f5b6 c34a fa35 8a19 88b4 c9df 87b6
00000130: 2718 f8b6 d2ed 19b7 db66 0137 23f1 1a37
00000140: e55d c1b5 61e6 a837 18e5 d9b7 4a39 51b7
00000150: bb38 3736 6918 58b7 80cd 00b7 6fef b336
00000160: e5a0 43b6 04ce 0bb6 1f12 bb36 929d 60b7
00000170: 9ce9 07b7 3c7f c135 a437 9fb6 1699 0a36
00000180: 9aae acb8 3d1c 81b8 fde6 ef36 d728 f638
00000190: 70b3 63b8 fbc1 25b8 74ea 86b9 c406 10b7
000001a0: c066 0b37 6795 deb7 e90a 84b6 612e 0737
000001b0: ffc2 c236 a330 0237 222d cbb6 80f4 de37
000001c0: 95e3 2637 c869 4e38 5804 d137 eba7 1ab5
000001d0: e715 d237 1a9b b9b7 f6ed 77b7 7b0d ebb7
000001e0: 08d2 9037 e2b8 f437 1db7 b035 8955 ec37
000001f0: cfb0 4538 45dc ce36 d88d cf37 4d05 5034
00000200: ce3f cc36 0bda 2d37 ee0b 0f38 4786 f136
00000210: 03b7 1138 8632 b936 fe26 88b5 e26d dab6
00000220: 3435 c836 9109 1e38 b734 7635 b6cd 2038
00000230: 0b70 ab36 8266 8c36 9271 5138 9b71 0238
00000240: a50a a836 f5a6 91b6 5141 12b8 f3bd 08b7
00000250: d022 1639 e36c c137 befc ad36 d1fa 8ab9
00000260: cde6 bbb7 5a40 a637 5dc2 0937 a519 b238
00000270: 496d 00b8 85bf 1eb7 bee8 bc37 4e84 7637
00000280: 5c75 05b8 7763 64b8 529e 86b8 7e74 d0b7
00000290: 0ec2 4d37 7151 28b8 e997 57b8 66aa 6bb8
000002a0: 3bee 32b8 6195 09b8 11fa e8b7 8553 37b7
000002b0: 98f1 6cb8 eb41 c8b6 29b2 0d35 5918 d0b7
000002c0: 3f04 f7b7 e056 60b7 4cef 54b8 2fc1 0d38
000002d0: dc68 82b8 b6a8 77b8 4831 f9b7 0793 15b8
000002e0: c887 f9b6 6319 3f38 3bb6 72b7 f709 1635
000002f0: 116a fbb7 a22c a0b7 e802 8fb7 4ca7 33b8
00000300: e7e7 16b7 f538 8537 fe13 cf36 5e42 c1b8
00000310: 6e53 4637 1df0 01b7 6abb 6b38 81f8 43b8
00000320: a99b 8838 34d8 81b9 11e3 9b39 1633 a838
00000330: 2330 5bb9 a7f9 a2b9 1c47 7cba 1e6d 26b8
00000340: 186f d634 943d f235 cd74 deb5 1574 f1b5
00000350: b68f 74b5 fe7a fdb4 5b0b b6b4 38e0 28b6
00000360: 26d3 05b6 4b83 0935 8c6c 06b6 e944 c035
00000370: 126f 86b5 c528 6bb6 f064 d334 1c2d 80b5
00000380: 53c2 16b6 ef05 00b7 f8a8 f6b3 67af 73b7
00000390: 313b bd35 709f dfb4 9dae c834 0fab e4b4
000003a0: 4419 1836 b64d 3db6 59b2 fcb6 0c31 a136
000003b0: bf85 49b6 5b57 80b6 b63a 4535 a277 ebb5
000003c0: e452 ffb4 2abb 8736 3d17 b3b6 ccc6 08b5
000003d0: a547 b2b2 913a 09b6 ec16 6eb6 0967 62b6
000003e0: 86e8 1c35 9d0a 2f36 796d 0b35 5c74 c434
000003f0: b907 20b7 9ff0 2eb7 46bb 4536 4421 a337
5.9086665e-06 -1.6538417e-05 -9.146294e-06 -1.2884865e-05 -1.8544313e-05 -1.3522134e-06 -7.7093e-06 4.5056117e-06
6.591881e-06 3.2644115e-05 1.9569206e-05 2.163036e-05 3.259507e-05 2.2348764e-05 -2.0117488e-06 -1.7574448e-05
1.3325856e-06 2.1101347e-05 5.9257372e-06 9.156662e-06 -6.3103626e-06 -1.0276809e-06 -1.7416447e-05 -1.8307426e-05
-3.0897223e-05 -3.6476446e-05 1.4613484e-05 -1.06005255e-05 -1.3974358e-05 -1.9117337e-05 1.221331e-05 -1.3341113e-05
2.8849749e-05 2.4616047e-05 1.6087828e-05 3.484382e-05 1.0379839e-05 3.1416366e-05 8.382485e-06 3.1632666e-05
2.3018325e-05 2.3107314e-05 8.540733e-06 2.9574016e-05 -5.6875302e-05 9.6529766e-05 0.00011175152 -2.4731298e-05
9.880519e-05 -0.00022147999 0.00036123276 -5.6356967e-06 -3.48044e-06 -2.6927384e-07 1.9710922e-06 6.588167e-06
-2.132575e-06 1.833395e-06 1.6012199e-06 1.1593952e-05 -2.627317e-06 6.760082e-06 6.2451354e-06 -2.099711e-06
7.3911992e-06 8.5065185e-06 -1.4937038e-05 -4.1557305e-06 -9.079648e-06 4.663947e-06 7.298119e-07 5.2261903e-06
-7.327653e-06 1.864821e-06 -2.5350556e-07 -4.0493655e-06 -7.3937877e-06 -9.1748825e-06 7.712947e-06 9.235259e-06
-1.4406947e-06 2.013444e-05 -2.5975096e-05 -1.2470709e-05 2.7302146e-06 -1.2880287e-05 -7.677241e-06 5.3624894e-06
-2.9150917e-06 -2.083253e-06 5.575144e-06 -1.3388128e-05 -8.1010185e-06 1.4416651e-06 -4.7450467e-06 2.065271e-06
-8.234121e-05 -6.156459e-05 7.1496456e-06 0.00011737801 -5.428813e-05 -3.9519724e-05 -0.00025733153 -8.584644e-06
8.308969e-06 -2.6534033e-05 -3.9351767e-06 8.0574255e-06 5.804351e-06 7.759928e-06 -6.0551256e-06 2.6578316e-05
9.947359e-06 4.9212744e-05 2.4916764e-05 -5.7613823e-07 2.504415e-05 -2.2125943e-05 -1.4777752e-05 -2.802046e-05
1.7263941e-05 2.917316e-05 1.3166315e-06 2.8173223e-05 4.7133126e-05 6.164921e-06 2.4742374e-05 1.9373438e-07
6.0871016e-06 1.0362371e-05 3.4104967e-05 7.1979916e-06 3.4741137e-05 5.5193113e-06 -1.0144138e-06 -6.5096983e-06
5.966658e-06 3.7679045e-05 9.171885e-07 3.8338556e-05 5.1092406e-06 4.1842586e-06 4.9935254e-05 3.110022e-05
5.0080293e-06 -4.340773e-06 -3.4869943e-05 -8.150458e-06 0.00014318083 2.3058097e-05 5.185225e-06 -0.00026508284
-2.2399612e-05 1.9818708e-05 8.21109e-06 8.492478e-05 -3.0619358e-05 -9.4621255e-06 2.2519725e-05 1.4693547e-05
-3.181897e-05 -5.445207e-05 -6.4191074e-05 -2.4849778e-05 1.2264134e-05 -4.013017e-05 -5.1401472e-05 -5.6187062e-05
-4.2660376e-05 -3.2802465e-05 -2.7773001e-05 -1.0927096e-05 -5.6491786e-05 -5.9681383e-06 5.278585e-07 -2.480687e-05
-2.9446672e-05 -1.3371668e-05 -5.07676e-05 3.3796936e-05 -6.218415e-05 -5.9046513e-05 -2.9706061e-05 -3.5661298e-05
-7.4365853e-06 4.5561592e-05 -1.4466753e-05 5.5893855e-07 -2.9970923e-05 -1.909427e-05 -1.7048282e-05 -4.2832733e-05
-8.994691e-06 1.5881358e-05 6.171408e-06 -9.215319e-05 1.1821145e-05 -7.744905e-06 5.620291e-05 -4.672306e-05
6.513979e-05 -0.0002476588 0.00029733081 8.02038e-05 -0.000209034 -0.00031085053 -0.0009623633 -3.9679107e-05
3.9941438e-07 1.8048327e-06 -1.6574282e-06 -1.7989684e-06 -9.110621e-07 -4.721441e-07 -3.3908404e-07 -2.5164463e-06
-1.994145e-06 5.1227534e-07 -2.0030739e-06 1.432517e-06 -1.0016104e-06 -3.504146e-06 3.9375254e-07 -9.549872e-07
-2.2464853e-06 -7.630776e-06 -1.1486003e-07 -1.4524768e-05 1.4098824e-06 -4.1652993e-07 3.737995e-07 -4.259277e-07
2.2664472e-06 -2.8208428e-06 -7.5309476e-06 4.8038837e-06 -3.0029184e-06 -3.824867e-06 7.3473655e-07 -1.7543682e-06
-4.7557762e-07 4.0451023e-06 -5.337321e-06 -5.0953236e-07 -2.0754507e-08 -2.044868e-06 -3.5478106e-06 -3.3736599e-06
5.8452895e-07 2.608321e-06 5.194084e-07 3.6592508e-07 -9.538541e-06 -1.0427232e-05 2.9464295e-06 1.9446605e-05

exp_avg_sq f4 [64, 52]
00000000: 7256 7e30 355e 8530 5a62 6a30 e713 2331
00000010: 16bd 9830 0865 4631 259a 3d31 fb03 0e30
00000020: b42e 8731 ab36 aa30 ae38 1731 aaad e831
00000030: 8e33 2331 f893 2c30 b2ae 8131 316b c631
00000040: cb07 b730 b6a9 b030 2d68 3d31 e093 2531
00000050: 6724 1c31 d780 5330 b0bb 1c31 b2e4 bb31
00000060: 0e6b f131 dd23 8031 83f5 8631 2a71 9e31
00000070: 4c98 be31 8d1a 1a31 0b50 9731 7eef 8231
00000080: 16a5 0531 829a 0032 1dc8 2031 b6ad f930
00000090: 06e7 9431 5f95 8931 bf6e 3e31 945a 6d32
000000a0: 4094 9231 ee78 c830 bcab a731 af4f 2432
000000b0: b734 cf34 3cb7 6e34 b9ba f034 8d66 bc34
000000c0: bf60 4334 1017 eb34 5ccb 4f36 8a0c 0f33
000000d0: 39db 6c30 a0f9 7030 bfb7 ae30 69a8 d130
000000e0: 1bbb 2c30 27ea bc30 6eda a730 c6dc dd2f
000000f0: 2df9 9b30 562d 7730 0030 a330 31df ba30
00000100: 284b 7f30 9edd f32f a3f4 2530 261e ac30
00000110: 0a6b 9330 76af 2b30 380f 1330 3d59 1f30
00000120: a8b0 cd30 4f8b ed2f c07e c830 3736 4831
00000130: bf26 8231 014c 9130 5660 d030 b33c 1731
00000140: cb5f 6931 dc86 1830 75b9 ed30 096c a430
00000150: 22f8 4c30 ba69 3d31 2eb6 9c30 f00e 8030
00000160: 1251 a130 14f4 9e30 c71f a330 4b6e 8d31
00000170: d8a1 b530 5530 4630 7f5f 8330 e9fa 1031
00000180: 6189 f333 0888 8e33 d74e ce33 84c0 0234
00000190: 086d 5533 779e e933 9a0e 5b35 2ee5 c832
000001a0: 58b8 4832 1750 f431 667c 8032 d9cb 8232
000001b0: 6c42 a632 2045 9c32 f5f6 9832 7241 0032
000001c0: 5421 be32 cf15 3932 e1c2 b332 0547 2733
000001d0: 7d37 0e33 1219 8c32 49d5 3432 65c7 8f32
000001e0: 7e46 8032 ff51 4832 251f 8a32 b879 b532
000001f0: 63ad b032 15e4 1632 7e6d 2932 4cd5 a332
00000200: 2bf8 0933 e81a 8a32 df28 de32 1fed d732
00000210: f76a 2433 4a7c 7732 b76c 9e32 5fa2 a532
00000220: 5a00 6732 4be8 ad32 43d7 5a32 b1f1 7d32
00000230: cac2 6332 6cc5 b232 9326 e232 e6f0 2333
00000240: 1110 c032 6062 3d32 35d4 a532 dacc d732
00000250: ac36 a435 790d 3c35 4b83 8835 57f8 9135
00000260: 1c35 0a35 4df1 9835 21af 0e37 7715 a333
00000270: f06b 9f32 08ed 2532 5c91 9932 1044 a632
00000280: 7ea3 a232 5ac4 c632 7898 9532 2686 1332
00000290: af1f a832 bb72 4932 ffc0 e032 238e 0a33
000002a0: dcc7 0833 628a 6e32 ac99 2032 0f41 9132
000002b0: f806 9a32 ec44 6632 ec01 7632 b809 9732
000002c0: 6494 b632 c8d6 0632 0838 3032 fda0 ea32
000002d0: 9e40 ef32 4902 b832 6af0 d232 de50 dc32
000002e0: 6aa3 3533 8fb7 ab32 da29 9332 3406 aa32
000002f0: 694e 6332 bedb c832 4c93 7032 6c37 b732
00000300: 71f1 5b32 4908 a432 8d0b e532 fd8d 2f33
00000310: dac9 a232 82ad 6732 d292 9532 b545 cb32
00000320: b98b 9435 0a3b 4335 8900 8d35 8a5d 9d35
00000330: 8380 1135 a93b 9835 2099 1537 4083 9833
00000340: df92 8e2d 5966 fd2c 9226 2b2d 3933 c82d
00000350: 34ae 562f 3653 042e 5a3e 412f ecc5 102e
00000360: b76f 852d 2721 332d 680f a22e 4d2b 082f
00000370: eb9e c52e c908 542e fc63 772d ef5b 822d
00000380: 31d8 362e 5090 d02e 6ca3 392f 99c9 542f
00000390: 219d e32e 9ecf ef2d 8024 782d 7eaf 862d
000003a0: 0560 402e c251 7f2e bd5f 542f ade8 b12e
000003b0: 573f aa2e 7e66 e42d 2024 462d d1c7 ab2d
000003c0: 8531 302e 7c34 5e2e 0f61 1d2e 5522 632e
000003d0: a6c7 ab2d 56b3 092e d136 132e 91e3 6d2e
000003e0: df87 d42d 372b 3f2e bdf6 622d dcb9 992e
000003f0: 225f 8232 7aad d331 17b5 a932 98ea c431
9.252751e-10 9.703799e-10 8.526847e-10 2.3730935e-09 1.1113197e-09 2.8870222e-09 2.759074e-09 5.1664956e-10
3.9343266e-09 1.2384666e-09 2.200561e-09 6.771832e-09 2.3748927e-09 6.278351e-10 3.7742547e-09 5.7747447e-09
1.3317217e-09 1.285392e-09 2.7562337e-09 2.4094717e-09 2.272168e-09 7.6944445e-10 2.2807676e-09 5.468416e-09
7.026194e-09 3.7293675e-09 3.9278247e-09 4.6112705e-09 5.547042e-09 2.2425042e-09 4.4037782e-09 3.810725e-09
1.9447888e-09 7.485712e-09 2.3396816e-09 1.8166506e-09 4.3336312e-09 4.0042063e-09 2.771159e-09 1.3815811e-08
4.2660133e-09 1.4586286e-09 4.8798636e-09 9.564174e-09 3.859511e-07 2.2232138e-07 4.4839342e-07 3.5092344e-07
1.8195986e-07 4.378894e-07 3.0963774e-06 3.3306186e-08 8.6167834e-10 8.766623e-10 1.271239e-09 1.5254616e-09
6.283913e-10 1.374535e-09 1.2212931e-09 4.0356535e-10 1.1348554e-09 8.9922503e-10 1.1873453e-09 1.3596716e-09
9.2875263e-10 4.435891e-10 6.03743e-10 1.2523216e-09 1.072608e-09 6.245878e-10 5.3499916e-10 5.797068e-10
1.4965922e-09 4.3209034e-10 1.458794e-09 2.9134648e-09 3.787903e-09 1.057174e-09 1.5161372e-09 2.2007896e-09
3.3960414e-09 5.5488925e-10 1.729673e-09 1.1963276e-09 7.4567386e-10 2.7563218e-09 1.1402272e-09 9.317471e-10
1.1737333e-09 1.1565384e-09 1.1868843e-09 4.116179e-09 1.3215482e-09 7.2100664e-10 9.558646e-10 2.1097384e-09
1.13405584e-07 6.637134e-08 9.6069634e-08 1.217723e-07 4.969209e-08 1.08787326e-07 8.1605106e-07 2.3387283e-08
1.1683447e-08 7.11044e-09 1.4957731e-08 1.5226691e-08 1.9355149e-08 1.8192225e-08 1.7807432e-08 7.465461e-09
2.2134067e-08 1.0773376e-08 2.0926963e-08 3.894731e-08 3.3112418e-08 1.6309546e-08 1.0525874e-08 1.6738065e-08
1.4933217e-08 1.1660176e-08 1.6079477e-08 2.1126525e-08 2.0567944e-08 8.783009e-09 9.86199e-09 1.9072694e-08
3.2123506e-08 1.607755e-08 2.5862787e-08 2.5137124e-08 3.828151e-08 1.4405552e-08 1.8443059e-08 1.9282366e-08
1.344605e-08 2.0245485e-08 1.2738215e-08 1.47814925e-08 1.3257429e-08 2.0811704e-08 2.6327404e-08 3.817049e-08
2.2359048e-08 1.1023616e-08 1.9305029e-08 2.512245e-08 1.2234864e-06 7.0055063e-07 1.0171001e-06 1.0875618e-06
5.148629e-07 1.139511e-06 8.504635e-06 7.5941834e-08 1.855912e-08 9.658159e-09 1.7877646e-08 1.9355895e-08
1.893363e-08 2.3139524e-08 1.7415218e-08 8.587028e-09 1.9572182e-08 1.17258265e-08 2.6164797e-08 3.22599e-08
3.184674e-08 1.3884888e-08 9.348167e-09 1.6909807e-08 1.7931129e-08 1.3403433e-08 1.4319522e-08 1.7583133e-08
2.1255069e-08 7.848662e-09 1.0257288e-08 2.7314394e-08 2.7852646e-08 2.1421458e-08 2.4556545e-08 2.5648145e-08
4.229097e-08 1.9990493e-08 1.7132084e-08 1.9793426e-08 1.3230967e-08 2.3382992e-08 1.400333e-08 2.1329207e-08
1.2802375e-08 1.909588e-08 2.6664361e-08 4.08745e-08 1.8951074e-08 1.3485421e-08 1.7412649e-08 2.366401e-08
1.1067524e-06 7.2729074e-07 1.0505474e-06 1.1724635e-06 5.420372e-07 1.1342246e-06 8.916744e-06 7.101926e-08
1.6208755e-11 7.2020554e-12 9.728789e-12 2.2760115e-11 1.9525076e-10 3.008723e-11 1.75754e-10 3.29176e-11
1.516996e-11 1.0182333e-11 7.369644e-11 1.2384511e-10 8.986752e-11 4.8211022e-11 1.40625254e-11 1.4820116e-11
4.1574025e-11 9.48438e-11 1.6883711e-10 1.935291e-10 1.03506766e-10 2.7263355e-11 1.41052725e-11 1.531197e-11
4.3741028e-11 5.8052903e-11 1.9315301e-10 8.0903596e-11 7.7419564e-11 2.5966115e-11 1.1263018e-11 1.9529186e-11
4.006175e-11 5.052357e-11 3.5783872e-11 5.1644317e-11 1.9529111e-11 3.1309476e-11 3.3472617e-11 5.408968e-11
2.4161948e-11 4.3466755e-11 1.29014e-11 6.99065e-11 1.5177253e-08 6.1606302e-09 1.975654e-08 5.731021e-09

exp_avg f4 [64]
00000000: ae07 7637 1130 12b7 6a73 91b6 17c7 0fb8
00000010: 800b 4eb5 48cc 61b7 97b2 54b5 6ccb 97b7
00000020: bb82 0e38 af76 d536 93f3 0e38 eb44 47b6
00000030: 6c38 8bb8 579f 8db7 c217 9e37 9963 b537
00000040: 1c37 e1b6 8c61 5db8 4733 fc37 ef04 3238
00000050: c48a 2737 5ed4 45b6 6ec4 4c35 f364 d436
00000060: ee9d 3ab7 2168 8fb7 63ed 78b7 593e 83b6
00000070: 535a 85b7 96e1 0238 84c7 ed37 8dca 96b7
00000080: 326d 8936 63d3 bc37 fed9 1c38 33d9 1cb6
00000090: 84eb 2d36 61c7 8637 f8de 3837 bb68 90b7
000000a0: 22d6 5138 ccfa 26b5 02d2 bfb6 4fe2 deb6
000000b0: 1cd4 a737 1051 2636 ec07 1c38 b3b3 d335
000000c0: 8791 86b7 23a4 ea36 8b6d b1b6 4166 c536
000000d0: bca1 beb5 b282 cfb7 394c db37 a2bf 64b7
000000e0: 022e 9236 211b 05b7 22a9 f1b7 5b28 ef36
000000f0: 94bc b637 3e61 4935 95ca 8637 19a8 1b38
1.4664531e-05 -8.7134695e-06 -4.3347727e-06 -3.4279274e-05 -7.6757715e-07 -1.3458608e-05 -7.9236037e-07 -1.8095328e-05
3.397719e-05 6.3617113e-06 3.4082284e-05 -2.9693426e-06 -6.638546e-05 -1.6882708e-05 1.884613e-05 2.162326e-05
-6.711938e-06 -5.2781354e-05 3.0064619e-05 4.2443102e-05 9.986285e-06 -2.9478902e-06 7.6281765e-07 6.3298444e-06
-1.1123235e-05 -1.7095417e-05 -1.4837223e-05 -3.9113625e-06 -1.5896896e-05 3.120451e-05 2.8345508e-05 -1.7975713e-05
4.09563e-06 2.2509781e-05 3.739632e-05 -2.3372238e-06 2.5916097e-06 1.6066888e-05 1.1019169e-05 -1.7214907e-05
5.002891e-05 -6.2204776e-07 -5.7166917e-06 -6.6424614e-06 2.0006722e-05 2.4783112e-06 3.7200676e-05 1.5773024e-06
-1.6041811e-05 6.9928515e-06 -5.2877635e-06 5.8829614e-06 -1.4203174e-06 -2.4737183e-05 2.6142328e-05 -1.3634477e-05
4.356495e-06 -7.933734e-06 -2.8808197e-05 7.127453e-06 2.1783904e-05 7.501984e-07 1.606838e-05 3.7111433e-05

exp_avg_sq f4 [64]
00000000: f55c 9431 4445 a130 045a 5132 f1f0 5c32
00000010: e809 182f f754 9631 9af7 6731 ce43 2032
00000020: 2632 5432 7f30 d930 e399 0632 b408 1732
00000030: 00ef 2532 6f76 c031 4484 b432 c6ec 1532
00000040: 2dd2 aa31 be83 2b32 a058 4032 4d4d 0b33
00000050: d946 bd31 7877 9832 455d af32 5f6e ee30
00000060: b2da 9830 0e84 9a31 9e88 3132 8179 f030
00000070: 8900 5432 4206 fe31 5a9a 2f32 6c62 d831
00000080: 8c0d bf31 e59f c632 d677 6e32 fe32 a32e
00000090: d9b9 0032 861d e531 4ca2 ef31 a6a4 1b32
000000a0: 0695 5632 8f4b 0a2e ffd5 e431 7885 0d31
000000b0: 7bed 8031 5500 9931 63db 6b32 29eb ef31
000000c0: 4703 d930 9a9e b131 44c6 a632 1fd3 2e31
000000d0: 287f 9731 4db0 8d32 0e05 4032 55a8 7e31
000000e0: 5393 1232 337e 2e30 ecbf 1d32 99e1 6532
000000f0: 74bd 3432 34aa 0b32 36b9 ca30 ce0c 0632
4.317935e-09 1.1733978e-09 1.2185868e-08 1.2860469e-08 1.3827839e-10 4.375234e-09 3.375567e-09 9.328643e-09
1.23514265e-08 1.5802611e-09 7.834816e-09 8.791336e-09 9.658606e-09 5.6014e-09 2.1014905e-08 8.7267775e-09
4.9715454e-09 9.983465e-09 1.1196022e-08 3.2433764e-08 5.5086784e-09 1.7749457e-08 2.0415095e-08 1.7348148e-09
1.1121613e-09 4.4970028e-09 1.0333819e-08 1.7496832e-09 1.2340146e-08 7.3930844e-09 1.0221436e-08 6.2976167e-09
5.5603717e-09 2.3122945e-08 1.3880671e-08 7.42144e-11 7.4928375e-09 6.6681336e-09 6.9742665e-09 9.059624e-09
1.2490323e-08 3.1444677e-11 6.660002e-09 2.0594069e-09 3.7522887e-09 4.452924e-09 1.3728683e-08 6.98255e-09
1.578976e-09 5.169409e-09 1.9415104e-08 2.544034e-09 4.4091344e-09 1.6494733e-08 1.117702e-08 3.705755e-09
8.531816e-09 6.348017e-10 9.182241e-09 1.3380849e-08 1.0520456e-08 8.129565e-09 1.4750074e-09 7.802738e-09
