results/076/Dynamic Table/Dynamic Table-10000025.pt (torch, 408470 bytes, 48 tensors)

network_body._body_endoder.seq_layers.0.weight f4 [64, 95]
-0.14231244 -0.007290399 0.08978171 0.10957013 0.039042987 -0.06106091 0.037306532 -0.08782113
-0.21504544 -0.23105283 0.15223776 -0.11776783 0.31420466 0.10808579 -0.3222098 0.024056235
0.14178176 -0.2753559 -0.027154295 -0.14709975 -0.08875834 0.28943983 -0.1277056 -0.079194926
-0.1068634 0.062541306 -0.1975145 -0.028296694 -0.044032674 0.024986375 -0.12912333 -0.18118721
-0.06496837 -0.06632853 -0.06505949 0.009035385 0.021567237 -0.009100498 -0.164663 -0.07859287
-0.15143435 -0.2008275 -0.08211013 0.106690824 0.17879805 0.014383156 -0.056215223 -0.2763355
-0.03063492 -0.36257398 -0.07843188 0.13733092 -0.073469974 -0.14448297 0.15996753 0.15508269
0.0778802 -0.13255835 0.026935577 0.024763484 0.22119239 0.020457787 0.33362055 -0.16806577
-0.08671023 -0.006813961 0.046150047 -0.09132754 -0.122149155 -0.098134995 -0.09802209 0.15059596
-0.11923126 -0.08215074 0.10902121 -0.12945224 0.15427224 0.22720928 -0.20817259 -0.14676519
0.07110735 -0.116737984 0.013566095 0.00046177156 0.019949298 0.18380332 -0.23625755 0.21112007
0.04928587 -0.15297717 -0.15645659 0.14531644 -0.091986984 -0.029953634 -0.14777103 0.02444324
-0.14749709 0.0662114 0.15627177 0.15521747 0.11999982 0.08015139 0.033709336 0.07791097
-0.17464228 0.002765377 -0.06518401 0.24492233 -0.018141747 -0.13297851 0.095051125 -0.06673588
-0.20468888 0.09259357 0.028180704 -0.09737346 -0.019930152 0.07920399 0.06727679 0.07606695
0.26970756 0.15202853 0.21041097 0.0046125376 -0.12398093 -0.036538918 -0.00086573174 -0.24495053
-0.021827217 -0.033822745 -0.065606296 -0.010840444 -0.33093005 -5.9323634e-07 -0.041571736 0.02272017
-0.35000318 -0.11089879 0.038129684 -0.03015394 0.33522147 0.20837933 -0.078185186 -0.15524888
0.0016072495 0.09736453 0.09154288 -0.07718402 -0.4236036 -0.12346526 -0.28871563 0.029148554
-0.084153414 -0.008536612 -0.111333854 0.21333899 -0.20930384 0.09800532 0.054331996 0.03613559
0.14271192 0.1566616 -0.15172255 0.06756163 0.015520878 0.03403174 0.032664347 0.1678297
-0.05940286 0.09893227 0.04015092 0.14506252 -0.055003505 0.17663485 -0.007251829 0.16983704
0.0027588932 0.04564174 -0.025792373 -0.04573341 -0.2148589 0.05356369 0.057002485 0.111132
-0.045476567 0.088347465 0.059368577 -0.100388065 0.026876818 -0.027220491 -0.0895382 -0.12346317
-0.054499738 0.14821169 0.23367745 -0.058591023 -0.48732436 -0.09063281 0.16419117 0.07919904
-0.101553306 0.011635555 -0.16087459 -0.05310702 -0.087355986 0.02233622 0.011920488 0.0006591396
-0.27841252 -0.024522334 -0.26969254 -0.021193938 0.046306767 -0.046019483 0.0019167655 -0.14368224
-0.38594112 -0.059297096 -0.09663008 -0.03360589 -0.10147937 0.06798022 0.19988123 -0.21597043
-0.15839596 -0.37931073 -0.079093285 -0.14394028 0.07432422 0.047630757 0.18511511 -0.5111317
0.07785523 -0.006685128 -0.03092061 0.035341844 0.103952594 0.116294794 0.09378093 0.011961207
0.032792866 0.048725385 -0.22807692 -0.17622136 -0.3825004 -0.27912307 0.01932806 -0.020035587
-0.07407335 0.110545404 0.096140005 0.032528058 -0.040696204 0.080856234 -0.2627564 -0.03114546
00000000: 5aba 11be 4de4 eebb 79df b73d 4e66 e03d
00000010: 8aeb 1f3d 011b 7abd bcce 183d 91db b3bd
00000020: df34 5cbe 1d99 6cbe 37e4 1b3e 4330 f1bd
00000030: 6fdf a03e 155c dd3d aff8 a4be 9511 c53c
00000040: 3d2f 113e 73fb 8cbe af72 debc 51a1 16be
00000050: efc6 b5bd 7531 943e 42c5 02be f330 a2bd
00000060: 33db dabd a815 803d 3e41 4abe 78ce e7bc
00000070: 9b5b 34bd 3ab0 cc3c e838 04be 2489 39be
00000080: 230e 85bd 41d7 87bd e93d 85bd 2709 143c
00000090: c6ad b03c 411a 15bc 6b9d 28be 4cf5 a0bd
000000a0: 9b11 1bbe b9a5 4dbe 5b29 a8bd b880 da3d
000000b0: d616 373e 54a7 6b3c ef41 66bd d97b 8dbe
000000c0: 15f6 fabc 4ca3 b9be e5a0 a0bd 7aa0 0c3e
000000d0: 6d77 96bd 58f3 13be 87ce 233e ffcd 1e3e
000000e0: a87f 9f3d 60bd 07be 00a8 dc3c cadc ca3c
000000f0: 4280 623e 1797 a73c 50d0 aa3e 6f19 2cbe
00000100: 2295 b1bd a647 dfbb d507 3d3d ef09 bbbd
00000110: 5629 fabd 00fb c8bd cebf c8bd d435 1a3e
00000120: 852f f4bd a63e a8bd 8346 df3d 218f 04be
00000130: 8bf9 1d3e 8da9 683e 322b 55be 9d49 16be
00000140: bba0 913d 5314 efbd 5444 5e3c ee19 f239
00000150: b66c a33c f036 3c3e 80ed 71be dc2f 583e
00000160: fbdf 493d 0ca6 1cbe 2836 20be d5cd 143e
00000170: ac63 bcbd 5361 f5bc 4a51 17be 313d c83c
00000180: 7a09 17be d899 873d b505 203e 54f1 1e3e
00000190: 77c2 f53d 6926 a43d cd12 0a3d c98f 9f3d
000001a0: 6dd5 32be 543b 353b 327f 85bd ebcc 7a3e
000001b0: 009e 94bc 852b 08be 2aaa c23d d2ac 88bd
000001c0: f699 51be b3a1 bd3d 38db e63c bd6b c7bd
000001d0: 8f44 a3bc b435 a23d 6ac8 893d fdc8 9b3d
000001e0: 1c17 8a3e 5ead 1b3e f975 573e c524 973b
000001f0: b7e9 fdbd d5a9 15bd 46f2 62ba 50d4 7abe
00000200: fece b2bc b889 0abd 985c 86bd 1e9c 31bc
00000210: aa6f a9be e43e 1fb5 2047 2abd a61f ba3c
00000220: 9e33 b3be e81e e3bd df2d 1c3d 6505 f7bc
00000230: 26a2 ab3e 6461 553e 8e1f a0bd 90f9 1ebe
00000240: 58aa d23a 0e67 c73d d57a bb3d a812 9ebd
00000250: 92e2 d8be 5bdb fcbd 89d2 93be f3c8 ee3c
00000260: a058 acbd 25dd 0bbc 0103 e4bd 8975 5a3e
00000270: bf53 56be 03b7 c83d 3a8b 5e3d ea02 143d
00000280: 1323 123e e66b 203e 285d 1bbe c05d 8a3d
00000290: 484b 7e3c de64 0b3d 0dcb 053d 8ddb 2b3e
000002a0: 6a50 73bd 019d ca3d 4b75 243d 458b 143e
000002b0: 5b4b 61bd c4df 343e c0a0 edbb c3e9 2d3e
000002c0: 8cce 343b d5f2 3a3d 874a d3bc f552 3bbd
000002d0: f903 5cbe 9a65 5b3d 707b 693d 2d99 e33d
000002e0: a345 3abd 84ef b43d 772c 733d 4298 cdbd
000002f0: c62c dc3c 82fd debc ce5f b7bd 42da fcbd
00000300: 1e3b 5fbd cec4 173e 2449 6f3e 24fd 6fbd
00000310: 9482 f9be b29d b9bd bb21 283e 1b33 a23d
00000320: 2efb cfbd 0ea3 3e3c 4fbc 24be bf86 59bd
00000330: b2e7 b2bd 73fa b63c 274e 433c 1cca 2c3a
00000340: 168c 8ebe 10e3 c8bc 2415 8abe e99e adbc
00000350: 2aac 3d3d ed7e 3cbd fa3b fb3a 7021 13be
00000360: 139a c5be 83e1 72bd fee5 c5bd 54a6 09bd
00000370: 6ad4 cfbd 3739 8b3d aaad 4c3e 5a27 5dbe
00000380: 8d32 22be 0435 c2be a9fb a1bd 1565 13be
00000390: 4c37 983d 7818 433d d18e 3d3e 87d9 02bf
000003a0: 9072 9f3d eb0e dbbb 384d fdbc 9cc2 103d
000003b0: 19e5 d43d f72b ee3d 3710 c03d f0f8 433c
000003c0: d051 063d 4594 473d ff8c 69be 5f73 34be
000003d0: 18d7 c3be 38e9 8ebe e155 9e3c ac21 a4bc
000003e0: c5b3 97bd a165 e23d 0de5 c43d 243c 053d
000003f0: 10b1 26bd f497 a53d 0288 86be c424 ffbc

network_body._body_endoder.seq_layers.0.bias f4 [64]
0.005086308 0.03816874 -0.008407184 -0.0056649903 0.020182481 -0.021205563 -0.0008208289 0.01883605
-0.03070249 -0.037043195 0.0387983 -0.033836763 -0.015867589 0.0026576396 -0.034362033 0.010066863
0.016345702 -0.00704425 0.0010911952 -0.02020616 0.0050805234 -0.04849732 -0.043413434 0.0005160356
-0.014861502 -0.020681828 -0.04541593 0.018269565 0.032277882 -0.03209676 0.018872133 0.062177096
0.028836994 0.003016936 -0.004405756 -0.01964186 -0.02762699 -0.041243613 0.01661881 -0.0024542047
0.022598613 -0.042468287 0.0109716775 -0.008123621 -0.02525741 -0.05631043 0.013401725 -0.02771509
0.025750684 -0.016167985 -0.052723095 -0.039234098 0.0142258955 -0.009248805 -0.08249821 0.041448545
0.003148304 0.0018991209 -0.040744975 0.04299836 -0.055787574 0.062785655 -0.059822746 -0.045889735
00000000: 0bab a63b d356 1c3d 49be 09bc 62a1 b9bb
00000010: bb55 a53c 4ab7 adbc e52c 57ba 0f4e 9a3c
00000020: ca83 fbbc 9bba 17bd f7ea 1e3d 6b98 0abd
00000030: bffc 81bc cb2b 2e3b 34bf 0cbd 7cef 243c
00000040: 6ce7 853c 74d3 e6bb 6f06 8f3a 6487 a5bc
00000050: 857a a63b 20a5 46bd 49d2 31bd 9046 073a
00000060: a87d 73bc f06c a9bc 0e06 3abd 0eaa 953c
00000070: d035 043d e477 03bd bb99 9a3c 69ad 7e3d
00000080: 8f3b ec3c c9b7 453b 295e 90bb f7e7 a0bc
00000090: ff51 e2bc 10ef 28bd 2c24 883c b9d6 20bb
000000a0: ba20 b93c 3af3 2dbd 8dc2 333c f018 05bc
000000b0: a1e8 cebc c4a5 66bd e992 5b3c c20a e3bc
000000c0: 19f3 d23c b972 84bc 2cf4 57bd efb3 20bd
000000d0: bb13 693c 4d88 17bc d2f4 a8bd f3c5 293d
000000e0: c753 4e3b eceb f83a 34e4 26bd 0c1f 303d
000000f0: 8381 64bd c495 803d b208 75bd e0f6 3bbd

network_body._body_endoder.seq_layers.2.weight f4 [64, 64]
-0.11185327 -0.10539487 -0.14959703 -0.019813387 -0.11633327 -0.35782525 -0.09369385 -0.07541461
0.092042156 0.38733366 0.16361512 0.00067378295 -0.30325127 0.067877606 -0.2303008 0.04934276
0.25469303 0.033313673 -0.061266225 -0.21291041 0.06843496 -0.09002428 0.049101815 -0.1685322
0.15404998 -0.11163719 -0.009062083 0.041683912 0.11314618 -0.13117403 -0.027061753 -0.14679858
-0.15006426 0.310327 0.06995625 0.23208678 0.08864952 0.1686429 -0.02715394 0.10866194
-0.1387725 0.15805899 0.09871246 0.09802161 -0.13339128 0.102957636 -0.26755178 -0.15827647
-0.1960649 -0.04395952 0.03471073 -0.067886986 -0.064993896 -0.0012515489 -0.13256386 -0.18457471
-0.057555173 -0.03655712 -0.1277714 0.05013657 0.009761249 0.13528049 -0.13125823 -0.0109426575
0.024253178 -0.15092333 -0.24388589 -0.0649833 -0.06625133 0.13221154 -0.0042970143 0.15808322
0.09407899 -0.061148725 -0.40379488 0.12783484 -0.05321594 -0.022680573 0.10601392 0.08118243
-0.09529487 0.04752144 0.07486948 0.05314519 -0.30511522 -0.015416513 -0.15498707 -0.14620088
0.120563455 0.14357081 0.05983111 -0.117893815 -0.09191954 0.099044755 0.10647086 -0.31494728
0.14817192 -0.189705 0.010623442 -0.093415886 0.13654774 -0.019681944 0.0121312225 -0.0035060837
-0.13943252 -0.27764967 0.30925602 0.18869057 -0.037800066 0.08657155 -0.07908462 -0.025344461
0.08564594 -0.03802811 -0.05511522 0.224067 0.14610414 0.15337837 -0.09434071 0.13252956
0.032040503 -0.0041071502 0.09432922 0.121271454 0.065325305 -0.06961716 0.210768 -0.044607494
0.056143057 -0.22863452 -0.201735 -0.06372381 -0.18132713 -0.5523247 0.22031504 0.12842217
-0.09275933 0.053817116 0.042417686 -0.07775062 0.05064401 -0.36580065 -0.103455395 0.06840511
0.008237667 -0.112088874 -0.017557202 0.019595046 0.054378558 -0.3107636 0.107367925 -0.2353784
0.14755736 -0.054656386 0.1018334 0.094881244 0.39292753 -0.11183726 -0.16946758 -0.06852752
-0.0017384294 -0.07371998 0.061736874 -0.024091713 0.108623385 0.018908668 0.026681876 0.06498585
0.05904687 -0.15759028 0.048455734 0.12508628 0.26361766 -0.10904567 0.32000607 -0.057067394
0.045828972 -0.13958184 -0.088134386 0.22318092 -0.25143585 0.011712145 -0.03087114 0.23959716
0.10214739 -0.093601935 0.03137998 0.1085939 -0.19373266 0.051683687 -0.16007994 -0.0419729
0.25457004 -0.25758675 -0.07323303 0.16137764 -0.2040879 0.16532381 -0.02499333 0.13734415
0.3037721 0.19027838 0.011112073 -0.3041742 -0.17037897 0.050583266 0.0498319 0.032357633
-0.1142439 -0.17572217 0.13670973 -0.27108103 -0.24982315 -0.13530841 -0.0039295307 0.0253713
-0.08501186 0.07222933 0.23744813 0.2032745 -0.04650407 0.053061087 -0.0067502367 0.1730652
0.02898538 0.031897813 0.34022856 -0.0140122315 -0.07765422 0.33594522 -0.13266234 0.10181949
0.14116763 0.30078894 0.10883647 -0.12937519 0.06287444 -0.071750395 0.072365925 -0.015100358
0.07982474 -0.22872642 -0.05065237 -0.0007042515 -0.03558514 -0.058449376 -0.08125551 -0.28717077
-0.013386575 0.2373971 -0.35461965 -0.17603974 0.21082516 0.14720884 -0.08116416 0.1082932
00000000: 5413 e5bd 44d9 d7bd f72f 19be af4f a2bc
00000010: 2340 eebd df34 b7be 90e2 bfbd fa72 9abd
00000020: 9980 bc3d 9950 c63e b98a 273e cfa0 303a
00000030: c043 9bbe 6a03 8b3d f9d3 6bbe a21b 4a3d
00000040: 2067 823e eb73 083d 4bf2 7abd 3005 5abe
00000050: a127 8c3d a65e b8bd fc1e 493d b493 2cbe
00000060: 47bf 1d3e 0aa2 e4bd 2279 14bc c0bc 2a3d
00000070: 2fb9 e73d 7c52 06be 9cb0 ddbc 5e52 16be
00000080: 72aa 19be 2ee3 9e3e 3945 8f3d 28a8 6d3e
00000090: e18d b53d b9b0 2c3e f171 debc 278a de3d
000000a0: 611a 0ebe 37da 213e c229 ca3d 8ebf c83d
000000b0: b997 08be 74db d23d 8cfc 88be 3a13 22be
000000c0: 3dc5 48be e60e 34bd d72c 0e3d 5508 8bbd
000000d0: 851b 85bd 030b a4ba d2be 07be 2701 3dbe
000000e0: f9be 6bbd ebbc 15bd 82d6 02be 015c 4d3d
000000f0: a5ed 1f3c f886 0a3e 8f68 06be d548 33bc
00000100: 9aae c63c a58b 1abe 39bd 79be f715 85bd
00000110: c7ae 87bd 7662 073e f8cd 8cbb 91e0 213e
00000120: 7cac c03d 1677 7abd 34be cebe 23e7 023e
00000130: f5f8 59bd 9ccc b9bc d31d d93d f942 a63d
00000140: f529 c3bd d7a5 423d 2c55 993d c5ae 593d
00000150: 1038 9cbe 8b95 7cbc eeb4 1ebe afb5 15be
00000160: f9e9 f63d 3a04 133e 7711 753d 5072 f1bd
00000170: 5040 bcbd fad7 ca3d 650d da3d c540 a1be
00000180: 61ba 173e 0742 42be f20d 2e3c d450 bfbd
00000190: 2cd3 0b3e 073c a1bc 09c2 463c 53c6 65bb
000001a0: 66c7 0ebe 1928 8ebe ce56 9e3e 1a38 413e
000001b0: 3ed4 1abd 6d4c b13d 1ef7 a1bd 309f cfbc
000001c0: 2367 af3d 5dc3 1bbd 7fc0 61bd d271 653e
000001d0: 539c 153e 380f 1d3e b435 c1bd d4b5 073e
000001e0: e73c 033d 4695 86bb ae2f c13d 2b5d f83d
000001f0: 46c9 853d 7193 8ebd 91d3 573e 59b6 36bd
00000200: 43f6 653d 2b1f 6abe 9f93 4ebe a181 82bd
00000210: d2ad 39be 2765 0dbf 449a 613e 1a81 033e
00000220: 9bf8 bdbd 566f 5c3d 2bbe 2d3d b83b 9fbd
00000230: 1870 4f3d 394a bbbe 6ce0 d3bd fa17 8c3d
00000240: 48f7 063c da8e e5bd 1fd4 8fbc ca85 a03c
00000250: 0dbc 5e3d 681c 9fbe b7e3 db3d 0907 71be
00000260: 4719 173e 60df 5fbd 088e d03d 1951 c23d
00000270: cc2d c93e ef0a e5bd e988 2dbe 2858 8cbd
00000280: 03dc e3ba 80fa 96bd cedf 7c3d fc5b c5bc
00000290: f075 de3d 5ae6 9a3c f393 da3c 4d17 853d
000002a0: 21db 713d 595f 21be 8579 463d 9e16 003e
000002b0: e5f8 863e 5653 dfbd d6d7 a33e 80bf 69bd
000002c0: 29b7 3b3d 8bee 0ebe cd7f b4bd 8a89 643e
000002d0: 33bc 80be 4ce4 3f3c 79e5 fcbc f558 753e
000002e0: a732 d13d 5fb2 bfbd 4b88 003d 7b66 de3d
000002f0: db61 46be 46b2 533d ffeb 23be c7eb 2bbd
00000300: 0157 823e 69e2 83be 33fb 95bd 2e40 253e
00000310: 6bfc 50be a54a 293e d0be ccbc f2a3 0c3e
00000320: 0488 9b3e 56d8 423e 6a0f 363c b9bc 9bbe
00000330: d377 2ebe 6630 4f3d 891c 4c3d 7089 043d
00000340: b5f8 e9bd 83f0 33be a3fd 0b3e 22cb 8abe
00000350: a4d1 7fbe 4a8e 0abe 4bc3 80bb 79d7 cf3c
00000360: b31a aebd f9ec 933d 9a25 733e 3127 503e
00000370: 0d7b 3ebd 9556 593d 1731 ddbb 0138 313e
00000380: bf72 ed3c 48a7 023d 7032 ae3e 8f93 65bc
00000390: 2d09 9fbd 0301 ac3e a3d8 07be bd86 d03d
000003a0: 3f8e 103e 0201 9a3e a8e5 de3d ee7a 04be
000003b0: 50c4 803d dff1 92bd 9634 943d 7e67 77bc
000003c0: 277b a33d 4237 6abe dc78 4fbd 859d 38ba
000003d0: b9c1 11bd 9d68 6fbd 4a69 a6bd 0c08 93be
000003e0: 5d53 5bbc 3a18 733e b590 b5be c343 34be
000003f0: 8de2 573e eabd 163e 6539 a6bd d3c8 dd3d

network_body._body_endoder.seq_layers.2.bias f4 [64]
-0.019013902 0.036421236 0.048949808 0.017237619 -0.03119941 0.01731004 0.027918084 -0.04072443
0.04051162 -0.04122569 -0.058943603 0.03654522 -0.040625937 0.039857928 0.08046714 0.02504506
-0.06611039 0.0114436615 0.04778044 -0.042007748 0.022509377 0.037069663 -0.013138578 -0.0040475894
-0.019061398 -0.011980115 -0.028966887 -0.015103898 -0.047715012 0.028001409 0.0066251415 0.0039323503
0.05264985 -0.022025775 0.06890483 -0.02212519 -0.06490748 0.0018095021 -0.008305226 -0.01782807
-0.019167235 -0.07378535 0.05293809 0.038046025 0.061606687 0.030572489 0.06018071 0.048899665
0.018371662 0.0623413 -0.009452569 0.051444385 0.0050979313 -0.011191392 -0.025449986 0.04036068
0.005215091 0.04540225 -0.08831572 -0.06669469 0.006909117 0.009040684 0.013093432 0.005878088
00000000: 0bc3 9bbc 6f2e 153d 987f 483d e835 8d3c
00000010: e895 ffbc c9cd 8d3c 77b4 e43c a9ce 26bd
00000020: 83ef 253d 45dc 28bd d96e 71bd 71b0 153d
00000030: 6267 26bd 1142 233d f5cb a43d 4c2b cd3c
00000040: e264 87bd 327e 3b3c 6cb5 433d 5110 2cbd
00000050: 9665 b83c 5cd6 173d 3143 57bc a4a1 84bb
00000060: a626 9cbc 3f48 44bc f74b edbc 5776 77bc
00000070: d170 43bd 3663 e53c b717 d93b f2da 803b
00000080: 5ea7 573d 666f b4bc fa1d 8d3d e33f b5bc
00000090: 36ee 84bd d12c ed3a a512 08bc 2c0c 92bc
000000a0: 9b04 9dbc c61c 97bd 9cd5 583d 26d6 1b3d
000000b0: 4b57 7c3d 2873 fa3c 0c80 763d 044b 483d
000000c0: 2b80 963c 9759 7f3d f3de 1abc 59b7 523d
000000d0: 8c0c a73b 1a5c 37bc 7d7c d0bc 3e51 253d
000000e0: 5be3 aa3b b6f7 393d dfde b4bd 3a97 88bd
000000f0: e065 e23b 611f 143c d685 563c fa9c c03b

network_body._body_endoder.seq_layers.4.weight f4 [64, 64]
0.12240481 -0.07656475 0.031262733 0.039233193 -0.0037059677 -0.086466126 0.026817886 0.12100922
-0.025433732 0.17650387 -0.092575334 0.04510659 0.13967438 -0.16193771 0.2127806 0.39749837
0.17093164 -0.5515481 0.05313088 0.13063927 -0.06206616 0.08958771 0.2308081 0.18967983
0.06464249 -0.23987336 -0.17300938 -0.17397414 0.12214283 0.07236233 0.15515698 0.13663855
-0.1130771 -0.05338291 0.011390173 -0.046560872 -0.1629163 0.0016451452 -0.024095695 0.352333
-0.01007565 0.13578644 0.054468583 -0.278879 -0.06861726 0.088010505 0.3028008 0.039418396
0.13041511 -0.26902583 -0.1100438 -0.03541708 -0.13650112 -0.07869868 0.16522536 -0.12085539
0.14253366 -0.06901202 -0.14512807 -0.23055999 0.015592095 0.12499153 0.042218555 0.37888354
0.0029628358 0.24570106 -0.016083412 0.15966749 0.1684319 0.017860692 -0.08819409 -0.17979713
-0.08985448 -0.19364317 0.15159798 -0.018838566 0.17432296 -0.1572318 0.0010788189 -0.042895332
0.029230285 0.012385183 0.026373083 0.0027092944 0.2114043 0.07436518 -0.06494983 0.3432459
-0.03463949 -0.024902994 -0.24123628 0.045739748 -0.06687841 0.24925794 0.22998615 0.26329294
-0.03160124 0.046381693 0.02285757 -0.27183628 0.23545322 0.035807177 0.25728402 -0.0988453
-0.03512226 -0.008156314 -0.2167354 0.027006367 0.0132802315 0.09494291 -0.2506651 0.16028406
-0.09266167 -0.14406869 0.0331782 -0.1654083 -0.1347333 0.13545924 -0.23639226 -0.07139783
0.20999677 -0.10881097 -0.02359698 -0.09910131 -0.22859772 -0.117647976 0.07795097 -0.20846792
0.026130203 0.17461859 0.17934652 0.19431585 -0.0942058 -0.22183281 -0.014221585 -0.1453669
-0.047169663 0.14611006 0.09698573 -0.117327295 0.040815856 -0.004540536 -0.16033481 -0.2112404
-0.053962074 0.1507883 0.10449106 -0.12014165 -0.30690402 -0.024619568 -0.25246215 0.13417055
-0.014140267 0.06595718 -0.16042836 -0.12723923 -0.08121805 -0.2743314 0.19957823 0.29295334
-0.16707692 0.120433524 -0.0019231297 -0.055580772 -0.0544555 -0.12334371 0.032971885 0.04989044
-0.27196777 0.019786298 -0.300607 -0.006145936 0.2539099 -0.23358348 0.038120203 -0.22128129
-0.16542712 0.070353575 -0.02834436 0.08949918 -0.0066531263 0.16288476 0.055081226 -0.057372462
0.11019628 0.16255188 -0.05383045 0.16223702 -0.076240085 -0.2669221 -0.14231944 0.06200797
-0.10421406 0.0015924382 -0.040932283 -0.08741586 0.33574578 0.20610353 0.005103643 0.031434078
-0.16079481 -0.17178798 0.06538742 0.19529682 -0.060575042 -0.09711354 0.07161725 0.3021067
-0.0068397103 -0.1787611 0.2286358 -0.03957418 0.018408887 -0.14844352 -0.18178205 0.10411009
-0.6652806 0.17166632 0.27933028 0.20119168 -0.21455607 0.011822951 0.014988113 -0.34277746
0.14108624 -0.34896356 -0.1373793 -0.015286799 -0.1912005 0.1737477 0.27490225 -0.10623409
0.14671446 -0.32529303 -0.14733106 -0.08753396 -0.29372343 -0.08266013 -0.13811785 0.15896715
0.17612156 -0.2842536 -0.292923 -0.09912548 0.0027877758 -0.25321668 0.2200541 0.009936354
0.25842258 0.055884764 -0.2607155 0.014532865 -0.17999548 -0.084347144 0.062856704 -0.042586558
00000000: 5faf fa3d fbcd 9cbd 5a0d 003d fcb2 203d
00000010: d2df 72bb 2715 b1bd 2fb1 db3c afd3 f73d
00000020: 675a d0bc 6ebd 343e 2398 bdbd b0c1 383d
00000030: cd06 0f3e 00d3 25be 28e3 593e e884 cb3e
00000040: b408 2f3e 4232 0dbf c49f 593d 4dc6 053e
00000050: 1639 7ebd c379 b73d f558 6c3e 6e3b 423e
00000060: 4863 843d 5da1 75be 5f29 31be 4726 32be
00000070: 0526 fa3d b432 943d 79e1 1e3e faea 0b3e
00000080: f794 e7bd 0aa8 5abd d99d 3a3c 9db6 3ebd
00000090: 88d3 26be eaa1 d73a 5664 c5bc fe64 b43e
000000a0: 5714 25bc 9a0b 0b3e 731a 5f3d 3ac9 8ebe
000000b0: 3587 8cbd da3e b43d b508 9b3e 2f75 213d
000000c0: 8a8b 053e c1bd 89be a55e e1bd 8011 11bd
000000d0: f3c6 0bbe c62c a1bd d630 293e 0883 f7bd
000000e0: 58f4 113e 2d56 8dbd 749c 14be eb17 6cbe
000000f0: fd75 7f3c 8ffb ff3d 5ded 2c3d 06fd c13e
00000100: 232c 423b 0f99 7b3e 5cc1 83bc e07f 233e
00000110: 6979 2c3e 9650 923c 1a9f b4bd bd1c 38be
00000120: a005 b8bd 654a 46be 803c 1b3e 5653 9abc
00000130: b881 323e 5f01 21be 2867 8d3a 04b3 2fbd
00000140: 5a74 ef3c 39eb 4a3c 5d0c d83c 6b8e 313b
00000150: 5e7a 583e c64c 983d 6b04 85bd edbd af3e
00000160: 23e2 0dbd 5d01 ccbc a506 77be 9a59 3b3d
00000170: 8cf7 88bd 793d 7f3e 7d81 6b3e 55ce 863e
00000180: 4d70 01bd bbfa 3d3d cc3f bb3c 202e 8bbe
00000190: a61a 713e 8caa 123d bbba 833e 686f cabd
000001a0: 5cdc 0fbd 0fa2 05bc e2ef 5dbe 753c dd3c
000001b0: 5495 593c 6e71 c23d 2d57 80be 8121 243e
000001c0: 67c5 bdbd be86 13be dde5 073d cb60 29be
000001d0: 87f7 09be d4b5 0a3e d010 72be 0739 92bd
000001e0: 6509 573e 49d8 debd 744e c1bc a1f5 cabd
000001f0: 8515 6abe 6cf1 f0bd c2a4 9f3d 9d78 55be
00000200: 020f d63c 37cf 323e 9da6 373e bcfa 463e
00000210: f8ee c0bd 2428 63be a701 69bc 10db 14be
00000220: fa34 41bd e09d 153e 74a0 c63d 4b49 f0bd
00000230: 872e 273d c7c8 94bb cf2e 24be 674f 58be
00000240: 5607 5dbd 4068 1a3e 69ff d53d d30c f6bd
00000250: 8622 9dbe faae c9bc b842 81be 0164 093e
00000260: 94ac 67bc 8f14 873d 5547 24be 004b 02be
00000270: a655 a6bd 2a75 8cbe 3c5e 4c3e fbfd 953e
00000280: 3616 2bbe daa5 f63d 8611 fcba aaa8 63bd
00000290: bb0c 5fbd a19b fcbd 870d 073d eb59 4c3d
000002a0: 5c3f 8bbe e016 a23c 29e9 99be d963 c9bb
000002b0: 7a00 823e 8230 6fbe ee23 1c3d 9097 62be
000002c0: ba65 29be 8915 903d 6e32 e8bc 594b b73d
000002d0: 7802 dabb 43cb 263e da9c 613d 63ff 6abd
000002e0: 96ae e13d 0074 263e 517d 5cbd 7621 263e
000002f0: c323 9cbd 03aa 88be 30bc 11be 12fc 7d3d
00000300: 2e6e d5bd 5cb9 d03a 9ca8 27bd 1607 b3bd
00000310: dfe6 ab3e ce0c 533e 763c a73b 05c1 003d
00000320: 65a7 24be 30e9 2fbe d7e9 853d e4fb 473e
00000330: 891d 78bd 77e3 c6bd 11ac 923d bbad 9a3e
00000340: a61f e0bb 260d 37be 811f 6a3e 8918 22bd
00000350: 3cce 963c 9401 18be 1325 3abe ac37 d53d
00000360: d44f 2abf 4cc9 2f3e 6104 8f3e 3105 4e3e
00000370: 96b4 5bbe 0db5 413c b490 753c 8780 afbe
00000380: e978 103e 5aab b2be 29ad 0cbe 7b75 7abc
00000390: 10ca 43be ebea 313e fdbf 8c3e 4291 d9bd
000003a0: 513c 163e cf8c a6be f4dd 16be 0145 b3bd
000003b0: eb62 96be b749 a9bd c46e 0dbe 49c8 223e
000003c0: 3659 343e b089 91be 01fa 95be 4d02 cbbd
000003d0: 1eb3 363b 9ea5 81be dd55 613e 17cc 223c
000003e0: f74f 843e 6ce7 643d 817c 85be 411b 6e3c
000003f0: bc50 38be 32be acbd 04bb 803d 3e6f 2ebd

network_body._body_endoder.seq_layers.4.bias f4 [64]
-0.015326654 0.02811209 0.051358897 0.09945225 0.058704197 -0.078170136 -0.043394506 0.07794623
0.08469016 0.0062176455 -0.001192795 0.019954417 0.046945173 -0.019661844 0.0007037835 -0.040169094
0.103335984 0.05326937 0.01614837 -9.236312e-05 0.023767076 0.023214968 -0.01208657 -0.12139064
0.024202539 -0.0069900574 -0.073614255 0.062809564 0.075140476 0.021245498 0.031824924 0.033608112
0.069331266 0.068599164 0.021579588 0.0020523483 0.035116833 -0.0055442275 0.025872556 -0.024746964
0.100878805 0.08150011 0.011695275 0.029340984 0.035878878 0.0364003 0.04053069 -0.031629253
0.013169049 0.056876384 0.006518583 0.015873892 0.0482897 0.028110504 0.10167224 0.043984056
0.0019804726 -0.049912274 0.10170638 0.12165489 -0.009489369 -0.022325018 0.08741153 0.0187636
00000000: a51c 7bbc 534b e63c b55d 523d 9fad cb3d
00000010: d073 703d aa17 a0bd 70be 31bd 46a2 9f3d
00000020: 0972 ad3d 64bd cb3b 8f57 9cba 7277 a33c
00000030: 9549 403d e011 a1bc 1c7e 383a 5988 24bd
00000040: d1a1 d33d fc30 5a3d 9649 843c 13b3 c1b8
00000050: 2cb3 c23c 512d be3c c006 46bc a89b f8bd
00000060: 6744 c63c da0c e5bb 12c3 96bd 4da2 803d
00000070: 40e3 993d 0a0b ae3c da5a 023d a9a8 093d
00000080: 8dfd 8d3d b87d 8c3d adc7 b03c b180 063b
00000090: abd6 0f3d 5aac b5bb aff2 d33c 25ba cabc
000000a0: 8c99 ce3d 88e9 a63d 8a9d 3f3c 815c f03c
000000b0: bbf5 123d 7b18 153d 8203 263d ad8d 01bd
000000c0: ffc2 573c 36f7 683d d699 d53b f709 823c
000000d0: 6ccb 453d 0048 e63c 8939 d03d a028 343d
000000e0: d1ca 013b d070 4cbd 6f4b d03d 3326 f93d
000000f0: 4c79 1bbc f5e2 b6bc d104 b33d 1fb6 993c

action_model._continuous_distribution.log_sigma f4 [1, 44]
0.5616772 0.5111522 0.55112445 0.74280953 0.62328017 0.4233081 0.6662886 0.5927594
0.37478736 0.49968728 0.22086133 0.3740928 0.40767765 0.5112709 0.7472079 0.14793113
0.71068656 0.46957934 0.32658115 0.38744766 0.22735389 0.4710639 0.65420747 0.65509087
0.19727689 0.19927566 0.32630903 0.17355317 0.15766399 0.61103314 0.25831327 0.3467033
0.03525794 0.44394743 0.31902197 0.5119146 0.5186681 0.46052352 0.19551782 0.47663882
0.33654866 0.39551708 0.33848143 0.47441268
00000000: 14ca 0f3f dfda 023f 7e16 0d3f c428 3e3f
00000010: 4a8f 1f3f d7bb d83e e491 2a3f 14bf 173f
00000020: 21e4 bf3e 03d7 ff3e 7929 623e 1789 bf3e
00000030: 20bb d03e a6e2 023f 0449 3f3f 427b 173e
00000040: 8eef 353f b46c f03e a535 a73e 8a5f c63e
00000050: 75cf 683e 4a2f f13e 247a 273f 09b4 273f
00000060: f402 4a3e eb0e 4c3e fa11 a73e ecb7 313e
00000070: ab72 213e ab6c 1c3f a341 843e 1883 b13e
00000080: a16a 103d 144d e33e d956 a33e d60c 033f
00000090: 6fc7 043f bdc9 eb3e d335 483e 010a f43e
000000a0: 1b50 ac3e 3781 ca3e 704d ad3e 38e6 f23e

action_model._continuous_distribution.mu.weight f4 [44, 64]
0.009518001 -0.09699955 -0.13200724 0.03627511 0.1428442 -0.09951005 0.04166673 0.018847885
-0.056451425 -0.1730064 -0.0667771 -0.0072513493 -0.014233561 0.17472671 -0.094533935 0.04918675
0.07047173 -0.1691824 -0.010508886 0.055799033 -0.043885794 0.04380407 -0.23269378 -0.10010273
0.026298795 -0.11484693 -0.033428967 -0.009845956 -0.061582845 0.2362334 0.13354589 0.023926456
0.17710838 0.17568754 -0.06739051 -0.029891765 0.02092166 0.09722913 0.017565198 0.063954465
0.15971135 0.11575731 0.12605299 -0.091774546 -0.11537982 0.04964604 -0.08207249 -0.060021702
0.08851642 0.19971848 0.11705998 -0.056875102 -0.041060124 0.17302378 -0.060790364 0.14619188
-0.08445127 0.014136086 0.20089106 0.19813095 -0.079038404 0.100586616 0.05777059 0.10956525
0.06452347 -0.020625848 -0.0926576 0.07989469 0.043649573 0.030987315 -0.08540235 -0.2150876
-0.16263793 -0.014106772 -0.06346889 0.068262085 -0.03665456 -0.17165893 0.10107769 0.09721478
-0.016870612 0.12389538 -0.054190245 -0.12839867 -0.12082022 0.0008408596 -0.02835594 0.010596703
-0.06863345 -0.18132874 0.1677903 -0.058566537 -0.07940773 -0.010941366 -0.020819515 0.020433312
0.0012617125 0.17032494 -0.079534695 -0.0067698145 -0.056362096 0.03183166 -0.079940714 -0.06438451
0.0021358368 -0.06427666 0.034793347 -0.14827515 0.042869758 0.008872459 -0.010390829 0.007873536
-0.08243229 -0.15018913 0.03610172 0.108148865 0.06517275 -0.005969086 -0.058932766 -0.008775947
-0.07564272 -0.044712484 -0.10348294 -0.028829481 -0.0014330348 0.07575841 -0.08311267 -0.025019078
-0.071582414 -0.05097059 0.022129847 -0.12046675 0.19411674 0.08547163 -0.16079006 0.11688529
-0.13692465 -0.008272647 -0.08759287 0.053045034 0.038582582 -0.11766587 -0.0636108 -0.15530984
0.1732274 -0.059688687 -0.17954804 -0.06946372 -0.020473132 0.0663087 -0.07950713 -0.081193656
0.11987477 -0.110085994 -0.10275425 -0.12697051 0.053423923 -0.10564698 0.18434198 0.05833788
-0.09876289 0.054995753 0.1295412 -0.11190487 -0.037146706 -0.03412688 0.05988648 -0.16002738
0.05667464 -0.20966391 0.16924644 0.14641471 0.2297797 0.17293906 -0.0009535057 -0.020444311
0.067804866 0.009569743 -0.15133403 -0.073733166 0.022426624 0.08925604 0.033459485 -0.015916055
-0.08328852 0.07547192 -0.026586106 0.14226349 -0.21346413 -0.00228855 0.025229769 -0.1017524
-0.06070607 0.014748277 0.099196225 0.006662398 0.014312878 -0.047470547 -0.033151537 0.008500261
0.17952935 -0.12343926 0.07980752 -0.12491512 -0.0493406 0.10324137 -0.14631481 0.12589692
-0.042714763 -0.08893808 0.032584228 0.18637662 0.042021226 0.10473752 -0.0670044 0.0014483252
0.008970273 -0.011223993 -0.093218155 -0.033064846 0.18180315 -0.016931621 0.0057405354 0.10007997
0.076879635 0.039596308 -0.05270099 -0.27433348 -0.21224798 0.062193148 0.05974305 -0.16941
0.18203263 0.012792874 0.0013349865 -0.14622693 0.1389844 -0.017838813 0.0073563587 -0.11110154
-0.039875325 -0.08393008 0.052087713 -0.038747482 0.06429761 0.060361944 0.054257322 -0.0020700449
0.097777754 -0.08075094 -0.09717407 0.23131898 -0.31341726 0.029013557 0.18540415 -0.031192556
00000000: 64f1 1b3c b3a7 c6bd e82c 07be 3695 143d
00000010: c045 123e edcb cbbd bcaa 2a3d e166 9a3c
00000020: 9c39 67bd 9728 31be 6fc2 88bd ba9c edbb
00000030: e233 69bc 8feb 323e 029b c1bd 0c78 493d
00000040: 7b53 903d 273e 2dbe 762d 2cbc 878d 643d
00000050: 97c1 33bd e66b 333d 4747 6ebe a902 cdbd
00000060: 9270 d73c de34 ebbd d0ec 08bd ef50 21bc
00000070: 4b3e 7cbd 2be7 713e 41c0 083e 6a01 c43c
00000080: e65b 353e 6fe7 333e 0904 8abd 93df f4bc
00000090: e763 ab3c 1120 c73d e4e4 8f3c 8ffa 823d
000000a0: 5f8b 233e 2b12 ed3d 0914 013e 4bf4 bbbd
000000b0: 414c ecbd a559 4b3d 9f15 a8bd 51d9 75bd
000000c0: 1948 b53d 0083 4c3e 25bd ef3d def5 68bd
000000d0: a92e 28bd 252d 313e 51ff 78bd 53b3 153e
000000e0: caf4 acbd 0b9b 673c 63b6 4d3e d7e2 4a3e
000000f0: e3de a1bd 5b00 ce3d dba0 6c3d bf63 e03d
00000100: e224 843d 8af7 a8bc 45c3 bdbd d49f a33d
00000110: e5c9 323d 1cd9 fd3c 6de7 aebd ec3f 5cbe
00000120: 8f8a 26be 1720 67bc fafb 81bd fecc 8b3d
00000130: 1823 16bd 5cc7 2fbe d201 cf3d 8b18 c73d
00000140: 3d34 8abc dcbc fd3d 97f6 5dbd f17a 03be
00000150: 9770 f7bd 226d 5c3a b74a e8bc cb9d 2d3c
00000160: b28f 8cbd 3eae 39be 38d1 2b3e 77e3 6fbd
00000170: 85a0 a2bd 6a43 33bc b08d aabc c363 a73c
00000180: 0c60 a53a a969 2e3e 16e3 a2bd 52d5 ddbb
00000190: f1db 66bd ea61 023d f5b7 a3bd 07dc 83bd
000001a0: 65f9 0b3b 7ba3 83bd 7883 0e3d 71d5 17be
000001b0: 3398 2f3d ca5d 113c 4c3e 2abc 0100 013c
000001c0: 43d2 a8bd 2ecb 19be 66df 133d 277d dd3d
000001d0: 4a79 853d 5398 c3bb 7c63 71bd fdc8 0fbc
000001e0: 92ea 9abd 7024 37bd ddee d3bd ce2b ecbc
000001f0: abd4 bbba 3a27 9b3d fa36 aabd cff4 ccbc
00000200: cd99 92bd 8ac6 50bd a749 b53c 45b7 f6bd
00000210: 8ac6 463e c00b af3d 26a6 24be 8e61 ef3d
00000220: fa35 0cbe ff89 07bc e463 b3bd c045 593d
00000230: c508 1e3d cefa f0bd 6146 82bd 8b09 1fbe
00000240: 8662 313e 207c 74bd 71db 37be ff42 8ebd
00000250: 45b7 a7bc dbcc 873d a2d4 a2bd dc48 a6bd
00000260: e780 f53d c474 e1bd d270 d2bd 8f04 02be
00000270: 0bd3 5a3d 725d d8bd 25c4 3c3e b3f3 6e3d
00000280: 3344 cabd 3a43 613d 73a6 043e 612e e5bd
00000290: 2527 18bd a1c8 0bbd 874b 753d 38de 23be
000002a0: ab23 683d 23b2 56be f04e 2d3e bded 153e
000002b0: 5f4b 6b3e f016 313e aff4 79ba d47a a7bc
000002c0: 47dd 8a3d 69ca 1c3c 4ff7 1abe 6a01 97bd
000002d0: 0ab8 b73c dfcb b63d d00c 093d 6362 82bc
000002e0: 2c93 aabd 0691 9a3d 1bcb d9bc 85ad 113e
000002f0: 5796 5abe 7ffb 15bb a9ae ce3c 9063 d0bd
00000300: eea6 78bd c2a2 713c 6427 cb3d 3f50 da3b
00000310: 9080 6a3c 7a70 42bd e8c9 07bd ae44 0b3c
00000320: 8bd6 373e b9cd fcbd 2072 a33d 80d3 ffbd
00000330: 5e19 4abd 3670 d33d 8dd3 15be 1feb 003e
00000340: adf5 2ebd 2b25 b6bd 0a77 053d 83d9 3e3e
00000350: 731e 2c3d a080 d63d 9a39 89bd bbd5 bd3a
00000360: 0df8 123c d7e4 37bc 29e9 bebd 016f 07bd
00000370: 9b2a 3a3e 2fb4 8abc 1a1b bc3b baf6 cc3d
00000380: 1273 9d3d bd2f 223d fedc 57bd 7075 8cbe
00000390: 8957 59be 3ebe 7e3d 21b5 743d d179 2dbe
000003a0: c366 3a3e 3499 513c b7fa ae3a 83bc 15be
000003b0: ed51 0e3e b422 92bc 9c0d f13b 3489 e3bd
000003c0: 4f54 23bd 89e3 abbd ed59 553d aeb5 1ebd
000003d0: 77ae 833d 163e 773d ed3c 5e3d 97a9 07bb
000003e0: b43f c83d c060 a5bd 3303 c7bd e2de 6c3e
000003f0: 3a78 a0be d7ad ed3c 96da 3d3e 8887 ffbc

action_model._continuous_distribution.mu.bias f4 [44]
0.022863919 -0.094548404 0.07263174 0.13355008 -0.085313395 0.031507757 -0.0473074 0.085804105
0.04789456 -0.0033661227 -0.053388037 0.12294026 -0.1280178 0.0023703172 -0.11606666 -0.012852116
-0.13038403 -0.12694462 -0.107395895 -0.0488287 0.045246415 -0.054530777 -0.07946362 -0.039123796
-0.050320815 -0.1165517 -0.1742051 0.024647703 -0.05115742 0.022115892 0.00014136138 -0.044194967
0.11255587 -0.08729567 0.005426527 0.075201154 0.04603078 0.0005648764 0.08698 -0.10437266
0.038009815 0.02226072 -0.0062532183 0.04558299
00000000: 1d4d bb3c 98a2 c1bd f3bf 943d 5ac1 083e
00000010: cab8 aebd 470e 013d 67c5 41bd 10ba af3d
00000020: 162d 443d 2b9a 5cbb 6aad 5abd 1ac8 fb3d
00000030: 1917 03be 5357 1b3b 5bb4 edbd ae91 52bc
00000040: 6483 05be c5fd 01be 61f2 dbbd 9a00 48bd
00000050: 4e54 393d aa5b 5fbd d3bd a2bd 4640 20bd
00000060: 331d 4ebd a8b2 eebd d262 32be fbe9 c93c
00000070: 718a 51bd 632c b53c 683a 1439 c805 35bd
00000080: b183 e63d 12c8 b2bd 02d1 b13b 1003 9a3d
00000090: c58a 3c3d 3714 143a 9222 b23d 55c1 d5bd
000000a0: 2eb0 1b3d 1d5c b63c cce7 ccbb 3bb5 3a3d

exp_avg f4 [64, 95]
1.2940057e-05 6.626934e-05 8.836612e-05 5.2747066e-05 -7.61904e-05 -8.462327e-05 -4.4720444e-05 0.00010932644
-0.0001247879 -0.000102127044 -2.8214743e-05 0.00012576995 9.429446e-05 5.7144025e-05 -0.00011194954 -0.00015823678
-4.6806446e-05 -5.6544454e-06 5.3233256e-05 -5.136771e-07 0.00019207502 0.00012188852 -3.6440485e-06 -6.309675e-05
-5.5127134e-06 -2.5596972e-05 -1.589341e-05 6.394228e-05 0.00020112425 0.00022520105 -1.7073564e-05 -8.426163e-05
-0.00012614654 2.4190702e-05 6.474149e-05 9.85947e-05 -0.0001573582 -6.654376e-05 0.00014999833 8.958078e-05
0.00013373865 1.3468877e-05 6.445377e-05 0.00025614107 0.00045721288 -4.885471e-05 -0.0007182111 0.00062782853
6.1726414e-06 -0.0011585536 0.000110671455 -0.00011137528 0.00029561893 -3.0333133e-06 0.00010561149 -0.00034989993
0.00014851369 -0.0006604881 0.0003135582 -0.0009993757 -0.0005173563 -0.00075862894 -7.985537e-05 6.684661e-05
1.8476176e-05 -3.1664003e-05 1.8655232e-05 -1.8956317e-07 -8.5656386e-05 7.264762e-05 6.600721e-06 -1.9754198e-05
6.745442e-06 -2.1868726e-05 -4.1639443e-05 2.8630682e-05 9.282121e-06 5.7162608e-05 -7.0171365e-05 -4.128045e-05
-5.8625534e-05 4.5616784e-05 1.9597393e-05 4.357867e-05 -5.6587432e-05 -6.2460946e-05 1.7046482e-06 -1.47134015e-05
-3.233477e-05 1.6032642e-05 -2.9041392e-05 -4.741431e-05 1.6032642e-05 -2.9041392e-05 -4.7414323e-05 -1.929002e-06
9.0080795e-07 -5.4121724e-06 -4.792333e-06 1.9282468e-06 -1.222713e-06 -1.4472066e-07 -3.0261658e-06 2.7439155e-08
1.955424e-05 -2.8278585e-06 1.7624609e-05 1.5615042e-05 -3.3478937e-06 -1.8508112e-07 -1.169587e-07 -2.6898376e-06
2.0189589e-07 2.0082557e-06 2.3138482e-06 1.4071189e-05 1.7732891e-05 2.1319609e-07 1.1718083e-07 5.334305e-06
-1.6514972e-06 1.1647924e-05 1.7988092e-05 3.8842513e-06 1.2382361e-05 -9.33683e-07 -1.0085662e-06 -3.6777371e-06
-1.8860401e-06 1.5249976e-06 3.4328602e-06 3.3979836e-06 6.4837764e-06 4.1652506e-06 -1.4852313e-06 4.162622e-06
1.4824727e-06 4.986262e-06 2.4756646e-06 -0.00016399546 0.0001216498 -0.00017498691 0.00015641234 0.0001423693
1.4720808e-05 0.0004633333 2.857172e-05 4.3233176e-05 4.8361115e-05 9.533542e-05 6.149688e-05 0.00026786892
3.2837197e-05 0.00028608582 3.7405098e-05 0.0002801607 0.000102742895 1.7551578e-05 -1.8662344e-07 2.7020747e-06
1.7336082e-05 2.8869486e-08 3.0225679e-06 1.8062672e-05 -6.977163e-07 5.9584618e-06 1.7450295e-05 -8.533912e-08
3.843556e-06 2.48129e-06 1.4883662e-05 1.6741806e-05 1.8407749e-05 -1.0427949e-06 2.0523246e-06 -1.0768147e-06
1.8441768e-05 1.7880373e-05 1.8421973e-05 -1.0570174e-06 2.337817e-06 -1.2943368e-06 1.865929e-05 1.751005e-05
1.4763732e-05 2.60122e-06 6.4214346e-06 1.4763732e-05 2.60122e-06 6.4214346e-06 4.7138233e-06 -9.2494005e-08
6.6613416e-06 7.374254e-06 1.0960371e-06 2.1452638e-06 2.4102571e-06 8.863636e-06 2.7353986e-08 6.6320865e-07
8.122117e-06 -2.7070602e-08 -4.988699e-07 1.05209865e-05 -4.6318286e-07 2.575673e-06 3.195093e-06 1.2545705e-06
1.0969307e-10 5.657977e-06 2.9459418e-06 -1.1808268e-06 -2.980207e-06 1.5629964e-06 -1.6699668e-07 3.6133633e-07
-4.9129113e-07 -8.479758e-07 7.1254e-06 -5.021745e-07 4.9815385e-06 2.2032045e-06 1.2690844e-06 1.5786853e-06
1.8788822e-06 9.984201e-07 1.5666982e-06 5.892744e-06 1.5028616e-06 3.1180855e-06 4.4869244e-06 7.319793e-07
3.918887e-06 3.2625503e-06 -6.3580555e-06 2.5418065e-05 6.533785e-05 -2.5995761e-05 2.6039294e-05 4.222043e-05
-2.4381112e-05 1.360652e-05 6.744661e-06 9.658173e-06 3.945069e-06 1.6504315e-05 3.1212808e-06 4.9263657e-05
1.2252979e-05 5.590042e-05 2.0396801e-05 6.522667e-05 2.911842e-06 2.6666225e-09 4.2154116e-07 3.0072858e-06
00000000: 1f19 5937 15fa 8a38 3351 b938 bb3c 5d38
00000010: 69c8 9fb8 c677 b1b8 3692 3bb8 3046 e538
00000020: 7fd9 02b9 0a2d d6b8 b3ae ecb7 1de1 0339
00000030: f4bf c538 eead 6f38 74c6 eab8 5dec 25b9
00000040: 0a52 44b8 51bb bdb6 c646 5f38 9fe3 09b5
00000050: bf67 4939 679e ff38 478c 74b6 cf52 84b8
00000060: d9f9 b8b6 14b9 d6b7 d752 85b7 c018 8638
00000070: e1e4 5239 f223 6c39 3339 8fb7 9eb5 b0b8
00000080: 3446 04b9 23ed ca37 d3c5 8738 a0c4 ce38
00000090: 8500 25b9 698d 8bb8 df48 1d39 51dd bb38
000000a0: 323c 0c39 63f8 6137 5b2b 8738 ac4a 8639
000000b0: 13b6 ef39 58e9 4cb8 5546 3cba dc94 243a
000000c0: 961e cf36 9cda 97ba 4918 e838 2692 e9b8
000000d0: 4dfd 9a39 ed8f 4bb6 bd7b dd38 c672 b7b9
000000e0: 57ba 1b39 9b24 2dba 1265 a439 7cfd 82ba
000000f0: 329f 07ba bade 46ba 0678 a7b8 0030 8c38
00000100: 49fd 9a37 f7ce 04b8 ce7d 9c37 ba8a 4bb4
00000110: 6ca2 b3b8 655a 9838 c37b dd36 d1b5 a5b7
00000120: e856 e236 bb72 b7b7 03a6 2eb8 ec2b f037
00000130: 68ba 1b37 e2c1 6f38 f728 93b8 8c24 2db8
00000140: b0e4 75b8 a654 3f38 1565 a437 3ec8 3638
00000150: 4b58 6db8 77fd 82b8 44cb e435 94d9 76b7
00000160: 329f 07b8 d67d 8637 ea9d f3b7 bade 46b8
00000170: d67d 8637 ea9d f3b7 bede 46b8 0174 01b6
00000180: 0dcf 7135 359a b5b6 d4cd a0b6 0767 0136
00000190: 191c a4b5 8364 1bb4 2215 4bb6 57b3 eb32
000001a0: 6908 a437 3dc6 3db6 8fd8 9337 0cfd 8237
000001b0: 60ac 60b6 b6ba 46b4 ba2a fbb3 0f83 34b6
000001c0: b8c8 5834 92c5 0636 9c47 1b36 4c13 6c37
000001d0: 18c1 9437 e5ea 6434 d8a4 fb33 55fd b236
000001e0: 03a9 ddb5 746b 4337 22e5 9637 7755 8236
000001f0: d6bd 4f37 35a2 7ab5 125e 87b5 0bcf 76b6
00000200: d823 fdb5 85ae cc35 1760 6636 ea08 6436
00000210: 378f d936 3bc3 8b36 2958 c7b5 a7ac 8b36
00000220: 60f9 c635 aa4f a736 9823 2636 32f6 2bb9
00000230: 3d1e ff38 b17c 37b9 9e02 2439 f848 1539
00000240: 64f9 7637 8beb f239 4dad ef37 4555 3538
00000250: 5ad7 4a38 d0ee c738 e3f7 8038 c270 8c39
00000260: acba 0938 cafd 9539 6be3 1c38 88e2 9239
00000270: ac77 d738 ba3b 9337 a962 48b4 4a55 3536
00000280: f46c 9137 acfc f732 52d7 4a36 4b85 9737
00000290: b34a 3bb5 ccee c736 3962 9237 ad43 b7b3
000002a0: e5f7 8036 3d84 2636 d7b4 7937 c170 8c37
000002b0: 576a 9a37 29f6 8bb5 abba 0936 1287 90b5
000002c0: 65b3 9a37 cffd 9537 e388 9a37 d7de 8db5
000002d0: 64e3 1c36 13b9 adb5 8586 9c37 8ce2 9237
000002e0: bfb1 7737 9f90 2e36 b477 d736 bfb1 7737
000002f0: 9f90 2e36 b477 d736 6f2b 9e36 1ea1 c6b3
00000300: 7d84 df36 5c70 f736 8c1b 9335 5af7 0f36
00000310: e7bf 2136 07b5 1437 0df8 ea32 5a07 3235
00000320: 3a44 0837 e288 e8b2 14ea 05b5 4b83 3037
00000330: 5eab f8b4 bad9 2c36 486b 5636 b762 a835
00000340: b537 f12e a7d9 bd36 e5b2 4536 e67c 9eb5
00000350: 91ff 47b6 26c8 d135 b34f 33b4 b0fd c134
00000360: 45e1 03b5 74a0 63b5 b816 ef36 2bcd 06b5
00000370: 1727 a736 c4da 1336 6855 aa35 37e3 d335
00000380: e72d fc35 7401 8635 5747 d235 49ba c536
00000390: eeb5 c935 4d40 5136 638e 9636 3c7d 4435
000003a0: fc7e 8336 30f2 5a36 4857 d5b6 e138 d537
000003b0: fe05 8938 7911 dab7 f56e da37 d715 3138
000003c0: 0a86 ccb7 8f47 6437 3250 e236 8a09 2237
000003d0: e25f 8436 bf72 8a37 3277 5136 73a0 4e38
000003e0: 2592 4d37 9e76 6a38 cc19 ab37 4dca 8838
000003f0: 1169 4336 b83f 3731 2d50 e234 c7d0 4936

exp_avg_sq f4 [64, 95]
1.403286e-07 6.3982604e-08 2.1700983e-07 2.7114405e-07 2.0983123e-07 2.0588787e-07 1.622981e-07 3.7703967e-07
1.1131912e-07 1.7813817e-07 1.9147639e-07 2.4077815e-07 2.7284653e-07 3.1509967e-07 2.687113e-08 8.084361e-08
9.376428e-08 6.7808884e-08 9.518803e-08 2.1949822e-07 3.5159994e-07 3.1780735e-07 3.767143e-08 8.119961e-08
1.494406e-07 8.1436696e-08 5.907332e-08 1.5885688e-07 3.5458305e-07 3.356579e-07 1.9174999e-07 2.8611763e-07
2.6359024e-07 1.0092059e-07 2.3184347e-07 2.903524e-07 1.3953765e-07 2.0700593e-07 3.3964494e-07 1.7256231e-07
2.9131655e-07 2.7559724e-07 2.0064644e-07 2.2669185e-07 3.2194012e-06 5.293531e-06 3.6959684e-06 4.159862e-06
6.902407e-06 4.1154362e-06 4.3649775e-06 2.709772e-06 1.621298e-05 1.5400896e-05 1.6307094e-05 1.439101e-05
1.611968e-05 1.3669358e-05 1.5867578e-05 1.3607533e-05 1.5214639e-05 1.3920545e-05 5.377181e-08 3.932133e-08
6.3331946e-08 5.787257e-08 3.9043357e-08 6.015972e-08 5.443177e-08 4.121667e-08 6.3699574e-08 6.432117e-08
3.379359e-08 5.621488e-08 5.8969462e-08 3.6950436e-08 6.2967494e-08 6.8779855e-08 3.0082735e-08 5.339591e-08
6.143055e-08 3.6094747e-08 6.1982696e-08 6.8401974e-08 2.973479e-08 5.3154423e-08 5.7682e-08 3.805212e-08
5.9432182e-08 6.441983e-08 3.0161125e-08 5.4377114e-08 6.441983e-08 3.0161125e-08 5.4377114e-08 3.6783618e-09
3.9003716e-09 1.0965697e-08 1.2866805e-08 1.14892655e-08 7.886406e-09 1.2169905e-08 4.809524e-09 1.7987853e-08
8.379937e-09 9.986187e-09 1.0242019e-08 1.9310114e-08 2.2065445e-09 2.1912392e-09 1.4767679e-08 4.160837e-09
4.1697223e-09 6.021445e-09 8.588712e-09 6.4915913e-09 6.926301e-10 4.4718362e-09 1.1115923e-08 1.0485415e-08
2.1098006e-09 3.7006325e-09 1.0618089e-08 1.1628789e-08 2.6629625e-09 8.414767e-09 1.1227397e-08 8.750115e-09
7.599817e-09 1.8679591e-08 5.346907e-09 6.2941465e-09 3.44668e-09 6.0832113e-09 1.9336685e-08 5.6107603e-09
1.9030792e-10 9.656817e-09 1.5970187e-08 2.2244963e-07 2.2660622e-07 3.2718484e-07 1.3649888e-07 2.116034e-07
1.4032473e-07 5.641513e-07 4.5177632e-08 3.9344673e-08 1.7901604e-08 7.889776e-08 5.4460887e-08 2.7190197e-07
3.7879423e-07 5.946727e-07 5.068862e-07 6.9806924e-07 7.760824e-07 3.2322334e-09 1.3379164e-11 1.5369012e-10
3.2488336e-09 1.07123755e-13 6.9928126e-11 3.2033458e-09 8.2189276e-11 3.081944e-10 3.2509335e-09 1.3262111e-12
2.1273773e-10 2.759449e-09 5.441057e-10 1.0621168e-09 2.4350586e-09 8.1876916e-10 1.4796644e-09 1.5798075e-09
1.6860575e-09 2.32294e-09 1.5831015e-09 1.6647757e-09 1.9800237e-09 8.513901e-10 2.383659e-09 2.7268328e-09
3.8828843e-10 2.908839e-09 3.0315712e-09 3.8828843e-10 2.908839e-09 3.0315712e-09 2.3562798e-09 1.9723638e-09
7.2181905e-09 1.0983559e-08 1.6598419e-08 1.4767849e-08 3.0135063e-09 3.2352183e-09 1.658918e-08 1.5729864e-08
6.9722397e-09 1.5274345e-08 1.3863019e-08 6.3428307e-09 6.4985213e-09 1.7859517e-08 4.7079247e-09 7.109623e-09
4.7528044e-09 6.110265e-09 1.4098197e-09 1.5437722e-10 8.042159e-09 1.4057947e-08 6.8617654e-09 1.0919351e-09
1.8561324e-09 2.1910793e-09 2.5138767e-09 1.8255943e-10 3.6919294e-09 1.1128601e-08 2.4803002e-09 2.8996419e-09
5.7356413e-09 2.624607e-10 2.3681586e-09 2.2966933e-09 4.8394337e-09 1.445573e-08 5.7729297e-09 4.785034e-10
8.569258e-09 1.1831854e-08 1.5369775e-07 1.6661042e-07 2.9457757e-07 1.1883104e-07 1.825624e-07 1.1417983e-07
4.143256e-07 3.6339596e-08 1.0427486e-08 1.4223179e-08 1.6324703e-08 7.406326e-08 8.291814e-08 5.423687e-07
2.6494078e-07 6.4414223e-07 4.2626428e-07 6.9728884e-07 2.7238998e-09 2.9349705e-14 4.0732362e-11 2.7230007e-09
00000000: 3bad 1634 cf66 8933 3503 6934 c191 9134
00000010: f84d 6134 0712 5d34 2944 2e34 f06b ca34
00000020: 550e ef33 3f46 3f34 a198 4d34 4c44 8134
00000030: be7b 9234 f82a a934 3dd2 e632 3f9c ad33
00000040: 755b c933 549e 9133 2c6a cc33 36af 6b34
00000050: 87c3 bc34 1c9f aa34 2dcc 2133 f55f ae33
00000060: eb75 2034 4ce2 ae33 cdb7 7d33 3f92 2a34
00000070: 865d be34 7834 b434 d6e3 4d34 b59b 9934
00000080: 9183 8d34 aeb9 d833 a6f0 7834 bbe1 9b34
00000090: d1d3 1534 5b45 5e34 7258 b634 9149 3934
000000a0: 3e66 9c34 ccf5 9334 4671 5734 9568 7334
000000b0: e40c 5836 169f b136 4108 7836 f194 8b36
000000c0: 3a9b e736 5417 8a36 df76 9236 87d9 3536
000000d0: 1c01 8837 2c31 8137 38cb 8837 eb70 7137
000000e0: c038 8737 7255 6537 5d1b 8537 e94b 6437
000000f0: 6042 7f37 498c 6937 bbf2 6633 42e2 2833
00000100: 1b01 8833 908f 7833 a0b0 2733 2831 8133
00000110: 5dc8 6933 3506 3133 36cb 8833 f020 8a33
00000120: 7224 1133 ea70 7133 9c45 7d33 6fb3 1e33
00000130: bf38 8733 20b4 9333 5134 0133 6d55 6533
00000140: cdeb 8333 9806 1b33 591b 8533 62e4 9233
00000150: 7f6b ff32 e84b 6433 08be 7733 c06e 2333
00000160: 6042 7f33 2d57 8a33 828a 0133 458c 6933
00000170: 2d57 8a33 828a 0133 458c 6933 6dc6 7c31
00000180: 0804 8631 a563 3c32 cf0c 5d32 5362 4532
00000190: c87c 0732 cf13 5132 0541 a531 b583 9a32
000001a0: 5af7 0f32 b78f 2b32 e0f4 2f32 64df a532
000001b0: f1a1 1731 b094 1631 f0b4 7d32 1cf7 8e31
000001c0: 4445 8f31 31e5 ce31 8e8d 1332 a40c df31
000001d0: 8363 3e30 b0a6 9931 59f8 3e32 5823 3432
000001e0: 01fc 1031 374e 7e31 d96a 3632 f4c7 4732
000001f0: 55ff 3631 8990 1032 9de2 4032 6a53 1632
00000200: 5990 0232 db74 a032 e4b7 b731 e643 d831
00000210: a3da 6c31 7e04 d131 d219 a632 c5c8 c031
00000220: eb3e 512f 21e7 2532 d02e 8932 7dda 6e34
00000230: 0b51 7334 f1a7 af34 8790 1234 1a35 6334
00000240: 2bac 1634 2f70 1735 5509 4233 edfb 2833
00000250: 0bc6 9932 816e a933 61e8 6933 ecf9 9134
00000260: 155d cb34 99a1 1f35 f410 0835 f462 3b35
00000270: fa53 5035 0d1e 5e31 665e 6b2d ecfb 282f
00000280: 1642 5f31 a438 f129 09c6 992e db21 5c31
00000290: 73bc b42e 816e a92f 0767 5f31 caa5 ba2b
000002a0: 59e8 692f bda0 3d31 0990 1530 eaf9 9130
000002b0: 0156 2731 c20f 6130 105d cb30 8920 d930
000002c0: e0ba e730 98a1 1f31 6f94 d930 16ce e430
000002d0: f210 0831 4107 6a30 c6cd 2331 f362 3b31
000002e0: bd76 d52f d6e4 4731 f753 5031 bd76 d52f
000002f0: d6e4 4731 f753 5031 1dec 2131 318a 0731
00000300: e003 f831 34b2 3c32 4f94 8e32 b0b5 7d32
00000310: 2a16 4f31 9052 5e31 fe7f 8e32 561e 8732
00000320: 7890 ef31 a434 8332 342a 6e32 21f0 d931
00000330: 9949 df31 7e69 9932 58c3 a131 e848 f431
00000340: 1c4e a331 76f2 d131 9fc3 c130 53bd 292f
00000350: ca29 0a32 8183 7132 bac4 eb31 0d13 9630
00000360: da1a ff30 e091 1631 96c0 2c31 e9b9 482f
00000370: 1cb5 7d31 1b30 3f32 e771 2a31 0a43 4731
00000380: 3c13 c531 0f4a 902f 16bd 2231 dbd3 1d31
00000390: 1c48 a631 f958 7832 3a5b c631 af87 0330
000003a0: ff37 1332 0b45 4b32 1e08 2534 86e5 3234
000003b0: 6f26 9e34 0e30 ff33 5f06 4434 0633 f533
000003c0: 7a70 de34 cf13 1c33 9224 3332 345a 7432
000003d0: 673a 8c32 b50c 9f33 bb10 b233 4b97 1135
000003e0: 2f3d 8e34 1ee9 2c35 51d9 e434 532d 3b35
000003f0: 5a2f 3b31 e82d 0429 9024 332e 891f 3b31

exp_avg f4 [64]
-1.30087565e-05 1.7364953e-05 2.9145087e-06 -7.644614e-05 0.00010548293 1.1738491e-05 -3.2548513e-05 -1.9546736e-05
-2.343873e-07 -1.945779e-06 1.6023163e-05 0.0001677506 -4.404413e-05 -1.5130179e-05 -3.1268992e-06 -1.8955381e-05
2.703676e-06 -5.3677436e-06 1.0949633e-05 4.2066116e-05 9.34902e-06 3.9782595e-08 1.4965624e-05 2.3631597e-05
2.8999837e-05 -3.359258e-05 -1.0255821e-05 6.826527e-07 -2.2429473e-05 -2.299311e-06 1.5285079e-05 6.734445e-06
0.00023311522 9.819993e-05 -0.00015338365 -2.6442768e-07 6.904734e-05 -1.8002193e-05 4.6846842e-05 -6.300027e-06
-9.45116e-06 -1.0300358e-06 2.994272e-05 -2.409887e-05 5.097706e-05 -0.00013342046 -1.3203826e-05 -3.9715333e-06
-1.1182346e-05 -3.1613083e-05 4.515974e-05 -5.7953645e-07 -0.00011515722 -3.3222233e-05 -1.4243578e-08 6.433066e-05
2.6792977e-05 -9.777127e-06 -4.663849e-05 8.196325e-06 -7.0218643e-06 -0.00012615196 -1.06071675e-05 -3.500489e-07
00000000: 2f40 5ab7 f4aa 9137 e196 4336 b551 a0b8
00000010: b836 dd38 6ff0 4437 b384 08b8 4cf8 a3b7
00000020: e4ab 7bb4 3b94 02b6 7b69 8637 35e6 2f39
00000030: 06bc 38b8 a0d7 7db7 b8d7 51b6 5f02 9fb7
00000040: cd70 3536 911c b4b6 51b4 3737 2670 3038
00000050: bcd9 1c37 6ddd 2a33 de14 7b37 783c c637
00000060: ad44 f337 c2e5 0cb8 6a10 2cb7 893f 3735
00000070: ed26 bcb7 dd4d 1ab6 7538 8037 71f8 e136
00000080: 6470 7439 b0f0 cd38 9cd5 20b9 aaf6 8db4
00000090: 82cd 9038 6a03 97b7 6a7d 4438 d264 d3b6
000000a0: 6c90 1eb7 c33f 8ab5 802d fb37 ee27 cab7
000000b0: 34d0 5538 c8e6 0bb9 0086 5db7 3643 85b6
000000c0: cf9b 3bb7 4a98 04b8 e769 3d38 7191 1bb5
000000d0: 9080 f1b8 1a58 0bb8 ebb3 74b2 43e9 8638
000000e0: 7bc1 e037 7108 24b7 b39d 43b8 f382 0937
000000f0: 5b9d ebb6 a947 04b9 70f5 31b7 5bee bbb4

exp_avg_sq f4 [64]
9.570934e-08 3.2482512e-09 2.7236027e-09 4.2910372e-08 3.9182595e-08 1.40000465e-08 8.1214075e-08 1.4551543e-07
1.0132413e-11 1.0931633e-08 7.202849e-08 9.604991e-08 9.203283e-08 1.509181e-08 5.409419e-09 6.7356225e-08
5.5461868e-08 1.4509951e-08 3.3274752e-08 2.128563e-08 7.3241675e-09 1.9899714e-13 5.476609e-08 7.8244e-08
1.7238534e-08 1.7073312e-08 5.447278e-08 1.773537e-08 6.80801e-08 4.3598009e-10 7.0844e-09 1.5443787e-09
8.354074e-08 8.4856055e-08 2.1507938e-07 4.328068e-11 6.439531e-08 3.4622294e-10 3.1347366e-08 3.9271182e-08
2.2166791e-08 1.815208e-11 5.7750135e-08 8.782828e-08 9.55552e-08 4.395918e-09 5.2074327e-08 7.733658e-09
7.8333535e-09 4.964295e-08 6.3538764e-08 2.7720312e-10 4.8205244e-08 1.2076325e-07 1.3731511e-13 1.1695612e-08
2.7208394e-08 5.485615e-09 4.640575e-08 1.8442198e-09 1.3693459e-08 5.1042917e-08 9.255437e-09 9.206841e-13
00000000: c488 cd33 d737 5f31 202a 3b31 744c 3833
00000010: b849 2833 db84 7032 e967 ae33 fa3e 1c34
00000020: 5540 322d d5cd 3b32 15ae 9a33 ff43 ce33
00000030: 95a3 c533 3ea3 8132 c1dd b931 7aa5 9033
00000040: f834 6e33 7047 7932 fae9 0e33 98d7 b632
00000050: 0fa8 fb31 050d 602a f437 6b33 1807 a833
00000060: f013 9432 9ca8 9232 74f5 6933 7e58 9832
00000070: 6e33 9233 beae ef2f 0b6b f331 ff41 d430
00000080: 0267 b333 1c3a b633 92f0 6634 b759 3e2e
00000090: b249 8a33 8c56 be2f cba2 0633 1fab 2833
000000a0: 4a69 be32 daaa 9f2d f208 7833 1c9c bc33
000000b0: 0734 cd33 e70a 9731 54a8 5f33 fddc 0432
000000c0: 7493 0632 0037 5533 ce72 8833 df64 982f
000000d0: 3a0a 4f33 26ab 0134 639a 1a2a d8ed 4832
000000e0: e4b7 e932 fb7b bc31 a94f 4733 b777 fd30
000000f0: 7840 6b32 483a 5b33 d801 1f32 2493 812b
