Notes/Versions/078colab/Files/Dynamic Table/Dynamic Table-8999988.onnx (onnx, 75094 bytes, 9 tensors)

network_body._body_endoder.seq_layers.0.weight f4 [64, 96]
0.19119231 -0.34376827 0.044380806 -0.09197059 -0.14180279 -0.07103713 0.083042845 0.10340991
0.25818327 0.05622976 -0.053947188 -0.047397956 -0.08190515 -0.04541958 0.19467977 -0.23983115
0.20362282 -0.030050797 0.10536988 -0.15013644 -0.054065 0.04000494 0.121724464 0.040347237
-0.052804887 -0.037061397 -0.17008413 -0.3912836 -0.38902047 -0.058488697 -0.122232385 0.012407019
0.26252407 0.068875715 -0.07427398 -0.04399398 0.006139571 -0.03771128 -0.13246694 -0.2548535
-0.43628314 -0.1322764 0.12460972 0.073646784 -0.20362075 0.003116394 0.1788276 -0.1606967
0.14251587 -0.12734717 -0.07175513 -0.025529848 0.17879885 -0.043852683 -0.0149831185 0.15842272
-0.024048584 0.03160629 -0.17524037 -0.15815659 -0.094789185 -0.23264375 -0.044901278 0.090827376
0.074826345 0.043665368 0.07663389 0.111724 -0.045276105 0.106406815 -0.071120284 0.08899706
-0.1711331 -0.02641593 0.068090454 0.08993812 0.087313205 -0.15933286 0.13774605 -0.14630127
-0.17589577 0.01488693 -0.12924846 0.1269776 -0.0931415 0.010997525 -0.15016946 0.19546595
-0.03374265 0.037618797 0.1557198 0.090897426 -0.021168595 0.123808 -0.1693592 -0.106473416
-0.12665355 -0.006425819 -0.100063086 -0.14109293 -0.078099206 -0.08576209 -0.12813756 -0.10188213
0.05953333 0.042471923 0.016345719 0.24123108 0.11961467 0.010190399 0.1240912 -0.27981627
0.065063044 0.17931744 0.16538462 -0.18881692 -0.00621254 -0.13924675 -0.22133388 -0.39765868
0.24142066 0.024030235 -0.015532733 0.1333802 0.17825373 -0.09010934 0.026136706 -0.32679
0.10357938 0.10977165 0.06740168 0.15947182 -0.27129632 0.0014917761 -0.0127327265 0.1929722
0.4418353 0.02966129 -0.18880303 0.19784962 -0.08971656 0.21013346 -0.11490335 -0.15409335
0.0077524055 0.13642424 -0.029198801 -0.20315875 0.1023904 0.05241012 0.016226664 0.13014463
0.027503816 -0.17000076 0.08619 -0.17207116 -0.027263943 0.03209011 -0.07761867 0.037619233
-0.15211873 0.09360245 0.09265881 -0.083718054 -0.033294726 0.103291444 0.04045154 0.029460352
0.042311378 -0.113223776 -0.1297132 0.033564728 -0.13552813 -0.059573647 -0.006367003 -0.1072496
-0.2205153 0.16692173 -0.32517046 -0.14373466 0.11534378 -0.02248921 -0.03855094 0.21667063
-0.25830844 -0.14886934 0.063225254 -0.14338554 -0.11677908 0.13274203 -0.33887225 0.05155941
0.351261 0.06725762 -0.0837665 -0.28714877 0.00605212 -0.011983404 -0.12544595 0.12087718
-0.1036473 -0.042246 0.06091839 -0.012178342 0.14992423 -0.019466925 -0.065460466 -0.40232596
0.042958017 -0.03282319 -0.17156263 -0.3758222 -0.31395242 -0.081448264 -0.32199448 0.18377429
0.07271364 0.024967728 0.09316381 -0.06957658 -0.011419633 -0.28905192 0.08687943 0.14854169
0.1849016 -0.10758583 0.07140175 0.16790684 0.11251227 0.069748886 -0.14747019 0.11860587
0.1335838 0.0949564 -0.06153032 -0.16320331 0.16312872 -0.03842065 -0.01915934 -0.04919021
-0.14783648 0.2935381 0.04293902 -0.16890179 0.033550788 0.14283702 -0.03237713 0.122873016
-0.22416228 -0.09473154 -0.16779765 -0.035090365 -0.03411747 -0.04391748 -0.044677224 -0.19409697
00000000: ebc7 433e 6502 b0be a6c8 353d 145b bcbd
00000010: c034 11be ea7b 91bd 5e12 aa3d 93c8 d33d
00000020: 9930 843e 2d51 663d baf7 5cbd 5c24 42bd
00000030: e3bd a7bd e209 3abd 225a 473e 4c96 75be
00000040: 8082 503e 172d f6bc 2acc d73d 5ebd 19be
00000050: 4373 5dbd 38dc 233d ad4a f93d 2543 253d
00000060: f049 58bd b1cd 17bd 892a 2ebe 5356 c8be
00000070: b12d c7be d891 6fbd f954 fabd cf46 4b3c
00000080: 8e69 863e b60e 8d3d f51c 98bd 0833 34bd
00000090: 742e c93b 2577 1abd 6aa5 07be 287c 82be
000000a0: 8160 dfbe 7773 07be 6233 ff3d 20d4 963d
000000b0: f581 50be 6a3c 4c3b 951e 373e ad8d 24be
000000c0: aeef 113e 4c67 02be 5bf4 92bd f923 d1bc
000000d0: 0c17 373e df9e 33bd c17b 75bc 9139 223e
000000e0: 8901 c5bc 9975 013d 3672 33be cdf3 21be
000000f0: d520 c2bd 2a3a 6ebe 67ea 37bd b403 ba3d
00000100: 8e3e 993d 75da 323d 3bf2 9c3d 8dcf e43d
00000110: 7073 39bd d1eb d93d 83a7 91bd 1744 b63d
00000120: 843d 2fbe 3866 d8bc 0273 8b3d 7a31 b83d
00000130: 44d1 b23d 2728 23be 4d0d 0d3e 00d0 15be
00000140: 051e 34be 4fe8 733c b559 04be 6a06 023e
00000150: f9c0 bebd f72e 343c 06c6 19be 3a28 483e
00000160: bc35 0abd 2b16 1a3d 0375 1f3e 6e28 ba3d
00000170: c369 adbc 0c8f fd3d 806c 2dbe bc0e dabd
00000180: 78b1 01be ad8f d2bb e0ed ccbd aa7a 10be
00000190: 7af2 9fbd 09a4 afbd 7e36 03be 94a7 d0bd
000001a0: 39d9 733d 0af7 2d3d 75e7 853c 4805 773e
000001b0: 89f8 f43d a2f5 263c 8723 fe3d 1444 8fbe
000001c0: c63f 853d fe9e 373e 965a 293e 3959 41be
000001d0: 9092 cbbb b396 0ebe 59a5 62be eb99 cbbe
000001e0: fa36 773e 0edb c43c 017d 7ebc d294 083e
000001f0: 2588 363e 3f8b b8bd a51c d63c 0551 a7be
00000200: 6d21 d43d f5cf e03d e409 8a3d 954c 233e
00000210: 5ae7 8abe b387 c33a ed9c 50bc 819a 453e
00000220: 3d38 e23e 3cfc f23c 9555 41be 1799 4a3e
00000230: 51bd b7bd 3a2d 573e 7352 ebbd a6ca 1dbe
00000240: e407 fe3b ccb2 0b3e 5332 efbc d908 50be
00000250: 0fb2 d13d feab 563d c8ed 843c a244 053e
00000260: af4f e13c ae14 2ebe 6284 b03d 6c33 30be
00000270: a258 dfbc eb70 033d 8af6 9ebd a016 1a3d
00000280: 03c5 1bbe a4b2 bf3d e7c3 bd3d 5f74 abbd
00000290: 0d60 08bd 778a d33d 84b0 253d d656 f13c
000002a0: b24e 2d3d dee1 e7bd 89d3 04be 2b7b 093d
000002b0: e3c7 0abe 7f03 74bd 4ba2 d0bb aea5 dbbd
000002c0: c3ce 61be 88ed 2a3e be7c a6be 2e2f 13be
000002d0: 5c39 ec3d 4b3b b8bc 97e7 1dbd e8de 5d3e
000002e0: 0141 84be 3471 18be 3e7c 813d a9d3 12be
000002f0: df29 efbd 87ed 073e aa80 adbe f62f 533d
00000300: 7bd8 b33e 5dbe 893d c58d abbd 2a05 93be
00000310: dd50 c63b 0a56 44bc e774 00be 748e f73d
00000320: 0945 d4bd 240a 2dbd 9085 793d ab87 47bc
00000330: bd85 193e 1a79 9fbc 2310 86bd abfd cdbe
00000340: bff4 2f3d 9c71 06bd 1dae 2fbe c46b c0be
00000350: 5fbe a0be 59ce a6bd 76dc a4be 542f 3c3e
00000360: e4ea 943d 1f89 cc3c abcc be3d 2a7e 8ebd
00000370: 6a19 3bbc 9dfe 93be d8ed b13d 501b 183e
00000380: d856 3d3e f655 dcbd 153b 923d c5ef 2b3e
00000390: d56c e63d 81d8 8e3d 6d02 17be a2e7 f23d
000003a0: 31ca 083e 8078 c23d 3807 7cbd c51e 27be
000003b0: 370b 273e f95e 1dbd 0cf4 9cbc ac7b 49bd
000003c0: 7262 17be a04a 963e d3e0 2f3d 97f4 2cbe
000003d0: 8d6c 093d de43 123e e29d 04bd d9a4 fb3d
000003e0: cc8a 65be 9c02 c2bd 26d3 2bbe eaba 0fbd
000003f0: c3be 0bbd d1e2 33bd 77ff 36bd 5bc1 46be

network_body._body_endoder.seq_layers.0.bias f4 [64]
0.051804442 0.0017229532 0.012289153 -0.0002689057 0.010955771 0.04006337 0.0113785155 -0.022513222
0.04797869 -0.018888412 0.017774038 0.030956982 -0.04005345 -0.017644988 -0.004903838 0.027831838
0.011815868 0.011128953 0.021852054 0.007402585 -0.04032385 0.037696403 -0.004746312 -0.035611313
-0.007688436 -0.032843884 -0.004539012 0.0043010307 -0.036266364 0.024746075 -0.016101697 -0.024152867
0.048585355 0.04857775 0.030412745 -0.009061794 0.003908299 0.004831694 0.052609216 -0.046827592
-0.1066202 0.0768795 0.0061652255 -0.0032098799 -0.0184677 0.03369351 0.02667302 0.029635575
0.0006021279 -0.0016635903 0.053539306 0.021072265 0.015103711 0.06685076 0.07920535 -0.0037891658
0.018221823 0.01643731 0.06385211 -0.009975322 -0.0029575168 0.053841125 0.038025316 0.015972773
00000000: e530 543d b7d4 e13a 7258 493c e9fb 8cb9
00000010: d67f 333c 7d19 243d f46c 3a3c a66d b8bc
00000020: 4e85 443d dfbb 9abc dc9a 913c 7f99 fd3c
00000030: 160f 24bd 398c 90bc 60b0 a0bb 98ff e33c
00000040: 5897 413c 3656 363c 1403 b33c 6291 f23b
00000050: 9f2a 25bd 8b67 1a3d f386 9bbb 2bdd 11bd
00000060: 47ef fbbb 4f87 06bd febb 94bb a9ef 8c3b
00000070: 0a8c 14bd 48b8 ca3c b5e7 83bc 3cdc c5bc
00000080: 7001 473d 76f9 463d 2624 f93c eb77 14bc
00000090: 3011 803b 3053 9e3b c37c 573d 4ace 3fbd
000000a0: b15b dabd 0073 9d3d a905 ca3b d95c 52bb
000000b0: 9349 97bc 3502 0a3d 6181 da3c 4ec6 f23c
000000c0: 1fd8 1d3a d40c daba 084c 5b3d be9f ac3c
000000d0: 8e75 773c 0de9 883d 6a36 a23d a753 78bb
000000e0: ef45 953c 8aa7 863c e5c4 823d 886f 23bc
000000f0: e6d2 41bb 8388 5c3d 6fc0 1b3d 55d9 823c

network_body._body_endoder.seq_layers.2.weight f4 [64, 64]
-0.1962705 0.12909287 -0.3843103 -0.3166465 -0.26214465 -0.14643283 -0.090692244 -0.10931122
0.108729444 -0.3329585 0.06782633 -0.053881474 -0.14857814 -0.08036547 -0.23419149 -0.04572549
0.1578538 -0.23453678 -0.017728683 -0.048272014 -0.018077591 -0.23151971 -0.13000636 -0.16891725
-0.040835526 -0.17058058 -0.24328128 -0.2613443 -0.21856184 0.07850831 -0.2871357 -0.33174047
0.13966936 -0.33314145 0.016601592 0.014683938 0.10254177 0.014789981 -0.29566845 0.020749534
-0.12893587 -0.22778592 -0.13067934 -0.0017788204 0.03909425 -0.16435407 0.044311777 0.20612569
-0.076982155 0.08352711 0.0067359684 -0.17874123 -0.09358077 -0.13278118 -0.1795514 -0.011850093
0.15054068 0.022408554 -0.07699429 -0.037271343 -0.11850612 -0.069348596 -0.299236 -0.18019457
0.07716641 -0.09625565 -0.022127388 0.122690514 -0.12684904 0.082380064 -0.04229385 -0.10645453
-0.10204477 -0.069058076 -0.19874334 -0.03342894 0.022660356 0.050776787 -0.051293623 0.058137503
-0.1827725 -0.3219358 -0.082715504 -0.058119938 0.20108716 -0.10661741 0.12590611 -0.21947584
-0.18491761 -0.103034504 0.03134159 0.16946568 -0.14979887 -0.1302399 -0.36776388 -0.20435981
-0.045555837 0.10924348 -0.055750184 -0.07315156 -0.058690146 0.19110274 -0.14569986 0.0503674
-0.24472691 -0.09066438 0.07463345 -0.22602606 -0.15615211 -0.36908296 -0.043063637 -0.09056784
-0.34778574 -0.07523627 0.37502167 0.009655835 -0.10140496 -0.42102122 0.20819604 -0.14872465
0.028455239 -0.08424174 0.13977253 -0.25782824 -0.15745455 -0.019706355 -0.2869806 -0.24274912
0.018098585 -0.116243094 -0.11711827 0.10450779 0.18862319 -0.49837148 -0.057874843 0.0395561
0.024732178 0.17256074 -0.26261482 0.15386645 0.16410927 0.09687803 0.09539588 -0.1159105
-0.056592293 0.35956597 0.019678108 0.09373285 0.3247578 -0.018845377 -0.24287333 0.044327527
0.30797318 0.03511864 -0.026424717 -0.08754957 0.16405246 -0.19460909 -0.25069585 0.013132199
0.0008607331 -0.19922625 -0.014758695 -0.021812333 0.30345705 0.026550584 -0.121601 -0.13039365
0.12613185 -0.33616844 0.27284226 -0.06950797 -0.214398 -0.18455404 -0.025965834 -0.05034046
-0.19661275 0.02048054 -0.24124326 0.010661052 0.25559208 0.0018586017 0.26470184 -0.18094991
0.17310828 -0.12775841 -0.27847707 0.2150105 0.06307424 0.23415823 -0.27361318 -0.033426523
-0.04017029 -0.18500648 -0.21212879 -0.21210079 -0.051699746 -0.29511955 0.13918655 0.23213975
0.08714828 0.036287215 0.05608377 0.10519625 0.22198382 -0.098993056 -0.25886244 -0.0873399
-0.11732448 -0.2168212 0.24371128 0.08549421 0.13593532 -0.10390292 -0.06938302 0.25273624
0.10593543 -0.26051736 -0.06373594 -0.08778149 0.1054269 -0.15626049 -0.11914076 0.07271814
0.0345563 -0.34877062 -0.30721164 -0.07338026 0.10952238 0.13897039 0.08381874 0.11296572
0.14529242 0.15412538 0.14189018 0.03380268 0.22208148 0.30177665 0.050682217 -0.0069321804
0.28903756 0.18073852 -0.14538284 0.0350411 0.0021880143 0.05864804 -0.18363528 0.007396235
-0.20497006 0.2729005 -0.015661487 -0.06638139 -0.19815148 0.08299198 0.15823261 -0.09440567
00000000: 22fb 48be ec30 043e 52c4 c4be 7d1f a2be
00000010: d337 86be 7df2 15be dbbc b9bd 90de dfbd
00000020: 8bad de3d 8979 aabe 88e8 8a3d d2b2 5cbd
00000030: de24 18be a796 a4bd e5cf 6fbe a74a 3bbd
00000040: 6da4 213e 692a 70be be3b 91bc e0b8 45bd
00000050: 7517 94bc 8113 6dbe 6320 05be a5f8 2cbe
00000060: 2743 27bd adac 2ebe ba1e 79be ecce 85be
00000070: adce 5fbe f7c8 a03d 7303 93be e3d9 a9be
00000080: 7c05 0f3e 8491 aabe 1000 883c e694 703c
00000090: 6b01 d23d ad51 723c db61 97be edfa a93c
000000a0: c407 04be b640 69be ced0 05be 4f27 e9ba
000000b0: 4b21 203d 6f4c 28be 4480 353d 9d12 533e
000000c0: d2a8 9dbd 4310 ab3d 66b9 dc3b f107 37be
000000d0: 46a7 bfbd caf7 07be 52dc 37be e426 42bc
000000e0: 5627 1a3e 2592 b73c 2faf 9dbd d6a9 18bd
000000f0: 56b3 f2bd a306 8ebd 7635 99be ed84 38be
00000100: 6c09 9e3d af21 c5bd 7f44 b5bc 2a45 fb3d
00000110: b7e4 01be e1b6 a83d 513c 2dbd d504 dabd
00000120: d9fc d0bd 526e 8dbd 6083 4bbe c9ec 08bd
00000130: 36a2 b93c 52fb 4f3d 4319 52bd 9721 6e3d
00000140: b728 3bbe c5d4 a4be bf66 a9bd 2c0f 6ebd
00000150: cbe9 4d3e 3b5a dabd 88ed 003e 46be 60be
00000160: 0b5b 3dbe c103 d3bd 0a60 003d 6988 2d3e
00000170: e064 19be 9c5d 05be 8c4b bcbe b343 51be
00000180: c298 3abd 0cbb df3d 4e5a 64bd 7cd0 95bd
00000190: 1465 70bd 70b0 433e 5832 15be 0c4e 4e3d
000001a0: b199 7abe 3fae b9bd 6cd9 983d 6073 67be
000001b0: 57e6 1fbe 71f8 bcbe 7f63 30bd a27b b9bd
000001c0: f910 b2be 7915 9abd d702 c03e 8233 1e3c
000001d0: 67ad cfbd 1890 d7be 5831 553e 464b 18be
000001e0: f61a e93c ef86 acbd 8820 0f3e 1002 84be
000001f0: c43b 21be 396f a1bc 1fef 92be 3a93 78be
00000200: 7c43 943c dc10 eebd b4db efbd 2e08 d63d
00000210: 7026 413e 8c2a ffbe 2c0e 6dbd 9405 223d
00000220: 239b ca3c c3b3 303e 7375 86be 2b8f 1d3e
00000230: 430c 283e fd67 c63d ea5e c33d 7c62 edbd
00000240: 52cd 67bd 0819 b83e fc33 a13c 02f7 bf3d
00000250: a846 a63e 9f61 9abc c9b3 78be c890 353d
00000260: a9ae 9d3e 90d8 0f3d a678 d8bc 304d b3bd
00000270: 5efd 273e 9b47 47be 355b 80be 6f28 573c
00000280: d2a2 613a f701 4cbe 74ce 71bc c7af b2bc
00000290: b95e 9b3e 9c80 d93c f209 f9bd ea85 05be
000002a0: b528 013e 451e acbe fbb1 8b3e 325a 8ebd
000002b0: 268b 5bbe bcfb 3cbe 4db6 d4bc cc31 4ebd
000002c0: da54 49be cec6 a73c 7908 77be b1ab 2e3c
000002d0: f7dc 823e 539c f33a 0087 873e ef4a 39be
000002e0: 4c43 313e 1ad3 02be 8c94 8ebe b62b 5c3e
000002f0: 112d 813d 2dc7 6f3e 0717 8cbe 40ea 08bd
00000300: 9a89 24bd 5772 3dbe 4a38 59be f330 59be
00000310: 1dc3 53bd e919 97be eb86 0e3e 0bb6 6d3e
00000320: cc7a b23d e7a1 143d 18b8 653d 2271 d73d
00000330: ba4f 633e dfbc cabd 9e89 84be 43df b2bd
00000340: d147 f0bd 6006 5ebe 738f 793e 9717 af3d
00000350: a132 0b3e 0ecb d4bd af18 8ebd a566 813e
00000360: adf4 d83d 8862 85be fd87 82bd c8c6 b3bd
00000370: 0fea d73d c002 20be 1200 f4bd 40ed 943d
00000380: e88a 0d3d 1092 b2be d84a 9dbe 6448 96bd
00000390: 454d e03d 414e 0e3e 29a9 ab3d 925a e73d
000003a0: 89c7 143e 0bd3 1d3e a94b 113e ae74 0a3d
000003b0: 5469 633e 7882 9a3e 2898 4f3d 5827 e3bb
000003c0: bbfc 933e 8513 393e 3ddf 14be 4287 0f3d
000003d0: ca64 0f3b ed38 703d e30a 3cbe 1e5c f23b
000003e0: ace3 51be 9db9 8b3e 854c 80bc f7f2 87bd
000003f0: 39e8 4abe b3f7 a93d bb07 223e c357 c1bd

network_body._body_endoder.seq_layers.2.bias f4 [64]
-0.05559358 -0.049029164 0.031472173 0.020935023 0.005938232 0.02273192 -0.0660459 0.007995046
0.0056734155 -0.012110951 -0.04421444 0.029658359 -0.031966902 -0.043333035 0.017962174 0.057218492
-0.09299586 0.015383256 -0.010181742 0.027235614 0.0147008505 0.015821543 0.061991412 -0.0020209327
0.008055597 0.0027071286 0.020939494 0.039217003 -0.046156567 0.04260152 -0.046866253 0.044050906
-0.027270535 -0.0043156627 0.014612259 0.010595703 0.019025562 0.077159174 0.007977807 0.052376032
0.010495678 0.041233875 -0.037895612 -0.048350755 0.044338647 -0.04811112 -0.03634209 0.0072217933
0.032643054 -0.0015056699 -0.011682951 0.033210345 -0.027053375 0.0670419 -0.06652459 0.007377428
0.064702906 0.067938104 0.025140455 0.029130885 0.005543975 0.0730942 0.032545976 -0.049320422
00000000: 18b6 63bd ced2 48bd f7e8 003d ed7f ab3c
00000010: 8095 c23b 4b38 ba3c 1343 87bd a7fd 023c
00000020: 0fe8 b93b 036d 46bc 331a 35bd 16f6 f23c
00000030: baef 02bd fb7d 31bd 6925 933c f05d 6a3d
00000040: 9d74 bebd 0d0a 7c3c 52d1 26bc 391d df3c
00000050: d6db 703c 2e9c 813c b5ea 7d3d a071 04bb
00000060: 9ffb 033c 156a 313b 4d89 ab3c 02a2 203d
00000070: ab0e 3dbd ee7e 2e3d d4f6 3fbd b96e 343d
00000080: 7566 dfbc 676a 8dbb 4268 6f3c 9999 2d3c
00000090: 7fdb 9b3c a105 9e3d 59b5 023c 4088 563d
000000a0: 10f6 2b3c dae4 283d 6e38 1bbd 710b 46bd
000000b0: 719c 353d 2a10 45bd 72db 14bd cba4 ec3b
000000c0: b9b4 053d e659 c5ba d969 3fbc 9207 083d
000000d0: 0a9f ddbc 434d 893d 0b3e 88bd 5abe f13b
000000e0: f582 843d 2223 8b3d 5bf3 cd3c e5a3 ee3c
000000f0: 3caa b53b 69b2 953d ee4e 053d 3604 4abd

network_body._body_endoder.seq_layers.4.weight f4 [64, 64]
-0.20722593 -0.043668613 -0.28011158 -0.09990903 -0.065745324 0.2513053 0.0774421 0.19293521
-0.037443828 -0.24758817 0.3191702 0.024626007 -0.11961684 0.27925876 -0.02151331 -0.1714047
0.03600207 -0.14267196 -0.023907091 -0.0020920075 -0.039359197 -0.049623214 -0.07418796 -0.2022034
0.13966101 0.1093127 -0.07545631 -0.0395664 -0.008149072 -0.16849044 -0.036012094 -0.13320158
0.09558424 0.023254683 0.19858226 -0.19547136 0.011293274 -0.32744804 0.25174686 -0.25185478
0.15584375 -0.18449678 -0.006690053 0.37313622 0.08904172 0.009496528 0.05840227 0.14936864
0.14163378 0.25378728 -0.043708105 -0.21246672 0.14748555 -0.045690518 -0.14509645 0.07294149
-0.044287395 0.003474361 -0.034042507 -0.0070731128 0.12808111 0.12484892 -0.07261937 -0.30307338
-0.14600706 0.06332691 0.0779589 -0.16570322 0.07398873 -0.2571722 0.3790885 0.11295543
-0.17282495 -0.3341564 -0.011644721 -0.15232246 0.06486647 0.07234638 0.09740452 -0.090536
-0.0490504 0.201055 -0.015674386 -0.054586776 -0.16472363 -0.12684509 -0.1901203 -0.013396425
-0.2995828 0.10031273 0.24435142 0.2436959 0.2926053 -0.48509362 0.14298193 0.05741853
-0.3525971 0.038810857 -0.12560512 0.07692247 0.06099261 0.07827528 -0.15157582 0.13758321
-0.19220804 -0.22195488 -0.17895943 -0.09542631 -0.12967786 0.11731731 -0.09498379 -0.2195411
0.10798356 0.16530497 0.10937194 0.12328151 -0.22244796 0.1379318 -0.17462014 0.29688966
0.071739 0.15470852 -0.3011697 -0.08991043 -0.19093971 -0.018946527 0.13266446 0.065625615
0.09180825 0.16533318 0.351517 -0.0883886 -0.1538564 0.03758282 -0.0017544527 -0.11627481
-0.03956737 -0.060308184 0.014472635 0.02209537 -0.21671988 0.026607374 0.044366043 -0.08542615
0.032505434 0.013452245 -0.16497046 -0.26032147 -0.22594847 0.1266947 0.16145258 0.080952056
0.27260903 -0.04176606 0.12532915 0.07462628 -0.27796164 0.15967803 0.20709753 -0.35659048
-0.22572555 -0.014289709 -0.009704726 -0.033065323 -0.030762747 0.18873644 0.100609355 -0.25345868
0.021377414 0.042291045 -0.06007334 -0.14160268 -0.054279808 -0.15788841 0.027526522 -0.287235
-0.017056093 -0.039364412 0.16039203 -0.15840481 -0.054248814 -0.18072645 0.115715325 0.061248444
-0.08766244 0.010332736 -0.26137573 -0.008005656 -0.051338006 0.0511455 0.024802133 0.22342932
0.10819433 -0.014259447 0.30842176 0.031026635 -0.14560486 -0.1987769 -0.031877037 -0.07521896
-0.052075565 0.23462798 -0.19100942 -0.12385684 -0.25294232 -0.005962584 0.07923317 0.3518396
-0.09197558 -0.2171713 -0.020469388 -0.30996493 0.08035724 -0.19305795 -0.11596368 0.010372127
-0.046673637 0.1735728 -0.0070096836 0.021108583 0.15200017 0.21496817 0.018384092 -0.11303574
0.22824061 0.19559427 -0.18754603 0.045734297 -0.113613784 -0.27127087 0.15292776 0.0064105806
-0.07393804 -0.17283852 0.26555058 -0.21211927 -0.10493862 0.10108001 0.14327776 -0.060708757
-0.10086978 0.013766905 0.02184291 -0.039779656 0.23328331 0.2615292 -0.086787395 0.019870773
-0.31629753 0.021344727 -0.25156307 0.044708665 0.18992367 0.14988326 -0.0093517015 0.2565099
00000000: 0933 54be dcdd 32bd c96a 8fbe 1b9d ccbd
00000010: 7ca5 86bd 17ab 803e f799 9e3d cf90 453e
00000020: b35e 19bd c187 7dbe 476a a33e 7bbc c93c
00000030: acf9 f4bd 01fb 8e3e ae3c b0bc b784 2fbe
00000040: e876 133d 9918 12be ced8 c3bc 101a 09bb
00000050: 1c37 21bd b641 4bbd dbef 97bd 680e 4fbe
00000060: 4c03 0f3e 56df df3d d688 9abd 6110 22bd
00000070: af83 05bc c288 2cbe 6b81 13bd ff65 08be
00000080: acc1 c33d 9b80 be3c 2659 4b3e a529 48be
00000090: 6d07 393c 45a7 a7be f7e4 803e 1cf3 80be
000000a0: 8195 1f3e b9ec 3cbe 3b38 dbbb b60b bf3e
000000b0: 815b b63d 5397 1b3c 3837 6f3d 18f4 183e
000000c0: 7208 113e 68f0 813e 4507 33bd e090 59be
000000d0: 7406 173e fb25 3bbd 2a94 14be 5962 953d
000000e0: b366 35bd 1bb2 633b 2870 0bbd 92c5 e7bb
000000f0: b227 033e cab0 ff3d 77b9 94bd 6f2c 9bbe
00000100: e082 15be 8ab1 813d eaa8 9f3d 1bae 29be
00000110: 6787 973d 13ac 83be e317 c23e 2d55 e73d
00000120: 06f9 30be 8c16 abbe 80c9 3ebc 6bfa 1bbe
00000130: b6d8 843d 572a 943d 057c c73d f06a b9bd
00000140: 12e9 48bd 5de1 4d3e 9267 80bc 6296 5fbd
00000150: 50ad 28be aee3 01be e5ae 42be ae7c 5bbc
00000160: eb62 99be c370 cd3d 4237 7a3e 6b8b 793e
00000170: 5dd0 953e 315e f8be db69 123e b12f 6b3d
00000180: 9b87 b4be 22f8 1e3d a19e 00be 8789 9d3d
00000190: 63d3 793d ca4e a03d b136 1bbe 9de2 0c3e
000001a0: 2fd2 44be 2448 63be 2441 37be df6e c3bd
000001b0: 46ca 04be 0f44 f03d dc86 c2bd 62cf 60be
000001c0: 7c26 dd3d b545 293e 65fe df3d 047b fc3d
000001d0: 66c9 63be fe3d 0d3e 9fcf 32be ec01 983e
000001e0: e6eb 923d e96b 1e3e ea32 9abe f622 b8bd
000001f0: b385 43be bf35 9bbc 31d9 073e b966 863d
00000200: f705 bc3d 1a4d 293e 09fa b33e 1505 b5bd
00000210: 888c 1dbe 71f0 193d aaf5 e5ba 7d21 eebd
00000220: 6511 22bd b705 77bd a21e 6d3c 5901 b53c
00000230: d1eb 5dbe b5f7 d93c 2bb9 353d e8f3 aebd
00000240: 6b24 053d ce66 5c3c 04ee 28be db48 85be
00000250: 095f 67be 41bc 013e d353 253e 31ca a53d
00000260: 6993 8b3e e312 2bbd 4956 003e aad5 983d
00000270: fd50 8ebe a382 233e 6011 543e 0793 b6be
00000280: 9924 67be 621f 6abc 9200 1fbc 816f 07bd
00000290: 2802 fcbc 2044 413e 470c ce3d 56c5 81be
000002a0: b01f af3c 6039 2d3d 760f 76bd 4b00 11be
000002b0: 8154 5ebd 80ad 21be 4d7f e13c 7710 93be
000002c0: 38b9 8bbc 943c 21bd cf3d 243e df34 22be
000002d0: 0134 5ebd 5b10 39be 28fc ec3d a6df 7a3d
000002e0: 5e88 b3bd a34a 293c 0ad3 85be 282a 03bc
000002f0: cd47 52bd f27d 513d d82d cb3c a8ca 643e
00000300: fd94 dd3d 75a0 69bc 75e9 9d3e 922b fe3c
00000310: 7119 15be 2c8c 4bbe 7f91 02bd 660c 9abd
00000320: 304d 55bd 5142 703e f997 43be a8a8 fdbd
00000330: a881 81be c861 c3bb 0045 a23d 5224 b43e
00000340: b15d bcbd 2762 5ebe 6baf a7bc b9b3 9ebe
00000350: 5692 a43d fcb0 45be 5e7e edbd dbef 293c
00000360: db2c 3fbd 11bd 313e 7db1 e5bb e8eb ac3c
00000370: efa5 1b3e 9e20 5c3e 3c9a 963c 487f e7bd
00000380: e8b7 693e dd49 483e 110c 40be e353 3b3d
00000390: 58ae e8bd 04e4 8abe 1899 1c3e d90f d23b
000003a0: d46c 97bd 95fc 30be 3ff6 873e cb35 59be
000003b0: 0fea d6bd 0903 cf3d 68b7 123e bfa9 78bd
000003c0: d194 cebd 968e 613c e7ef b23c feef 22bd
000003d0: d2e1 6e3e 28e7 853e 97bd b1bd 08c8 a23c
000003e0: c0f1 a1be 23db ae3c e0cc 80be 6f20 373d
000003f0: 5a7b 423e ff7a 193e e137 19bc 4455 833e

network_body._body_endoder.seq_layers.4.bias f4 [64]
0.025579728 0.031373255 -0.034904696 0.033890154 -0.0059031164 0.089038394 0.06519193 0.046497818
0.02170804 -0.013141576 -0.006236203 0.040722918 0.06823247 0.06631182 -0.01595465 -0.010940003
0.06522653 0.025547558 0.11331394 0.020076554 0.09834635 0.047139104 0.021724438 0.016430179
-0.050775975 0.03727151 -0.035672758 0.043587435 0.0051909178 0.06848865 0.10965259 0.03230913
0.061425153 0.050743144 0.028855562 0.019251812 0.011911884 -0.071413785 -0.022004839 -0.019451581
0.10566198 0.024927814 0.053313468 0.036289092 0.019825455 0.051773995 0.0029052217 0.0052601914
0.01409507 0.074563086 0.056569178 0.097618215 0.02371638 -0.0010955638 0.040835638 -0.051495098
-0.014797885 -0.06422212 0.10201685 0.07528164 0.018381072 -0.038021985 -0.009592273 0.00043652448
00000000: 948c d13c 3e81 003d 3af8 0ebd 67d0 0a3d
00000010: ee6e c1bb c359 b63d 5983 853d 7f74 3e3d
00000020: 0fd5 b13c c44f 57bc 1059 ccbb 13cd 263d
00000030: 77bd 8b3d 7ece 873d 53b3 82bc b33d 33bc
00000040: 7d95 853d 1d49 d13c 2411 e83d 9677 a43c
00000050: d069 c93d ef14 413d 73f7 b13c 9598 863c
00000060: 78fa 4fbd 03aa 183d 991d 12bd bd88 323d
00000070: 9318 aa3b c743 8c3d 8991 e03d 9456 043d
00000080: f198 7b3d 0bd8 4f3d 8062 ec3c fab5 9d3c
00000090: 102a 433c 6441 92bd 7e43 b4bc ec58 9fbc
000000a0: 4f65 d83d 6a35 cc3c 395f 5a3d dfa3 143d
000000b0: fe68 a23c f810 543d 8865 3e3b af5d ac3b
000000c0: 02ef 663c 88b4 983d 15b5 673d 0fec c73d
000000d0: db48 c23c 0599 8fba 4543 273d 86ec 52bd
000000e0: d472 72bc e386 83bd 36ee d03d 432d 9a3d
000000f0: e793 963c f1bc 1bbd e928 1dbc 53dd e439

action_model._continuous_distribution.log_sigma f4 [1, 44]
0.32606372 0.21144117 0.0907122 0.16519985 -0.16765192 0.1129223 0.31680876 0.19795732
0.22563292 0.13336438 -0.395796 -0.0061515276 0.031429928 -0.22861578 0.109376 -0.17007428
0.11938894 -0.09351981 -0.15259308 -0.33870524 0.051390592 0.039090518 0.031724334 0.19898996
0.16662215 -0.16679426 0.05114451 -0.27717727 -0.19250889 -0.021364534 -0.0077421595 -0.21833037
-0.35202077 -0.36375913 -0.33912003 -0.21198234 0.44737288 0.19924268 -0.14202644 0.27765554
-0.050449394 0.2788805 0.26842025 -0.1122637
00000000: d3f1 a63e 0984 583e 51c7 b93d 262a 293e
00000010: f2ac 2bbe cf43 e73d c234 a23e 53b5 4a3e
00000020: 510c 673e ac90 083e c6a5 cabe c192 c9bb
00000030: abbc 003d 411a 6abe 8600 e03d f427 2ebe
00000040: 3082 f43d 5087 bfbd 5c41 1cbe c66a adbe
00000050: f17e 523d 611d 203d 60f1 013d 06c4 4b3e
00000060: ff9e 2a3e 1dcc 2abe e87c 513d 2eea 8dbe
00000070: 0d21 45be ad04 afbc f1b1 fdbb ff91 5fbe
00000080: 113c b4be a33e babe 24a1 adbe e611 59be
00000090: 0f0e e53e 4606 4c3e 616f 11be de28 8e3e
000000a0: 06a4 4ebd 6dc9 8e3e 616e 893e 83ea e5bd

action_model._continuous_distribution.mu.weight f4 [44, 64]
-0.041604523 0.032081008 0.07128356 -0.15745015 -0.08416861 0.08504203 -0.00046553035 0.03466723
0.1112564 -0.13615057 0.0017995656 -0.15561898 -0.025025235 -0.048486523 -0.24686965 0.08114668
-0.17212425 0.025477087 -0.04553666 -0.17680226 -0.059936654 0.0935563 0.072257705 -0.012784586
-0.18880996 0.17695959 -0.20629904 0.020103073 -0.016212674 -0.06451945 0.2818053 -0.060094077
0.09241409 0.15035452 0.016245967 -0.15683511 -0.11737969 0.059955742 -0.030044677 0.1090135
-0.02909344 0.0893405 -0.08373483 0.17497298 -0.0024897289 0.2420077 -0.010587234 0.029059494
-0.014844895 0.026483297 0.045878462 0.16046064 0.022603849 -0.055403605 -0.044861462 0.056128856
-0.06888659 -0.09839721 0.23220766 -0.13106905 -0.07130644 -0.21055442 -0.11542022 -0.036449134
0.040322527 -0.053617343 -0.0077878768 0.025671657 -0.08496437 0.13420138 0.15693483 -0.12080755
0.13369596 -0.021052642 0.049834456 -0.15560052 -0.0771676 0.18171264 0.049808506 0.12839055
-0.13085741 0.08412363 -0.06409112 -0.054908674 -0.0843439 -0.14687143 -0.006470674 0.04301275
0.0038687193 0.15954079 0.087498896 0.17763795 0.041516196 -0.007521718 0.009821111 -0.07743161
0.027239298 -0.100275695 0.07625553 0.061111115 -0.09838398 -0.09710992 0.10678103 0.15303838
-0.051535714 0.09767239 -0.10906105 0.098890126 -0.07568751 0.16029935 -0.02803066 0.096131995
0.081705414 0.096781455 -0.15005277 0.23733273 -0.029638393 -0.092143476 0.19313376 -0.14369123
-0.13864802 -0.036627248 -0.21354303 -0.02595169 -0.056812834 -0.043802563 -0.010153699 -0.11121455
0.061660215 0.16045909 -0.026222337 -0.010393676 0.23153132 0.0075031626 0.018852675 0.21902838
0.1112577 -0.05342126 0.08145661 0.07207383 -0.23106498 -0.053142432 -0.05681052 -0.097945936
0.07989003 0.0015598886 -0.07891705 -0.07178423 -0.035699274 -0.022537714 0.07446685 -0.11861126
0.18089175 -0.0511373 0.12446558 -0.007253641 0.026188504 0.076913 0.09511894 -0.035669446
0.2451812 -0.12947325 0.05200593 -0.0061280616 -0.06271379 0.098356314 0.1009658 0.05241224
-0.14649405 -0.04762932 -0.08625142 0.027364131 -0.010509624 0.03412952 0.21045984 -0.055661753
-0.20611288 0.13504075 0.03443607 -0.15951414 0.07710271 -0.15585335 -0.18347546 0.077380665
0.17894527 0.15773022 0.074326225 -0.0698819 -0.0888808 0.22615969 -0.053000133 0.016659295
0.026501885 0.22803669 0.062696 0.0064741364 -0.16295123 0.16489157 0.10814111 0.00456928
0.103833005 0.117296934 0.020670285 0.025686717 0.14649907 0.13600919 -0.010031081 0.047193956
0.026810534 -0.01737093 -0.052395586 -0.08527014 0.037509214 -0.057519566 -0.05959685 0.12256771
-0.1194135 0.0065144515 -0.14689605 0.017992334 0.03609385 -0.0149146905 0.091051556 -0.013368885
-0.121466324 0.13806196 -0.23495628 0.09257012 -0.052020475 0.1081502 -0.14465018 0.016251396
0.05898988 -0.039404836 0.058094442 0.13654837 -0.07056186 0.035692804 -0.13326815 0.11403593
-0.090545855 0.1188221 0.09061777 0.064621046 -0.1397881 0.030688673 0.10536773 -0.15823272
0.09044638 -0.21537347 -0.030147497 -0.1583592 -0.18445858 -0.020063832 -0.0060750595 0.060404938
00000000: 8169 2abd 6067 033d 1dfd 913d 9d3a 21be
00000010: 9860 acbd 842a ae3d 6d12 f4b9 3aff 0d3d
00000020: 65da e33d 0e6b 0bbe 67df eb3a 955a 1fbe
00000030: b901 cdbc ce99 46bd 66cb 7cbe 3b30 a63d
00000040: 5741 30be 53b5 d03c a684 3abd a70b 35be
00000050: 2380 75bd 729a bf3d d9fb 933d 7176 51bc
00000060: 6657 41be e534 353e 0e40 53be 33af a43c
00000070: 71d0 84bc c622 84bd c948 903e 3525 76bd
00000080: 9943 bd3d 89f6 193e 4316 853c 6299 20be
00000090: c364 f0bd 2794 753d 4120 f6bc 7842 df3d
000000a0: 5e55 eebc 27f8 b63d 2b7d abbd 1e2c 333e
000000b0: b82a 23bb ded0 773e 1476 2dbc 2d0e ee3c
000000c0: 0138 73bc 80f3 d83c 0eeb 3b3d cb4f 243e
000000d0: b52b b93c e4ee 62bd a7c0 37bd 5fe7 653d
000000e0: 6a14 8dbd 7a84 c9bd d8c7 6d3e f736 06be
000000f0: 1c09 92bd 949b 57be 7061 ecbd b04b 15bd
00000100: 3c29 253d dc9d 5bbd 7231 ffbb 5e4d d23c
00000110: cd01 aebd 166c 093e 86b3 203e f369 f7bd
00000120: 98e7 083e 9776 acbc 371f 4c3d be55 1fbe
00000130: 0c0a 9ebd e112 3a3e 0104 4c3d d078 033e
00000140: 7cff 05be 0249 ac3d 3542 83bd ebe7 60bd
00000150: 7fbc acbd 7765 16be f307 d4bb 232e 303d
00000160: 578a 7d3b a95e 233e 9f32 b33d b9e6 353e
00000170: e30c 2a3d be78 f6bb bae8 203c 7794 9ebd
00000180: f324 df3c 585d cdbd dc2b 9c3d a64f 7a3d
00000190: 8a7d c9bd 91e1 c6bd 03b0 da3d 18b6 1c3e
000001a0: 1d17 53bd 7608 c83d 665b dfbd e886 ca3d
000001b0: 0e02 9bbd 8325 243e 8ea0 e5bc dae0 c43d
000001c0: 2b55 a73d 5b35 c63d 6fa7 19be 5a07 733e
000001d0: 37cc f2bc b8b5 bcbd dbc4 453e cb23 13be
000001e0: bff9 0dbe 7406 16bd 06ab 5abe a398 d4bc
000001f0: 93b4 68bd 516a 33bd b35b 26bc 74c4 e3bd
00000200: 6c8f 7c3d 634f 243e 3ad0 d6bc 3d4a 2abc
00000210: 8c16 6d3e 17dd f53b ed70 9a3c fa48 603e
00000220: 14db e33d 40d0 5abd b9d2 a63d 729b 933d
00000230: 4c9c 6cbe e1ab 59bd 26b2 68bd e197 c8bd
00000240: 629d a33d 2d75 cc3a 439f a1bd 9c03 93bd
00000250: 6739 12bd 03a1 b8bc 1382 983d 76ea f2bd
00000260: b03b 393e 5875 51bd cfe7 fe3d f3af edbb
00000270: 4689 d63c 9084 9d3d b8cd c23d 201a 12bd
00000280: c810 7b3e a394 04be 2c04 553d e8cd c8bb
00000290: 1670 80bd 096f c93d 28c7 ce3d 38ae 563d
000002a0: 8902 16be f616 43bd 96a4 b0bd be2a e03c
000002b0: 8f30 2cbc 65cb 0b3d c982 573e 94fd 63bd
000002c0: 410f 53be 1f48 0a3e d60c 0d3d ad57 23be
000002d0: 07e8 9d3d 0598 1fbe fee0 3bbe c179 9e3d
000002e0: 6e3d 373e 0884 213e 5938 983d 3e1e 8fbd
000002f0: 2307 b6bd 6896 673e ab16 59bd 1379 883c
00000300: 7b1a d93c 7382 693e c366 803d fe24 d43b
00000310: b0dc 26be 56d9 283e 1679 dd3d e6b9 953b
00000320: 66a6 d43d 6039 f03d bb54 a93c f36c d23c
00000330: da03 163e fe45 0b3e 6759 24bc 734e 413d
00000340: c4a1 db3c 7b4d 8ebc c19c 56bd 1ca2 aebd
00000350: 43a3 193d a399 6bbd d41b 74bd c804 fb3d
00000360: 118f f4bd 2e77 d53b eb6b 16be a964 933c
00000370: 25d7 133d bf5c 74bc 3d79 ba3d 2b09 5bbc
00000380: 56c3 f8bd 1d60 0d3e 6198 70be 6795 bd3d
00000390: 6c13 55bd da7d dd3d 2d1f 14be a621 853c
000003a0: 5f9f 713d f766 21bd 70f4 6d3d 56d3 0b3e
000003b0: bd82 90bd 9e32 123d 7277 08be ab8b e93d
000003c0: 1b70 b9bd 0059 f33d cf95 b93d 0a58 843d
000003d0: 9d24 0fbe d066 fb3c 09cb d73d c207 22be
000003e0: f43b b93d dd8a 5cbe e2f7 f6bc ea28 22be
000003f0: b6e2 3cbe e85c a4bc 4b11 c7bb 2b6b 773d

action_model._continuous_distribution.mu.bias f4 [44]
0.052482847 -0.0060950383 -0.053609 0.12669669 0.077403255 0.02867836 -0.009035111 0.077166595
0.09811312 -0.049707923 -0.044005103 0.103206046 -0.025910098 0.0866281 0.004902422 -0.052003317
-0.15415508 0.014308798 -0.086583175 0.1151963 -0.06841485 -0.026014505 -0.087688915 0.0029501342
-0.03259439 0.020553354 -0.17987923 -0.042373776 -0.022122243 -0.09574174 0.03918157 -0.012291224
-0.009018803 -0.013974996 0.020718014 -0.023878725 0.12622435 -0.057771064 0.023744505 -0.009284255
0.02609705 -0.0042365687 -0.115053624 -0.026868436
00000000: 41f8 563d e3b8 c7bb 1c95 5bbd c7bc 013e
00000010: 9985 9e3d e1ee ea3c 0108 14bc 8509 9e3d
00000020: 88ef c83d 899a 4bbd b23e 34bd b15d d33d
00000030: 6a41 d4bc 136a b13d 7fa4 a03b 6e01 55bd
00000040: d4da 1dbe 736f 6a3c 8552 b1bd 0aec eb3d
00000050: 161d 8cbd 5f1c d5bc 3f96 b3bd 0a57 413b
00000060: b281 05bd 825f a83c 4332 38be 2090 2dbd
00000070: b539 b5bc 3f14 c4bd db7c 203d 2161 49bc
00000080: 9ac3 13bc 62f7 64bc d3b8 a93c 519d c3bc
00000090: f540 013e 5aa1 6cbd d683 c23c fd1c 18bc
000000a0: 7bc9 d53c ead2 8abb 3ca1 ebbd 321b dcbc
