Notes/Versions/078colab/Files/Dynamic Table/Dynamic Table-6999994.pt (torch, 409863 bytes, 48 tensors)

network_body._body_endoder.seq_layers.0.weight f4 [64, 96]
0.20728596 -0.33781025 0.06930287 -0.07440316 -0.13448691 -0.06292297 0.09712796 0.114572175
0.26875737 0.068601474 -0.040187817 -0.048015174 -0.07751304 -0.031414565 0.21031709 -0.225816
0.22527458 -0.018454809 0.11350774 -0.13598682 -0.047474176 0.05597764 0.13416308 0.064783834
-0.050894372 -0.043112464 -0.16683537 -0.38160256 -0.37694246 -0.07411483 -0.116351366 0.02081817
0.25603297 0.08260654 -0.048265193 -0.03522696 0.029605154 -0.03059855 -0.11488725 -0.23994116
-0.42724714 -0.1018209 0.12510847 0.06969425 -0.21436039 0.018360008 0.18416381 -0.1751745
0.1574707 -0.12408494 -0.056824 -0.011282801 0.1956055 -0.033775546 -0.004149892 0.16826566
-0.008957747 0.043432772 -0.16321497 -0.14182831 -0.08279642 -0.21459793 -0.032613378 0.11671316
0.07166202 0.05374059 0.09799242 0.11226934 -0.034445096 0.12997657 -0.072870664 0.09883873
-0.1520479 -0.022087218 0.08317844 0.10867869 0.09176862 -0.14750835 0.15398753 -0.14539953
-0.16387168 0.027401997 -0.11180256 0.14329883 -0.077374175 0.01821012 -0.13817878 0.20974605
-0.018319001 0.055657078 0.17437252 0.0923216 -0.008884488 0.14246075 -0.16793494 -0.09418892
-0.1322963 -0.0039312276 -0.10714502 -0.1331209 -0.07998612 -0.09058714 -0.12900221 -0.09782556
0.04767388 0.042707514 0.02455193 0.24345946 0.10877343 0.01045619 0.10087096 -0.2784801
0.078057826 0.17061234 0.15669018 -0.21425313 -0.024719559 -0.12962194 -0.22241819 -0.39369118
0.23019381 0.039804514 -0.004028553 0.1262439 0.16041411 -0.11191431 0.013651009 -0.3397668
0.10524092 0.1248478 0.06278943 0.1584278 -0.28087792 0.0099632135 -0.0014696787 0.18986343
0.45082092 0.040749863 -0.18970752 0.19433826 -0.088321835 0.20926851 -0.112871155 -0.13508071
0.004029667 0.15299755 -0.030360628 -0.21301264 0.09575861 0.052953165 0.0097816875 0.13090156
0.019453986 -0.16895135 0.07940041 -0.16666935 -0.029243857 0.028439038 -0.07731628 0.036313314
-0.15734588 0.094145544 0.097321555 -0.09484813 -0.03973932 0.0915753 0.05039674 0.030217215
0.037645496 -0.11638052 -0.13776278 0.036236644 -0.15848812 -0.058524266 -0.009272441 -0.11125
-0.22730397 0.16050036 -0.31499913 -0.13833313 0.10810741 -0.017446024 -0.040530656 0.2094107
-0.24809036 -0.1525199 0.05101943 -0.12304991 -0.11647654 0.1205356 -0.31853616 0.05186191
0.34119916 0.09040166 -0.0927924 -0.2959796 0.016473342 0.0005919847 -0.12343761 0.10434729
-0.07820005 -0.06236988 0.054237537 -0.020180207 0.1404717 -0.02539301 -0.03786579 -0.38044068
0.026640678 -0.0363464 -0.16676114 -0.38809058 -0.3089768 -0.062044933 -0.310175 0.16972458
0.085481495 -0.008684704 0.061409276 -0.076841265 -0.011110722 -0.28269318 0.09697141 0.14953737
0.1685912 -0.14461534 0.040421974 0.15446308 0.12426998 0.071523815 -0.15757301 0.12865584
0.11060339 0.061297182 -0.0526098 -0.17494811 0.17402758 -0.04710781 -0.022647036 -0.04961906
-0.15240936 0.30856216 0.04823682 -0.16253746 0.030186864 0.13700971 -0.035927445 0.117529795
-0.21467704 -0.09803751 -0.15533537 -0.035248276 -0.030862324 -0.036508992 -0.034931686 -0.18784468
00000000: c542 543e 77f5 acbe aaee 8d3d af60 98bd
00000010: f0b6 09be c2dd 80bd 06eb c63d d1a4 ea3d
00000020: 919a 893e ee7e 8c3d fb9b 24bd 8fab 44bd
00000030: 28bf 9ebd 8fac 00bd 5d5d 573e 4f3c 67be
00000040: 61ae 663e 8a2e 97bc bf76 e83d 2140 0bbe
00000050: 4874 42bd cf48 653d 0c62 093e 63ad 843d
00000060: 9e76 50bd b296 30bd e4d6 2abe 6961 c3be
00000070: 9afe c0be 84c9 97bd a049 eebd de8a aa3c
00000080: c116 833e 9e2d a93d b9b1 45bd 254a 10bd
00000090: 8286 f23c cfa9 fabc 024a ebbd 23b3 75be
000000a0: 23c0 dabe 7a87 d0bd 6f1c 003e dcbb 8e3d
000000b0: 4a81 5bbe ba67 963c 7095 3c3e f260 33be
000000c0: 0040 213e 3f20 febd 48c0 68bd 7fdb 38bc
000000d0: cf4c 483e 3a58 0abd d1fb 87bb d54d 2c3e
000000e0: 84c3 12bc 90e6 313d d321 27be 713b 11be
000000f0: 2b91 a9bd 8fbf 5bbe 9b95 05bd 4f07 ef3d
00000100: 8ac3 923d 181f 5c3d 40b0 c83d 78ed e53d
00000110: 4d16 0dbd 9418 053e 373d 95bd f66b ca3d
00000120: 72b2 1bbe 41f0 b4bc 7559 aa3d ef92 de3d
00000130: 30f1 bb3d 6e0c 17be e8ae 1d3e 9de3 14be
00000140: facd 27be 277a e03c bef8 e4bd eebc 123e
00000150: 5a76 9ebd 642d 953c bd7e 0dbe abc7 563e
00000160: bb11 96bc adf8 633d b68e 323e 1b13 bd3d
00000170: 3e90 11bc 3be1 113e 23f7 2bbe 1fe6 c0bd
00000180: ae78 07be 87d1 80bb d96e dbbd d850 08be
00000190: c3cf a3bd c085 b9bd 2819 04be c458 c8bd
000001a0: b045 433d 13ee 2e3d 2121 c93c 704d 793e
000001b0: 9bc4 de3d 7150 2b3c 6f95 ce3d f294 8ebe
000001c0: c8dc 9f3d 00b5 2e3e 6473 203e 2c65 5bbe
000001d0: ac80 cabc 9dbb 04be 98c1 63be e491 c9be
000001e0: edb7 6b3e 0f0a 233d f401 84bb 1546 013e
000001f0: 9943 243e 5433 e5bd 7ba8 5f3c eaf5 adbe
00000200: 8d88 d73d 34b0 ff3d bf97 803d e63a 223e
00000210: 3bcf 8fbe bf3c 233c 3ca2 c0ba 8f6b 423e
00000220: 00d2 e63e 54e9 263d b042 42be 9c00 473e
00000230: 14e2 b4bd 7c4a 563e fe28 e7bd 9952 0abe
00000240: 4c0b 843b 64ab 1c3e dab6 f8bc fc1f 5abe
00000250: 171d c43d 6be5 583d 5f43 203c 0f0b 063e
00000260: f75d 9f3c 9501 2dbe af9c a23d 5fab 2abe
00000270: d090 efbc fcf8 e83c ff57 9ebd 45bd 143d
00000280: 471f 21be 61cf c03d 8650 c73d bd3f c2bd
00000290: b2c5 22bd d58b bb3d d06c 4e3d 188a f73c
000002a0: 2a32 1a3d e958 eebd b011 0dbe e06c 143d
000002b0: b64a 22be 24b7 6fbd 70eb 17bc 0ad7 e3bd
000002c0: 5fc2 68be 355a 243e 9147 a1be 33a7 0dbe
000002d0: 6b67 dd3d f7ea 8ebc 7903 26bd c26f 563e
000002e0: 660b 7ebe 2d2e 1cbe c0f9 503d 9701 fcbd
000002f0: 418b eebd 5edb f63d 2c17 a3be 276d 543d
00000300: a8b1 ae3e 8124 b93d f109 bebd a38a 97be
00000310: 1af3 863c 6c2f 1b3a dccc fcbd 08b4 d53d
00000320: 5927 a0bd 8f77 7fbd 2e28 5e3d f650 a5bc
00000330: d0d7 0f3e 0005 d0bc 2919 1bbd 1fc9 c2be
00000340: 8d3d da3c f6df 14bd 6fc3 2abe cfb3 c6be
00000350: 3532 9ebe d422 7ebd 42cf 9ebe 48cc 2d3e
00000360: ec10 af3d 4a4a 0ebc 4b88 7b3d f45e 9dbd
00000370: bf09 36bc 29bd 90be f298 c63d 5320 193e
00000380: 2ca3 2c3e 0b16 14be 8391 253d 922b 1e3e
00000390: 4281 fe3d 147b 923d d25a 21be 5bbe 033e
000003a0: 0884 e23d c112 7b3d 607d 57bd 9925 33be
000003b0: 4934 323e 1ef4 40bd 4786 b9bc 5b3d 4bbd
000003c0: 3311 1cbe dcfb 9d3e f993 453d 3870 26be
000003d0: 714a f73c 464c 0c3e a828 13bd 76b3 f03d
000003e0: 4cd4 5bbe e4c7 c8bd 3c10 1fbe 7f60 10bd
000003f0: fcd2 fcbc 748a 15bd 8714 0fbd 5b5a 40be

network_body._body_endoder.seq_layers.0.bias f4 [64]
0.06769905 -0.0025030354 0.0077360766 0.0051874197 0.008249677 0.034329843 0.011348082 -0.013559339
0.04425709 -0.021915557 0.012846947 0.031068593 -0.043133803 -0.018124105 0.00015819838 0.02997254
0.015232677 0.030173512 0.022801844 0.0047419043 -0.054950546 0.03835768 -0.0024620895 -0.041023664
-0.010449682 -0.035605352 0.00014883684 0.0055679623 -0.0403977 0.020376304 -0.018361373 -0.018116508
0.05129425 0.043659233 0.030427122 -0.029890811 0.007766313 0.009073554 0.05760902 -0.04874666
-0.10793286 0.08002495 0.0051873443 0.0010019674 -0.009871591 0.035160504 0.02342449 0.013270211
0.0028826273 0.0016181556 0.048736274 0.02539433 0.017660238 0.06461573 0.07337331 -0.008948549
0.004307941 0.0137281455 0.06446629 -0.003459734 0.004049016 0.05257529 0.035600886 0.010438944
00000000: cda5 8a3d f709 24bb ea7e fd3b 3bfb a93b
00000010: a729 073c 739d 0c3d 4eed 393c fd27 5ebc
00000020: ec46 353d 4188 b3bc 007c 523c 9083 fe3c
00000030: 12ad 30bd 0179 94bc 0ee2 2539 f988 f53c
00000040: 7a92 793c 712e f73c efca ba3c fa61 9b3b
00000050: d313 61bd f11c 1d3d 025b 21bb 6e08 28bd
00000060: 2535 2bbc ebd6 11bd 1611 1c39 7473 b63b
00000070: 0f78 25bd 35ec a63c 976a 96bc 1269 94bc
00000080: eb19 523d 06d4 323d 4d42 f93c 93dd f4bc
00000090: 8e7c fe3b 3ea9 143c 70f7 6b3d 94aa 47bd
000000a0: e70b ddbd 1fe4 a33d 99fa a93b 7254 833a
000000b0: 74bc 21bc 7604 103d b7e4 bf3c 4d6b 593c
000000c0: 76ea 3c3b 4b18 d43a b09f 473d c507 d03c
000000d0: 34ac 903c 4055 843d bf44 963d ef9c 12bc
000000e0: a129 8d3b 04ec 603c e706 843d b4bc 62bb
000000f0: 9cad 843b 3059 573d 3cd2 113d 1b08 2b3c

network_body._body_endoder.seq_layers.2.weight f4 [64, 64]
-0.1852513 0.09351835 -0.4038546 -0.35803384 -0.254187 -0.15468505 -0.08379009 -0.13147046
0.1247337 -0.3241633 0.07086442 -0.045978203 -0.16471377 -0.07206604 -0.24296091 -0.041278787
0.14021412 -0.23567079 -0.018909672 -0.05709267 -0.008160729 -0.26963004 -0.12052426 -0.16245861
-0.03719016 -0.16521297 -0.22556743 -0.26020598 -0.19040477 0.08294942 -0.2916344 -0.3453277
0.14504448 -0.33601764 0.025605867 0.017392179 0.102662794 0.025473801 -0.31909165 -0.0028118908
-0.1287911 -0.23530269 -0.120760925 0.0017226959 0.04557144 -0.15481584 0.051953934 0.17620115
-0.10028628 0.08654632 0.0077807996 -0.1677244 -0.086141996 -0.111546114 -0.19049458 0.0009316219
0.104131736 0.034730837 -0.07846339 -0.059595015 -0.11885785 -0.061615977 -0.303086 -0.15644264
0.060984205 -0.10396446 0.016289307 0.061934184 -0.15145087 0.084508106 -0.08064738 -0.09484644
-0.11289978 -0.081361145 -0.16987467 -0.07351493 0.004207136 0.041006703 -0.07741618 0.031941723
-0.15266603 -0.32624066 -0.106024034 -0.119353354 0.17985916 -0.106313884 0.12985583 -0.23643795
-0.2042223 -0.112990566 0.0017358477 0.14860708 -0.17278072 -0.11696616 -0.33405724 -0.20685892
-0.031763762 0.1281205 -0.06298761 -0.064389125 -0.02517636 0.16581744 -0.16389033 0.03693437
-0.24509764 -0.07748404 0.024971463 -0.20983177 -0.14980581 -0.382897 -0.066046365 -0.04191283
-0.33199197 -0.08355852 0.34730762 0.017706852 -0.10654339 -0.38219294 0.21620128 -0.16877842
0.046400327 -0.11340791 0.1417739 -0.22053917 -0.16193184 -0.05719932 -0.2697347 -0.25602245
0.0009880405 -0.09129599 -0.07849707 0.0961696 0.19200337 -0.48340937 -0.052415065 0.063138336
0.0022616803 0.17053759 -0.2555718 0.15238686 0.16710323 0.104505315 0.10391686 -0.116194114
-0.06444179 0.36729828 0.006715189 0.09435583 0.27186266 0.0034279255 -0.24932288 0.03806337
0.2959446 0.02244318 -0.035082914 -0.09347758 0.15797423 -0.19287784 -0.2592535 0.01505136
0.024633002 -0.2044782 -0.03313915 -0.027135545 0.33298498 0.01685652 -0.110671625 -0.14222845
0.12562513 -0.35671344 0.27027076 -0.059584323 -0.23039861 -0.17721541 -0.03657935 -0.05428679
-0.22209473 0.0025639492 -0.27619866 -0.0074918545 0.23949714 0.01632683 0.24465765 -0.16736908
0.19540966 -0.13581595 -0.29375738 0.20075077 0.06563079 0.2145692 -0.28533542 -0.031659607
-0.0262437 -0.18619901 -0.20403105 -0.23601058 -0.051273882 -0.2901826 0.12903787 0.22604351
0.08915661 0.041718017 0.035995528 0.097273625 0.22871739 -0.10023547 -0.2704436 -0.096656725
-0.115138516 -0.23822644 0.2473753 0.088925324 0.17284058 -0.097048484 -0.08053054 0.24306886
0.099466085 -0.24814963 -0.050509535 -0.0765259 0.11111169 -0.17282285 -0.13874969 0.08629575
0.04129382 -0.32771045 -0.32792437 -0.06124623 0.13236243 0.1452371 0.09681845 0.115029894
0.14649715 0.1587607 0.12839863 0.037175473 0.2205664 0.2960056 0.046553276 -0.0052771997
0.28040725 0.17257015 -0.14398019 0.060182817 0.019252626 0.040074352 -0.17614822 0.0022459861
-0.22341679 0.26301122 -0.011049153 -0.08291806 -0.18190297 0.08715836 0.14353389 -0.10846632
00000000: 84b2 3dbe 8c86 bf3d 08c6 cebe 3650 b7be
00000010: cc24 82be c265 1ebe 249a abbd 31a0 06be
00000020: 6274 ff3d bbf8 a5be 5d21 913d a453 3cbd
00000030: baaa 28be 5c97 93bd bfca 78be f213 29bd
00000040: 4a94 0f3e af53 71be 75e8 9abc 01da 69bd
00000050: 94b4 05bc f30c 8abe 6cd5 f6bd 8d5b 26be
00000060: b654 18bd 972d 29be 26fb 66be b839 85be
00000070: 78f9 42be 63e1 a93d 1b51 95be cbce b0be
00000080: 8a86 143e 810a acbe 65c3 d13c 0b7a 8e3c
00000090: df40 d23d 6fae d03c fb5f a3be b347 38bb
000000a0: d0e1 03be 30f3 70be 8151 f7bd 15cc e13a
000000b0: 1ea9 3a3d 0b88 1ebe a6cd 543d 136e 343e
000000c0: e562 cdbd 323f b13d 14f6 fe3b f2bf 2bbe
000000d0: 376b b0bd 4a72 e4bd 0311 43be 1638 743a
000000e0: 0543 d53d ec41 0e3d 6ab1 a0bd e719 74bd
000000f0: bf6b f3bd 0961 7cbd 172e 9bbe 8032 20be
00000100: 93ca 793d 52eb d4bd 2771 853c b3ae 7d3d
00000110: f015 1bbe 9612 ad3d 742a a5bd da3e c2bd
00000120: 0038 e7bd aca0 a6bd a0f3 2dbe ff8e 96bd
00000130: 04dc 893b a5f6 273d 608c 9ebd 53d5 023d
00000140: 7c54 1cbe 0409 a7be 2123 d9bd 886f f4bd
00000150: 002d 383e 18bb d9bd edf8 043e ca1c 72be
00000160: a71f 51be 9967 e7bd 6285 e33a 742c 183e
00000170: 6eed 30be f48b efbd 8d09 abbe d3d2 53be
00000180: b81a 02bd 0532 033e a6ff 80bd 72de 83bd
00000190: a73e cebc 0ccc 293e ded2 27be 7e48 173d
000001a0: e0fa 7abe f4af 9ebd f490 cc3c 24de 56be
000001b0: b266 19be 130b c4be 5143 87bd caac 2bbd
000001c0: dafa a9be bb20 abbd 4ed2 b13e f60d 913c
000001d0: 6c33 dabd cbae c3be de63 5d3e 40d4 2cbe
000001e0: 450e 3e3d 6842 e8bd 2d2d 113e 05d5 61be
000001f0: 76d1 25be d649 6abd ab1a 8abe 6015 83be
00000200: 2381 813a 64f9 babd 12c3 a0bd 91f4 c43d
00000210: 889c 443e 6f81 f7be 2eb1 56bd ac4e 813d
00000220: b338 143b 68a1 2e3e 4fda 82be 4d0b 1c3e
00000230: 1c1d 2b3e e206 d63d 5dd2 d43d 2ef7 edbd
00000240: 0ffa 83bd 850e bc3e 170b dc3b a13d c13d
00000250: 9531 8b3e 0ca7 603b 7f4e 7fbe 56e8 1b3d
00000260: 0d86 973e c3da b73c 1ab3 0fbd 2c71 bfbd
00000270: ffc3 213e c581 45be e0bc 84be fb99 763c
00000280: 26cb c93c bc62 51be ebbc 07bd 5d4b debc
00000290: 027d aa3e af16 8a3c cea7 e2bd 56a4 11be
000002a0: e0a3 003e 25a3 b6be ee60 8a3e b10e 74bd
000002b0: 9ded 6bbe f577 35be 3ad4 15bd d35b 5ebd
000002c0: cd6c 63be ee07 283b e969 8dbe 3b7e f5bb
000002d0: bd3e 753e d8bf 853c 8987 7a3e cd62 2bbe
000002e0: 7819 483e 5613 0bbe 5e67 96be 9c91 4d3e
000002f0: 7069 863d 07b8 5b3e 7c17 92be 81ad 01bd
00000300: 07fd d6bc f4aa 3ebe 84ed 50be c2ac 71be
00000310: 9004 52bd d092 94be 8122 043e f377 673e
00000320: be97 b63d 83e0 2a3d 0c70 133d 6537 c73d
00000330: e434 6a3e 4148 cdbd 9577 8abe f6f3 c5bd
00000340: becd ebbd a2f1 73be f34f 7d3e 7b1e b63d
00000350: 1ffd 303e 5bc1 c6bd 32ed a4bd 0be7 783e
00000360: e0b4 cb3d f01a 7ebe 16e3 4ebd 9cb9 9cbd
00000370: 878e e33d 79f8 30be 6614 0ebe d4bb b03d
00000380: b523 293d aac9 a7be b4e5 a7be 54dd 7abd
00000390: 048a 073e 09b9 143e c048 c63d cb94 eb3d
000003a0: 5903 163e 2a92 223e ee7a 033e 4f45 183d
000003b0: 29dc 613e 0c8e 973e a6ae 3e3d 5cec acbb
000003c0: 8a91 8f3e 3bb6 303e 8b6f 13be 4282 763d
000003d0: afb7 9d3c 0125 243d 3360 34be 6531 133b
000003e0: 5fc7 64be 68a9 863e 8207 35bc f2d0 a9bd
000003f0: c644 3abe 1580 b23d 8cfa 123e 9723 debd

network_body._body_endoder.seq_layers.2.bias f4 [64]
-0.045430735 -0.078361206 0.025635388 0.013058039 0.010977297 0.012924962 -0.07073256 -0.0083139315
0.0072143553 -0.0109154135 -0.07331134 0.02782251 -0.047562044 -0.046883833 0.017624367 0.050446957
-0.09506098 0.007588739 -0.023694413 0.018635208 0.016672684 0.01435207 0.0627483 -0.00017266785
0.009425376 -0.0050693783 0.016774893 0.04400386 -0.019729218 0.042437803 -0.038099602 0.040946305
-0.034157738 -0.010677675 0.016734265 0.012969019 0.025153995 0.064617045 0.0073889103 0.0555271
0.00014015882 0.036407437 -0.04937023 -0.03883918 0.032049548 -0.05267268 -0.02892878 0.014713057
0.02220455 -0.016012756 -0.007566883 0.036509246 -0.03438768 0.052681524 -0.086095 -0.00095335126
0.052263442 0.06900241 0.025403189 0.016619543 0.009334301 0.06941362 0.028789591 -0.05156674
00000000: 9415 3abd d77b a0bd 4e01 d23c 63f1 553c
00000010: 1fda 333c 38c3 533c 3bdc 90bd 2837 08bc
00000020: 6666 ec3b 90d6 32bc 4124 96bd 08ec e33c
00000030: 6bd0 42bd 4309 40bd fa60 903c 78a1 4e3d
00000040: 55af c2bd f5aa f83b c91a c2bc dda8 983c
00000050: 2795 883c f224 6b3c 2e82 803d 2c0e 35b9
00000060: e46c 1a3c 071d a6bb 806b 893c 643d 343d
00000070: 2b9f a1bc 43d3 2d3d 540e 1cbd 50b7 273d
00000080: fce8 0bbd 6af1 2ebc 4c16 893c 027c 543c
00000090: c00f ce3c f155 843d ac1e f23b 6270 633d
000000a0: 99f7 1239 f71f 153d 7038 4abd d515 1fbd
000000b0: 6346 033d 4fbf 57bd 0dfc ecbc 090f 713c
000000c0: 51e6 b53c 2f2d 83bc 9ef3 f7bb b88a 153d
000000d0: 19da 0cbd 95c8 573d 9352 b0bd 52ea 79ba
000000e0: 3112 563d 2351 8d3d 591a d03c b525 883c
000000f0: e5ee 183c ba28 8e3d 26d8 eb3c a537 53bd

network_body._body_endoder.seq_layers.4.weight f4 [64, 64]
-0.19679873 -0.034562025 -0.27058995 -0.09976192 -0.06620054 0.26586488 0.11028998 0.19221784
-0.04291804 -0.27458826 0.31263673 0.010792408 -0.11549959 0.2814768 -0.025887594 -0.17281339
0.041502323 -0.16375627 -0.060945936 -0.00719751 -0.087469 -0.054735146 -0.08086789 -0.20434448
0.13458377 0.120513506 -0.07328892 -0.054424018 -0.023642167 -0.13312727 -0.02865314 -0.12641892
0.10813171 0.03285716 0.18793014 -0.18311323 0.015334681 -0.31906733 0.25085998 -0.2800769
0.15513818 -0.21850204 -0.018591233 0.38024488 0.04594726 -0.005706519 0.03531809 0.1792727
0.14508328 0.22885005 -0.05217273 -0.21732451 0.11722402 -0.052086465 -0.117268 0.07610246
-0.072582625 0.013249453 -0.02780239 -0.003107294 0.11214102 0.12839337 -0.10054103 -0.28848246
-0.120574795 0.06540694 0.081602916 -0.16238669 0.08159411 -0.2532313 0.3743936 0.1177
-0.17892869 -0.31223327 -0.031468198 -0.124880195 0.047305353 0.068410754 0.11875311 -0.07838756
-0.06616511 0.19754776 -0.02659441 -0.039833687 -0.16951607 -0.10937313 -0.16900575 0.003777772
-0.2929289 0.09753674 0.2642608 0.20133895 0.29515475 -0.47799066 0.14612602 0.033641905
-0.3384691 0.06417447 -0.105696075 0.094846584 0.054054994 0.0763417 -0.14599568 0.14950201
-0.21834509 -0.18322621 -0.14989233 -0.10889102 -0.13322428 0.120263316 -0.071381934 -0.21972473
0.12093864 0.1624381 0.09170461 0.1219218 -0.23966089 0.13536386 -0.18860006 0.28790858
0.0680051 0.15339473 -0.28131437 -0.08735632 -0.16886437 -0.012906832 0.1515748 0.060030732
0.09878915 0.15802486 0.36029914 -0.0834362 -0.15069912 0.03948529 -0.020438213 -0.12848553
-0.049274296 -0.04264123 0.0017308985 0.022943782 -0.20828503 -0.013482786 0.04456747 -0.096024275
0.030971615 0.009874987 -0.13637543 -0.22963738 -0.2640177 0.12370815 0.16915986 0.06943013
0.26997608 -0.050073158 0.10663299 0.07832245 -0.2703443 0.16360575 0.17069407 -0.34936467
-0.21710312 -0.025123367 -0.017135398 -0.018536365 -0.014675498 0.20634061 0.096353054 -0.25404498
0.01828568 0.050613225 -0.07489743 -0.16348356 -0.04007247 -0.15665175 0.034804806 -0.26981997
-0.03094786 -0.048569232 0.19269936 -0.15263298 -0.050071437 -0.17255843 0.083078556 0.014265002
-0.0783239 0.032608204 -0.27286965 -0.0012369902 -0.045928884 0.036281805 0.026719954 0.22013491
0.12333587 -0.003886474 0.30510163 0.032264926 -0.15990548 -0.19765776 -0.06819559 -0.042855635
-0.026251229 0.23428187 -0.18933149 -0.12257992 -0.24344765 -0.0126435775 0.095619924 0.3577942
-0.088696375 -0.19161044 -0.046921916 -0.3310162 0.07301002 -0.17191406 -0.107963756 0.038105246
-0.04038358 0.19151607 -0.03672051 0.0027350963 0.13596216 0.20514725 0.023479283 -0.13781817
0.22348173 0.20554806 -0.16836362 0.05573875 -0.10251876 -0.27274102 0.17730473 0.006792239
-0.07333363 -0.1660177 0.25295702 -0.20105128 -0.098645695 0.094079405 0.13571152 -0.07710105
-0.10441375 0.0072429446 0.02473784 -0.031740498 0.22642969 0.2688614 -0.107129514 0.02295421
-0.30623144 0.019254027 -0.26205617 0.023627052 0.18395552 0.16770579 -0.008133395 0.25533947
00000000: 9b85 49be e990 0dbd c48a 8abe fa4f ccbd
00000010: 2694 87bd 711f 883e b7df e13d c1d4 443e
00000020: d4ca 2fbd d596 8cbe ec11 a03e a4d2 303c
00000030: 0d8b ecbd ba1d 903e 3812 d4bc fef5 30be
00000040: 57fe 293d b9af 27be 72a2 79bd 17d9 ebbb
00000050: f222 b3bd f631 60bd 109e a5bd ae3f 51be
00000060: 54d0 093e c9cf f63d 8018 96bd b8eb 5ebd
00000070: 38ad c1bc 8452 08be fdb9 eabc f673 01be
00000080: 2874 dd3d 3b95 063d c270 403e 0982 3bbe
00000090: 503e 7b3c cb5c a3be b870 803e 3d66 8fbe
000000a0: 8bdc 1e3e 00bf 5fbe a44c 98bc 75af c23e
000000b0: 3233 3c3d c0fd babb b4a9 103d 4393 373e
000000c0: b690 143e ab57 6a3e 13b3 55bd 518a 5ebe
000000d0: 2613 f03d 9e58 55bd 352a f0bd 9bdb 9b3d
000000e0: 33a6 94bd 3c14 593c d6c1 e3bc bea3 4bbb
000000f0: 31aa e53d 8d79 033e 75e8 cdbd f9b3 93be
00000100: ebef f6bd 13f4 853d 6e1f a73d b248 26be
00000110: d01a a73d 88a7 81be 85b0 bf3e b30c f13d
00000120: 1539 37be 0add 9fbe cce4 00bd 30c1 ffbd
00000130: 42c3 413d f01a 8c3d d534 f33d a889 a0bd
00000140: 9381 87bd f649 4a3e 85dc d9bc a628 23bd
00000150: 9f95 2dbe 05ff dfbd d80f 2dbe 7f94 773b
00000160: c7fa 95be 58c1 c73d 314d 873e cc2b 4e3e
00000170: 861e 973e 31bb f4be 0fa2 153e 18cc 093d
00000180: d24b adbe e86d 833d 2f77 d8bd ed3e c23d
00000190: c568 5d3d 0a59 9c3d e47f 15be 0e17 193e
000001a0: db95 5fbe a79f 3bbe 607d 19be 4102 dfbd
000001b0: f26b 08be 9d4c f63d b130 92bd 85ff 60be
000001c0: adae f73d 2c56 263e a0cf bb3d 23b2 f93d
000001d0: aa69 75be d39c 0a3e 6020 41be c168 933e
000001e0: 4246 8b3d 8213 1d3e 7008 90be dfe7 b2bd
000001f0: c8ea 2cbe 2d77 53bc 6d36 1b3e c9e2 753d
00000200: f751 ca3d 45d1 213e 2179 b83e 99e0 aabd
00000210: df50 1abe 54bb 213d 0a6e a7bc b691 03be
00000220: d8d3 49bd 92a8 2ebd 51df e23a 99f4 bb3c
00000230: ac48 55be e7e6 5cbc 618c 363d 60a8 c4bd
00000240: 2fb8 fd3c b3ca 213c 00a6 0bbe 1026 6bbe
00000250: 542d 87be b35a fd3d 3e38 2d3e 6231 8e3d
00000260: 4e3a 8a3e 8319 4dbd 6662 da3d 8567 a03d
00000270: 916a 8abe 4488 273e 6dca 2e3e eddf b2be
00000280: 4850 5ebe 85cf cdbc 895f 8cbc 93d9 97bc
00000290: 8071 70bc f44a 533e c054 c53d 2f12 82be
000002a0: dacb 953c d04f 4f3d d363 99bd 3c68 27be
000002b0: 0823 24bd 5169 20be 7c8f 0e3d d825 8abe
000002c0: 5e86 fdbc 88f0 46bd fb52 453e d24b 1cbe
000002d0: b517 4dbd 28b3 30be 1725 aa3d c1b7 693c
000002e0: 4868 a0bd 2e90 053d 92b5 8bbe 8122 a2ba
000002f0: ed1f 3cbd 3b9c 143d cee3 da3c 0c6b 613e
00000300: 8497 fc3d 37b4 7ebb 4836 9c3e 3a28 043d
00000310: 43be 23be cc66 4abe 21aa 8bbd 6489 2fbd
00000320: d10c d7bc 96e7 6f3e 1de0 41be 2e0b fbbd
00000330: 574a 79be 0227 4fbc 61d4 c33d cd30 b73e
00000340: 72a6 b5bd 8735 44be 3231 40bd f57a a9be
00000350: 4786 953d 3d0a 30be 1a1c ddbd 3f14 1c3d
00000360: 4169 25bd ca1c 443e 3f68 16bd 4d3f 333b
00000370: aa39 0b3e 1f12 523e a057 c03c 3520 0dbe
00000380: 65d8 643e 317b 523e 8367 2cbe 514e 643d
00000390: 5bf5 d1bd b6a4 8bbe 5f8f 353e 6e91 de3b
000003a0: f12f 96bd 8b00 2abe 9583 813e 63e0 4dbe
000003b0: c106 cabd b4ac c03d f6f7 0a3e 28e7 9dbd
000003c0: e0d6 d5bd 3956 ed3b 03a7 ca3c 5302 02bd
000003d0: 2fdd 673e 34a8 893e b866 dbbd 780a bc3c
000003e0: 5eca 9cbe 9fba 9d3c 3a2c 86be 858d c13c
000003f0: d65e 3c3e 11bb 2b3e ee41 05bc dbbb 823e

network_body._body_endoder.seq_layers.4.bias f4 [64]
0.013413088 0.03967045 -0.024225896 0.037342113 0.0026863362 0.08391699 0.061476126 0.04852779
0.029951293 -0.023562621 -0.019284073 0.04042501 0.05776958 0.0669831 -0.027077233 -0.017389694
0.060564477 0.030067502 0.107155085 0.024356954 0.095115304 0.043566138 0.023869637 0.017824842
-0.06352278 0.02711907 -0.034511726 0.043845087 0.011932283 0.074211776 0.11450929 0.03767874
0.07127681 0.05598228 0.029005954 0.022394786 0.014232938 -0.08648457 -0.016306406 -0.015435261
0.11123962 0.0130658345 0.06348298 0.017700598 0.022299347 0.054329522 0.0033184004 0.009186052
0.026272073 0.079280175 0.05218003 0.0872119 0.02918854 -0.023736129 0.0332966 -0.037513394
-0.015739955 -0.041112963 0.10107213 0.061875697 0.025310004 -0.052236445 -0.013165986 0.0044791102
00000000: 92c2 5b3c 7b7d 223d 6375 c6bc 0bf4 183d
00000010: 3e0d 303b acdc ab3d 64ce 7b3d 13c5 463d
00000020: 6a5c f53c 6606 c1bc a2f9 9dbc b294 253d
00000030: cc9f 6c3d 6f2e 893d 13d1 ddbc d574 8ebc
00000040: 7512 783d 1f50 f63c 2074 db3d 3c88 c73c
00000050: d0cb c23d 6872 323d 428a c33c 6705 923c
00000060: 3b18 82bd d028 de3c 2b5c 0dbd e896 333d
00000070: 9f7f 433c 58fc 973d d983 ea3d 0655 1a3d
00000080: 93f9 913d ad4d 653d e59d ed3c 4575 b73c
00000090: 4531 693c d21e b1bd 0395 85bc 2de4 7cbc
000000a0: 99d1 e33d 1512 563c 5d03 823d d800 913c
000000b0: 1fad b63c a288 5e3d 8579 593b 1881 163c
000000c0: 8838 d73c a55d a23d baba 553d 279c b23d
000000d0: ce1c ef3c 4572 c2bc 0462 083d a5a7 19bd
000000e0: 14f1 80bc 1166 28bd e8fe ce3d 5f71 7d3d
000000f0: ed56 cf3c e2f5 55bd 26b6 57bc 80c5 923b

action_model._continuous_distribution.log_sigma f4 [1, 44]
0.34036765 0.19517833 0.06457581 0.14949115 -0.1967768 0.07070869 0.3027029 0.1871073
0.18173392 0.09658648 -0.375767 0.014708459 0.044486474 -0.21662037 0.08825052 -0.15632126
0.11786875 -0.09028382 -0.11935683 -0.3191924 0.05062211 0.0070355586 0.036723852 0.16644827
0.14396177 -0.15781328 0.029239725 -0.27901953 -0.24208269 -0.003766491 0.005627276 -0.19530529
-0.3592293 -0.38003302 -0.33320087 -0.18783028 0.44184843 0.16754997 -0.14312986 0.22470883
-0.0334426 0.26722082 0.28505418 -0.13347176
00000000: ab44 ae3e d4dc 473e 5340 843d 3514 193e
00000010: dc7f 49be b8cf 903d e0fb 9a3e 0e99 3f3e
00000020: 7518 3a3e 22cf c53d 8864 c0be c0fb 703c
00000030: 7337 363d bbd1 5dbe b0bc b43d ae12 20be
00000040: 2c65 f13d b9e6 b8bd 5b71 f4bd 306d a3be
00000050: 2159 4f3d 8b8a e63b c06b 163d 6a71 2a3e
00000060: b76a 133e ce99 21be 2688 ef3c a6db 8ebe
00000070: 86e4 77be 3cd7 76bb 0365 b83b 1cfe 47be
00000080: e7ec b7be b093 c2be 4e99 aabe 9556 40be
00000090: f539 e23e 3892 2b3e a290 12be 121a 663e
000000a0: 1cfb 08bd 2bd1 883e 9ff2 913e d2ac 08be

action_model._continuous_distribution.mu.weight f4 [44, 64]
-0.06776704 0.040854435 0.04377099 -0.1482978 -0.11821194 0.07541924 -0.02187451 0.02463827
0.101292305 -0.113873534 -0.00035229916 -0.16486563 -0.0073814737 -0.05604619 -0.25034776 0.08288241
-0.17020805 0.025399765 -0.029958848 -0.16587338 -0.048423614 0.103074305 0.07561337 -0.022146584
-0.14032643 0.19644481 -0.20529243 0.015826918 0.0079758465 -0.04190952 0.28692937 -0.057669587
0.09838004 0.13413706 0.037339963 -0.14149246 -0.12076435 0.035841685 0.0065616076 0.12951688
-0.027636467 0.09824461 -0.083427526 0.19434422 0.009787549 0.27266216 0.041984193 0.040869594
-0.049415067 0.021764003 0.034395672 0.16122992 0.05332748 -0.0639859 -0.06470561 0.07820318
-0.019778572 -0.09650751 0.24100587 -0.13795564 -0.08471367 -0.1806755 -0.13142261 -0.03652126
0.0339096 -0.044717703 -0.024218606 0.009534333 -0.099972576 0.1139014 0.15600406 -0.1130189
0.117983036 -0.033364058 0.06072097 -0.15504962 -0.09026058 0.1860141 0.016140826 0.12303486
-0.14291304 0.0848539 -0.0667793 -0.057546206 -0.10627968 -0.1407719 -0.02090423 0.017044928
0.0050872946 0.13224074 0.07579476 0.16985868 0.026945302 -0.014037833 0.0056795944 -0.0935419
0.0240774 -0.11682521 0.073496886 0.04061878 -0.11695832 -0.07490886 0.09870396 0.12439161
-0.057749577 0.0989248 -0.08465877 0.11317895 -0.066812955 0.14058125 -0.03506572 0.10844836
0.07948212 0.07490485 -0.15197057 0.23411179 -0.058056742 -0.09073339 0.18595803 -0.14215755
-0.15060645 -0.0009986636 -0.216311 -0.030049156 -0.041062728 -0.055618588 0.0067724306 -0.14676042
0.042310912 0.16808349 -0.015705137 -0.019236384 0.21967779 0.0011512025 0.0061676237 0.24364305
0.11713958 -0.043824337 0.08949554 0.050734438 -0.18410097 -0.055681385 -0.06175717 -0.09547048
0.06834102 -0.008136191 -0.094641045 -0.05546068 -0.012887786 -0.02115824 0.08797264 -0.13667564
0.14291129 -0.037317164 0.09795416 -0.009597975 0.047924202 0.08907858 0.09494657 -0.029802069
0.23222725 -0.09839263 0.02776119 -0.024784813 -0.067010835 0.097254366 0.089728914 0.04745818
-0.14171991 -0.068373725 -0.10440704 0.05253905 0.0016224699 0.035297457 0.1822236 -0.059688445
-0.22539797 0.13988808 0.053937178 -0.15673883 0.07538398 -0.1126198 -0.19452673 0.07252255
0.19413476 0.14496061 0.10191108 -0.0955478 -0.07768515 0.2174581 -0.04846614 0.04397597
0.023245351 0.2271924 0.0620511 0.021003554 -0.1342351 0.16126452 0.11599476 -0.014506961
0.099133976 0.09486084 0.04502369 0.039654303 0.122799896 0.122245684 -0.0029280067 0.05114003
0.062411297 0.010228528 -0.027327327 -0.11400723 0.030976838 -0.03398908 -0.056279495 0.11591748
-0.09747626 0.03543847 -0.13502784 0.026500307 0.03628806 0.0037314103 0.060796116 0.020106733
-0.10968751 0.13461019 -0.22334759 0.104257405 -0.03934045 0.100796156 -0.12988809 0.030468743
0.08719012 -0.043237124 0.06092632 0.13929182 -0.102528945 0.04464605 -0.12275687 0.12205963
-0.08347238 0.12014289 0.10288996 0.05333354 -0.14582846 0.016129076 0.112395935 -0.15902866
0.06553927 -0.24419877 -0.0015597092 -0.1235337 -0.17451437 -0.036023986 -0.012255904 0.051680688
00000000: 72c9 8abd fb56 273d 3649 333d 61db 17be
00000010: 1a19 f2bd 6775 9a3d 2c32 b3bc 32d6 c93c
00000020: 5772 cf3d 8736 e9bd cbb4 b8b9 89d2 28be
00000030: 4ae0 f1bb b190 65bd 952d 80be 41be a93d
00000040: 054b 2ebe 2b13 d03c 426c f5bc b6da 29be
00000050: d757 46bd 9f18 d33d 2fdb 9a3d c16c b5bc
00000060: bbb1 0fbe d428 493e 2e38 52be 74a7 813c
00000070: 20ad 023c 51a9 2bbd 68e8 923e f236 6cbd
00000080: 797b c93d 3a5b 093e caf1 183d 66e3 10be
00000090: 4d53 f7bd bbce 123d c102 d73b 13a0 043e
000000a0: df65 e2bc 7834 c93d 0ddc aabd 2c02 473e
000000b0: f55b 203c 609a 8b3e 9ef7 2b3d e066 273d
000000c0: 7467 4abd 6c4a b23c 7ae2 0c3d 7519 253e
000000d0: ea6d 5a3d 0a0b 83bd 6084 84bd fd28 a03d
000000e0: ac06 a2bc bba5 c5bd 3eca 763e 3e44 0dbe
000000f0: 5c7e adbd 0003 39be a693 06be 5197 15bd
00000100: cbe4 0a3d e929 37bd 1966 c6bc e435 1c3c
00000110: 6cbe ccbd 2345 e93d 87bf 1f3e 7476 e7bd
00000120: 17a1 f13d c0a8 08bd 8db6 783d 54c5 1ebe
00000130: 8ada b8bd 7b7a 3e3e c439 843c b3f9 fb3d
00000140: cc57 12be e2c7 ad3d 96c3 88bd 92b5 6bbd
00000150: 29a9 d9bd 8226 10be 593f abbc cea1 8b3c
00000160: 52b3 a63b 1e6a 073e 483a 9b3d 6fef 2d3e
00000170: 65bc dc3c f0fe 65bc e41b ba3b e592 bfbd
00000180: f83d c53c 0e42 efbd 8985 963d e15f 263d
00000190: d887 efbd d169 99bd 4d25 ca3d 07c1 fe3d
000001a0: d28a 6cbd 1699 ca3d 9461 adbd 5eca e73d
000001b0: 3bd5 88bd 88f4 0f3e 13a1 0fbd 2c1a de3d
000001c0: 86c7 a23d b767 993d 2c9e 1bbe 00bb 6f3e
000001d0: e8cc 6dbd 6dd2 b9bd c86b 3e3e c091 11be
000001e0: 9438 1abe 97e5 82ba a180 5dbe a629 f6bc
000001f0: 6431 28bd 51d0 63bd 44eb dd3b 5d48 16be
00000200: 354e 2d3d 141e 2c3e 0fa8 80bc 9f95 9dbc
00000210: 37f3 603e f2e3 963a c719 ca3b 907d 793e
00000220: e0e6 ef3d 2681 33bd 7049 b73d eace 4f3d
00000230: f784 3cbe 2a12 64bd 16f5 7cbd 0786 c3bd
00000240: 60f6 8b3d a94d 05bc 2ad3 c1bd bd2a 63bd
00000250: 4b27 53bc 0c54 adbc 002b b43d b3f4 0bbe
00000260: 5657 123e e2d9 18bd 319c c83d d340 1dbc
00000270: 2b4c 443d d56e b63d 5973 c23d 7823 f4bc
00000280: fbcc 6d3e 1382 c9bd 6f6b e33c 8509 cbbc
00000290: fa3c 89bd 4c2d c73d cbc3 b73d 8263 423d
000002a0: 061f 11be 8607 8cbd 5cd3 d5bd 3033 573d
000002b0: 0ea9 d43a 1194 103d d398 3a3e df7b 74bd
000002c0: bace 66be d23e 0f3e 3bed 5c3d 2580 20be
000002d0: eb62 9a3d 36a5 e6bd 0432 47be b486 943d
000002e0: 43cb 463e 8e70 143e c2b6 d03d 91ae c3bd
000002f0: 6419 9fbd 56ad 5e3e 6e84 46bd 2620 343d
00000300: 096d be3c 20a5 683e 4b29 7e3d a50f ac3c
00000310: ed74 09be 8722 253e a98e ed3d 9bae 6dbc
00000320: c106 cb3d 6646 c23d c36a 383d 8d6c 223d
00000330: 837e fb3d f25b fa3d cde3 3fbb 3578 513d
00000340: fda2 7f3d 8e95 273c 8fdd dfbc 9f7c e9bd
00000350: 23c3 fd3c 2238 0bbd 5485 66bd 2566 ed3d
00000360: a2a1 c7bd ee27 113d bd44 0abe 2c17 d93c
00000370: caa2 143d ad8a 743b 5905 793d e0b6 a43c
00000380: d8a3 e0bd 41d7 093e 3bb5 64be e884 d53d
00000390: 7423 21bd 376e ce3d 6201 05be 9699 f93c
000003a0: bc90 b23d 6919 31bd e08d 793d 84a2 0e3e
000003b0: b2fa d1bd c7de 363d f467 fbbd 66fa f93d
000003c0: 91f3 aabd 7a0d f63d f9b7 d23d 4574 5a3d
000003d0: 0e54 15be 2021 843c d72f e63d 69d8 22be
000003e0: 7439 863d 3e0f 7abe 286f ccba 3dff fcbd
000003f0: e5b3 32be e38d 13bd fdcc 48bc 21af 533d

action_model._continuous_distribution.mu.bias f4 [44]
0.057594758 -0.023026045 -0.0523013 0.13402921 0.060063194 0.0028829896 -0.0052361665 0.08298896
0.11513494 -0.05012453 -0.05188403 0.08901956 -0.04196149 0.088725306 0.0127779795 -0.06442542
-0.15569802 0.032953434 -0.07773732 0.11078595 -0.06640264 -0.029900558 -0.08641131 0.0017750129
-0.015572302 0.014495479 -0.1746884 -0.023787439 -0.029639121 -0.08541713 0.04517872 -0.01693364
0.0011014987 -0.013639966 0.025023539 -0.028998204 0.11065993 -0.06680861 0.029864663 -0.008506808
0.017789774 -0.009391684 -0.101154916 -0.03915021
00000000: 7be8 6b3d 1ea1 bcbc e339 56bd f43e 093e
00000010: d304 763d 8af0 3c3b 2694 abbb 1ef6 a93d
00000020: decb eb3d 614f 4dbd 5984 54bd e34f b63d
00000030: d0df 2bbd 9db5 b53d bb5a 513c 79f1 83bd
00000040: 4d6f 1fbe 2efa 063d be34 9fbd bfe3 e23d
00000050: 1bfe 87bd 04f2 f4bc 6af8 b0bd 8da7 e83a
00000060: f822 7fbc 727e 6d3c 84e1 32be e0dd c2bc
00000070: becd f2bc 2def aebd 520d 393d 6bb8 8abc
00000080: 2a60 903a 2a7a 5fbc 2afe cc3c a48d edbc
00000090: aca1 e23d f4d2 88bd bda6 f43c 2460 0bbc
000000a0: dcbb 913c 94df 19bc 4f2a cfbd f85b 20bd

exp_avg f4 [64, 96]
-1.9114492e-05 6.2624986e-06 -2.2719492e-05 -2.288875e-05 -3.4291865e-05 -3.075322e-05 -1.3635174e-05 1.1428014e-06
-2.7957185e-05 1.094527e-05 1.5568163e-05 6.4195215e-06 1.0851776e-05 3.2099193e-05 -2.2952761e-05 1.1748421e-05
3.1810632e-05 1.6885477e-05 -9.55925e-06 -1.0969957e-05 6.281796e-07 -1.0344209e-05 1.7776523e-05 2.5030657e-05
3.2526543e-06 -1.8620325e-05 -1.7616145e-06 5.7276156e-06 -9.498184e-06 -1.1101762e-05 1.9687475e-05 -1.5680715e-05
-3.3620123e-05 -1.9538644e-05 -2.0591071e-05 3.6489046e-06 -2.332419e-06 -2.768752e-05 -3.0927054e-05 -1.30597855e-05
-1.8762514e-05 4.001121e-07 -2.1393125e-05 4.5428515e-06 0.000106437845 -6.36213e-05 -4.8242415e-05 0.0001912505
-3.964304e-05 -6.0312053e-05 2.7205408e-05 -4.745289e-05 -3.9607453e-06 -7.703376e-05 -5.2160187e-05 -0.00011054976
-8.03288e-05 -0.00010210416 -0.00011278708 -0.00011617876 -0.00010407907 -9.6801974e-05 -0.0001218453 1.8554995e-06
-8.574845e-06 -4.8146126e-06 -6.154463e-06 -5.648809e-07 -3.2600185e-06 2.296971e-06 -9.016316e-06 -6.909362e-06
-6.244964e-06 -4.7438184e-07 -5.0205454e-06 -5.3439317e-06 -1.3754145e-06 -6.3815073e-06 -1.758142e-06 -4.9612017e-06
-7.049188e-06 -4.8878255e-06 -1.8315175e-06 -7.2611715e-06 2.2482336e-06 -8.96758e-06 -6.5049376e-06 -5.9555223e-06
-7.6382213e-07 -6.050124e-06 6.8955586e-07 -7.4089003e-06 -7.6153315e-06 6.8955586e-07 -7.4089003e-06 -7.615332e-06
-9.450536e-05 -0.00011973854 -3.2509881e-06 -6.7538895e-05 -0.00012335641 -4.158369e-05 -7.153817e-05 -0.00018786019
-4.297367e-05 8.416218e-06 -3.3337452e-05 -9.969361e-05 -0.00012197599 -0.00013128604 2.0251942e-05 -6.455016e-05
-7.513205e-05 -0.00012460268 -9.809565e-05 -9.3953786e-05 -0.00010970308 -4.0847706e-05 7.250557e-06 -2.2166687e-05
-2.143014e-05 -1.3343504e-06 -5.3544518e-05 -4.4422857e-05 -7.174745e-05 -6.35982e-05 -3.302077e-05 -9.333545e-05
-0.00014691519 -0.00016721855 -0.000115431096 -0.00011586155 -5.1634954e-05 -3.7096062e-05 -0.00023104344 -0.00017060732
-0.00011800438 4.0771833e-06 -3.3544606e-05 -0.000110775116 0.00024928284 -0.0005546657 0.0003498177 -1.697389e-05
-0.00042981614 2.685263e-05 -0.0009285249 -0.00020439221 -4.016709e-05 -0.0009432277 -0.0009240049 -0.00076699036
-0.0009234711 -0.00063770835 -0.0009978043 -0.0005363333 -0.00058655156 -0.0005017616 -0.0005169863 -3.641148e-05
-3.1454965e-05 -5.895174e-05 -1.2824917e-05 -5.5041524e-05 -5.7750283e-05 -7.455727e-05 6.690833e-06 -4.7936886e-05
-3.3795044e-05 -3.407139e-05 -5.7716945e-05 -6.0483784e-05 -7.3826477e-06 -3.985677e-05 -1.8803092e-05 -4.9063343e-05
-6.236277e-05 -6.950409e-05 1.6376509e-06 -3.3520828e-05 -4.3672197e-05 -2.4194236e-05 -3.6659472e-05 -5.2122865e-05
-1.5743573e-05 -3.1360105e-05 -4.9642837e-05 -1.82236e-05 -3.2311636e-05 -4.9642837e-05 -1.82236e-05 -3.2311636e-05
3.28081e-05 3.1867236e-05 8.3019995e-06 4.9536015e-05 3.1186923e-05 4.6832385e-05 3.988236e-06 -1.3075085e-05
1.2216244e-06 3.6956368e-05 1.5369744e-05 2.0360247e-05 5.61349e-05 4.4192966e-06 -8.597812e-07 5.066657e-06
-1.9813417e-06 3.39718e-05 1.1347624e-06 1.174835e-05 -1.748651e-05 2.0889483e-05 -8.71721e-06 -4.53191e-06
8.291211e-05 -1.1475823e-05 1.0467108e-05 -5.1952185e-07 -1.4651445e-05 5.550874e-05 -3.2566736e-06 6.5725864e-05
2.053711e-05 -3.1019073e-07 -2.8701037e-05 6.161992e-06 -4.854878e-06 5.9306763e-06 3.8307004e-05 2.1464744e-05
1.7148148e-05 -3.250046e-06 3.7952916e-05 -1.3451682e-05 6.677332e-05 6.22129e-05 -0.000131381 0.00018757029
4.0865085e-05 -0.00011347076 6.555141e-05 2.5949475e-05 3.8680746e-06 0.00014947918 7.23519e-05 9.040518e-05
-2.5129606e-05 -1.5858195e-06 -4.867062e-05 9.0255395e-05 1.6541951e-05 -1.8572882e-05 -8.724472e-06 -1.3329347e-05
00000000: 0f58 a0b7 7422 d236 bd95 beb7 3701 c0b7
00000010: 9cd4 0fb8 05fd 00b8 a0c2 64b7 5b62 9935
00000020: 9985 eab7 94a1 3737 6098 8237 4567 d736
00000030: 0610 3637 3fa2 0638 ae8a c0b7 151b 4537
00000040: 686c 0538 49a5 8d37 ab60 20b7 9b0b 38b7
00000050: 2ca0 2835 0a8c 2db7 cb1e 9537 edf8 d137
00000060: 2d48 5a36 d832 9cb7 9d70 ecb5 d82f c036
00000070: 645a 1fb7 b441 3ab7 8826 a537 148a 83b7
00000080: 5503 0db8 ebe6 a3b7 fdba acb7 b4df 7436
00000090: a786 1cb6 7f42 e8b7 acb7 01b8 5a1b 5bb7
000000a0: 3164 9db7 fdce d634 6375 b3b7 cc6e 9836
000000b0: 6237 df38 6d6c 85b8 e657 4ab8 6a8a 4839
000000c0: 6446 26b8 93f7 7cb8 2b37 e437 2708 47b8
000000d0: 8be6 84b6 2f8d a1b8 93c6 5ab8 f3d6 e7b8
000000e0: 3276 a8b8 c120 d6b8 1a88 ecb8 ffa4 f3b8
000000f0: 0645 dab8 2a02 cbb8 3387 ffb8 7a0a f935
00000100: aedc 0fb7 358d a1b6 6f82 ceb6 52a2 17b5
00000110: b1c6 5ab6 a925 1a36 c844 17b7 f8d6 e7b6
00000120: d58b d1b6 8bae feb4 2876 a8b6 0650 b3b6
00000130: e29a b8b5 bb20 d6b6 4df9 ebb5 6678 a6b6
00000140: 1088 ecb6 1a02 a4b6 76d2 f5b5 fda4 f3b6
00000150: 5ce0 1636 7673 16b7 fd44 dab6 8cd5 c7b6
00000160: 7509 4db5 2b02 cbb6 eb19 3935 f899 f8b6
00000170: 3387 ffb6 eb19 3935 f899 f8b6 3487 ffb6
00000180: 2e31 c6b8 241c fbb8 8d2b 5ab6 aba3 8db8
00000190: 3c59 01b9 266a 2eb8 c306 96b8 56fc 44b9
000001a0: a03e 34b8 6233 0d37 d1d3 0bb8 9912 d1b8
000001b0: 5ccd ffb8 d4a9 09b9 b7e2 a937 1a5f 87b8
000001c0: 3690 9db8 c7a7 02b9 b3b8 cdb8 0e09 c5b8
000001d0: 6510 e6b8 e453 2bb8 cf49 f336 99f2 b9b7
000001e0: e0c4 b3b7 ee17 b3b5 fd94 60b8 ae52 3ab8
000001f0: 1e77 96b8 0660 85b8 c87f 0ab8 17bd c3b8
00000200: 3f0d 1ab9 6357 2fb9 9913 f2b8 b2fa f2b8
00000210: 9c92 58b8 9897 1bb8 4044 72b9 0ee5 32b9
00000220: 1e79 f7b8 bdce 8836 3fb2 0cb8 f04f e8b8
00000230: 2db2 8239 fc66 11ba bd67 b739 2763 8eb7
00000240: f258 e1b9 9541 e137 4068 73ba 1e52 56b9
00000250: 1679 28b8 f042 77ba eb38 72ba da0f 49ba
00000260: 1915 72ba e22b 27ba c2c8 82ba b898 0cba
00000270: cfc2 19ba a788 03ba 5d86 07ba 87b8 18b8
00000280: 83ee 03b8 f342 77b8 992a 57b7 63dc 66b8
00000290: e538 72b8 a15b 9cb8 d181 e036 d70f 49b8
000002a0: 27bf 0db8 e0e7 0eb8 1915 72b8 f8af 7db8
000002b0: 76b8 f7b6 e22b 27b8 55bb 9db7 5dc9 4db8
000002c0: c2c8 82b8 b9c2 91b8 42cd db35 b798 0cb8
000002d0: aa2c 37b8 baf4 cab7 cfc2 19b8 809e 5ab8
000002e0: 1111 84b7 a888 03b8 9737 50b8 e2de 98b7
000002f0: 5b86 07b8 9737 50b8 e2de 98b7 5b86 07b8
00000300: 6e9b 0938 2fa9 0538 d148 0b37 e4c4 4f38
00000310: b4ce 0238 e46d 4438 b0d2 8536 105d 5bb7
00000320: b2f6 a335 9901 1b38 46ee 8037 4ccb aa37
00000330: 6472 6b38 7849 9436 b7cb 66b5 4102 aa36
00000340: 31f7 04b6 f17c 0e38 244e 9835 c71a 4537
00000350: ffaf 92b7 d33b af37 2240 12b7 cf10 98b6
00000360: 1ae1 ad38 4988 40b7 e39b 2f37 4575 0bb5
00000370: 7acf 75b7 0ed2 6838 3a8d 5ab6 4ed6 8938
00000380: 1c47 ac37 4a88 a6b4 02c3 f0b7 1cc3 ce36
00000390: 16e7 a2b6 1f00 c736 d5ab 2038 300f b437
000003a0: 5ed9 8f37 5d1b 5ab6 a22f 1f38 89ae 61b7
000003b0: a708 8c38 4c78 8238 52c3 09b9 84ae 4439
000003c0: 8d66 2b38 27f7 edb8 a578 8938 13ae d937
000003d0: 82ca 8136 83bd 1c39 a1bb 9738 e997 bd38
000003e0: 6bcd d2b7 58d8 d4b5 ae23 4cb8 7f47 bd38
000003f0: 92c3 8a37 f6cc 9bb7 525f 12b7 1ca1 5fb7

exp_avg_sq f4 [64, 96]
2.0625949e-08 1.7138406e-08 2.4733307e-08 3.0786538e-08 3.0450792e-08 4.3663803e-08 3.3787938e-08 1.7732363e-08
4.040196e-08 2.5020297e-08 2.7788426e-08 3.1714407e-08 2.2120778e-08 1.7429533e-08 1.8329883e-08 1.5724934e-08
1.6630885e-08 1.7241328e-08 1.5514301e-08 1.121952e-08 1.2380612e-08 1.346484e-08 9.552607e-09 1.323546e-08
1.2915762e-08 1.1561964e-08 5.401904e-09 3.3926375e-09 3.953833e-09 4.9455524e-09 9.047532e-09 1.4003205e-08
1.5388697e-08 1.36628e-08 6.9160024e-09 7.1197395e-09 1.01772075e-08 9.537569e-09 1.2170731e-08 7.753761e-09
4.595495e-09 6.7703496e-09 9.53991e-09 1.3583811e-08 6.5264527e-07 4.1945833e-07 5.741203e-07 5.643728e-07
3.2663036e-07 4.1495068e-07 8.330636e-07 1.8644275e-07 2.6827685e-09 1.4891317e-06 1.3860218e-06 1.2447432e-06
1.3787644e-06 6.8264734e-07 1.1379276e-06 3.4602644e-07 9.511585e-07 3.1233444e-07 8.539615e-07 3.665728e-09
3.8644337e-09 5.8169185e-09 3.891296e-09 3.661899e-09 5.4141442e-09 4.559288e-09 2.9230232e-09 4.8622786e-09
3.5133927e-09 4.2078274e-09 5.385797e-09 6.848446e-09 1.0444617e-09 2.666591e-09 4.419128e-09 3.3617114e-09
4.445028e-09 7.574235e-09 3.2206193e-10 1.3516657e-09 4.6087627e-09 3.0901897e-09 3.7154628e-09 7.8693345e-09
9.718939e-11 1.2200562e-09 5.271758e-09 2.4748135e-09 3.3357874e-09 5.2717586e-09 2.4748135e-09 3.3357874e-09
1.2121814e-07 1.3570047e-07 1.07607e-07 1.5883391e-07 1.8700038e-07 1.678351e-07 1.350635e-07 1.0762012e-07
1.347222e-07 1.5022367e-07 1.6036215e-07 1.8435969e-07 1.281872e-07 1.2656804e-07 5.6152988e-08 7.028437e-08
9.588055e-08 1.326744e-07 1.1008018e-07 9.706547e-08 8.864596e-08 5.429459e-08 2.4723846e-08 4.8512625e-08
8.904144e-08 1.2587432e-07 7.0120024e-08 7.327969e-08 9.464553e-08 8.079121e-08 6.3040254e-08 9.615446e-08
1.2816123e-07 1.0184739e-07 9.687218e-08 1.0390487e-07 5.950007e-08 8.5425e-08 1.5390307e-07 1.456829e-07
1.3379714e-07 9.035353e-08 5.3859825e-08 1.1057315e-07 1.3663831e-06 2.6251216e-06 1.9780302e-06 1.6999751e-06
1.7365704e-06 1.2427154e-06 4.7618296e-06 7.298811e-07 1.38808485e-08 7.416745e-06 7.5845114e-06 6.0338925e-06
7.082645e-06 3.839237e-06 5.9022987e-06 2.621116e-06 4.0668538e-06 2.8210627e-06 3.1491593e-06 2.2394657e-08
1.4847501e-08 2.8971652e-08 2.0152699e-08 1.6933196e-08 2.9626987e-08 2.686155e-08 1.02464535e-08 2.3569891e-08
2.1801986e-08 1.5376262e-08 2.7666573e-08 3.589238e-08 3.6031282e-09 1.4997013e-08 2.6246319e-08 1.1829876e-08
2.305585e-08 3.9836564e-08 1.1030133e-09 1.0238732e-08 3.2094263e-08 7.0674635e-09 1.5886146e-08 3.8434017e-08
2.405836e-09 1.1019774e-08 3.600201e-08 4.260055e-09 1.23014e-08 3.6002007e-08 4.2600576e-09 1.2301402e-08
4.2245883e-08 1.6494939e-08 1.9554081e-08 3.386328e-08 4.4268138e-08 2.1066905e-08 1.5350398e-08 1.7476605e-08
1.2352757e-08 1.0053923e-08 3.0677544e-08 2.7245996e-08 2.1755694e-08 2.7429648e-08 2.39586e-09 2.8504474e-09
4.5966444e-09 2.4325438e-08 6.0616654e-09 2.4506848e-09 7.538727e-09 9.411831e-09 5.0854876e-09 1.7196248e-08
2.015887e-08 3.206518e-08 1.1029601e-08 4.912678e-09 1.8784409e-08 1.4037265e-08 3.8504012e-08 4.3507665e-08
4.1795523e-08 1.7990713e-08 2.008048e-08 2.9112616e-08 3.320235e-08 2.691629e-08 5.115885e-08 4.3148532e-08
3.1388566e-08 1.6088789e-08 1.3122005e-08 2.4925974e-08 4.768101e-07 5.395047e-07 6.3012016e-07 3.7106582e-07
3.6737467e-07 3.735407e-07 2.0628052e-06 1.028843e-07 2.9505607e-09 1.8743319e-06 8.610552e-07 2.0327734e-06
4.0372785e-07 1.9023156e-06 2.7003736e-07 1.2861871e-06 2.9819944e-07 6.6636767e-07 4.893158e-07 3.663706e-09
00000000: f12c b132 c137 9332 1e75 d432 283a 0433
00000010: 00c9 0233 dc88 3b33 3b1e 1133 e151 9832
00000020: 6d86 2d33 37ec d632 65b3 ee32 5c36 0833
00000030: 1b04 be32 f3b7 9532 d773 9d32 7f13 8732
00000040: b4db 8e32 151a 9432 4f44 8532 f9bf 4032
00000050: 82b2 5432 fe52 6732 cf1c 2432 2b62 6332
00000060: 1fe4 5d32 0ea2 4632 a69b b931 e923 6931
00000070: 48da 8731 8aed a931 776f 1b32 bf92 7032
00000080: 1a30 8432 a1b9 6a32 cda1 ed31 e4a1 f431
00000090: d5d7 2e32 acda 2332 7117 5132 6735 0532
000000a0: 67e6 9d31 a0a0 e831 f8e4 2332 3c5e 6932
000000b0: 7131 2f35 ea31 e134 3f1d 1a35 677f 1735
000000c0: bc5b af34 63c6 de34 b29f 5f35 fe30 4834
000000d0: c35b 3831 2dde c735 5907 ba35 0d11 a735
000000e0: fc0d b935 2b3f 3735 e5ba 9835 83c5 b934
000000f0: 1d53 7f35 ebae a734 ca3b 6535 2be8 7b31
00000100: ebc7 8431 28de c731 34b4 8531 cfa4 7b31
00000110: 5107 ba31 eca7 9c31 5ede 4831 0e11 a731
00000120: 4270 7131 7194 9031 f90d b931 914f eb31
00000130: bb8c 8f30 2a3f 3731 10d7 9731 da03 6731
00000140: e1ba 9831 d61f 0232 300e b12f 82c5 b930
00000150: 1b5b 9e31 315b 5431 1d53 7f31 b331 0732
00000160: c3b8 d52e e9ae a730 e022 b531 6111 2a31
00000170: cb3b 6531 e122 b531 6111 2a31 cb3b 6531
00000180: 3028 0234 10b5 1134 9315 e733 ef8b 2a34
00000190: 46ca 4834 2936 3434 f905 1134 c91c e733
000001a0: 28a8 1034 2b4d 2134 0330 2c34 68f4 4534
000001b0: d4a3 0934 c2e6 0734 dd2c 7133 3eef 9633
000001c0: e4e6 cd33 4375 0e34 3865 ec33 4e72 d033
000001d0: a25d be33 8831 6933 5060 d432 325c 5033
000001e0: 0d37 bf33 1228 0734 e494 9633 f05d 9d33
000001f0: ee3f cb33 707f ad33 bf60 8733 797d ce33
00000200: b19c 0934 32b7 da33 0b08 d033 4e22 df33
00000210: 058d 7f33 e472 b733 8e40 2534 036d 1c34
00000220: e1a9 0f34 6108 c233 8153 6733 3b74 ed33
00000230: 9164 b735 3f2b 3036 4dbe 0436 b32a e435
00000240: 1b14 e935 60cb a635 cec7 9f36 0ced 4335
00000250: 9e78 6e32 5bdd f836 757e fe36 be76 ca36
00000260: 75a7 ed36 cbd2 8036 5c0c c636 6ee6 2f36
00000270: 0276 8836 7d51 3d36 2556 5336 5f5e c032
00000280: 0014 7f32 56dd f832 411c ad32 7e74 9132
00000290: 6f7e fe32 2cbd e632 6108 3032 bd76 ca32
000002a0: 1347 bb32 c214 8432 70a7 ed32 1728 1a33
000002b0: e79a 7731 c8d2 8032 4474 e132 583c 4b32
000002c0: 5a0c c632 c418 2b33 d598 9730 6be6 2f32
000002d0: 04d8 0933 11d6 f231 0176 8832 a612 2533
000002e0: ea53 2531 7b51 3d32 a1a0 1a33 d75f 9231
000002f0: 2156 5332 a0a0 1a33 dd5f 9231 2356 5332
00000300: d771 3533 c1b0 8d32 e1f7 a732 1271 1133
00000310: 5521 3e33 9df6 b432 e2db 8332 761f 9632
00000320: 0038 5432 9fb9 2c32 51c2 0333 940a ea32
00000330: 47e1 ba32 6f9e eb32 6aa4 2431 9ae1 4331
00000340: 83f0 9d31 34f4 d032 f946 d031 e768 2831
00000350: ac83 0132 acb1 2132 6cbc ae31 f3b6 9332
00000360: d329 ad32 0ab8 0933 b37c 3d32 5fcc a831
00000370: 5a5b a132 8b28 7132 9c5f 2533 2fdd 3a33
00000380: aa82 3333 ff89 9a32 717d ac32 5213 fa32
00000390: 5f9a 0e33 8c35 e732 c0b9 5b33 5052 3933
000003a0: 18d0 0633 9f33 8a32 306f 6132 cc1c d632
000003b0: 48fc ff34 7bd2 1035 8725 2935 e636 c734
000003c0: 973b c534 0b8b c834 b96e 0a36 3ef1 dc33
000003d0: d0c2 4a31 8e91 fb35 4323 6735 c86a 0836
000003e0: efbf d834 1153 ff35 a7f9 9034 0da1 ac35
000003f0: 3818 a034 70e0 3235 8759 0335 99c4 7b31

exp_avg f4 [64]
-6.7193437e-06 -6.786644e-05 6.178361e-06 -4.132227e-05 5.9789934e-05 4.1661315e-05 -2.6195194e-05 1.5587639e-06
-7.083481e-05 2.4741486e-05 -6.430615e-05 6.85734e-05 -2.692071e-05 -2.1379503e-05 -1.7287688e-05 -7.4204334e-05
9.473664e-06 -4.5043216e-06 -3.5869332e-05 5.316299e-05 -1.3474896e-08 -4.651236e-06 -5.8626258e-05 -8.7607084e-05
-1.0568325e-05 4.01393e-05 2.0842797e-05 -5.1081133e-05 4.6617344e-05 -4.5241744e-05 -1.8100418e-05 -2.9151373e-05
3.8023143e-05 -1.5150717e-05 9.211259e-07 -2.9601244e-06 1.5551683e-07 4.7710935e-05 -4.0268176e-05 1.9027353e-06
-5.3242112e-11 -6.3622625e-05 -7.644634e-05 -1.5237213e-05 -7.284506e-05 3.6136345e-05 -7.0822202e-06 -5.7116567e-06
-3.0321587e-05 -6.2593385e-06 -3.715817e-05 3.4238277e-05 -3.4228273e-05 -1.5282187e-05 3.390706e-05 2.774405e-05
8.668903e-06 -6.6075256e-07 -5.4833858e-05 5.572916e-05 8.083823e-05 5.9577684e-05 -2.4089675e-05 4.877919e-05
00000000: b976 e1b6 8453 8eb8 b84f cf36 7351 2db8
00000010: f4c6 7a38 7fbd 2e38 c0bd dbb7 b836 d135
00000020: 268d 94b8 f08b cf37 1adc 86b8 10cf 8f38
00000030: c9d3 e1b7 2258 b3b7 0705 91b7 269e 9bb8
00000040: 14f1 1e37 d423 97b6 6772 16b8 53fb 5e38
00000050: 387f 67b2 d011 9cb6 77e5 75b8 b2b9 b7b8
00000060: 9c4e 31b7 3f5b 2838 91d7 ae37 f33f 56b8
00000070: fe86 4338 f4c1 3db8 5ad6 97b7 198a f4b7
00000080: 0a7b 1f38 d62f 7eb7 4a43 7735 8da6 46b6
00000090: 24fc 2634 3a1d 4838 a0e5 28b8 7d61 ff35
000000a0: 4a29 6aae 236d 85b8 d151 a0b8 55a3 7fb7
000000b0: 65c4 98b8 1b91 1738 cfa3 edb6 c2a6 bfb6
000000c0: 1d5b feb7 4f07 d2b6 48da 1bb8 129b 0f38
000000d0: 5490 0fb8 3f32 80b7 6e37 0e38 e5bb e837
000000e0: a870 1137 925e 31b5 68fd 65b8 bbbe 6938
000000f0: b287 a938 0de3 7938 2f14 cab7 4298 4c38

exp_avg_sq f4 [64]
7.871006e-09 4.130011e-08 8.7755785e-09 2.474657e-08 1.3492446e-07 5.4585588e-08 3.0498715e-08 3.3259135e-09
9.951769e-08 8.1148194e-08 3.100186e-08 1.6459678e-07 9.077046e-08 1.1071652e-07 5.7859022e-08 1.8418208e-07
5.4341887e-09 5.151924e-09 2.2882901e-07 9.838693e-08 1.4743159e-13 3.2385856e-08 4.1462616e-08 2.5644283e-07
8.646167e-08 3.9225036e-08 1.0941758e-07 1.7207488e-07 7.2375435e-08 1.2742035e-07 1.7280286e-08 7.6325136e-08
4.8821114e-08 7.526612e-08 5.2672203e-08 2.1765527e-09 6.453415e-11 8.0001044e-08 2.2469255e-08 7.6860694e-08
2.08546e-17 9.2932154e-08 2.8301676e-07 1.5450749e-07 2.0018209e-07 2.1577193e-07 1.1330131e-07 5.80315e-10
2.6113486e-08 3.3258531e-09 8.9593186e-08 1.07864864e-07 1.2906906e-07 1.0269352e-07 7.2555686e-08 7.710511e-08
8.748793e-09 9.070895e-08 1.5449427e-07 1.7376182e-08 1.02850755e-07 1.0307476e-07 1.375985e-07 1.0503256e-07
00000000: 0d39 0732 f461 3133 67c3 1632 4892 d432
00000010: c1df 1034 7d71 6a33 b1fd 0233 178e 6431
00000020: 6eb6 d533 b143 ae33 e826 0533 05bc 3034
00000030: 97ed c233 0dc3 ed33 ab80 7833 96c3 4534
00000040: a1b7 ba31 ce04 b131 0ab4 7534 c948 d333
00000050: 43fe 252a a018 0b33 a114 3233 3cad 8934
00000060: ceac b933 6278 2833 f3f8 ea33 95c3 3834
00000070: d16c 9b33 0ad1 0834 c06f 9432 30e8 a333
00000080: 62af 5133 fda1 a133 b339 6233 5292 1531
00000090: 7fe9 8d2e 0acd ab33 6a02 c132 9d0e a533
000000a0: 8859 c023 fe91 c733 87f1 9734 b2e6 2534
000000b0: a2f1 5634 f0ae 6734 0e50 f333 0a84 1f30
000000c0: 2a50 e032 078d 6431 6066 c033 56a3 e733
000000d0: 3c96 0a34 5c88 dc33 e9cf 9b33 fc94 a533
000000e0: 994d 1632 c6cb c233 10e3 2534 a142 9532
000000f0: cdde dc33 f359 dd33 cabe 1334 438e e133
